ER_200spin/eco/network/network4000000.pth (torch, 238273 bytes, 11 tensors)

node_init_embedding_layer.0.weight f4 [64, 7]
0	0xba81f78f	-0.0009915697
1	0xbe7481a9	-0.23877586
2	0xbdc347e1	-0.09535194
3	0x3d36b340	0.04460454
4	0x3b4efb3b	0.003158285
5	0xbca8c3ce	-0.02060118
6	0x3d3f2070	0.046661794
7	0xbaaaf17b	-0.0013041937
8	0xbe39f574	-0.18160039
9	0xbcd9d540	-0.026590943
10	0x3e0dd7fe	0.13851926
11	0xbc9010f2	-0.017586205
12	0x3da4829c	0.08032724
13	0x3d209169	0.039201174
14	0xb9e14ec9	-0.00042974044
15	0x3eb7e54d	0.3591713
16	0xbc6d8af6	-0.014498463
17	0xbd976b93	-0.07393565
18	0x3a99674e	0.0011703761
19	0x3c6b5058	0.014362417
20	0x3ca9aef6	0.02071331
21	0xbaec9eb7	-0.0018052672
22	0x3ebbc7b7	0.36675808
23	0x3c8865e1	0.016650142
24	0xbd4ab855	-0.0494922
25	0x3afc2881	0.0019238145
26	0x3c7bd281	0.015370012
27	0xbbfb8956	-0.007676284
28	0xbbc981b0	-0.006149493
29	0xbb7f7c43	-0.0038983978
30	0xbc218543	-0.009858432
31	0xbc35e581	-0.011102081
32	0xbc314120	-0.01081875
33	0xbb77b1a6	-0.0037795096
34	0xbc79626c	-0.0152212195
35	0xbc35ae95	-0.011088987
36	0xbb6c9fdf	-0.0036106033
37	0xbb03d05f	-0.0020113213
38	0xbb2f15e3	-0.0026715926
39	0xbc590bb4	-0.013247419
40	0xbc86b072	-0.016441558
41	0xbbae427d	-0.0053179846
42	0x3c5e9bad	0.013586921
43	0x3ed6a8c6	0.4192564
44	0x3c953de5	0.01821799
45	0xbe5b3e44	-0.21410471
46	0xba351f3e	-0.00069092575
47	0xbcc5e50c	-0.02415707
48	0x3ce93efd	0.028472418
49	0x3b7e162c	0.003877054
50	0xbe3ed58e	-0.18636152
51	0xbefc7a4e	-0.4931206
52	0x3e6a7281	0.22895242
53	0x3a3f5549	0.000729878
54	0x3dd1a559	0.10236616
55	0x3c9e4720	0.019321024
56	0x3c6808e0	0.014162272
57	0xbe9141c4	-0.28370488
58	0x3d6ae3e9	0.05734626
59	0x3e2326da	0.1593279
60	0xbb8d8f63	-0.0043200715
61	0x3d1a79a1	0.03771365
62	0x3d72b53c	0.05925487
63	0x3b9e0b77	0.004823144
64	0x3ebf0114	0.3730551
65	0x3d289ca1	0.041164998
66	0xbc9d94df	-0.019236026
67	0xbc5c20a9	-0.013435521
68	0x3c818a1d	0.015812928
69	0x3c51db0d	0.012808573
70	0xbcb0f6db	-0.021602085
71	0x3ea9b124	0.3314296
72	0x3cc5d09a	0.02414732
73	0x3d87c5e2	0.0662954
74	0x3b668486	0.0035174205
75	0x3c3e74a3	0.011624488
76	0xbd487a2f	-0.04894465
77	0xbcfffac4	-0.031247504
78	0x3ea7ba8c	0.3275951
79	0xbe1997f2	-0.14999369
80	0x3dccff04	0.10009578
81	0xbacc4361	-0.0015584045
82	0xbc253a75	-0.010084738
83	0xbe57f32d	-0.21088858
84	0x3c86793d	0.016415233
85	0x3ed0e4d1	0.40799573
86	0xba8a529a	-0.0010553182
87	0xbe0a23dd	-0.13490243
88	0x393ef9aa	0.00018212819
89	0x3ceb23c0	0.02870357
90	0x3c9bf5eb	0.019038161
91	0x3c082d39	0.008311563
92	0xbe8e014e	-0.2773537
93	0x3baafb85	0.0052179717
94	0x3de87188	0.11349779
95	0x3c014bb2	0.007891582
96	0xbc8ce235	-0.017197708
97	0x3d77ea17	0.06052598
98	0x3c527250	0.012844637
99	0xbe8a6920	-0.2703333
100	0x3c3ba764	0.011453483
101	0x3de0f55b	0.10984298
102	0xbaa2e7ad	-0.0012428664
103	0x37e68eb0	2.748458e-05
104	0x3d8eb04e	0.06967221
105	0x3c4bd8c5	0.012441819
106	0x3af7d54d	0.0018908173
107	0xbdfa1f18	-0.12212962
108	0x3e0800c4	0.13281542
109	0xbb455f91	-0.0030116776
110	0x3bf1fd49	0.0073849303
111	0xbe2de9bf	-0.16983698
112	0x3c2dcfb9	0.010608607
113	0xbe508491	-0.2036307
114	0xbd0a6613	-0.03378875
115	0x3e34b805	0.17648323
116	0xbc0b86b7	-0.008516005
117	0x3d97614a	0.07391603
118	0x3d4216ce	0.04738503
119	0xbcb8f456	-0.022577446
120	0x3eab5a22	0.33467203
121	0x3c3d872a	0.01156787
122	0x3c195bc7	0.00936026
123	0xbbaf000b	-0.0053405813
124	0x3c92f4c2	0.017938975
125	0x3b626baa	0.0034549036
126	0x3cc3b8c3	0.023891812
127	0xbeab49c4	-0.33454716
128	0x3c19cd72	0.009387361
129	0x3e0ac9bc	0.13553518
130	0x3c063136	0.008190444
131	0x3c01b96a	0.007917741
132	0x3da15ca5	0.07878999
133	0xbc905495	-0.017618457
134	0x3e8b2ed3	0.27184162
135	0x3d69bc23	0.057064187
136	0x3d8042f3	0.062627696
137	0xbb57a5af	-0.0032905152
138	0xbb5f4cea	-0.0034072944
139	0x3be70891	0.0070505817
140	0x3c5a44ca	0.013322065
141	0x3ed9784a	0.42474586
142	0x3d3927bd	0.045203913
143	0xbd84f005	-0.064910926
144	0xba8b03b6	-0.0010605964
145	0x3cdee19e	0.027207192
146	0x3c7b6d39	0.015345865
147	0x3cae1dc8	0.021254435
148	0xbea4636d	-0.32107106
149	0x3d01b1ca	0.031663693
150	0x3e0f39ca	0.13986889
151	0x3bb8e630	0.005642675
152	0x3c60a6ca	0.013711641
153	0x3d8b4b57	0.06801479
154	0x3957274e	0.0002051864
155	0xbe359ede	-0.17736384
156	0x3daeb5ca	0.08530767
157	0x3e4cb7af	0.19991945
158	0xbcc96f66	-0.024589252
159	0x3d883941	0.06651545
160	0xbcb798bd	-0.022411698
161	0xbbda1996	-0.006655882
162	0xbe49722c	-0.1967246
163	0x3dbbe8c5	0.09175257
164	0x3cdd4840	0.02701199
165	0xbb15a052	-0.0022831154
166	0xbb2db2a3	-0.002650418
167	0x3d902f6b	0.07040294
168	0x3b7d80a2	0.0038681407
169	0xbe61eb79	-0.22062482
170	0x3d49ca3a	0.049265124
171	0x3ec494a2	0.38394648
172	0x3b2528ef	0.00252014
173	0x3d994b43	0.07485058
174	0x3c22ed8b	0.00994433
175	0xbc40885d	-0.011751262
176	0x3eb21d41	0.34787944
177	0x3bd5e856	0.0065279407
178	0xba9ff735	-0.0012204411
179	0x3c166dca	0.009181449
180	0x3d06719b	0.032823186
181	0xbd2750eb	-0.040848654
182	0x3b22c45e	0.0024836282
183	0x3ed48e63	0.41514882
184	0x3d354c92	0.044262476
185	0xbb9aee2e	-0.0047281003
186	0xba84d6de	-0.0010134836
187	0x3d29ff85	0.041503448
188	0x3cb69585	0.022288093
189	0xbb020dd5	-0.001984467
190	0x3b4a300a	0.0030851387
191	0x3a8fa26c	0.001095844
192	0xbc1a8f5b	-0.009433593
193	0xbbb782cb	-0.0056003085
194	0xbb8eda4b	-0.0043595186
195	0xbc28bf61	-0.010299535
196	0x3c779b52	0.015112715
197	0x3ebd64cb	0.3699096
198	0x3c40a78d	0.011758697
199	0xbd80b377	-0.0628423
200	0x3b39a689	0.0028328022
201	0x3cd3c21a	0.02584939
202	0xbc43396e	-0.011915548
203	0x3c80ca21	0.015721383
204	0xbea716ff	-0.32634732
205	0x3c2cbefa	0.010543579
206	0x3dfa3f65	0.12219123
207	0xba930a01	-0.0011218191
208	0x3d07ac68	0.033123404
209	0x3d3bf133	0.045884322
210	0x3bc3c5e8	0.00597452
211	0xbe520b17	-0.20512043
212	0xbc36968c	-0.011144292
213	0xbe43da0b	-0.19126146
214	0xbbac01e5	-0.0052492493
215	0x3dd03af6	0.10167496
216	0xbb9a93dc	-0.0047173332
217	0xbc1a7e22	-0.0094294865
218	0xbe6f441a	-0.23365822
219	0x3ce7d596	0.028300088
220	0x3dceeaf6	0.10103409
221	0xba94fd17	-0.001136693
222	0xbc981821	-0.018566193
223	0x3d03f10a	0.032212295
224	0xbb2121a7	-0.0024586709
225	0x3c2c28d0	0.010507777
226	0xbb7e8fae	-0.0038842964
227	0xbc919d5c	-0.01777523
228	0xbb82edb8	-0.0039956234
229	0xbc046de9	-0.008082845
230	0xbae9461c	-0.0017797383
231	0x3cd8e6b3	0.026477193
232	0x3df48502	0.11939432
233	0xbe9c1478	-0.30484366
234	0x3d2f5aaa	0.042811073
235	0xbaba7b18	-0.0014227359
236	0x3c060848	0.008180685
237	0xbea92139	-0.3303316
238	0x3c3c47b8	0.011491708
239	0x3ec5b191	0.38612035
240	0x3bc6f757	0.0060719657
241	0xbd3bf2cd	-0.04588585
242	0x3aceaea6	0.0015768602
243	0x3d31d29e	0.04341375
244	0x3bd9248c	0.006626671
245	0xbb445647	-0.0029958652
246	0x3b926890	0.004468031
247	0xbc35c51a	-0.011094356
248	0xbc3e6e0f	-0.01162292
249	0xbc364a1e	-0.011126069
250	0xbbcee017	-0.0063133347
251	0xbad7b7f7	-0.0016458024
252	0x3c0b9deb	0.008521537
253	0xbe3f3ceb	-0.18675582
254	0xbda3b01f	-0.07992577
255	0x3dc1daf4	0.0946559

edge_embedding_layer.edge_embedding_NN.weight f4 [63, 8]
0	0x3cd5b2a2	0.026086155
1	0x3ce1d143	0.027565604
2	0x3e896fed	0.26843205
3	0xbd3a4969	-0.045480166
4	0xbb8ce5ff	-0.0042998786
5	0xbd0dee10	-0.034650862
6	0xbc87ab1c	-0.016561083
7	0xbd80adc2	-0.06283142
8	0xbc2291da	-0.009922469
9	0xbc308984	-0.010774974
10	0xbb8d67a7	-0.004315335
11	0xbb161a0b	-0.0022903706
12	0x3c12afd5	0.008953054
13	0xbcb5f926	-0.02221353
14	0xbc79e019	-0.015251183
15	0x3c0472b8	0.008083992
16	0x3cc0325c	0.023461513
17	0x3c964002	0.018341068
18	0x3e777d38	0.24168861
19	0xbd496d80	-0.049176693
20	0xbc2a60ee	-0.010399086
21	0xbd036bd1	-0.032085244
22	0xbc191050	-0.009342268
23	0xbd3a99b5	-0.045556743
24	0x3d450661	0.048101787
25	0x3d30901f	0.043106195
26	0x3e75191d	0.23935361
27	0xbde42b6f	-0.11141097
28	0xbcb2188f	-0.021740226
29	0x3a293b19	0.00064556446
30	0x3d327c04	0.0435753
31	0xbdaaaf45	-0.08334211
32	0xbc765733	-0.015035438
33	0xbbdcdea1	-0.0067404066
34	0x3c7c1de9	0.0153879905
35	0xbc711abd	-0.014715848
36	0xbc20fc8f	-0.00982584
37	0xbac778db	-0.0015218513
38	0xbab5c1b9	-0.0013866938
39	0xbb08a058	-0.0020847525
40	0xbc2a87bb	-0.010408337
41	0xba1a6be9	-0.00058907137
42	0x3b21fb4a	0.002471643
43	0xbb89685c	-0.004193349
44	0x3b376976	0.0027986444
45	0xbc5eb404	-0.013592724
46	0x3c3dafbd	0.011577544
47	0x3b304c3d	0.002690091
48	0xbbe6781e	-0.007033362
49	0xbcbe9d14	-0.02326826
50	0xbe02c567	-0.12770616
51	0x3de173d7	0.11008423
52	0x3dadacb8	0.08480209
53	0xbbebf96b	-0.007201364
54	0xbde6ba6c	-0.11266026
55	0x3da223a6	0.07916956
56	0xbb9dc5b1	-0.0048148264
57	0x3c21bc87	0.009871609
58	0xbe31983c	-0.17343229
59	0x3e11f7d0	0.14254689
60	0x3dab96b4	0.08378354
61	0x3c32388b	0.010877739
62	0xbc06a5b3	-0.008218217
63	0x3df08199	0.11743469
64	0xbb1020d8	-0.0021992233
65	0xbdbc6966	-0.09199791
66	0xbe2abf5b	-0.16674559
67	0x3db61b14	0.088918835
68	0x3de82adf	0.11336302
69	0xbbd82fb8	-0.0065974854
70	0xbc26338a	-0.010144124
71	0x3d9e5bd1	0.07732356
72	0xbbb0e360	-0.005398199
73	0xbd3efd4e	-0.04662829
74	0xbe0d6d18	-0.13811147
75	0x3dd1bc4c	0.10240993
76	0x3d4d0fbb	0.05006383
77	0x3c0d2f95	0.0086173015
78	0xbddbb3d0	-0.10727656
79	0x3dc85a5c	0.0978286
80	0xbc301f03	-0.010749581
81	0x3c5bbe4b	0.013412069
82	0xbe204f55	-0.15655263
83	0x3dfd0556	0.123545334
84	0x3daf01c6	0.0854526
85	0x3b72480c	0.0036969213
86	0xbbd1f490	-0.006407328
87	0x3dd7c6e4	0.10535982
88	0xba078721	-0.0005169977
89	0xba95eb46	-0.0011437915
90	0xbacf199f	-0.0015800482
91	0xbc3ed8e9	-0.011648395
92	0xbc0960e9	-0.008384922
93	0xbc9bb220	-0.019005835
94	0xbcadfc9e	-0.021238621
95	0xbb4d5313	-0.0031330034
96	0xbc3d3d7d	-0.0115503045
97	0xbbd385ff	-0.0064551826
98	0xbc9a3f36	-0.01882897
99	0x3c0faaa3	0.00876871
100	0xbb3b6b8e	-0.0028598043
101	0xbc5799c0	-0.013159215
102	0x3ac1894b	0.0014765648
103	0xbb4f4064	-0.0031624073
104	0x3d5fea59	0.05466685
105	0x3cc9204a	0.02455153
106	0x3e67370f	0.22579597
107	0xbdd01780	-0.10160732
108	0xbc0e3d86	-0.0086816605
109	0x3a3b8357	0.0007153055
110	0x3d3c4736	0.04596635
111	0xbde63dfd	-0.11242292
112	0xbc131c5d	-0.00897893
113	0xbc2c1846	-0.010503834
114	0xbe175d57	-0.147817
115	0x3dc21067	0.09475785
116	0x3d64493a	0.055733897
117	0x3c43f9bf	0.0119614
118	0xbe9d630b	-0.30739626
119	0x3db525fe	0.08845137
120	0x3d875fb6	0.06610052
121	0x3d4d308b	0.050095122
122	0x3e5efc44	0.21775919
123	0xbdda61be	-0.10663174
124	0xbd357d85	-0.044309158
125	0x3a923ffc	0.0011157985
126	0x3d58ca2f	0.052927192
127	0xbdbef068	-0.093231976
128	0xbbeb0e47	-0.007173333
129	0xbb2b13d7	-0.0026104355
130	0xbe1796bd	-0.14803596
131	0x3dfd63c4	0.123725444
132	0x3db69f4d	0.08917103
133	0xb9c4024c	-0.00037385745
134	0xbba1ec8a	-0.0049415277
135	0x3daf047e	0.08545779
136	0x3d253960	0.04033792
137	0x3c38c08e	0.011276377
138	0x3e85576b	0.26043257
139	0xbd94c399	-0.0726387
140	0x3d2980fb	0.04138277
141	0x39264125	0.00015855262
142	0x3ca40efd	0.020026678
143	0xbd8722e9	-0.065984555
144	0x3d609520	0.054829717
145	0x3be5e06a	0.0070152776
146	0x3e68f63c	0.22750181
147	0xbdca3826	-0.09873991
148	0x3c209549	0.009801217
149	0x3ab016f9	0.0013434581
150	0x3d1683e8	0.03674689
151	0xbdee3678	-0.11631483
152	0x3b6e3aa2	0.0036350866
153	0xbaac973b	-0.0013167629
154	0xbe00a89b	-0.12564318
155	0x3dd1ca11	0.10243619
156	0x3dd5b04a	0.10434015
157	0x3a795b90	0.000951224
158	0xbd80846f	-0.0627526
159	0x3dc39cdd	0.09551404
160	0xbabd41d8	-0.0014439179
161	0xbc205429	-0.00978569
162	0x3b1d0c6d	0.0023963705
163	0x3aa9ed3d	0.0012964379
164	0xbaa46acd	-0.0012544036
165	0xb9275185	-0.0001595673
166	0xbbe7546f	-0.007059626
167	0xbc163b4d	-0.009169412
168	0xbb28f7da	-0.0025782497
169	0xba078c03	-0.00051707047
170	0xbe19a52c	-0.15004414
171	0x3de27efb	0.11059376
172	0x3de4742f	0.11154973
173	0xbb904be5	-0.0044035786
174	0xbc3073ea	-0.010769824
175	0x3dce4760	0.100722075
176	0x3d56f72e	0.052481823
177	0x3d60ec5b	0.054912906
178	0x3e735977	0.23764597
179	0xbdf485dd	-0.11939595
180	0xbb0ec55b	-0.0021785113
181	0x391910c4	0.00014597463
182	0x3d5c8d54	0.05384572
183	0xbda0dc17	-0.07854479
184	0xbac274e0	-0.0014835857
185	0xba8e844b	-0.0010873167
186	0x39d1eda0	0.0004004063
187	0x3b001626	0.0019544451
188	0xbc923157	-0.017845793
189	0xbbb0dbb9	-0.0053972867
190	0xbb3423de	-0.0027487199
191	0xbb7c7255	-0.0038520296
192	0x3d8aae41	0.067715175
193	0x3d1f2bc7	0.03886011
194	0x3e70666a	0.23476568
195	0xbe10678f	-0.14102004
196	0xbd3b64a2	-0.045750268
197	0x3bb0cd1a	0.0053955438
198	0x3d15f64a	0.036611833
199	0xbdc47fbb	-0.09594675
200	0x3ce9c0d3	0.028534329
201	0xbb1c7202	-0.0023871665
202	0x3e887358	0.266505
203	0xbe7cd29d	-0.24689718
204	0x3cadc91f	0.021214066
205	0xbbc16050	-0.005901374
206	0x3c6a2748	0.014291592
207	0xbe609f89	-0.21935858
208	0xbc8cf493	-0.017206466
209	0xbb869305	-0.0041068816
210	0xbe0f133d	-0.13972183
211	0x3de9c0e7	0.11413746
212	0x3d461f2f	0.048369583
213	0x3bf77281	0.0075514917
214	0xbe99b87e	-0.3002357
215	0x3dbce502	0.09223367
216	0x3d555558	0.052083343
217	0x3c875df6	0.016524296
218	0x3e6b233a	0.22962657
219	0xbdf00357	-0.11719387
220	0x3d612bb9	0.054973338
221	0xbaf49b58	-0.0018662019
222	0x3d0a26d3	0.033728432
223	0xbdbded8e	-0.092738256
224	0xbc72cea2	-0.014819773
225	0xbc72e95d	-0.014826146
226	0xbc8821f8	-0.01661776
227	0xbc7a36e5	-0.015271877
228	0xbbf97fbc	-0.007614104
229	0xbc45d3ce	-0.012074424
230	0xbc541806	-0.012945181
231	0xbc2c6b4a	-0.010523627
232	0xbaf81c4d	-0.0018929333
233	0xbcddd40f	-0.027078656
234	0xbde4b8a3	-0.11168029
235	0x3df4be21	0.11950327
236	0x3db036e7	0.08604222
237	0x3bc39219	0.005968344
238	0xbe45d625	-0.19319971
239	0x3dba9cc8	0.09111935
240	0x3d2a7f39	0.041625235
241	0x3d5055db	0.05086313
242	0x3e6b8606	0.23000345
243	0xbdfe9998	-0.124316394
244	0xbcae99d9	-0.021313595
245	0x398a8937	0.00026423644
246	0x3d4bf82a	0.049797215
247	0xbd8de70c	-0.06928834
248	0x3d13021a	0.035890676
249	0xbbb78181	-0.005600155
250	0x3ea357f8	0.31903052
251	0xbe5ab972	-0.21359804
252	0x3cdab307	0.026696695
253	0xbb08299a	-0.002077675
254	0x3c1e322d	0.0096555175
255	0xbe62c4e9	-0.22145428

edge_embedding_layer.edge_feature_NN.weight f4 [64, 64]
0	0x3d45dfd1	0.04830915
1	0x3bdaa9ff	0.006673097
2	0x3d337952	0.043816872
3	0x3d6c7f12	0.05773837
4	0x3c229df9	0.009925359
5	0x3c06994c	0.00821526
6	0xbcdad3b4	-0.026712276
7	0xbd728d19	-0.059216592
8	0xbcfdb678	-0.030970797
9	0xbce3b5c1	-0.027796628
10	0xbd21cbd0	-0.03950101
11	0x3aa17491	0.0012318065
12	0xbbb9a833	-0.005665803
13	0x3d963f51	0.073362954
14	0xbd497254	-0.049181297
15	0x3d747166	0.059678458
16	0xbd00d543	-0.031453382
17	0x3cfe5b49	0.031049388
18	0x3d0fbb8a	0.03509096
19	0xbc421c40	-0.011847556
20	0x38e5ccfb	0.000109577515
21	0xbd12eb9c	-0.035869226
22	0x3d28ad52	0.041180916
23	0x3b299970	0.002587881
24	0x3d28da97	0.04122409
25	0x3e00a297	0.12562023
26	0xbd8bc23d	-0.068241574
27	0x3d08cff6	0.033401452
28	0xbb0ea57f	-0.0021766124
29	0xbd6d2c4a	-0.057903565
30	0x3d35e827	0.04441085
31	0x3e024cc6	0.12724599
32	0xbd2a4973	-0.041573953
33	0xbd208842	-0.039192446
34	0x3d92f496	0.07175557
35	0xbb5818d7	-0.003297379
36	0x3d3385e4	0.04382886
37	0xbd146ec4	-0.036238447
38	0xbd492a60	-0.049112678
39	0x3d7769ff	0.06040382
40	0xbd29cce2	-0.041455157
41	0x3d63d4a7	0.055622723
42	0x3ca445ee	0.020052876
43	0x3d8d7dc8	0.069087565
44	0x3b5e7067	0.0033941509
45	0xbd0349a1	-0.03205264
46	0xbd21b966	-0.03948345
47	0xbb132378	-0.002245156
48	0x3b0960f6	0.0020962334
49	0xbd4b13cc	-0.049579427
50	0x3c8e4d97	0.017370982
51	0xbc29b62f	-0.010358377
52	0x3cc50e7b	0.024054756
53	0x3c54a5f9	0.012979024
54	0xbd4acfc1	-0.049514536
55	0x3cfac160	0.030609787
56	0x3d9409ba	0.07228418
57	0x3df2276e	0.11823927
58	0x3c182ddc	0.0092882775
59	0x3c9b16f1	0.018931838
60	0x3d87b3a5	0.06626061
61	0x3da85a05	0.08220295
62	0x3cc7db85	0.024396667
63	0x3d58dca8	0.05294481
64	0xbc303ff4	-0.010757435
65	0xbc05461d	-0.008134392
66	0x3acbe4e5	0.0015555887
67	0x3c06c60e	0.008225931
68	0x3afbc13b	0.0019207367
69	0x3b0dc229	0.002163062
70	0x3bf8190b	0.0075713447
71	0x3c337d69	0.010955193
72	0xbbf16fc0	-0.007368058
73	0xbbc3e7bd	-0.005978553
74	0xbc2529b4	-0.010080744
75	0x3a0b30f0	0.00053097215
76	0x3c61c0a9	0.013778844
77	0x3bcc8d7b	0.0062424517
78	0x3b9f911a	0.0048695924
79	0xbc645e79	-0.01393854
80	0x3ab47b46	0.0013769649
81	0x3bfcbd0f	0.007712967
82	0x3c04536f	0.008076533
83	0xbafd8b29	-0.0019343841
84	0xbc1671cf	-0.0091824075
85	0xbc1403b8	-0.00903409
86	0xbb964366	-0.0045856712
87	0xbcca8800	-0.024723053
88	0x3bf85e2f	0.007579587
89	0x3c4ed60e	0.012624277
90	0xbbc5f24e	-0.006040848
91	0xbb3c7db2	-0.0028761444
92	0x3c4cccdb	0.012500013
93	0xbc9edcef	-0.019392459
94	0x3bbfb2ea	0.0058501856
95	0x3b97d3f0	0.004633419
96	0xb86cf069	-5.6490684e-05
97	0xbc7fc71e	-0.015611438
98	0xbc2defb4	-0.010616232
99	0xbb45fb0a	-0.0030209445
100	0xbcbaf724	-0.022822924
101	0x3b9752c7	0.004618022
102	0xbbac1fcd	-0.0052528144
103	0x3c1577d6	0.009122809
104	0x3b1de5fe	0.0024093385
105	0x3c5081b3	0.012726235
106	0x3bc7859c	0.0060889255
107	0x3ba31bb7	0.004977669
108	0xbb22c8db	-0.0024838957
109	0xbc4a5853	-0.01235016
110	0xba183dd0	-0.00058075506
111	0x3c88aab7	0.016682966
112	0x3c5be4bb	0.013421233
113	0x3a4147f3	0.0007373087
114	0x3bb4e0f0	0.0055199787
115	0x3b6370ea	0.0034704753
116	0xbcc0dd45	-0.02354301
117	0xbc486df4	-0.012233246
118	0x3b85bdde	0.004081472
119	0xbc9396b4	-0.018016197
120	0xbc0d2da8	-0.008616842
121	0xbbdc8050	-0.006729163
122	0xbbaee179	-0.005336937
123	0x3a03acbd	0.00050229934
124	0x3ba8e8be	0.005154698
125	0xbb335d6f	-0.0027368923
126	0x3c135311	0.008991973
127	0xbce6a52f	-0.028154938
128	0xba85be34	-0.001020378
129	0xbbd022fb	-0.0063518262
130	0x3ccdc0a5	0.025116274
131	0xbc1f5599	-0.009724998
132	0xbc3e3d2e	-0.011611266
133	0xbb84ebc2	-0.004056425
134	0x3d28a339	0.041171286
135	0x3c6d494d	0.014482808
136	0x3d56e2d0	0.0524624
137	0x3c3ccb10	0.011523023
138	0x3c3e76c7	0.011624998
139	0x3b10207a	0.0021992014
140	0xbafb33f0	-0.0019165259
141	0xbd21be26	-0.03948798
142	0x3b780d5a	0.0037849755
143	0xbd099003	-0.033584606
144	0xba10b664	-0.00055203424
145	0xbd18f379	-0.03734157
146	0xbd5d5d71	-0.05404419
147	0x3c9a2d3f	0.018820403
148	0xbcc653fd	-0.02420997
149	0x3c929d8f	0.017897395
150	0xbcbd2dbd	-0.023093099
151	0x3b86e627	0.0041167918
152	0xbca24211	-0.019806894
153	0xbdf231fd	-0.11825941
154	0x3cab5e52	0.020918999
155	0xbdba6c64	-0.09102705
156	0xbbf69535	-0.007525111
157	0x3c799245	0.015232627
158	0xbc3fc264	-0.011704061
159	0xbe0da6ff	-0.13833235
160	0x3cee5630	0.029093832
161	0x3ceabca5	0.028654406
162	0xbca30a08	-0.019902244
163	0x3d1c9eb5	0.038237292
164	0xbc4bd4a3	-0.012440833
165	0x3cf8ec2b	0.030386051
166	0x3c64ca38	0.013964228
167	0xbd3606b0	-0.04443997
168	0x3d257223	0.040392052
169	0xbcf30124	-0.02966363
170	0xbd2758d5	-0.0408562
171	0xbcc167d1	-0.023609074
172	0xbb48607b	-0.0030575085
173	0x3d2af332	0.041735835
174	0x3d36a7f0	0.04459375
175	0x3c384fd8	0.011249505
176	0xbc58d26b	-0.013233761
177	0x3ccc930b	0.02497246
178	0xb90d89bd	-0.0001349812
179	0x3c36160b	0.011113654
180	0xbca6c513	-0.020357644
181	0x3acd6703	0.0015670959
182	0x3d1294df	0.035786506
183	0xbda22db0	-0.079188704
184	0xbd90be04	-0.070674926
185	0xbe2354fa	-0.15950385
186	0x3b9e3c1b	0.0048289425
187	0x3c122e43	0.0089221625
188	0xbccd5843	-0.0250665
189	0xbcb10c04	-0.021612175
190	0xbd7042a1	-0.058657292
191	0xbc8d549a	-0.017252255
192	0xbc64669c	-0.01394048
193	0xbbe11e57	-0.006870072
194	0xbc1844c6	-0.009293741
195	0x3c0bc6d4	0.008531291
196	0x3b5b1fe5	0.0033435759
197	0xbc06ab8d	-0.008219612
198	0xbc22d12a	-0.009937564
199	0x35f1eb25	1.8024335e-06
200	0x3bd59b52	0.0065187598
201	0xbacde4c1	-0.0015708433
202	0x3c0ae14f	0.008476569
203	0xbbf11adc	-0.007357938
204	0xbb971dd7	-0.0046117115
205	0x3b13a07e	0.002252608
206	0xbc10207d	-0.008796808
207	0xbb18d0e3	-0.0023317866
208	0xbc8ee465	-0.017442891
209	0x3bc7cc73	0.0060973703
210	0xbc816c24	-0.015798636
211	0xbba69a27	-0.0050842944
212	0x3b87c0a2	0.0041428367
213	0xbb974283	-0.004616083
214	0xb88678ba	-6.412105e-05
215	0xbb1cd23a	-0.0023929016
216	0x3b24f554	0.002517064
217	0xbc288a92	-0.010286944
218	0xbb48f6d8	-0.0030664708
219	0x3c013fed	0.007888776
220	0x3c3181f8	0.01083421
221	0xba960320	-0.0011445023
222	0xbb307756	-0.0026926599
223	0xba8412e0	-0.0010076426
224	0xbc858e08	-0.016303077
225	0x3bea81c1	0.007156581
226	0x3a88d0fb	0.0010438258
227	0x39478a4a	0.00019029636
228	0x3a6bbbd8	0.00089925295
229	0xbbb77335	-0.0055984505
230	0xbbb8831d	-0.0056308643
231	0x390ac7cf	0.0001323514
232	0xbbb30f06	-0.0054644374
233	0xbb89bf46	-0.00420371
234	0x390305e2	0.00012495325
235	0xb95c5f24	-0.00021016278
236	0x3c8fa7c0	0.017536044
237	0x3c8b199f	0.01697999
238	0xbc5d5942	-0.01351005
239	0x3bbb3935	0.0057136067
240	0xba249bc1	-0.00062793127
241	0xb9a491a7	-0.00031389037
242	0x3b473395	0.0030395736
243	0xbc5a2fdb	-0.013317074
244	0xba1649a6	-0.00057330204
245	0x3bb355bd	0.0054728673
246	0xbacdc1cb	-0.0015698014
247	0xbbfbfa05	-0.0076897168
248	0x3c57cca2	0.013171347
249	0xbc5dbc3b	-0.013533647
250	0xb9bc8578	-0.00035957596
251	0xba22f04f	-0.00062156183
252	0xbb065416	-0.0020496896
253	0xbc0deb9f	-0.0086621335
254	0x3bd47b37	0.006484415
255	0xbb9e6e9d	-0.0048349635

update_node_embedding_layer.0.message_layer.weight f4 [64, 128]
0	0xbc82d053	-0.015968477
1	0x3ba01fed	0.0048866183
2	0xbc67072d	-0.014100832
3	0xbb8a4754	-0.0042199288
4	0xbc92801a	-0.01788335
5	0x3c3a54a3	0.011372718
6	0x3bfd2931	0.0077258577
7	0x3bdcda41	0.006739885
8	0xbbae5447	-0.0053201052
9	0xbc9c8d65	-0.01911039
10	0x3c1b5cac	0.009482544
11	0xbc905a9c	-0.01762133
12	0xbc88d541	-0.01670325
13	0xbc2b87b9	-0.0104693705
14	0x3bb7c160	0.005607769
15	0x3b10189f	0.0021987332
16	0xbc59f6ae	-0.013303442
17	0xbb73953f	-0.0037167815
18	0xb9a5e5f6	-0.00031642587
19	0x3c08037d	0.008301613
20	0xbc40843b	-0.011750276
21	0xbcb57e38	-0.022154912
22	0xbc0b345d	-0.008496371
23	0xbc0e577d	-0.008687851
24	0x3ca6e2cc	0.020371817
25	0x3c4b2819	0.012399697
26	0xbb9a9908	-0.00471795
27	0xbb855148	-0.0040685274
28	0xbbc5af98	-0.0060328953
29	0xbc812ecf	-0.01576939
30	0xbc0d20ff	-0.008613824
31	0x3c7109d5	0.014711817
32	0xbaf72e49	-0.0018858399
33	0x3c3a66d3	0.011377054
34	0x3b7578e3	0.0037456087
35	0xbba1efb0	-0.004941903
36	0xbb661ef2	-0.003511366
37	0xbb9c9303	-0.0047782674
38	0xbc9c59e0	-0.019085824
39	0xbc1bb4de	-0.009503571
40	0xbbb2d960	-0.005458042
41	0x3b9f3470	0.004858546
42	0xbc86d348	-0.016458169
43	0xbc4883b1	-0.012238429
44	0x3b732be2	0.0037105014
45	0x3c1dfd00	0.009642839
46	0xbc429fce	-0.011878921
47	0xb714f500	-8.878531e-06
48	0xbc234eeb	-0.009967546
49	0x3c4dfbf9	0.012572282
50	0xbadbb40f	-0.0016762036
51	0xbbb05c0e	-0.0053820675
52	0x3b413148	0.0029478837
53	0x3b81be1a	0.0039594295
54	0xbc9b4560	-0.018953979
55	0x3c60e2f8	0.013725989
56	0xbbede422	-0.0072598616
57	0xbbe025a2	-0.0068404237
58	0xbc18445e	-0.009293644
59	0xbb0c9c0b	-0.0021455314
60	0x3b120778	0.0022282284
61	0x3cb0828f	0.02154663
62	0x3c023bdf	0.007948845
63	0xbb1bffe5	-0.0023803648
64	0xbbce0970	-0.006287746
65	0xbb1f3f76	-0.00242993
66	0x3c2bc9a9	0.010485091
67	0xbc4a63bd	-0.012352881
68	0xba8a72ca	-0.0010562774
69	0xba2d4be5	-0.00066107354
70	0xbc697fcb	-0.01425166
71	0x3bfa5240	0.0076391995
72	0xbc11708e	-0.008876933
73	0xbb00e923	-0.001967021
74	0xbbb851e1	-0.005624995
75	0x3c60e5df	0.013726681
76	0xbb8e7eec	-0.0043486264
77	0x3b8eb015	0.0043544867
78	0x3ae442e3	0.0017414953
79	0x3ca7206d	0.020401204
80	0xbb8d519f	-0.0043127085
81	0x3a04d92d	0.0005067762
82	0xbaa54a8c	-0.0012610718
83	0xbbac23d7	-0.005253296
84	0xbbd8ceb0	-0.006616436
85	0x3b7d0f24	0.003861376
86	0xbc0b59b4	-0.008505274
87	0x3c89e6ee	0.016833749
88	0x3b3ee9b5	0.0029131
89	0x3a97ac0d	0.0011571661
90	0x3b82825e	0.003982826
91	0x3c5eb829	0.013593712
92	0xbc5da9a6	-0.013529217
93	0xbc6453a1	-0.013935954
94	0xbbbe14a8	-0.0058008023
95	0x3ca5b5f8	0.020228371
96	0x3c6c0d37	0.014407448
97	0xbc97e2b4	-0.018540718
98	0x3c629dca	0.013831565
99	0xbaacfb45	-0.0013197443
100	0x387dc87b	6.0506612e-05
101	0xbb0b3c1e	-0.002124555
102	0xbc177049	-0.009243079
103	0x3cc843ae	0.024446335
104	0x3b1c2ff5	0.0023832296
105	0xbb3391ec	-0.0027400209
106	0x3b7436c0	0.003726408
107	0x3b975742	0.0046185562
108	0xbc413f67	-0.011794901
109	0xbcac15dd	-0.021006519
110	0x3becdd1b	0.0072285063
111	0xbbbac510	-0.005699761
112	0xbbdda5cd	-0.0067641498
113	0x3c729569	0.01480613
114	0xbbdc6f53	-0.006727138
115	0x3c08b937	0.00834494
116	0x3aed3f71	0.0018100572
117	0x3ae5bb54	0.0017527142
118	0x3bdd1c90	0.0067477897
119	0xbc39376b	-0.011304717
120	0x3bf8b555	0.007589976
121	0x3c065456	0.008198818
122	0xbc000146	-0.007812804
123	0xbc5c405c	-0.013443079
124	0xbb38e372	-0.002821174
125	0x3ad2f1cf	0.0016093793
126	0x3be94bca	0.0071196305
127	0xbb6c5618	-0.0036062058
128	0xbb8ae97b	-0.004239259
129	0xbba48571	-0.0050207903
130	0xbc66e1b2	-0.014091896
131	0x3bf7c231	0.007560991
132	0xbb9aafee	-0.0047206795
133	0x3c7700d2	0.015075879
134	0x3ab2c5a0	0.0013639219
135	0xbc9170be	-0.017753955
136	0x3be94092	0.007118293
137	0x3c9c2cda	0.019064356
138	0x3befaf15	0.0073145726
139	0xba1adb53	-0.00059073156
140	0x3c0200bb	0.0079347445
141	0xbabcc77c	-0.0014402713
142	0x3b6d0db7	0.0036171505
143	0x3c296c69	0.010340788
144	0xbcd4ca28	-0.025975302
145	0x3c28fd8f	0.010314359
146	0x3a37a8c3	0.00070060435
147	0x3c31865f	0.010835259
148	0x3be89af8	0.007098552
149	0x3c011793	0.007879156
150	0x3c3d7faf	0.011566087
151	0xbbc0c94c	-0.0058833715
152	0xbb0f8de3	-0.002190464
153	0xbc2d31a6	-0.010570919
154	0x3c3bd5f0	0.011464581
155	0x3c365618	0.011128925
156	0x3c02fd33	0.007994938
157	0xbc7a9b15	-0.0152957635
158	0x3c3f93fd	0.011692998
159	0xbbceeb41	-0.0063146655
160	0xba71bcbd	-0.00092215446
161	0x3a71eb05	0.0009228441
162	0xbb816560	-0.0039488524
163	0x3b5a4b35	0.0033308987
164	0xbc3316ef	-0.010930761
165	0x3b1346b3	0.002247256
166	0x3c6ecece	0.014575673
167	0xbc08a402	-0.008339884
168	0x3972360c	0.00023099052
169	0x3b7ad1a6	0.0038271933
170	0x3c0d0a42	0.008608403
171	0xbc720a2b	-0.014772932
172	0xbb7465d7	-0.0037292147
173	0xbae71472	-0.0017629995
174	0x3c85ab45	0.01631702
175	0xb85d266a	-5.2726282e-05
176	0xbba5a0aa	-0.005054553
177	0xba61e5e7	-0.0008617327
178	0x3c8d59eb	0.01725479
179	0xbc0c0293	-0.008545536
180	0x3c32cadb	0.010912622
181	0xbc54ffd5	-0.013000448
182	0x3c78080e	0.015138639
183	0x3a62adc5	0.00086471095
184	0xbb21a5cb	-0.002466547
185	0xbc591808	-0.013250358
186	0x3c626065	0.013816928
187	0xbc849e5a	-0.01618879
188	0x3b3300b0	0.0027313642
189	0x3b8fcd01	0.004388452
190	0xba9fe55d	-0.0012199093
191	0x3b17bdc0	0.0023153871
192	0x3b23ba02	0.0024982695
193	0xba04de7e	-0.00050685543
194	0xbc58fdd2	-0.013244109
195	0xbbefd5f3	-0.007319206
196	0xbbb420df	-0.0054970826
197	0x3c1813fc	0.009282108
198	0x3b05d84a	0.0020423108
199	0xbb121e88	-0.002229603
200	0xba66dac4	-0.00088064023
201	0x3b06d12d	0.0020571456
202	0x39c63149	0.00037802223
203	0xbc518e00	-0.012790203
204	0x3c5bc1ac	0.013412874
205	0x3b876f7e	0.004133164
206	0xbba36a20	-0.0049870163
207	0xbb9f95a7	-0.004870135
208	0xbc9620e8	-0.018326238
209	0x3c1c70c3	0.009548369
210	0xbc32fc73	-0.010924446
211	0xbb7fdebc	-0.0039042672
212	0x3a491629	0.00076708436
213	0x3c4d5734	0.012532998
214	0x3a3c0c21	0.0007173438
215	0xbc5f4744	-0.013627831
216	0xbb0d041c	-0.0021517342
217	0xb9975fa2	-0.00028872216
218	0xbaf30a70	-0.0018542539
219	0xbc137c05	-0.0090017365
220	0x3c1d68ee	0.009607537
221	0x3b6dacff	0.0036266444
222	0xbbb78be1	-0.0056013917
223	0xba5dc303	-0.000845954
224	0xba93e24e	-0.0011282654
225	0xbbd94612	-0.0066306675
226	0xbc0afb85	-0.0084828185
227	0xb8f1a10a	-0.000115217714
228	0xbb2bd66a	-0.002622033
229	0xbb195592	-0.002339695
230	0xbc0342e5	-0.008011554
231	0xbc8d8886	-0.017277014
232	0x3b608d73	0.0034263998
233	0xbc643bbe	-0.013930259
234	0x3b99ef93	0.004697749
235	0xbc6551b3	-0.013996529
236	0xbbf5dc17	-0.0075030434
237	0x3b0b16da	0.0021223337
238	0xbc977115	-0.018486539
239	0xbc3c719e	-0.011501698
240	0x3bbe3610	0.0058047846
241	0x3b37c309	0.0028039834
242	0xb9ca69e5	-0.0003860734
243	0x3c74daa9	0.014944711
244	0x3bedd337	0.007257845
245	0x3c4e369c	0.012586262
246	0x3c5c97f2	0.013463961
247	0xbc9f7564	-0.019465156
248	0xbb1c54da	-0.0023854286
249	0x3b4f5161	0.00316342
250	0xbc549177	-0.012974135
251	0x3c2d07b2	0.010560917
252	0xbbfef110	-0.0077802017
253	0x3b2d09a9	0.0026403463
254	0x3c8e419e	0.017365273
255	0xbbb9d69d	-0.005671336

update_node_embedding_layer.0.update_layer.weight f4 [64, 128]
0	0x3bf605d7	0.0075080204
1	0x3bec16b1	0.0072048535
2	0x3a62f235	0.00086573075
3	0xbba921c8	-0.0051614977
4	0x3bf3be54	0.0074384604
5	0xbc442742	-0.01197225
6	0xbbb97a0d	-0.0056603015
7	0xba99ee8f	-0.001174407
8	0x3bdae870	0.0066805407
9	0x3c6c7e8f	0.014434471
10	0xbc3dfb84	-0.0115956105
11	0xbada4d45	-0.0016655108
12	0xbca52f04	-0.02016402
13	0xba2b4622	-0.0006533583
14	0xbb0690b5	-0.002053303
15	0xbc04b846	-0.008100575
16	0x3c49c3f0	0.012314782
17	0x39cc102d	0.00038921964
18	0xbc65b224	-0.014019523
19	0xbb518af1	-0.0031973685
20	0xba4a053d	-0.0007706469
21	0xbc1f686f	-0.009729489
22	0xbc1767f3	-0.009241092
23	0xbb8b7e13	-0.0042569726
24	0xbc230e6c	-0.009952169
25	0xba246401	-0.0006271005
26	0xbc45b3c0	-0.0120667815
27	0xba300e6e	-0.00067160174
28	0x3af348b9	0.0018561102
29	0xbc26d875	-0.010183443
30	0x3c308c53	0.010775643
31	0xbbc9865c	-0.00615005
32	0xbca5f789	-0.020259636
33	0xbd09ad1d	-0.03361236
34	0xbc10e695	-0.008844038
35	0x3bcdcc8f	0.006280489
36	0x3c56d235	0.013111641
37	0x390a9601	0.00013216586
38	0xbc062897	-0.008188388
39	0x3c8cd89e	0.017193135
40	0x3c29734d	0.010342431
41	0xbb8fb0c4	-0.004385086
42	0x387ed2fd	6.0754817e-05
43	0xbc0c0bed	-0.008547765
44	0xbbf162e8	-0.007366527
45	0x3c671010	0.014102951
46	0xbcc74ff0	-0.02433011
47	0x3b9c87a5	0.0047769123
48	0xbc6f6aee	-0.014612896
49	0x3b94ccdf	0.004541024
50	0xbb914f9b	-0.0044345385
51	0xbc11c791	-0.008897678
52	0xbc3143d6	-0.010819396
53	0xbbee4da6	-0.00727244
54	0xbb959352	-0.004564681
55	0x39a7c573	0.00031999833
56	0xbae6172b	-0.0017554512
57	0xbc536353	-0.012902099
58	0x3ba7a442	0.0051160166
59	0xbbde83be	-0.0067906072
60	0xbaffe9d4	-0.0019524642
61	0xbbf3c94d	-0.0074397684
62	0x3ca48b9c	0.020086102
63	0x396b4b8d	0.00022439491
64	0x3c4bffcc	0.012451123
65	0x3b80bd43	0.0039288118
66	0x3c126bbc	0.008936819
67	0x3b5a3bff	0.003329992
68	0xbb8bb7e9	-0.004263867
69	0xbba25b70	-0.004954748
70	0x3c52af60	0.0128591955
71	0xbb678c76	-0.0035331524
72	0xbbd3a3d8	-0.0064587407
73	0x3be4f30c	0.0069869813
74	0x3bef03b9	0.007294145
75	0xba428508	-0.0007420336
76	0x3c851d85	0.016249428
77	0x3abd19ae	0.0014427209
78	0xbbcefbce	-0.0063166386
79	0x3b67e77d	0.003538578
80	0x3c8ac9bb	0.016941896
81	0xbc283cba	-0.010268385
82	0x3be60133	0.007019186
83	0x3a9f1042	0.0012135583
84	0x3c203a9e	0.0097796
85	0xbc34828f	-0.011017456
86	0xbc10ffd1	-0.008850054
87	0x3b1b513a	0.0023699538
88	0xbc1ec635	-0.009690811
89	0xbc4752e8	-0.0121657625
90	0x3cabce5c	0.020972423
91	0x3c7adb3e	0.0153110605
92	0x3a8c76e1	0.0010716581
93	0x3c88d9d7	0.016705437
94	0xbb37c321	-0.002803989
95	0xbb5efe97	-0.003402626
96	0x3b5b57fd	0.0033469193
97	0x3c48cdde	0.012256114
98	0x3aa02a8a	0.0012219709
99	0xbc2aefde	-0.010433165
100	0xbc8025ad	-0.015642965
101	0xbbad09da	-0.0052807154
102	0xbc3bbae8	-0.011458136
103	0xbba8810d	-0.005142337
104	0xbc4c2417	-0.012459776
105	0x3c7b66a2	0.015344294
106	0xbc78eea3	-0.015193614
107	0xbc29fdc3	-0.010375443
108	0xbac78e43	-0.0015224892
109	0xbcdec525	-0.027193615
110	0xbc9a6d4a	-0.018850941
111	0xbbc0d99f	-0.0058853175
112	0xbb786cc5	-0.0037906629
113	0x3b316a23	0.002707132
114	0xbbb7a87b	-0.0056048012
115	0xbc161b64	-0.009161804
116	0xbc1843c0	-0.009293497
117	0xbc41d8c5	-0.011831467
118	0xbc2082f8	-0.00979685
119	0x3b8a76a9	0.004225571
120	0xbb109f8b	-0.0022067751
121	0x3bba3da9	0.00568362
122	0x3cd234bb	0.02565991
123	0xbcbd9b09	-0.023145216
124	0xbbe2c894	-0.0069208834
125	0x3b5d8d15	0.0033806015
126	0xbb226219	-0.002477771
127	0x3c760013	0.015014666
128	0x3d471e96	0.048613153
129	0x3c9b1b90	0.018934041
130	0xbb095135	-0.0020952944
131	0x3bc41ba7	0.0059847417
132	0xbbadeb00	-0.005307555
133	0xbbaef7e4	-0.0053396095
134	0xbd8b759b	-0.06809541
135	0xbb9a06e4	-0.0047005285
136	0x3d1e0f0a	0.03858856
137	0xbcdfe4c3	-0.027330762
138	0x3cb309f2	0.021855328
139	0x3d1e8e82	0.038710125
140	0xbd00b848	-0.031425744
141	0x3c9c1e31	0.019057365
142	0x3d022102	0.03176976
143	0xbd67fdd0	-0.05663854
144	0x3cdd3afb	0.027005663
145	0xbb24e4bb	-0.0025160748
146	0x3d244ef3	0.040114354
147	0xbcfe4609	-0.031039255
148	0xbcbcf24a	-0.023064751
149	0x3d167e29	0.03674141
150	0x3c4a1f1c	0.012336519
151	0x3d1db5d4	0.038503483
152	0x3bc2821d	0.005935921
153	0x3b461290	0.0030223466
154	0xbb0f743a	-0.0021889345
155	0x3bf57dec	0.0074918177
156	0xbca5d194	-0.020241536
157	0x3cc4867f	0.023989914
158	0x3da1e97f	0.07905864
159	0x3cbac57a	0.022799242
160	0xbc516d69	-0.012782433
161	0xbe124550	-0.14284253
162	0xbce966f4	-0.028491475
163	0x3c8452b1	0.016152712
164	0x3d27eddd	0.04099833
165	0x3d5e55f2	0.054281183
166	0x3dbdc7e4	0.09266642
167	0xbca1f658	-0.019770786
168	0x3ca0d5ed	0.019633258
169	0x3983f395	0.0002516775
170	0x3d685d22	0.056729443
171	0x3cb038b1	0.021511408
172	0xbc7141af	-0.014725133
173	0xbbc36d41	-0.005963952
174	0xbd601b3f	-0.054713484
175	0x3bd8a38a	0.0066112923
176	0xbcd8feca	-0.02648868
177	0x3d2dd779	0.04244182
178	0xbcf18c4b	-0.029485842
179	0xbde651f8	-0.11246103
180	0x3d7ba6e5	0.06143846
181	0x3d193db9	0.03741238
182	0x3d0f0e0d	0.03492551
183	0xbd066b3b	-0.032817107
184	0xbc532f28	-0.012889661
185	0x3d070e97	0.0329729
186	0x3ba36f7f	0.0049876566
187	0x3ca008a5	0.019535372
188	0xbd3bb371	-0.045825426
189	0x3d199ebf	0.037504908
190	0x3d67487e	0.05646562
191	0x3abba555	0.001431624
192	0xbba90c00	-0.005158901
193	0x3c1ccb0f	0.009569897
194	0x3cc7c780	0.024387121
195	0x3a1eba21	0.0006054957
196	0xbccfadbb	-0.025351396
197	0xbc079711	-0.008275763
198	0x3b35cace	0.002773929
199	0xbc42e376	-0.011895051
200	0x3bed8008	0.0072479285
201	0xbbda9edc	-0.0066717695
202	0xbb3dffdf	-0.0028991622
203	0xba3ceb34	-0.0007206679
204	0xbc17cedb	-0.009265627
205	0x3c463538	0.012097649
206	0x3c0cc480	0.008591771
207	0xbd564785	-0.0523143
208	0xbcba3139	-0.02272855
209	0x3b92d2c5	0.004480692
210	0xbc95a9d5	-0.018269459
211	0xb90f13fc	-0.00013644987
212	0x3c0c6000	0.00856781
213	0x3b2593ea	0.0025265166
214	0x3d091d1d	0.03347503
215	0xbbf53fd0	-0.0074844137
216	0xbcabc365	-0.020967195
217	0xbc8fc198	-0.017548367
218	0x3b68e999	0.0035539626
219	0x3adbb90e	0.0016763525
220	0x3bff6dbe	0.0077950647
221	0xbbe9108b	-0.007112568
222	0xbc932397	-0.017961306
223	0x3c4d4978	0.012529723
224	0x3c49e217	0.01232197
225	0xbbf540af	-0.0074845175
226	0xbda61cf8	-0.08110994
227	0xbd4c5866	-0.04988899
228	0xb9f230f8	-0.00046194321
229	0x3c7a74ed	0.015286666
230	0x3ace38d7	0.0015733492
231	0x3d30ccf1	0.043164197
232	0x3c06073b	0.008180435
233	0xbba06bca	-0.004895662
234	0x3cea6f86	0.028617632
235	0x3c25c59e	0.010117916
236	0xbdb62015	-0.08892838
237	0xbc44d047	-0.012012548
238	0x3b0eaf13	0.0021771833
239	0x3c0a2b69	0.008433201
240	0x3a8aa373	0.0010577276
241	0xbc946426	-0.01811416
242	0xbcae2293	-0.02125672
243	0xbdb23b85	-0.08702759
244	0x3c6037c3	0.01368517
245	0xbc0aebba	-0.008479053
246	0x3baa03f4	0.0051884595
247	0x3b4c3eb8	0.0031165313
248	0x3c4de29e	0.012566237
249	0x3c35dad6	0.011099538
250	0xbc5cf29c	-0.013485577
251	0x3c0317d3	0.008001286
252	0xbbea5189	-0.007150833
253	0xbc33bdf1	-0.0109705785
254	0xbc215902	-0.009847881
255	0xbc0c7a69	-0.008574107

update_node_embedding_layer.1.message_layer.weight f4 [64, 128]
0	0xbb20d5f7	-0.0024541595
1	0xbccecf56	-0.02524535
2	0x3c9032f2	0.017602418
3	0x3e3af4f9	0.18257512
4	0xbaf6d144	-0.0018830677
5	0x3b035c19	0.0020043908
6	0xbcb9499b	-0.022618106
7	0xbc976aad	-0.018483484
8	0xbc653b98	-0.013991259
9	0xbc81d049	-0.015846388
10	0xbcca3b8e	-0.024686601
11	0xbcb6fae7	-0.022336436
12	0xbd244429	-0.040104065
13	0xbc9c8cba	-0.019110072
14	0x3b569fc7	0.0032749043
15	0x3d3bdd06	0.04586508
16	0x3e591934	0.2120102
17	0xbc26d350	-0.010182217
18	0x3e3d5d79	0.18492688
19	0xbcb03d7d	-0.021513695
20	0x3d8d0648	0.06885964
21	0xbc78b62b	-0.015180151
22	0xbcccd93a	-0.025005925
23	0xbd21505b	-0.039383274
24	0xbcb58a82	-0.022160772
25	0x3b5a7c86	0.0033338382
26	0xbb039b7f	-0.0020081697
27	0xbcd3ff43	-0.025878554
28	0x3c738441	0.014863075
29	0x3d4df258	0.050279945
30	0xb88212e8	-6.2024046e-05
31	0x3c358b3e	0.011080561
32	0x3d881def	0.066463344
33	0xbc8305f3	-0.015994048
34	0xbbbffc46	-0.0058589308
35	0x3db86359	0.09003324
36	0x3b859dc8	0.004077647
37	0x3d9faae4	0.07796267
38	0xbb87ec3e	-0.0041480353
39	0x3d88d965	0.0668209
40	0xbca5b776	-0.020229083
41	0x3e2e9e0b	0.17052476
42	0x3e7561e8	0.2396313
43	0xbcb94c82	-0.02261949
44	0xbcb312cf	-0.021859555
45	0xbc91e34d	-0.01780858
46	0xbc12e1e3	-0.008964988
47	0x3d333b00	0.04375744
48	0xbca0bf4b	-0.019622466
49	0x3e965d72	0.29368168
50	0xbcda96ef	-0.026683299
51	0xbb0e87c0	-0.0021748394
52	0xbb75c0bf	-0.0037498919
53	0xbba4e7e9	-0.0050325287
54	0x3e350bfb	0.17680351
55	0xbbc827d0	-0.0061082616
56	0x3d775a0f	0.06038862
57	0x3cf30104	0.02966357
58	0xbcd4c1a2	-0.025971238
59	0xbca4fc7d	-0.020139927
60	0x3c0fd767	0.008779383
61	0xbbe4a435	-0.006977583
62	0xbcaaeba1	-0.02086431
63	0x39e78dd4	0.00044165424
64	0x3cabef89	0.020988243
65	0xb99a7dc1	-0.00029466863
66	0x3c0b03c5	0.008484785
67	0xbbcf9efe	-0.006336092
68	0xbcc3d7cb	-0.023906609
69	0xbab257a1	-0.0013606438
70	0xbc745543	-0.014912906
71	0xbc94452e	-0.018099394
72	0x3d42701e	0.047470205
73	0x3bc666c4	0.006054731
74	0x3d9fbb87	0.0779944
75	0x3ca46b92	0.020070825
76	0xbb20836c	-0.0024492396
77	0xbc5bcf9b	-0.013416196
78	0xbc381070	-0.011234388
79	0x3c0b4e76	0.008502593
80	0x3bcc88fb	0.0062419153
81	0x3c6643de	0.014054267
82	0xbc99aadd	-0.018758232
83	0x3b371bf4	0.0027940245
84	0xbb8313e0	-0.004000172
85	0x3a180d45	0.0005800317
86	0x3ce03058	0.027366802
87	0x3caa0f3d	0.02075922
88	0x3cdf5801	0.027263643
89	0x3b9d2224	0.0047953296
90	0xbbd17b41	-0.006392867
91	0xbbc93a82	-0.006141008
92	0xbc8ed477	-0.017435296
93	0x3d2398fa	0.03994081
94	0x3cc0ec4d	0.023550177
95	0x3beb9117	0.007188927
96	0xbd223bb7	-0.03960773
97	0x3cd234d0	0.025659949
98	0x3d23053b	0.03979991
99	0xbb8d5610	-0.004313238
100	0xbc09f037	-0.008419088
101	0xbce2795f	-0.027645765
102	0xbc2f37cb	-0.010694454
103	0x3c9f9842	0.019481782
104	0x3c5aa1fa	0.013344282
105	0x3cb9dbd3	0.022687828
106	0x3cc82e26	0.024436068
107	0xbc203dc6	-0.009780353
108	0x3c9a673a	0.01884805
109	0x3b34a95e	0.002756677
110	0x3d0048c0	0.03131938
111	0x3c357d7d	0.011077282
112	0x3d4df571	0.0502829
113	0x3cd6bb5e	0.02621239
114	0x3b681a41	0.003541604
115	0xbbc7a210	-0.0060923174
116	0xbb1e2176	-0.002412883
117	0xbb16b80a	-0.002299788
118	0x3d2c1499	0.04201183
119	0xbbf099a2	-0.007342533
120	0x3d24e870	0.040260732
121	0xbb9e397e	-0.004828631
122	0x3b1c0a4e	0.0023809853
123	0x3cd7725a	0.026299644
124	0x3c62b39e	0.013836769
125	0xbbfce42c	-0.00771763
126	0x3c88fa96	0.016721051
127	0xbbeebd12	-0.0072857225
128	0x3a78809e	0.00094796147
129	0x3d1b52c7	0.03792074
130	0xbc00e939	-0.007868105
131	0xbdfaeefa	-0.122526124
132	0x3d0d9478	0.03456542
133	0x3bba31dc	0.005682213
134	0x3d47f49c	0.048817262
135	0x3d25332f	0.040332016
136	0x3d4e12aa	0.05031077
137	0xbd95b7d3	-0.07310452
138	0x3d49fd32	0.04931373
139	0x3d32a111	0.043610636
140	0x3d5d9984	0.054101482
141	0x3d081c52	0.033230133
142	0xbb98fa72	-0.0046685273
143	0xbd1cbb27	-0.03826442
144	0xbd1a95e8	-0.037740618
145	0xbc2524dd	-0.01007959
146	0xbc819cb6	-0.015821796
147	0x3ca3f2da	0.020013262
148	0xbcc9908c	-0.024605058
149	0x3cd2fcb9	0.025755273
150	0x3d218a97	0.03943881
151	0x3cdde206	0.027085315
152	0x3d233b9c	0.03985177
153	0x3c7f32f7	0.015576116
154	0xb9317ce5	-0.00016926562
155	0x3ce381b7	0.027771814
156	0x3b2258d1	0.0024772177
157	0xbc9163bf	-0.017747758
158	0xbdf04b09	-0.11733062
159	0x3b261477	0.0025341788
160	0xbd3b0014	-0.04565437
161	0xbafadf3c	-0.0019140015
162	0x3d4e95e2	0.05043591
163	0xbcb02390	-0.021501333
164	0x3c2a3b7f	0.010390162
165	0xbd158910	-0.036507666
166	0x3d7ab915	0.061211664
167	0xbd7a4800	-0.06110382
168	0x3d611f24	0.05496134
169	0x3d51aabe	0.051188223
170	0xbcd1ac6a	-0.025594909
171	0xbb823e89	-0.00397474
172	0xbc4f73c6	-0.01266188
173	0xbb9dd8fd	-0.004817127
174	0x3cc7a42e	0.02437028
175	0xbc9eecf5	-0.0194001
176	0x3d112e99	0.03544483
177	0x3d72c0ef	0.059266027
178	0x3d451daa	0.048123993
179	0xbc8824df	-0.016619144
180	0x3cf73e0c	0.030180953
181	0xbc495a32	-0.012289571
182	0xbd83c9f1	-0.06435002
183	0xbdaedfe8	-0.085388005
184	0xbd1ea7f8	-0.038734406
185	0xbccb569d	-0.024821574
186	0x3da01dc0	0.07818174
187	0x3d808e5e	0.062771544
188	0xbcad4ac1	-0.02115381
189	0xbc52da06	-0.012869364
190	0x3d87e537	0.06635516
191	0x3d6db211	0.058031145
192	0xbc5936ef	-0.013257726
193	0x3a542e2e	0.00080940395
194	0x3cc5691f	0.024097977
195	0x3bfb1c33	0.0076632737
196	0xbd3cc8f4	-0.04609008
197	0xbc32d63e	-0.010915337
198	0x3c9cab28	0.019124582
199	0x3d8364c4	0.06415704
200	0xbdad6031	-0.08465613
201	0xbdbac766	-0.091200635
202	0xbcd04515	-0.025423566
203	0xbc9077eb	-0.017635306
204	0x3c5ff40d	0.013669026
205	0x3d207deb	0.039182585
206	0x3c3004c2	0.010743322
207	0xbc350b83	-0.011050108
208	0xbb87af5a	-0.0041407766
209	0xbceb8326	-0.02874906
210	0xbc413ded	-0.011794549
211	0x3bcf78c7	0.0063315365
212	0x3bf5c3bd	0.0075001405
213	0x3d6fdf0a	0.058562316
214	0xbd4802b8	-0.048830718
215	0xba8888f7	-0.0010416795
216	0xbdf10fc8	-0.11770588
217	0xbc0e2694	-0.00867619
218	0xbda8e7bc	-0.08247325
219	0xbd79789d	-0.06090604
220	0xbc12c10d	-0.00895716
221	0xbb4af0aa	-0.00309662
222	0xbd340de8	-0.043958575
223	0xbcf411b2	-0.029793594
224	0xbe02e92c	-0.1278426
225	0xbdd7f3c9	-0.10544545
226	0x3c91bd6d	0.01779052
227	0x3c00c0bc	0.007858451
228	0x3c9b4a23	0.01895625
229	0xbc51244e	-0.012765003
230	0xbd8aaa1d	-0.06770728
231	0xbdac8edc	-0.08425686
232	0xbda1b4f3	-0.078958414
233	0xbcf0cf70	-0.029395789
234	0x3cc5a3c4	0.024125941
235	0x3b345905	0.002751888
236	0xbd83bee4	-0.06432894
237	0x3d04e37d	0.032443512
238	0xbc01df56	-0.007926783
239	0xbdac5c9c	-0.08416101
240	0x3ab73173	0.0013976529
241	0x3cd4ada7	0.02596171
242	0x3c511afb	0.01276278
243	0x3c8f1faa	0.017471153
244	0x3bba33d2	0.005682447
245	0xbd2e2bc8	-0.04252222
246	0xbe067d0e	-0.13133642
247	0x3b2a21e0	0.0025960132
248	0x3d15b4f2	0.036549516
249	0xbbc967de	-0.006146415
250	0x3c21f2c6	0.009884542
251	0xbd7ea495	-0.062168676
252	0xbdbd6e0b	-0.09249505
253	0x3bded312	0.006800064
254	0xbd734679	-0.05939338
255	0xbd9e4452	-0.07727875

update_node_embedding_layer.1.update_layer.weight f4 [64, 128]
0	0xbc26964e	-0.010167671
1	0xbd37862f	-0.0448057
2	0xbac55226	-0.0015054389
3	0x3e05e927	0.13077222
4	0xbd8325bf	-0.06403684
5	0x3c9ade04	0.018904693
6	0xbcfb1fa6	-0.03065474
7	0xbd3a6c02	-0.04551316
8	0xbd06ede6	-0.03294172
9	0xbdc50337	-0.09619754
10	0xbd348a41	-0.04407716
11	0xbd83c291	-0.06433595
12	0xbd6baeed	-0.05753987
13	0xbd1148cc	-0.035469815
14	0xbb92664a	-0.00446776
15	0x3d430438	0.047611445
16	0x3e24b0f4	0.16083127
17	0x3b232a3a	0.0024896995
18	0x3dd779f8	0.105213106
19	0xbd83c511	-0.06434072
20	0x3d76f586	0.060292743
21	0xbd858396	-0.06519239
22	0xbcd6d36e	-0.026223864
23	0xbd618554	-0.055058792
24	0xbd3aefdd	-0.045638908
25	0x3c242e54	0.010020811
26	0xbbb2740e	-0.0054459637
27	0xbd424c52	-0.047436066
28	0x3c24e36e	0.010063989
29	0x3d5aa2b8	0.053377837
30	0xbb929c45	-0.004474195
31	0x3cadea2b	0.021229824
32	0x3d6f6316	0.058444105
33	0x3bdc7285	0.006727519
34	0xbd752dfc	-0.059858307
35	0x3d837134	0.06418076
36	0xbb954743	-0.004555614
37	0x3d85c198	0.06531066
38	0xbd85b864	-0.0652931
39	0x3d81f2e2	0.06345154
40	0xbd4b112e	-0.04957693
41	0x3dec02db	0.11523982
42	0x3e1762c8	0.14783776
43	0x3bb65385	0.0055641555
44	0xbbc8db52	-0.0061296606
45	0x3b8978b8	0.004195299
46	0x3bd2a1d2	0.006427982
47	0x3d9b5868	0.075852215
48	0xbd394a9b	-0.045237165
49	0x3e4d005b	0.20019667
50	0xbd1f6e22	-0.03892339
51	0x3c491a5b	0.01227435
52	0xbd3c5f16	-0.04598912
53	0x3c14888f	0.009065761
54	0x3dd2bfc1	0.102904804
55	0xbcc08aed	-0.023503745
56	0x3d9b536c	0.07584271
57	0x3d4d3457	0.050098743
58	0xbd061be1	-0.03274143
59	0xbd216486	-0.039402507
60	0x3a7d4e04	0.00096628093
61	0x3be62b40	0.007024199
62	0xbcae076b	-0.021243772
63	0x3e349432	0.17634657
64	0x3cea97a8	0.028636768
65	0x3da6554c	0.08121738
66	0x3ba08f5f	0.0048999037
67	0x3c7e9ee1	0.015540809
68	0xbc16651e	-0.009179382
69	0x3c869a4d	0.016430998
70	0x3bdbd37d	0.006708561
71	0x3d9a9a2e	0.07548939
72	0xbb9fdc16	-0.004878531
73	0x3c917a57	0.017758531
74	0x3b7b1cf3	0.0038316816
75	0x3c8ede2f	0.01743993
76	0xbbfe346e	-0.007757715
77	0xbb1a7761	-0.002356969
78	0x3c09016c	0.008362155
79	0x3b7b359a	0.003833151
80	0x3ca1c887	0.01974894
81	0xbba90a25	-0.00515868
82	0x3cd85b83	0.026410824
83	0x3d0d8042	0.034546144
84	0x3c872b9d	0.016500289
85	0xbc7831bf	-0.015148579
86	0x3cd44962	0.025913898
87	0x3c9b273d	0.018939609
88	0xbe263f3c	-0.1623506
89	0x3deb8cd8	0.11501473
90	0x3d26a33d	0.04068302
91	0xbbde4fe7	-0.0067844274
92	0x3c120b6e	0.008913858
93	0x3cf5a2fe	0.029984947
94	0x3c8b6b51	0.017018946
95	0x3ac92cc8	0.0015348429
96	0x3c03efc6	0.008052772
97	0x3b8a4b18	0.0042203777
98	0x3d16daee	0.03682988
99	0xbb559758	-0.0032591429
100	0x3d1b98ca	0.037987508
101	0x3c6a8c06	0.014315611
102	0xbc43ae79	-0.011943453
103	0xbb52ada2	-0.003214695
104	0x3cc26ede	0.023734506
105	0xbd19fa10	-0.037591994
106	0xbb35545b	-0.0027668688
107	0xb929d1ed	-0.000161953
108	0xbca84f37	-0.020545585
109	0x3c783843	0.015150133
110	0x39afb12d	0.00033510607
111	0x3ba2a9d5	0.004964093
112	0x3c6fb908	0.014631517
113	0x3bb8a47b	0.005634842
114	0x3c4d55e2	0.012532683
115	0x3bc3ef66	0.0059794663
116	0x3a3c2e8b	0.00071785663
117	0xbc5434a7	-0.012952006
118	0x3c53dcb0	0.012931034
119	0xbc82e182	-0.015976671
120	0x3c110acf	0.008852675
121	0x3d006a78	0.031351537
122	0x3c50c274	0.012741674
123	0xbe06d985	-0.13168915
124	0x3d643b7f	0.055720802
125	0xbb017da6	-0.001975873
126	0x3cab53a8	0.020913914
127	0x3c71935c	0.014744606
128	0xbc31fc8a	-0.010863433
129	0xbc79d005	-0.01524735
130	0xbbe64c54	-0.007028142
131	0xbd4d66df	-0.050146934
132	0xbceb6ddb	-0.028738907
133	0xbc2bbae5	-0.010481571
134	0xbc2211c4	-0.009891931
135	0xbbaf8fd3	-0.0053577214
136	0x3b9767e2	0.004620538
137	0x3d45930f	0.04823595
138	0xbd1191be	-0.03553938
139	0xbcaadc4d	-0.020857
140	0xbc370cba	-0.011172468
141	0xbcff4d2b	-0.031164726
142	0x3c0719fd	0.008245942
143	0xbea20f4b	-0.31652293
144	0xbda7b275	-0.08188335
145	0x3c5b41d7	0.013382397
146	0xbd9de8c9	-0.07710416
147	0xbbb0c205	-0.0053942227
148	0xbe9263ee	-0.28591865
149	0xbbb61440	-0.005556613
150	0xba163dd7	-0.0005731261
151	0xbc5cfa9b	-0.013487483
152	0xbcd531e7	-0.026024772
153	0x3b333973	0.0027347475
154	0xbbcc1bdd	-0.0062289075
155	0xbcc4077b	-0.023929348
156	0xbc2276c7	-0.009916014
157	0xbe96e477	-0.2947118
158	0x3d4cbfc3	0.049987566
159	0xbc8d8e70	-0.017279834
160	0xbea61dce	-0.32444614
161	0x3c080b1b	0.008303429
162	0xbbff86d9	-0.0077980575
163	0xbe9b24c6	-0.30301493
164	0x3adf58fc	0.0017040069
165	0xbe83a488	-0.25711465
166	0xbd9f75c8	-0.07786137
167	0xbe845225	-0.2584392
168	0xbce0391d	-0.027370984
169	0xbe768bb9	-0.24076737
170	0xbe05abc8	-0.1305381
171	0xbc322f91	-0.0108755985
172	0xbc46427e	-0.012100814
173	0x3b9c56e4	0.0047711004
174	0xbe4a9909	-0.19784941
175	0xbe850f6e	-0.25988334
176	0xbc7ddd86	-0.01549471
177	0xbeac6775	-0.3367268
178	0xbcaacedb	-0.02085059
179	0x3b963bb6	0.004584755
180	0xbc711f95	-0.014717002
181	0xbb3c5121	-0.002873488
182	0xbd87a4d5	-0.06623236
183	0x3d2bcd0c	0.041943595
184	0xbe511f77	-0.20422159
185	0xbe8a89a3	-0.27058133
186	0xbd252f89	-0.040328536
187	0xbd1a29d4	-0.037637547
188	0xbbda0b71	-0.006654196
189	0xbb6f29c1	-0.0036493393
190	0xbdd875bf	-0.10569333
191	0x3d26ac75	0.04069181
192	0xbc24bacb	-0.010054301
193	0x3d66e41b	0.056369882
194	0x3cb0b966	0.02157278
195	0x3cd9d07a	0.026588667
196	0xbc7bcb80	-0.015368342
197	0x3d0824d8	0.033238262
198	0x3ce2c223	0.027680462
199	0x3d9cf0c8	0.07663113
200	0x3b5ea2fc	0.0033971658
201	0xbb2c730b	-0.0026313688
202	0x3bbe9fe9	0.0058174026
203	0x3ce5050f	0.027956514
204	0xbc900a92	-0.017583165
205	0xbc6a0881	-0.014284254
206	0x3bf184b8	0.0073705576
207	0xbc2d3eb2	-0.01057403
208	0x3d2bf9d4	0.0419863
209	0x3c3d426c	0.011551481
210	0xbb4ec1ae	-0.0031548548
211	0x3c9f9790	0.01948145
212	0xbc97ec3b	-0.01854526
213	0x3a04d076	0.00050664635
214	0x3c9275b6	0.017878395
215	0x3ccb5636	0.024821382
216	0xbd914063	-0.07092359
217	0x3dbc9343	0.092077754
218	0x3ca5d3de	0.020242628
219	0xbb07630e	-0.0020658406
220	0x3c077131	0.008266733
221	0x3cbe3cf1	0.023222419
222	0x3c13d28b	0.009022365
223	0x3bad01dc	0.0052797627
224	0x3c364847	0.011125631
225	0x3aae5801	0.0013301374
226	0x3b6a7663	0.003577613
227	0xbc8693d7	-0.016427917
228	0x3d575fea	0.052581705
229	0x3ce35ae5	0.027753303
230	0xb993c609	-0.00028185573
231	0xbbc1ec3b	-0.0059180534
232	0x3b32a666	0.0027259826
233	0xbd66e3c1	-0.056369547
234	0xbc47274d	-0.012155366
235	0xbc1da2ed	-0.009621364
236	0xbbebe66f	-0.0071991007
237	0x3d93c47b	0.0721521
238	0x3b4f4cbc	0.003163143
239	0xbda92aea	-0.08260138
240	0x3b74af0e	0.0037335786
241	0x3c82f0ec	0.015984021
242	0x3c371986	0.011175519
243	0x3c6752d5	0.01411887
244	0x3d09be12	0.03362853
245	0xbb358e57	-0.002770325
246	0x3d0dcbc6	0.03461816
247	0x3b8cd7b9	0.004298177
248	0xbb70bd87	-0.003673406
249	0x3c90956b	0.017649373
250	0x3d447a5d	0.047968257
251	0xbd97cbe7	-0.07411938
252	0x3d81cc2e	0.06337772
253	0x3c6664fa	0.014062161
254	0x3cdaf5bc	0.026728503
255	0x3ce98b1c	0.028508715
