ER_200spin/eco/network/network3600000.pth (torch, 238273 bytes, 11 tensors)

node_init_embedding_layer.0.weight f4 [64, 7]
000000 7e 9c 11 bb 91 0c 6b be ee 9b 7e bd 11 98 49 3d
       -0.002221852 -0.22954012 -0.062160425 0.049217287
000010 b8 cc 54 3b cc 2f c8 bc d4 4e 4a 3d f7 15 05 bb
       0.0032470655 -0.024436854 0.049391583 -0.0020307282
000020 73 57 3a be 1a 3a a3 bc b4 b6 12 3e 35 b7 5e bc
       -0.18197422 -0.019925166 0.14327508 -0.013593485
000030 d2 29 9f 3d b1 e6 27 3d ed c5 90 39 8f a3 b4 3e
       0.077716485 0.04099149 0.00027613287 0.35281035
000040 a7 0a 10 bc d0 75 93 bd 18 8e f4 39 b0 a9 88 3c
       -0.008791602 -0.07200205 0.00046645175 0.016682476
000050 73 63 96 3c 35 06 97 3a 03 11 ba 3e 3b 1d 94 3c
       0.018357968 0.0011522236 0.36341104 0.018080344
000060 37 7f 4d bd 82 15 0b 3b 22 3b 95 3c 4f 2e 3b bc
       -0.05017015 0.0021222536 0.018216673 -0.011424615
000070 b0 81 c9 bb 51 72 8d bb 43 85 21 bc 81 e5 35 bc
       -0.006149493 -0.004316606 -0.009858432 -0.011102081
000080 20 41 31 bc 85 f4 55 bb 6c 62 79 bc 95 ae 35 bc
       -0.01081875 -0.0032646966 -0.0152212195 -0.011088987
000090 4c d9 7b bb 17 e3 fd ba e3 15 2f bb b4 0b 59 bc
       -0.003842908 -0.0019370046 -0.0026715926 -0.013247419
0000a0 08 95 86 bc c8 d0 aa bb 50 74 57 3c 1e 51 d4 3e
       -0.016428486 -0.005212877 0.01315029 0.41468138
0000b0 24 df 85 3c 6a 76 5f be d6 75 dd b9 92 f6 b2 bc
       0.016341753 -0.21822515 -0.000422402 -0.02184609
0000c0 75 12 d5 3c ea cb b4 3a e3 86 3a be f7 3a eb be
       0.026009778 0.0013793681 -0.18215518 -0.45943424
0000d0 73 52 6d 3e 10 93 66 3a 59 7e c8 3d 21 85 bf 3c
       0.23175983 0.0008795718 0.09789724 0.02337891
0000e0 b0 63 7f 3c ed 4f 8a be ae 62 72 3d 42 40 1d 3e
       0.015587732 -0.27014104 0.05917614 0.15356544
0000f0 19 d4 3f bb aa 07 20 3d 44 11 79 3d 23 a7 99 3b
       -0.0029270707 0.03906981 0.06080748 0.0046891137
000100 f2 11 be 3e 0a a8 1e 3d 9c 39 07 bd 34 d5 73 bc
       0.37123066 0.038734473 -0.033013925 -0.014882375
000110 36 66 96 3c 2c c8 26 3c 73 3b c8 bc 27 a7 a8 3e
       0.018359285 0.010179561 -0.02444241 0.32940027
000120 aa f0 9a 3c fd 9d 85 3d f8 9f 68 3b cd 04 66 3c
       0.018913586 0.065242745 0.003549574 0.0140392305
000130 c5 8a 41 bd e1 e5 d2 bc 28 09 a9 3e db 29 18 be
       -0.04725148 -0.02574438 0.33014798 -0.14859717
000140 f2 34 cb 3d 59 27 ae 3a 9c c0 94 bb a8 eb 5d be
       0.09922208 0.0013286873 -0.0045395624 -0.21671927
000150 19 a8 81 3c c6 12 ce 3e d3 1e 9c 3a 4f 95 08 be
       0.015827226 0.40248698 0.0011911042 -0.13338207
000160 cb 22 03 b9 0c 49 f0 3c d7 97 7f 3c ff ca 2c 3c
       -0.00012506095 0.029331706 0.015600166 0.010546445
000170 6e 42 8b be b7 de 34 3c 39 24 e5 3d db e8 09 3c
       -0.2719912 0.0110394275 0.111885495 0.0084173335
000180 0e 70 87 bc 9e 12 82 3d 28 06 69 3c 60 d7 87 be
       -0.016532924 0.06351207 0.014222659 -0.26531506
000190 c0 fe 84 3c 04 8a d9 3d f8 04 8c 3a 72 e2 01 3b
       0.016234756 0.106220275 0.0010682633 0.001981881
0001a0 2e 40 92 3d a6 c9 30 3c 65 96 fa 3b ff e8 df bd
       0.071411476 0.010790264 0.007647323 -0.10933112
0001b0 16 95 14 3e da 7d 8f 3b b1 f0 f4 3b 39 0b 1f be
       0.14509997 0.0043790163 0.0074749817 -0.15531625
0001c0 3b a8 2d 3c de 9d 4e be 02 e8 be bc 32 43 39 3e
       0.010599191 -0.20177409 -0.02330399 0.18092039
0001d0 5c 45 de bb 70 02 93 3d 11 4d 5c 3d 2c 4e bc bc
       -0.0067831706 0.07178199 0.053784434 -0.022986494
0001e0 62 8e aa 3e df 02 f3 3b 30 5f 97 3b f0 fb 49 bb
       0.33311754 0.0074161137 0.0046195015 -0.0030820332
0001f0 d7 6e 9c 3c 3e 84 d9 3a 85 9e d3 3c 6c e1 a2 be
       0.019095821 0.0016595197 0.025832424 -0.31812608
000200 b8 c1 50 3c 3c 56 08 3e 63 a8 08 3c 05 24 1f 3c
       0.012741499 0.13314146 0.008340928 0.009713178
000210 a1 8c a3 3d b4 6c 8e bc b0 3f 8a 3e 4e 24 3d 3d
       0.07985807 -0.017385818 0.27001715 0.0461772
000220 1a 30 57 3d 1a 27 5e bb 2c 84 d9 39 f7 7c d3 3b
       0.052536108 -0.0033897818 0.0004148794 0.006454106
000230 a8 a6 73 3c 0b 1d d7 3e f8 1d 23 3d df 8c 86 bd
       0.014871277 0.42014346 0.039823502 -0.06569838
000240 c3 08 9e ba 4e 85 ec 3c 25 1b 62 3c 47 86 bb 3c
       -0.0012057055 0.028872158 0.013800417 0.022891177
000250 f9 50 9d be 35 53 0c 3d 2e f2 0b 3e 1f e1 c5 3b
       -0.3072584 0.03425904 0.13666603 0.0060387994
000260 f2 1c 7e 3c 39 80 8e 3d 67 fb ab ba e1 74 33 be
       0.015509831 0.0695805 -0.0013121188 -0.17525055
000270 bd fc b3 3d cc dc 5b 3e 84 60 ad bc ce 14 81 3d
       0.087884404 0.21470946 -0.021164186 0.06302796
000280 87 6e 9b bc 26 ff 1f bc 26 17 48 be a7 57 b2 3d
       -0.018973602 -0.009765422 -0.1954008 0.087081246
000290 c5 72 c0 3c eb b9 1d bb 34 e6 23 bb a0 31 8e 3d
       0.023492226 -0.0024067115 -0.0025009038 0.06943059
0002a0 c2 6f 82 3b 40 01 5d be f4 90 40 3d f4 64 bd 3e
       0.0039806077 -0.21582508 0.047013238 0.36991084
0002b0 a6 78 05 3b a2 09 94 3d b1 fd 36 3c ff cf 39 bc
       0.0020366102 0.072284 0.011168883 -0.011341094
0002c0 ad 79 b0 3e 9f 02 c7 3b 52 a6 1c bc 2d 90 19 3c
       0.3446783 0.0060733105 -0.009561138 0.009372753
0002d0 88 82 0a 3d ad 05 1b bd e8 6c 33 3b b2 83 d2 3e
       0.03381589 -0.03784721 0.0027378146 0.411161
0002e0 14 3c 1c 3d 2d 99 05 bc 15 00 3e ba 3d 11 2f 3d
       0.038143232 -0.008154196 -0.0007247937 0.04274105
0002f0 d5 36 9e 3c d5 0d 02 bb 0a 30 4a 3b 6c a2 8f 3a
       0.019313255 -0.001984467 0.0030851387 0.001095844
000300 5b 8f 1a bc cb 82 b7 bb 4b da 8e bb 61 bf 28 bc
       -0.009433593 -0.0056003085 -0.0043595186 -0.010299535
000310 14 95 7b 3c b6 82 bb 3e d1 3b 0e 3c 73 5d 82 bd
       0.015355367 0.36623162 0.0086812535 -0.0636548
000320 58 c5 4e 3b 42 39 dd 3c bf 41 8d bc 8c 2c 8d 3c
       0.0031550732 0.027004842 -0.017243264 0.017233156
000330 03 ea 9d be 14 c6 77 3c 03 2e f6 3d bd 82 38 ba
       -0.308426 0.015122909 0.12020495 -0.00070385245
000340 f5 65 0e 3d 5a f6 43 3d 60 ac 67 3b b2 5a 53 be
       0.034765203 0.04784236 0.0035350546 -0.20640066
000350 a9 99 b3 bb bb 42 40 be 53 0d a5 bb 49 97 c9 3d
       -0.005480964 -0.18775456 -0.0050369888 0.098433085
000360 fd 97 46 bb 59 4b 55 bb 27 3d 6b be eb 67 07 3d
       -0.0030302994 -0.0032546131 -0.22972547 0.03305809
000370 69 92 c6 3d 17 4a 28 3a 15 ba 9b bc 62 b4 25 3d
       0.09695894 0.00064197317 -0.01900963 0.04045523
000380 a7 21 21 bb d0 28 2c 3c ae 8f 7e bb 5c 9d 91 bc
       -0.0024586709 0.010507777 -0.0038842964 -0.01777523
000390 b8 ed 82 bb e9 6d 04 bc 1c 46 e9 ba 54 34 ca 3c
       -0.0039956234 -0.008082845 -0.0017797383 0.024683155
0003a0 39 6e f9 3d 84 18 98 be 43 c8 50 3d f3 96 7a 3b
       0.121792264 -0.29706204 0.050972234 0.0038236945
0003b0 55 55 20 3c 29 6d a4 be 21 3d 3c 3c f0 64 c3 3e
       0.00978597 -0.32114533 0.011489184 0.38162947
0003c0 8f a5 a3 3b c1 1c 3a bd 7d 01 fc 3a 1d f0 33 3d
       0.0049941014 -0.045437578 0.0019226518 0.04393016
0003d0 80 30 d4 3a 47 56 44 bb 90 68 92 3b 1a c5 35 bc
       0.001618877 -0.0029958652 0.004468031 -0.011094356
0003e0 0f 6e 3e bc 1e 4a 36 bc 17 e0 ce bb f7 b7 d7 ba
       -0.01162292 -0.011126069 -0.0063133347 -0.0016458024
0003f0 7a 32 11 3c 16 8a 3e be 31 47 91 bd 31 01 cf 3d
       0.008862132 -0.18607363 -0.07093657 0.10107649

edge_embedding_layer.edge_embedding_NN.weight f4 [63, 8]
000000 50 7a ca 3c 7a 8b e1 3c 4b 67 87 3e 14 40 3e bd
       0.024716526 0.027532328 0.26445994 -0.04644783
000010 56 da ec bb b5 8c 11 bd c5 06 83 bc 60 b0 7d bd
       -0.007228176 -0.03553458 -0.015994439 -0.061935782
000020 da 91 22 bc 84 89 30 bc a7 67 8d bb 0b 1a 16 bb
       -0.009922469 -0.010774974 -0.004315335 -0.0022903706
000030 d5 af 12 3c 26 f9 b5 bc 19 e0 79 bc b8 72 04 3c
       0.008953054 -0.02221353 -0.015251183 0.008083992
000040 c5 0e ba 3c 4f 17 9f 3c 0e 8d 71 3e e2 c2 49 bd
       0.02271212 0.019420294 0.23588964 -0.04925812
000050 49 60 38 bc f1 73 00 bd 5c c5 0a bc 0e 44 34 bd
       -0.011253425 -0.03136057 -0.008469906 -0.044010215
000060 37 67 42 3d 6c 4d 33 3d 06 5c 6e 3e e6 ed d9 bd
       0.047461715 0.043775007 0.23277292 -0.10641079
000070 24 db bb bc 48 ac 2c 3a 8e 21 38 3d f8 23 ac bd
       -0.022931643 0.0006586951 0.044953875 -0.08405298
000080 33 57 76 bc a1 de dc bb e9 1d 7c 3c bd 1a 71 bc
       -0.015035438 -0.0067404066 0.0153879905 -0.014715848
000090 8f fc 20 bc db 78 c7 ba b9 c1 b5 ba 58 a0 08 bb
       -0.00982584 -0.0015218513 -0.0013866938 -0.0020847525
0000a0 bb 87 2a bc e9 6b 1a ba 4a fb 21 3b 5c 68 89 bb
       -0.010408337 -0.00058907137 0.002471643 -0.004193349
0000b0 76 69 37 3b 04 b4 5e bc bd af 3d 3c 3d 4c 30 3b
       0.0027986444 -0.013592724 0.011577544 0.002690091
0000c0 3f c7 8e bb da ea a3 bc bb 75 f9 bd f8 0b d8 3d
       -0.004357248 -0.020009447 -0.121806584 0.10549158
0000d0 c8 7a c8 3d ec 81 f2 bb 78 55 dd bd 2d 52 ab 3d
       0.09789044 -0.007400742 -0.108073175 0.08365283
0000e0 dd bc 9e bb 14 14 29 3c 69 29 2a be 83 cf 0c 3e
       -0.0048442916 0.010319728 -0.16617359 0.13751034
0000f0 2f ce ac 3d 32 2c 37 3c ef f9 21 bc 05 55 ed 3d
       0.08437764 0.011179971 -0.009886249 0.11588482
000100 b6 67 14 bb 7c f7 af bd f6 1a 21 be ec 9b ac 3d
       -0.0022644824 -0.08592126 -0.15732941 0.08428177
000110 10 f0 ee 3d 1a 7b e6 bb 9c f2 35 bc dd 27 a0 3d
       0.11666882 -0.007033718 -0.011105206 0.07820103
000120 d8 4e 6d bb 16 de 42 bd 1e bd 04 be 4b 3d c6 3d
       -0.0036210325 -0.04757508 -0.12962767 0.096796595
000130 7c 98 64 3d 82 f6 16 3c 23 40 d9 bd 5f fc ca 3d
       0.055809483 0.0092140455 -0.10607936 0.09911417
000140 9e a0 2c bc a5 cf 6c 3c f5 9f 19 be 14 17 f4 3d
       -0.010536341 0.014453803 -0.15002425 0.11918464
000150 d5 e4 ae 3d 0d b8 9d 3b 12 4d 19 bc 5f c0 d8 3d
       0.0853974 0.0048132003 -0.009356754 0.10583567
000160 21 87 07 ba 46 eb 95 ba 9f 19 cf ba e9 d8 3e bc
       -0.0005169977 -0.0011437915 -0.0015800482 -0.011648395
000170 e9 60 09 bc 20 b2 9b bc 9e fc ad bc 13 53 4d bb
       -0.008384922 -0.019005835 -0.021238621 -0.0031330034
000180 7d 3d 3d bc ff 85 d3 bb 36 3f 9a bc a3 aa 0f 3c
       -0.0115503045 -0.0064551826 -0.01882897 0.00876871
000190 8e 6b 3b bb c0 99 57 bc 4b 89 c1 3a 64 40 4f bb
       -0.0028598043 -0.013159215 0.0014765648 -0.0031624073
0001a0 03 2a 5e 3d ac e2 ce 3c 9a a7 60 3e f3 bc ca bd
       0.054239284 0.02525457 0.21938935 -0.098993205
0001b0 62 e9 2c bc c9 4c 15 ba 57 09 43 3d e3 09 e3 bd
       -0.01055369 -0.0005695341 0.04761633 -0.1108587
0001c0 79 1b 02 bc f6 f1 1d bc 40 5b 12 be 28 5a b6 3d
       -0.00794112 -0.0096402075 -0.14292622 0.08903915
0001d0 5b 46 88 3d c5 e2 3b 3c be 50 96 be 6a 46 b3 3d
       0.06654044 0.01146764 -0.29358476 0.08753665
0001e0 ed bd 87 3d ac d3 4f 3d 29 30 56 3e 21 e0 ca bd
       0.06628022 0.050738975 0.20916809 -0.099060304
0001f0 bb 93 3e bd 24 25 21 3a 82 c5 5e 3d cd 73 be bd
       -0.046527606 0.0006147197 0.054387577 -0.09299431
000200 af b5 c9 bb 05 0a 5b ba c1 22 12 be 14 23 f5 3d
       -0.0061556916 -0.000835568 -0.1427107 0.11969581
000210 5b b2 b6 3d 97 d9 c6 39 44 00 e2 bb 80 f8 b1 3d
       0.08920737 0.0003792762 -0.0068970043 0.08689976
000220 99 96 20 3d 0b ef 40 3c 90 ee 82 3e 5d 40 95 bd
       0.03920612 0.011775742 0.25572634 -0.07287667
000230 8a de 1f 3d bc 2a 19 bb ca 58 ae 3c 4b c3 87 bd
       0.03903059 -0.002337142 0.021282572 -0.06629046
000240 f3 9d 5e 3d d6 1f f1 3b 8f 69 63 3e 91 c9 c9 bd
       0.05434985 0.0073585315 0.22208236 -0.09852899
000250 11 b3 07 3c e0 f2 60 ba 99 03 20 3d 82 93 ed bd
       0.008282439 -0.0008581113 0.03906593 -0.116004005
000260 35 12 2e 3b 78 78 b6 ba 9b cb f5 bd a7 52 c7 3d
       0.0026561145 -0.00139214 -0.12001725 0.097325616
000270 df 6c d6 3d 44 83 06 3b db 71 86 bd 13 15 c3 3d
       0.10469984 0.0020525018 -0.06564685 0.09525504
000280 d8 41 bd ba 29 54 20 bc 6d 0c 1d 3b 3d ed a9 3a
       -0.0014439179 -0.00978569 0.0023963705 0.0012964379
000290 cd 6a a4 ba 85 51 27 b9 6f 54 e7 bb 4d 3b 16 bc
       -0.0012544036 -0.0001595673 -0.007059626 -0.009169412
0002a0 83 4d 12 bb ee 9a 45 b9 e1 7c 13 be c8 1d d8 3d
       -0.0022324033 -0.000188451 -0.14403106 0.10552555
0002b0 17 87 e3 3d 68 91 d9 bb 23 f5 48 bc 10 2a cf 3d
       0.11109751 -0.006639648 -0.012265476 0.10115445
0002c0 1e 18 58 3d 8c 5d 66 3d 3e 53 6b 3e 26 12 e6 bd
       0.052757375 0.056241557 0.22980973 -0.1123393
0002d0 88 1a 92 bb df bf a7 b9 50 75 65 3d 89 e0 a5 bd
       -0.004458729 -0.00031995677 0.05602008 -0.08099467
0002e0 e0 74 c2 ba 4b 84 8e ba a0 ed d1 39 26 16 00 3b
       -0.0014835857 -0.0010873167 0.0004004063 0.0019544451
0002f0 57 31 92 bc b9 db b0 bb de 23 34 bb 55 72 7c bb
       -0.017845793 -0.0053972867 -0.0027487199 -0.0038520296
000300 96 50 8b 3d 47 54 23 3d 83 37 68 3e f0 fd 08 be
       0.0680248 0.039875295 0.22677426 -0.1337812
000310 64 a6 36 bd b9 c8 9a 3b e5 d7 1d 3d e6 85 c3 bd
       -0.044592276 0.004723635 0.03853597 -0.095470235
000320 ec b9 e0 3c aa c9 cd ba 24 35 88 3e cb 10 75 be
       0.027432404 -0.0015700359 0.26603043 -0.23932187
000330 3c a1 ea 3c ee e4 bc ba a8 a7 6a 3c fb 53 57 be
       0.028641336 -0.0014411488 0.014322199 -0.2102813
000340 73 de 88 bc 5c d4 84 bb 0c 86 09 be e8 aa db 3d
       -0.016707635 -0.0040536355 -0.13430041 0.10725957
000350 e4 25 77 3d 19 5b fb 3b 01 bb 8f be 1b 04 ba 3d
       0.06033887 0.007670772 -0.2807236 0.09082814
000360 f2 68 53 3d 3f 73 8a 3c 1d 86 65 3e f8 c4 ee bd
       0.051613756 0.016900657 0.22414441 -0.116586626
000370 d2 15 4d 3d a6 17 81 bb 8e 5b 13 3d 21 7c c0 bd
       0.050069638 -0.0039395867 0.035975985 -0.09398676
000380 a2 ce 72 bc 5d e9 72 bc f8 21 88 bc e5 36 7a bc
       -0.014819773 -0.014826146 -0.01661776 -0.015271877
000390 bc 7f f9 bb ce d3 45 bc 06 18 54 bc 4a 6b 2c bc
       -0.007614104 -0.012074424 -0.012945181 -0.010523627
0003a0 8d d2 07 3a 79 10 e3 bc 13 9c d9 bd 31 8d e7 3d
       0.0005181216 -0.027717816 -0.10625472 0.11306227
0003b0 dc 40 be 3d b8 cd b5 3b 51 af 3a be 98 95 bb 3d
       0.09289715 0.005548205 -0.1823094 0.09159392
0003c0 21 07 28 3d a6 de 52 3d ff 90 64 3e d0 23 f2 bd
       0.041022424 0.051481865 0.22320937 -0.11823237
0003d0 b4 67 b4 bc 49 98 04 3a 53 25 52 3d a9 b8 93 bd
       -0.022022106 0.00050580926 0.051305126 -0.072129555
0003e0 4e 2a 12 3d a3 4f 73 bb fe 82 a0 3e 96 12 54 be
       0.035684876 -0.0037126325 0.3134994 -0.20710215
0003f0 fe 58 13 3d 4c 46 27 39 c7 87 21 3c e5 84 58 be
       0.03597354 0.00015952549 0.009859032 -0.21144445

edge_embedding_layer.edge_feature_NN.weight f4 [64, 64]
000000 de 3e 45 3d ff a9 da 3b 81 0b 35 3d 7b 4c 6a 3d
       0.048155658 0.006673097 0.044200424 0.057201844
000010 f9 9d 22 3c 4c 99 06 3c d6 21 da bc 19 e1 63 bd
       0.009925359 0.00821526 -0.026627462 -0.05563459
000020 2d 9e e8 bc 3b 56 af bc 67 27 16 bd 91 74 a1 3a
       -0.028395737 -0.021403423 -0.03665867 0.0012318065
000030 33 a8 b9 bb 65 e2 94 3d fc b0 21 bd 24 7f 72 3d
       -0.005665803 0.07269744 -0.039475426 0.059203282
000040 84 7b ee bc 16 18 fa 3c 1e ad 0c 3d 94 61 2b bc
       -0.029111631 0.030529063 0.034344785 -0.010460276
000050 fb cc e5 38 6b e9 0d bd 49 85 26 3d 70 99 29 3b
       0.000109577515 -0.034646433 0.040654454 0.002587881
000060 ba 9e 25 3d f3 25 fe 3d 8d 70 6b bd 52 cb 05 3d
       0.040434577 0.12409582 -0.057480384 0.032664604
000070 7f a5 0e bb e5 a0 52 bd 87 6a 34 3d bf b8 00 3e
       -0.0021766124 -0.051422972 0.044046905 0.12570475
000080 55 7c 17 bd 9f 69 1c bd 23 f4 93 3d 40 31 60 bb
       -0.036983807 -0.038186666 0.072243 -0.0034209043
000090 bd f6 31 3d 0b ae 09 bd 98 25 41 bd 12 16 76 3d
       0.0434482 -0.033613246 -0.047154993 0.06007964
0000a0 0b 44 22 bd 3a 67 63 3d 69 70 9f 3c 3e 35 8c 3d
       -0.039615672 0.055518366 0.019462781 0.06846093
0000b0 67 70 5e 3b ac 9b 00 bd 38 ff 29 bd 78 23 13 bb
       0.0033941509 -0.03139846 -0.04150316 -0.002245156
0000c0 f6 60 09 3b 7e 90 45 bd 97 4d 8e 3c 2f b6 29 bc
       0.0020962334 -0.0482335 0.017370982 -0.010358377
0000d0 b4 1f c0 3c f9 a5 54 3c 77 3c 44 bd 24 10 f3 3c
       0.023452617 0.012979024 -0.047909226 0.029670782
0000e0 ba 81 92 3d 2e 7d ef 3d dc 2d 18 3c f1 16 9b 3c
       0.0715365 0.11693798 0.0092882775 0.018931838
0000f0 f4 f3 89 3d c8 51 a7 3d 8c f1 c2 3c 9d 9c 5b 3d
       0.067359835 0.081698954 0.02379682 0.053616155
000100 f4 3f 30 bc 1d 46 05 bc e5 e4 cb 3a 0e c6 06 3c
       -0.010757435 -0.008134392 0.0015555887 0.008225931
000110 3b c1 fb 3a 29 c2 0d 3b 0b 19 f8 3b 69 7d 33 3c
       0.0019207367 0.002163062 0.0075713447 0.010955193
000120 c0 6f f1 bb bd e7 c3 bb b4 29 25 bc f0 30 0b 3a
       -0.007368058 -0.005978553 -0.010080744 0.00053097215
000130 a9 c0 61 3c 7b 8d cc 3b 1a 91 9f 3b 79 5e 64 bc
       0.013778844 0.0062424517 0.0048695924 -0.01393854
000140 46 7b b4 3a 0f bd fc 3b 6f 53 04 3c 29 8b fd ba
       0.0013769649 0.007712967 0.008076533 -0.0019343841
000150 cf 71 16 bc b8 03 14 bc 66 43 96 bb 00 88 ca bc
       -0.0091824075 -0.00903409 -0.0045856712 -0.024723053
000160 2f 5e f8 3b 0e d6 4e 3c 4e f2 c5 bb b2 7d 3c bb
       0.007579587 0.012624277 -0.006040848 -0.0028761444
000170 db cc 4c 3c ef dc 9e bc ea b2 bf 3b f0 d3 97 3b
       0.012500013 -0.019392459 0.0058501856 0.004633419
000180 69 f0 6c b8 1e c7 7f bc b4 ef 2d bc 0a fb 45 bb
       -5.6490684e-05 -0.015611438 -0.010616232 -0.0030209445
000190 24 f7 ba bc c7 52 97 3b cd 1f ac bb d6 77 15 3c
       -0.022822924 0.004618022 -0.0052528144 0.009122809
0001a0 fe e5 1d 3b b3 81 50 3c 9c 85 c7 3b b7 1b a3 3b
       0.0024093385 0.012726235 0.0060889255 0.004977669
0001b0 db c8 22 bb 53 58 4a bc d0 3d 18 ba b7 aa 88 3c
       -0.0024838957 -0.01235016 -0.00058075506 0.016682966
0001c0 bb e4 5b 3c f3 47 41 3a f0 e0 b4 3b ea 70 63 3b
       0.013421233 0.0007373087 0.0055199787 0.0034704753
0001d0 45 dd c0 bc f4 6d 48 bc de bd 85 3b b4 96 93 bc
       -0.02354301 -0.012233246 0.004081472 -0.018016197
0001e0 a8 2d 0d bc 50 80 dc bb 79 e1 ae bb bd ac 03 3a
       -0.008616842 -0.006729163 -0.005336937 0.00050229934
0001f0 be e8 a8 3b 6f 5d 33 bb 11 53 13 3c 2f a5 e6 bc
       0.005154698 -0.0027368923 0.008991973 -0.028154938
000200 20 30 49 bc fb 22 d0 bb 11 db 9a 3c 30 f7 81 bc
       -0.01227954 -0.0063518262 0.018903287 -0.015864938
000210 2e 3d 3e bc c2 eb 84 bb 58 ed 0a 3d 08 7e 60 3c
       -0.011611266 -0.004056425 0.033917755 0.013701923
000220 35 8b 32 3d 61 70 38 3c a8 84 3a 3c 7a 20 10 3b
       0.04358979 0.011257262 0.011384167 0.0021992014
000230 f0 33 fb ba dd f9 2d bd 73 49 29 3b c2 41 2a bd
       -0.0019165259 -0.042474616 0.0025831133 -0.041566618
000240 7b 81 22 ba 3c b8 c2 bc de e7 59 bd 5b 3c 9b 3c
       -0.00061991037 -0.02376949 -0.05319964 0.018949678
000250 fd 53 c6 bc 76 c5 87 3c 45 11 de bc 27 e6 86 3b
       -0.02420997 0.016573649 -0.027107844 0.0041167918
000260 89 dc c3 bc 2e 9a ef bd a3 ff a0 3c 43 57 9c bd
       -0.02390887 -0.11699329 0.019653147 -0.07633831
000270 35 95 f6 bb 2f 25 6f 3c 8c bb 6c bc 7f 8d 0a be
       -0.007525111 0.014596268 -0.014449012 -0.13530539
000280 c4 90 ee 3c 26 7e d4 3c 96 b7 de bc 09 06 95 3c
       0.029121764 0.025939059 -0.02718715 0.018191354
000290 ba e5 a1 bc b5 8b e8 3c 25 18 45 3c ed 79 50 bd
       -0.019762862 0.02838693 0.012029682 -0.050897527
0002a0 44 60 24 3d be 29 e8 bc a1 fa 37 bd 0a af ef bc
       0.04013087 -0.028340217 -0.044916753 -0.02925827
0002b0 7b 60 48 bb fe 74 24 3d bb a1 0d 3d d8 4f 38 3c
       -0.0030575085 0.040150635 0.034578066 0.011249505
0002c0 6b d2 58 bc c3 4a be 3c bd 89 0d b9 0b 16 36 3c
       -0.013233761 0.023229009 -0.0001349812 0.011113654
0002d0 f8 ad d3 bc 03 67 cd 3a 04 48 11 3d 27 4f 8d bd
       -0.02583979 0.0015670959 0.03546907 -0.06899863
0002e0 fd 19 8c bd 49 7b 0d be 1b 3c 9e 3b 43 2e 12 3c
       -0.06840894 -0.13816561 0.0048289425 0.0089221625
0002f0 c9 b8 f1 bc fd 91 e0 bc bf 28 5f bd 69 77 a7 bc
       -0.029507058 -0.027413363 -0.054482218 -0.020442681
000300 9c 66 64 bc 57 1e e1 bb c6 44 18 bc d4 c6 0b 3c
       -0.01394048 -0.006870072 -0.009293741 0.008531291
000310 e5 1f 5b 3b 8d ab 06 bc 2a d1 22 bc 25 eb f1 35
       0.0033435759 -0.008219612 -0.009937564 1.8024335e-06
000320 52 9b d5 3b c1 e4 cd ba 4f e1 0a 3c dc 1a f1 bb
       0.0065187598 -0.0015708433 0.008476569 -0.007357938
000330 d7 1d 97 bb 7e a0 13 3b 7d 20 10 bc e3 d0 18 bb
       -0.0046117115 0.002252608 -0.008796808 -0.0023317866
000340 65 e4 8e bc 73 cc c7 3b 24 6c 81 bc 27 9a a6 bb
       -0.017442891 0.0060973703 -0.015798636 -0.0050842944
000350 a2 c0 87 3b 83 42 97 bb ba 78 86 b8 3a d2 1c bb
       0.0041428367 -0.004616083 -6.412105e-05 -0.0023929016
000360 54 f5 24 3b 92 8a 28 bc d8 f6 48 bb ed 3f 01 3c
       0.002517064 -0.010286944 -0.0030664708 0.007888776
000370 f8 81 31 3c 20 03 96 ba 56 77 30 bb e0 12 84 ba
       0.01083421 -0.0011445023 -0.0026926599 -0.0010076426
000380 08 8e 85 bc c1 81 ea 3b fb d0 88 3a 4a 8a 47 39
       -0.016303077 0.007156581 0.0010438258 0.00019029636
000390 d8 bb 6b 3a 35 73 b7 bb 1d 83 b8 bb cf c7 0a 39
       0.00089925295 -0.0055984505 -0.0056308643 0.0001323514
0003a0 06 0f b3 bb 46 bf 89 bb e2 05 03 39 24 5f 5c b9
       -0.0054644374 -0.00420371 0.00012495325 -0.00021016278
0003b0 c0 a7 8f 3c 9f 19 8b 3c 42 59 5d bc 35 39 bb 3b
       0.017536044 0.01697999 -0.01351005 0.0057136067
0003c0 c1 9b 24 ba a7 91 a4 b9 95 33 47 3b db 2f 5a bc
       -0.00062793127 -0.00031389037 0.0030395736 -0.013317074
0003d0 a6 49 16 ba bd 55 b3 3b cb c1 cd ba 05 fa fb bb
       -0.00057330204 0.0054728673 -0.0015698014 -0.0076897168
0003e0 a2 cc 57 3c 3b bc 5d bc 78 85 bc b9 4f f0 22 ba
       0.013171347 -0.013533647 -0.00035957596 -0.00062156183
0003f0 16 54 06 bb 9f eb 0d bc 37 7b d4 3b 9d 6e 9e bb
       -0.0020496896 -0.0086621335 0.006484415 -0.0048349635

update_node_embedding_layer.0.message_layer.weight f4 [64, 128]
000000 98 4a 82 bc 29 e5 a3 3b 21 04 67 bc 93 43 8a bb
       -0.01590471 0.0050016833 -0.0141001055 -0.0042194813
000010 1a 80 92 bc a3 54 3a 3c fe 2b fd 3b 1a 52 dd 3b
       -0.01788335 0.011372718 0.0077261915 0.006754172
000020 8a ad a0 bb d1 76 9c bc e0 5d 1b 3c 9c 5a 90 bc
       -0.0049035 -0.019099625 0.009482831 -0.01762133
000030 7b d4 88 bc c1 f1 25 bc 93 d6 c2 3b 9f 18 10 3b
       -0.016702881 -0.010128439 0.0059459894 0.0021987332
000040 3d c4 56 bc 67 83 73 bb 35 3f ec 38 a6 03 09 3c
       -0.01310831 -0.003715718 0.0001126513 0.008362686
000050 38 25 40 bc 3f f8 b1 bc 45 5e 08 bc d3 26 08 bc
       -0.011727624 -0.021724818 -0.008323257 -0.008310038
000060 69 f3 a9 3c 56 29 4b 3c fd 2f 99 bb 48 51 85 bb
       0.02074595 0.012399992 -0.00467491 -0.0040685274
000070 e2 ac c5 bb 8c 7f 7d bc 39 19 0d bc 1e 13 75 3c
       -0.006032572 -0.015472304 -0.008611971 0.014958171
000080 49 2e f7 ba d3 66 3a 3c d8 86 75 3b b0 ef a1 bb
       -0.0018858399 0.011377054 0.0037464406 -0.004941903
000090 f1 9d 62 bb ca 95 98 bb 0d 5a 9c bc 80 b4 1b bc
       -0.0034579004 -0.004656528 -0.019085908 -0.009503484
0000a0 60 d9 b2 bb 70 34 9f 3b 8a aa 85 bc f1 b9 45 bc
       -0.005458042 0.004858546 -0.01631667 -0.012068258
0000b0 94 d2 73 3b 00 fd 1d 3c 56 9f 42 bc 57 0a 00 b7
       0.0037204372 0.009642839 -0.011878809 -7.631802e-06
0000c0 02 4d 23 bc d1 68 52 3c d5 b3 db ba f8 18 b0 bb
       -0.009967091 0.012842373 -0.0016761968 -0.0053740703
0000d0 48 31 41 3b 50 18 87 3b af c8 99 bc f9 4f 61 3c
       0.0029478837 0.0041227713 -0.018772451 0.013751977
0000e0 22 e4 ed bb d2 bd d5 bb 2e b4 17 bc 17 bb e6 ba
       -0.0072598616 -0.0065228725 -0.009259267 -0.0017603365
0000f0 3a 3d 1c 3b ae 64 b2 3c 6f 3b 02 3c 4a f9 1b bb
       0.0023840205 0.021776523 0.00794874 -0.002379971
000100 70 09 ce bb 76 3f 1f bb 14 1a 2f 3c bd 63 4a bc
       -0.006287746 -0.00242993 0.01068737 -0.012352881
000110 b4 95 4f ba e5 4b 2d ba cb 7f 69 bc 5f 9c 03 3c
       -0.0007918731 -0.00066107354 -0.01425166 0.008032887
000120 8e 70 11 bc 23 e9 00 bb ac 34 b0 bb df e5 60 3c
       -0.008876933 -0.001967021 -0.0053773727 0.013726681
000130 ec 7e 8e bb d3 d2 95 3b e3 42 e4 3a 6d 20 a7 3c
       -0.0043486264 0.0045722513 0.0017414953 0.020401204
000140 9f 51 8d bb 2d d9 04 3a 8c 4a a5 ba d7 23 ac bb
       -0.0043127085 0.0005067762 -0.0012610718 -0.005253296
000150 b0 ce d8 bb 4f f6 89 3b b4 59 0b bc b9 06 8a 3c
       -0.006616436 0.0042102705 -0.008505274 0.016848909
000160 b5 e9 3e 3b 0d ac 97 3a 54 22 88 3b 29 b8 5e 3c
       0.0029131 0.0011571661 0.004154483 0.013593712
000170 a6 a9 5d bc a1 53 64 bc a8 14 be bb f8 b5 a5 3c
       -0.013529217 -0.013935954 -0.0058008023 0.020228371
000180 bc 35 72 3c b4 e2 97 bc ca 9d 62 3c 45 fb ac ba
       0.014783319 -0.018540718 0.013831565 -0.0013197443
000190 7b c8 7d 38 1e 3c 0b bb 49 70 17 bc ae 43 c8 3c
       6.0506612e-05 -0.002124555 -0.009243079 0.024446335
0001a0 f5 2f 1c 3b ec 91 33 bb c0 36 74 3b 42 57 97 3b
       0.0023832296 -0.0027400209 0.003726408 0.0046185562
0001b0 67 3f 41 bc dd 15 ac bc 1b dd ec 3b 10 c5 ba bb
       -0.011794901 -0.021006519 0.0072285063 -0.005699761
0001c0 5d 27 d6 bb 69 95 72 3c 53 6f dc bb 37 b9 08 3c
       -0.006535454 0.01480613 -0.006727138 0.00834494
0001d0 8f ac 01 3b 54 bb e5 3a 90 1c dd 3b 6b 37 39 bc
       0.001978669 0.0017527142 0.0067477897 -0.011304717
0001e0 4a 61 01 3c 56 54 06 3c 46 01 00 bc 5c 40 5c bc
       0.007896731 0.008198818 -0.007812804 -0.013443079
0001f0 72 e3 38 bb cf f1 d2 3a c8 73 f3 3b 18 56 6c bb
       -0.002821174 0.0016093793 0.0074295737 -0.0036062058
000200 7b e9 8a bb 71 85 a4 bb b2 e1 66 bc 31 c2 f7 3b
       -0.004239259 -0.0050207903 -0.014091896 0.007560991
000210 ee af 9a bb d2 00 77 3c a0 c5 b2 3a be 70 91 bc
       -0.0047206795 0.015075879 0.0013639219 -0.017753955
000220 92 40 e9 3b da 2c 9c 3c 15 af ef 3b 53 db 1a ba
       0.007118293 0.019064356 0.0073145726 -0.00059073156
000230 bb 00 02 3c 7c c7 bc ba b7 0d 6d 3b 69 6c 29 3c
       0.0079347445 -0.0014402713 0.0036171505 0.010340788
000240 28 ca d4 bc 8f fd 28 3c c3 a8 37 3a 5f 86 31 3c
       -0.025975302 0.010314359 0.00070060435 0.010835259
000250 f8 9a e8 3b 93 17 01 3c af 7f 3d 3c 4c c9 c0 bb
       0.007098552 0.007879156 0.011566087 -0.0058833715
000260 e3 8d 0f bb a6 31 2d bc f0 d5 3b 3c 18 56 36 3c
       -0.002190464 -0.010570919 0.011464581 0.011128925
000270 33 fd 02 3c 15 9b 7a bc fd 93 3f 3c 41 eb ce bb
       0.007994938 -0.0152957635 0.011692998 -0.0063146655
000280 bd bc 71 ba 05 eb 71 3a 60 65 81 bb 35 4b 5a 3b
       -0.00092215446 0.0009228441 -0.0039488524 0.0033308987
000290 ef 16 33 bc b3 46 13 3b ce ce 6e 3c 02 a4 08 bc
       -0.010930761 0.002247256 0.014575673 -0.008339884
0002a0 0c 36 72 39 a6 d1 7a 3b 42 0a 0d 3c 2b 0a 72 bc
       0.00023099052 0.0038271933 0.008608403 -0.014772932
0002b0 d7 65 74 bb 72 14 e7 ba 45 ab 85 3c 6a 26 5d b8
       -0.0037292147 -0.0017629995 0.01631702 -5.2726282e-05
0002c0 aa a0 a5 bb e7 e5 61 ba eb 59 8d 3c 93 02 0c bc
       -0.005054553 -0.0008617327 0.01725479 -0.008545536
0002d0 db ca 32 3c d5 ff 54 bc 0e 08 78 3c c5 ad 62 3a
       0.010912622 -0.013000448 0.015138639 0.00086471095
0002e0 cb a5 21 bb 08 18 59 bc 65 60 62 3c 5a 9e 84 bc
       -0.002466547 -0.013250358 0.013816928 -0.01618879
0002f0 b0 00 33 3b 01 cd 8f 3b 5d e5 9f ba c0 bd 17 3b
       0.0027313642 0.004388452 -0.0012199093 0.0023153871
000300 02 ba 23 3b 7e de 04 ba d2 fd 58 bc f3 d5 ef bb
       0.0024982695 -0.00050685543 -0.013244109 -0.007319206
000310 df 20 b4 bb fc 13 18 3c 4a d8 05 3b 88 1e 12 bb
       -0.0054970826 0.009282108 0.0020423108 -0.002229603
000320 c4 da 66 ba 2d d1 06 3b 49 31 c6 39 00 8e 51 bc
       -0.00088064023 0.0020571456 0.00037802223 -0.012790203
000330 ac c1 5b 3c 7e 6f 87 3b 20 6a a3 bb a7 95 9f bb
       0.013412874 0.004133164 -0.0049870163 -0.004870135
000340 e8 20 96 bc c3 70 1c 3c 73 fc 32 bc bc de 7f bb
       -0.018326238 0.009548369 -0.010924446 -0.0039042672
000350 29 16 49 3a 34 57 4d 3c 21 0c 3c 3a 44 47 5f bc
       0.00076708436 0.012532998 0.0007173438 -0.013627831
000360 1c 04 0d bb a2 5f 97 b9 70 0a f3 ba 05 7c 13 bc
       -0.0021517342 -0.00028872216 -0.0018542539 -0.0090017365
000370 ee 68 1d 3c ff ac 6d 3b e1 8b b7 bb 03 c3 5d ba
       0.009607537 0.0036266444 -0.0056013917 -0.000845954
000380 4e e2 93 ba 12 46 d9 bb 85 fb 0a bc 0a a1 f1 b8
       -0.0011282654 -0.0066306675 -0.0084828185 -0.000115217714
000390 6a d6 2b bb 92 55 19 bb e5 42 03 bc 86 88 8d bc
       -0.002622033 -0.002339695 -0.008011554 -0.017277014
0003a0 73 8d 60 3b be 3b 64 bc 93 ef 99 3b b3 51 65 bc
       0.0034263998 -0.013930259 0.004697749 -0.013996529
0003b0 17 dc f5 bb da 16 0b 3b 15 71 97 bc 9e 71 3c bc
       -0.0075030434 0.0021223337 -0.018486539 -0.011501698
0003c0 10 36 be 3b 09 c3 37 3b e5 69 ca b9 a9 da 74 3c
       0.0058047846 0.0028039834 -0.0003860734 0.014944711
0003d0 37 d3 ed 3b 9c 36 4e 3c f2 97 5c 3c 64 75 9f bc
       0.007257845 0.012586262 0.013463961 -0.019465156
0003e0 da 54 1c bb 61 51 4f 3b 77 91 54 bc b2 07 2d 3c
       -0.0023854286 0.00316342 -0.012974135 0.010560917
0003f0 10 f1 fe bb a9 09 2d 3b 9e 41 8e 3c 9d d6 b9 bb
       -0.0077802017 0.0026403463 0.017365273 -0.005671336

update_node_embedding_layer.0.update_layer.weight f4 [64, 128]
000000 d7 05 f6 3b b1 16 ec 3b 35 f2 62 3a c8 21 a9 bb
       0.0075080204 0.0072048535 0.00086573075 -0.0051614977
000010 54 be f3 3b 42 27 44 bc 0d 7a b9 bb 8f ee 99 ba
       0.0074384604 -0.01197225 -0.0056603015 -0.001174407
000020 70 e8 da 3b 8f 7e 6c 3c 84 fb 3d bc 45 4d da ba
       0.0066805407 0.014434471 -0.0115956105 -0.0016655108
000030 04 2f a5 bc 22 46 2b ba b5 90 06 bb 46 b8 04 bc
       -0.02016402 -0.0006533583 -0.002053303 -0.008100575
000040 f0 c3 49 3c 2d 10 cc 39 24 b2 65 bc f1 8a 51 bb
       0.012314782 0.00038921964 -0.014019523 -0.0031973685
000050 3d 05 4a ba 6f 68 1f bc f3 67 17 bc 13 7e 8b bb
       -0.0007706469 -0.009729489 -0.009241092 -0.0042569726
000060 6c 0e 23 bc 01 64 24 ba c0 b3 45 bc 6e 0e 30 ba
       -0.009952169 -0.0006271005 -0.0120667815 -0.00067160174
000070 b9 48 f3 3a 75 d8 26 bc 53 8c 30 3c 5c 86 c9 bb
       0.0018561102 -0.010183443 0.010775643 -0.00615005
000080 89 f7 a5 bc 1d ad 09 bd 95 e6 10 bc 8f cc cd 3b
       -0.020259636 -0.03361236 -0.008844038 0.006280489
000090 35 d2 56 3c 01 96 0a 39 97 28 06 bc 9e d8 8c 3c
       0.013111641 0.00013216586 -0.008188388 0.017193135
0000a0 4d 73 29 3c c4 b0 8f bb fd d2 7e 38 ed 0b 0c bc
       0.010342431 -0.004385086 6.0754817e-05 -0.008547765
0000b0 e8 62 f1 bb 10 10 67 3c f0 4f c7 bc a5 87 9c 3b
       -0.007366527 0.014102951 -0.02433011 0.0047769123
0000c0 ee 6a 6f bc df cc 94 3b 9b 4f 91 bb 91 c7 11 bc
       -0.014612896 0.004541024 -0.0044345385 -0.008897678
0000d0 d6 43 31 bc a6 4d ee bb 52 93 95 bb 73 c5 a7 39
       -0.010819396 -0.00727244 -0.004564681 0.00031999833
0000e0 2b 17 e6 ba 53 63 53 bc 42 a4 a7 3b be 83 de bb
       -0.0017554512 -0.012902099 0.0051160166 -0.0067906072
0000f0 d4 e9 ff ba 4d c9 f3 bb 9c 8b a4 3c 8d 4b 6b 39
       -0.0019524642 -0.0074397684 0.020086102 0.00022439491
000100 cc ff 4b 3c 43 bd 80 3b bc 6b 12 3c ff 3b 5a 3b
       0.012451123 0.0039288118 0.008936819 0.003329992
000110 e9 b7 8b bb 70 5b a2 bb 60 af 52 3c 76 8c 67 bb
       -0.004263867 -0.004954748 0.0128591955 -0.0035331524
000120 d8 a3 d3 bb 0c f3 e4 3b b9 03 ef 3b 08 85 42 ba
       -0.0064587407 0.0069869813 0.007294145 -0.0007420336
000130 85 1d 85 3c ae 19 bd 3a ce fb ce bb 7d e7 67 3b
       0.016249428 0.0014427209 -0.0063166386 0.003538578
000140 bb c9 8a 3c ba 3c 28 bc 33 01 e6 3b 42 10 9f 3a
       0.016941896 -0.010268385 0.007019186 0.0012135583
000150 9e 3a 20 3c 8f 82 34 bc d1 ff 10 bc 3a 51 1b 3b
       0.0097796 -0.011017456 -0.008850054 0.0023699538
000160 35 c6 1e bc e8 52 47 bc 5c ce ab 3c 3e db 7a 3c
       -0.009690811 -0.0121657625 0.020972423 0.0153110605
000170 e1 76 8c 3a d7 d9 88 3c 21 c3 37 bb 97 fe 5e bb
       0.0010716581 0.016705437 -0.002803989 -0.003402626
000180 fd 57 5b 3b de cd 48 3c 8a 2a a0 3a de ef 2a bc
       0.0033469193 0.012256114 0.0012219709 -0.010433165
000190 ad 25 80 bc da 09 ad bb e8 ba 3b bc 0d 81 a8 bb
       -0.015642965 -0.0052807154 -0.011458136 -0.005142337
0001a0 17 24 4c bc a2 66 7b 3c a3 ee 78 bc c3 fd 29 bc
       -0.012459776 0.015344294 -0.015193614 -0.010375443
0001b0 43 8e c7 ba 25 c5 de bc 4a 6d 9a bc 9f d9 c0 bb
       -0.0015224892 -0.027193615 -0.018850941 -0.0058853175
0001c0 c5 6c 78 bb 23 6a 31 3b 7b a8 b7 bb 64 1b 16 bc
       -0.0037906629 0.002707132 -0.0056048012 -0.009161804
0001d0 c0 43 18 bc c5 d8 41 bc f8 82 20 bc a9 76 8a 3b
       -0.009293497 -0.011831467 -0.00979685 0.004225571
0001e0 8b 9f 10 bb a9 3d ba 3b bb 34 d2 3c 09 9b bd bc
       -0.0022067751 0.00568362 0.02565991 -0.023145216
0001f0 94 c8 e2 bb 15 8d 5d 3b 19 62 22 bb 13 00 76 3c
       -0.0069208834 0.0033806015 -0.002477771 0.015014666
000200 dc 4b 2c 3d 48 96 9d 3c c7 15 31 bb e1 83 f8 3b
       0.042064533 0.019236699 -0.0027021037 0.0075840806
000210 a5 df ad bb 1c f7 ae bb 7b 21 72 bd fd 54 34 bb
       -0.0053062015 -0.0053395163 -0.05911396 -0.0027516477
000220 71 b3 22 3d 89 df a7 bc 1b 7e b7 3c ae 55 0e 3d
       0.03972191 -0.020492332 0.022398999 0.03474968
000230 00 9f e1 bc a4 67 a4 3c 03 25 03 3d 7c 29 7a bd
       -0.027541637 0.020068951 0.03201772 -0.06107472
000240 e3 fa dd 3c 98 9c f1 b9 a4 8e 27 3d 0a 63 ab bb
       0.027097171 -0.00046083773 0.040907517 -0.0052303122
000250 b1 e4 74 bc 6f 21 1b 3d e0 02 69 3c 5f 0c 2d 3d
       -0.014947102 0.03787368 0.014221877 0.042248126
000260 e2 19 04 3c 03 86 da 3b 0d 10 d0 3b ec 7d f5 3b
       0.008062812 0.0066688075 0.0063495697 0.0074918177
000270 cd 3f 89 bc 92 c1 c3 3c 4a a0 a2 3d 92 c1 c0 3c
       -0.016754055 0.023896012 0.07940729 0.023529802
000280 69 6d 51 bc 84 dd 0a be 83 52 cb bc b1 52 84 3c
       -0.012782433 -0.13561064 -0.024819618 0.016152712
000290 95 78 26 3d 95 f3 52 3d 0f 27 aa 3d f8 76 9a bc
       0.04064234 0.05150183 0.08308231 -0.018855557
0002a0 ed d5 a0 3c 95 f3 83 39 e8 3a 56 3d a3 0a b0 3c
       0.019633258 0.0002516775 0.05230227 0.021489447
0002b0 05 87 1b bc 41 6d c3 bb 6d 15 4a bd 1a 43 1a 3c
       -0.00949264 -0.005963952 -0.04933684 0.009415412
0002c0 b4 22 c9 bc 21 4c 2a 3d 05 f0 dd bc 3f 08 c4 bd
       -0.02455268 0.04157651 -0.02709199 -0.09571885
0002d0 33 7c 87 3d 9a 2e 07 3d e0 83 02 3d 69 ae d4 bc
       0.06615486 0.033003427 0.031864047 -0.025962071
0002e0 28 2f 53 bc 58 93 0c 3d 63 21 89 3c 4d 14 b2 3c
       -0.012889661 0.034320205 0.016739553 0.021738196
0002f0 ab 27 f8 bc 79 9d 17 3d 0f 0f 69 3d 96 9d 8e 3b
       -0.030292353 0.037015412 0.056899127 0.004352282
000300 25 16 a9 bb 0f cb 1c 3c 80 c7 c7 3c 21 ba 1e 3a
       -0.0051601105 0.009569897 0.024387121 0.0006054957
000310 bb ad cf bc 11 97 07 bc ce ca 35 3b a8 54 8e bc
       -0.025351396 -0.008275763 0.002773929 -0.017374352
000320 68 e0 58 3c 40 a7 91 bb f6 4e e7 3a 34 eb 3c ba
       0.013237096 -0.0044449866 0.0017647434 -0.0007206679
000330 4b b3 16 bc 38 35 46 3c aa fe 17 3c 83 f7 20 bd
       -0.00919802 0.012097649 0.009277025 -0.039298546
000340 39 31 ba bc c5 d2 92 3b d5 a9 95 bc fc 13 0f b9
       -0.02272855 0.004480692 -0.018269459 -0.00013644987
000350 dd 61 0c 3c ea 93 25 3b 1d 1d 09 3d d0 3f f5 bb
       0.008568254 0.0025265166 0.03347503 -0.0074844137
000360 8c cd 57 bc 98 c1 8f bc 99 e9 68 3b e5 6b fe 3a
       -0.013171565 -0.017548367 0.0035539626 0.0019410817
000370 d7 15 ff 3b 8b 10 e9 bb 97 23 93 bc c9 56 4b 3c
       0.007784586 -0.007112568 -0.017961306 0.012410828
000380 cd 31 8c 3c 0a c0 da bb 10 0c b3 bd 07 a6 1a bd
       0.01711359 -0.006675725 -0.08742535 -0.037755992
000390 f8 30 f2 b9 c5 1e 86 3c d7 38 ce 3a e8 d2 21 3d
       -0.00046194321 0.016372094 0.0015733492 0.039507776
0003a0 3b 07 06 3c ca 6b a0 bb 2d f1 e7 3c 1b 83 47 3c
       0.008180435 -0.004895662 0.028313244 0.012177254
0003b0 be b4 bc bd 47 d0 44 bc 5d e7 f2 3b c6 7a 0d 3c
       -0.09214161 -0.012012548 0.0074128346 0.0086352285
0003c0 73 a3 8a 3a 26 64 94 bc 93 22 ae bc 2c 90 bd bd
       0.0010577276 -0.01811416 -0.02125672 -0.09256014
0003d0 29 36 68 3c cf c7 8c bb c0 52 ab 3b 1f a0 97 3b
       0.014173069 -0.00429628 0.0052283704 0.004627242
0003e0 9e e2 4d 3c c7 7c 43 3c 9c f2 5c bc d3 17 03 3c
       0.012566237 0.011931605 -0.013485577 0.008001286
0003f0 89 51 ea bb f1 bd 33 bc 74 35 86 bb 69 7a 0c bc
       -0.007150833 -0.0109705785 -0.0040957276 -0.008574107

update_node_embedding_layer.1.message_layer.weight f4 [64, 128]
000000 f7 d5 20 bb 6e 9f c0 bc f2 32 90 3c ed 2d 32 3e
       -0.0024541595 -0.023513522 0.017602418 0.17400332
000010 bc 7d 5a 39 19 5c 03 3b 86 b4 96 bc 81 ff 8a bc
       0.0002083694 0.0020043908 -0.018396627 -0.016967537
000020 7e 3f 43 bc e7 b0 1d bc 7c 62 bc bc 88 b6 aa bc
       -0.011916993 -0.009624696 -0.02299618 -0.02083899
000030 b7 c5 1d bd 70 5b 8c bc c7 9f 56 3b 69 14 47 3d
       -0.038518634 -0.017133445 0.0032749043 0.04860345
000040 92 54 4d 3e 50 d3 26 bc c4 54 33 3e 68 72 a6 bc
       0.20051792 -0.010182217 0.17512804 -0.020318225
000050 8a 50 92 3d a7 8f 64 bc a6 25 bf bc 9f a0 19 bd
       0.07144268 -0.013950265 -0.023333382 -0.037506696
000060 ef 50 a5 bc 86 7c 5a 3b 7f 9b 03 bb c8 cc c7 bc
       -0.020180194 0.0033338382 -0.0020081697 -0.02438964
000070 41 84 73 3c b9 c8 58 3d 1a 45 2e 3b 3e 8b 35 3c
       0.014863075 0.0529258 0.002659148 0.011080561
000080 f3 85 8d 3d f3 05 83 bc 3e ec 92 bb 2e f0 bd 3d
       0.069103144 -0.015994048 -0.0044837287 0.09274326
000090 c8 9d 85 3b ac eb a4 3d 0a ff c3 ba ad fa 8d 3d
       0.004077647 0.08052763 -0.0014953327 0.06932578
0000a0 ca 23 8b bc 94 8b 23 3e 8e 48 61 3e 7d 4c b9 bc
       -0.016984839 0.15971214 0.22000334 -0.02261948
0000b0 cf 12 b3 bc 4d e3 91 bc b9 21 9f bb e1 17 3f 3d
       -0.021859555 -0.01780858 -0.004856315 0.046653632
0000c0 90 3d 95 bc c6 2a 88 3e e4 4b cd bc c0 87 0e bb
       -0.018217832 0.26595134 -0.025060602 -0.0021748394
0000d0 9e 8a b5 ba e9 e7 a4 bb 3d 44 2d 3e 19 38 18 bb
       -0.0013850515 -0.0050325287 0.16920562 -0.0023226796
0000e0 59 db 80 3d 90 36 05 3d 43 b2 b7 bc 7f 73 8f bc
       0.06291837 0.032522738 -0.022423869 -0.017511128
0000f0 0d a5 13 3c 35 a4 e4 bb 6b f8 96 bc 5d 15 e0 bb
       0.009011519 -0.006977583 -0.018429002 -0.006838484
000100 49 fd b7 3c c1 7d 9a b9 bd 53 a9 ba fe 9e cf bb
       0.022459643 -0.00029466863 -0.0012918633 -0.006336092
000110 9d bc 1c bd a1 57 b2 ba 43 55 74 bc 21 95 b4 bc
       -0.038265813 -0.0013606438 -0.014912906 -0.022043766
000120 ac 63 49 3d a7 aa 1b 3c 86 24 96 3d 50 1e b1 3c
       0.04916732 0.009501136 0.07331185 0.0216209
000130 b6 6b 61 ba 62 8b 77 bc 70 10 38 bc 76 4e 0b 3c
       -0.0008599119 -0.015108915 -0.011234388 0.008502593
000140 fb 88 cc 3b de 43 66 3c dd aa 99 bc f4 1b 37 3b
       0.0062419153 0.014054267 -0.018758232 0.0027940245
000150 e0 13 83 bb 9b c3 6e 39 c3 64 ee 3c 83 d2 b5 3c
       -0.004000172 0.00022770317 0.029100781 0.022195106
000160 29 6b f3 3c fc 6c de 3b 3a 69 ce bb 82 3a c9 bb
       0.029714184 0.0067878943 -0.006299165 -0.006141008
000170 77 d4 8e bc b9 db 29 3d 39 ad cd 3c 0d 0a 1c 3c
       -0.017435296 0.04146931 0.025107013 0.009523881
000180 30 1a 21 bd 91 bf e0 3c e4 36 29 3d 10 56 8d bb
       -0.039331615 0.027435096 0.041312113 -0.004313238
000190 8f 54 c4 bb 5f 79 e2 bc cb 37 2f bc db dd b0 3c
       -0.0059915255 -0.027645765 -0.010694454 0.021590164
0001a0 0e 33 77 3c 5a 9d c8 3c c1 9e d4 3c c6 3d 20 bc
       0.015087856 0.024489094 0.025954606 -0.009780353
0001b0 09 d6 a8 3c 78 f5 96 3b ed c9 06 3d c6 99 54 3c
       0.020609872 0.004606899 0.032907415 0.012976116
0001c0 69 b9 4e 3d 6b 6b e3 3c 41 1a 68 3b 10 a2 c7 bb
       0.05046979 0.027761182 0.003541604 -0.0060923174
0001d0 16 f1 1b bb db cc 9b b9 97 84 33 3d a2 99 f0 bb
       -0.0023794821 -0.00029716533 0.04382762 -0.007342533
0001e0 fb 40 39 3d 7e 39 9e bb 4e 0a 1c 3b 60 57 e8 3c
       0.045227986 -0.004828631 0.0023809853 0.028361976
0001f0 6e a2 7e 3c 2c e4 fc bb c8 78 46 3b 12 bd ee bb
       0.015541656 -0.00771763 0.0030284394 -0.0072857225
000200 9e 80 78 3a e3 31 2a 3d 39 e9 00 bc cb e3 03 be
       0.00094796147 0.041551482 -0.007868105 -0.12879865
000210 ab 4a 1b 3d dc 31 ba 3b 8f 11 6b 3d 23 0b 3b 3d
       0.037913006 0.005682213 0.057389792 0.045664918
000220 bd dc 5d 3d 82 01 89 bd 25 73 57 3d b8 6a 41 3d
       0.05416559 -0.06689741 0.052600045 0.047220916
000230 c6 c1 6f 3d f6 aa 15 3d 72 fa 98 bb 2b 57 55 bd
       0.058534406 0.036539994 -0.0046685273 -0.052085083
000240 1f 5e 20 bd dd 24 25 bc 38 66 d6 bc 2c 79 bf 3c
       -0.03915226 -0.01007959 -0.026171789 0.023373209
000250 02 9c 26 bd 32 cd ec 3c d3 75 36 3d 5e b7 02 3d
       -0.040676124 0.028906438 0.04454596 0.031913154
000260 33 bb 38 3d f7 32 7f 3c e5 7c 31 b9 fc 08 00 3d
       0.045100402 0.015576116 -0.00016926562 0.03125857
000270 fc 39 22 3b 73 3b 08 bd 6a 09 d6 bd 54 ea 25 3b
       0.00247538 -0.03325982 -0.10451014 0.0025316672
000280 21 e3 75 bd 3c df fa ba ea 3b 5e 3d 9d 20 1e bd
       -0.06003106 -0.0019140015 0.054256357 -0.03860532
000290 7f 3b 2a 3c 00 1a 56 bd 0e d5 83 3d fa 60 c4 bd
       0.010390162 -0.05227089 0.06437121 -0.09588809
0002a0 f9 00 77 3d e9 f3 e9 3c b2 b3 08 bd 89 3e 82 bb
       0.060303662 0.028558688 -0.033374496 -0.00397474
0002b0 c6 73 4f bc fd d8 9d bb 98 0e 5a 3c 54 51 13 bd
       -0.01266188 -0.004817127 0.0133091435 -0.035966232
0002c0 14 9a 26 3d e6 f2 e7 3c 4d 0d 54 3d df 24 88 bc
       0.040674284 0.028314065 0.051770497 -0.016619144
0002d0 d4 e7 15 3d 32 5a 49 bc f7 44 5b bd 88 7b 9a bd
       0.03659804 -0.012289571 -0.053532567 -0.07543093
0002e0 0d 56 62 bd 5c 32 1c bd 9b ca b0 3d 59 93 8a 3d
       -0.055257846 -0.038133964 0.08632394 0.067663856
0002f0 c1 4a ad bc 06 da 52 bc bf 33 8b 3d a2 49 68 3d
       -0.02115381 -0.012869364 0.06796979 0.056710847
000300 64 5a 3e bc 2e 2e 54 3a 47 fc 0e 3d 33 1c fb 3b
       -0.0116182305 0.00080940395 0.03490856 0.0076632737
000310 79 c3 20 bd 76 d3 32 bc 28 ab 9c 3c eb 8e 8c 3d
       -0.039248917 -0.010914674 0.019124582 0.06863197
000320 d2 07 a0 bd 18 cd ba bd f0 f8 9f bc 11 77 82 bc
       -0.078139916 -0.0912115 -0.019527882 -0.015925916
000330 59 ff 6e 3c e9 eb 3b 3d c2 04 30 3c 83 0b 35 bc
       0.014587247 0.04587928 0.010743322 -0.011050108
000340 5a af 87 bb 26 83 eb bc ed 3d 41 bc c7 78 cf 3b
       -0.0041407766 -0.02874906 -0.011794549 0.0063315365
000350 bd c3 f5 3b 93 cf 81 3d 22 ec 38 bd 8f d8 0a bb
       0.0075001405 0.0633842 -0.04514707 -0.0021186208
000360 09 f9 cd bd 8f 23 98 bb 5e 2e 7b bd 9d 78 79 bd
       -0.10057265 -0.004642911 -0.061323516 -0.06090604
000370 0d c1 12 bc 46 5d 17 bb 34 05 2a bd 73 df b5 bc
       -0.00895716 -0.0023096367 -0.04150887 -0.022201275
000380 e2 ad ed bd 8f 86 ca bd 1b 96 9d 3c bc c0 00 3c
       -0.11605431 -0.09888946 0.019236615 0.007858451
000390 e0 92 b5 3c 4e 24 51 bc 1d aa 8a bd 2b fe 9e bd
       0.022164762 -0.012765003 -0.06770728 -0.077633224
0003a0 5c e2 94 bd 20 34 da bc ea 62 d0 3c 05 59 34 3b
       -0.07269737 -0.026636183 0.02543779 0.002751888
0003b0 73 6b 78 bd 9c 86 0b 3d fe 6e b2 bb 34 f0 9e bd
       -0.060649347 0.03406392 -0.00544536 -0.07760659
0003c0 cc 64 d5 3b 25 cb df 3c fb 1a 51 3c aa 1f 8f 3c
       0.00651226 0.027318547 0.01276278 0.017471153
0003d0 a8 f2 7d 3c c8 2b 2e bd e2 18 00 be e0 21 2a 3b
       0.015499748 -0.04252222 -0.12509492 0.0025960132
0003e0 43 37 25 3d de 67 c9 bb c6 f2 21 3c 7b 8c 65 bd
       0.040335905 -0.006146415 0.009884542 -0.056042176
0003f0 f0 c8 ae bd 12 d3 de 3b 5d 42 4c bd 52 44 9e bd
       -0.085344195 0.006800064 -0.049867976 -0.07727875
