ER_200spin/eco/network/network5200000.pth (torch, 238273 bytes, 11 tensors)

node_init_embedding_layer.0.weight f4 [64, 7]
000000 ae 12 64 3b 3d 18 84 be a3 74 11 be f5 a0 1e 3d
       0.0034801173 -0.25799742 -0.1420465 0.03872772
000010 b7 a6 df 3b cd 6e a6 bc c1 5f 8f 3d aa 59 2e 3a
       0.006825294 -0.020316506 0.070006855 0.0006650934
000020 48 a5 4f be 35 8b e9 bc 67 ca ed 3d f8 e6 f0 bc
       -0.20277894 -0.028508762 0.11610871 -0.02940701
000030 1d 4f ab 3d 94 83 0a 3d e5 a2 08 39 e8 9f c3 3e
       0.08364699 0.03381689 0.00013030654 0.38207936
000040 74 2f 85 bc 4e a7 a7 bd f2 5f ad b8 04 5d 1e 3c
       -0.016257979 -0.08186208 -8.267154e-05 0.009665731
000050 dd fe ca 3c a8 b8 ef bb ad fa c3 3e 3e 24 b2 3c
       0.024779731 -0.007315714 0.38277188 0.021745797
000060 0e cd 2c bd 8b c7 0b 3a e5 7d 31 3c 0b 95 65 39
       -0.042187743 0.00053321634 0.010833238 0.00021894665
000070 b0 81 c9 bb 43 7c 7f bb 43 85 21 bc 81 e5 35 bc
       -0.006149493 -0.0038983978 -0.009858432 -0.011102081
000080 20 41 31 bc a6 b1 77 bb 6c 62 79 bc 95 ae 35 bc
       -0.01081875 -0.0037795096 -0.0152212195 -0.011088987
000090 75 4a 69 bb 65 52 05 bb e3 15 2f bb b4 0b 59 bc
       -0.0035597358 -0.00203433 -0.0026715926 -0.013247419
0000a0 36 b4 86 bc af fa ae bb 05 66 89 3c 43 c7 e8 3e
       -0.016443353 -0.0053399424 0.01677228 0.45464525
0000b0 68 32 5c 3c 1b 39 7a be 7c 80 1a 3b 07 6a a5 bc
       0.013439752 -0.24435847 0.0023575118 -0.02019216
0000c0 68 c6 ed 3c 78 35 b7 3b d8 89 4e be 4a a2 06 bf
       0.029025272 0.005591091 -0.2016977 -0.52591383
0000d0 ed bb 69 3e 22 18 35 3b f6 60 e8 3d 5c 22 8c 3c
       0.22825594 0.0027632792 0.11346619 0.017106228
0000e0 61 c4 3c 3c 0e 0c 9f be 51 b9 85 3d ad 83 32 3e
       0.01152143 -0.31063884 0.06529487 0.17433043
0000f0 ab 7a ea 39 4b 32 0f 3d d3 ea 79 3d 30 64 34 3c
       0.00044723353 0.034960072 0.06101496 0.011010215
000100 8e ab cf 3e ed 29 2f 3d 26 5b ad bc f9 c9 9b ba
       0.40560573 0.042764593 -0.021161627 -0.0011885754
000110 bc ea aa 3c 66 0d 54 3c 6f 94 6c bc d7 81 b5 3e
       0.020863883 0.012942648 -0.014439686 0.35450622
000120 21 4b 20 3d 9b df 8a 3d 5c fc f2 ba 3b ce 84 3c
       0.03913415 0.067809306 -0.0018538344 0.01621162
000130 2e c1 17 bd 2e c7 ad bc 65 8d aa 3e 2e b8 37 be
       -0.037049465 -0.02121314 0.33311 -0.17941353
000140 a4 1d cd 3d 76 18 84 ba c9 95 4c bc 88 cf 6a be
       0.10015419 -0.0010078091 -0.012486883 -0.2293073
000150 60 2d a3 3c 8f 3c e4 3e bb 9b df bb b6 00 34 be
       0.019919097 0.44577453 -0.0068239844 -0.17578396
000160 6d 18 9a b8 9e 21 0f 3d bb fa bd 3c 87 f4 41 3c
       -7.347842e-05 0.03494417 0.023190847 0.011838085
000170 64 0f 96 be c9 da 05 bb bd 9f e1 3d d6 9c b4 3b
       -0.29308617 -0.0020424596 0.11016796 0.0055118604
000180 0c 9b 87 bc 04 70 75 3d d8 b8 86 3c 39 cb 92 be
       -0.016553424 0.05992128 0.016445562 -0.28670672
000190 fb d2 6c 3b 89 59 e3 3d 3b ef 16 3b e1 9f 03 bb
       0.0036136496 0.11101062 0.0023030776 -0.002008431
0001a0 7d ad 90 3d 9f 09 28 3c e3 44 01 3c bc 15 42 be
       0.0706434 0.0102562 0.007889959 -0.18953604
0001b0 1b 82 e9 3d 5a f2 80 bc 67 72 72 3c da 2c 75 be
       0.11401769 -0.015740562 0.014797783 -0.23942891
0001c0 b7 f2 57 3c 7b dc 5f be 08 07 4c bd ae f7 1b 3e
       0.013180426 -0.2186145 -0.049811393 0.15231201
0001d0 bb 83 58 bb dc 5a a1 3d 01 35 3f 3d 08 1f b4 bc
       -0.0033037502 0.07878658 0.046681408 -0.021987453
0001e0 42 b2 b4 3e 62 ad bd 3c 95 52 8a 3b 05 9b 50 bc
       0.3529225 0.023153964 0.0042212703 -0.012732272
0001f0 95 42 d5 3c e8 d1 09 3c 46 b9 db 3c c3 64 bf be
       0.026032725 0.008411862 0.026821744 -0.37381563
000200 36 c7 d4 3b d1 48 0a 3e 08 41 24 3c d8 43 f1 3b
       0.0064934744 0.1350434 0.01002527 0.007362824
000210 10 44 a6 3d 3e f3 20 bc 03 ef 9c 3e fb 7b 85 3d
       0.08118451 -0.009823618 0.306511 0.06517788
000220 e0 ef 89 3d c8 34 99 bb 08 3a cd ba 19 ee 10 3c
       0.06735206 -0.0046754815 -0.0015657553 0.008845829
000230 53 d7 17 3c 3c 4b e5 3e c7 85 3d 3d 42 f4 82 bd
       0.009267646 0.44783962 0.04627016 -0.06394245
000240 6f 86 52 ba a1 2f dd 3c 01 e7 2b 3c 58 fa bf 3c
       -0.00080308964 0.02700025 0.010492087 0.023434803
000250 b8 ad b5 be 3d 09 02 3d 7c 59 14 3e 44 30 f9 3b
       -0.354841 0.03174709 0.1448726 0.0076046307
000260 71 00 57 3c 8d 60 90 3d 36 ec af ba 76 ae 49 be
       0.013122664 0.070496656 -0.0013421837 -0.19695458
000270 18 4a ac 3d 3e 82 2b 3e bf e4 c3 bc d4 e3 9a 3d
       0.0841257 0.16748902 -0.023912786 0.07562986
000280 3c 0b e4 bc ca d7 0a bc b4 f5 45 be 01 55 06 3e
       -0.027837388 -0.0084743 -0.1933201 0.13118364
000290 6b dc 17 3d 82 be ce 3a 8c 44 7e bb 41 bb a1 3d
       0.03707544 0.0015773328 -0.0038798181 0.07897044
0002a0 fe a1 fa 3b ed 6c 71 be ce ac 72 3d 83 7f d1 3e
       0.0076487055 -0.23576708 0.05924683 0.40917596
0002b0 6f dc 96 3b e9 4b ac 3d 50 3a 03 3c 2a 8f 0a bc
       0.0046039145 0.08412916 0.008009508 -0.008456985
0002c0 4c d7 bb 3e 68 ec b0 3b a0 fc 2b 3c c1 ff a0 3b
       0.36687696 0.0053992756 0.010497242 0.0049133007
0002d0 17 6a 04 3d 4f 8e 2e bd 81 69 fb 3b f7 28 eb 3e
       0.032327738 -0.042616185 0.007672489 0.4592969
0002e0 72 79 33 3d 05 d2 af bc 05 21 85 ba 27 7a 40 3d
       0.04381699 -0.02146245 -0.0010156935 0.046991494
0002f0 4e 0c b1 3c d5 0d 02 bb 0a 30 4a 3b 6c a2 8f 3a
       0.021612313 -0.001984467 0.0030851387 0.001095844
000300 5b 8f 1a bc cb 82 b7 bb 4b da 8e bb 61 bf 28 bc
       -0.009433593 -0.0056003085 -0.0043595186 -0.010299535
000310 ad df 40 3c be 2a c7 3e 9c d0 89 3c b9 77 78 bd
       0.011772078 0.38899797 0.016823106 -0.06066105
000320 78 45 1b 3a 71 02 d3 3c ae 46 12 bc 72 ad 9d 3c
       0.00059231324 0.025758 -0.008927984 0.019247744
000330 da 88 bb be 3f 5b 0a 3c d2 a5 fc 3d 6a c5 60 3b
       -0.36627847 0.008444606 0.12336315 0.0034297355
000340 86 8c 0f 3d 91 90 3f 3d e4 0b 27 3c da 57 5b be
       0.035046123 0.04676873 0.010195706 -0.21420231
000350 20 db 82 bc 5f b4 39 be 2c 86 8b bb 80 17 d4 3d
       -0.015973628 -0.18135212 -0.004257938 0.10356045
000360 06 5a 70 bb b3 5d 21 bc d8 47 7e be 5d c1 e7 3c
       -0.0036674752 -0.009849 -0.24832094 0.028290445
000370 36 24 d7 3d 71 06 73 3b d0 a4 96 bc b2 e2 bd 3c
       0.105049536 0.0037082697 -0.018389136 0.023179386
000380 a7 21 21 bb c5 3a 2d 3c 60 a8 7d bb 5c 9d 91 bc
       -0.0024586709 0.010573094 -0.0038705096 -0.01777523
000390 b8 ed 82 bb cd cc 03 bc 57 f9 d7 ba c7 c2 d8 3c
       -0.0039956234 -0.008044434 -0.0016477507 0.026460065
0003a0 f8 1d 04 3e 10 70 a8 be a0 72 07 3d 73 22 9b 3b
       0.12902057 -0.32897997 0.0330683 0.0047343313
0003b0 4f ed 37 3c 62 28 b6 be 55 f9 0d 3c f7 bb d0 3e
       0.011226012 -0.35577685 0.008665402 0.40768406
0003c0 ee 70 15 3c e0 b1 39 bd 93 9a ba 39 95 2a 35 3d
       0.009121163 -0.04533565 0.0003559185 0.044230063
0003d0 47 63 3b 3c 47 56 44 bb 90 68 92 3b 1a c5 35 bc
       0.011437244 -0.0029958652 0.004468031 -0.011094356
0003e0 0f 6e 3e bc 1e 4a 36 bc 17 e0 ce bb f7 b7 d7 ba
       -0.01162292 -0.011126069 -0.0063133347 -0.0016458024
0003f0 77 64 1e 3c b0 00 3f be 1b 65 d5 bd b9 c4 a8 3d
       0.009667507 -0.18652606 -0.10419675 0.08240647

edge_embedding_layer.edge_embedding_NN.weight f4 [63, 8]
000000 47 56 10 3d 4e e0 01 3d 28 b5 90 3e cc 6e 47 bd
       0.03523853 0.031708054 0.2826321 -0.04868965
000010 00 86 00 3a 9e 00 35 bd fe 84 60 bc bb cf 8a bd
       0.000490278 -0.04419004 -0.013703583 -0.06777903
000020 da 91 22 bc 84 89 30 bc a7 67 8d bb 0b 1a 16 bb
       -0.009922469 -0.010774974 -0.004315335 -0.0022903706
000030 d5 af 12 3c 26 f9 b5 bc 19 e0 79 bc b8 72 04 3c
       0.008953054 -0.02221353 -0.015251183 0.008083992
000040 e7 b4 02 3d 9a 97 bb 3c ad 07 84 3e 41 65 5e bd
       0.031910803 0.022899438 0.25787106 -0.054295782
000050 5f c3 3d bb bb a1 f4 bc e1 5b ed bb 90 85 49 bd
       -0.0028955562 -0.029862275 -0.007243619 -0.04919964
000060 24 b8 53 3d fe 7f 32 3d 2e 4d 82 3e eb b9 02 be
       0.051689282 0.043579094 0.25449508 -0.12766235
000070 79 6f 93 bc 7b de 59 ba 60 71 34 3d e0 aa 9f bd
       -0.01799749 -0.0008311045 0.044053435 -0.07796264
000080 33 57 76 bc a1 de dc bb e9 1d 7c 3c bd 1a 71 bc
       -0.015035438 -0.0067404066 0.0153879905 -0.014715848
000090 8f fc 20 bc db 78 c7 ba b9 c1 b5 ba 58 a0 08 bb
       -0.00982584 -0.0015218513 -0.0013866938 -0.0020847525
0000a0 bb 87 2a bc e9 6b 1a ba 4a fb 21 3b 5c 68 89 bb
       -0.010408337 -0.00058907137 0.002471643 -0.004193349
0000b0 76 69 37 3b 04 b4 5e bc bd af 3d 3c 3d 4c 30 3b
       0.0027986444 -0.013592724 0.011577544 0.002690091
0000c0 f5 a0 34 bc 35 fc e7 bc 53 0c 17 be d0 87 fb 3d
       -0.011024703 -0.028318504 -0.14750795 0.122817636
0000d0 24 61 92 3d 89 0d eb bb 0b 62 db bd ec 35 8c 3d
       0.07147434 -0.0071732444 -0.107120596 0.06846222
0000e0 26 b8 b5 bb 11 a5 0d 3c a8 dd 44 be 90 6d 22 3e
       -0.005545634 0.008645312 -0.1922518 0.15862107
0000f0 11 6d ac 3d 91 e9 2e 3c b7 b7 8c bb 95 c9 fb 3d
       0.0841924 0.010675804 -0.0042943615 0.12294308
000100 a0 16 8f bb fc 94 10 be 88 85 42 be af e2 c8 3d
       -0.004366711 -0.14119333 -0.1899625 0.098088615
000110 36 f7 c6 3d 76 9a fb bb 6c e2 8f bb bb bc 94 3d
       0.097151205 -0.0076783253 -0.0043910053 0.0726256
000120 df e2 d9 ba 6c 89 4c bd fb 7a 28 be a3 73 fa 3d
       -0.0016623399 -0.049935743 -0.16453163 0.12229087
000130 0e 25 22 3d 7c ab 29 3c 56 b6 b9 bd 9b 32 d0 3d
       0.03958612 0.0103558265 -0.09067981 0.10165902
000140 21 49 3d bc fa 48 32 3c c6 c1 31 be 09 a6 0e 3e
       -0.01155308 0.010881657 -0.17359075 0.13930525
000150 8f 0d b0 3d 24 f0 8f 3b 60 9e a7 39 a3 20 dd 3d
       0.08596336 0.0043926407 0.0003197072 0.107972406
000160 21 87 07 ba 46 eb 95 ba 9f 19 cf ba e9 d8 3e bc
       -0.0005169977 -0.0011437915 -0.0015800482 -0.011648395
000170 e9 60 09 bc 20 b2 9b bc 9e fc ad bc 13 53 4d bb
       -0.008384922 -0.019005835 -0.021238621 -0.0031330034
000180 7d 3d 3d bc ff 85 d3 bb 36 3f 9a bc a3 aa 0f 3c
       -0.0115503045 -0.0064551826 -0.01882897 0.00876871
000190 8e 6b 3b bb c0 99 57 bc 4b 89 c1 3a 64 40 4f bb
       -0.0028598043 -0.013159215 0.0014765648 -0.0031624073
0001a0 b3 3e 6b 3d b5 66 c5 3c 4f a1 76 3e c5 07 e6 bd
       0.05743284 0.024096826 0.24084972 -0.11231951
0001b0 93 63 31 bc 5e 4a 06 3b 0a f2 3a 3d d4 28 f0 bd
       -0.010826963 0.0020491104 0.045640983 -0.11726537
0001c0 4d f6 71 bc ea 9a a1 bc 31 3f 24 be ae a8 da 3d
       -0.014768195 -0.01972719 -0.1603973 0.10676704
0001d0 da 79 5e 3d 8a bb 58 3c a0 15 a1 be f8 04 b1 3d
       0.054315425 0.013228307 -0.3146181 0.08643526
0001e0 bf af 89 3d 19 02 4b 3d 81 93 74 3e 51 e3 04 be
       0.06722974 0.049562547 0.23884393 -0.1297734
0001f0 f2 b3 23 bd 22 14 85 b9 ce a7 57 3d 0f a9 bc bd
       -0.03996653 -0.00025382737 0.052650265 -0.09211933
000200 c1 f6 1b bc a1 82 f6 bb 8f 11 27 be 4e ec 0d 3e
       -0.00951928 -0.0075228964 -0.16315292 0.13859674
000210 0a 3d b7 3d b8 83 09 3b fd f6 bc 3b fa fd ad 3d
       0.08947189 0.0020983052 0.005766748 0.08495708
000220 21 58 36 3d 06 a3 43 3c d1 af 8b 3e ba d9 9e bd
       0.04451764 0.011940723 0.27282575 -0.07756372
000230 b5 6a 39 3d 65 c6 0e ba 78 2a aa 3c b0 7c 86 bd
       0.04526778 -0.0005446433 0.020772204 -0.06566751
000240 b3 f0 6d 3d 9c 2e f2 3b 5e 9a 76 3e c4 20 d9 bd
       0.058090877 0.00739081 0.24082324 -0.10601953
000250 11 d9 d5 3b 26 79 98 3b 7b f3 0f 3d 80 f9 f3 bd
       0.0065261205 0.004653114 0.03514431 -0.11912823
000260 22 78 a3 b9 b2 fb fa bb 07 ef 0e be a6 d0 f0 3d
       -0.0003117929 -0.007659399 -0.13958369 0.117585465
000270 76 85 cf 3d a2 8f a5 35 42 10 64 bd c7 8d c3 3d
       0.101328775 1.2335261e-06 -0.055679567 0.09548526
000280 d8 41 bd ba 29 54 20 bc 6d 0c 1d 3b 3d ed a9 3a
       -0.0014439179 -0.00978569 0.0023963705 0.0012964379
000290 cd 6a a4 ba 85 51 27 b9 6f 54 e7 bb 4d 3b 16 bc
       -0.0012544036 -0.0001595673 -0.007059626 -0.009169412
0002a0 36 90 f0 bb 91 59 bc bb 76 2e 27 be c3 81 fe 3d
       -0.00734141 -0.005747982 -0.16326317 0.12427094
0002b0 e4 2d e6 3d 4e 01 eb bb c4 be 09 bb bc 62 c8 3d
       0.11239222 -0.0071717864 -0.0021018246 0.09784457
0002c0 0e 4d 59 3d e0 d6 59 3d 9c a4 82 3e 3a 08 12 be
       0.053052 0.053183436 0.25516212 -0.1426095
0002d0 14 ab 33 ba b2 39 e4 ba a9 90 52 3d 7f 5c 8c bd
       -0.0006853801 -0.0017412214 0.05140749 -0.0685358
0002e0 e0 74 c2 ba 4b 84 8e ba a0 ed d1 39 26 16 00 3b
       -0.0014835857 -0.0010873167 0.0004004063 0.0019544451
0002f0 57 31 92 bc b9 db b0 bb de 23 34 bb 55 72 7c bb
       -0.017845793 -0.0053972867 -0.0027487199 -0.0038520296
000300 63 79 8e 3d bb 29 1b 3d 39 5c 81 3e 5b 72 26 be
       0.069567464 0.037881594 0.25265673 -0.1625456
000310 c5 06 46 bd 1f 9c 88 3b 8d f2 10 3d b6 1e bd bd
       -0.0483463 0.0041690017 0.035387564 -0.09234373
000320 7f 5a 22 3d f6 7f c2 3b ee e0 97 3e bb c5 81 be
       0.039637085 0.0059356643 0.29663795 -0.2534617
000330 b8 b5 05 3b 54 06 4a 3c 2a bc 9d 3c ca 71 6c be
       0.0020402502 0.01233061 0.019254763 -0.23090282
000340 65 31 a3 bc 85 a0 39 bc d3 4f 1e be 63 78 03 3e
       -0.019921014 -0.011329775 -0.15460138 0.12838893
000350 a7 e5 30 3d d9 7b e2 3b 6d d9 9c be 40 01 b9 3d
       0.043187764 0.0069117364 -0.30634633 0.090334415
000360 2f 65 80 3d d6 90 c6 3c f6 e6 78 3e 45 aa 00 be
       0.06269299 0.024238985 0.24306855 -0.12564953
000370 64 bd 55 3d e6 59 42 bb fa 2e 0f 3d 4c 78 ae bd
       0.05218257 -0.0029655634 0.03495691 -0.085190386
000380 a2 ce 72 bc 5d e9 72 bc f8 21 88 bc e5 36 7a bc
       -0.014819773 -0.014826146 -0.01661776 -0.015271877
000390 bc 7f f9 bb ce d3 45 bc 06 18 54 bc 4a 6b 2c bc
       -0.007614104 -0.012074424 -0.012945181 -0.010523627
0003a0 4f 08 e5 bb a6 3b 05 bd 09 5c 06 be c7 fa 0a 3e
       -0.006989516 -0.03252759 -0.13121046 0.13572226
0003b0 98 e0 a1 3d 67 46 a5 3b 0f 9b 46 be 5e 1a b7 3d
       0.07904166 0.005043793 -0.19395088 0.08940576
0003c0 cc 43 38 3d fc cf 50 3d a8 3e 7b 3e 27 8f 13 be
       0.04498653 0.0509796 0.2453562 -0.14410077
0003d0 ba 67 82 bc 97 76 ed ba 2d 1f 4c 3d b0 a7 68 bd
       -0.015918601 -0.0018117008 0.04983442 -0.056800544
0003e0 8c fd 1a 3d f9 e8 ad bb 38 57 b0 3e b0 01 61 be
       0.037839457 -0.0053073135 0.34441543 -0.219733
0003f0 29 5b 4b 3c 32 e1 87 b8 59 00 6c 3c 5b 51 6d be
       0.012411871 -6.4792475e-05 0.01440438 -0.23175566

edge_embedding_layer.edge_feature_NN.weight f4 [64, 64]
000000 e1 76 6f 3d ff a9 da 3b dd c7 56 3d ce 22 6d 3d
       0.05846298 0.006673097 0.0524367 0.05789452
000010 f9 9d 22 3c 4c 99 06 3c e0 1c e3 bc c9 0d 78 bd
       0.009925359 0.00821526 -0.02772373 -0.06056002
000020 59 68 1a bd c5 51 e2 bc 6e 16 29 bd 91 74 a1 3a
       -0.03769717 -0.027626881 -0.041281156 0.0012318065
000030 33 a8 b9 bb 5f 2f 96 3d 9f c6 3a bd a5 f3 75 3d
       -0.005665803 0.07333254 -0.045599576 0.06004681
000040 36 87 01 bd 53 cd fd 3c 1d 75 12 3d f1 fc 9a bb
       -0.031623088 0.030981695 0.03575622 -0.00472986
000050 fb cc e5 38 be bb 13 bd 61 45 29 3d 70 99 29 3b
       0.000109577515 -0.036067717 0.04132593 0.002587881
000060 90 75 2d 3d c6 f1 0d 3e 2d 0a 89 bd 56 7c 3e 3d
       0.042348444 0.1386176 -0.06691394 0.046505295
000070 7f a5 0e bb 53 58 65 bd f2 7c 33 3d b2 b1 01 3e
       -0.0021766124 -0.055992436 0.04382033 0.12665442
000080 46 38 2e bd ff 1b 1c bd 8e d0 91 3d 6b 2f b1 bb
       -0.042534135 -0.038112637 0.07119857 -0.005407264
000090 c8 a5 32 3d 05 a7 1d bd b2 8e 50 bd 3a b8 74 3d
       0.043615133 -0.03848936 -0.050917335 0.059746005
0000a0 42 1e 23 bd 5b 1c 86 3d 93 1e a4 3c b1 4d 8e 3d
       -0.039823778 0.06548377 0.02003411 0.06948412
0000b0 67 70 5e 3b 57 57 f2 bc 6a 6b 16 bd 78 23 13 bb
       0.0033941509 -0.029582663 -0.03672353 -0.002245156
0000c0 f6 60 09 3b e2 9b 4c bd 97 4d 8e 3c 2f b6 29 bc
       0.0020962334 -0.04995335 0.017370982 -0.010358377
0000d0 2f bc c9 3c f9 a5 54 3c 68 fa 2d bd 6c 8d 01 3d
       0.024625866 0.012979024 -0.042475134 0.03162901
0000e0 c9 16 95 3d e2 cf 03 3e dc 2d 18 3c cd 18 9b 3c
       0.072797365 0.1287227 0.0092882775 0.018932724
0000f0 d4 ed 7d 3d a0 bd a8 3d fa ef 1a 3d 86 76 5f 3d
       0.06199439 0.08239293 0.037826516 0.054556392
000100 f4 3f 30 bc 1d 46 05 bc e5 e4 cb 3a 0e c6 06 3c
       -0.010757435 -0.008134392 0.0015555887 0.008225931
000110 3b c1 fb 3a 29 c2 0d 3b 0b 19 f8 3b 69 7d 33 3c
       0.0019207367 0.002163062 0.0075713447 0.010955193
000120 c0 6f f1 bb bd e7 c3 bb b4 29 25 bc f0 30 0b 3a
       -0.007368058 -0.005978553 -0.010080744 0.00053097215
000130 a9 c0 61 3c 7b 8d cc 3b 1a 91 9f 3b 79 5e 64 bc
       0.013778844 0.0062424517 0.0048695924 -0.01393854
000140 46 7b b4 3a 0f bd fc 3b 6f 53 04 3c 29 8b fd ba
       0.0013769649 0.007712967 0.008076533 -0.0019343841
000150 cf 71 16 bc b8 03 14 bc 66 43 96 bb 00 88 ca bc
       -0.0091824075 -0.00903409 -0.0045856712 -0.024723053
000160 2f 5e f8 3b 0e d6 4e 3c 4e f2 c5 bb b2 7d 3c bb
       0.007579587 0.012624277 -0.006040848 -0.0028761444
000170 db cc 4c 3c ef dc 9e bc ea b2 bf 3b f0 d3 97 3b
       0.012500013 -0.019392459 0.0058501856 0.004633419
000180 69 f0 6c b8 1e c7 7f bc b4 ef 2d bc 0a fb 45 bb
       -5.6490684e-05 -0.015611438 -0.010616232 -0.0030209445
000190 24 f7 ba bc c7 52 97 3b cd 1f ac bb d6 77 15 3c
       -0.022822924 0.004618022 -0.0052528144 0.009122809
0001a0 fe e5 1d 3b b3 81 50 3c 9c 85 c7 3b b7 1b a3 3b
       0.0024093385 0.012726235 0.0060889255 0.004977669
0001b0 db c8 22 bb 53 58 4a bc d0 3d 18 ba b7 aa 88 3c
       -0.0024838957 -0.01235016 -0.00058075506 0.016682966
0001c0 bb e4 5b 3c f3 47 41 3a f0 e0 b4 3b ea 70 63 3b
       0.013421233 0.0007373087 0.0055199787 0.0034704753
0001d0 45 dd c0 bc f4 6d 48 bc de bd 85 3b b4 96 93 bc
       -0.02354301 -0.012233246 0.004081472 -0.018016197
0001e0 a8 2d 0d bc 50 80 dc bb 79 e1 ae bb bd ac 03 3a
       -0.008616842 -0.006729163 -0.005336937 0.00050229934
0001f0 be e8 a8 3b 6f 5d 33 bb 11 53 13 3c 2f a5 e6 bc
       0.005154698 -0.0027368923 0.008991973 -0.028154938
000200 50 94 3a bc fb 22 d0 bb 6b a1 d1 3b d7 4f d0 bb
       -0.0113878995 -0.0063518262 0.0063974163 -0.006357174
000210 2e 3d 3e bc c2 eb 84 bb 03 5b 28 3d d8 1f 92 3c
       -0.011611266 -0.004056425 0.04110242 0.01783745
000220 f4 80 4d 3d 48 d8 56 3c 55 38 7b 3c 7a 20 10 3b
       0.050171807 0.013113089 0.015333255 0.0021992014
000230 f0 33 fb ba a7 3d 53 bd b0 dd ec 3b df 7f f7 bc
       -0.0019165259 -0.051572468 0.0072285756 -0.03021234
000240 51 b0 89 3b 06 27 42 bd 52 94 43 bd 80 54 be 3c
       0.0042019268 -0.047400497 -0.04774887 0.023233652
000250 fd 53 c6 bc 8f de 96 3c c9 d0 bb bc 27 e6 86 3b
       -0.02420997 0.018416671 -0.022926705 0.0041167918
000260 4b 66 e8 bc 04 72 da bd a3 e8 cb 3c 01 36 b7 bd
       -0.02836909 -0.10666278 0.024891203 -0.08945847
000270 35 95 f6 bb 20 59 9d 3c 9d 8a 70 bc 39 f8 18 be
       -0.007525111 0.019207537 -0.0146814855 -0.1493844
000280 61 3e 17 3d 88 82 0d 3d 4f 01 44 bc bf a0 11 3d
       0.036924724 0.034548312 -0.011963203 0.03555369
000290 5a c2 6c bc 4c 51 fc 3c e8 88 8e 3c 0f 78 16 bd
       -0.014450634 0.030800484 0.017399266 -0.03673559
0002a0 b6 52 38 3d 42 59 7f bd 43 9e 09 bd 81 8b da bc
       0.045000754 -0.062340982 -0.033598196 -0.026677849
0002b0 7b 60 48 bb bf 14 2f 3d 46 7d 41 3d d8 4f 38 3c
       -0.0030575085 0.042744394 0.04723861 0.011249505
0002c0 6b d2 58 bc cd fd d8 3c bd 89 0d b9 0b 16 36 3c
       -0.013233761 0.02648821 -0.0001349812 0.011113654
0002d0 75 03 99 bc 03 67 cd 3a 04 43 2e 3d fd bf 90 bd
       -0.018678406 0.0015670959 0.04254438 -0.07067869
0002e0 55 74 9b bd e6 2d 2a be 1b 3c 9e 3b e2 18 1a 3c
       -0.07590548 -0.16619071 0.0048289425 0.009405347
0002f0 bb 0f 9f bc 6f e9 c1 bc 7a 68 e3 bc 11 eb 37 3b
       -0.01941668 -0.02367088 -0.02775978 0.0028063694
000300 9c 66 64 bc 57 1e e1 bb c6 44 18 bc d4 c6 0b 3c
       -0.01394048 -0.006870072 -0.009293741 0.008531291
000310 e5 1f 5b 3b 8d ab 06 bc 2a d1 22 bc 25 eb f1 35
       0.0033435759 -0.008219612 -0.009937564 1.8024335e-06
000320 52 9b d5 3b c1 e4 cd ba 4f e1 0a 3c dc 1a f1 bb
       0.0065187598 -0.0015708433 0.008476569 -0.007357938
000330 d7 1d 97 bb 7e a0 13 3b 7d 20 10 bc e3 d0 18 bb
       -0.0046117115 0.002252608 -0.008796808 -0.0023317866
000340 65 e4 8e bc 73 cc c7 3b 24 6c 81 bc 27 9a a6 bb
       -0.017442891 0.0060973703 -0.015798636 -0.0050842944
000350 a2 c0 87 3b 83 42 97 bb ba 78 86 b8 3a d2 1c bb
       0.0041428367 -0.004616083 -6.412105e-05 -0.0023929016
000360 54 f5 24 3b 92 8a 28 bc d8 f6 48 bb ed 3f 01 3c
       0.002517064 -0.010286944 -0.0030664708 0.007888776
000370 f8 81 31 3c 20 03 96 ba 56 77 30 bb e0 12 84 ba
       0.01083421 -0.0011445023 -0.0026926599 -0.0010076426
000380 08 8e 85 bc c1 81 ea 3b fb d0 88 3a 4a 8a 47 39
       -0.016303077 0.007156581 0.0010438258 0.00019029636
000390 d8 bb 6b 3a 35 73 b7 bb 1d 83 b8 bb cf c7 0a 39
       0.00089925295 -0.0055984505 -0.0056308643 0.0001323514
0003a0 06 0f b3 bb 46 bf 89 bb e2 05 03 39 24 5f 5c b9
       -0.0054644374 -0.00420371 0.00012495325 -0.00021016278
0003b0 c0 a7 8f 3c 9f 19 8b 3c 42 59 5d bc 35 39 bb 3b
       0.017536044 0.01697999 -0.01351005 0.0057136067
0003c0 c1 9b 24 ba a7 91 a4 b9 95 33 47 3b db 2f 5a bc
       -0.00062793127 -0.00031389037 0.0030395736 -0.013317074
0003d0 a6 49 16 ba bd 55 b3 3b cb c1 cd ba 05 fa fb bb
       -0.00057330204 0.0054728673 -0.0015698014 -0.0076897168
0003e0 a2 cc 57 3c 3b bc 5d bc 78 85 bc b9 4f f0 22 ba
       0.013171347 -0.013533647 -0.00035957596 -0.00062156183
0003f0 16 54 06 bb 9f eb 0d bc 37 7b d4 3b 9d 6e 9e bb
       -0.0020496896 -0.0086621335 0.006484415 -0.0048349635

update_node_embedding_layer.0.message_layer.weight f4 [64, 128]
000000 c1 22 9c bc 81 7d e5 3a 2d 07 67 bc 54 47 8a bb
       -0.01905954 0.0017508717 -0.014100832 -0.0042199288
000010 1a 80 92 bc a3 54 3a 3c 31 29 fd 3b 6e 8d 6a 3b
       -0.01788335 0.011372718 0.0077258577 0.0035789865
000020 cf d4 0a bc 65 8d 9c bc 38 3c d0 3b 45 10 aa bc
       -0.008473589 -0.01911039 0.006354835 -0.020759711
000030 41 d5 88 bc 53 24 5f bc 90 5f 21 3b cb c1 78 ba
       -0.01670325 -0.0136195 0.002462361 -0.00094893266
000040 1f d1 86 bc 3f 95 73 bb 2b 88 63 bb 00 92 a9 3b
       -0.016457139 -0.0037167815 -0.0034718614 0.0051748753
000050 3b 84 40 bc 98 56 cf bc 34 c9 3e bc 57 5a 3f bc
       -0.011750276 -0.025309846 -0.01164465 -0.011679254
000060 bc ee 8c 3c b3 58 18 3c 35 63 df bb 48 51 85 bb
       0.017203681 0.009298491 -0.0068172463 -0.0040685274
000070 98 af c5 bb e1 fb 9a bc ff 20 0d bc a5 8d 3d 3c
       -0.0060328953 -0.018918933 -0.008613824 0.011569415
000080 49 2e f7 ba 23 ff 07 3c e3 78 75 3b b0 ef a1 bb
       -0.0018858399 0.008300575 0.0037456087 -0.004941903
000090 ec 59 d9 bb 03 93 9c bb e0 59 9c bc 39 82 4e bc
       -0.006633034 -0.0047782674 -0.019085824 -0.01260429
0000a0 60 d9 b2 bb 70 34 9f 3b 4c 57 a0 bc b4 94 7b bc
       -0.005458042 0.004858546 -0.019572876 -0.015355278
0000b0 e2 2b 73 3b 00 fd 1d 3c ce 9f 42 bc 00 f5 14 b7
       0.0037105014 0.009642839 -0.011878921 -8.878531e-06
0000c0 eb 4e 23 bc 86 63 1b 3c 07 e5 94 bb 0e 5c b0 bb
       -0.009967546 0.009484177 -0.0045439037 -0.0053820675
0000d0 4c c8 48 b9 1a be 81 3b 29 fc b4 bc 26 80 2d 3c
       -0.00019148103 0.0039594295 -0.022092896 0.010589635
0000e0 22 e4 ed bb cf 84 23 bc 17 90 4b bc 27 91 ad bb
       -0.0072598616 -0.0099803945 -0.01242449 -0.0052968445
0000f0 d9 05 53 ba 96 5d 97 3c df 3b 02 3c e5 ff 1b bb
       -0.00080498826 0.018477242 0.007948845 -0.0023803648
000100 70 09 ce bb 76 3f 1f bb a9 c9 2b 3c bd 63 4a bc
       -0.006287746 -0.00242993 0.010485091 -0.012352881
000110 ca 72 8a ba e5 4b 2d ba cb 7f 69 bc 9b 90 94 3b
       -0.0010562774 -0.00066107354 -0.01425166 0.00453384
000120 8e 70 11 bc 23 e9 00 bb f2 88 0f bc df e5 60 3c
       -0.008876933 -0.001967021 -0.008760678 0.013726681
000130 7f b4 d9 bb 15 b0 8e 3b e3 42 e4 3a 6d 20 a7 3c
       -0.0066438313 0.0043544867 0.0017414953 0.020401204
000140 9f 51 8d bb 2d d9 04 3a 8c 4a a5 ba d7 23 ac bb
       -0.0043127085 0.0005067762 -0.0012610718 -0.005253296
000150 b0 ce d8 bb 39 4b 54 3a b4 59 0b bc b5 09 62 3c
       -0.006616436 0.0008098367 -0.008505274 0.01379626
000160 b5 e9 3e 3b 0d ac 97 3a 20 bd 7a 3a 29 b8 5e 3c
       0.0029131 0.0011571661 0.0009564925 0.013593712
000170 1a cc 83 bc a1 53 64 bc a8 14 be bb f8 b5 a5 3c
       -0.016088534 -0.013935954 -0.0058008023 0.020228371
000180 99 cd 38 3c b4 e2 97 bc ca 9d 62 3c 45 fb ac ba
       0.011279487 -0.018540718 0.013831565 -0.0013197443
000190 7b c8 7d 38 1e 3c 0b bb 49 70 17 bc ae 43 c8 3c
       6.0506612e-05 -0.002124555 -0.009243079 0.024446335
0001a0 f5 2f 1c 3b ec 91 33 bb c0 36 74 3b 42 57 97 3b
       0.0023832296 -0.0027400209 0.003726408 0.0046185562
0001b0 67 3f 41 bc 78 97 c2 bc 1b dd ec 3b 10 c5 ba bb
       -0.011794901 -0.023753867 0.0072285063 -0.005699761
0001c0 ea de 21 bc 69 95 72 3c 53 6f dc bb 37 b9 08 3c
       -0.009879807 0.01480613 -0.006727138 0.00834494
0001d0 71 3f ed 3a 54 bb e5 3a 90 1c dd 3b 6b 37 39 bc
       0.0018100572 0.0017527142 0.0067477897 -0.011304717
0001e0 bb a6 93 3b 56 54 06 3c 46 01 00 bc 5c 40 5c bc
       0.00450596 0.008198818 -0.007812804 -0.013443079
0001f0 72 e3 38 bb cf f1 d2 3a 9a fe 82 3b 18 56 6c bb
       -0.002821174 0.0016093793 0.003997636 -0.0036062058
000200 35 70 8d bb 71 85 a4 bb 07 e6 66 bc ec c0 f7 3b
       -0.0043163546 -0.0050207903 -0.014092929 0.00756084
000210 ee af 9a bb d2 00 77 3c d9 7a b0 3a 31 83 91 bc
       -0.0047206795 0.015075879 0.0013464346 -0.017762752
000220 95 b6 e0 3b 4b d5 9b 3c 15 af ef 3b 53 db 1a ba
       0.006857703 0.019022604 0.0073145726 -0.00059073156
000230 d3 ed 01 3c 54 4b d8 ba b5 5c 5f 3b 69 6c 29 3c
       0.007930237 -0.0016501942 0.0034082357 0.010340788
000240 84 cb d4 bc 62 fc 28 3c 91 9f cf 39 c5 89 30 3c
       -0.02597595 0.010314079 0.00039601003 0.010775034
000250 ab 57 e8 3b 70 9b f8 3b af 7f 3d 3c 8c 84 cb bb
       0.007090529 0.007586889 0.011566087 -0.006210869
000260 d4 bb 1b bb a6 31 2d bc a3 2d 3b 3c 18 56 36 3c
       -0.0023763077 -0.010570919 0.011424455 0.011128925
000270 b7 fb 02 3c bb d1 7d bc fd 93 3f 3c d6 31 d4 bb
       0.007994584 -0.015491898 0.011692998 -0.0064756675
000280 bd bc 71 ba 05 eb 71 3a 69 88 81 bb 35 4b 5a 3b
       -0.00092215446 0.0009228441 -0.003953029 0.0033308987
000290 b7 28 33 bc 8a 02 01 3b ce ce 6e 3c 9f 40 09 bc
       -0.010935 0.0019685351 0.014575673 -0.008377223
0002a0 0c 36 72 39 a6 d1 7a 3b 5e 8f 0a 3c 99 0a 72 bc
       0.00023099052 0.0038271933 0.008457033 -0.0147730345
0002b0 d7 65 74 bb 72 14 e7 ba eb aa 85 3c 6a 26 5d b8
       -0.0037292147 -0.0017629995 0.016316852 -5.2726282e-05
0002c0 23 0b a7 bb db 76 87 ba eb 59 8d 3c 44 2b 0c bc
       -0.005097763 -0.0010335104 0.01725479 -0.008555237
0002d0 db ca 32 3c 31 0d 55 bc fa 14 76 3c 46 af 5a 3a
       0.010912622 -0.013003633 0.01501965 0.0008342158
0002e0 cb a5 21 bb 95 c7 5b bc 2a 33 61 3c ee e4 86 bc
       -0.002466547 -0.013414283 0.013745109 -0.016466584
0002f0 92 a3 28 3b 57 bb 8f 3b 5d e5 9f ba 84 b8 17 3b
       0.002573226 0.0043863463 -0.0012199093 0.0023150751
000300 02 ba 23 3b 7e de 04 ba cb 94 5b bc f3 d5 ef bb
       0.0024982695 -0.00050685543 -0.013402174 -0.007319206
000310 b1 cd ba bb fc 13 18 3c 4a d8 05 3b a3 39 1e bb
       -0.00570079 0.009282108 0.0020423108 -0.002414324
000320 c4 da 66 ba 2d d1 06 3b 1e 4b 9d 39 00 8e 51 bc
       -0.00088064023 0.0020571456 0.0003000134 -0.012790203
000330 ac c1 5b 3c 8f e1 82 3b 20 6a a3 bb a7 95 9f bb
       0.013412874 0.003994174 -0.0049870163 -0.004870135
000340 e8 20 96 bc c3 70 1c 3c 73 fc 32 bc bc de 7f bb
       -0.018326238 0.009548369 -0.010924446 -0.0039042672
000350 29 16 49 3a 7b d6 4a 3c 21 0c 3c 3a 47 4a 5f bc
       0.00076708436 0.012380238 0.0007173438 -0.013628549
000360 1c 04 0d bb a2 5f 97 b9 9c b4 00 bb 05 7c 13 bc
       -0.0021517342 -0.00028872216 -0.0019638902 -0.0090017365
000370 ee 68 1d 3c ff ac 6d 3b e1 8b b7 bb 03 c3 5d ba
       0.009607537 0.0036266444 -0.0056013917 -0.000845954
000380 b1 e9 b2 ba 12 46 d9 bb 85 fb 0a bc 0a a1 f1 b8
       -0.0013649968 -0.0066306675 -0.0084828185 -0.000115217714
000390 6a d6 2b bb 92 55 19 bb e5 42 03 bc 86 88 8d bc
       -0.002622033 -0.002339695 -0.008011554 -0.017277014
0003a0 73 8d 60 3b be 3b 64 bc 93 ef 99 3b b3 51 65 bc
       0.0034263998 -0.013930259 0.004697749 -0.013996529
0003b0 17 dc f5 bb da 16 0b 3b 15 71 97 bc 9e 71 3c bc
       -0.0075030434 0.0021223337 -0.018486539 -0.011501698
0003c0 3a 8a ba 3b 09 c3 37 3b e5 69 ca b9 a9 da 74 3c
       0.0056927474 0.0028039834 -0.0003860734 0.014944711
0003d0 3f c4 e9 3b 9c 36 4e 3c f2 97 5c 3c 64 75 9f bc
       0.00713399 0.012586262 0.013463961 -0.019465156
0003e0 22 8a 26 bb 61 51 4f 3b 77 91 54 bc b2 07 2d 3c
       -0.0025411923 0.00316342 -0.012974135 0.010560917
0003f0 10 f1 fe bb a9 09 2d 3b 14 c7 8c 3c 9d d6 b9 bb
       -0.0077802017 0.0026403463 0.017184772 -0.005671336

update_node_embedding_layer.0.update_layer.weight f4 [64, 128]
000000 d7 05 f6 3b 4b 6e df 3b 35 f2 62 3a c8 21 a9 bb
       0.0075080204 0.006818568 0.00086573075 -0.0051614977
000010 54 be f3 3b 42 27 44 bc 0d 7a b9 bb a8 5b cb ba
       0.0074384604 -0.01197225 -0.0056603015 -0.0015514987
000020 f7 51 d2 3b 8f 7e 6c 3c 84 fb 3d bc 45 4d da ba
       0.0064184624 0.014434471 -0.0115956105 -0.0016655108
000030 e6 35 a5 bc 05 5a 32 ba 7e 00 0d bb 57 be 04 bc
       -0.020167302 -0.0006803575 -0.0021515186 -0.008102021
000040 89 c9 43 3c 2d 10 cc 39 e5 2a 68 bc f1 8a 51 bb
       0.011949905 0.00038921964 -0.014170383 -0.0031973685
000050 08 a3 4a ba e4 3f 22 bc 24 2f 1d bc cc 6d 8e bb
       -0.0007729982 -0.009902928 -0.009593759 -0.004346585
000060 7b 66 29 bc 7d 5b 2c ba b1 e2 46 bc 6e 0e 30 ba
       -0.010339375 -0.0006574912 -0.012139008 -0.00067160174
000070 70 12 f3 3a 03 e3 2a bc 46 00 29 3c ba 86 c9 bb
       0.0018544924 -0.0104301 0.010315007 -0.006150094
000080 89 f7 a5 bc 1d ad 09 bd 8d 28 12 bc 8f cc cd 3b
       -0.020259636 -0.03361236 -0.008920801 0.006280489
000090 cc eb 51 3c 01 96 0a 39 97 28 06 bc 9e d8 8c 3c
       0.012812566 0.00013216586 -0.008188388 0.017193135
0000a0 4d 73 29 3c c4 b0 8f bb 5a 7f 75 38 a0 ca 11 bc
       0.010342431 -0.004385086 5.8531157e-05 -0.008898407
0000b0 e8 62 f1 bb 10 10 67 3c f0 4f c7 bc 46 97 9b 3b
       -0.007366527 0.014102951 -0.02433011 0.004748258
0000c0 3c 73 6f bc ab cb 92 3b 9b 4f 91 bb 91 c7 11 bc
       -0.014614876 0.0044798455 -0.0044345385 -0.008897678
0000d0 d6 43 31 bc dc 4d ee bb a7 a3 95 bb bc a3 11 39
       -0.010819396 -0.007272465 -0.004566628 0.00013889273
0000e0 2b 17 e6 ba fb 88 55 bc 59 cf a6 3b be 83 de bb
       -0.0017554512 -0.013033147 0.0050906357 -0.0067906072
0000f0 d4 e9 ff ba 09 c7 fa bb a5 e5 a0 3c 8d 4b 6b 39
       -0.0019524642 -0.0076531214 0.019640753 0.00022439491
000100 cc ff 4b 3c 43 bd 80 3b bc 6b 12 3c ff 3b 5a 3b
       0.012451123 0.0039288118 0.008936819 0.003329992
000110 e9 b7 8b bb 70 5b a2 bb 60 af 52 3c 76 8c 67 bb
       -0.004263867 -0.004954748 0.0128591955 -0.0035331524
000120 fc 0e d5 bb 0c f3 e4 3b e9 38 ed 3b 08 85 42 ba
       -0.0065020304 0.0069869813 0.0072394502 -0.0007420336
000130 cf d1 81 3c ae 19 bd 3a ae 1d db bb 7d e7 67 3b
       0.015847115 0.0014427209 -0.0066868877 0.003538578
000140 bb c9 8a 3c ba 3c 28 bc 33 01 e6 3b 42 10 9f 3a
       0.016941896 -0.010268385 0.007019186 0.0012135583
000150 9e 3a 20 3c 8f 82 34 bc d1 ff 10 bc 3a 51 1b 3b
       0.0097796 -0.011017456 -0.008850054 0.0023699538
000160 35 c6 1e bc e8 52 47 bc 5c ce ab 3c 74 c9 73 3c
       -0.009690811 -0.0121657625 0.020972423 0.014879573
000170 e1 76 8c 3a d7 d9 88 3c 21 c3 37 bb 90 75 80 bb
       0.0010716581 0.016705437 -0.002803989 -0.0039202645
000180 fc e6 53 3b de cd 48 3c 8a 2a a0 3a de ef 2a bc
       0.0032333722 0.012256114 0.0012219709 -0.010433165
000190 ad 25 80 bc da 09 ad bb e8 ba 3b bc f0 7b aa bb
       -0.015642965 -0.0052807154 -0.011458136 -0.005202763
0001a0 17 24 4c bc a2 66 7b 3c e6 43 7b bc e0 fd 29 bc
       -0.012459776 0.015344294 -0.0153360125 -0.01037547
0001b0 43 8e c7 ba 25 c5 de bc 57 8b 9a bc 7a b9 d0 bb
       -0.0015224892 -0.027193615 -0.01886527 -0.006369767
0001c0 c5 6c 78 bb 23 6a 31 3b 7b a8 b7 bb 64 1b 16 bc
       -0.0037906629 0.002707132 -0.0056048012 -0.009161804
0001d0 38 bd 24 bc 6c 04 43 bc 96 12 24 bc a9 76 8a 3b
       -0.010054879 -0.01190291 -0.010014197 0.004225571
0001e0 8b 9f 10 bb e3 cc b2 3b bb 34 d2 3c 09 9b bd bc
       -0.0022067751 0.0054565533 0.02565991 -0.023145216
0001f0 94 c8 e2 bb 15 8d 5d 3b 46 77 24 bb 13 00 76 3c
       -0.0069208834 0.0033806015 -0.0025095507 0.015014666
000200 47 ba 5e 3d d5 cb 62 3c b7 44 1b 3b 99 a9 da ba
       0.054376867 0.013842543 0.002369208 -0.0016682624
000210 00 eb ad bb a7 f7 ae bb d9 8c ab bd 35 28 f6 bb
       -0.005307555 -0.005339581 -0.08376474 -0.0075121173
000220 21 22 17 3d 78 4c 52 bd f4 e6 40 3c 4b e9 4c 3d
       0.036897782 -0.051342458 0.0117738135 0.050027173
000230 21 ab 3f bd 7a 53 8b 3c dc a7 ee 3c c9 71 91 bd
       -0.04679406 0.017007578 0.029132776 -0.07101781
000240 86 4b a5 3c 20 a0 29 bd 97 5c 1d 3d 6a 48 8d bd
       0.020177614 -0.041412473 0.03841838 -0.068985775
000250 54 24 13 bd 3e f7 0c 3d e1 31 a1 3b f9 46 e6 3c
       -0.035923317 0.034415476 0.004919276 0.028110014
000260 85 2a 35 b9 98 ba 88 bc 5a 64 ea bc ec 7d f5 3b
       -0.00017277345 -0.016690537 -0.028612304 0.0074918177
000270 87 f2 d2 bc 68 35 b6 3c 6c 5f 91 3d aa bc 8a 3c
       -0.025750412 0.022242263 0.070982784 0.016935665
000280 69 6d 51 bc d7 ca 1e be 61 9d 17 bd b1 52 84 3c
       -0.012782433 -0.15507065 -0.037015323 0.016152712
000290 5e bd 12 3d 26 98 8a 3d f0 2d de 3d b9 e7 3b bd
       0.035825126 0.06767301 0.10848606 -0.045875285
0002a0 ed d5 a0 3c 95 f3 83 39 e0 dd 70 3d ba 51 90 3c
       0.019633258 0.0002516775 0.058805346 0.017617095
0002b0 c0 0a 00 bd 41 6d c3 bb f0 7f 3d bd 26 1d d5 bc
       -0.031260252 -0.005963952 -0.04626459 -0.026014876
0002c0 1b 1e 3f bd 61 f7 1c 3d f6 a8 48 bd 8b ce f7 bd
       -0.04665957 0.038321856 -0.04898926 -0.12099942
0002d0 be 68 80 3d 92 12 54 3d 70 80 15 3d dd a0 6c bd
       0.06269978 0.051775523 0.03649944 -0.0577706
0002e0 28 2f 53 bc bb 3d e3 3c bb 36 ca bc e0 7c 80 3c
       -0.012889661 0.027739396 -0.0246843 0.015684545
0002f0 8a 3e 8e bd b5 bd 12 3d ed 7b 42 3d 99 93 d3 3b
       -0.06945522 0.03582545 0.047481466 0.006456804
000300 b6 e0 5f bb 68 cb 1c 3c 80 c7 c7 3c 21 ba 1e 3a
       -0.0034161038 0.00956998 0.024387121 0.0006054957
000310 0f d3 ce bc 11 97 07 bc ce ca 35 3b ec d4 32 bc
       -0.025247125 -0.008275763 0.002773929 -0.010915022
000320 a9 7a 4c bc 3a 6d 74 bc 8d 10 a4 bc f0 14 3c ba
       -0.012480416 -0.01491862 -0.020027423 -0.0007174751
000330 03 ee 94 bc 38 35 46 3c 43 c2 af bb 2b f3 88 bd
       -0.0181799 0.012097649 -0.005363734 -0.066870056
000340 39 31 ba bc c5 d2 92 3b ca 83 95 bc fc 13 0f b9
       -0.02272855 0.004480692 -0.018251318 -0.00013644987
000350 ed 5f 0c 3c ea 93 25 3b 1d 1d 09 3d d0 3f f5 bb
       0.008567792 0.0025265166 0.03347503 -0.0074844137
000360 63 f9 b5 bc 98 c1 8f bc 99 e9 68 3b 37 d8 ab bb
       -0.022213643 -0.017548367 0.0035539626 -0.0052442807
000370 be 6d ff 3b 09 06 e9 bb 97 23 93 bc 30 20 06 3c
       0.0077950647 -0.007111315 -0.017961306 0.008186385
000380 51 f2 e0 ba 82 3f f5 bb 45 50 45 bd 9c 8a 84 bd
       -0.001716206 -0.0074843774 -0.048172254 -0.0647175
000390 12 0d 40 bb ed 74 7a 3c d7 38 ce 3a 04 f3 2a 3d
       -0.0029304666 0.015286666 0.0015733492 0.041735664
0003a0 3b 07 06 3c ca 6b a0 bb 59 59 96 3c a8 29 af bb
       0.008180435 -0.004895662 0.018353151 -0.005345542
0003b0 97 6c 9b bd 5e 66 a1 bb fa 14 2f bc 95 7f 0c 3a
       -0.07589071 -0.004925533 -0.010686154 0.00053595874
0003c0 73 a3 8a 3a 26 64 94 bc 93 22 ae bc 7d 64 a0 bd
       0.0010577276 -0.01811416 -0.02125672 -0.078316666
0003d0 45 37 bb 3b 1f 44 dc bc 29 4c 06 bc d8 a1 3e bc
       0.0057133758 -0.026887951 -0.008196869 -0.011635266
0003e0 9e e2 4d 3c 65 e8 48 bb 9c f2 5c bc d3 17 03 3c
       0.012566237 -0.0030656096 -0.013485577 0.008001286
0003f0 89 51 ea bb f1 bd 33 bc 20 8b e4 bc 69 7a 0c bc
       -0.007150833 -0.0109705785 -0.027898371 -0.008574107

update_node_embedding_layer.1.message_layer.weight f4 [64, 128]
000000 70 c9 20 bb ae 36 dd bc f2 32 90 3c 91 e7 51 3e
       -0.0024534129 -0.027003612 0.017602418 0.20498492
000010 39 02 88 bb 19 5c 03 3b 35 e7 ec bc 4a 77 a1 bc
       -0.0041506556 0.0020043908 -0.028918842 -0.019710202
000020 11 aa af bc 9a ee c6 bc da 1f c1 bc a7 10 ed bc
       -0.021443399 -0.024283696 -0.023574758 -0.028938605
000030 ef 82 40 bd 5f 1d aa bc d7 b6 56 3b a9 4f 25 3d
       -0.046999868 -0.020765958 0.003276279 0.040359173
000040 9f 75 7c 3e 50 d3 26 bc 65 a8 73 3e 86 c6 e4 bc
       0.24654244 -0.010182217 0.23794706 -0.027926695
000050 5d ff 82 3d 24 07 a8 bc 60 c1 ce bc c4 52 3e bd
       0.06396363 -0.020511217 -0.025238693 -0.04646565
000060 b0 d0 ec bc 86 7c 5a 3b 7f 9b 03 bb ad b2 01 bd
       -0.028908104 0.0033338382 -0.0020081697 -0.03166454
000070 41 84 73 3c 3f 75 39 3d 61 85 c2 bb 3e 8b 35 3c
       0.014863075 0.04527783 -0.00593631 0.011080561
000080 1d 75 7b 3d f3 05 83 bc 68 b7 49 bc 25 a3 ae 3d
       0.061390985 -0.015994048 -0.012311794 0.08527211
000090 c8 9d 85 3b 3a 5a 96 3d 70 76 e6 bb 0a 38 81 3d
       0.004077647 0.07341428 -0.007033162 0.06309517
0000a0 53 ef c3 bc 9f fd 67 3e 9c 47 8f 3e dc 4c b9 bc
       -0.02391783 0.22655343 0.2798432 -0.022619657
0000b0 cf 12 b3 bc 4d e3 91 bc c3 da 80 bc aa 3e 1f 3d
       -0.021859555 -0.01780858 -0.015729314 0.03887812
0000c0 61 8d 92 bc 75 9a c6 3e e7 43 d2 bc c0 87 0e bb
       -0.01788968 0.38789716 -0.025667144 -0.0021748394
0000d0 7b 0c bd bb e9 e7 a4 bb e8 c9 62 3e 33 74 5a bc
       -0.00576931 -0.0050325287 0.22147334 -0.013333368
0000e0 72 88 65 3d b1 32 c7 3c 84 aa 06 bd b8 22 bc bc
       0.056038328 0.024316164 -0.03287746 -0.022965774
0000f0 67 d7 0f 3c 35 a4 e4 bb 7e 68 be bc d7 9d 16 3d
       0.008779383 -0.006977583 -0.023243185 0.03677162
000100 36 c3 85 3c c1 7d 9a b9 9f 9b 99 3c fe 9e cf bb
       0.016328435 -0.00029466863 0.018750964 -0.006336092
000110 a7 d5 b9 bc a1 57 b2 ba 43 55 74 bc 51 53 ab bc
       -0.022684885 -0.0013606438 -0.014912906 -0.020913752
000120 90 6e 2a 3d 03 b2 33 3c 70 7e 7b 3d 7f cc 78 3c
       0.041609347 0.010967734 0.061399877 0.015185474
000130 f5 b8 f6 bb 2a 08 4c bc 93 c5 6a bc 76 4e 0b 3c
       -0.007529373 -0.012453118 -0.014329332 0.008502593
000140 5e 22 49 3b f3 0a 10 3c dd aa 99 bc f4 1b 37 3b
       0.003069065 0.008791673 -0.018758232 0.0027940245
000150 13 19 b9 bb fc 07 de 3b d1 ea b0 3c 97 f1 81 3c
       -0.005648741 0.006775854 0.021596344 0.01586227
000160 6b b8 a9 3c 74 65 a8 ba 41 7b d1 bb 82 3a c9 bb
       0.02071782 -0.0012847618 -0.006392867 -0.006141008
000170 77 d4 8e bc 75 6b 0f 3d 2f 7b 96 3c da ab 5a 3c
       -0.017435296 0.03501459 0.018369285 0.013346637
000180 b7 3b 22 bd 74 45 a4 3c 6a 5e 0f 3d 10 56 8d bb
       -0.03960773 0.02005265 0.03500215 -0.004313238
000190 9d 55 80 bb 5f 79 e2 bc cb 37 2f bc 65 c2 5f 3c
       -0.003916456 -0.027645765 -0.010694454 0.013657187
0001a0 92 81 fa 3b f5 a7 8b 3c 07 92 a0 3c c6 3d 20 bc
       0.0076448405 0.017047862 0.019600881 -0.009780353
0001b0 b8 66 5a 3c 22 a4 53 bb a8 e0 d7 3c d9 de c3 3b
       0.013330154 -0.0032293876 0.026352242 0.0059774932
0001c0 83 42 67 3d 33 2b ae 3c 41 1a 68 3b 10 a2 c7 bb
       0.056459915 0.021260833 0.003541604 -0.0060923174
0001d0 8e 0c f8 ba 0a b8 16 bb 7a 95 14 3d a2 99 f0 bb
       -0.001892464 -0.002299788 0.036275364 -0.007342533
0001e0 5a bf 0f 3d 7e 39 9e bb 4e 0a 1c 3b 7b 5a a5 3c
       0.035094596 -0.004828631 0.0023809853 0.020184746
0001f0 8d 0c 06 3c 2c e4 fc bb b6 04 6c 3c 12 bd ee bb
       0.008181703 -0.00771763 0.01440542 -0.0072857225
000200 9e 80 78 3a 88 cc 1e 3d 39 e9 00 bc 65 06 e0 bd
       0.00094796147 0.038769275 -0.007868105 -0.1093872
000210 6d 53 15 3d dc 31 ba 3b 64 d1 f3 3c bb 76 13 3d
       0.036456514 0.005682213 0.029762931 0.036001902
000220 35 3b 47 3d 06 d8 d1 bd 88 96 4f 3d 93 d4 27 3d
       0.04864045 -0.10246281 0.050680667 0.04097421
000230 40 2f 5c 3d e0 b6 10 3d bb fb 98 bb db 98 87 bb
       0.053756 0.035330653 -0.0046686805 -0.004138095
000240 3b ee 7e 3d dd 24 25 bc 69 e3 89 3d d1 e1 91 3c
       0.062238913 -0.01007959 0.06732828 0.017807873
000250 b8 67 8e 3c a9 aa cf 3c 54 fe 0a 3d 2b 19 d4 3c
       0.017383441 0.025349932 0.033933952 0.025890907
000260 09 fc 00 3d b2 32 7f 3c e5 7c 31 b9 82 0f e4 3c
       0.03149036 0.015576052 -0.00016926562 0.027839426
000270 96 af 22 3b 35 1a cd 3c d9 af 32 be a1 17 26 3b
       0.0024823896 0.02503691 -0.17449893 0.0025343674
000280 92 40 04 bc 3c df fa ba c5 7b 3e 3d 10 9e fb 3c
       -0.008072035 -0.0019140015 0.046504755 0.030715019
000290 7f 3b 2a 3c fc 8a 12 3c 1e a6 87 3d ab 34 e3 b9
       0.010390162 0.008944269 0.06623481 -0.00043336055
0002a0 de d9 64 3d 74 81 fe 3d ff 30 48 3d 89 3e 82 bb
       0.055871837 0.12427035 0.04887485 -0.00397474
0002b0 c6 73 4f bc fd d8 9d bb d6 70 86 3d 8b 9f d3 3c
       -0.01266188 -0.004817127 0.065644905 0.025832912
0002c0 8b 50 f0 3c a1 7d 10 3e f1 fb 45 3d df 24 88 bc
       0.02933528 0.14110424 0.048335973 -0.016619144
0002d0 c2 c3 fe 3c 32 5a 49 bc fe fa 63 bc 50 68 d3 bd
       0.031099204 -0.012289571 -0.013914822 -0.103226304
0002e0 33 73 4a 3c 01 df 10 3c b4 f7 ab 3d 76 95 5e 3d
       0.012356567 0.008842231 0.08396855 0.054341756
0002f0 c1 4a ad bc 06 da 52 bc de 6a 9a 3d ec de 94 3d
       -0.02115381 -0.012869364 0.075399145 0.072690815
000300 e0 3b 8b bc 2e 2e 54 3a 4f e4 e1 3c 33 1c fb 3b
       -0.016996324 0.00080940395 0.027574686 0.0076632737
000310 37 e1 45 bd 3b 92 32 bc 09 a0 8c 3c 4b 59 80 3d
       -0.048310485 -0.010899122 0.017166154 0.06267031
000320 7c f0 bb bd ae 2b bd bd 92 3b 9c bc c0 5b 9c bc
       -0.09176728 -0.09236847 -0.019071374 -0.019086719
000330 3c 73 00 3c 22 cb 57 3d c2 04 30 3c 83 0b 35 bc
       0.007839974 0.052683957 0.010743322 -0.011050108
000340 c0 d1 ed bb 26 83 eb bc ed 3d 41 bc 43 b6 00 3c
       -0.00725767 -0.02874906 -0.011794549 0.007855955
000350 f1 01 8f 3b 6f 5c 6d 3d f7 89 59 bd 96 09 5f 3a
       0.004364245 0.05794948 -0.05311009 0.00085082033
000360 59 0f f5 bd ff da 71 bc 5f 71 20 be 9d 78 79 bd
       -0.11965818 -0.014761685 -0.15668248 -0.06090604
000370 10 0e f3 bb 0d 5b f1 bb 26 eb 39 bd 58 11 11 bd
       -0.007417448 -0.0073655904 -0.04539027 -0.03541693
000380 7c d6 1c be 28 2e eb bd ea d2 53 3c bc c0 00 3c
       -0.15316194 -0.11483413 0.012928704 0.007858451
000390 b1 c8 0e 3c 4e 24 51 bc 93 4e 8a bd 15 12 b8 bd
       0.008714841 -0.012765003 -0.06753268 -0.08987824
0003a0 3b 57 a6 bd ac 4a 03 bd 35 d9 a2 3c 05 59 34 3b
       -0.08122107 -0.032053635 0.019878963 0.002751888
0003b0 54 e8 8a bd 7e 09 e0 3c 3d 5d 33 bc 65 a5 bd bd
       -0.06782594 0.027348276 -0.010947523 -0.09260062
0003c0 3b 5f f9 ba 7a a6 b8 3c fb 1a 51 3c aa 1f 8f 3c
       -0.0019025573 0.02254032 0.01276278 0.017471153
0003d0 26 4c 9c 3c c8 2b 2e bd 7f d0 0f be e0 21 2a 3b
       0.01907928 -0.04252222 -0.14044379 0.0025960132
0003e0 85 90 22 3d de 67 c9 bb c6 f2 21 3c 9c 7c 94 bd
       0.039688606 -0.006146415 0.009884542 -0.0725033
0003f0 d4 a7 d1 bd 12 d3 de 3b 90 ec 97 bd 52 44 9e bd
       -0.10237089 0.006800064 -0.074181676 -0.07727875
