ER_200spin/eco/network/network6400000.pth (torch, 238273 bytes, 11 tensors)

node_init_embedding_layer.0.weight f4 [64, 7]
0.0031617568 -0.26834565 -0.19480824 0.04311523 0.0034570566 -0.018717444 0.06256192 0.0039481213
-0.21722786 -0.029860307 0.1311547 -0.030400654 0.09093975 0.029565273 0.015975013 0.39884898
-0.023935035 -0.07056423 0.0009616745 -0.0049262433 0.031244382 -0.010725016 0.3942478 0.01513834
-0.015818134 0.0030101202 0.0012994484 0.0069781546 -0.006149493 -0.0038983978 -0.009858432 -0.011102081
-0.01081875 -0.0037795096 -0.0152212195 -0.011088987 -0.0035597358 -0.00203433 -0.0026715926 -0.013247419
-0.016443353 -0.0053399424 0.029743727 0.47614065 -0.0012623781 -0.19114421 0.00027689151 -0.03238479
0.019137502 0.023478905 -0.22713189 -0.5818486 0.24215573 0.0001628193 0.09962767 0.01989664
0.02782379 -0.31039405 0.0723602 0.18865506 -0.0015773671 0.044022653 0.06326364 0.037115544
0.43400046 0.030207591 0.008643113 -0.0027656236 0.009932934 0.0009876203 -0.016085802 0.36247924
0.03088083 0.06357133 0.0014396885 0.013263694 -0.047616716 -0.01555568 0.34940463 -0.21806331
0.08426311 -0.00018958969 -0.005723302 -0.24823394 0.03813176 0.47122264 -0.010451125 -0.13702686
0.00087090785 0.027011849 0.022847103 0.021377036 -0.3098194 -0.009772772 0.09792907 0.0019896599
-0.012862535 0.054041147 0.02769789 -0.2910398 -0.006342614 0.11891144 0.0005590186 0.0007214889
0.06761676 0.045575533 0.049154166 -0.1516757 0.09523121 0.00022220287 0.029486286 -0.21182671
0.022718765 -0.21426284 -0.08235561 0.12546441 -0.01298407 0.0892095 0.033160392 -0.02807843
0.3597282 0.040423796 0.00108587 -0.004141683 0.030411499 0.022030298 0.036952972 -0.4019957
0.00090821675 0.1369657 0.010160712 0.012615595 0.07960216 -0.028801477 0.32168153 0.06876817
0.061111208 -0.013618131 -0.0055959322 0.020110458 0.030447891 0.4742332 0.033964083 -0.025559794
-0.0003744012 0.017208947 0.0041056997 0.033568773 -0.37862372 0.02874309 0.14588156 0.005934778
0.018328289 0.0686928 0.01474538 -0.2127879 0.10077274 0.12338099 -0.026259195 0.08999341
-0.015238659 0.0019228109 -0.19902764 0.17675872 0.05201399 -0.0017678539 0.0051125237 0.08967889
0.019718777 -0.24849454 0.06042063 0.43006778 0.004801517 0.090892315 0.007975465 -0.027811015
0.36685753 -0.013818862 0.0052728946 -0.005613762 0.028255776 -0.0676739 0.03809495 0.48653993
0.033828955 0.0066943606 -0.005633466 0.039358832 0.013799508 -0.001984467 0.0030851387 0.001095844
-0.009433593 -0.0056003085 -0.0043595186 -0.010299535 0.03246701 0.40898722 0.013612828 -0.038835034
0.0008928043 0.015445384 -0.008555301 0.03159908 -0.39643183 0.006030654 0.12934163 0.0052212053
0.040444184 0.046180904 0.013553036 -0.20997193 -0.022659222 -0.22409616 -0.002466624 0.11803186
-0.015668973 -0.0066449014 -0.26630667 0.031221779 0.10162761 -0.00745147 -0.020766588 0.017277341
-0.0024586709 0.010573094 -0.0038705096 -0.01777523 -0.0039956234 -0.008044434 -0.0016477507 0.041685395
0.16325757 -0.31387392 0.0005673335 0.0061461465 0.026206631 -0.36113235 0.019250598 0.42594382
0.0037898684 -0.025551835 0.002041027 0.036359366 0.015572547 -0.0029958652 0.004468031 -0.011094356
-0.01162292 -0.011126069 -0.0063133347 -0.0016458024 0.015186546 -0.18493289 -0.14302434 0.061664827
00000000: 7a35 4f3b 9a64 89be d07b 47be 9899 303d
00000010: c98f 623b 5355 99bc 7720 803d 3e5f 813b
00000020: fb70 5ebe 9a9d f4bc 6b4d 063e cb0a f9bc
00000030: 9f3e ba3d df32 f23c 08de 823c ef35 cc3e
00000040: 6813 c4bc fb83 90bd e218 7c3a 536c a1bb
00000050: 38f4 ff3c fab7 2fbc d9da c93e cd06 783c
00000060: 0895 81bc 7045 453b 4152 aa3a 01a9 e43b
00000070: b081 c9bb 437c 7fbb 4385 21bc 81e5 35bc
00000080: 2041 31bc a6b1 77bb 6c62 79bc 95ae 35bc
00000090: 754a 69bb 6552 05bb e315 2fbb b40b 59bc
000000a0: 36b4 86bc affa aebb 1ea9 f33c b5c8 f33e
000000b0: 6176 a5ba 4fbb 43be c02b 9139 eaa5 04bd
000000c0: 40c6 9c3c d556 c03c 4395 68be 08f4 14bf
000000d0: acf7 773e 79ba 2a39 9809 cc3d 47fe a23c
000000e0: b8ee e33c f8eb 9ebe 9631 943d cb2e 413e
000000f0: a8bf ceba 1951 343d 5e90 813d 7806 183d
00000100: 4f35 de3e e975 f73c d89b 0d3c 773f 35bb
00000110: bfbd 223c 0a73 813a 5fc6 83bc e196 b93e
00000120: cbf9 fc3c af31 823d eeb3 bc3a f74f 593c
00000130: bf09 43bd 40dd 7ebc 2ae5 b23e fd4b 5fbe
00000140: 2392 ac3d 98cc 46b9 898a bbbb 0a31 7ebe
00000150: 0c30 1c3d 1844 f13e 323b 2bbc c550 0cbe
00000160: a34d 643a f447 dd3c d929 bb3c e51e af3c
00000170: a6a0 9ebe fa1d 20bc 098f c83d f464 023b
00000180: 62bd 52bc 405a 5d3d afe6 e23c 2b03 95be
00000190: b4d5 cfbb d787 f33d 1a8b 123a 4d22 3d3a
000001a0: a87a 8a3d 69ad 3a3d e155 493d e050 1bbe
000001b0: 9508 c33d 21ff 6839 398d f13c 1ae9 58be
000001c0: b41c ba3c b867 5bbe 0faa a8bd be79 003e
000001d0: 23bb 54bc 78b3 b63d 31d3 073d bc04 e6bc
000001e0: 4b2e b83e 6c93 253d c053 8e3a f5b6 87bb
000001f0: 8921 f93c e278 b43c 005c 173d 61d2 cdbe
00000200: 6515 6e3a bd40 0c3e 1d79 263c a4b1 4e3c
00000210: 7506 a33d 13f1 ebbc 71b3 a43e 54d6 8c3d
00000220: bf4f 7a3d 951e 5fbc 155e b7bb b0be a43c
00000230: db6d f93c b2ce f23e ec1d 0b3d c662 d1bc
00000240: 474b c4b9 c7f9 8c3c 1b89 863b 697f 093d
00000250: f8da c1be a176 eb3c fa61 153e 8778 c23b
00000260: 3525 963c d0ae 8c3d 9b96 713c 12e5 59be
00000270: f061 ce3d 2caf fc3d 861d d7bc 774e b83d
00000280: 92ab 79bc d406 fc3a e7cd 4bbe 3d00 353e
00000290: 9f0c 553d 55b7 e7ba f586 a73b 91a9 b73d
000002a0: 4689 a13c 5a75 7ebe 9f7b 773d d831 dc3e
000002b0: 0b56 9d3b c025 ba3d 86ab 023c edd3 e3bc
000002c0: c0d4 bb3e 8268 62bc 3fc8 ac3b a6f3 b7bb
000002d0: a878 e73c 9d98 8abd 7309 1c3d c31b f93e
000002e0: 3b90 0a3d 5e5c db3b f098 b8bb ba36 213d
000002f0: 5517 623c d50d 02bb 0a30 4a3b 6ca2 8f3a
00000300: 5b8f 1abc cb82 b7bb 4bda 8ebb 61bf 28bc
00000310: 21fc 043d c666 d13e 5708 5f3c 7c11 1fbd
00000320: 150b 6a3a a30e 7d3c 892b 0cbc 096e 013d
00000330: 1df9 cabe cb9c c53b 2272 043e a516 ab3b
00000340: cda8 253d 3028 3d3d 8e0d 5e3c e202 57be
00000350: d59f b9bc 7779 65be 15a7 21bb b0ba f13d
00000360: 385c 80bc 79bd d9bb 5959 88be d1c4 ff3c
00000370: 2322 d03d 762b f4bb b11e aabc 3689 8d3c
00000380: a721 21bb c53a 2d3c 60a8 7dbb 5c9d 91bc
00000390: b8ed 82bb cdcc 03bc 57f9 d7ba 4ebe 2a3d
000003a0: fe2c 273e 15b4 a0be 1bb9 143a 9d65 c93b
000003b0: 4aaf d63c 57e6 b8be 6eb3 9d3c 4f15 da3e
000003c0: 715f 783b 1552 d1bc c0c2 053b 8fed 143d
000003d0: ff23 7f3c 4756 44bb 9068 923b 1ac5 35bc
000003e0: 0f6e 3ebc 1e4a 36bc 17e0 cebb f7b7 d7ba
000003f0: fed0 783c 0c5f 3dbe f974 12be 4294 7c3d

edge_embedding_layer.edge_embedding_NN.weight f4 [63, 8]
0.033708263 0.028361738 0.29297006 -0.04818673 -0.0024059284 -0.060140666 -0.016377786 -0.06417171
-0.009922469 -0.010774974 -0.004315335 -0.0022903706 0.008953054 -0.02221353 -0.015251183 0.008083992
0.031548005 0.021305732 0.26685935 -0.051455375 0.0124257775 -0.033166114 -0.010349555 -0.037411842
0.051219065 0.04222228 0.27582872 -0.14944822 -0.029777005 0.0010040103 0.038379565 -0.07302039
-0.015035438 -0.0067404066 0.0153879905 -0.014715848 -0.00982584 -0.0015218513 -0.0013866938 -0.0020847525
-0.010408337 -0.00058907137 0.002471643 -0.004193349 0.0027986444 -0.013592724 0.011577544 0.002690091
-0.011286426 -0.026909582 -0.16874322 0.13066235 0.06408795 -0.011253927 -0.0906998 0.06593825
-0.007212404 0.0035891107 -0.20857435 0.16705419 0.092423804 0.013559903 0.002589179 0.1255276
-0.0011131492 -0.14217159 -0.21234716 0.10940355 0.098241016 -0.0053482894 0.009935503 0.07722257
-0.003012215 -0.06420541 -0.18711421 0.1300473 0.05546975 0.015072657 -0.06257715 0.10462628
-0.015713334 0.005076005 -0.18874164 0.14566545 0.093157545 0.008235553 0.007877678 0.108016215
-0.0005169977 -0.0011437915 -0.0015800482 -0.011648395 -0.008384922 -0.019005835 -0.021238621 -0.0031330034
-0.011771853 -0.0064551826 -0.018746976 0.008560626 -0.0028598043 -0.013159215 0.0014753747 -0.0033808637
0.056234658 0.02320764 0.26107788 -0.12430391 -0.011916364 0.0011735595 0.039398264 -0.1255152
-0.026683804 -0.021996448 -0.15897262 0.11083977 0.0852449 0.018066727 -0.32825872 0.08495158
0.06580632 0.04777477 0.2631117 -0.1532454 -0.057338174 0.002896622 0.045921426 -0.09055045
-0.013883722 -0.021551048 -0.1816178 0.14387041 0.09976093 0.00077689695 0.024006797 0.08199937
0.04416954 0.011677093 0.28792048 -0.086765684 0.045403067 -0.003981046 0.016049864 -0.07039607
0.056707248 0.0066083837 0.2590202 -0.113731615 0.011036885 0.0030339817 0.027613757 -0.1272042
-0.010108323 -0.031804558 -0.15401317 0.12133536 0.11301921 -5.3200638e-05 -0.03520685 0.087302774
-0.0014439179 -0.00978569 0.0023963705 0.0012964379 -0.0012544036 -0.0001595673 -0.007059626 -0.009169412
-0.008091183 -0.014538849 -0.18275449 0.13052759 0.11491693 -0.005299904 0.014698698 0.0930568
0.049757622 0.049293175 0.28067023 -0.17004678 -0.009950074 -0.0002182551 0.04318049 -0.06420784
-0.0014835857 -0.0010873167 0.0004004063 0.0019544451 -0.017845793 -0.0053972867 -0.0027487199 -0.0038520296
0.06863226 0.03554849 0.27305678 -0.18685971 -0.06505402 0.005081558 0.027944805 -0.088017546
0.033330746 -0.0058696964 0.32911777 -0.28009012 -0.015754133 0.011587672 0.0152327055 -0.2693114
-0.031922635 -0.01838363 -0.15445794 0.13266061 0.0759496 0.01112525 -0.32052422 0.08704837
0.05930396 0.021940624 0.26743326 -0.14745744 0.046799883 -0.007644981 0.028140953 -0.08717278
-0.014819773 -0.014826146 -0.01661776 -0.015271877 -0.007614104 -0.012074424 -0.012945181 -0.010523627
-0.013963782 -0.04114682 -0.14920667 0.1453378 0.09719851 0.0069775935 -0.16955522 0.09012376
0.04382006 0.047726333 0.26813832 -0.17182857 -0.028931633 -7.309836e-05 0.044033956 -0.05229124
0.03193455 -0.017304435 0.3698712 -0.24690694 -0.0074503175 0.0036966018 0.0113080265 -0.26731184
00000000: ad11 0a3d e056 e83c 2c00 963e 735f 45bd
00000010: c8ac 1dbb 0f56 76bd b52a 86bc 756c 83bd
00000020: da91 22bc 8489 30bc a767 8dbb 0b1a 16bb
00000030: d5af 123c 26f9 b5bc 19e0 79bc b872 043c
00000040: 7b38 013d 5c89 ae3c caa1 883e dfc2 52bd
00000050: 7d95 4b3c 31d9 07bd 2e91 29bc 293d 19bd
00000060: 15cb 513d 45f1 2c3d 6c39 8d3e f408 19be
00000070: e8ee f3bc ff98 833a e433 1d3d b78b 95bd
00000080: 3357 76bc a1de dcbb e91d 7c3c bd1a 71bc
00000090: 8ffc 20bc db78 c7ba b9c1 b5ba 58a0 08bb
000000a0: bb87 2abc e96b 1aba 4afb 213b 5c68 89bb
000000b0: 7669 373b 04b4 5ebc bdaf 3d3c 3d4c 303b
000000c0: b4ea 38bc 7c71 dcbc 06cb 2cbe 5acc 053e
000000d0: 8b40 833d 6462 38bc d1c0 b9bd a20a 873d
000000e0: 0856 ecbb 4937 6b3b 8494 55be 4110 2b3e
000000f0: b148 bd3d 5b2a 5e3c 37af 293b 4f8a 003e
00000100: 17e7 91ba 6e95 11be 8971 59be f80e e03d
00000110: 9632 c93d b440 afbb 85c8 223c de26 9e3d
00000120: 9568 45bb 207e 83bd de9a 3fbe 1f2b 053e
00000130: 4034 633d 4ef3 763c 7328 80bd 4e46 d63d
00000140: 40b9 80bc 9e54 a63b 7d45 41be 5329 153e
00000150: 62c9 be3d 6aee 063c 6011 013c 9b37 dd3d
00000160: 2187 07ba 46eb 95ba 9f19 cfba e9d8 3ebc
00000170: e960 09bc 20b2 9bbc 9efc adbc 1353 4dbb
00000180: bbde 40bc ff85 d3bb 4293 99bc de41 0c3c
00000190: 8e6b 3bbb c099 57bc 5c61 c13a 7b91 5dbb
000001a0: 5056 663d f31d be3c 00ac 853e 0c93 febd
000001b0: da3c 43bc 1fd2 993a 1360 213d 0e87 00be
000001c0: fe97 dabc e531 b4bc b8c9 22be f6ff e23d
000001d0: e194 ae3d ac00 943c 8711 a8be 18fb ad3d
000001e0: 77c5 863d 7aaf 433d 94b6 863e 5dec 1cbe
000001f0: 6fdb 6abd 41d5 3d3b 1b18 3c3d 8472 b9bd
00000200: 8d78 63bc d38b b0bc 04fa 39be c452 133e
00000210: 754f cc3d aca8 4b3a e7a9 c43c 49ef a73d
00000220: 1feb 343d 4751 3f3c 506a 933e 35b2 b1bd
00000230: 91f8 393d 6f73 82bb 017b 833c d12b 90bd
00000240: dc45 683d 248b d83b 4c9e 843e 1fec e8bd
00000250: 0dd4 343c c4d5 463b 3f36 e23c d141 02be
00000260: 619d 25bc 7f45 02bd a1b5 1dbe ac7e f83d
00000270: 9e76 e73d c023 5fb8 0f35 10bd cccb b23d
00000280: d841 bdba 2954 20bc 6d0c 1d3b 3ded a93a
00000290: cd6a a4ba 8551 27b9 6f54 e7bb 4d3b 16bc
000002a0: e290 04bc 5a34 6ebc fe23 3bbe 06a9 053e
000002b0: 9159 eb3d d1aa adbb cfd2 703c 9094 be3d
000002c0: a6ce 4b3d a4e7 493d 02b4 8f3e be20 2ebe
000002d0: a305 23bc 68db 64b9 07de 303d 667f 83bd
000002e0: e074 c2ba 4b84 8eba a0ed d139 2616 003b
000002f0: 5731 92bc b9db b0bb de23 34bb 5572 7cbb
00000300: 128f 8c3d 4b9b 113d 19ce 8b3e 2758 3fbe
00000310: 0b3b 85bd 3383 a63b 81ec e43c 8b42 b4bd
00000320: d285 083d 9556 c0bb 2082 a83e f967 8fbe
00000330: d00e 81bc 38da 3d3c 9992 793c 2fe3 89be
00000340: 4fc1 02bd 4499 96bc 392a 1ebe 2fd8 073e
00000350: 778b 9b3d ae46 363c c01b a4be 6a46 b23d
00000360: b6e8 723d d3bc b33c 03ed 883e 15ff 16be
00000370: 3cb1 3f3d c082 fabb db87 e63c a487 b2bd
00000380: a2ce 72bc 5de9 72bc f821 88bc e536 7abc
00000390: bc7f f9bb ced3 45bc 0618 54bc 4a6b 2cbc
000003a0: 59c8 64bc 9189 28bd a2c9 18be 6fd3 143e
000003b0: 0310 c73d 4ca4 e43b e29f 2dbe ce92 b83d
000003c0: aa7c 333d b07c 433d 6d49 893e d4f3 2fbe
000003d0: 0802 edbc 624c 99b8 f35c 343d 572f 56bd
000003e0: cdcd 023d 08c2 8dbc c25f bd3e 2cd5 7cbe
000003f0: cb21 f4bb b042 723b 4d45 393c 19dd 88be

edge_embedding_layer.edge_feature_NN.weight f4 [64, 64]
0.05406141 0.006673097 0.046961945 0.059081253 0.009925359 0.00821526 -0.022644041 -0.06225937
-0.042079765 -0.03271998 -0.042769212 0.0012318065 -0.005665803 0.07419331 -0.049304802 0.06144699
-0.03886808 0.031058403 0.036413588 -0.004825494 0.000109577515 -0.037324727 0.042503573 0.002587881
0.04480037 0.13884099 -0.06958503 0.04731516 -0.0021766124 -0.05744477 0.044745415 0.12937
-0.049671486 -0.03820297 0.075823024 -0.0020278923 0.0442491 -0.037101462 -0.050814793 0.06007472
-0.037211787 0.06128802 0.019801237 0.07061801 0.0033941509 -0.019334406 -0.023441762 -0.002245156
0.0020962334 -0.04804383 0.017370982 -0.010358377 0.025562637 0.012979024 -0.039883614 0.030499285
0.07380574 0.12470805 0.0092882775 0.018932724 0.056227315 0.08386871 0.03869544 0.05506846
-0.010757435 -0.008134392 0.0015555887 0.0082254615 0.0019207367 0.002163062 0.0075713447 0.008774764
-0.007368058 -0.008162394 -0.011945093 0.00053097215 0.013778844 0.0062424517 0.0026948373 -0.014645023
9.829938e-05 0.007712967 0.008076533 -0.0020919112 -0.0091824075 -0.00903409 -0.0045856712 -0.024723053
0.0061283913 0.010687757 -0.0079584615 -0.0028761444 0.012500013 -0.021071821 0.004995809 0.004633419
-5.6490684e-05 -0.015611438 -0.010616232 -0.0030209445 -0.022822924 0.004618022 -0.0052528144 0.009122809
0.00059116463 0.012726235 0.0044763433 0.0040317248 -0.0024838957 -0.01235016 -0.00058075506 0.016682966
0.013421233 0.0007373087 0.0055199787 0.0034704753 -0.02354301 -0.012233246 0.004081472 -0.018016197
-0.008616842 -0.006729163 -0.005336937 0.00050229934 0.0036360866 -0.004051917 0.009005738 -0.029614363
0.037969388 -0.0063518262 0.047511924 0.0020926157 -0.011611266 -0.004056425 0.041450754 0.017909331
0.049093578 0.012230801 0.013673534 0.0021992014 -0.001916733 -0.043521672 0.009384521 -0.01914756
-0.0013272128 -0.04605693 -0.04666932 0.014645448 -0.02420997 0.015695501 -0.013278981 0.0041167918
-0.018388243 -0.07448198 0.025148144 -0.07377612 -0.007525111 0.017637108 -0.01269166 -0.14670908
0.029253682 0.030729579 0.01371779 0.04603751 -0.0067612287 0.02692074 0.017039755 -0.025793325
0.04332392 -0.0426059 -0.01289387 -0.015269928 -0.0030575085 0.05657482 0.07068392 0.011249505
-0.013233761 0.028692346 -0.0001349812 0.011113654 -0.0043035722 0.0015670959 0.034824625 -0.06225582
-0.06567948 -0.13349526 0.0048289425 0.009405347 0.0068611484 -0.0060470006 -0.01695718 -0.006901641
-0.01394048 -0.006870072 -0.009293741 0.008531291 0.0033435759 -0.008219612 -0.009937564 1.8024335e-06
0.0065187598 -0.0015708433 0.008476569 -0.007357938 -0.0046117115 0.002252608 -0.008796808 -0.0023317866
-0.017442891 0.0060973703 -0.015798636 -0.0050842944 0.0041428367 -0.004616083 -6.412105e-05 -0.0023929016
0.002517064 -0.010286944 -0.0030664708 0.007888776 0.01083421 -0.0011445023 -0.0026926599 -0.0010076426
-0.016303077 0.007156581 0.0010438258 0.00019029636 0.00089925295 -0.0055984505 -0.0056308643 0.0001323514
-0.0054644374 -0.00420371 0.00012495325 -0.00021016278 0.017536044 0.01697999 -0.01351005 0.0057136067
-0.00062793127 -0.00031389037 0.0030395736 -0.013317074 -0.00057330204 0.0054728673 -0.0015698014 -0.0076897168
0.013171347 -0.013533647 -0.00035957596 -0.00062156183 -0.0020496896 -0.0086621335 0.006484415 -0.0048349635
00000000: 7f6f 5d3d ffa9 da3b 2b5b 403d 2fff 713d
00000010: f99d 223c 4c99 063c ff7f b9bc ae03 7fbd
00000020: d55b 2cbd 6305 06bd c52e 2fbd 9174 a13a
00000030: 33a8 b9bb aaf2 973d d5f3 49bd d7af 7b3d
00000040: 2334 1fbd 316e fe3c 6a26 153d 2d1f 9ebb
00000050: fbcc e538 d0e1 18bd 3a18 2e3d 7099 293b
00000060: 9880 373d 552c 0e3e 9982 8ebd 8bcd 413d
00000070: 7fa5 0ebb 354b 6bbd f846 373d 9279 043e
00000080: 5474 4bbd b87a 1cbd 1a49 9b3d 63e6 04bb
00000090: 8b3e 353d b4f7 17bd 2c23 50bd e910 763d
000000a0: 636b 18bd 2609 7b3d 3436 a23c 2da0 903d
000000b0: 6770 5e3b 3063 9ebc f008 c0bc 7823 13bb
000000c0: f660 093b 9bc9 44bd 974d 8e3c 2fb6 29bc
000000d0: bc68 d13c f9a5 543c 005d 23bd a3d9 f93c
000000e0: 7727 973d ef66 ff3d dc2d 183c cd18 9b3c
000000f0: 9d4e 663d 5cc3 ab3d 1c7f 1e3d 778f 613d
00000100: f43f 30bc 1d46 05bc e5e4 cb3a 16c4 063c
00000110: 3bc1 fb3a 29c2 0d3b 0b19 f83b 07c4 0f3c
00000120: c06f f1bb 90bb 05bc 5ab5 43bc f030 0b3a
00000130: a9c0 613c 7b8d cc3b de9b 303b aef1 6fbc
00000140: 1426 ce38 0fbd fc3b 6f53 043c 7218 09bb
00000150: cf71 16bc b803 14bc 6643 96bb 0088 cabc
00000160: acd0 c83b b41b 2f3c 3564 02bc b27d 3cbb
00000170: dbcc 4c3c d09e acbc e2b3 a33b f0d3 973b
00000180: 69f0 6cb8 1ec7 7fbc b4ef 2dbc 0afb 45bb
00000190: 24f7 babc c752 973b cd1f acbb d677 153c
000001a0: 63f8 1a3a b381 503c 4aae 923b 8f1c 843b
000001b0: dbc8 22bb 5358 4abc d03d 18ba b7aa 883c
000001c0: bbe4 5b3c f347 413a f0e0 b43b ea70 633b
000001d0: 45dd c0bc f46d 48bc debd 853b b496 93bc
000001e0: a82d 0dbc 5080 dcbb 79e1 aebb bdac 033a
000001f0: 694b 6e3b f2c5 84bb ce8c 133c d299 f2bc
00000200: ca85 1b3d fb22 d0bb dd9b 423d 4424 093b
00000210: 2e3d 3ebc c2eb 84bb 44c8 293d 97b6 923c
00000220: 5916 493d b363 483c f506 603c 7a20 103b
00000230: e33a fbba c843 32bd 89c1 193c 58db 9cbc
00000240: dff5 adba 31a6 3cbd 5428 3fbd 76f3 6f3c
00000250: fd53 c6bc da93 803c 1590 59bc 27e6 863b
00000260: f1a2 96bc 028a 98bd 7b03 ce3c ef17 97bd
00000270: 3595 f6bb b27b 903c aef0 4fbc e83a 16be
00000280: 6ba5 ef3c 99bc fb3c 95c0 603c d491 3c3d
00000290: 4c8d ddbb e288 dc3c f596 8b3c 864c d3bc
000002a0: 6c74 313d 8683 2ebd cf40 53bc b82e 7abc
000002b0: 7b60 48bb 00bb 673d bbc2 903d d84f 383c
000002c0: 6bd2 58bc 360c eb3c bd89 0db9 0b16 363c
000002d0: fb04 8dbb 0367 cd3a 44a4 0e3d f5ff 7ebd
000002e0: f782 86bd fbb2 08be 1b3c 9e3b e218 1a3c
000002f0: 7cd3 e03b eb25 c6bb c9e9 8abc 2927 e2bb
00000300: 9c66 64bc 571e e1bb c644 18bc d4c6 0b3c
00000310: e51f 5b3b 8dab 06bc 2ad1 22bc 25eb f135
00000320: 529b d53b c1e4 cdba 4fe1 0a3c dc1a f1bb
00000330: d71d 97bb 7ea0 133b 7d20 10bc e3d0 18bb
00000340: 65e4 8ebc 73cc c73b 246c 81bc 279a a6bb
00000350: a2c0 873b 8342 97bb ba78 86b8 3ad2 1cbb
00000360: 54f5 243b 928a 28bc d8f6 48bb ed3f 013c
00000370: f881 313c 2003 96ba 5677 30bb e012 84ba
00000380: 088e 85bc c181 ea3b fbd0 883a 4a8a 4739
00000390: d8bb 6b3a 3573 b7bb 1d83 b8bb cfc7 0a39
000003a0: 060f b3bb 46bf 89bb e205 0339 245f 5cb9
000003b0: c0a7 8f3c 9f19 8b3c 4259 5dbc 3539 bb3b
000003c0: c19b 24ba a791 a4b9 9533 473b db2f 5abc
000003d0: a649 16ba bd55 b33b cbc1 cdba 05fa fbbb
000003e0: a2cc 573c 3bbc 5dbc 7885 bcb9 4ff0 22ba
000003f0: 1654 06bb 9feb 0dbc 377b d43b 9d6e 9ebb

update_node_embedding_layer.0.message_layer.weight f4 [64, 128]
-0.01905954 0.0017508717 -0.014100832 -0.0042199288 -0.01788335 0.011372718 0.0077258577 0.0035789865
-0.008473589 -0.01911039 0.006354835 -0.020759711 -0.01670325 -0.0136195 0.002462361 -0.00094893266
-0.016457139 -0.0037167815 -0.0034718614 0.0051748753 -0.011750276 -0.025309846 -0.01164465 -0.011679254
0.017203681 0.009298491 -0.0068172463 -0.0040685274 -0.0060328953 -0.018918933 -0.008613824 0.011569415
-0.0018858399 0.008300575 0.0037456087 -0.004941903 -0.006633034 -0.0047782674 -0.019085824 -0.01260429
-0.005458042 0.004858546 -0.019572876 -0.015355278 0.0037105014 0.009642839 -0.011878921 -8.878531e-06
-0.009967546 0.009484177 -0.0045439037 -0.0053820675 -0.00019148103 0.0039594295 -0.022092896 0.010589635
-0.0072598616 -0.0099803945 -0.01242449 -0.0052968445 -0.00080498826 0.018477242 0.007948845 -0.0023803648
-0.006287746 -0.00242993 0.010485091 -0.012352881 -0.0010562774 -0.00066107354 -0.01425166 0.00453384
-0.008876933 -0.001967021 -0.008760678 0.013726681 -0.0066438313 0.0043544867 0.0017414953 0.020401204
-0.0043127085 0.0005067762 -0.0012610718 -0.005253296 -0.006616436 0.0008098367 -0.008505274 0.01379626
0.0029131 0.0011571661 0.0009564925 0.013593712 -0.016088534 -0.013935954 -0.0058008023 0.020228371
0.011279487 -0.018540718 0.013831565 -0.0013197443 6.0506612e-05 -0.002124555 -0.009243079 0.024446335
0.0023832296 -0.0027400209 0.003726408 0.0046185562 -0.011794901 -0.023753867 0.0072285063 -0.005699761
-0.009879807 0.01480613 -0.006727138 0.00834494 0.0018100572 0.0017527142 0.0067477897 -0.011304717
0.00450596 0.008198818 -0.007812804 -0.013443079 -0.002821174 0.0016093793 0.003997636 -0.0036062058
0.008794712 -0.019138563 0.0028639098 0.02325965 -0.0047206795 0.015075879 0.02802496 -0.0035102384
0.0093374895 0.041707452 0.023555558 0.01460708 0.02962575 0.00491904 0.0078769075 0.018164234
-0.040465876 -0.020087443 0.010853997 -0.0040391227 0.034997117 0.016564248 -0.0010604723 -0.009467818
0.011412477 -0.014110822 0.031372197 0.011128925 0.03494594 -0.008412353 -0.013853079 -0.0017453013
-0.00092215446 0.013534097 0.013386467 0.0033308987 -0.010286367 -0.011208763 -0.0003640039 0.012547435
0.00023099052 0.0038271933 0.023693893 -0.031953193 -0.010542715 -0.0017629995 0.01605149 -0.0068929084
0.0042205276 0.0018291482 0.032127135 -0.011922663 0.022232892 -0.026520023 0.022029629 0.013168889
-0.002466547 -0.014663271 0.03610896 -0.008555796 0.019447146 -0.009078957 -0.02757552 0.025040539
-0.0006061881 -0.00050685543 -0.013998758 -0.007319206 -0.0040096915 0.009282108 0.0020423108 -0.0016830388
-0.0031589137 -0.0029661173 -0.010509709 -0.013527179 0.002198169 0.0021116717 -0.0049870163 -0.004870135
-0.018309532 0.009548369 -0.010924446 -0.0039042672 0.00076708436 0.011060536 -0.00050885347 -0.028887307
-0.007487813 -0.0037753175 0.03571465 -0.0090017365 0.009607537 -0.0031969242 -0.0062973443 -0.0028107
0.025839124 -0.008638296 -0.012687547 -0.000115217714 -0.00510291 -0.002339695 -0.008011554 -0.021935282
0.002126345 -0.0159619 -0.0030588105 -0.013996529 -0.009226293 -0.00032356675 -0.01955062 -0.013823501
0.0033542698 0.00054206775 -0.0003860734 0.014944711 0.0098782135 0.012586262 0.01036917 -0.019465156
-0.01486642 0.00316342 -0.012974135 0.0066121076 -0.009739114 0.0026403463 0.03425317 -0.005671336
00000000: c122 9cbc 817d e53a 2d07 67bc 5447 8abb
00000010: 1a80 92bc a354 3a3c 3129 fd3b 6e8d 6a3b
00000020: cfd4 0abc 658d 9cbc 383c d03b 4510 aabc
00000030: 41d5 88bc 5324 5fbc 905f 213b cbc1 78ba
00000040: 1fd1 86bc 3f95 73bb 2b88 63bb 0092 a93b
00000050: 3b84 40bc 9856 cfbc 34c9 3ebc 575a 3fbc
00000060: bcee 8c3c b358 183c 3563 dfbb 4851 85bb
00000070: 98af c5bb e1fb 9abc ff20 0dbc a58d 3d3c
00000080: 492e f7ba 23ff 073c e378 753b b0ef a1bb
00000090: ec59 d9bb 0393 9cbb e059 9cbc 3982 4ebc
000000a0: 60d9 b2bb 7034 9f3b 4c57 a0bc b494 7bbc
000000b0: e22b 733b 00fd 1d3c ce9f 42bc 00f5 14b7
000000c0: eb4e 23bc 8663 1b3c 07e5 94bb 0e5c b0bb
000000d0: 4cc8 48b9 1abe 813b 29fc b4bc 2680 2d3c
000000e0: 22e4 edbb cf84 23bc 1790 4bbc 2791 adbb
000000f0: d905 53ba 965d 973c df3b 023c e5ff 1bbb
00000100: 7009 cebb 763f 1fbb a9c9 2b3c bd63 4abc
00000110: ca72 8aba e54b 2dba cb7f 69bc 9b90 943b
00000120: 8e70 11bc 23e9 00bb f288 0fbc dfe5 603c
00000130: 7fb4 d9bb 15b0 8e3b e342 e43a 6d20 a73c
00000140: 9f51 8dbb 2dd9 043a 8c4a a5ba d723 acbb
00000150: b0ce d8bb 394b 543a b459 0bbc b509 623c
00000160: b5e9 3e3b 0dac 973a 20bd 7a3a 29b8 5e3c
00000170: 1acc 83bc a153 64bc a814 bebb f8b5 a53c
00000180: 99cd 383c b4e2 97bc ca9d 623c 45fb acba
00000190: 7bc8 7d38 1e3c 0bbb 4970 17bc ae43 c83c
000001a0: f52f 1c3b ec91 33bb c036 743b 4257 973b
000001b0: 673f 41bc 7897 c2bc 1bdd ec3b 10c5 babb
000001c0: eade 21bc 6995 723c 536f dcbb 37b9 083c
000001d0: 713f ed3a 54bb e53a 901c dd3b 6b37 39bc
000001e0: bba6 933b 5654 063c 4601 00bc 5c40 5cbc
000001f0: 72e3 38bb cff1 d23a 9afe 823b 1856 6cbb
00000200: b217 103c 7ac8 9cbc 6fb0 3b3b 068b be3c
00000210: eeaf 9abb d200 773c 9a94 e53c 070c 66bb
00000220: 45fc 183c 6fd5 2a3d 96f7 c03c 8952 6f3c
00000230: b3b1 f23c e62f a13b 250e 013c 29cd 943c
00000240: 8cbf 25bd 6c8e a4bc f7d4 313c 9e5a 84bb
00000250: 2359 0f3d bfb1 873c 8cff 8aba e81e 1bbc
00000260: 66fb 3a3c 1431 67bc 2280 003d 1856 363c
00000270: 7923 0f3d f7d3 09bc 06f8 62bc 98c2 e4ba
00000280: bdbc 71ba 1ebe 5d3c e952 5b3c 354b 5a3b
00000290: 2688 28bc f6a4 37bc c7d7 beb9 c293 4d3c
000002a0: 0c36 7239 a6d1 7a3b b219 c23c 5ae1 02bd
000002b0: 5abb 2cbc 7214 e7ba 6a7e 833c e8dd e1bb
000002c0: 5a4c 8a3b 07c0 ef3a be97 033d 4657 43bc
000002d0: c121 b63c 8540 d9bc 7b77 b43c 53c2 573c
000002e0: cba5 21bb 373e 70bc fde6 133d 9c2d 0cbc
000002f0: 9f4f 9f3c e8bf 14bc 0fe6 e1bc d121 cd3c
00000300: 98e8 1eba 7ede 04ba 0c5b 65bc f3d5 efbb
00000310: bb63 83bb fc13 183c 4ad8 053b 6999 dcba
00000320: c705 4fbb 3163 42bb ea30 2cbc 1aa1 5dbc
00000330: 280f 103b f963 0a3b 206a a3bb a795 9fbb
00000340: dffd 95bc c370 1c3c 73fc 32bc bcde 7fbb
00000350: 2916 493a 4037 353c 9464 05ba 13a5 ecbc
00000360: 545c f5bb 516b 77bb 8649 123d 057c 13bc
00000370: ee68 1d3c 7d83 51bb f459 cebb b933 38bb
00000380: 92ac d33c a487 0dbc 6edf 4fbc 0aa1 f1b8
00000390: 5036 a7bb 9255 19bb e542 03bc 9fb1 b3bc
000003a0: 265a 0b3b 88c2 82bc 5376 48bb b351 65bc
000003b0: e129 17bc 65a4 a9b9 9f28 a0bc f77b 62bc
000003c0: 4fd3 5b3b 8d19 0e3a e569 cab9 a9da 743c
000003d0: 3bd8 213c 9c36 4e3c 74e3 293c 6475 9fbc
000003e0: 4992 73bc 6151 4f3b 7791 54bc 61aa d83b
000003f0: ce90 1fbc a909 2d3b 0d4d 0c3d 9dd6 b9bb

update_node_embedding_layer.0.update_layer.weight f4 [64, 128]
0.0075080204 0.006818568 0.00086573075 -0.0051614977 0.0074384604 -0.01197225 -0.0056603015 -0.0015514987
0.0064184624 0.014434471 -0.0115956105 -0.0016655108 -0.020167302 -0.0006803575 -0.0021515186 -0.008102021
0.011949905 0.00038921964 -0.014170383 -0.0031973685 -0.0007729982 -0.009902928 -0.009593759 -0.004346585
-0.010339375 -0.0006574912 -0.012139008 -0.00067160174 0.0018544924 -0.0104301 0.010315007 -0.006150094
-0.020259636 -0.03361236 -0.008920801 0.006280489 0.012812566 0.00013216586 -0.008188388 0.017193135
0.010342431 -0.004385086 5.8531157e-05 -0.008898407 -0.007366527 0.014102951 -0.02433011 0.004748258
-0.014614876 0.0044798455 -0.0044345385 -0.008897678 -0.010819396 -0.007272465 -0.004566628 0.00013889273
-0.0017554512 -0.013033147 0.0050906357 -0.0067906072 -0.0019524642 -0.0076531214 0.019640753 0.00022439491
0.012451123 0.0039288118 0.008936819 0.003329992 -0.004263867 -0.004954748 0.0128591955 -0.0035331524
-0.0065020304 0.0069869813 0.0072394502 -0.0007420336 0.015847115 0.0014427209 -0.0066868877 0.003538578
0.016941896 -0.010268385 0.007019186 0.0012135583 0.0097796 -0.011017456 -0.008850054 0.0023699538
-0.009690811 -0.0121657625 0.020972423 0.014879573 0.0010716581 0.016705437 -0.002803989 -0.0039202645
0.0032333722 0.012256114 0.0012219709 -0.010433165 -0.015642965 -0.0052807154 -0.011458136 -0.005202763
-0.012459776 0.015344294 -0.0153360125 -0.01037547 -0.0015224892 -0.027193615 -0.01886527 -0.006369767
-0.0037906629 0.002707132 -0.0056048012 -0.009161804 -0.010054879 -0.01190291 -0.010014197 0.004225571
-0.0022067751 0.0054565533 0.02565991 -0.023145216 -0.0069208834 0.0033806015 -0.0025095507 0.015014666
0.06537099 0.02281066 0.0026868843 -0.048709724 -0.005307555 -0.005339581 -0.087289646 -0.0057152077
0.03099851 -0.057635985 -0.008573078 0.049876485 -0.048401292 0.010397608 0.025444517 -0.083777875
0.025577893 -0.10801797 0.033167858 -0.11758617 -0.047999702 0.028291352 0.009521525 0.010067906
-0.012013826 -0.06962568 -0.039222177 0.0074918177 -0.031989366 0.020788109 0.079204716 0.00543354
-0.012782433 -0.18047173 -0.048540913 0.016152712 0.043302853 0.07486288 0.14433323 -0.061637297
0.019633258 0.0002516775 0.05948753 0.022502646 -0.04167043 -0.005963952 -0.03874452 -0.06377821
-0.10387705 0.03968254 -0.05463844 -0.14819342 0.060694642 0.07653531 0.039162386 -0.097818404
-0.012889661 0.0206066 -0.08904224 0.0056463066 -0.11075434 0.04758814 0.053928345 0.0072322935
-0.0034161038 0.01673457 0.024387121 0.0014689611 -0.025247125 -0.008275763 0.002773929 -0.010913855
-0.010954606 -0.024420323 -0.02231739 -0.0007174751 -0.016293371 0.012097654 -0.0029601725 -0.07066111
-0.02272855 0.004480692 -0.018251318 -0.00013644987 0.008567792 0.0025265166 0.03347503 -0.0074844137
-0.020386862 -0.017548367 0.0035539626 -0.00304695 0.0077950647 -0.007111315 -0.017961306 0.012823639
-0.005297373 -0.0074843774 -0.058916975 -0.07196127 -0.010750396 0.015286666 0.0015733492 0.051912416
0.008180435 -0.004895662 0.012664075 -0.006884232 -0.063735835 0.0023623274 -0.016292404 0.0028815768
0.0010577276 -0.03066274 -0.02125672 -0.07639004 0.006952627 -0.030600008 -0.006063776 -0.020715466
0.012566237 -0.000315193 -0.013485577 0.008001286 -0.007150833 -0.0109705785 -0.027774075 -0.008574107
00000000: d705 f63b 4b6e df3b 35f2 623a c821 a9bb
00000010: 54be f33b 4227 44bc 0d7a b9bb a85b cbba
00000020: f751 d23b 8f7e 6c3c 84fb 3dbc 454d daba
00000030: e635 a5bc 055a 32ba 7e00 0dbb 57be 04bc
00000040: 89c9 433c 2d10 cc39 e52a 68bc f18a 51bb
00000050: 08a3 4aba e43f 22bc 242f 1dbc cc6d 8ebb
00000060: 7b66 29bc 7d5b 2cba b1e2 46bc 6e0e 30ba
00000070: 7012 f33a 03e3 2abc 4600 293c ba86 c9bb
00000080: 89f7 a5bc 1dad 09bd 8d28 12bc 8fcc cd3b
00000090: cceb 513c 0196 0a39 9728 06bc 9ed8 8c3c
000000a0: 4d73 293c c4b0 8fbb 5a7f 7538 a0ca 11bc
000000b0: e862 f1bb 1010 673c f04f c7bc 4697 9b3b
000000c0: 3c73 6fbc abcb 923b 9b4f 91bb 91c7 11bc
000000d0: d643 31bc dc4d eebb a7a3 95bb bca3 1139
000000e0: 2b17 e6ba fb88 55bc 59cf a63b be83 debb
000000f0: d4e9 ffba 09c7 fabb a5e5 a03c 8d4b 6b39
00000100: ccff 4b3c 43bd 803b bc6b 123c ff3b 5a3b
00000110: e9b7 8bbb 705b a2bb 60af 523c 768c 67bb
00000120: fc0e d5bb 0cf3 e43b e938 ed3b 0885 42ba
00000130: cfd1 813c ae19 bd3a ae1d dbbb 7de7 673b
00000140: bbc9 8a3c ba3c 28bc 3301 e63b 4210 9f3a
00000150: 9e3a 203c 8f82 34bc d1ff 10bc 3a51 1b3b
00000160: 35c6 1ebc e852 47bc 5cce ab3c 74c9 733c
00000170: e176 8c3a d7d9 883c 21c3 37bb 9075 80bb
00000180: fce6 533b decd 483c 8a2a a03a deef 2abc
00000190: ad25 80bc da09 adbb e8ba 3bbc f07b aabb
000001a0: 1724 4cbc a266 7b3c e643 7bbc e0fd 29bc
000001b0: 438e c7ba 25c5 debc 578b 9abc 7ab9 d0bb
000001c0: c56c 78bb 236a 313b 7ba8 b7bb 641b 16bc
000001d0: 38bd 24bc 6c04 43bc 9612 24bc a976 8a3b
000001e0: 8b9f 10bb e3cc b23b bb34 d23c 099b bdbc
000001f0: 94c8 e2bb 158d 5d3b 4677 24bb 1300 763c
00000200: 3ae1 853d 6cdd ba3c 7016 303b d983 47bd
00000210: 00eb adbb a7f7 aebb eac4 b2bd a346 bbbb
00000220: 96f0 fd3c b613 6cbd 1876 0cbc 494b 4c3d
00000230: 6f40 46bd bb5a 2a3c 0571 d03c bc93 abbd
00000240: bb88 d13c 8738 ddbd 05db 073d 05d1 f0bd
00000250: 569b 44bd 44c3 e73c 2c00 1c3c dcf3 243c
00000260: a3d5 44bc e997 8ebd 6fa7 20bd ec7d f53b
00000270: 4807 03bd d34b aa3c 1536 a23d d60b b23b
00000280: 696d 51bc 95cd 38be d6d2 46bd b152 843c
00000290: 555e 313d b651 993d 17cc 133e 6477 7cbd
000002a0: edd5 a03c 95f3 8339 32a9 733d 7857 b83c
000002b0: 9dae 2abd 416d c3bb 93b2 1ebd 269e 82bd
000002c0: 7ebd d4bd 298a 223d 8fcc 5fbd 04c0 17be
000002d0: f29a 783d 8bbe 9c3d bd68 203d 0455 c8bd
000002e0: 282f 53bc 2ccf a83c c75b b6bd a704 b93b
000002f0: 2cd3 e2bd c8eb 423d f8e3 5c3d e0fc ec3b
00000300: b6e0 5fbb f016 893c 80c7 c73c 288a c03a
00000310: 0fd3 cebc 1197 07bc ceca 353b 07d0 32bc
00000320: f37a 33bc 210d c8bc f6d2 b6bc f014 3cba
00000330: ad79 85bc 3d35 463c 74ff 41bb c6b6 90bd
00000340: 3931 babc c5d2 923b ca83 95bc fc13 0fb9
00000350: ed5f 0c3c ea93 253b 1d1d 093d d03f f5bb
00000360: 5902 a7bc 98c1 8fbc 99e9 683b 57af 47bb
00000370: be6d ff3b 0906 e9bb 9723 93bc 3e1a 523c
00000380: 9695 adbb 823f f5bb ed52 71bd 6e60 93bd
00000390: 6e22 30bc ed74 7a3c d738 ce3a 1da2 543d
000003a0: 3b07 063c ca6b a0bb fb7c 4f3c 2095 e1bb
000003b0: ef87 82bd 47d1 1a3b a677 85bc d6d8 3c3b
000003c0: 73a3 8a3a 6d30 fbbc 9322 aebc 6272 9cbd
000003d0: ddd2 e33b deac fabc a4b2 c6bb 7bb3 a9bc
000003e0: 9ee2 4d3c 7d40 a5b9 9cf2 5cbc d317 033c
000003f0: 8951 eabb f1bd 33bc 7586 e3bc 697a 0cbc

update_node_embedding_layer.1.message_layer.weight f4 [64, 128]
-0.0024534129 -0.031203633 0.017602418 0.23421812 -0.010997624 0.0020023996 -0.030988328 -0.026628723
-0.026821151 -0.0106996335 -0.026733253 -0.033736054 -0.050709322 -0.025173953 -0.0057547125 0.033405118
0.29077956 -0.010182217 0.26155433 -0.03179107 0.057829637 -0.024120387 -0.032262724 -0.05202096
-0.033955183 0.0033338382 -0.0020081697 -0.036005612 0.014858605 0.039402883 -0.017719481 0.011080561
0.055445243 -0.015994048 -0.017387448 0.07956624 0.004077647 0.067737445 -0.012653928 0.05647613
-0.028712375 0.24468748 0.34592706 -0.022618446 -0.021859555 -0.01780858 -0.018509286 0.032787837
-0.019703923 0.47932565 -0.030514808 -0.0021748394 -0.001348862 -0.0050325287 0.23852372 -0.023294955
0.049393747 0.017725041 -0.039090756 -0.026809325 0.008779383 -0.006977583 -0.023150967 0.05126361
0.009977048 -0.00029466863 0.043783944 -0.006336092 -0.011180926 -0.0013606438 -0.014912906 -0.00908956
0.033220623 0.00030168885 0.058975827 0.008470557 -0.01383281 -0.0024632234 -0.014329332 0.008502593
0.003069065 0.008848925 -0.018758232 0.0027940245 -0.005648741 0.024860028 0.013922817 0.010420223
0.010143555 -0.010491454 -0.023223344 -0.006141008 -0.017435296 0.028683692 0.011427925 0.0048315264
-0.05542428 0.010603255 0.028815318 -0.004313238 -0.013509322 -0.027645765 -0.010694454 0.0026432348
-8.744127e-05 0.009659647 0.013314815 -0.009780353 0.005223409 -0.010812001 0.019600678 -0.0032553242
0.052685678 0.014598769 0.003541604 -0.0060923174 -0.016180206 -0.002299788 0.026186291 -0.007342533
0.03311671 -0.004828631 0.0023809853 0.009399523 -0.00026944355 -0.00771763 0.0076324525 -0.0072857225
0.00094796147 0.053392082 -0.007868105 -0.087881684 0.04653722 0.005677718 0.019919034 0.046294253
0.072024845 -0.1094029 0.05971387 0.04839205 0.0710076 0.03985073 0.0055540306 0.036767688
0.15174364 -0.01007959 0.12772839 0.024080195 0.05715574 0.033421908 0.036992263 0.043565232
0.05172854 0.015576052 -0.00016926562 0.03958897 0.0024756396 0.06810592 -0.18530326 0.0024705974
0.03533691 -0.0019140015 0.05228022 0.07000719 0.010390162 0.047851097 0.07072923 0.07713642
0.059981212 0.19175017 0.16426684 -0.0039739124 -0.012671656 -0.004817127 0.1459841 0.067609176
0.03210386 0.24376945 0.060751833 -0.016619144 0.023790319 -0.012289571 0.025018755 -0.12184791
0.057193525 0.05303103 0.058710385 0.052612018 -0.02115381 -0.012869364 0.07771162 0.05173197
0.004863426 0.00080940395 0.02579289 0.0076632737 -0.045273557 -0.010899122 0.017166154 0.063404724
-0.059500806 -0.1184799 0.014410765 0.0055196183 0.023942925 0.064029 0.010743322 -0.011050108
-0.00725767 -0.02874906 -0.011794549 0.007855955 0.004364245 0.05152003 -0.023258075 0.01629351
-0.102501184 0.016896978 -0.19671482 -0.06090604 -0.007425953 0.011026172 -0.017487818 -0.0007349128
-0.15352419 -0.08630119 0.03329103 0.007858451 0.04292943 -0.012765003 -0.06753268 -0.06605919
-0.04681993 -0.0006107384 0.038846124 0.002751888 -0.037890095 0.04981544 0.015014303 -0.06291031
-0.010219188 0.043325547 0.01276278 0.017471153 0.016775304 -0.04252222 -0.11398639 0.0025960132
0.044382058 -0.006146415 0.009884542 -0.04369012 -0.069804646 0.006800064 -0.07417443 -0.07727875
00000000: 70c9 20bb c39e ffbc f232 903c e0d6 6f3e
00000010: 612f 34bc b13a 033b 3cdb fdbc 7b24 dabc
00000020: 08b8 dbbc 844d 2fbc b2ff dabc d12e 0abd
00000030: 94b4 4fbd 9b39 cebc 0792 bcbb ced3 083d
00000040: 0fe1 943e 50d3 26bc 73ea 853e 5a37 02bd
00000050: c5de 6c3d 1e98 c5bc eb25 04bd ee13 55bd
00000060: 9714 0bbd 867c 5a3b 7f9b 03bb 9f7a 13bd
00000070: 8271 733c eb64 213d 7228 91bc 3e8b 353c
00000080: 8d1a 633d f305 83bc 1f70 8ebc a0f3 a23d
00000090: c89d 853b eeb9 8a3d 6c52 4fbc 8453 673d
000000a0: 3736 ebbc 5b8f 7a3e 5a1d b13e 524a b9bc
000000b0: cf12 b3bc 4de3 91bc c9a0 97bc 8a4c 063d
000000c0: 1f6a a1bc 2c6a f53e 31fa f9bc c087 0ebb
000000d0: 4ccc b0ba e9e7 a4bb 903f 743e 10d5 bebc
000000e0: 1951 4a3d 1b34 913c a11d 20bd 3b9f dbbc
000000f0: 67d7 0f3c 35a4 e4bb 19a7 bdbc cbf9 513d
00000100: c676 233c c17d 9ab9 cb56 333d fe9e cfbb
00000110: 3430 37bc a157 b2ba 4355 74bc 61ec 14bc
00000120: 5912 083d fe2b 9e39 a390 713d 17c8 0a3c
00000130: 03a3 62bc 086e 21bb 93c5 6abc 764e 0b3c
00000140: 5e22 493b 15fb 103c ddaa 99bc f41b 373b
00000150: 1319 b9bb 42a7 cb3c 871c 643c 95b9 2a3c
00000160: 2731 263c 59e4 2bbc e23e bebc 823a c9bb
00000170: 77d4 8ebc 10fa ea3c 313c 3b3c c851 9e3b
00000180: 9204 63bd 46b9 2d3c 1a0e ec3c 1056 8dbb
00000190: 3456 5dbc 5f79 e2bc cb37 2fbc 1f3a 2d3b
000001a0: ad60 b7b8 7f43 1e3c 6226 5a3c c63d 20bc
000001b0: 2129 ab3b d224 31bc 9a91 a03c 4757 55bb
000001c0: f0cc 573d ad2f 6f3c 411a 683b 10a2 c7bb
000001d0: 5a8c 84bc 0ab8 16bb a284 d63c a299 f0bb
000001e0: 63a5 073d 7e39 9ebb 4e0a 1c3b 7500 1a3c
000001f0: 1a44 8db9 2ce4 fcbb a719 fa3b 12bd eebb
00000200: 9e80 783a a8b1 5a3d 39e9 00bc 50fb b3bd
00000210: d09d 3e3d 270c ba3b 3e2d a33c 0b9f 3d3d
00000220: c381 933d a10e e0bd 8896 743d be36 463d
00000230: 6f6c 913d 853a 233d 96fe b53b b799 163d
00000240: af62 1b3e dd24 25bc 3bcb 023e d443 c53c
00000250: 231c 6a3d 69e5 083d 3385 173d 7571 323d
00000260: 4ee1 533d b232 7f3c e57c 31b9 0b28 223d
00000270: 573e 223b 1e7b 8b3d 23c0 3dbe bfe9 213b
00000280: 70bd 103d 3cdf faba c923 563d ee5f 8f3d
00000290: 7f3b 2a3c 83ff 433d 7dda 903d b3f9 9d3d
000002a0: dcae 753d 285a 443e 9135 283e 9837 82bb
000002b0: c79c 4fbc fdd8 9dbb db7c 153e ae76 8a3d
000002c0: 567f 033d b39e 793e ead6 783d df24 88bc
000002d0: eae3 c23c 325a 49bc 22f4 cc3c 668b f9bd
000002e0: c243 6a3d 1137 593d 4d7a 703d b37f 573d
000002f0: c14a adbc 06da 52bc 4527 9f3d e7e4 533d
00000300: 605d 9f3b 2e2e 543a 9c4b d33c 331c fb3b
00000310: c470 39bd 3b92 32bc 09a0 8c3c 56da 813d
00000320: 1eb7 73bd 97a5 f2bd 211b 6c3c eadd b43b
00000330: f423 c43c a321 833d c204 303c 830b 35bc
00000340: c0d1 edbb 2683 ebbc ed3d 41bc 43b6 003c
00000350: f101 8f3b ab06 533d b887 bebc f879 853c
00000360: 24ec d1bd 886b 8a3c 9c6f 49be 9d78 79bd
00000370: 6955 f3bb 1ea7 343c 9d42 8fbc 2aa7 40ba
00000380: 7235 1dbe aebe b0bd 2d5c 083d bcc0 003c
00000390: c5d6 2f3d 4e24 51bc 934e 8abd 0a4a 87bd
000003a0: 41c6 3fbd f619 20ba 1d1d 1f3d 0559 343b
000003b0: a532 1bbd 460b 4c3d 8dfe 753c 1fd7 80bd
000003c0: 626e 27bc 2176 313d fb1a 513c aa1f 8f3c
000003d0: 5d6c 893c c82b 2ebd b271 e9bd e021 2a3b
000003e0: f6c9 353d de67 c9bb c6f2 213c 69f4 32bd
000003f0: bdf5 8ebd 12d3 de3b c3e8 97bd 5244 9ebd

update_node_embedding_layer.1.update_layer.weight f4 [64, 128]
-0.010166158 -0.05124916 -0.0015054389 0.1386505 -0.079815604 0.018884536 -0.04019701 -0.07741532
-0.035721745 -0.25082663 -0.046096493 -0.06755049 -0.06291354 -0.06776914 -0.024242146 0.041727766
0.18871328 0.0024896995 0.13971582 -0.07994154 0.05456891 -0.07747879 -0.075149685 -0.07554295
-0.051965557 0.010020811 -0.0054459637 -0.047968343 0.010039929 0.047620937 -0.008259494 0.021125354
0.05338001 0.006727519 -0.06329466 0.05768588 -0.004555614 0.059205145 -0.09914331 0.055082187
-0.086280085 0.14783706 0.17722021 0.0055239894 -0.0061289486 0.004195299 0.011295096 0.068204395
-0.10485259 0.29406887 -0.05375773 0.01227435 -0.06856987 0.009065761 0.13177055 -0.033104442
0.071033135 0.043898687 -0.0809447 -0.043934193 0.00096628093 0.007024199 0.030472945 0.21940134
0.01848685 0.10124099 -0.005526823 0.008916984 -0.009203515 0.0061517735 -0.0020796626 0.08078637
-0.004878531 0.010300299 0.0038316816 0.010497356 -0.007757715 -0.0019633004 0.006560391 0.0027607274
0.005735186 -0.00515868 0.018829398 0.026083104 0.0146273 -0.015148579 0.018961206 0.013080799
-0.20557687 0.11254814 0.032531302 -0.006039672 0.008486662 0.021570273 0.04827765 0.0015348429
-0.0018016305 0.0042203777 0.028598892 -0.0060899747 0.03158862 0.0076689715 -0.011928596 -0.003214695
0.015989708 -0.10164701 -0.00277249 -0.00015805288 -0.020545585 0.014256276 0.00033510607 0.009529038
0.01463146 -0.0027965049 0.012532683 -0.0016372384 -0.0068967654 -0.016105475 0.005084602 -0.017895473
0.008852675 0.023473278 0.0051274262 -0.14828715 0.053793706 -0.001975873 0.010239019 0.003926353
-0.010863466 0.0126244845 -0.007028142 -0.06997881 0.0075449864 -0.010482038 -0.052189972 4.474998e-05
0.0037245757 0.09096276 -0.00077705004 -0.023652166 0.0069371024 0.002151222 0.0020898483 -0.3904587
-0.112606205 0.013382397 -0.11666808 0.011255996 -0.3244302 0.013537644 0.028129531 -0.004446321
-0.031619314 0.0027347475 -0.0062289075 -0.011112606 -0.009917131 -0.33364496 -0.009819979 -0.017264713
-0.36953053 0.008303429 -0.008446716 -0.3050499 0.0017040069 -0.3108395 -0.04417018 -0.3341654
-0.0043128994 -0.31013516 -0.14371118 -0.010881184 -0.012037602 0.0047711004 -0.24840325 -0.26071465
0.027777184 -0.33363807 0.013643422 0.004584755 -0.026943559 -0.002873488 -0.1323873 -0.012050755
-0.27209315 -0.317913 -0.018678702 -0.04077778 -0.006654196 -0.0036493393 -0.096215144 0.013624567
-0.02063814 0.048091043 -0.0036376824 0.03327885 -0.015403688 0.012831995 0.026952779 0.06710834
0.0033971658 -0.0035113653 0.0058174026 0.03515189 -0.017583165 -0.017179327 0.0072389245 -0.008561072
0.026696034 0.011551481 -0.003965636 0.017433638 -0.01827231 0.00050664635 0.024906354 0.034193538
-0.0028089213 0.106459 0.019307403 -0.0033140879 0.008994487 0.023767777 0.012043343 0.0052797627
0.0019909558 0.0013301374 -1.5647331e-06 -0.01421177 0.06154495 0.033831146 -0.00028158753 -0.0059180534
0.0015156541 -0.046280775 -0.012178771 -0.009619842 -0.0071991007 0.04786546 0.003163143 -0.12281415
0.0037335341 0.015684696 0.011175519 0.01626588 0.035612665 -0.002770325 0.033862997 -1.4229316e-05
-0.003673406 0.015833577 0.053082738 -0.082720034 0.05790038 0.014062161 0.017757142 0.02286659
00000000: f58f 26bc a4ea 51bd 2652 c5ba 66fa 0d3e
00000010: 5d76 a3bd beb3 9a3c 9fa5 24bd ec8b 9ebd
00000020: f750 12bd 596c 80be adcf 3cbd e957 8abd
00000030: d0d8 80bd 8cca 8abd 7797 c6bc bcea 2a3d
00000040: 0e3e 413e 3a2a 233b aa11 0f3e 64b8 a3bd
00000050: a683 5f3d 33ad 9ebd 14e8 99bd 43b6 9abd
00000060: d6d9 54bd 542e 243c 0e74 b2bb 747a 44bd
00000070: 847e 243c 2c0e 433d d452 07bc 140f ad3c
00000080: ffa4 5a3d 8572 dc3b a1a0 81bd 0848 6c3d
00000090: 4347 95bb 1881 723d a60b cbbd dc9d 613d
000000a0: 9db3 b0bd 9962 173e 3779 353e 9502 b53b
000000b0: 59d5 c8bb b878 893b 110f 393c bfae 8b3d
000000c0: f4bc d6bd 3290 963e 1131 5cbd 5b1a 493c
000000d0: 5c6e 8cbd 8f88 143c dcee 063e 8698 07bd
000000e0: d279 913d 1ccf 333d 56c6 a5bd 57f4 33bd
000000f0: 044e 7d3a 402b e63b 66a2 f93c bfaa 603e
00000100: bc71 973c 7057 cf3d 5a1a b5bb 8b18 123c
00000110: 57ca 16bc d194 c93b f34a 08bb 5373 a53d
00000120: 16dc 9fbb 96c2 283c f31c 7b3b 1afd 2b3c
00000130: 6e34 febb b7aa 00bb 8cf8 d63b 52ed 343b
00000140: 3aee bb3b 250a a9bb 1c40 9a3c 3cac d53c
00000150: 58a7 6f3c bf31 78bc 8854 9b3c d950 563c
00000160: be82 52be a47f e63d 8b3f 053d 71e8 c5bb
00000170: a40b 0b3c 24b4 b03c c9be 453d c82c c93a
00000180: b024 ecba 184b 8a3b 3948 ea3c 698e c7bb
00000190: 1263 013d ff4b fb3b 2870 43bc a2ad 52bb
000001a0: d9fc 823c 4f2c d0bd aab2 35bb ffba 25b9
000001b0: 374f a8bc 2893 693c 2db1 af39 af1f 1c3c
000001c0: cbb8 6f3c 9145 37bb e255 4d3c 9b98 d6ba
000001d0: 43fe e1bb a1ef 83bc bc9c a63b 8799 92bc
000001e0: cf0a 113c 084b c03c f803 a83b 96d8 17be
000001f0: ca56 5c3d a67d 01bb 8fc1 273c a3a8 803b
00000200: aefc 31bc edd6 4e3c 544c e6bb 0d51 8fbd
00000210: ef3b f73b dbbc 2bbc 27c5 55bd edb1 3b38
00000220: 0318 743b af4a ba3d f2b2 4bba 30c2 c1bc
00000230: a250 e33b 84fb 0c3b d6f5 083b 34ea c7be
00000240: 159e e6bd d741 5b3c adef eebd 126b 383c
00000250: b71b a6be ffcc 5d3c e76f e63c 72b2 91bb
00000260: 4183 01bd 7339 333b dd1b ccbb a611 36bc
00000270: 767b 22bc 83d3 aabe fae3 20bc ba6e 8dbc
00000280: 1b33 bdbe 1b0b 083c 1864 0abc 802f 9cbe
00000290: fc58 df3a 5b26 9fbe caeb 34bd ba17 abbe
000002a0: 3953 8dbb 09ca 9ebe 0629 13be fe46 32bc
000002b0: 5d39 45bc e456 9c3b 6c5d 7ebe 647c 85be
000002c0: fa8c e33c 9cd2 aabe a988 5f3c b63b 963b
000002d0: bdb8 dcbc 2151 3cbb 8990 07be 8870 45bc
000002e0: cb4f 8bbe 7ec5 a2be 1404 99bc 9a06 27bd
000002f0: 710b dabb c129 6fbb 720c c5bd 9339 5f3c
00000300: 5111 a9bc 1dfb 443d 2f66 6ebb 674f 083d
00000310: c05f 7cbc 4a3d 523c 13cc dc3c 1970 893d
00000320: fca2 5e3b ef1e 66bb e99f be3b 6efb 0f3d
00000330: 920a 90bc a9bb 8cbc 8034 ed3b bd43 0cbc
00000340: a4b1 da3c 6c42 3d3c 2af2 81bb fdd0 8e3c
00000350: d0af 95bc 76d0 043a 6908 cc3c 860e 0c3d
00000360: e115 38bb 2d07 da3d 8f2a 9e3c 2b31 59bb
00000370: 9d5d 133c a4b4 c23c 7151 453c dc01 ad3b
00000380: b27a 023b 0158 ae3a d203 d2b5 7cd8 68bc
00000390: 8f16 7c3d 8792 0a3d 0aa2 93b9 3bec c1bb
000003a0: eaa8 c63a e990 3dbd 7889 47bc 8b9c 1dbc
000003b0: 6fe6 ebbb 930e 443d bc4c 4f3b fc85 fbbd
000003c0: 4fae 743b 317d 803c 8619 373c 0640 853c
000003d0: 96de 113d 578e 35bb edb3 0a3d 72ba 6eb7
000003e0: 87bd 70bb 6bb5 813c 496d 593d 1f69 a9bd
000003f0: f328 6d3d fa64 663c 6d77 913c b752 bb3c
