ER_200spin/eco/network/network1600000.pth (torch, 238273 bytes, 11 tensors)

node_init_embedding_layer.0.weight f4 [64, 7]
0.012307833 -0.19375145 -0.009379049 0.036037542 0.0031562012 -0.024487343 0.078465566 0.009805444
-0.18251269 0.013075496 0.13345726 -0.009627682 0.0644531 0.049909007 0.0076344814 0.3190585
0.014963275 -0.04855312 0.0037912487 0.022890264 -0.010687433 0.010328114 0.34342673 0.030609172
-0.0652837 0.000642475 0.026707992 -0.033195626 -0.006149493 -0.004316606 -0.009858432 -0.011102081
-0.01081875 -0.0032646966 -0.0152212195 -0.011088987 -0.0037140641 -0.0020215185 -0.0026715926 -0.013247419
-0.016425833 -0.0052559846 0.017030139 0.38091022 0.023442179 -0.17532954 -0.00071348186 -0.0110010905
0.025560776 0.011350767 -0.175417 -0.015134751 0.18684101 -0.0024020867 0.07984003 0.03632306
0.022392 -0.20168744 0.04359016 0.117616035 0.0032799868 0.039751448 0.07030975 0.007852482
0.3587195 0.02417411 -0.0656736 -0.011782583 0.027919631 0.0042505804 -0.039013915 0.3063421
0.011871386 0.020608986 -0.00033182037 0.021309813 -0.033056416 -0.027453315 0.33421564 -0.09681232
0.08952291 0.003401618 0.02599096 -0.1603721 0.021197125 0.36446628 0.023883553 -0.10622261
0.0006635533 0.031796765 -0.014593146 0.019943243 -0.23623341 0.010110665 0.08833012 0.010714126
-0.0042527537 0.07573643 0.018913502 -0.22429419 0.017332735 0.078495674 0.0017810684 0.010596826
0.07948852 0.008511068 -0.06804083 -0.049642637 0.13548611 0.0009954716 0.0017165658 -0.08341932
0.017056037 -0.16914923 -0.009966811 0.1559579 0.0018235598 0.06453728 0.06941803 -0.039302588
0.31432813 0.023453107 -0.021551456 -0.0015329709 0.020422976 0.0009962558 0.024864094 -0.23436101
0.010406731 0.104698054 0.006425708 0.017090248 0.083137155 -0.04162592 0.25102663 0.02308973
0.026246345 -0.007242014 0.0074501117 0.0009712576 0.02832574 0.38516548 0.032310262 -0.048707314
-0.0036044798 0.03621549 -0.013251042 0.023003995 -0.23596023 0.028349819 0.10797582 0.006386972
0.021785896 0.074584655 0.0016978254 -0.16801442 0.05712802 0.19780019 -0.01308557 0.040456958
-0.008015955 -0.005836519 -0.17934938 0.057240553 0.043087937 -0.0025218364 0.00020690085 0.08381682
0.010265186 -0.17902215 0.028280934 0.2516831 0.00078163313 0.0650762 0.016730651 -0.0063572503
0.32038063 0.037872963 -0.033883076 0.011153383 0.038575433 -0.037299417 0.015401018 0.38222328
0.026913213 0.018493593 -0.00083357265 0.04947356 0.0031187413 -0.001984467 0.0030851387 0.001095844
-0.009433593 -0.0056003085 -0.0043595186 -0.010299535 0.017387258 0.33817142 0.024134094 -0.052336346
0.00912504 0.03309092 -0.042288534 0.015020731 -0.23833567 0.020548817 0.0936992 -0.0017183458
0.034928404 0.055029217 0.0052924827 -0.20542125 0.01613504 -0.10812367 -0.009457311 0.08131185
0.042406786 0.014473851 -0.2042585 0.022775503 0.07312194 0.0017234368 -0.0084354095 0.062382627
-0.0024586709 0.010507777 -0.0038842964 -0.01777523 -0.0039956234 -0.008082845 -0.0017797383 0.018833145
0.12240525 -0.22000232 0.04857363 -6.4177504e-05 0.026270647 -0.23650695 0.016018832 0.3489994
0.031857587 -0.03173037 0.0049941298 0.046526536 -0.030495668 -0.0029958652 0.004468031 -0.011094356
-0.01162292 -0.011126069 -0.0063133347 -0.0016458024 0.013257877 -0.16152124 -0.0096966 0.09165038
00000000: cba6 493c c866 46be 95aa 19bc 1a9c 133d
00000010: 45d8 4e3b ae99 c8bc 8eb2 a03d 03a7 203c
00000020: 9be4 3abe 9b3a 563c 05a9 083e 6dbd 1dbc
00000030: fdff 833d 636d 4c3d ac2a fa3b a35b a33e
00000040: 8628 753c a3df 46bd 9976 783b 5d84 bb3c
00000050: 581a 2fbc 4037 293c a1d5 af3e 16c0 fa3c
00000060: 76b3 85bd c46b 283a b8ca da3c 23f8 07bd
00000070: b081 c9bb 5172 8dbb 4385 21bc 81e5 35bc
00000080: 2041 31bc 85f4 55bb 6c62 79bc 95ae 35bc
00000090: a867 73bb 747b 04bb e315 2fbb b40b 59bc
000000a0: 788f 86bc 653a acbb ca82 8b3c aa06 c33e
000000b0: d009 c03c 9689 33be f508 3bba eb3d 34bc
000000c0: d564 d13c 91f8 393c 84a0 33be bff7 77bc
000000d0: 4053 3f3e 546c 1dbb 2b83 a33d 7dc7 143d
000000e0: 6d6f b73c 2787 4ebe 988b 323d ade0 f03d
000000f0: 0cf5 563b 6ad2 223d 8ffe 8f3d b2a7 003c
00000100: 15aa b73e c808 c63c e17f 86bd bc0b 41bc
00000110: b6b7 e43c 7448 8b3b 0ecd 1fbd dfd8 9c3e
00000120: 3480 423c 2dd4 a83c 2df8 adb9 eb91 ae3c
00000130: 2a66 07bd c6e5 e0bc 501e ab3e 8a45 c6bd
00000140: ca57 b73d aeed 5e3b feea d43c 9538 24be
00000150: 98a5 ad3c 539b ba3e 71a7 c33c 3d8b d9bd
00000160: 4ff2 2d3a 533d 023d 1718 6fbc 0360 a33c
00000170: 2ce7 71be 34a7 253c 6ce6 b43d 4d8a 2f3c
00000180: af5a 8bbb b41b 9b3d 7df0 9a3c 60ad 65be
00000190: 61fd 8d3c 57c2 a03d bd72 e93a 4f9e 2d3c
000001a0: e1ca a23d 0272 0b3c fe58 8bbd 1456 4bbd
000001b0: dfbc 0a3e 7c7a 823a 64fe e03a c0d7 aabd
000001c0: 1ab9 8b3c 7535 2dbe d64b 23bc 6eb3 1f3e
000001d0: 8304 ef3a 1f2c 843d 0a2b 8e3d c0fb 20bd
000001e0: 9eef a03e bb20 c03c ae8c b0bc f8ed c8ba
000001f0: 164e a73c cc94 823a c9af cb3c 55fc 6fbe
00000200: fe80 2a3c ef6b d63d bf8e d23b d900 8c3c
00000210: d043 aa3d f17f 2abd 9086 803e ac26 bd3c
00000220: 9302 d73c 6b4e edbb 1120 f43b ff9b 7e3a
00000230: 620b e83c 6934 c53e c457 043d 5281 47bd
00000240: 2339 6cbb b256 143d e61a 59bc e072 bc3c
00000250: 8f9f 71be e13d e83c 6d22 dd3d ce49 d13b
00000260: 5678 b23c d7bf 983d 9189 de3a f90b 2cbe
00000270: 12ff 693d 228c 4a3e dc64 56bc 32b6 253d
00000280: 5a55 03bc 4540 bfbb 5da7 37be 1275 6a3d
00000290: fa7c 303d 6545 25bb 86f3 5839 27a8 ab3d
000002a0: 502f 283c 9551 37be 6bad e73c 9bdc 803e
000002b0: 83e6 4c3a ac46 853d b80e 893c 7b50 d0bb
000002c0: ee08 a43e ae20 1b3d fbc8 0abd aebc 363c
000002d0: 4601 1e3d 46c7 18bd 8d54 7c3c c5b2 c33e
000002e0: 1979 dc3c e07f 973c 1d84 5aba caa4 4a3d
000002f0: cc63 4c3b d50d 02bb 0a30 4a3b 6ca2 8f3a
00000300: 5b8f 1abc cb82 b7bb 4bda 8ebb 61bf 28bc
00000310: b96f 8e3c ce24 ad3e ddb4 c53c a35e 56bd
00000320: 3181 153c 588a 073d be36 2dbd 8319 763c
00000330: 440e 74be fe55 a83c 5ee5 bf3d 1e3a e1ba
00000340: 1611 0f3d 5166 613d 906c ad3b f359 52be
00000350: a22d 843c f16f ddbd d6f2 1abc d486 a63d
00000360: bdb2 2d3d bb23 6d3c 2429 51be b193 ba3c
00000370: f5c0 953d f1e4 e13a ac34 0abc ed84 7f3d
00000380: a721 21bb d028 2c3c ae8f 7ebb 5c9d 91bc
00000390: b8ed 82bb e96d 04bc 1c46 e9ba f847 9a3c
000003a0: 9baf fa3d 4a48 61be 25f5 463d 0997 86b8
000003b0: 8a35 d73c e12e 72be ed39 833c 0db0 b23e
000003c0: 1a7d 023d b4f7 01bd cca5 a33b 9c92 3e3d
000003d0: 0dd2 f9bc 4756 44bb 9068 923b 1ac5 35bc
000003e0: 0f6e 3ebc 1e4a 36bc 17e0 cebb f7b7 d7ba
000003f0: 9137 593c d365 25be 7dde 1ebc 32b3 bb3d

edge_embedding_layer.edge_embedding_NN.weight f4 [63, 8]
0.0154874725 0.032163788 0.2342751 -0.043821666 -0.018283186 -0.032785073 -0.010525182 -0.05435681
-0.009922469 -0.010774974 -0.004315335 -0.0022903706 0.008953054 -0.02221353 -0.015251183 0.008083992
0.015231078 0.025256682 0.20148179 -0.045268584 -0.03280735 -0.033778567 -0.0017145593 -0.03739208
0.044455945 0.046245575 0.1935822 -0.080700554 -0.036746837 -2.4214149e-05 0.051685743 -0.0888505
-0.015035438 -0.0067404066 0.0153879905 -0.014715848 -0.00982584 -0.0015218513 -0.0013866938 -0.0020847525
-0.010408337 -0.00058907137 0.002471643 -0.004193349 0.0027986444 -0.013592724 0.011577544 0.002690091
-0.001967015 -0.0057457807 -0.09845792 0.08564875 0.0984017 0.0003541662 -0.05825328 0.10246698
-0.0039301626 0.010811149 -0.13028662 0.11439596 0.0789266 0.008768041 -0.009040626 0.114836305
-0.001236179 -0.053529546 -0.10807015 0.06391897 0.08805717 0.0030751382 -0.0074023665 0.08560682
-0.0045156344 -0.028683703 -0.095075704 0.06958772 0.07980792 0.016526282 -0.049512193 0.10679709
-0.013614892 0.017021425 -0.11703585 0.09711703 0.07605105 0.008416263 -0.014503032 0.10941737
-0.0005169977 -0.0011437915 -0.0015800482 -0.011648395 -0.008384922 -0.019005835 -0.021238621 -0.0031330034
-0.011566987 -0.0064551826 -0.018823268 0.008752603 -0.0028598043 -0.013159215 0.0014766374 -0.0031785134
0.053903006 0.030527936 0.17641567 -0.07482307 -0.029241212 -0.00047592848 0.054925814 -0.10369962
-0.017545134 -0.015526997 -0.11034889 0.059439406 0.10164609 0.013263875 -0.11431404 0.089428514
0.066338316 0.052496597 0.16465966 -0.064604096 -0.060651697 -0.00040772828 0.058962207 -0.09430562
-0.0015676119 0.0008969792 -0.11505196 0.1018286 0.08295909 0.007890565 -0.0045753005 0.09581995
0.035876896 0.01713021 0.21440305 -0.06093331 0.017834786 -0.0035378295 0.029783338 -0.06397575
0.055849023 0.013767352 0.17781371 -0.0802791 -0.012837892 -0.0003741399 0.050803587 -0.109803334
0.0018170323 0.002612955 -0.09987873 0.07708879 0.078364134 0.0011351507 -0.04439366 0.101739764
-0.0014439179 -0.00978569 0.0023963705 0.0012964379 -0.0012544036 -0.0001595673 -0.007059626 -0.009169412
-0.00015551544 -0.0029017886 -0.115207925 0.08669267 0.08950826 -0.0010368166 -0.011243281 0.110256344
0.054871585 0.06238267 0.18574551 -0.07978122 -0.01634495 0.0013631809 0.06585509 -0.08813038
-0.0014835857 -0.0010873167 0.0004004063 0.0019544451 -0.017845793 -0.0053972867 -0.0027487199 -0.0038520296
0.06860303 0.043995053 0.18330984 -0.09894783 -0.042114116 0.0017947389 0.045947026 -0.09946057
0.013225699 -0.0037913609 0.24695796 -0.20288233 0.039942328 0.003935302 0.019329946 -0.1672473
-0.017774252 -0.0015125076 -0.10917686 0.08467131 0.082469955 0.008352752 -0.116246045 0.09878319
0.053593535 0.025139851 0.18058477 -0.09395388 0.025960132 -0.0017348869 0.04762037 -0.09061199
-0.014819773 -0.014826146 -0.01661776 -0.015271877 -0.007614104 -0.012074424 -0.012945181 -0.010523627
-0.002590936 -0.020413859 -0.07551089 0.08464608 0.0942817 0.0065890076 -0.08639759 0.09941505
0.038065027 0.053891722 0.184571 -0.09101266 -0.030113786 8.447068e-06 0.05944715 -0.082562394
0.02633079 0.0025599666 0.26454043 -0.18679704 0.050099265 0.0028980586 0.015883075 -0.16617605
00000000: 2bbf 7d3c 2dbe 033d d0e5 6f3e 597e 33bd
00000010: 9fc6 95bc a449 06bd d071 2cbc 3fa5 5ebd
00000020: da91 22bc 8489 30bc a767 8dbb 0b1a 16bb
00000030: d5af 123c 26f9 b5bc 19e0 79bc b872 043c
00000040: c58b 793c 1ae7 ce3c 3e51 4e3e 8d6b 39bd
00000050: 0061 06bd 655b 0abd 10bb e0ba 7028 19bd
00000060: 7017 363d 006c 3d3d 6a3a 463e 5546 a5bd
00000070: da83 16bd 7d1f cbb7 6eb4 533d 40f7 b5bd
00000080: 3357 76bc a1de dcbb e91d 7c3c bd1a 71bc
00000090: 8ffc 20bc db78 c7ba b9c1 b5ba 58a0 08bb
000000a0: bb87 2abc e96b 1aba 4afb 213b 5c68 89bb
000000b0: 7669 373b 04b4 5ebc bdaf 3d3c 3d4c 303b
000000c0: 09e9 00bb 1a47 bcbb 4ea4 c9bd 9d68 af3d
000000d0: d586 c93d 62af b939 fe9a 6ebd 35da d13d
000000e0: 98c8 80bb 3f21 313c db69 05be 6e48 ea3d
000000f0: 45a4 a13d d4a7 0f3c 221f 14bc 4c2f eb3d
00000100: 4907 a2ba cc41 5bbd e253 ddbd f3e7 823d
00000110: 5157 b43d 4288 493b 8d8f f2bb a152 af3d
00000120: e3f7 93bb 16fa eabc 0db7 c2bd 0284 8e3d
00000130: 5672 a33d 2062 873c 4ccd 4abd 6fb8 da3d
00000140: ff10 5fbc 8470 8b3c 7eb0 efbd 4be5 c63d
00000150: a7c0 9b3d 5ee4 093c 209e 6dbc 3716 e03d
00000160: 2187 07ba 46eb 95ba 9f19 cfba e9d8 3ebc
00000170: e960 09bc 20b2 9bbc 9efc adbc 1353 4dbb
00000180: 7683 3dbc ff85 d3bb 4133 9abc 1467 0f3c
00000190: 8e6b 3bbb c099 57bc bb8b c13a 9b4e 50bb
000001a0: 66c9 5c3d b915 fa3c 4fa6 343e d63c 99bd
000001b0: 448b efbc 0a86 f9b9 e4f9 603d 7760 d4bd
000001c0: d0ba 8fbc f264 7ebc 99fe e1bd bc76 733d
000001d0: d32b d03d b950 593c 7b1d eabd 4c26 b73d
000001e0: 62dc 873d ac06 573d 8b9c 283e 274f 84bd
000001f0: ea6d 78bd 5dc4 d5b9 5b82 713d 4e23 c1bd
00000200: 5478 cdba 4123 6b3a 5da0 ebbd 838b d03d
00000210: 75e6 a93d 6e47 013c 67ec 95bb 403d c43d
00000220: a7f3 123d a754 8c3c 798c 5b3e 3595 79bd
00000230: 421a 923c eeda 67bb 30fc f33c b805 83bd
00000240: f2c1 643d 7690 613c cc14 363e 5e69 a4bd
00000250: 0656 52bc 3528 c4b9 6c17 503d 92e0 e0bd
00000260: 7d29 ee3a 1c3e 2b3b 388d ccbd bae0 9d3d
00000270: 607d a03d 56c9 943a 20d6 35bd f05c d03d
00000280: d841 bdba 2954 20bc 6d0c 1d3b 3ded a93a
00000290: cd6a a4ba 8551 27b9 6f54 e7bb 4d3b 16bc
000002a0: dc11 23b9 ef2b 3ebb 22f2 ebbd ed8b b13d
000002b0: 1b50 b73d cbe5 87ba bd35 38bc 14ce e13d
000002c0: 07c1 603d f884 7f3d 1234 3e3e 5664 a3bd
000002d0: d8e5 85bc c3ac b23a 09df 863d b37d b4bd
000002e0: e074 c2ba 4b84 8eba a0ed d139 2616 003b
000002f0: 5731 92bc b9db b0bb de23 34bb 5572 7cbb
00000300: bf7f 8c3d 2834 343d 93b5 3b3e 29a5 cabd
00000310: da7f 2cbd 723d eb3a f332 3c3d fcb1 cbbd
00000320: 9ab0 583c 7b78 78bb 8ce2 7c3e 63c0 4fbe
00000330: 919a 233d b5f3 803b d659 9e3c e042 2bbe
00000340: 4f9b 91bc 553f c6ba 1e98 dfbd 2768 ad3d
00000350: 02e6 a83d fbd9 083c 6812 eebd d74e ca3d
00000360: e584 5b3d 17f2 cd3c 37eb 383e e46a c0bd
00000370: 58aa d43c 2565 e3ba 940d 433d c792 b9bd
00000380: a2ce 72bc 5de9 72bc f821 88bc e536 7abc
00000390: bc7f f9bb ced3 45bc 0618 54bc 4a6b 2cbc
000003a0: b1cc 29bb f73a a7bc 74a5 9abd ed5a ad3d
000003b0: c416 c13d 9ae8 d73b 38f1 b0bd 1e9a cb3d
000003c0: 13ea 1b3d 91bd 5c3d 2e00 3d3e d864 babd
000003d0: 30b1 f6bc e1b7 0d37 db7e 733d 7916 a9bd
000003e0: abb3 d73c 1dc5 273b d871 873e b947 3fbe
000003f0: e334 4d3d 5bed 3d3b 391d 823c 0e2a 2abe

edge_embedding_layer.edge_feature_NN.weight f4 [64, 64]
0.04504126 0.006673097 0.042616587 0.053624168 0.009925359 0.00821526 -0.027388511 -0.056332424
-0.021352166 -0.021016106 -0.040425416 0.0012318065 -0.005665803 0.06886253 -0.020100418 0.05604935
-0.032090865 0.02525855 0.029556079 -0.0133899 0.000109577515 -0.03764009 0.037071753 0.002587881
0.03493549 0.11135599 -0.03508115 0.027423184 -0.0021766124 -0.03962103 0.04131985 0.11053232
-0.03400093 -0.035006627 0.06471686 -0.0033587667 0.040196028 -0.031616785 -0.046793725 0.057936218
-0.04004931 0.05047937 0.014120146 0.06448464 0.0033934086 -0.035463117 -0.04351848 -0.002245156
0.0020962334 -0.050468683 0.017370982 -0.010358377 0.019553091 0.012979024 -0.047308747 0.022020588
0.066787325 0.10412358 0.0092882775 0.018931838 0.067702025 0.07773715 0.019256096 0.0538576
-0.010757435 -0.008134392 0.0015555887 0.008232492 0.0019207367 0.002163062 0.0075713447 0.013601665
-0.007368058 -0.003595143 -0.007843095 0.00053097215 0.013778844 0.0062424517 0.0074845203 -0.01393854
0.0026482814 0.007712967 0.00808285 -0.00012946085 -0.0091824075 -0.00903409 -0.0045856712 -0.024723053
0.009405366 0.012624277 -0.0036777484 -0.0028761444 0.012500013 -0.017287152 0.005854313 0.004633419
-5.6490684e-05 -0.015611438 -0.010616232 -0.0030209445 -0.021334397 0.004618022 -0.0052528144 0.009123423
0.0043523703 0.012726235 0.0060889255 0.004978729 -0.0024838957 -0.01235016 -0.00058075506 0.016682966
0.013421233 0.0007373087 0.0055199787 0.0034704753 -0.02354301 -0.012233246 0.005811526 -0.018016197
-0.008616842 -0.006729163 -0.005336937 0.00050229934 0.0068217944 -0.0012908315 0.008992918 -0.026182441
0.01991871 -0.0063518262 0.053953357 -0.01582795 -0.011611266 -0.004056425 0.038441442 0.022096757
0.04034368 0.017899457 0.022333637 0.0021992014 -0.0019165426 -0.021237556 0.0037327535 -0.013038177
0.009912304 0.02337989 -0.011199587 0.034485895 -0.02420997 0.03144996 -0.00093568815 0.0041167918
-0.014065676 -0.084784836 0.020566043 -0.014125367 -0.007525111 0.017471079 0.009235788 -0.12146101
0.031727374 0.033864252 -0.030985776 0.0034131906 -0.015777664 0.039788093 0.022039391 -0.03551736
0.05230056 0.009319113 -0.019183954 -0.004629201 -0.0030575085 0.054393124 0.04265737 0.011249505
-0.013233761 0.035691034 -0.0001349812 0.011113654 -0.004753543 0.0015670959 0.046772264 -0.013934441
-0.029192343 -0.09226368 0.0048289425 0.0089221625 -0.07452116 -0.024825525 -0.011650896 0.0068365284
-0.01394048 -0.006870072 -0.009293741 0.008531291 0.0033435759 -0.008219612 -0.009937564 1.8024335e-06
0.0065187598 -0.0015708433 0.008476569 -0.007357938 -0.0046117115 0.002252608 -0.008796808 -0.0023317866
-0.017442891 0.0060973703 -0.015798636 -0.0050842944 0.0041428367 -0.004616083 -6.412105e-05 -0.0023929016
0.002517064 -0.010286944 -0.0030664708 0.007888776 0.01083421 -0.0011445023 -0.0026926599 -0.0010076426
-0.016303077 0.007156581 0.0010438258 0.00019029636 0.00089925295 -0.0055984505 -0.0056308643 0.0001323514
-0.0054644374 -0.00420371 0.00012495325 -0.00021016278 0.017536044 0.01697999 -0.01351005 0.0057136067
-0.00062793127 -0.00031389037 0.0030395736 -0.013317074 -0.00057330204 0.0054728673 -0.0015698014 -0.0076897168
0.013171347 -0.013533647 -0.00035957596 -0.00062156183 -0.0020496896 -0.0086621335 0.006484415 -0.0048349635
00000000: 2f7d 383d ffa9 da3b bb8e 2e3d 04a5 5b3d
00000010: f99d 223c 4c99 063c df5d e0bc d4bc 66bd
00000020: bdea aebc f829 acbc 1f95 25bd 9174 a13a
00000030: 33a8 b9bb cc07 8d3d a2a9 a4bc 0194 653d
00000040: b671 03bd 05eb ce3c 971f f23c 5061 5bbc
00000050: fbcc e538 7f2c 1abd 8dd8 173d 7099 293b
00000060: 8418 0f3d 9c0e e43d 40b1 0fbd 96a6 e03c
00000070: 7fa5 0ebb a949 22bd 013f 293d c55e e23d
00000080: 8f44 0bbd 1c63 0fbd 468a 843d c11e 5cbb
00000090: 97a4 243d 9a80 01bd c7aa 3fbd 874e 6d3d
000000a0: bf0a 24bd 75c3 4e3d 2f58 673c 8610 843d
000000b0: f363 5e3b c641 11bd 6f40 32bd 7823 13bb
000000c0: f660 093b 40b8 4ebd 974d 8e3c 2fb6 29bc
000000d0: ce2d a03c f9a5 543c d1c6 41bd 8564 b43c
000000e0: cbc7 883d be3e d53d dc2d 183c f116 9b3c
000000f0: 5ca7 8a3d a834 9f3d f6be 9d3c c999 5c3d
00000100: f43f 30bc 1d46 05bc e5e4 cb3a 93e1 063c
00000110: 3bc1 fb3a 29c2 0d3b 0b19 f83b 85d9 5e3c
00000120: c06f f1bb 7e9c 6bbb 5380 00bc f030 0b3a
00000130: a9c0 613c 7b8d cc3b b540 f53b 795e 64bc
00000140: ca8e 2d3b 0fbd fc3b ee6d 043c e2bf 07b9
00000150: cf71 16bc b803 14bc 6643 96bb 0088 cabc
00000160: f718 1a3c 0ed6 4e3c 6106 71bb b27d 3cbb
00000170: dbcc 4c3c c99d 8dbc 89d5 bf3b f0d3 973b
00000180: 69f0 6cb8 1ec7 7fbc b4ef 2dbc 0afb 45bb
00000190: 79c5 aebc c752 973b cd1f acbb 697a 153c
000001a0: 549e 8e3b b381 503c 9c85 c73b 9b24 a33b
000001b0: dbc8 22bb 5358 4abc d03d 18ba b7aa 883c
000001c0: bbe4 5b3c f347 413a f0e0 b43b ea70 633b
000001d0: 45dd c0bc f46d 48bc 9d6e be3b b496 93bc
000001e0: a82d 0dbc 5080 dcbb 79e1 aebb bdac 033a
000001f0: 5c89 df3b 1e31 a9ba 0857 133c 8f7c d6bc
00000200: 902c a33c fb22 d0bb 32fe 5c3d 9ea9 81bc
00000210: 2e3d 3ebc c2eb 84bb c674 1d3d 4204 b53c
00000220: 6a3f 253d e2a1 923c 08f5 b63c 7a20 103b
00000230: 8034 fbba 62fa adbc 36a1 743b 149e 55bc
00000240: 3767 223c 2f87 bf3c 797e 37bc 1541 0d3d
00000250: fd53 c6bc acd1 003d f848 75ba 27e6 863b
00000260: b973 66bc aca3 adbd 1e7a a83c 156e 67bc
00000270: 3595 f6bb 821f 8f3c b451 173c 8dc0 f8bd
00000280: 90f4 013d 3eb5 0a3d e2d5 fdbc d6af 5f3b
00000290: 2940 81bc d7f8 223d f48b b43c a77a 11bd
000002a0: 1d39 563d 31af 183c ab27 9dbc 8db0 97bb
000002b0: 7b60 48bb 53cb 5e3d 7fb9 2e3d d84f 383c
000002c0: 6bd2 58bc c330 123d bd89 0db9 0b16 363c
000002d0: 9cc3 9bbb 0367 cd3a 4694 3f3d 484d 64bc
000002e0: c824 efbc bef4 bcbd 1b3c 9e3b 432e 123c
000002f0: 8d9e 98bd e65e cbbc 66e3 3ebc f504 e03b
00000300: 9c66 64bc 571e e1bb c644 18bc d4c6 0b3c
00000310: e51f 5b3b 8dab 06bc 2ad1 22bc 25eb f135
00000320: 529b d53b c1e4 cdba 4fe1 0a3c dc1a f1bb
00000330: d71d 97bb 7ea0 133b 7d20 10bc e3d0 18bb
00000340: 65e4 8ebc 73cc c73b 246c 81bc 279a a6bb
00000350: a2c0 873b 8342 97bb ba78 86b8 3ad2 1cbb
00000360: 54f5 243b 928a 28bc d8f6 48bb ed3f 013c
00000370: f881 313c 2003 96ba 5677 30bb e012 84ba
00000380: 088e 85bc c181 ea3b fbd0 883a 4a8a 4739
00000390: d8bb 6b3a 3573 b7bb 1d83 b8bb cfc7 0a39
000003a0: 060f b3bb 46bf 89bb e205 0339 245f 5cb9
000003b0: c0a7 8f3c 9f19 8b3c 4259 5dbc 3539 bb3b
000003c0: c19b 24ba a791 a4b9 9533 473b db2f 5abc
000003d0: a649 16ba bd55 b33b cbc1 cdba 05fa fbbb
000003e0: a2cc 573c 3bbc 5dbc 7885 bcb9 4ff0 22ba
000003f0: 1654 06bb 9feb 0dbc 377b d43b 9d6e 9ebb

update_node_embedding_layer.0.message_layer.weight f4 [64, 128]
-0.015464559 0.0054439316 -0.014098521 -0.0042191213 -0.01788335 0.011372718 0.0077267084 0.0070061553
-0.0038388595 -0.019097881 0.009512691 -0.01760792 -0.01670236 -0.009147685 0.0068210256 0.0023070637
-0.012245892 -0.0037142823 0.0011652375 0.008414931 -0.011716568 -0.020655544 -0.0077762776 -0.007549125
0.021826953 0.012472328 -0.0046079694 -0.0040685274 -0.0059861867 -0.014712329 -0.008611066 0.015683314
-0.0018858399 0.011377054 0.0037715773 -0.004941903 -0.0030892703 -0.00460002 -0.019085908 -0.009508729
-0.005458042 0.004858546 -0.01575485 -0.011506086 0.003724464 0.009642839 -0.011878734 -6.824607e-06
-0.0099661425 0.013546598 -0.0016762001 -0.0053715273 0.0029478837 0.0048136287 -0.01814366 0.013844441
-0.0072598616 -0.005668449 -0.009187484 -0.0007133213 0.0026156188 0.022402123 0.007948777 -0.0023793257
-0.006287746 -0.00242993 0.01129911 -0.012352881 -0.00015617447 -0.00066107354 -0.01425166 0.008922093
-0.008876933 -0.001967021 -0.0048631737 0.013726681 -0.0043488536 0.0050960365 0.0017414953 0.020401204
-0.0043127085 0.0005067762 -0.0012610718 -0.005253296 -0.006616436 0.0050565116 -0.008505274 0.016852133
0.0029131 0.0011571661 0.0047145206 0.013622425 -0.013529217 -0.013935954 -0.0058008023 0.020228371
0.015418434 -0.018540718 0.013831565 -0.0013197443 6.0506612e-05 -0.0021069173 -0.009187958 0.024446335
0.0023832296 -0.0027400209 0.003726408 0.0046185562 -0.011794901 -0.021006519 0.0072285063 -0.005699761
-0.0059828474 0.01480613 -0.006727138 0.00834494 0.0024302248 0.0017527142 0.0067477897 -0.011304717
0.008548886 0.008198818 -0.007812804 -0.013443079 -0.002821174 0.0016093793 0.007849047 -0.003556656
-0.004239259 -0.0050207903 -0.014091896 0.007560991 -0.0047206795 0.015075879 0.0013639219 -0.017753955
0.007118293 0.019064356 0.0073145726 -0.00059073156 0.0079347445 -0.0014402713 0.0036171505 0.010340788
-0.025975302 0.010314359 0.00070060435 0.010835259 0.007098552 0.007879156 0.011566087 -0.0058833715
-0.002190464 -0.010570919 0.011464581 0.011128925 0.007994938 -0.0152957635 0.011692998 -0.0063146655
-0.00092215446 0.0009228441 -0.0039488524 0.0033308987 -0.010930761 0.002247256 0.014575673 -0.008339884
0.00023099052 0.0038271933 0.008608403 -0.014772932 -0.0037292147 -0.0017629995 0.01631702 -5.2726282e-05
-0.005054553 -0.0008617327 0.01725479 -0.008545536 0.010912622 -0.013000448 0.015138639 0.00086471095
-0.002466547 -0.013250358 0.013816928 -0.01618879 0.0027313642 0.004388452 -0.0012199093 0.0023153871
0.0024982695 -0.00050685543 -0.013244109 -0.007319206 -0.0054970826 0.009282108 0.0020423108 -0.002229603
-0.00088064023 0.0020571456 0.00037802223 -0.012790203 0.013412874 0.004133164 -0.0049870163 -0.004870135
-0.018326238 0.009548369 -0.010924446 -0.0039042672 0.00076708436 0.012532998 0.0007173438 -0.013627831
-0.0021517342 -0.00028872216 -0.0018542539 -0.0090017365 0.009607537 0.0036266444 -0.0056013917 -0.000845954
-0.0011282654 -0.0066306675 -0.0084828185 -0.000115217714 -0.002622033 -0.002339695 -0.008011554 -0.017277014
0.0034263998 -0.013930259 0.004697749 -0.013996529 -0.0075030434 0.0021223337 -0.018486539 -0.011501698
0.0058047846 0.0028039834 -0.0003860734 0.014944711 0.007257845 0.012586262 0.013463961 -0.019465156
-0.0023854286 0.00316342 -0.012974135 0.010560917 -0.0077802017 0.0026403463 0.017365273 -0.005671336
00000000: 105f 7dbc 0263 b23b 7cfd 66bc 8e40 8abb
00000010: 1a80 92bc a354 3a3c 5430 fd3b e493 e53b
00000020: 6095 7bbb 2973 9cbc 1edb 1b3c 7c3e 90bc
00000030: 63d3 88bc 2ce0 15bc e982 df3b 1b32 173b
00000040: fea2 48bc 516b 73bb e2ba 983a c7de 093c
00000050: d9f6 3fbc d135 a9bc 25d0 febb a65e f7bb
00000060: 70ce b23c bc58 4c3c 73fe 96bb 4851 85bb
00000070: c627 c4bb fb0b 71bc 6e15 0dbc 4b7a 803c
00000080: 492e f7ba d366 3a3c 912c 773b b0ef a1bb
00000090: 5b75 4abb c4bb 96bb 0d5a 9cbc 80ca 1bbc
000000a0: 60d9 b2bb 7034 9f3b 5110 81bc 0684 3cbc
000000b0: 2316 743b 00fd 1d3c 069f 42bc eefe e4b6
000000c0: 0849 23bc 8df2 5d3c f1b3 dbba a303 b0bb
000000d0: 4831 413b a5bb 9d3b 03a2 94bc cbd3 623c
000000e0: 22e4 edbb 66be b9bb 1a87 16bc 2ffe 3aba
000000f0: cd6a 2b3b a884 b73c 963b 023c 76ee 1bbb
00000100: 7009 cebb 763f 1fbb e71f 393c bd63 4abc
00000110: c4c2 23b9 e54b 2dba cb7f 69bc f82d 123c
00000120: 8e70 11bc 23e9 00bb 425b 9fbb dfe5 603c
00000130: d480 8ebb a7fc a63b e342 e43a 6d20 a73c
00000140: 9f51 8dbb 2dd9 043a 8c4a a5ba d723 acbb
00000150: b0ce d8bb 18b1 a53b b459 0bbc 7c0d 8a3c
00000160: b5e9 3e3b 0dac 973a 447c 9a3b 9730 5f3c
00000170: a6a9 5dbc a153 64bc a814 bebb f8b5 a53c
00000180: 999d 7c3c b4e2 97bc ca9d 623c 45fb acba
00000190: 7bc8 7d38 3514 0abb 1789 16bc ae43 c83c
000001a0: f52f 1c3b ec91 33bb c036 743b 4257 973b
000001b0: 673f 41bc dd15 acbc 1bdd ec3b 10c5 babb
000001c0: c30b c4bb 6995 723c 536f dcbb 37b9 083c
000001d0: 6844 1f3b 54bb e53a 901c dd3b 6b37 39bc
000001e0: a010 0c3c 5654 063c 4601 00bc 5c40 5cbc
000001f0: 72e3 38bb cff1 d23a 4a99 003c c916 69bb
00000200: 7be9 8abb 7185 a4bb b2e1 66bc 31c2 f73b
00000210: eeaf 9abb d200 773c a0c5 b23a be70 91bc
00000220: 9240 e93b da2c 9c3c 15af ef3b 53db 1aba
00000230: bb00 023c 7cc7 bcba b70d 6d3b 696c 293c
00000240: 28ca d4bc 8ffd 283c c3a8 373a 5f86 313c
00000250: f89a e83b 9317 013c af7f 3d3c 4cc9 c0bb
00000260: e38d 0fbb a631 2dbc f0d5 3b3c 1856 363c
00000270: 33fd 023c 159b 7abc fd93 3f3c 41eb cebb
00000280: bdbc 71ba 05eb 713a 6065 81bb 354b 5a3b
00000290: ef16 33bc b346 133b cece 6e3c 02a4 08bc
000002a0: 0c36 7239 a6d1 7a3b 420a 0d3c 2b0a 72bc
000002b0: d765 74bb 7214 e7ba 45ab 853c 6a26 5db8
000002c0: aaa0 a5bb e7e5 61ba eb59 8d3c 9302 0cbc
000002d0: dbca 323c d5ff 54bc 0e08 783c c5ad 623a
000002e0: cba5 21bb 0818 59bc 6560 623c 5a9e 84bc
000002f0: b000 333b 01cd 8f3b 5de5 9fba c0bd 173b
00000300: 02ba 233b 7ede 04ba d2fd 58bc f3d5 efbb
00000310: df20 b4bb fc13 183c 4ad8 053b 881e 12bb
00000320: c4da 66ba 2dd1 063b 4931 c639 008e 51bc
00000330: acc1 5b3c 7e6f 873b 206a a3bb a795 9fbb
00000340: e820 96bc c370 1c3c 73fc 32bc bcde 7fbb
00000350: 2916 493a 3457 4d3c 210c 3c3a 4447 5fbc
00000360: 1c04 0dbb a25f 97b9 700a f3ba 057c 13bc
00000370: ee68 1d3c ffac 6d3b e18b b7bb 03c3 5dba
00000380: 4ee2 93ba 1246 d9bb 85fb 0abc 0aa1 f1b8
00000390: 6ad6 2bbb 9255 19bb e542 03bc 8688 8dbc
000003a0: 738d 603b be3b 64bc 93ef 993b b351 65bc
000003b0: 17dc f5bb da16 0b3b 1571 97bc 9e71 3cbc
000003c0: 1036 be3b 09c3 373b e569 cab9 a9da 743c
000003d0: 37d3 ed3b 9c36 4e3c f297 5c3c 6475 9fbc
000003e0: da54 1cbb 6151 4f3b 7791 54bc b207 2d3c
000003f0: 10f1 febb a909 2d3b 9e41 8e3c 9dd6 b9bb

update_node_embedding_layer.0.update_layer.weight f4 [64, 128]
0.0075080204 0.0072048535 0.00086573075 -0.0051614977 0.0074384604 -0.01197225 -0.0056603015 -0.001174407
0.0066805407 0.014434471 -0.0115956105 -0.0016655108 -0.02016402 -0.0006533583 -0.002053303 -0.008100575
0.012314782 0.00038921964 -0.014019523 -0.0031973685 -0.0007706469 -0.009729489 -0.009241092 -0.0042569726
-0.009952169 -0.0006271005 -0.0120667815 -0.00067160174 0.0018561102 -0.010183443 0.010775643 -0.00615005
-0.020259636 -0.03361236 -0.008844038 0.006280489 0.013111641 0.00013216586 -0.008188388 0.017193135
0.010342431 -0.004385086 6.0754817e-05 -0.008547765 -0.007366527 0.014102951 -0.02433011 0.0047769123
-0.014612896 0.004541024 -0.0044345385 -0.008897678 -0.010819396 -0.00727244 -0.004564681 0.00031999833
-0.0017554512 -0.012902099 0.0051160166 -0.0067906072 -0.0019524642 -0.0074397684 0.020086102 0.00022439491
0.012451123 0.0039288118 0.008936819 0.003329992 -0.004263867 -0.004954748 0.0128591955 -0.0035331524
-0.0064587407 0.0069869813 0.007294145 -0.0007420336 0.016249428 0.0014427209 -0.0063166386 0.003538578
0.016941896 -0.010268385 0.007019186 0.0012135583 0.0097796 -0.011017456 -0.008850054 0.0023699538
-0.009690811 -0.0121657625 0.020972423 0.0153110605 0.0010716581 0.016705437 -0.002803989 -0.003402626
0.0033469193 0.012256114 0.0012219709 -0.010433165 -0.015642965 -0.0052807154 -0.011458136 -0.005142337
-0.012459776 0.015344294 -0.015193614 -0.010375443 -0.0015224892 -0.027193615 -0.018850941 -0.0058853175
-0.0037906629 0.002707132 -0.0056048012 -0.009161804 -0.009293497 -0.011831467 -0.00979685 0.004225571
-0.0022067751 0.00568362 0.02565991 -0.023145216 -0.0069208834 0.0033806015 -0.002477771 0.015014666
0.030011114 0.02115129 -0.010801474 -0.00082712795 -0.0053062015 -0.0053413305 -0.027708115 0.006857115
0.04122798 -0.0147753395 0.0020498277 0.0138237765 -0.019152494 0.016436908 0.031619623 -0.07337207
0.030589545 -0.009546823 0.040373903 0.006821116 -0.00018602924 0.03657287 0.013996504 0.040817466
0.005563352 -0.01430542 0.014945285 0.0074918177 -0.018132782 0.023913154 0.07505576 0.020898987
-0.012782433 -0.11203521 -0.025718722 0.016152712 0.044566855 0.05402289 0.05854743 -0.030760605
0.019633258 0.0002516775 0.043541577 0.021332748 0.0043130857 -0.005963952 -0.029883098 0.0056280703
-0.031797178 0.04379535 -0.025384896 -0.06603159 0.06917203 0.027620211 0.02136943 -0.020619638
-0.012889661 0.03288467 0.0005555519 0.016949274 -0.01889411 0.03795409 0.05372048 0.013898273
-0.005231316 0.009569897 0.025487555 0.0006054957 -0.031860013 -0.008275823 0.0027344364 0.018613147
0.013933708 -0.004162932 0.009688408 -0.0007206679 -0.009840856 0.012097649 0.010911366 0.010987978
-0.02273055 0.0036670843 -0.018290954 0.000985935 0.008568254 0.0038711457 0.033474818 -0.008034486
0.033177536 -0.017548367 0.0036106461 0.0015518733 0.007778611 -0.007112568 -0.017961306 0.011024264
0.029475097 -0.006708055 -0.013490096 0.0064766477 -0.00045967696 0.015163096 0.0028797141 0.033936318
0.008180435 -0.004873446 0.024985403 0.013192388 -0.021509647 -0.035512995 0.011621992 0.0076387557
0.0010577276 -0.01811416 -0.042002175 -0.029273137 0.016775697 0.0016964994 0.004611308 0.0031338504
0.012566237 0.013534238 -0.013485577 0.008001286 -0.007150833 -0.0109705785 0.003928804 -0.008622526
00000000: d705 f63b b116 ec3b 35f2 623a c821 a9bb
00000010: 54be f33b 4227 44bc 0d7a b9bb 8fee 99ba
00000020: 70e8 da3b 8f7e 6c3c 84fb 3dbc 454d daba
00000030: 042f a5bc 2246 2bba b590 06bb 46b8 04bc
00000040: f0c3 493c 2d10 cc39 24b2 65bc f18a 51bb
00000050: 3d05 4aba 6f68 1fbc f367 17bc 137e 8bbb
00000060: 6c0e 23bc 0164 24ba c0b3 45bc 6e0e 30ba
00000070: b948 f33a 75d8 26bc 538c 303c 5c86 c9bb
00000080: 89f7 a5bc 1dad 09bd 95e6 10bc 8fcc cd3b
00000090: 35d2 563c 0196 0a39 9728 06bc 9ed8 8c3c
000000a0: 4d73 293c c4b0 8fbb fdd2 7e38 ed0b 0cbc
000000b0: e862 f1bb 1010 673c f04f c7bc a587 9c3b
000000c0: ee6a 6fbc dfcc 943b 9b4f 91bb 91c7 11bc
000000d0: d643 31bc a64d eebb 5293 95bb 73c5 a739
000000e0: 2b17 e6ba 5363 53bc 42a4 a73b be83 debb
000000f0: d4e9 ffba 4dc9 f3bb 9c8b a43c 8d4b 6b39
00000100: ccff 4b3c 43bd 803b bc6b 123c ff3b 5a3b
00000110: e9b7 8bbb 705b a2bb 60af 523c 768c 67bb
00000120: d8a3 d3bb 0cf3 e43b b903 ef3b 0885 42ba
00000130: 851d 853c ae19 bd3a cefb cebb 7de7 673b
00000140: bbc9 8a3c ba3c 28bc 3301 e63b 4210 9f3a
00000150: 9e3a 203c 8f82 34bc d1ff 10bc 3a51 1b3b
00000160: 35c6 1ebc e852 47bc 5cce ab3c 3edb 7a3c
00000170: e176 8c3a d7d9 883c 21c3 37bb 97fe 5ebb
00000180: fd57 5b3b decd 483c 8a2a a03a deef 2abc
00000190: ad25 80bc da09 adbb e8ba 3bbc 0d81 a8bb
000001a0: 1724 4cbc a266 7b3c a3ee 78bc c3fd 29bc
000001b0: 438e c7ba 25c5 debc 4a6d 9abc 9fd9 c0bb
000001c0: c56c 78bb 236a 313b 7ba8 b7bb 641b 16bc
000001d0: c043 18bc c5d8 41bc f882 20bc a976 8a3b
000001e0: 8b9f 10bb a93d ba3b bb34 d23c 099b bdbc
000001f0: 94c8 e2bb 158d 5d3b 1962 22bb 1300 763c
00000200: ded9 f53c 7845 ad3c aaf8 30bc 9ed3 58ba
00000210: a5df adbb 5406 afbb 21fc e2bc a6b1 e03b
00000220: acde 283d 4414 72bc 6756 063b 1f7d 623c
00000230: b1e5 9cbc b2a6 863c 9483 013d 1944 96bd
00000240: ed96 fa3c 476a 1cbc 1b5f 253d ab83 df3b
00000250: d810 43b9 6fcd 153d 9851 653c 3730 273d
00000260: c74c b63b 4861 6abc 12dd 743c ec7d f53b
00000270: 338b 94bc 85e5 c33c d6b6 993d 5a34 ab3c
00000280: 696d 51bc b772 e5bd 12b0 d2bc b152 843c
00000290: bc8b 363d 1b47 5d3d 6ecf 6f3d aafd fbbc
000002a0: edd5 a03c 95f3 8339 a758 323d 04c2 ae3c
000002b0: c954 8d3b 416d c3bb 66cd f4bc ad6b b83b
000002c0: c23d 02bd c162 333d fcf3 cfbc 923b 87bd
000002d0: 11aa 8d3d c843 e23c f10e af3c 84ea a8bc
000002e0: 282f 53bc 13b2 063d 75a2 113a 34d9 8a3c
000002f0: d2c7 9abc bf75 1b3d 020a 5c3d 95b5 633c
00000300: 766b abbb 0fcb 1c3c 47cb d03c 21ba 1e3a
00000310: a57f 02bd 5197 07bc 3b34 333b 997a 983c
00000320: 354a 643c 3469 88bb 21bc 1e3c 34eb 3cba
00000330: 8b3b 21bc 3835 463c 96c5 323c ec06 343c
00000340: 6b35 babc 7753 703b e9d6 95bc 7d3a 813a
00000350: dd61 0c3c 0cb3 7d3b e41c 093d 14a3 03bc
00000360: 2be5 073d 98c1 8fbc 97a0 6c3b 3a68 cb3a
00000370: b8e3 fe3b 8b10 e9bb 9723 93bc 1d9f 343c
00000380: c275 f13c 3ecf dbbb 9005 5dbc 0f3a d43b
00000390: cc00 f1b9 a26e 783c 96b9 3c3b cf00 0b3d
000003a0: 3b07 063c 6eb1 9fbb 30ae cc3c e324 583c
000003b0: 0035 b0bc 1376 11bd 2b6a 3e3c 874e fa3b
000003c0: 73a3 8a3a 2664 94bc 790a 2cbd 38ce efbc
000003d0: 306d 893c 135d de3a 751a 973b 4961 4d3b
000003e0: 9ee2 4d3c b5be 5d3c 9cf2 5cbc d317 033c
000003f0: 8951 eabb f1bd 33bc 32bd 803b 7f45 0dbc

update_node_embedding_layer.1.message_layer.weight f4 [64, 128]
-0.0024541595 -0.018106127 0.017602418 0.123444706 0.0029961 0.0020043908 -0.008976443 -0.012302184
-0.0061898176 0.002263508 -0.018726578 -0.013788292 -0.03231391 -0.014072983 0.0039278967 0.047370147
0.13387974 -0.010193697 0.117218666 -0.014998909 0.07037236 -0.009513549 -0.019966641 -0.03046434
-0.014740642 0.0039398726 -0.0020081697 -0.018795915 0.014869347 0.050957482 0.019162508 0.011080561
0.067245625 -0.015994048 0.0015125185 0.090319045 0.004077647 0.07800999 0.0012268152 0.0699222
-0.0136067355 0.10668121 0.1404808 -0.022786455 -0.021859644 -0.01780858 0.0007942358 0.04443033
-0.013423109 0.13510099 -0.019810969 -0.0021746668 0.0033832337 -0.0050331247 0.116889305 0.015650237
0.061312158 0.031417087 -0.014911678 -0.012224423 0.009011519 -0.006977583 -0.015752777 -0.011078087
0.026353221 -0.00029466863 -0.01852664 -0.006336092 -0.00087038137 -0.0013606438 -0.014912906 -0.042612422
0.05477286 0.017794037 0.051511392 0.025997885 0.0029906768 -0.015331523 -0.011234388 0.008502593
0.0062419153 0.017522138 -0.018758232 0.0027940245 -0.004000172 -0.021442696 0.03437977 0.02610027
0.036399018 0.0121498145 0.0047789067 -0.006141008 -0.017435296 0.045520496 0.029503463 0.015961217
-0.003158584 0.032951273 0.045164812 -0.004313238 -4.8805192e-05 -0.02937989 -0.010694454 0.02812458
0.020631002 0.02956505 0.029832376 -0.009780353 0.026172092 0.009137703 0.037202526 0.018984644
0.059941027 0.031792533 0.003541604 -0.0060923174 0.0020074907 0.011479368 0.049642984 -0.007342533
0.061010104 -0.004828631 0.0023809853 0.03484194 0.021091338 -0.00771763 0.03493975 -0.0072857225
0.00094796147 0.048392016 -0.007868105 -0.1237226 0.037924364 0.005682213 0.030963521 0.05121834
0.059719916 0.0013120722 0.05630746 0.05653523 0.068935685 0.042641465 -0.004668703 -0.11159995
-0.09175402 -0.010078845 -0.11994353 0.033542123 -0.10817989 0.03538014 0.045886815 0.04277064
0.052892007 0.015576836 -0.00016926562 0.038649324 0.0024822375 -0.085697554 -0.098611094 0.0025338605
-0.110878795 -0.0019140015 0.06444149 -0.092279434 0.010390566 -0.09104743 0.058462366 -0.090607725
0.06451124 -0.08419149 -0.047934506 -0.00397474 -0.012661907 -0.004817127 -0.053554296 -0.09693492
0.047752224 -0.057424754 0.05843324 -0.016627384 0.036937706 -0.012290088 -0.11474714 -0.07819527
-0.0881122 -0.101072654 0.07082069 0.055681538 -0.02115381 -0.012869364 0.040582437 -0.022460202
-0.030590175 0.00075916 0.048334017 0.0076632737 -0.019342544 -0.009961937 0.019124582 0.07807118
-0.024578255 -0.0032443942 -0.0036135411 -0.02988136 -0.0008434024 0.059375845 0.010743322 -0.011050108
-0.004722763 -0.02874906 -0.011794549 0.0063315365 0.0075001405 0.07174558 -0.01483131 -0.018264102
-0.034544975 -0.008070576 -0.1139141 -0.06356789 -0.00895716 -0.025942462 -0.025440052 0.0040879217
-0.13392238 -0.035043605 -0.004953712 0.008183525 0.008347728 -0.008086426 -0.068120755 -0.01906092
-0.030781219 -0.037453197 0.0003631774 0.002751888 -0.018056402 0.019028665 -0.017631935 -0.034084875
0.01721251 0.010239114 0.01276278 0.017471153 0.030829234 0.0002910263 -0.057367787 0.0025960132
0.041991815 -0.006146415 0.009884542 -0.020648826 -0.04150989 0.006800064 -0.07362751 -0.079210185
00000000: f7d5 20bb 4d53 94bc f232 903c 94d0 fc3d
00000010: 385a 443b 195c 033b ee11 13bc 198f 49bc
00000020: f4d3 cabb 5d57 143b 7b68 99bc 4ae8 61bc
00000030: 975b 04bd 5e92 66bc 96b5 803b 3307 423d
00000040: c517 093e 7703 27bc 5710 f03d fcbd 75bc
00000050: 621f 903d b7de 1bbc 1591 a3bc 5a90 f9bc
00000060: bc82 71bc 0c1a 813b 7f9b 03bb e4f9 99bc
00000070: 909e 733c cbb8 503d b1fa 9c3c 3e8b 353c
00000080: 13b8 893d f305 83bc b33f c63a 31f9 b83d
00000090: c89d 853b b4c3 9f3d 16cd a03a 5f33 8f3d
000000a0: c9ee 5ebc ae7b da3d 33da 0f3e a9aa babc
000000b0: ff12 b3bc 4de3 91bc 4334 503a 94fc 353d
000000c0: 9aec 5bbc ea57 0a3e 9d4a a2bc db84 0ebb
000000d0: 3eb9 5d3b e9ec a4bb a963 ef3d ed34 803c
000000e0: 7522 7b3d 34af 003d 1c50 74bc f248 48bc
000000f0: 0da5 133c 35a4 e4bb f80b 81bc dd80 35bc
00000100: b6e2 d73c c17d 9ab9 2ec5 97bc fe9e cfbb
00000110: 4e2a 64ba a157 b2ba 4355 74bc 5d8a 2ebd
00000120: 8259 603d cdc4 913c 9cfd 523d 84f9 d43c
00000130: 3bff 433b 1131 7bbc 7010 38bc 764e 0b3c
00000140: fb88 cc3b 968a 8f3c ddaa 99bc f41b 373b
00000150: e013 83bb 98a8 afbc cdd1 0c3d 3cd0 d53c
00000160: 2317 153d 0410 473c 6098 9c3b 823a c9bb
00000170: 77d4 8ebc b373 3a3d 3fb1 f13c 19c1 823c
00000180: 3f00 4fbb eaf7 063d bdfe 383d 1056 8dbb
00000190: 2db4 4cb8 18ae f0bc cb37 2fbc 8565 e63c
000001a0: 5902 a93c 6732 f23c 0763 f43c c63d 20bc
000001b0: db66 d63c 4eb6 153c ad61 183d af85 9b3c
000001c0: b984 753d e338 023d 411a 683b 10a2 c7bb
000001d0: 1b90 033b f613 3c3c 7156 4b3d a299 f0bb
000001e0: bbe5 793d 7e39 9ebb 4e0a 1c3b 6cb6 0e3d
000001f0: bec7 ac3c 2ce4 fcbb fc1c 0f3d 12bd eebb
00000200: 9e80 783a b536 463d 39e9 00bc 4662 fdbd
00000210: 9456 1b3d dc31 ba3b 36a7 fd3c 52ca 513d
00000220: df9c 743d d6f9 ab3a a7a2 663d 7c91 673d
00000230: 272e 8d3d d1a8 2e3d ebfb 98bb 848e e4bd
00000240: 88e9 bbbd bd21 25bc f4a4 f5bd 7763 093d
00000250: 6b8d ddbd c4ea 103d d0f3 3b3d 4430 2f3d
00000260: 4aa5 583d fc35 7f3c e57c 31b9 c14e 1e3d
00000270: 09ad 223b 3382 afbd 9df4 c9bd 200f 263b
00000280: 6c14 e3bd 3cdf faba e6f9 833d 00fd bcbd
00000290: 313d 2a3c 1377 babd 3c76 6f3d 8b90 b9bd
000002a0: 781e 843d 976c acbd f956 44bd 893e 82bb
000002b0: e373 4fbc fdd8 9dbb c05b 5bbd d185 c6bd
000002c0: d697 433d 3836 6bbd b157 6f3d 2736 88bc
000002d0: fe4b 173d 5e5c 49bc 8c00 ebbd d724 a0bd
000002e0: 2b74 b4bd 2eff cebd 700a 913d 5312 643d
000002f0: c14a adbc 06da 52bc c539 263d 75fe b7bc
00000300: 3f98 fabc 5d02 473a e4f9 453d 331c fb3b
00000310: 4174 9ebc 6437 23bc 28ab 9c3c c8e3 9f3d
00000320: 5658 c9bc e79f 54bb 29d1 6cbb c1c9 f4bc
00000330: c717 5dba 1634 733d c204 303c 830b 35bc
00000340: 68c1 9abb 2683 ebbc ed3d 41bc c778 cf3b
00000350: bdc3 f53b 59ef 923d 06ff 72bc 999e 95bc
00000360: 087f 0dbd 733a 04bc cc4b e9bd e22f 82bd
00000370: 0dc1 12bc 4985 d4bc a867 d0bc f9f3 853b
00000380: f322 09be e289 0fbd c052 a2bb 3114 063c
00000390: e9c4 083c ee7c 04bc e582 8bbd a625 9cbc
000003a0: e528 fcbc 8668 19bd d868 be39 0559 343b
000003b0: 05eb 93bc 01e2 9b3c d970 90bc 959c 0bbd
000003c0: 4001 8d3c f5c1 273c fb1a 513c aa1f 8f3c
000003d0: 978d fc3c e494 9839 7cfa 6abd e021 2a3b
000003e0: 9cff 2b3d de67 c9bb c6f2 213c ba27 a9bc
000003f0: 4606 2abd 12d3 de3b 05ca 96bd f338 a2bd

update_node_embedding_layer.1.update_layer.weight f4 [64, 128]
-0.010167671 -0.0353437 -0.0015054389 0.09472555 -0.053684406 0.018904693 -0.01505356 -0.041662164
-0.026114548 -0.003585052 -0.034407903 -0.055985067 -0.048578486 -0.01949756 -0.0036598195 0.048754446
0.12060647 0.0023484598 0.07654069 -0.05183863 0.061725818 -0.055832267 -0.02284775 -0.045009013
-0.04013145 0.010020811 -0.0054459637 -0.038687844 0.010063989 0.05535269 -0.0013667957 0.02122933
0.060134925 0.006727519 -0.05211351 0.06634634 -0.004555614 0.06710496 -0.04343783 0.067415245
-0.017502133 0.090315536 0.09674333 0.005225024 -0.0061313156 0.004195299 0.011355142 0.07957655
-0.041633498 0.12238907 -0.029859116 0.0121902125 -0.043971606 0.009042375 0.07239895 -0.02064569
0.07608345 0.052751683 -0.03093889 -0.03877407 0.0014573629 0.007024199 -0.025682347 0.04586499
0.034781 0.008809998 0.0115532335 0.019501323 -0.009179382 0.022399878 0.012591417 -0.011851895
-0.004878531 0.022707494 0.0038316816 0.022072623 -0.007757715 -0.002356969 0.008362155 0.003833151
0.028343061 -0.00515868 0.031030236 0.040352404 0.019177472 -0.015148566 0.03047623 0.022394678
-0.06676959 0.032257512 0.04582515 -0.0073595494 0.008922714 0.035308838 0.00022590571 0.001537397
0.014215862 0.0042203777 0.042453602 -0.0032591429 0.04177911 0.01838598 -0.011877797 -0.003214695
0.028780164 0.0044448595 -0.0027668688 -0.000161953 -0.020290814 0.0039848955 0.00033510607 0.037599683
-0.0029173677 0.011263194 0.012532683 0.010766787 0.005591041 -0.012952006 0.018140895 -0.015976634
0.008852675 0.035908703 0.01729704 -0.09277203 0.0037912237 -0.001975873 0.027409486 0.02100327
-0.010863433 -0.0004449072 -0.007028142 -0.08545888 0.00010540975 -0.010481571 0.020848036 0.010256155
0.019632362 0.0025302784 -0.016685301 -0.011447597 -0.004751698 -0.012879231 0.008044162 -0.13264376
-0.09056042 0.013382397 -0.063381694 0.0027996567 -0.1409943 0.008654265 0.020309458 -0.002370779
-0.012300861 0.003477857 -0.0062289075 -0.012560092 -0.009883218 -0.17332909 0.09428787 -0.017294815
-0.18799269 0.008303429 0.0043873675 -0.18095177 0.0017040069 -0.1865513 -0.032945752 -0.14554352
0.0107530635 -0.14553437 -0.12908074 -0.010869197 -0.012100814 0.0047711004 -0.070947155 -0.16165355
-0.0007750716 -0.21293685 -0.011070265 0.004584755 0.021452773 -0.002873488 -0.084790304 0.06717174
-0.1295193 -0.12833127 0.028110843 0.0038033638 -0.0066596493 -0.0036493393 -0.01773338 0.050843116
-0.029896442 0.056237143 -0.008752273 0.012808519 -0.015368342 -0.00049954513 0.01398929 0.08005188
0.0033971658 -0.01640631 0.006211786 0.015550396 -0.017583165 -0.014284254 0.0073705576 -0.01057403
-0.016600315 0.011551481 -0.016265772 0.0065643867 -0.019291453 0.0005286833 0.0035729469 0.011841615
-0.07972 0.09242805 0.0058222963 -0.003981096 0.008346813 0.011212858 0.0020762696 0.0052797804
-0.009894923 0.0013301374 -0.010522674 -0.016427873 0.040277295 0.015514041 -0.00072730606 -0.0059180534
-0.011422189 -0.04081808 -0.012155366 -0.009620754 -0.005933477 0.09112223 0.003163143 -0.07771684
-0.002027941 0.00088901044 0.011175519 0.0015599085 0.016845763 -0.002770325 0.014950454 0.004298177
-0.003673406 0.001259993 0.033343513 -0.06889115 0.08048904 0.014062161 0.010609121 0.00080733054
00000000: 4e96 26bc 8ec4 10bd 2652 c5ba 78ff c13d
00000010: 2ee4 5bbd 04de 9a3c 35a3 76bc f2a5 2abd
00000020: 2dee d5bc 31f3 6abb 4def 0cbd 9950 65bd
00000030: 3cfa 46bd 59b9 9fbc 95d9 6fbb beb2 473d
00000040: 8600 f73d 9ee8 193b 5ec1 9c3d be54 54bd
00000050: 36d4 7c3d 60b0 64bd 342b bbbc 5f5b 38bd
00000060: e060 24bd 542e 243c 0e74 b2bb 2577 1ebd
00000070: 6ee3 243c 81b9 623d 0e26 b3ba 22e9 ad3c
00000080: 0a50 763d 8572 dc3b fa74 55bd 97e0 873d
00000090: 4347 95bb 536e 893d deeb 31bd 0111 8a3d
000000a0: a260 8fbc 5af7 b83d 5e21 c63d ae36 ab3b
000000b0: 34e9 c8bb b878 893b eb0a 3a3c 08f9 a23d
000000c0: e387 2abd 1fa7 fa3d 1b9b f4bc 75b9 473c
000000d0: 921b 34bd 7826 143c e745 943d 2621 a9bc
000000e0: a4d1 9b3d 2612 583d 8e73 fdbc 8fd1 1ebd
000000f0: fc04 bf3a 402b e63b c963 d2bc eedc 3b3d
00000100: 8676 0e3d cf57 103c c649 3d3c 3dc1 9f3c
00000110: 1e65 16bc f37f b73c 3b4c 4e3c 732e 42bc
00000120: 16dc 9fbb 1105 ba3c f31c 7b3b a5d1 b43c
00000130: 6e34 febb 6177 1abb 6c01 093c 9a35 7b3b
00000140: b52f e83c 250a a9bb 1f33 fe3c 9048 253d
00000150: 131a 9d3c b131 78bc 49a9 f93c 0b75 b73c
00000160: 7fbe 88bd 7420 043d 27b3 3b3d 6028 f1bb
00000170: 9330 123c 00a0 103d 1ae1 6c39 7c82 c93a
00000180: a6e9 683c 184b 8a3b d4e3 2d3d 5897 55bb
00000190: 9220 2b3d 329e 963c 179b 42bc a2ad 52bb
000001a0: 61c4 eb3c 2fa6 913b 5b54 35bb edd1 29b9
000001b0: ec38 a6bc ba93 823b 2db1 af39 2002 1a3d
000001c0: 4f31 3fbb 4289 383c e255 4d3c 2e67 303c
000001d0: 0d35 b73b a734 54bc 379c 943c 6ee1 82bc
000001e0: cf0a 113c 0115 133d 86b2 8d3c 43ff bdbd
000001f0: 2e76 783b a67d 01bb dc89 e03c 0d0f ac3c
00000200: 8afc 31bc 6f42 e9b9 544c e6bb 1105 afbd
00000210: 6e0f dd38 e5ba 2bbc 80c9 aa3c 6f09 283c
00000220: 0cd4 a03c 07d3 253b 9daf 88bc b48e 3bbc
00000230: 22b4 9bbb 6903 53bc a9cb 033c c4d3 07be
00000240: be77 b9bd d741 5b3c 43ce 81bd 727a 373b
00000250: cf60 10be 9eca 0d3c 0560 a63c 125f 1bbb
00000260: 8d89 49bc c2ec 633b dd1b ccbb d8c8 4dbc
00000270: 39ed 21bc 2e7d 31be 001a c13d dbad 8dbc
00000280: 2881 40be 1b0b 083c e8c3 8f3b 6c4b 39be
00000290: fc58 df3a 4e07 3fbe 20f2 06bd 5c09 15be
000002a0: 9e2d 303c f606 15be be2d 04be b714 32bc
000002b0: 7e42 46bc e456 9c3b be4c 91bd 8288 25be
000002c0: 2d2e 4bba 1e0c 5abe 0f60 35bc b63b 963b
000002d0: babd af3c 2151 3cbb 8aa6 adbd 5691 893d
000002e0: b5a0 04be 4669 03be b648 e63c db41 793b
000002f0: 3039 dabb c129 6fbb 9845 91bc df40 503d
00000300: 62e9 f4bc eb58 663d b265 0fbc d3da 513c
00000310: 80cb 7bbc e8f3 02ba 5633 653c 3df2 a33d
00000320: fca2 5e3b 8766 86bc 3d8c cb3b 17c7 7e3c
00000330: 920a 90bc 8108 6abc b884 f13b b23e 2dbc
00000340: 62fd 87bc 6c42 3d3c cc3f 85bc 111a d73b
00000350: 1c09 9ebc 5697 0a3a 1a28 6a3b 5503 423c
00000360: 3d44 a3bd eb4a bd3d f6c8 be3b db73 82bb
00000370: 12c1 083c 23b6 373c 0612 083b 0202 ad3b
00000380: 511e 22bc 0158 ae3a 4b67 2cbc bf93 86bc
00000390: cef9 243d 9b2e 7e3c afa8 3eba 3bec c1bb
000003a0: 2224 3bbc dc30 27bd 4d27 47bc 5ea0 1dbc
000003b0: 9d6d c2bb 4b9e ba3d bc4c 4f3b 022a 9fbd
000003c0: 34e7 04bb 7b0c 693a 8619 373c d875 cc3a
000003d0: 2000 8a3c 578e 35bb c0f2 743c b9d7 8c3b
000003e0: 87bd 70bb 5926 a53a 3593 083d ce16 8dbd
000003f0: 70d7 a43d fa64 663c e1d1 2d3c 09a3 533a
