ER_200spin/eco/network/network2000000.pth (torch, 238273 bytes, 11 tensors)

node_init_embedding_layer.0.weight f4 [64, 7]
000000 ac 80 ed 3b da 01 4f be b3 15 83 bc 7b bf 0f 3d
       0.007248005 -0.2021555 -0.016001558 0.03509472
000010 20 b4 f5 3b ea bd d9 bc 43 f2 8e 3d c8 eb c8 3b
       0.007498279 -0.026579816 0.069798015 0.006131623
000020 75 9e 38 be d4 ca b5 3b 5a b0 11 3e 6f 45 85 bc
       -0.18029197 0.0055478606 0.14227429 -0.01626846
000030 d2 69 8e 3d 44 bb 3f 3d 8c b9 c3 3b 47 7e a5 3e
       0.069537774 0.04680945 0.0059730466 0.32322904
000040 0d a0 90 3b c9 7d 8d bd de 76 fe 3a 1a ff a0 3c
       0.004413611 -0.06908757 0.0019414087 0.019652892
000050 08 60 5d 3a fd 44 fb 3b 40 a3 b1 3e 4d 0c ae 3c
       0.0008444791 0.007668136 0.34694862 0.0212461
000060 5d 6c 87 bd c5 54 1e bb 80 9b be 3c 4a 3f e4 bc
       -0.066124655 -0.0024159413 0.023267508 -0.02786221
000070 b0 81 c9 bb 51 72 8d bb 43 85 21 bc 81 e5 35 bc
       -0.006149493 -0.004316606 -0.009858432 -0.011102081
000080 20 41 31 bc 85 f4 55 bb 6c 62 79 bc 95 ae 35 bc
       -0.01081875 -0.0032646966 -0.0152212195 -0.011088987
000090 6a 28 7a bb ea d8 fe ba e3 15 2f bb b4 0b 59 bc
       -0.0038171061 -0.0019443308 -0.0026715926 -0.013247419
0000a0 f8 97 86 bc 1b 29 ab bb 9b 38 9a 3c 7e f5 c4 3e
       -0.016429886 -0.005223406 0.01882582 0.38468546
0000b0 25 7c d2 3c 38 34 58 be 41 71 13 ba 1b 6e 7a bc
       0.025693962 -0.2111367 -0.0005624481 -0.01528504
0000c0 c1 b5 df 3c b4 9b 1d 3c ad 75 34 be 28 bf 21 bd
       0.027308347 0.009619642 -0.17623015 -0.03948894
0000d0 a4 69 5a 3e 6b e3 ed bb 1d 18 ad 3d 8f 7e d8 3c
       0.21329361 -0.0072597764 0.08451865 0.026427535
0000e0 16 d4 aa 3c 86 e7 55 be 6f bc 30 3d 90 81 09 3e
       0.020853084 -0.208891 0.043148454 0.1342833
0000f0 cd 98 48 39 e1 ce 2d 3d a7 69 88 3d a8 76 d6 3b
       0.00019130409 0.042433623 0.066607766 0.0065449066
000100 8f 85 b9 3e 96 1d ca 3c 7c b4 76 bd fe 86 51 bc
       0.3623471 0.02467231 -0.060230717 -0.012788532
000110 80 41 c9 3c ae 5f 8d 3a 5c ce 15 bd 64 af 9f 3e
       0.024567366 0.0010785961 -0.036573753 0.311885
000120 01 0d 95 3c 67 03 20 3d af 1c ba ba 73 48 8e 3c
       0.018194677 0.039065745 -0.0014199222 0.01736853
000130 fe 62 10 bd 26 0f f8 bc 74 83 aa 3e a9 2f e3 bd
       -0.035250656 -0.03028066 0.33303416 -0.11093075
000140 44 35 cf 3d 2d b0 4a 3b 10 99 96 3c 0e d2 38 be
       0.101175815 0.0030927763 0.018383533 -0.1804888
000150 c1 43 a1 3c 2d 97 bd 3e 47 57 6e 3c 85 ff 01 be
       0.019685628 0.370294 0.014547176 -0.12695129
000160 fa f0 38 3a 5e 72 ea 3c a8 1a 6a 3a ff 31 89 3c
       0.0007054951 0.028618988 0.00089303637 0.016747473
000170 22 40 7e be dc f2 dc 3b 34 df c5 3d 4f dd 2c 3c
       -0.24829152 0.0067428183 0.09661713 0.010550811
000180 7e 38 00 bc fd 28 90 3d a7 93 8e 3c cf c6 6f be
       -0.007825969 0.07039068 0.01740439 -0.23415683
000190 d0 4b 76 3c 7d 0b b4 3d 16 c8 2f 3b 64 8a 19 3c
       0.015032724 0.08791254 0.0026822141 0.009371374
0001a0 1a 08 9c 3d 5b 1c 0b 3c de 0e 55 bd 65 5f 7b bd
       0.07618733 0.008490647 -0.05201613 -0.061370272
0001b0 9d 6d 11 3e 3e 01 f7 3a 40 16 96 3a 7d 46 cb bd
       0.1420197 0.0018844975 0.0011450723 -0.09925554
0001c0 69 54 6e 3c 02 d5 32 be 38 25 3e bc a8 6e 34 3e
       0.014546492 -0.17464069 -0.011605553 0.17620337
0001d0 29 f0 93 3a e7 8a 8c 3d ed 44 89 3d 65 ae 0e bd
       0.0011286783 0.06862431 0.067026 -0.034834284
0001e0 f9 1d a3 3e cb 6a ac 3c 0a e8 1b bc 13 bd 02 bc
       0.31858805 0.021047017 -0.009515772 -0.007979649
0001f0 24 47 90 3c a7 ac 26 38 a8 23 c8 3c 3f 6d 80 be
       0.017612047 3.973828e-05 0.024431065 -0.25083348
000200 8d a6 09 3c b1 64 ed 3d 90 d5 e5 3b 88 3a 85 3c
       0.008401525 0.11591471 0.007013984 0.016263261
000210 0d 80 a6 3d da cc f6 bc 43 e6 83 3e 7a 86 d1 3c
       0.081298925 -0.030126978 0.25761613 0.025576819
000220 61 90 2d 3d b1 23 12 bc 26 89 ce 3b df 84 ae 38
       0.04237402 -0.008919642 0.0063029705 8.321716e-05
000230 26 ba d3 3c 97 51 c7 3e 70 5f 16 3d 9a 4e 71 bd
       0.025845598 0.38929436 0.03671211 -0.05891285
000240 5d fc 0b bc da 77 04 3d d4 b7 40 3a 18 47 b8 3c
       -0.008544055 0.03234086 0.0007351611 0.022494838
000250 58 02 80 be fc 1f dc 3c 4e ba f5 3d f7 0b c8 3b
       -0.25001788 0.02687072 0.119984254 0.006104942
000260 3c c1 b0 3c ad b7 93 3d be 92 ab 38 f0 da 2c be
       0.021576516 0.07212768 8.181248e-05 -0.16880393
000270 40 38 91 3d 63 c9 5e 3e ae 9a ab bc c6 a5 45 3d
       0.07090807 0.2175651 -0.02094778 0.048253797
000280 5a be 35 bc 91 1a 8c bb 8d 57 3b be d5 8d 4b 3d
       -0.011092747 -0.004275628 -0.18295117 0.04969581
000290 f5 6d 0a 3d 36 35 78 bb 8b aa 6c ba bc 3b a0 3d
       0.03379627 -0.0037873513 -0.00090280984 0.078238934
0002a0 f1 47 1e 3c 7d e4 38 be 1a ff f5 3c 37 67 99 3e
       0.009660707 -0.18055911 0.030028868 0.2996156
0002b0 a6 15 a8 ba c1 a0 8e 3d 23 1d 51 3c f3 e1 b9 bb
       -0.0012823835 0.06964255 0.012763294 -0.005672687
0002c0 3b a9 a5 3e c4 c4 d8 3c b2 1d 19 bd 50 ee 32 3c
       0.32355675 0.026461013 -0.037381835 0.010921076
0002d0 18 cc 10 3d fb 3b 21 bd 98 eb 4d 3c d6 c9 c5 3e
       0.03535089 -0.039363842 0.012568377 0.3863055
0002e0 29 70 cd 3c 25 2b e5 ba 5d fa 43 36 a6 71 3e 3d
       0.025077896 -0.0017484172 2.9202995e-06 0.046495102
0002f0 f3 8c 29 3b d5 0d 02 bb 0a 30 4a 3b 6c a2 8f 3a
       0.0025871366 -0.001984467 0.0030851387 0.001095844
000300 5b 8f 1a bc cb 82 b7 bb 4b da 8e bb 61 bf 28 bc
       -0.009433593 -0.0056003085 -0.0043595186 -0.010299535
000310 e8 3f 8e 3c 10 a6 af 3e 56 ac ad 3c 7f b7 79 bd
       0.017364457 0.34306383 0.02120034 -0.06096601
000320 5f ed ef 3b 2e 1d f2 3c e6 87 0b bd d0 dc 75 3c
       0.007321998 0.02955493 -0.03406515 0.015006259
000330 64 41 7c be 9f b4 81 3c a7 50 dc 3d 0e a2 35 bb
       -0.2463432 0.015833197 0.10757571 -0.0027715
000340 f6 09 18 3d 07 59 5c 3d 9f 02 23 b8 a6 7a 52 be
       0.037118874 0.05379584 -3.886467e-05 -0.20554599
000350 19 7e 4e 3c a8 5b 0b be 3d 7a 1d bc 31 46 b4 3d
       0.012603306 -0.13609183 -0.009611663 0.088024504
000360 e8 e2 b7 3c 6a 9e 3b 3c 93 52 58 be cd 8f a6 3c
       0.022447065 0.011451343 -0.2112525 0.020332241
000370 d2 d8 a9 3d 04 7e 54 b9 dd 78 34 bc dd b0 62 3d
       0.08293308 -0.0002026484 -0.011015144 0.05534445
000380 a7 21 21 bb d0 28 2c 3c ae 8f 7e bb 5c 9d 91 bc
       -0.0024586709 0.010507777 -0.0038842964 -0.01777523
000390 b8 ed 82 bb e9 6d 04 bc 1c 46 e9 ba f9 b7 91 3c
       -0.0039956234 -0.008082845 -0.0017797383 0.01778792
0003a0 86 e8 f4 3d cc ac 76 be 3d 2e 6e 3d 66 6c 2f 3b
       0.11958413 -0.24089354 0.058149565 0.0026767491
0003b0 82 5d aa 3c d1 1e 85 be 6a 84 80 3c 11 3a b5 3e
       0.020796541 -0.26000074 0.01568814 0.35395864
0003c0 6f f0 ab 3c 19 86 33 bd 11 74 6a 3b 85 e3 32 3d
       0.020988671 -0.043829057 0.0035774747 0.04367401
0003d0 6c 6d d3 bc 47 56 44 bb 90 68 92 3b 1a c5 35 bc
       -0.025809012 -0.0029958652 0.004468031 -0.011094356
0003e0 0f 6e 3e bc 1e 4a 36 bc 17 e0 ce bb f7 b7 d7 ba
       -0.01162292 -0.011126069 -0.0063133347 -0.0016458024
0003f0 cf 08 3e 3c b9 af 2c be ce 74 9a bc 10 c9 ce 3d
       0.01159878 -0.16863908 -0.018854525 0.100969434

edge_embedding_layer.edge_embedding_NN.weight f4 [63, 8]
000000 c6 95 8d 3c e7 fd 01 3d 83 c4 76 3e 8c da 36 bd
       0.017283332 0.03173628 0.24098401 -0.044642016
000010 14 46 72 bc f4 e2 12 bd 38 e1 64 bc 4c 0f 65 bd
       -0.014787216 -0.03586097 -0.013969712 -0.05592279
000020 da 91 22 bc 84 89 30 bc a7 67 8d bb 0b 1a 16 bb
       -0.009922469 -0.010774974 -0.004315335 -0.0022903706
000030 d5 af 12 3c 26 f9 b5 bc 19 e0 79 bc b8 72 04 3c
       0.008953054 -0.02221353 -0.015251183 0.008083992
000040 de ae 8d 3c f6 87 cc 3c 64 a9 55 3e f8 d1 39 bd
       0.017295297 0.024967175 0.20865399 -0.045366257
000050 3f 82 c5 bc d1 0a 06 bd c1 da aa bb 1c 43 1c bd
       -0.024109958 -0.03272516 -0.005214066 -0.038149938
000060 95 2c 3b 3d e5 7f 3b 3d 2e 41 4d 3e 68 f9 ab bd
       0.045696814 0.045776267 0.20044395 -0.0839718
000070 c4 b4 f3 bc 5e 7a 00 3a f4 36 4b 3d 17 c9 b3 bd
       -0.029749282 0.00049010466 0.049612954 -0.08778589
000080 33 57 76 bc a1 de dc bb e9 1d 7c 3c bd 1a 71 bc
       -0.015035438 -0.0067404066 0.0153879905 -0.014715848
000090 8f fc 20 bc db 78 c7 ba b9 c1 b5 ba 58 a0 08 bb
       -0.00982584 -0.0015218513 -0.0013866938 -0.0020847525
0000a0 bb 87 2a bc e9 6b 1a ba 4a fb 21 3b 5c 68 89 bb
       -0.010408337 -0.00058907137 0.002471643 -0.004193349
0000b0 76 69 37 3b 04 b4 5e bc bd af 3d 3c 3d 4c 30 3b
       0.0027986444 -0.013592724 0.011577544 0.002690091
0000c0 a4 ae 97 ba 37 b7 98 bb e2 aa d0 bd 07 5e b3 3d
       -0.0011572433 -0.004660513 -0.10188843 0.08758169
0000d0 c3 ef df 3d b4 4a 3a bb 8b a9 91 bd cd fd c9 3d
       0.10934403 -0.0028425874 -0.07112416 0.09862862
0000e0 16 f3 b6 bb 40 68 23 3c c8 81 0c be 3e 9f ee 3d
       -0.0055831773 0.009973586 -0.13721383 0.11651467
0000f0 05 43 a3 3d 4b af 10 3c 47 71 28 bc 4f ac e6 3d
       0.07971767 0.008830856 -0.010280914 0.11263334
000100 36 b1 b0 bb 63 e1 89 bd a7 18 ec bd b1 12 7d 3d
       -0.005392219 -0.06732442 -0.115281396 0.061785404
000110 29 80 c4 3d 3d e9 7f ba 05 51 59 bc b0 d6 9f 3d
       0.09594757 -0.0009762233 -0.0132639455 0.0780462
000120 5c 18 8e bb 56 bc ee bc 48 1f cc bd 1a 1a 92 3d
       -0.0043364 -0.02914254 -0.09966904 0.07133885
000130 0c b1 a7 3d fe 49 83 3c 56 77 86 bd 0e ae d0 3d
       0.08188066 0.016026493 -0.0656573 0.10189448
000140 c5 2d 67 bc a3 f1 85 3c fd 6a fb bd 9a f6 c9 3d
       -0.014110033 0.016350573 -0.12276266 0.09861489
000150 a8 32 a0 3d a0 a4 ee 3b 83 5d 82 bc 0f 9e d9 3d
       0.07822162 0.0072828084 -0.01591373 0.106258504
000160 21 87 07 ba 46 eb 95 ba 9f 19 cf ba e9 d8 3e bc
       -0.0005169977 -0.0011437915 -0.0015800482 -0.011648395
000170 e9 60 09 bc 20 b2 9b bc 9e fc ad bc 13 53 4d bb
       -0.008384922 -0.019005835 -0.021238621 -0.0031330034
000180 76 83 3d bc ff 85 d3 bb 41 33 9a bc 14 67 0f 3c
       -0.011566987 -0.0064551826 -0.018823268 0.008752603
000190 8e 6b 3b bb c0 99 57 bc bb 8b c1 3a 9b 4e 50 bb
       -0.0028598043 -0.013159215 0.0014766374 -0.0031785134
0001a0 ce 63 60 3d c7 56 f4 3c 4b 5c 3c 3e 1f 46 a0 bd
       0.05478268 0.029826535 0.18394582 -0.078258745
0001b0 8d b6 ab bc 5c 80 cd 39 15 be 58 3d be 11 d3 bd
       -0.02096107 0.00039196282 0.05291565 -0.103061184
0001c0 54 72 75 bc c9 a4 4f bc 17 d5 ee bd 9b 53 84 3d
       -0.014980871 -0.012673565 -0.116617374 0.06461259
0001d0 d0 0c ca 3d fc 16 24 3c ea 97 2d be f4 61 b1 3d
       0.09865725 0.0100152455 -0.16952482 0.08661261
0001e0 09 28 89 3d 2d 62 56 3d 82 f1 30 3e cb 2c 8d bd
       0.06697089 0.05233972 0.17279628 -0.06893309
0001f0 ab 9e 5b bd 3b a7 30 3b 19 80 6b 3d f2 8f bf bd
       -0.053618114 0.0026955146 0.05749521 -0.09353627
000200 a8 b4 91 bb 52 ff 02 b9 ea 91 f6 bd 64 22 d1 3d
       -0.0044465847 -0.0001249288 -0.1203955 0.102116376
000210 a8 4a aa 3d 65 4d d6 3b 36 f0 ec bb 3d bf bb 3d
       0.08315021 0.006539988 -0.007230784 0.09167335
000220 93 26 18 3d 39 b1 84 3c ea 6c 63 3e 31 4c 7f bd
       0.037146162 0.016197788 0.22209516 -0.06232852
000230 84 55 e0 3c 1e c9 cc ba b8 43 de 3c 47 e5 80 bd
       0.027384527 -0.0015623902 0.0271319 -0.06293731
000240 9b 69 66 3d aa 76 4d 3c 04 55 3e 3e 2d 23 aa bd
       0.056253057 0.012540499 0.18587118 -0.083074905
000250 9e e4 8e bb e6 ce 73 39 dc 07 44 3d 36 79 df bd
       -0.0043607494 0.00023251362 0.047859058 -0.10911791
000260 20 43 f4 b9 d5 3c 44 3a 96 75 d0 bd 27 a1 9f 3d
       -0.0004658932 0.00074858713 -0.10178678 0.07794409
000270 e3 ee b2 3d c7 b7 9c 3a ff da 66 bd 82 f5 c8 3d
       0.0873697 0.0011956625 -0.056361195 0.09812452
000280 d8 41 bd ba 29 54 20 bc 6d 0c 1d 3b 3d ed a9 3a
       -0.0014439179 -0.00978569 0.0023963705 0.0012964379
000290 cd 6a a4 ba 85 51 27 b9 6f 54 e7 bb 4d 3b 16 bc
       -0.0012544036 -0.0001595673 -0.007059626 -0.009169412
0002a0 5d 2f 1d bb e5 6e 34 bb 86 22 f7 bd 7a d8 b2 3d
       -0.002398453 -0.0027531919 -0.12067132 0.08732696
0002b0 f1 00 c1 3d 48 db 16 bb 80 2b 62 bc 28 63 da 3d
       0.09424008 -0.0023018885 -0.0138043165 0.10663444
0002c0 25 b9 61 3d 4d 91 7a 3d da 61 46 3e 46 12 ab bd
       0.05510821 0.061173726 0.19373265 -0.08353095
0002d0 2d bf 29 bc be 12 1d 3b 1f 84 81 3d 99 b7 b2 bd
       -0.010360521 0.002396747 0.06324028 -0.08726425
0002e0 e0 74 c2 ba 4b 84 8e ba a0 ed d1 39 26 16 00 3b
       -0.0014835857 -0.0010873167 0.0004004063 0.0019544451
0002f0 57 31 92 bc b9 db b0 bb de 23 34 bb 55 72 7c bb
       -0.017845793 -0.0053972867 -0.0027487199 -0.0038520296
000300 cf 21 8d 3d 92 a6 30 3d 61 51 44 3e b8 f9 d2 bd
       0.06891214 0.043127604 0.19171669 -0.10301536
000310 ef c5 11 bd cd 47 ae 3b b8 9d 33 3d eb de c9 bd
       -0.035589155 0.005318618 0.043851584 -0.09856971
000320 1c 5c 83 3c e1 3e ae ba e0 cf 7e 3e a5 32 5b be
       0.016035132 -0.0013293886 0.24883986 -0.21406038
000330 da c5 39 3d b2 bf 12 3a b7 51 87 3c 9c d2 36 be
       0.0453547 0.0005598023 0.016518457 -0.17853779
000340 40 ed 7a bc 25 8d ff 3a 2e e1 eb bd 13 c5 b4 3d
       -0.015315354 0.001949702 -0.11517559 0.088266514
000350 31 15 ae 3d a3 e2 dc 3b b4 71 1e be c1 43 c5 3d
       0.08500136 0.0067408844 -0.15473062 0.09632064
000360 e5 c6 5b 3d fc 7c bf 3c 79 5d 41 3e 5e a9 c8 bd
       0.053656477 0.023375027 0.18883313 -0.09797929
000370 23 c1 15 3d c5 93 78 ba b3 be 36 3d f2 4e b9 bd
       0.036561143 -0.00094824686 0.04461546 -0.09048261
000380 a2 ce 72 bc 5d e9 72 bc f8 21 88 bc e5 36 7a bc
       -0.014819773 -0.014826146 -0.01661776 -0.015271877
000390 bc 7f f9 bb ce d3 45 bc 06 18 54 bc 4a 6b 2c bc
       -0.007614104 -0.012074424 -0.012945181 -0.010523627
0003a0 e2 17 a9 ba 70 b4 a6 bc dd 69 a7 bd 19 4e b2 3d
       -0.0012900794 -0.020349711 -0.08174489 0.08706302
0003b0 df c4 d1 3d 40 d9 b5 3b 0b c7 db bd 6a 96 c3 3d
       0.10242628 0.00554958 -0.10731324 0.095501736
0003c0 5b f2 1f 3d 4f 0b 5a 3d ab 32 44 3e 49 51 c2 bd
       0.039049488 0.05323344 0.19159953 -0.0948816
0003d0 22 2b c1 bc 67 ea 18 3a 04 63 69 3d b8 65 a8 bd
       -0.023580138 0.00058332685 0.056979194 -0.08222526
0003e0 2a 0d e9 3c 01 c0 13 3b 35 58 8e 3e 7a a7 42 be
       0.02844866 0.0022544863 0.27801672 -0.190092
0003f0 7c 24 5e 3d bf df 03 3b 34 13 50 3c d9 78 33 be
       0.054234013 0.0020122377 0.012699891 -0.17526568

edge_embedding_layer.edge_feature_NN.weight f4 [64, 64]
000000 ff 50 3d 3d ff a9 da 3b 14 ad 30 3d 8e c2 5e 3d
       0.046219822 0.006673097 0.04313381 0.05438476
000010 f9 9d 22 3c 4c 99 06 3c c0 f0 e2 bc 2a c6 5e bd
       0.009925359 0.00821526 -0.02770269 -0.054388203
000020 27 87 93 bc 8e 7c 85 bc 1c cf 19 bd 91 74 a1 3a
       -0.018008782 -0.016294744 -0.03755103 0.0012318065
000030 33 a8 b9 bb ab d4 8e 3d b0 01 97 bc fa 15 69 3d
       -0.005665803 0.06974157 -0.018433422 0.056905724
000040 10 9e ef bc 19 0e d8 3c b3 d1 fa 3c 9e f3 45 bc
       -0.029250175 0.02637391 0.03061757 -0.012082009
000050 fb cc e5 38 90 cf 12 bd 17 df 1b 3d 70 99 29 3b
       0.000109577515 -0.03584248 0.038054552 0.002587881
000060 f0 af 14 3d d0 42 e8 3d b3 1d 13 bd c5 f6 ea 3c
       0.0363006 0.113408685 -0.035916995 0.028682122
000070 7f a5 0e bb 3f b7 1e bd 4d 7c 2b 3d 6c 71 e8 3d
       -0.0021766124 -0.038748976 0.04186659 0.113497585
000080 0a b2 0b bd 02 cd 17 bd 65 53 88 3d 69 e6 80 ba
       -0.03410534 -0.037060745 0.06656531 -0.0009834293
000090 6e 04 28 3d 7d 94 02 bd d9 f7 3b bd 9a d0 6e 3d
       0.04101985 -0.03187989 -0.045890663 0.058304407
0000a0 e8 bf 21 bd a9 c5 53 3d 4d a5 7f 3c 91 0c 86 3d
       -0.039489657 0.051702175 0.015603376 0.065453656
0000b0 f3 63 5e 3b c3 94 0c bd e3 f0 38 bd 78 23 13 bb
       0.0033934086 -0.034321558 -0.045151602 -0.002245156
0000c0 f6 60 09 3b 3d 3f 48 bd 97 4d 8e 3c 2f b6 29 bc
       0.0020962334 -0.048888434 0.017370982 -0.010358377
0000d0 e2 2f a8 3c f9 a5 54 3c 61 8e 41 bd c0 64 c4 3c
       0.020530645 0.012979024 -0.047254924 0.023973823
0000e0 28 28 8b 3d 0a c4 e2 3d dc 2d 18 3c f1 16 9b 3c
       0.067947686 0.11072548 0.0092882775 0.018931838
0000f0 cf b0 8b 3d fe 87 a1 3d d3 6e a6 3c 6e dd 5e 3d
       0.06820833 0.078872666 0.020316517 0.05441039
000100 f4 3f 30 bc 1d 46 05 bc e5 e4 cb 3a 93 e1 06 3c
       -0.010757435 -0.008134392 0.0015555887 0.008232492
000110 3b c1 fb 3a 29 c2 0d 3b 0b 19 f8 3b 85 d9 5e 3c
       0.0019207367 0.002163062 0.0075713447 0.013601665
000120 c0 6f f1 bb 7e 9c 6b bb 53 80 00 bc f0 30 0b 3a
       -0.007368058 -0.003595143 -0.007843095 0.00053097215
000130 a9 c0 61 3c 7b 8d cc 3b b5 40 f5 3b 79 5e 64 bc
       0.013778844 0.0062424517 0.0074845203 -0.01393854
000140 ca 8e 2d 3b 0f bd fc 3b ee 6d 04 3c e2 bf 07 b9
       0.0026482814 0.007712967 0.00808285 -0.00012946085
000150 cf 71 16 bc b8 03 14 bc 66 43 96 bb 00 88 ca bc
       -0.0091824075 -0.00903409 -0.0045856712 -0.024723053
000160 f7 18 1a 3c 0e d6 4e 3c 61 06 71 bb b2 7d 3c bb
       0.009405366 0.012624277 -0.0036777484 -0.0028761444
000170 db cc 4c 3c c9 9d 8d bc 89 d5 bf 3b f0 d3 97 3b
       0.012500013 -0.017287152 0.005854313 0.004633419
000180 69 f0 6c b8 1e c7 7f bc b4 ef 2d bc 0a fb 45 bb
       -5.6490684e-05 -0.015611438 -0.010616232 -0.0030209445
000190 79 c5 ae bc c7 52 97 3b cd 1f ac bb 69 7a 15 3c
       -0.021334397 0.004618022 -0.0052528144 0.009123423
0001a0 54 9e 8e 3b b3 81 50 3c 9c 85 c7 3b 9b 24 a3 3b
       0.0043523703 0.012726235 0.0060889255 0.004978729
0001b0 db c8 22 bb 53 58 4a bc d0 3d 18 ba b7 aa 88 3c
       -0.0024838957 -0.01235016 -0.00058075506 0.016682966
0001c0 bb e4 5b 3c f3 47 41 3a f0 e0 b4 3b ea 70 63 3b
       0.013421233 0.0007373087 0.0055199787 0.0034704753
0001d0 45 dd c0 bc f4 6d 48 bc 9d 6e be 3b b4 96 93 bc
       -0.02354301 -0.012233246 0.005811526 -0.018016197
0001e0 a8 2d 0d bc 50 80 dc bb 79 e1 ae bb bd ac 03 3a
       -0.008616842 -0.006729163 -0.005336937 0.00050229934
0001f0 5c 89 df 3b 1e 31 a9 ba 08 57 13 3c 8f 7c d6 bc
       0.0068217944 -0.0012908315 0.008992918 -0.026182441
000200 6e 69 d8 3c fb 22 d0 bb 62 0c 77 3d 66 54 21 bc
       0.02641746 -0.0063518262 0.060314544 -0.009846782
000210 2e 3d 3e bc c2 eb 84 bb 46 79 1a 3d e9 e8 ad 3c
       -0.011611266 -0.004056425 0.03771331 0.021229224
000220 f9 f4 1a 3d 73 92 89 3c 7f 14 ab 3c 7a 20 10 3b
       0.03783128 0.016793465 0.020883797 0.0021992014
000230 80 34 fb ba f7 90 84 bc b6 14 9d 3b 1b 5f 14 bc
       -0.0019165426 -0.016182406 0.0047937287 -0.009055878
000240 7a 6a 12 3c 57 3e ec 3c 31 a4 d9 bb 2c c6 05 3d
       0.008936519 0.02883832 -0.0066418876 0.032659695
000250 fd 53 c6 bc e0 f1 f5 3c 74 e1 af 3b 27 e6 86 3b
       -0.02420997 0.030022562 0.0053674523 0.0041167918
000260 74 1a 27 bc 37 2a be bd c4 6b aa 3c d0 98 21 bc
       -0.010199178 -0.092853956 0.02080334 -0.0098630935
000270 35 95 f6 bb cd 79 8c 3c 9e e1 7e 3c a9 78 fd bd
       -0.007525111 0.017147923 0.015556721 -0.1237653
000280 af a0 f9 3c 94 fb 07 3d 36 fe 9c bc 01 e7 74 3b
       0.030472128 0.033198908 -0.019164186 0.0037369134
000290 b2 c1 34 bc e0 34 1b 3d 43 54 ae 3c 60 a0 f1 bc
       -0.011032509 0.037892222 0.021280413 -0.029495418
0002a0 6f 7d 52 3d 38 28 72 3c a8 ac 07 bc 44 e6 93 3a
       0.051389154 0.014780097 -0.008280911 0.0011283834
0002b0 7b 60 48 bb 34 cc 57 3d b2 9d 29 3d d8 4f 38 3c
       -0.0030575085 0.052684978 0.041410156 0.011249505
0002c0 6b d2 58 bc 2e ad 0d 3d bd 89 0d b9 0b 16 36 3c
       -0.013233761 0.034588985 -0.0001349812 0.011113654
0002d0 54 13 3b 3b 03 67 cd 3a f0 7a 3c 3d 45 d8 19 bc
       0.0028545456 0.0015670959 0.04601568 -0.009389942
0002e0 7f 13 bf bc 28 3e b2 bd 1b 3c 9e 3b 43 2e 12 3c
       -0.023324726 -0.087032616 0.0048289425 0.0089221625
0002f0 b2 88 74 bd 24 ed b2 bc f5 99 98 bb f0 25 20 3c
       -0.059700675 -0.021841593 -0.004657025 0.00977467
000300 9c 66 64 bc 57 1e e1 bb c6 44 18 bc d4 c6 0b 3c
       -0.01394048 -0.006870072 -0.009293741 0.008531291
000310 e5 1f 5b 3b 8d ab 06 bc 2a d1 22 bc 25 eb f1 35
       0.0033435759 -0.008219612 -0.009937564 1.8024335e-06
000320 52 9b d5 3b c1 e4 cd ba 4f e1 0a 3c dc 1a f1 bb
       0.0065187598 -0.0015708433 0.008476569 -0.007357938
000330 d7 1d 97 bb 7e a0 13 3b 7d 20 10 bc e3 d0 18 bb
       -0.0046117115 0.002252608 -0.008796808 -0.0023317866
000340 65 e4 8e bc 73 cc c7 3b 24 6c 81 bc 27 9a a6 bb
       -0.017442891 0.0060973703 -0.015798636 -0.0050842944
000350 a2 c0 87 3b 83 42 97 bb ba 78 86 b8 3a d2 1c bb
       0.0041428367 -0.004616083 -6.412105e-05 -0.0023929016
000360 54 f5 24 3b 92 8a 28 bc d8 f6 48 bb ed 3f 01 3c
       0.002517064 -0.010286944 -0.0030664708 0.007888776
000370 f8 81 31 3c 20 03 96 ba 56 77 30 bb e0 12 84 ba
       0.01083421 -0.0011445023 -0.0026926599 -0.0010076426
000380 08 8e 85 bc c1 81 ea 3b fb d0 88 3a 4a 8a 47 39
       -0.016303077 0.007156581 0.0010438258 0.00019029636
000390 d8 bb 6b 3a 35 73 b7 bb 1d 83 b8 bb cf c7 0a 39
       0.00089925295 -0.0055984505 -0.0056308643 0.0001323514
0003a0 06 0f b3 bb 46 bf 89 bb e2 05 03 39 24 5f 5c b9
       -0.0054644374 -0.00420371 0.00012495325 -0.00021016278
0003b0 c0 a7 8f 3c 9f 19 8b 3c 42 59 5d bc 35 39 bb 3b
       0.017536044 0.01697999 -0.01351005 0.0057136067
0003c0 c1 9b 24 ba a7 91 a4 b9 95 33 47 3b db 2f 5a bc
       -0.00062793127 -0.00031389037 0.0030395736 -0.013317074
0003d0 a6 49 16 ba bd 55 b3 3b cb c1 cd ba 05 fa fb bb
       -0.00057330204 0.0054728673 -0.0015698014 -0.0076897168
0003e0 a2 cc 57 3c 3b bc 5d bc 78 85 bc b9 4f f0 22 ba
       0.013171347 -0.013533647 -0.00035957596 -0.00062156183
0003f0 16 54 06 bb 9f eb 0d bc 37 7b d4 3b 9d 6e 9e bb
       -0.0020496896 -0.0086621335 0.006484415 -0.0048349635

update_node_embedding_layer.0.message_layer.weight f4 [64, 128]
000000 b9 17 7f bc 44 d9 af 3b 1f 01 67 bc 8e 40 8a bb
       -0.015569621 0.0053664763 -0.014099388 -0.0042191213
000010 1a 80 92 bc a3 54 3a 3c 54 30 fd 3b b6 c4 de 3b
       -0.01788335 0.011372718 0.0077267084 0.006798352
000020 93 22 86 bb 29 73 9c bc c1 61 1b 3c 9c 5a 90 bc
       -0.004093477 -0.019097881 0.009483756 -0.01762133
000030 63 d3 88 bc 27 93 1a bc 3e 9c d9 3b 8a d6 0f 3b
       -0.01670236 -0.009434498 0.00664094 0.0021947944
000040 5a e5 4c bc 51 6b 73 bb 47 fc 6a 3a c7 de 09 3c
       -0.012505854 -0.0037142823 0.0008963984 0.008414931
000050 d9 f6 3f bc ec 77 ab bc f6 33 00 bc 2e 81 f8 bb
       -0.011716568 -0.020931207 -0.007824888 -0.007583759
000060 2b 0c b0 3c 79 ef 4a 3c 5f db 97 bb 48 51 85 bb
       0.021490177 0.012386196 -0.0046343054 -0.0040685274
000070 43 b7 c5 bb fe 60 73 bc 6e 15 0d bc 31 90 7e 3c
       -0.0060338094 -0.014854668 -0.008611066 0.015537308
000080 49 2e f7 ba d3 66 3a 3c 54 82 75 3b b0 ef a1 bb
       -0.0018858399 0.011377054 0.0037461715 -0.004941903
000090 e7 6a 52 bb c4 bb 96 bb 0d 5a 9c bc 80 ca 1b bc
       -0.0032107176 -0.00460002 -0.019085908 -0.009508729
0000a0 60 d9 b2 bb 70 34 9f 3b 6f 3e 82 bc f5 2a 3d bc
       -0.005458042 0.004858546 -0.015898911 -0.011545886
0000b0 23 16 74 3b 00 fd 1d 3c 06 9f 42 bc ee fe e4 b6
       0.003724464 0.009642839 -0.011878734 -6.824607e-06
0000c0 08 49 23 bc b4 4e 5c 3c f1 b3 db ba a3 03 b0 bb
       -0.0099661425 0.013446499 -0.0016762001 -0.0053715273
0000d0 48 31 41 3b 2e ca 9a 3b 16 c9 95 bc 0a f2 61 3c
       0.0029478837 0.0047238087 -0.018284362 0.013790617
0000e0 22 e4 ed bb f9 b9 bf bb 1b 26 17 bc 1c cc 88 ba
       -0.0072598616 -0.005851027 -0.009225394 -0.0010436806
0000f0 09 dd 28 3b eb 6e b7 3c 96 3b 02 3c 76 ee 1b bb
       0.0025766513 0.022391757 0.007948777 -0.0023793257
000100 70 09 ce bb 76 3f 1f bb 9e 23 37 3c bd 63 4a bc
       -0.006287746 -0.00242993 0.011177925 -0.012352881
000110 ed 77 70 b9 e5 4b 2d ba cb 7f 69 bc 2f 64 0f 3c
       -0.0002293286 -0.00066107354 -0.01425166 0.008751913
000120 8e 70 11 bc 23 e9 00 bb 82 34 a2 bb df e5 60 3c
       -0.008876933 -0.001967021 -0.004950107 0.013726681
000130 d4 80 8e bb 9e 2d a3 3b e3 42 e4 3a 6d 20 a7 3c
       -0.0043488536 0.004979803 0.0017414953 0.020401204
000140 9f 51 8d bb 2d d9 04 3a 8c 4a a5 ba d7 23 ac bb
       -0.0043127085 0.0005067762 -0.0012610718 -0.005253296
000150 b0 ce d8 bb e0 a5 a0 3b b4 59 0b bc 7c 0d 8a 3c
       -0.006616436 0.0049025863 -0.008505274 0.016852133
000160 b5 e9 3e 3b 0d ac 97 3a f7 2b 96 3b 29 b8 5e 3c
       0.0029131 0.0011571661 0.0045828777 0.013593712
000170 a6 a9 5d bc a1 53 64 bc a8 14 be bb f8 b5 a5 3c
       -0.013529217 -0.013935954 -0.0058008023 0.020228371
000180 56 0b 7a 3c b4 e2 97 bc ca 9d 62 3c 45 fb ac ba
       0.015261492 -0.018540718 0.013831565 -0.0013197443
000190 7b c8 7d 38 1e 3c 0b bb 49 70 17 bc ae 43 c8 3c
       6.0506612e-05 -0.002124555 -0.009243079 0.024446335
0001a0 f5 2f 1c 3b ec 91 33 bb c0 36 74 3b 42 57 97 3b
       0.0023832296 -0.0027400209 0.003726408 0.0046185562
0001b0 67 3f 41 bc dd 15 ac bc 1b dd ec 3b 10 c5 ba bb
       -0.011794901 -0.021006519 0.0072285063 -0.005699761
0001c0 91 9b c6 bb 69 95 72 3c 53 6f dc bb 37 b9 08 3c
       -0.0060610254 0.01480613 -0.006727138 0.00834494
0001d0 67 d9 19 3b 54 bb e5 3a 90 1c dd 3b 6b 37 39 bc
       0.002347553 0.0017527142 0.0067477897 -0.011304717
0001e0 bd f4 0a 3c 56 54 06 3c 46 01 00 bc 5c 40 5c bc
       0.008481202 0.008198818 -0.007812804 -0.013443079
0001f0 72 e3 38 bb cf f1 d2 3a 7d 7c fe 3b 18 56 6c bb
       -0.002821174 0.0016093793 0.007766305 -0.0036062058
000200 7b e9 8a bb 71 85 a4 bb b2 e1 66 bc 31 c2 f7 3b
       -0.004239259 -0.0050207903 -0.014091896 0.007560991
000210 ee af 9a bb d2 00 77 3c a0 c5 b2 3a be 70 91 bc
       -0.0047206795 0.015075879 0.0013639219 -0.017753955
000220 92 40 e9 3b da 2c 9c 3c 15 af ef 3b 53 db 1a ba
       0.007118293 0.019064356 0.0073145726 -0.00059073156
000230 bb 00 02 3c 7c c7 bc ba b7 0d 6d 3b 69 6c 29 3c
       0.0079347445 -0.0014402713 0.0036171505 0.010340788
000240 28 ca d4 bc 8f fd 28 3c c3 a8 37 3a 5f 86 31 3c
       -0.025975302 0.010314359 0.00070060435 0.010835259
000250 f8 9a e8 3b 93 17 01 3c af 7f 3d 3c 4c c9 c0 bb
       0.007098552 0.007879156 0.011566087 -0.0058833715
000260 e3 8d 0f bb a6 31 2d bc f0 d5 3b 3c 18 56 36 3c
       -0.002190464 -0.010570919 0.011464581 0.011128925
000270 33 fd 02 3c 15 9b 7a bc fd 93 3f 3c 41 eb ce bb
       0.007994938 -0.0152957635 0.011692998 -0.0063146655
000280 bd bc 71 ba 05 eb 71 3a 60 65 81 bb 35 4b 5a 3b
       -0.00092215446 0.0009228441 -0.0039488524 0.0033308987
000290 ef 16 33 bc b3 46 13 3b ce ce 6e 3c 02 a4 08 bc
       -0.010930761 0.002247256 0.014575673 -0.008339884
0002a0 0c 36 72 39 a6 d1 7a 3b 42 0a 0d 3c 2b 0a 72 bc
       0.00023099052 0.0038271933 0.008608403 -0.014772932
0002b0 d7 65 74 bb 72 14 e7 ba 45 ab 85 3c 6a 26 5d b8
       -0.0037292147 -0.0017629995 0.01631702 -5.2726282e-05
0002c0 aa a0 a5 bb e7 e5 61 ba eb 59 8d 3c 93 02 0c bc
       -0.005054553 -0.0008617327 0.01725479 -0.008545536
0002d0 db ca 32 3c d5 ff 54 bc 0e 08 78 3c c5 ad 62 3a
       0.010912622 -0.013000448 0.015138639 0.00086471095
0002e0 cb a5 21 bb 08 18 59 bc 65 60 62 3c 5a 9e 84 bc
       -0.002466547 -0.013250358 0.013816928 -0.01618879
0002f0 b0 00 33 3b 01 cd 8f 3b 5d e5 9f ba c0 bd 17 3b
       0.0027313642 0.004388452 -0.0012199093 0.0023153871
000300 02 ba 23 3b 7e de 04 ba d2 fd 58 bc f3 d5 ef bb
       0.0024982695 -0.00050685543 -0.013244109 -0.007319206
000310 df 20 b4 bb fc 13 18 3c 4a d8 05 3b 88 1e 12 bb
       -0.0054970826 0.009282108 0.0020423108 -0.002229603
000320 c4 da 66 ba 2d d1 06 3b 49 31 c6 39 00 8e 51 bc
       -0.00088064023 0.0020571456 0.00037802223 -0.012790203
000330 ac c1 5b 3c 7e 6f 87 3b 20 6a a3 bb a7 95 9f bb
       0.013412874 0.004133164 -0.0049870163 -0.004870135
000340 e8 20 96 bc c3 70 1c 3c 73 fc 32 bc bc de 7f bb
       -0.018326238 0.009548369 -0.010924446 -0.0039042672
000350 29 16 49 3a 34 57 4d 3c 21 0c 3c 3a 44 47 5f bc
       0.00076708436 0.012532998 0.0007173438 -0.013627831
000360 1c 04 0d bb a2 5f 97 b9 70 0a f3 ba 05 7c 13 bc
       -0.0021517342 -0.00028872216 -0.0018542539 -0.0090017365
000370 ee 68 1d 3c ff ac 6d 3b e1 8b b7 bb 03 c3 5d ba
       0.009607537 0.0036266444 -0.0056013917 -0.000845954
000380 4e e2 93 ba 12 46 d9 bb 85 fb 0a bc 0a a1 f1 b8
       -0.0011282654 -0.0066306675 -0.0084828185 -0.000115217714
000390 6a d6 2b bb 92 55 19 bb e5 42 03 bc 86 88 8d bc
       -0.002622033 -0.002339695 -0.008011554 -0.017277014
0003a0 73 8d 60 3b be 3b 64 bc 93 ef 99 3b b3 51 65 bc
       0.0034263998 -0.013930259 0.004697749 -0.013996529
0003b0 17 dc f5 bb da 16 0b 3b 15 71 97 bc 9e 71 3c bc
       -0.0075030434 0.0021223337 -0.018486539 -0.011501698
0003c0 10 36 be 3b 09 c3 37 3b e5 69 ca b9 a9 da 74 3c
       0.0058047846 0.0028039834 -0.0003860734 0.014944711
0003d0 37 d3 ed 3b 9c 36 4e 3c f2 97 5c 3c 64 75 9f bc
       0.007257845 0.012586262 0.013463961 -0.019465156
0003e0 da 54 1c bb 61 51 4f 3b 77 91 54 bc b2 07 2d 3c
       -0.0023854286 0.00316342 -0.012974135 0.010560917
0003f0 10 f1 fe bb a9 09 2d 3b 9e 41 8e 3c 9d d6 b9 bb
       -0.0077802017 0.0026403463 0.017365273 -0.005671336

update_node_embedding_layer.0.update_layer.weight f4 [64, 128]
000000 d7 05 f6 3b b1 16 ec 3b 35 f2 62 3a c8 21 a9 bb
       0.0075080204 0.0072048535 0.00086573075 -0.0051614977
000010 54 be f3 3b 42 27 44 bc 0d 7a b9 bb 8f ee 99 ba
       0.0074384604 -0.01197225 -0.0056603015 -0.001174407
000020 70 e8 da 3b 8f 7e 6c 3c 84 fb 3d bc 45 4d da ba
       0.0066805407 0.014434471 -0.0115956105 -0.0016655108
000030 04 2f a5 bc 22 46 2b ba b5 90 06 bb 46 b8 04 bc
       -0.02016402 -0.0006533583 -0.002053303 -0.008100575
000040 f0 c3 49 3c 2d 10 cc 39 24 b2 65 bc f1 8a 51 bb
       0.012314782 0.00038921964 -0.014019523 -0.0031973685
000050 3d 05 4a ba 6f 68 1f bc f3 67 17 bc 13 7e 8b bb
       -0.0007706469 -0.009729489 -0.009241092 -0.0042569726
000060 6c 0e 23 bc 01 64 24 ba c0 b3 45 bc 6e 0e 30 ba
       -0.009952169 -0.0006271005 -0.0120667815 -0.00067160174
000070 b9 48 f3 3a 75 d8 26 bc 53 8c 30 3c 5c 86 c9 bb
       0.0018561102 -0.010183443 0.010775643 -0.00615005
000080 89 f7 a5 bc 1d ad 09 bd 95 e6 10 bc 8f cc cd 3b
       -0.020259636 -0.03361236 -0.008844038 0.006280489
000090 35 d2 56 3c 01 96 0a 39 97 28 06 bc 9e d8 8c 3c
       0.013111641 0.00013216586 -0.008188388 0.017193135
0000a0 4d 73 29 3c c4 b0 8f bb fd d2 7e 38 ed 0b 0c bc
       0.010342431 -0.004385086 6.0754817e-05 -0.008547765
0000b0 e8 62 f1 bb 10 10 67 3c f0 4f c7 bc a5 87 9c 3b
       -0.007366527 0.014102951 -0.02433011 0.0047769123
0000c0 ee 6a 6f bc df cc 94 3b 9b 4f 91 bb 91 c7 11 bc
       -0.014612896 0.004541024 -0.0044345385 -0.008897678
0000d0 d6 43 31 bc a6 4d ee bb 52 93 95 bb 73 c5 a7 39
       -0.010819396 -0.00727244 -0.004564681 0.00031999833
0000e0 2b 17 e6 ba 53 63 53 bc 42 a4 a7 3b be 83 de bb
       -0.0017554512 -0.012902099 0.0051160166 -0.0067906072
0000f0 d4 e9 ff ba 4d c9 f3 bb 9c 8b a4 3c 8d 4b 6b 39
       -0.0019524642 -0.0074397684 0.020086102 0.00022439491
000100 cc ff 4b 3c 43 bd 80 3b bc 6b 12 3c ff 3b 5a 3b
       0.012451123 0.0039288118 0.008936819 0.003329992
000110 e9 b7 8b bb 70 5b a2 bb 60 af 52 3c 76 8c 67 bb
       -0.004263867 -0.004954748 0.0128591955 -0.0035331524
000120 d8 a3 d3 bb 0c f3 e4 3b b9 03 ef 3b 08 85 42 ba
       -0.0064587407 0.0069869813 0.007294145 -0.0007420336
000130 85 1d 85 3c ae 19 bd 3a ce fb ce bb 7d e7 67 3b
       0.016249428 0.0014427209 -0.0063166386 0.003538578
000140 bb c9 8a 3c ba 3c 28 bc 33 01 e6 3b 42 10 9f 3a
       0.016941896 -0.010268385 0.007019186 0.0012135583
000150 9e 3a 20 3c 8f 82 34 bc d1 ff 10 bc 3a 51 1b 3b
       0.0097796 -0.011017456 -0.008850054 0.0023699538
000160 35 c6 1e bc e8 52 47 bc 5c ce ab 3c 3e db 7a 3c
       -0.009690811 -0.0121657625 0.020972423 0.0153110605
000170 e1 76 8c 3a d7 d9 88 3c 21 c3 37 bb 97 fe 5e bb
       0.0010716581 0.016705437 -0.002803989 -0.003402626
000180 fd 57 5b 3b de cd 48 3c 8a 2a a0 3a de ef 2a bc
       0.0033469193 0.012256114 0.0012219709 -0.010433165
000190 ad 25 80 bc da 09 ad bb e8 ba 3b bc 0d 81 a8 bb
       -0.015642965 -0.0052807154 -0.011458136 -0.005142337
0001a0 17 24 4c bc a2 66 7b 3c a3 ee 78 bc c3 fd 29 bc
       -0.012459776 0.015344294 -0.015193614 -0.010375443
0001b0 43 8e c7 ba 25 c5 de bc 4a 6d 9a bc 9f d9 c0 bb
       -0.0015224892 -0.027193615 -0.018850941 -0.0058853175
0001c0 c5 6c 78 bb 23 6a 31 3b 7b a8 b7 bb 64 1b 16 bc
       -0.0037906629 0.002707132 -0.0056048012 -0.009161804
0001d0 c0 43 18 bc c5 d8 41 bc f8 82 20 bc a9 76 8a 3b
       -0.009293497 -0.011831467 -0.00979685 0.004225571
0001e0 8b 9f 10 bb a9 3d ba 3b bb 34 d2 3c 09 9b bd bc
       -0.0022067751 0.00568362 0.02565991 -0.023145216
0001f0 94 c8 e2 bb 15 8d 5d 3b 19 62 22 bb 13 00 76 3c
       -0.0069208834 0.0033806015 -0.002477771 0.015014666
000200 af 54 00 3d 4b 61 ab 3c 93 18 18 bc a2 5a 11 3a
       0.03133076 0.020920416 -0.009283203 0.00055448164
000210 a5 df ad bb 51 fe ae bb 9b 02 07 bd 2c d1 da 3b
       -0.0053062015 -0.0053403755 -0.03296147 0.0066777673
000220 01 32 29 3d 78 4c 67 bc 47 83 ff 3b d3 5e 84 3c
       0.041307453 -0.014117353 0.007797632 0.016158497
000230 cf a6 a1 bc fa 6c 8e 3c 03 f8 02 3d 17 36 90 bd
       -0.01973286 0.017385948 0.031974804 -0.07041567
000240 2d 6d f7 3c 82 ee 8c bb ee f7 25 3d f2 9b 22 3c
       0.030203426 -0.0043008933 0.040519647 0.009924876
000250 1a 34 d4 ba 23 36 17 3d 0f 8a 6a 3c 5b 04 2a 3d
       -0.0016189844 0.036916863 0.014315142 0.04150806
000260 33 ce c1 3b 5c 8c 2f bc c4 e4 6b 3c ec 7d f5 3b
       0.0059144734 -0.010714617 0.014397804 0.0074918177
000270 43 72 93 bc 92 7a c8 3c 53 54 9c 3d 58 ff b3 3c
       -0.01799882 0.024472509 0.07633271 0.021972343
000280 69 6d 51 bc ec 0b f0 bd c2 d8 ce bc b1 52 84 3c
       -0.012782433 -0.11721024 -0.025249843 0.016152712
000290 4f 9a 34 3d 2e f7 56 3d ca cd 6f 3d 88 a7 f6 bc
       0.044092473 0.052481823 0.058545865 -0.030109182
0002a0 ed d5 a0 3c 95 f3 83 39 8d 38 32 3d e7 48 b0 3c
       0.019633258 0.0002516775 0.043510962 0.021519138
0002b0 39 2f 28 3b 41 6d c3 bb d4 13 e6 bc 56 b8 12 3c
       0.0025662913 -0.005963952 -0.028085627 0.008955082
0002c0 e9 e2 e8 bc 88 e4 34 3d ea 9b d2 bc cb e9 8f bd
       -0.028428512 0.044163257 -0.025709111 -0.07027014
0002d0 c8 83 90 3d 05 40 ea 3c fa b6 bb 3c db dd 9e bc
       0.07056385 0.02859498 0.022914398 -0.019392898
0002e0 28 2f 53 bc f2 d8 09 3d 73 90 c5 3b b5 4c 98 3c
       -0.012889661 0.03365416 0.0060291826 0.018591264
0002f0 de 1b a3 bc 76 20 1c 3d 35 f6 5e 3d 32 7e 55 3c
       -0.019910749 0.038116895 0.05443402 0.013030576
000300 42 5d ab bb 0f cb 1c 3c 10 91 ce 3c 21 ba 1e 3a
       -0.005229623 0.009569897 0.025215656 0.0006054957
000310 d0 37 ec bc 51 97 07 bc b1 34 33 3b d7 e5 90 3c
       -0.028835207 -0.008275823 0.002734464 0.017687721
000320 dc 39 83 3c 41 43 85 bb 22 4d 45 3c 34 eb 3c ba
       0.0160188 -0.004066855 0.012042316 -0.0007206679
000330 ac 0e 1c bc 38 35 46 3c ac 56 33 3c 85 09 d1 bb
       -0.009524982 0.012097649 0.010945957 -0.0063793086
000340 6b 35 ba bc 7b e5 74 3b 20 ab 95 bc d6 e1 19 b9
       -0.02273055 0.0037368226 -0.018270075 -0.00014675347
000350 dd 61 0c 3c 13 ad 7d 3b 1d 1d 09 3d 3a 59 e6 bb
       0.008568254 0.0038707897 0.03347503 -0.0070296796
000360 9c 0c bd 3c 98 c1 8f bc 97 a0 6c 3b 45 14 ce 3a
       0.023077302 -0.017548367 0.0036106461 0.0015722594
000370 b8 e3 fe 3b 8b 10 e9 bb 97 23 93 bc 29 8c 3d 3c
       0.007778611 -0.007112568 -0.017961306 0.011569061
000380 bf 2a e3 3c d2 7e da bb 17 d0 d7 bc 28 09 2c bc
       0.027730344 -0.00666795 -0.026344342 -0.01050023
000390 cc 00 f1 b9 d2 fe 7c 3c b5 40 3c 3b 67 07 0e 3d
       -0.00045967696 0.015441613 0.0028725092 0.03467503
0003a0 3b 07 06 3c b2 48 a0 bb ed e4 d3 3c 33 19 58 3c
       0.008180435 -0.0048914785 0.025865996 0.013189602
0003b0 f8 53 0c bd 91 09 ed bc f3 ad 3a 3c b4 de 07 3c
       -0.034259766 -0.028935226 0.011394012 0.008292843
0003c0 73 a3 8a 3a 26 64 94 bc fd fa 26 bd ff f9 28 bd
       0.0010577276 -0.01811416 -0.040766705 -0.04125404
0003d0 c8 da 83 3c a9 55 9c 3b b5 c7 9c 3b 47 af 87 3b
       0.016095534 0.0047709537 0.004784549 0.0041407677
0003e0 9e e2 4d 3c 4a c6 5c 3c 9c f2 5c bc d3 17 03 3c
       0.012566237 0.01347501 -0.013485577 0.008001286
0003f0 89 51 ea bb f1 bd 33 bc a9 d4 c2 3b 7f 45 0d bc
       -0.007150833 -0.0109705785 0.005945761 -0.008622526

update_node_embedding_layer.1.message_layer.weight f4 [64, 128]
000000 f7 d5 20 bb ac b9 89 bc f2 32 90 3c 30 f0 08 3e
       -0.0024541595 -0.016812168 0.017602418 0.13372874
000010 21 79 98 3b 19 5c 03 3b f5 35 ac bb de 00 3d bc
       0.0046531116 0.0020043908 -0.0052554556 -0.011535851
000020 66 b9 b8 bb 5d 57 14 3b 12 a8 90 bc 27 48 56 bc
       -0.0056373356 0.002263508 -0.017658267 -0.013078726
000030 b0 6a 00 bd f1 cf 51 bc 00 15 7a 3b 22 e7 42 3d
       -0.031351745 -0.012805925 0.003815949 0.047583707
000040 b2 4f 14 3e 77 03 27 bc c5 7f 01 3e 89 82 60 bc
       0.14483526 -0.010193697 0.12646396 -0.013702997
000050 31 02 90 3d 50 78 06 bc a9 ad 99 bc 82 37 f4 bc
       0.07031668 -0.008207396 -0.018759565 -0.029811624
000060 3c bd 65 bc 0c 1a 81 3b 7f 9b 03 bb be fb 90 bc
       -0.014022168 0.0039398726 -0.0020081697 -0.017698165
000070 90 9e 73 3c fd c9 52 3d af 23 7b 3c 3e 8b 35 3c
       0.014869347 0.051462162 0.015328332 0.011080561
000080 00 91 8a 3d f3 05 83 bc fb 23 2b 3b f4 79 ba 3d
       0.06765938 -0.015994048 0.0026113975 0.09105292
000090 c8 9d 85 3b d1 20 a1 3d 40 4f 59 3b e3 c3 8f 3d
       0.004077647 0.07867587 0.003315881 0.07019784
0000a0 cb d5 38 bc ef 48 ea 3d bb b5 1c 3e a9 aa ba bc
       -0.011281441 0.11439692 0.153037 -0.022786455
0000b0 cf 12 b3 bc 4d e3 91 bc 94 10 41 ba 93 15 39 3d
       -0.021859555 -0.01780858 -0.0007364836 0.04518659
0000c0 e5 06 4d bc 80 8b 1b 3e b2 e7 99 bc db 84 0e bb
       -0.012513851 0.15189934 -0.018787239 -0.0021746668
0000d0 3a be 90 3b e9 ec a4 bb e9 b5 00 3e 02 c2 3f 3c
       0.004417208 -0.0050331247 0.12569393 0.01170397
0000e0 d2 1b 7c 3d d3 a5 01 3d 94 bb 60 bc 4c 2f 33 bc
       0.06154997 0.031652283 -0.013716597 -0.010936569
0000f0 0d a5 13 3c 35 a4 e4 bb cc 0d 52 bc be 33 43 bb
       0.009011519 -0.006977583 -0.012820672 -0.002978548
000100 c3 3c d5 3c c1 7d 9a b9 a2 4d 82 bb fe 9e cf bb
       0.02602995 -0.00029466863 -0.0039765397 -0.006336092
000110 11 81 10 3c a1 57 b2 ba 43 55 74 bc 1a 00 fb bc
       0.008819834 -0.0013606438 -0.014912906 -0.030639697
000120 d7 1e 5c 3d dc 83 84 3c 57 31 6f 3d ad 2e d1 3c
       0.05374035 0.016176157 0.058396664 0.025534952
000130 6f 4b 39 3b 7d be 1d 3b 70 10 38 bc 76 4e 0b 3c
       0.0028273722 0.0024069839 -0.011234388 0.008502593
000140 fb 88 cc 3b fb 2c 8d 3c dd aa 99 bc f4 1b 37 3b
       0.0062419153 0.017233362 -0.018758232 0.0027940245
000150 e0 13 83 bb 54 44 0a bc 4e af 09 3d 78 e9 d3 3c
       -0.004000172 -0.008439142 0.03361445 0.025868163
000160 52 68 0f 3d 03 9d 3e 3c 22 be 9e 3b 82 3a c9 bb
       0.035011597 0.011634114 0.004844443 -0.006141008
000170 77 d4 8e bc f0 e4 38 3d 2a 36 ed 3c 6c 22 77 3c
       -0.017435296 0.045140207 0.028956492 0.01508389
000180 93 ec 46 bb 81 48 02 3d 28 fd 37 3d 10 56 8d bb
       -0.0030353412 0.031807426 0.044919163 -0.004313238
000190 86 fe 07 ba c1 54 b4 bc cb 37 2f bc 6b 71 dc 3c
       -0.0005187768 -0.02201307 -0.010694454 0.02690955
0001a0 da 78 a1 3c 9e c0 ed 3c 2b 02 f2 3c c6 3d 20 bc
       0.019710947 0.029022511 0.02954205 -0.009780353
0001b0 67 b6 ce 3c 9c 7a 11 3c 89 b5 16 3d 0d af 93 3c
       0.02523346 0.00887933 0.03679422 0.018027807
0001c0 02 4f 84 3d 38 fc 00 3d 41 1a 68 3b 10 a2 c7 bb
       0.06460382 0.031490535 0.003541604 -0.0060923174
0001d0 8c 7a 97 3c 6f 00 26 3c 53 38 46 3d a2 99 f0 bb
       0.018491052 0.010131939 0.04839356 -0.007342533
0001e0 ec a1 84 3d 7e 39 9e bb 4e 0a 1c 3b fb d0 0a 3d
       0.06476197 -0.004828631 0.0023809853 0.033890706
0001f0 e5 ce a4 3c 2c e4 fc bb 59 64 0f 3d 12 bd ee bb
       0.020118186 -0.00771763 0.03500781 -0.0072857225
000200 9e 80 78 3a 94 d7 61 3d 39 e9 00 bc 08 b9 13 be
       0.00094796147 0.055137232 -0.007868105 -0.14426053
000210 5f a1 36 3d dc 31 ba 3b 43 6c 4a 3d b8 20 6f 3d
       0.04458749 0.005682213 0.049419653 0.058380812
000220 05 f6 87 3d d6 f9 ab 3a c8 4c 7f 3d cc 40 80 3d
       0.066387214 0.0013120722 0.062329084 0.06262359
000230 aa 4e 99 3d 72 26 40 3d 46 fb 98 bb 10 fb f8 bd
       0.07485707 0.046911664 -0.004668626 -0.12157261
000240 c3 25 af bd bd 21 25 bc 6d c0 f7 bd 78 1f 1e 3d
       -0.08552124 -0.010078845 -0.12097249 0.03860423
000250 e2 66 ef bd 45 fe 28 3d 37 c3 59 3d 91 32 49 3d
       -0.11689545 0.041258115 0.053164687 0.04912049
000260 08 97 74 3d fc 35 7f 3c e5 7c 31 b9 b4 e3 37 3d
       0.059714347 0.015576836 -0.00016926562 0.04489489
000270 09 ad 22 3b e3 68 cd bd 33 31 c5 bd 20 0f 26 3b
       0.0024822375 -0.10029771 -0.09628525 0.0025338605
000280 e1 27 00 be 3c df fa ba d2 ad 8f 3d d7 f0 d8 bd
       -0.12515213 -0.0019140015 0.070155755 -0.105928116
000290 31 3d 2a 3c d4 b0 d8 bd f0 79 86 3d 43 c8 d2 bd
       0.010390566 -0.10580602 0.065662265 -0.10292103
0002a0 ce 7e 94 3d 26 ce a1 bd 5d f2 93 bd 89 3e 82 bb
       0.072507486 -0.07900648 -0.072239615 -0.00397474
0002b0 c6 73 4f bc fd d8 9d bb e3 06 5e bd 5a 1b d6 bd
       -0.01266188 -0.004817127 -0.054205786 -0.10454436
0002c0 43 f4 5e 3d f7 4e 9c bd 6e ad 84 3d e3 2f 88 bc
       0.054432165 -0.07632249 0.064783916 -0.016624397
0002d0 2d ef 39 3d 5e 5c 49 bc d9 30 e4 bd 6b 32 95 bd
       0.04539411 -0.012290088 -0.111421295 -0.07285007
0002e0 cc a1 c7 bd a5 ba e2 bd fb e7 ab 3d 34 e0 86 3d
       -0.09747657 -0.11070756 0.08393856 0.06585732
0002f0 c1 4a ad bc 06 da 52 bc 28 46 50 3d 0d 3e a8 3b
       -0.02115381 -0.012869364 0.050848156 0.00513435
000300 52 ab 9f bc 5d 02 47 3a 46 55 4a 3d 33 1c fb 3b
       -0.019490872 0.00075916 0.04939773 0.0076632737
000310 d9 e6 ef bc 64 37 23 bc 28 ab 9c 3c b1 1c a4 3d
       -0.029284881 -0.009961937 0.019124582 0.08013285
000320 d5 63 2e bd 8f ee 0e bd b6 e3 bd bb 21 0a ab bc
       -0.042575676 -0.034895476 -0.0057949675 -0.020878853
000330 b4 80 4c 3a 6e c9 72 3d c2 04 30 3c 83 0b 35 bc
       0.00078011607 0.05927413 0.010743322 -0.011050108
000340 81 71 92 bb 26 83 eb bc ed 3d 41 bc c7 78 cf 3b
       -0.004469097 -0.02874906 -0.011794549 0.0063315365
000350 bd c3 f5 3b 96 fb 96 3d b9 b5 c4 bc 6b e5 72 bc
       0.0075001405 0.07372205 -0.024012433 -0.014825205
000360 ce 81 76 bd b7 d9 5e ba 0d bf fd bd cd d8 7e bd
       -0.060182385 -0.000850107 -0.12389956 -0.062218476
000370 0d c1 12 bc f4 94 8a bc 42 dc f1 bc 55 c8 d0 ba
       -0.00895716 -0.01691673 -0.029523972 -0.0015928844
000380 92 fb 0a be 00 f9 73 bd 35 27 06 3b 31 14 06 3c
       -0.13572529 -0.059563637 0.0020470147 0.008183525
000390 d8 31 28 3c 37 e6 29 bc 59 bd 8a bd 02 29 1c bd
       0.01026579 -0.010369829 -0.067743964 -0.038125046
0003a0 19 69 38 bd b9 5d eb bc 1d d7 06 3c 05 59 34 3b
       -0.045022104 -0.028731214 0.008229998 0.002751888
0003b0 b9 8f 0a bd bc 6a a4 3c 8a 9f 22 bc 50 77 40 bd
       -0.03382847 0.020070426 -0.009925732 -0.046988785
0003c0 0e 52 90 3c fd b9 8c 3c fb 1a 51 3c aa 1f 8f 3c
       0.017617252 0.01717853 0.01276278 0.017471153
0003d0 19 1f ff 3c 35 27 f8 bb 23 ba ad bd e0 21 2a 3b
       0.031142758 -0.007573033 -0.084827684 0.0025960132
0003e0 77 42 33 3d de 67 c9 bb c6 f2 21 3c 0d 13 eb bc
       0.043764558 -0.006146415 0.009884542 -0.028695608
0003f0 cf c2 67 bd 12 d3 de 3b 61 80 90 bd 7c 3b a0 bd
       -0.05658227 0.006800064 -0.07055736 -0.07823846
