ER_200spin/eco/network/network9600000.pth (torch, 238273 bytes, 11 tensors)

node_init_embedding_layer.0.weight f4 [64, 7]
00000000: 31ef 1c3d 7395 85be ca4f b1be 660d 43bd
00000010: 6277 57ba b118 23bb 9947 883d 840d 3a3c
00000020: c85e 34be 1875 b5bc f03a 9d3d eb36 dcbd
00000030: 7d29 bb3d cf55 1a3d c943 c73c b9fb e23e
00000040: 69b0 9ebc 7e94 24bd 4e0f 53b9 955a cbbc
00000050: 8f21 113d 6c8a 3ebd f7e3 f13e e1b7 c53c
00000060: e8a0 333d 5e24 243b cf8d 9e3c 0575 3e3d
00000070: b081 c9bb 437c 7fbb 4385 21bc 81e5 35bc
00000080: 2041 31bc a6b1 77bb 6c62 79bc 95ae 35bc
00000090: 71ad 5abb e0d2 09bb e315 2fbb b40b 59bc
000000a0: 36b4 86bc e5f8 b2bb 0889 163d a04c 063f
000000b0: 7c76 2bbb bf6e c3bd 6c81 96b9 e028 5abd
000000c0: d5d1 de3b 19d4 1b3c 3b0d 5bbe dae3 30bf
000000d0: d51c 8b3e 29d4 2e3b 6172 b13d 1b49 4f3d
000000e0: cbb9 7c3d a287 b8be d6f2 b73d 4a2a 4b3e
000000f0: 1ecf 71ba 2ecc 543d 1aad 443d c8f5 363d
00000100: 551c 033f 30a5 cc3c 4796 0d3d 8a25 0aba
00000110: faf1 bcbb 0b56 07bd e51e 06bd aff5 d43e
00000120: 125e 8c3d 9c7b f63d 0445 11bb 8335 cb3c
00000130: 97ef 303c e023 17bd 82de b63e 9f05 2dbe
00000140: d4b3 4c3c cdc3 5b3b 63af 9fba 4e8c 98be
00000150: 7e8b 3c3d 428a 0a3f afc0 58bb 674f 8cbd
00000160: fc37 9bb9 6bcc b93c ac8a 523c 4d13 173d
00000170: 6de1 bfbe 7ee1 01bd 6543 853d 6275 f0ba
00000180: 47aa d0bc de14 493c e3b4 403d dd73 a7be
00000190: 1e90 aabc 1bd6 f93d 5bfe d03a b788 ad39
000001a0: af71 fd3c 458e 313c ce8c 383d a489 34be
000001b0: 0162 cd3d 5010 a239 d67b c03c 9845 74be
000001c0: a9ee 7b3d 9ee1 4abe 9d91 14be 2b51 dd3d
000001d0: 9c71 09bd 62dd 9b3d 68ba 93bd 68bb 93bd
000001e0: 305b da3e efe2 3e3d f43d 9b3c c159 ad3a
000001f0: 9457 523d d14a 413d c3a8 6a3d 7a62 f0be
00000200: ccd5 00bc e152 043e f686 0d3c 158b 883b
00000210: 1579 673d f36c a1bd 9cd5 d93e d0ac 953d
00000220: 289f d63d 3f1e 05bb 1d3c e23c ae91 623c
00000230: 4b05 2c3d 265f 083f db1f ed3c 1d2d cd38
00000240: 2178 01b8 0f2b 883b d07f b4bc 4f28 623d
00000250: 4f73 e6be b9ac d83c 9ed4 163e 693f 8e3a
00000260: 21dd 833c baaf 413d f465 ab3c 3ffe 38be
00000270: 3af1 c13d 6137 51bc 9f77 44bd db9b be3d
00000280: 862b 20bd 6efb 3cbc d196 65be 5a65 5b3e
00000290: 1e90 d63d 941f 82ba 0f85 3c3d e60a bd3d
000002a0: 32e4 3a3d a0bb 87be 0859 a53d e4e1 e43e
000002b0: c7ee 9c3b 3bac c63d dfc6 e0bb 6b65 a6bd
000002c0: 7057 cf3e 5dcc 853d 83e2 433d c9f6 663a
000002d0: 38d7 1c3d b73d 08bd 6493 653d de7c 0d3f
000002e0: 5c94 c63c c3bb 043d bf52 f2b9 f7ee fd3c
000002f0: 84cb 1abc d50d 02bb 0a30 4a3b 6ca2 8f3a
00000300: 5b8f 1abc cb82 b7bb 4bda 8ebb 61bf 28bc
00000310: b761 293d 005c f23e 95d0 db3c 2716 cd3b
00000320: 45ee 3ab9 7772 e2b9 22a4 09bd adc2 6c3d
00000330: fc6d e3be f1e4 953b cfc4 f53d b53e 8a3b
00000340: ca4a 3c3d 3ca9 9f3c 0e5d 023d 36f6 56be
00000350: 8ce5 72bc 69e5 45be 9f3f 65bb da1e ed3d
00000360: 64f2 b9bc eaa2 7dbd 40b0 9cbe ed38 e53c
00000370: 33d0 303e 4361 2bbc fa6d da3c f1a1 3f3d
00000380: a721 21bb 9664 273c da2e 80bb 5c9d 91bc
00000390: b8ed 82bb 4624 08bc c987 1abb 2d06 fd3b
000003a0: 0df5 123e 5584 c3be 8c24 4c3b f2ce 823b
000003b0: d115 2a3c b833 dbbe 22da e23c e83a f03e
000003c0: f565 f23a 5594 94bc 761c 5d3b 7f4f 1c3d
000003d0: adf9 7e3c 4756 44bb 9068 923b 1ac5 35bc
000003e0: 0f6e 3ebc 1e4a 36bc 17e0 cebb f7b7 d7ba
000003f0: 73e0 743b 6d5d 2dbe 2362 87be 3f5b ef3d
0.03831405 -0.26090583 -0.34631187 -0.0476202 -0.00082193885 -0.0024886543 0.06654281 0.011355761
-0.17614281 -0.022150561 0.07677257 -0.10752662 0.09138773 0.03767949 0.024324315 0.44332674
-0.019371228 -0.040180676 -0.0002012823 -0.024823466 0.035432395 -0.046518728 0.47244236 0.024135532
0.043854624 0.002504609 0.019354729 0.046498317 -0.006149493 -0.0038983978 -0.009858432 -0.011102081
-0.01081875 -0.0037795096 -0.0152212195 -0.011088987 -0.003336754 -0.0021030232 -0.0026715926 -0.013247419
-0.016443353 -0.0054617994 0.036751777 0.5246067 -0.0026163151 -0.095426075 -0.00028706656 -0.053261638
0.0067999163 0.009511017 -0.21391766 -0.69097674 0.27170435 0.002667675 0.08664394 0.05060683
0.061700623 -0.3604098 0.08981864 0.19840351 -0.0009224283 0.051952533 0.048016645 0.04466799
0.51215106 0.024981111 0.034567144 -0.0005269876 -0.0057661505 -0.03304104 -0.032744307 0.41593692
0.0685388 0.12035295 -0.002216638 0.02480579 0.01079931 -0.036899447 0.35716635 -0.16896676
0.012494046 0.0033533454 -0.0012183007 -0.29794544 0.046031468 0.54117215 -0.0033073833 -0.06851082
-0.00029605615 0.022680482 0.012850445 0.03688364 -0.37476674 -0.031709187 0.06506995 -0.001834553
-0.02547182 0.0122730415 0.047047507 -0.32705584 -0.020820674 0.121990405 0.0015944944 0.00033098992
0.030937998 0.010837142 0.045056157 -0.1763063 0.100284584 0.00030911202 0.02349655 -0.23854673
0.0615069 -0.19812629 -0.14508672 0.10806497 -0.033555612 0.07610585 -0.072132885 -0.07213479
0.42647696 0.04660314 0.01895044 0.0013225601 0.051353052 0.04719049 0.05728985 -0.46950132
-0.007863473 0.12922241 0.008638134 0.0041669705 0.056511957 -0.078821085 0.42545784 0.07308352
0.104795754 -0.0020312218 0.027616555 0.013828678 0.041997235 0.53270185 0.028945854 9.783565e-05
-3.0867875e-05 0.0041555236 -0.022033602 0.055214223 -0.45009848 0.026449548 0.14729545 0.0010852638
0.016096653 0.047286727 0.020922638 -0.18065737 0.094698384 -0.012769551 -0.047965642 0.09307071
-0.039104007 -0.011534555 -0.22420813 0.21425381 0.10476707 -0.0009927624 0.046025332 0.09230594
0.04562778 -0.26510334 0.08073622 0.4470359 0.0047892067 0.09700819 -0.006859645 -0.08124813
0.40496397 0.0653312 0.04782344 0.00088105776 0.038291186 -0.03326198 0.056048766 0.5526866
0.024240665 0.032405626 -0.00046219488 0.030997736 -0.009447936 -0.001984467 0.0030851387 0.001095844
-0.009433593 -0.0056003085 -0.0043595186 -0.010299535 0.041352954 0.47335815 0.026832858 0.0062587443
-0.00017827105 -0.00043191362 -0.033603795 0.057802845 -0.4441985 0.004574411 0.12000429 0.004218901
0.045969762 0.019489877 0.031827025 -0.2099236 -0.014825236 -0.19325794 -0.0034980548 0.1157815
-0.022698589 -0.061922945 -0.30603218 0.027981246 0.17266922 -0.010460201 0.026663769 0.0467853
-0.0024586709 0.010216853 -0.003911835 -0.01777523 -0.0039956234 -0.0083094295 -0.002357947 0.0077216835
0.14351292 -0.381869 0.0031149713 0.003991955 0.010381178 -0.42812896 0.027691904 0.46919942
0.001849352 -0.018137136 0.0033738888 0.03816175 0.015562457 -0.0029958652 0.004468031 -0.011094356
-0.01162292 -0.011126069 -0.0063133347 -0.0016458024 0.0037365227 -0.1693017 -0.2644206 0.11687326

edge_embedding_layer.edge_embedding_NN.weight f4 [63, 8]
00000000: f2c6 bf3c 270a bc3c fc9e b33e b026 71bd
00000010: eb56 50bd df83 9abd 48c0 2fbb 5f32 90bd
00000020: da91 22bc 8489 30bc a767 8dbb 0b1a 16bb
00000030: d5af 123c 26f9 b5bc 19e0 79bc b872 043c
00000040: e5c9 c43c 676f 803c a735 ab3e ba6d 7ebd
00000050: 7be8 9ebc 4963 54bc a1b0 033b 5840 63bc
00000060: 827e 563d d43a 303d b68a a93e b3b1 38be
00000070: ec53 8bbd 96c4 a93a 23e2 493d 210c 37bd
00000080: 3357 76bc a1de dcbb e91d 7c3c bd1a 71bc
00000090: 8ffc 20bc db78 c7ba b9c1 b5ba 58a0 08bb
000000a0: bb87 2abc e96b 1aba 4afb 213b 5c68 89bb
000000b0: 7669 373b 04b4 5ebc bdaf 3d3c 3d4c 303b
000000c0: ebc1 86bb 289f 77bd f779 45be 54ca 043e
000000d0: a48c 3dbc 4b73 acbc bac1 01be 068e 853d
000000e0: 514d 5fbb 4c81 1d3b e9c1 83be daa4 373e
000000f0: 3636 ed3d 91f0 963c 4eba 03bc 3c8e 023e
00000100: 1a4b eb3a 3922 31be cfea 7cbe 7f8f f23d
00000110: 93fc e23d 9faf 7f3b f14e 79ba 42dc b93d
00000120: 3ab5 a138 68c1 b0bd 0c54 6abe 7136 053e
00000130: 0b26 0d3d 2802 c33c 634c 53bd 96cf e43d
00000140: 00e3 c8bc 9151 acbb 39f6 69be 3d40 183e
00000150: 59bc e43d e62c 3a3c a8da 963a 9f62 ce3d
00000160: 2187 07ba 46eb 95ba 9f19 cfba e9d8 3ebc
00000170: e960 09bc 20b2 9bbc 9efc adbc 1353 4dbb
00000180: bbde 40bc ff85 d3bb 4293 99bc de41 0c3c
00000190: 8e6b 3bbb c099 57bc 5c61 c13a 7b91 5dbb
000001a0: cc1a 583d d831 a43c 2c95 a23e 9998 09be
000001b0: f940 c0bc 798a b939 e76d 483d e2a7 06be
000001c0: 3db3 69bc 715f 80bd cf7b 66be 9c31 033e
000001d0: 70e3 453d 6a41 753c 430a acbe c5d1 d03d
000001e0: 1213 883d 9eb5 483d df18 a43e b01f 3cbe
000001f0: 675c e6bd 8e59 cc3a d66e 673d d8e2 9fbd
00000200: b25f 9abc 49e2 11bd 0a09 60be 094c 193e
00000210: 6209 e73d a47b cbbb a75a b83c 5820 9a3d
00000220: 0a13 283d db4e 283c 0009 b23e 14fa b6bd
00000230: fd06 113d 5148 d5b9 349d d93c e901 88bd
00000240: da06 4c3d 4599 a3b9 f3ac a93e 794b 06be
00000250: b349 1ebc 25cd be3b 6505 0b3d 6a5a 0dbe
00000260: d7ae 54bc 08d7 7bbd 5011 46be 4730 023e
00000270: b8a2 253e 4ab4 94bb 6f9c 1fbd 3437 8d3d
00000280: d841 bdba 2954 20bc 6d0c 1d3b 3ded a93a
00000290: cd6a a4ba 8551 27b9 6f54 e7bb 4d3b 16bc
000002a0: 5535 45bc a5a7 02bd 3a57 63be 8305 0a3e
000002b0: b37c 0e3e 095e b0bb 765b 323c b838 973d
000002c0: 6026 483d 6d01 3f3d 4244 aa3e dde6 51be
000002d0: e19f 3abd c196 82bb e05e 4e3d f6a9 b6bc
000002e0: e074 c2ba 4b84 8eba a0ed d139 2616 003b
000002f0: 5731 92bc b9db b0bb de23 34bb 5572 7cbb
00000300: 76c6 8e3d 0e01 183d 1005 a73e e77b 5fbe
00000310: 85c5 00be 9e16 093c 050a 143d e5dc 98bd
00000320: 56eb fa3c eb41 d1ba 5b10 ae3e 54ba aabe
00000330: 7ff7 f9bc 2617 6e3c 7a57 c33c 81d8 a9be
00000340: 22f9 e7bb 1c88 41bc 6822 61be 5677 253e
00000350: 383c e53c ad31 013c 3ad1 cebe 1883 df3d
00000360: 270d 6a3d c481 873c 54f0 a33e c0db 28be
00000370: 301b 293d f2da 343a fd1a 223d 5b0e 8ebd
00000380: a2ce 72bc 5de9 72bc f821 88bc e536 7abc
00000390: bc7f f9bb ced3 45bc 0618 54bc 4a6b 2cbc
000003a0: 099f e2bb fa3a 95bd 78c5 4abe 7254 293e
000003b0: b3b8 e83d 5889 eb3b 1913 2bbe 5cd5 cd3d
000003c0: 648b 3b3d c7cf 3f3d 9587 a43e 807a 5abe
000003d0: dbf3 7cbd a4e9 b23a f1ff 5a3d af44 20bc
000003e0: e8fb de3c 6958 acbc 2959 c13e cd33 acbe
000003f0: bd9f 83bd d855 cebb 6b1a 773c 56db b7be
0.023410294 0.02295406 0.35082233 -0.058874786 -0.05086414 -0.07544684 -0.002681749 -0.070408575
-0.009922469 -0.010774974 -0.004315335 -0.0022903706 0.008953054 -0.02221353 -0.015251183 0.008083992
0.024022052 0.01567812 0.3343937 -0.062116362 -0.019397965 -0.012963125 0.0020094293 -0.013870321
0.05236674 0.043024853 0.3311364 -0.18036537 -0.06803116 0.0012952264 0.049287926 -0.0446893
-0.015035438 -0.0067404066 0.0153879905 -0.014715848 -0.00982584 -0.0015218513 -0.0013866938 -0.0020847525
-0.010408337 -0.00058907137 0.002471643 -0.004193349 0.0027986444 -0.013592724 0.011577544 0.002690091
-0.0041124723 -0.060454518 -0.19284807 0.12967807 -0.011569176 -0.02105107 -0.12671557 0.065212294
-0.0034073184 0.0024033366 -0.2573388 0.1793398 0.115826055 0.018425258 -0.008040024 0.1274957
0.0017951459 -0.17298211 -0.24698947 0.11843776 0.11083331 0.003901459 -0.00095103594 0.09075214
7.710834e-05 -0.08630639 -0.22883624 0.13009049 0.03446011 0.02380474 -0.05158652 0.111724064
-0.024522305 -0.005258747 -0.22847833 0.14868255 0.11168737 0.011363244 0.0011509256 0.10077404
-0.0005169977 -0.0011437915 -0.0015800482 -0.011648395 -0.008384922 -0.019005835 -0.021238621 -0.0031330034
-0.011771853 -0.0064551826 -0.018746976 0.008560626 -0.0028598043 -0.013159215 0.0014753747 -0.0033808637
0.05275993 0.020043299 0.31754434 -0.13437118 -0.023468481 0.0003538912 0.048932936 -0.1314998
-0.014263925 -0.06268204 -0.22508167 0.12811893 0.048312604 0.014969209 -0.3360158 0.1019626
0.066442624 0.04900133 0.32050225 -0.18371463 -0.11248093 0.0015590654 0.056502186 -0.07806939
-0.01884446 -0.035616193 -0.21878448 0.14970411 0.112810865 -0.0062098075 0.022504164 0.075257
0.041033782 0.010272707 0.3477249 -0.08934417 0.035407055 -0.00040680406 0.026564218 -0.06640989
0.04981122 -0.00031203977 0.33139762 -0.13114728 -0.009661126 0.005822795 0.03394069 -0.13804021
-0.012981138 -0.061484367 -0.19342542 0.12713729 0.16175354 -0.0045380937 -0.038967546 0.06895295
-0.0014439179 -0.00978569 0.0023963705 0.0012964379 -0.0012544036 -0.0001595673 -0.007059626 -0.009169412
-0.012036641 -0.03189816 -0.22201243 0.13478665 0.13914756 -0.0053823036 0.010886064 0.07383865
0.048864722 0.04663222 0.33255202 -0.20498224 -0.04556263 -0.0039852564 0.05038345 -0.02229784
-0.0014835857 -0.0010873167 0.0004004063 0.0019544451 -0.017845793 -0.0053972867 -0.0027487199 -0.0038520296
0.06971447 0.03711038 0.3262105 -0.21824609 -0.12575348 0.008367209 0.036142368 -0.07464007
0.030629795 -0.001596508 0.33996853 -0.33345282 -0.030513523 0.014531886 0.023845423 -0.33172992
-0.0070792595 -0.011812236 -0.21985781 0.16158804 0.027982816 0.007885379 -0.40394002 0.10913676
0.05714145 0.01654137 0.32019293 -0.16490078 0.041285694 0.00068990805 0.03957652 -0.06936332
-0.014819773 -0.014826146 -0.01661776 -0.015271877 -0.007614104 -0.012074424 -0.012945181 -0.010523627
-0.006915931 -0.072866395 -0.19801891 0.1653612 0.113633536 0.0071880035 -0.16706504 0.10050461
0.04578723 0.04682901 0.3213469 -0.21335793 -0.061755996 0.0013649953 0.05346674 -0.009782
0.027219728 -0.021038251 0.37763336 -0.3363327 -0.06426952 -0.0062968545 0.015081982 -0.35909528

edge_embedding_layer.edge_feature_NN.weight f4 [64, 64]
00000000: cee4 323d ffa9 da3b c0ce 173d 14eb 823d
00000010: f99d 223c 4c99 063c 1054 47bd f3b3 64bd
00000020: 4a04 23bd 096b cebc 88da 07bd 9174 a13a
00000030: 33a8 b9bb 5df5 9d3d de8b 14bd 8e77 893d
00000040: ca1c 20bd 5b6d 013d 6318 203d 935d 0cbc
00000050: fbcc e538 455f 14bd b069 413d 7099 293b
00000060: 29ef 4e3d ee1b 0d3e 4b0a babd 3b03 4d3d
00000070: 7fa5 0ebb 8509 71bd a922 4c3d 076c 063e
00000080: 6777 63bd 9630 39bd 1352 b93d 9eb2 2dbc
00000090: cb34 483d 84f7 21bd d804 4cbd 0756 823d
000000a0: 5efd 12bd 8ec9 563d 6925 9f3c 4e83 9b3d
000000b0: 6770 5e3b e941 a4bc cc83 03bd 7823 13bb
000000c0: f660 093b 8305 3ebd 974d 8e3c 2fb6 29bc
000000d0: 8f89 f13c f9a5 543c 8c23 33bd 5623 e93c
000000e0: 8e84 9a3d a902 f73d dc2d 183c cd18 9b3c
000000f0: 2939 1a3d 50c7 b63d b030 2c3d 30b4 563d
00000100: f43f 30bc 1d46 05bc e5e4 cb3a 16c4 063c
00000110: 3bc1 fb3a 29c2 0d3b 0b19 f83b 07c4 0f3c
00000120: c06f f1bb 90bb 05bc 5ab5 43bc f030 0b3a
00000130: a9c0 613c 7b8d cc3b de9b 303b aef1 6fbc
00000140: 1426 ce38 0fbd fc3b 6f53 043c 7218 09bb
00000150: cf71 16bc b803 14bc 6643 96bb 0088 cabc
00000160: acd0 c83b b41b 2f3c 3564 02bc b27d 3cbb
00000170: dbcc 4c3c d09e acbc e2b3 a33b f0d3 973b
00000180: 69f0 6cb8 1ec7 7fbc b4ef 2dbc 0afb 45bb
00000190: 24f7 babc c752 973b cd1f acbb d677 153c
000001a0: 63f8 1a3a b381 503c 4aae 923b 8f1c 843b
000001b0: dbc8 22bb 5358 4abc d03d 18ba b7aa 883c
000001c0: bbe4 5b3c f347 413a f0e0 b43b ea70 633b
000001d0: 45dd c0bc f46d 48bc debd 853b b496 93bc
000001e0: a82d 0dbc 5080 dcbb 79e1 aebb bdac 033a
000001f0: 694b 6e3b f2c5 84bb ce8c 133c d299 f2bc
00000200: 3120 b33c fb22 d0bb 8901 803c a094 e43c
00000210: 2e3d 3ebc c2eb 84bb cfd8 8bbb 75ec d13a
00000220: 40aa 343d 24e4 51bc 2b25 4bbb 7a20 103b
00000230: e33a fbba 0017 1d3c 3520 b2bc b8c3 03bb
00000240: dfbc 20bb 4c97 5cbc 3c6d 12bd 4022 68ba
00000250: fd53 c6bc 2d44 7d3c 6871 613c 27e6 863b
00000260: 26aa 9ebc 3fc1 f9bd 3d2b 84bc 946b 2fbd
00000270: 3595 f6bb 55e6 f7bb 40ba 143c c518 38be
00000280: b40f 863c fa4a a83c 9a30 02bc c8c0 273d
00000290: d5dc a23c e109 853c 57fc 713c 3e2b 023d
000002a0: 2405 f33c 3666 a7bd fd22 64bc 6cf4 a13c
000002b0: 7b60 48bb 16ab 3a3d 8724 4e3d d84f 383c
000002c0: 6bd2 58bc ee53 d23c bd89 0db9 0b16 363c
000002d0: 7806 043d 0367 cd3a 1cd9 c23c 13aa 60bd
000002e0: 0d2a bcbc 7d78 41bd 1b3c 9e3b e218 1a3c
000002f0: eeae eabb ca68 bc3b 9f8f df3c 4a69 3e3b
00000300: 9c66 64bc 571e e1bb c644 18bc d4c6 0b3c
00000310: e51f 5b3b 8dab 06bc 2ad1 22bc 25eb f135
00000320: 529b d53b c1e4 cdba 4fe1 0a3c dc1a f1bb
00000330: d71d 97bb 7ea0 133b 7d20 10bc e3d0 18bb
00000340: 65e4 8ebc 73cc c73b 246c 81bc 279a a6bb
00000350: a2c0 873b 8342 97bb ba78 86b8 3ad2 1cbb
00000360: 54f5 243b 928a 28bc d8f6 48bb ed3f 013c
00000370: f881 313c 2003 96ba 5677 30bb e012 84ba
00000380: 088e 85bc c181 ea3b fbd0 883a 4a8a 4739
00000390: d8bb 6b3a 3573 b7bb 1d83 b8bb cfc7 0a39
000003a0: 060f b3bb 46bf 89bb e205 0339 245f 5cb9
000003b0: c0a7 8f3c 9f19 8b3c 4259 5dbc 3539 bb3b
000003c0: c19b 24ba a791 a4b9 9533 473b db2f 5abc
000003d0: a649 16ba bd55 b33b cbc1 cdba 05fa fbbb
000003e0: a2cc 573c 3bbc 5dbc 7885 bcb9 4ff0 22ba
000003f0: 1654 06bb 9feb 0dbc 377b d43b 9d6e 9ebb
0.043675236 0.006673097 0.037062407 0.06392494 0.009925359 0.00821526 -0.048664153 -0.055835675
-0.039799012 -0.025197523 -0.033167392 0.0012318065 -0.005665803 0.07712815 -0.0362662 0.06712256
-0.039089955 0.03159843 0.039085757 -0.008567232 0.000109577515 -0.03622367 0.047219932 0.002587881
0.05052105 0.13780186 -0.090839945 0.05005191 -0.0021766124 -0.05884697 0.049837742 0.13127147
-0.055533793 -0.04521235 0.090488575 -0.010601668 0.048878472 -0.03954269 -0.049809307 0.06364065
-0.03588616 0.05243831 0.019427018 0.07593404 0.0033941509 -0.02005096 -0.032108113 -0.002245156
0.0020962334 -0.046391975 0.017370982 -0.010358377 0.029484538 0.012979024 -0.043735072 0.028459232
0.07544814 0.12061054 0.0092882775 0.018932724 0.03765217 0.089247346 0.04203862 0.052417934
-0.010757435 -0.008134392 0.0015555887 0.0082254615 0.0019207367 0.002163062 0.0075713447 0.008774764
-0.007368058 -0.008162394 -0.011945093 0.00053097215 0.013778844 0.0062424517 0.0026948373 -0.014645023
9.829938e-05 0.007712967 0.008076533 -0.0020919112 -0.0091824075 -0.00903409 -0.0045856712 -0.024723053
0.0061283913 0.010687757 -0.0079584615 -0.0028761444 0.012500013 -0.021071821 0.004995809 0.004633419
-5.6490684e-05 -0.015611438 -0.010616232 -0.0030209445 -0.022822924 0.004618022 -0.0052528144 0.009122809
0.00059116463 0.012726235 0.0044763433 0.0040317248 -0.0024838957 -0.01235016 -0.00058075506 0.016682966
0.013421233 0.0007373087 0.0055199787 0.0034704753 -0.02354301 -0.012233246 0.004081472 -0.018016197
-0.008616842 -0.006729163 -0.005336937 0.00050229934 0.0036360866 -0.004051917 0.009005738 -0.029614363
0.021865936 -0.0063518262 0.015625732 0.027902901 -0.011611266 -0.004056425 -0.004267789 0.0016015904
0.044107676 -0.012810741 -0.0030997496 0.0021992014 -0.001916733 0.009588003 -0.021743873 -0.002010567
-0.0024526638 -0.013463806 -0.035748705 -0.00088552013 -0.02420997 0.015458149 0.013759948 0.0041167918
-0.019368242 -0.12195062 -0.016133899 -0.042827204 -0.007525111 -0.0075652995 0.009077609 -0.17978199
0.01636491 0.020543564 -0.007946158 0.040955335 0.019880692 0.016240062 0.014769635 0.03177952
0.029665537 -0.08173792 -0.0139243575 0.01976987 -0.0030575085 0.045573317 0.050327804 0.011249505
-0.013233761 0.025674786 -0.0001349812 0.011113654 0.03223273 0.0015670959 0.023785166 -0.054849695
-0.02296927 -0.047234047 0.0048289425 0.009405347 -0.0071619665 0.0057497965 0.027290164 0.0029054456
-0.01394048 -0.006870072 -0.009293741 0.008531291 0.0033435759 -0.008219612 -0.009937564 1.8024335e-06
0.0065187598 -0.0015708433 0.008476569 -0.007357938 -0.0046117115 0.002252608 -0.008796808 -0.0023317866
-0.017442891 0.0060973703 -0.015798636 -0.0050842944 0.0041428367 -0.004616083 -6.412105e-05 -0.0023929016
0.002517064 -0.010286944 -0.0030664708 0.007888776 0.01083421 -0.0011445023 -0.0026926599 -0.0010076426
-0.016303077 0.007156581 0.0010438258 0.00019029636 0.00089925295 -0.0055984505 -0.0056308643 0.0001323514
-0.0054644374 -0.00420371 0.00012495325 -0.00021016278 0.017536044 0.01697999 -0.01351005 0.0057136067
-0.00062793127 -0.00031389037 0.0030395736 -0.013317074 -0.00057330204 0.0054728673 -0.0015698014 -0.0076897168
0.013171347 -0.013533647 -0.00035957596 -0.00062156183 -0.0020496896 -0.0086621335 0.006484415 -0.0048349635

update_node_embedding_layer.0.message_layer.weight f4 [64, 128]
00000000: c122 9cbc 817d e53a 2d07 67bc 5447 8abb
00000010: 1a80 92bc a354 3a3c 3129 fd3b 6e8d 6a3b
00000020: cfd4 0abc 658d 9cbc 383c d03b 4510 aabc
00000030: 41d5 88bc 5324 5fbc 905f 213b cbc1 78ba
00000040: 1fd1 86bc 3f95 73bb 2b88 63bb 0092 a93b
00000050: 3b84 40bc 9856 cfbc 34c9 3ebc 575a 3fbc
00000060: bcee 8c3c b358 183c 3563 dfbb 4851 85bb
00000070: 98af c5bb e1fb 9abc ff20 0dbc a58d 3d3c
00000080: 492e f7ba 23ff 073c e378 753b b0ef a1bb
00000090: ec59 d9bb 0393 9cbb e059 9cbc 3982 4ebc
000000a0: 60d9 b2bb 7034 9f3b 4c57 a0bc b494 7bbc
000000b0: e22b 733b 00fd 1d3c ce9f 42bc 00f5 14b7
000000c0: eb4e 23bc 8663 1b3c 07e5 94bb 0e5c b0bb
000000d0: 4cc8 48b9 1abe 813b 29fc b4bc 2680 2d3c
000000e0: 22e4 edbb cf84 23bc 1790 4bbc 2791 adbb
000000f0: d905 53ba 965d 973c df3b 023c e5ff 1bbb
00000100: 7009 cebb 763f 1fbb a9c9 2b3c bd63 4abc
00000110: ca72 8aba e54b 2dba cb7f 69bc 9b90 943b
00000120: 8e70 11bc 23e9 00bb f288 0fbc dfe5 603c
00000130: 7fb4 d9bb 15b0 8e3b e342 e43a 6d20 a73c
00000140: 9f51 8dbb 2dd9 043a 8c4a a5ba d723 acbb
00000150: b0ce d8bb 394b 543a b459 0bbc b509 623c
00000160: b5e9 3e3b 0dac 973a 20bd 7a3a 29b8 5e3c
00000170: 1acc 83bc a153 64bc a814 bebb f8b5 a53c
00000180: 99cd 383c b4e2 97bc ca9d 623c 45fb acba
00000190: 7bc8 7d38 1e3c 0bbb 4970 17bc ae43 c83c
000001a0: f52f 1c3b ec91 33bb c036 743b 4257 973b
000001b0: 673f 41bc 7897 c2bc 1bdd ec3b 10c5 babb
000001c0: eade 21bc 6995 723c 536f dcbb 37b9 083c
000001d0: 713f ed3a 54bb e53a 901c dd3b 6b37 39bc
000001e0: bba6 933b 5654 063c 4601 00bc 5c40 5cbc
000001f0: 72e3 38bb cff1 d23a 9afe 823b 1856 6cbb
00000200: 97bc da3c 1de6 3fbd 273d ef3d 4c8c 1a3d
00000210: eeaf 9abb d200 773c 68a5 2c3e 0765 ee3a
00000220: 7a1a d0ba ba6f 0e3e 0e00 bc3c 9c4a e23c
00000230: ead8 ea3d f29f 86bc 03c0 80bc ad4e c23b
00000240: 004d dabd a967 d23a d600 aabb efb3 003d
00000250: baf5 263e c44c 80ba 2b52 313d 4c27 da3c
00000260: 31a9 b2bc e383 13bd aee9 cd3d 1856 363c
00000270: a136 113e dc74 23bd e1da 27be 6c6f 3c3d
00000280: bdbc 71ba 0819 01bc 3f41 ab3d 354b 5a3b
00000290: c683 c4bb bbf5 b23c d0c5 3dbd aa27 d93c
000002a0: 0c36 7239 a6d1 7a3b 43fd 393d e07c 76bd
000002b0: c96a 443d 7214 e7ba bf5c 893d dc6d e4bc
000002c0: f036 5c3d 34ef 6fbc 1728 983d 718f f03d
000002d0: c1ee 93ba b2e2 56bc a6e2 bd3b b628 743d
000002e0: cba5 21bb 17b8 3f3c ab56 083e a236 c3bc
000002f0: 64e8 ee3d eb21 8b3c 8d1c 10be 524e c03d
00000300: 9913 e8bb 7ede 04ba 7763 233d f3d5 efbb
00000310: 6ddc 373d fc13 183c 4ad8 053b 933d b63b
00000320: afea 45bc 0000 97bc 69d4 103d 4235 f3bc
00000330: 5c73 c8bd 201e b23d 206a a3bb a795 9fbb
00000340: dffd 95bc c370 1c3c 73fc 32bc bcde 7fbb
00000350: 2916 493a a84d 1e3d c8f4 27bc e1ad f6bd
00000360: 3205 dabc 7dd3 aebc 270a 583e 057c 13bc
00000370: ee68 1d3c ca20 5ebd 1024 89bc 1f08 a8bc
00000380: 6d44 063e c9c4 d6bc 2a73 a6bc 0aa1 f1b8
00000390: e7e9 97bc 9255 19bb e542 03bc 2b4c 16bd
000003a0: 8c9b fcbb 8048 fdbc 6de2 6bbd b351 65bc
000003b0: d12f aebc 2558 a7bc 7bda 17bd 0a16 eabc
000003c0: a377 e63b 55e3 29bc e569 cab9 a9da 743c
000003d0: 9e2f 2c3c 9c36 4e3c a332 0fbc 6475 9fbc
000003e0: 2357 07bd 6151 4f3b 7791 54bc 3fee 26bc
000003f0: 1bf0 b4bc 7f29 1c3b ea00 c83d 9dd6 b9bb
-0.01905954 0.0017508717 -0.014100832 -0.0042199288 -0.01788335 0.011372718 0.0077258577 0.0035789865
-0.008473589 -0.01911039 0.006354835 -0.020759711 -0.01670325 -0.0136195 0.002462361 -0.00094893266
-0.016457139 -0.0037167815 -0.0034718614 0.0051748753 -0.011750276 -0.025309846 -0.01164465 -0.011679254
0.017203681 0.009298491 -0.0068172463 -0.0040685274 -0.0060328953 -0.018918933 -0.008613824 0.011569415
-0.0018858399 0.008300575 0.0037456087 -0.004941903 -0.006633034 -0.0047782674 -0.019085824 -0.01260429
-0.005458042 0.004858546 -0.019572876 -0.015355278 0.0037105014 0.009642839 -0.011878921 -8.878531e-06
-0.009967546 0.009484177 -0.0045439037 -0.0053820675 -0.00019148103 0.0039594295 -0.022092896 0.010589635
-0.0072598616 -0.0099803945 -0.01242449 -0.0052968445 -0.00080498826 0.018477242 0.007948845 -0.0023803648
-0.006287746 -0.00242993 0.010485091 -0.012352881 -0.0010562774 -0.00066107354 -0.01425166 0.00453384
-0.008876933 -0.001967021 -0.008760678 0.013726681 -0.0066438313 0.0043544867 0.0017414953 0.020401204
-0.0043127085 0.0005067762 -0.0012610718 -0.005253296 -0.006616436 0.0008098367 -0.008505274 0.01379626
0.0029131 0.0011571661 0.0009564925 0.013593712 -0.016088534 -0.013935954 -0.0058008023 0.020228371
0.011279487 -0.018540718 0.013831565 -0.0013197443 6.0506612e-05 -0.002124555 -0.009243079 0.024446335
0.0023832296 -0.0027400209 0.003726408 0.0046185562 -0.011794901 -0.023753867 0.0072285063 -0.005699761
-0.009879807 0.01480613 -0.006727138 0.00834494 0.0018100572 0.0017527142 0.0067477897 -0.011304717
0.00450596 0.008198818 -0.007812804 -0.013443079 -0.002821174 0.0016093793 0.003997636 -0.0036062058
0.026701255 -0.046850313 0.11681586 0.037731454 -0.0047206795 0.015075879 0.16859972 0.0018188067
-0.0015877031 0.13909808 0.022949245 0.027623467 0.11467154 -0.01643369 -0.015716558 0.005929789
-0.10659218 0.0016052622 -0.005188088 0.031421598 0.16304675 -0.0009788503 0.043291252 0.026630066
-0.021809192 -0.03601445 0.100543365 0.011128925 0.14180996 -0.039906368 -0.1639209 0.046004698
-0.00092215446 -0.007879503 0.08362054 0.0033308987 -0.005997154 0.021845689 -0.046331227 0.026508171
0.00023099052 0.0038271933 0.045407545 -0.060177684 0.0479534 -0.0017629995 0.06707143 -0.027884416
0.05376333 -0.014644433 0.074295215 0.11746109 -0.0011286364 -0.013115572 0.005794841 0.059609137
-0.002466547 0.011701605 0.13314311 -0.023829762 0.11665419 0.016983947 -0.14073391 0.093899384
-0.0070824143 -0.00050685543 0.03988978 -0.007319206 0.04488795 0.009282108 0.0020423108 0.0055615394
-0.012079879 -0.018432617 0.03535882 -0.029688481 -0.09787628 0.08697152 -0.0049870163 -0.004870135
-0.018309532 0.009548369 -0.010924446 -0.0039042672 0.00076708436 0.038648278 -0.0102512315 -0.120448835
-0.026613805 -0.02134108 0.21097623 -0.0090017365 0.009607537 -0.05423049 -0.016740829 -0.020511685
0.1311204 -0.026216881 -0.020318586 -0.000115217714 -0.01854415 -0.002339695 -0.008011554 -0.036693733
-0.0077089723 -0.03091836 -0.057588983 -0.013996529 -0.021263035 -0.020427773 -0.037073594 -0.028574962
0.007033305 -0.010369142 -0.0003860734 0.014944711 0.0105094 0.012586262 -0.0087401 -0.019465156
-0.033042084 0.00316342 -0.012974135 -0.010188638 -0.022087147 0.0023828445 0.09765799 -0.005671336

update_node_embedding_layer.0.update_layer.weight f4 [64, 128]
00000000: d705 f63b 4b6e df3b 35f2 623a c821 a9bb
00000010: 54be f33b 4227 44bc 0d7a b9bb a85b cbba
00000020: f751 d23b 8f7e 6c3c 84fb 3dbc 454d daba
00000030: e635 a5bc 055a 32ba 7e00 0dbb 57be 04bc
00000040: 89c9 433c 2d10 cc39 e52a 68bc f18a 51bb
00000050: 08a3 4aba e43f 22bc 242f 1dbc cc6d 8ebb
00000060: 7b66 29bc 7d5b 2cba b1e2 46bc 6e0e 30ba
00000070: 7012 f33a 03e3 2abc 4600 293c ba86 c9bb
00000080: 89f7 a5bc 1dad 09bd 8d28 12bc 8fcc cd3b
00000090: cceb 513c 0196 0a39 9728 06bc 9ed8 8c3c
000000a0: 4d73 293c c4b0 8fbb 5a7f 7538 a0ca 11bc
000000b0: e862 f1bb 1010 673c f04f c7bc 4697 9b3b
000000c0: 3c73 6fbc abcb 923b 9b4f 91bb 91c7 11bc
000000d0: d643 31bc dc4d eebb a7a3 95bb bca3 1139
000000e0: 2b17 e6ba fb88 55bc 59cf a63b be83 debb
000000f0: d4e9 ffba 09c7 fabb a5e5 a03c 8d4b 6b39
00000100: ccff 4b3c 43bd 803b bc6b 123c ff3b 5a3b
00000110: e9b7 8bbb 705b a2bb 60af 523c 768c 67bb
00000120: fc0e d5bb 0cf3 e43b e938 ed3b 0885 42ba
00000130: cfd1 813c ae19 bd3a ae1d dbbb 7de7 673b
00000140: bbc9 8a3c ba3c 28bc 3301 e63b 4210 9f3a
00000150: 9e3a 203c 8f82 34bc d1ff 10bc 3a51 1b3b
00000160: 35c6 1ebc e852 47bc 5cce ab3c 74c9 733c
00000170: e176 8c3a d7d9 883c 21c3 37bb 9075 80bb
00000180: fce6 533b decd 483c 8a2a a03a deef 2abc
00000190: ad25 80bc da09 adbb e8ba 3bbc f07b aabb
000001a0: 1724 4cbc a266 7b3c e643 7bbc e0fd 29bc
000001b0: 438e c7ba 25c5 debc 578b 9abc 7ab9 d0bb
000001c0: c56c 78bb 236a 313b 7ba8 b7bb 641b 16bc
000001d0: 38bd 24bc 6c04 43bc 9612 24bc a976 8a3b
000001e0: 8b9f 10bb e3cc b23b bb34 d23c 099b bdbc
000001f0: 94c8 e2bb 158d 5d3b 4677 24bb 1300 763c
00000200: edf9 143e 8e21 813d c049 9dbb e071 14be
00000210: 00eb adbb d1f6 aebb 39f4 b9bd fd6d 663d
00000220: 38b7 063d 39ee 5abd 616a 4bbd d141 bf3c
00000230: 5607 3bbd 819c ba3c 02ee 2c3d 1965 07bd
00000240: 7b52 b63d 9a63 55be 1f4c 353d 9e36 50be
00000250: 2266 46bd 3770 1b3d af99 503d c53b 9dbb
00000260: 58df 89bc b2f0 d9bd 9a12 18bd ec7d f53b
00000270: 0062 c4bc aac9 163d 9e3c bd3d da64 73bb
00000280: 696d 51bc 4687 50be 2212 9bbd b152 843c
00000290: 820e ab3d f5b1 e93c 94b1 9f3d a4aa 90bd
000002a0: edd5 a03c 95f3 8339 d7f8 8a3d 1952 283d
000002b0: e4a6 f0bc 416d c3bb 3833 11bd db8e f5bd
000002c0: c80b 41be 1212 7d3d a602 2bbd 9ee2 67be
000002d0: 7ed5 4e3d 6f8a e73d fbb1 493d 44da 24be
000002e0: 282f 53bc a8f4 593c ea66 05be 8ba0 853c
000002f0: 25d8 17be b543 883d 1d61 df3d e458 9f3c
00000300: b6e0 5fbb 7ae3 f53c 46d7 bf3c 288a c03a
00000310: bc36 cfbc 1197 07bc 14e9 343b 0033 32bc
00000320: 0216 1dbd 7661 863b ba4c 5dbd f014 3cba
00000330: 8cb1 f1bb cf32 463c adeb 6e3c b8cd 21bd
00000340: a025 dbbc c5d2 923b ca83 95bc fc13 0fb9
00000350: ed5f 0c3c ea93 253b 1d1d 093d d03f f5bb
00000360: f595 4cbd 98c1 8fbc 99e9 683b a488 4f3c
00000370: 7482 e23b 0906 e9bb 9723 93bc aa23 4dbc
00000380: b575 243c 823f f5bb 3dd0 56bd f918 a4bd
00000390: b45f 87bd b87f 793c 369b cd3a 46ce b53d
000003a0: 3b07 063c ca6b a0bb 40fc 4e3c ad22 e6bb
000003b0: 733d 93bd 0c23 413c c4c7 dabc c74d e23c
000003c0: 0138 023a c0a1 cebd 91a6 a9bc f006 b5bd
000003d0: 206c fe3c 55b3 84bd d4a4 f23a 154c 2dbc
000003e0: 9ee2 4d3c 7caa c13c 9cf2 5cbc d317 033c
000003f0: 8951 eabb f1bd 33bc 50b5 bbbc 697a 0cbc
0.0075080204 0.006818568 0.00086573075 -0.0051614977 0.0074384604 -0.01197225 -0.0056603015 -0.0015514987
0.0064184624 0.014434471 -0.0115956105 -0.0016655108 -0.020167302 -0.0006803575 -0.0021515186 -0.008102021
0.011949905 0.00038921964 -0.014170383 -0.0031973685 -0.0007729982 -0.009902928 -0.009593759 -0.004346585
-0.010339375 -0.0006574912 -0.012139008 -0.00067160174 0.0018544924 -0.0104301 0.010315007 -0.006150094
-0.020259636 -0.03361236 -0.008920801 0.006280489 0.012812566 0.00013216586 -0.008188388 0.017193135
0.010342431 -0.004385086 5.8531157e-05 -0.008898407 -0.007366527 0.014102951 -0.02433011 0.004748258
-0.014614876 0.0044798455 -0.0044345385 -0.008897678 -0.010819396 -0.007272465 -0.004566628 0.00013889273
-0.0017554512 -0.013033147 0.0050906357 -0.0067906072 -0.0019524642 -0.0076531214 0.019640753 0.00022439491
0.012451123 0.0039288118 0.008936819 0.003329992 -0.004263867 -0.004954748 0.0128591955 -0.0035331524
-0.0065020304 0.0069869813 0.0072394502 -0.0007420336 0.015847115 0.0014427209 -0.0066868877 0.003538578
0.016941896 -0.010268385 0.007019186 0.0012135583 0.0097796 -0.011017456 -0.008850054 0.0023699538
-0.009690811 -0.0121657625 0.020972423 0.014879573 0.0010716581 0.016705437 -0.002803989 -0.0039202645
0.0032333722 0.012256114 0.0012219709 -0.010433165 -0.015642965 -0.0052807154 -0.011458136 -0.005202763
-0.012459776 0.015344294 -0.0153360125 -0.01037547 -0.0015224892 -0.027193615 -0.01886527 -0.006369767
-0.0037906629 0.002707132 -0.0056048012 -0.009161804 -0.010054879 -0.01190291 -0.010014197 0.004225571
-0.0022067751 0.0054565533 0.02565991 -0.023145216 -0.0069208834 0.0033806015 -0.0025095507 0.015014666
0.14548464 0.06305228 -0.0048000515 -0.14496565 -0.005307555 -0.0053394814 -0.09079785 0.056257237
0.032889575 -0.053449843 -0.049661998 0.023346813 -0.045661293 0.022779705 0.04221917 -0.0330554
0.08902451 -0.20838776 0.044262048 -0.20333335 -0.048437245 0.037948813 0.050927814 -0.004798385
-0.016830131 -0.10641612 -0.037127115 0.0074918177 -0.023972511 0.036813416 0.092400774 -0.003713897
-0.012782433 -0.20364103 -0.07571818 0.016152712 0.083523765 0.02852724 0.07797542 -0.07063797
0.019633258 0.0002516775 0.06785744 0.04109392 -0.029376455 -0.005963952 -0.035449237 -0.11990138
-0.1885215 0.06178481 -0.041750573 -0.22645041 0.05049657 0.11305701 0.049242 -0.16098887
-0.012889661 0.0133029595 -0.1302754 0.016311904 -0.14828546 0.06653539 0.10907195 0.019451566
-0.0034161038 0.030015696 0.02341808 0.0014689611 -0.025294654 -0.008275763 0.0027604746 -0.010876417
-0.038351066 0.0041009737 -0.05402825 -0.0007174751 -0.0073759016 0.012097075 0.014582557 -0.03950283
-0.02675134 0.004480692 -0.018251318 -0.00013644987 0.008567792 0.0025265166 0.03347503 -0.0074844137
-0.049947698 -0.017548367 0.0035539626 0.012666855 0.006912524 -0.007111315 -0.017961306 -0.01252071
0.010037829 -0.0074843774 -0.052444685 -0.08012576 -0.06610051 0.015228204 0.0015686515 0.08877234
0.008180435 -0.004895662 0.012633383 -0.0070231766 -0.07189455 0.011788141 -0.026706584 0.027624978
0.00049674517 -0.10089445 -0.020709308 -0.08839214 0.031057417 -0.06479517 0.0018512257 -0.010577221
0.012566237 0.023640864 -0.013485577 0.008001286 -0.007150833 -0.0109705785 -0.022913605 -0.008574107

update_node_embedding_layer.1.message_layer.weight f4 [64, 128]
00000000: 70c9 20bb 20d5 71bd f232 903c 039b 4f3e
00000010: b4ab 2dbd 6347 033b 174f 37bd 82ed d5bc
00000020: 75ec 34bd 357d 0cbd 948e 5cbd ee35 60bd
00000030: d281 91bd caf6 6fbd 3399 d0bc 6277 f73b
00000040: 3075 8b3e 50d3 26bc b6cc 683e b834 60bd
00000050: 2e3a f03c f136 46bd 2754 33bd 9858 8cbd
00000060: 9e88 37bd 867c 5a3b 7f9b 03bb 4879 6bbd
00000070: 8271 733c f0b5 253c 7e6a 33bd 3e8b 353c
00000080: 7b70 d93c f305 83bc c8e6 1cbd 2ccf 473d
00000090: c89d 853b 66fb 143d 55a4 49bd 233e e83c
000000a0: 0a1c 7abd 720e 573e 0573 ac3e 344a b9bc
000000b0: cf12 b3bc 4de3 91bc 91af 22bd 7e3f dc3a
000000c0: bdc2 8ebc 8529 013f 8668 7abd c087 0ebb
000000d0: 5841 0d3c e9e7 a4bb 4ce0 4e3e 1dfb 48bd
000000e0: 8673 a53c 8d3f 10bc adce 34bd 8fa6 38bc
000000f0: 67d7 0f3c 35a4 e4bb 4ba4 55bd af11 ab3c
00000100: 6e90 07bc c17d 9ab9 0b8e 1f3d fe9e cfbb
00000110: 3666 5dbc a157 b2ba 4355 74bc 85d6 afbc
00000120: 0ef6 6e3c 7448 e9bc 741a 6e3d 2dc6 22bc
00000130: 0ac9 04bd 8f8a 4dbb 93c5 6abc 764e 0b3c
00000140: 5e22 493b 15fb 103c ddaa 99bc f41b 373b
00000150: 1319 b9bb 1bb2 df3c 4996 93bb f197 04bc
00000160: 983e 0dbc 439e f2bc e23e bebc 823a c9bb
00000170: 77d4 8ebc 4abf 253c 5d0e debb ef7b 57bc
00000180: 9204 63bd 15b5 f1bb 4dcb 2f3c 1056 8dbb
00000190: 21a6 01bd 5f79 e2bc cb37 2fbc a58c 82bc
000001a0: 5821 96bc ae1c 0ebc 8918 a5bb c63d 20bc
000001b0: fcd6 5cbc 9cec eebc 5f62 db3a 6032 b6bc
000001c0: 5924 143d ccb9 80bb 411a 683b 10a2 c7bb
000001d0: 5a8c 84bc 0ab8 16bb 15bc f33b a299 f0bb
000001e0: a59a e93c 7e39 9ebb 4e0a 1c3b b674 1fbc
000001f0: aea1 98bc 2ce4 fcbb fcc7 a33b 12bd eebb
00000200: 9e80 783a 4901 873d 54bd 00bc c498 5bbd
00000210: 543e 423d f3b1 a93b eb3d 83bc 2e1c 813d
00000220: f0f4 d33d 7ec2 24be 8ab1 883d b46f 453d
00000230: 6d07 ce3d 34db 093d 2d1d 1cbc 69e1 cd3c
00000240: d56f 7e3e 3a23 25bc 7e63 373e d10b b13c
00000250: c782 4c3d dec6 283d 4c19 853d b7d8 913d
00000260: ca50 a03d 428e 7e3c e57c 31b9 5a01 653d
00000270: 6f3f 223b a2ac 673d 5a50 54be cc9c 223b
00000280: f6a9 893c af96 02bb a6d8 513d 79eb 573d
00000290: 7f3b 2a3c 4de5 033d 6ec7 893d 7a76 843d
000002a0: eeb3 753d a4f7 693e 7f80 663e 2062 82bb
000002b0: c49c 4fbc fdd8 9dbb 6b89 253e 8f54 313d
000002c0: 050f 3c3d 0cc3 a13e 7818 663d cbde 96bc
000002d0: 2498 3b3d 325a 49bc 2d4a 883d 4b89 f6bd
000002e0: 266c 503d be4e 143d 1475 f73c 477b 413d
000002f0: b82b adbc 06da 52bc c09a ef3d 028d 113d
00000300: cbba 663b 2e2e 543a e90e 0c3d 331c fb3b
00000310: ec82 7cba 3b92 32bc 09a0 8c3c 5ce5 913d
00000320: 88ba 72bd 891d 1fbe aa32 873d 5e00 a33b
00000330: 7798 c43c eec4 043e c204 303c 830b 35bc
00000340: c0d1 edbb 2683 ebbc ed3d 41bc 43b6 003c
00000350: f101 8f3b 817e 6e3d e2b8 b5bc fc0a 613c
00000360: ac75 dfbd a2a6 663c 05e2 6bbe 9d78 79bd
00000370: 6955 f3bb b9a1 eb3b f8bc 81bc be76 533a
00000380: 36ab 08be ed33 b2bd fe28 003d bcc0 003c
00000390: e810 173d 4e24 51bc 934e 8abd cc14 97bd
000003a0: 20a1 3cbd 8c58 d33a e7db 0f3d 0559 343b
000003b0: ae80 1bbd bbd4 3b3d 3572 8b3c e539 8abd
000003c0: 9cae 923c 84a4 313d fb1a 513c aa1f 8f3c
000003d0: 849d 813c c82b 2ebd 346d eabd e021 2a3b
000003e0: ba7f 813d de67 c9bb c6f2 213c b9da 3fbd
000003f0: 92a3 8cbd 44e3 533c d4fe 67bd 5244 9ebd
-0.0024534129 -0.059041142 0.017602418 0.20273976 -0.042400077 0.0020031563 -0.04475316 -0.02611423
-0.044170815 -0.034299094 -0.05384691 -0.05473893 -0.071048394 -0.058584966 -0.025463676 0.0075520733
0.27237844 -0.010182217 0.22734341 -0.054737777 0.029324617 -0.04839224 -0.043781426 -0.068528354
-0.044808023 0.0033338382 -0.0020081697 -0.05748871 0.014858605 0.010114178 -0.04380273 0.011080561
0.026542893 -0.015994048 -0.038306028 0.04878156 0.004077647 0.036372565 -0.049228985 0.028349942
-0.061061896 0.21001604 0.33681503 -0.02261839 -0.021859555 -0.01780858 -0.039718214 0.001680359
-0.017426843 0.5045398 -0.061134838 -0.0021748394 0.008621536 -0.0050325287 0.2020275 -0.049067605
0.020196687 -0.008804214 -0.044142414 -0.011270179 0.008779383 -0.006977583 -0.052158635 0.020882456
-0.008274181 -0.00029466863 0.038953822 -0.006336092 -0.0135131385 -0.0013606438 -0.014912906 -0.021464596
0.014585031 -0.028476931 0.058130696 -0.009934944 -0.03241829 -0.0031363105 -0.014329332 0.008502593
0.003069065 0.008848925 -0.018758232 0.0027940245 -0.005648741 0.027306607 -0.0045039994 -0.008092866
-0.008620881 -0.02961648 -0.023223344 -0.006141008 -0.017435296 0.010116408 -0.0067766146 -0.013152107
-0.05542428 -0.007376323 0.010729623 -0.004313238 -0.031652573 -0.027645765 -0.010694454 -0.015936205
-0.018326446 -0.00867383 -0.005038325 -0.009780353 -0.013478991 -0.029165559 0.0016737691 -0.022240818
0.036167476 -0.0039283987 0.003541604 -0.0060923174 -0.016180206 -0.002299788 0.0074381926 -0.007342533
0.028516123 -0.004828631 0.0023809853 -0.009732416 -0.018631782 -0.00771763 0.004998205 -0.0072857225
0.00094796147 0.06592042 -0.007857639 -0.053612486 0.047422722 0.005178684 -0.016020736 0.06304203
0.103494525 -0.16089818 0.06674488 0.04820223 0.1006001 0.033656314 -0.00952844 0.025131898
0.24847348 -0.010079199 0.17909047 0.02161208 0.049929406 0.04120528 0.064989656 0.07121413
0.07827909 0.015536847 -0.00016926562 0.055909492 0.0024757048 0.05656112 -0.20733777 0.0024812697
0.016804677 -0.001992624 0.051232003 0.0527148 0.010390162 0.0322011 0.06727491 0.0646791
0.059986047 0.22848374 0.22509955 -0.0039789826 -0.012671653 -0.004817127 0.16165702 0.043293532
0.04591276 0.3159412 0.05617568 -0.018416783 0.04579939 -0.012289571 0.06654773 -0.12037905
0.05088439 0.036207907 0.030207194 0.047236707 -0.02113901 -0.012869364 0.11699438 0.035534866
0.0035206552 0.00080940395 0.034193907 0.0076632737 -0.0009632546 -0.010899122 0.017166154 0.07123825
-0.05925992 -0.1553861 0.0660146 0.004974409 0.023998482 0.12965748 0.010743322 -0.011050108
-0.00725767 -0.02874906 -0.011794549 0.007855955 0.004364245 0.058226112 -0.022182886 0.013735529
-0.10911116 0.014077814 -0.23035438 -0.06090604 -0.007425953 0.0071909097 -0.015837178 0.0008066705
-0.13346562 -0.0870131 0.031289093 0.007858451 0.036881357 -0.012765003 -0.06753268 -0.073770136
-0.0460521 0.0016124411 0.035121825 0.002751888 -0.037964515 0.045857172 0.017022232 -0.06749324
0.017905526 0.043369785 0.01276278 0.017471153 0.01582218 -0.04252222 -0.1144661 0.0025960132
0.0632319 -0.006146415 0.009884542 -0.04683945 -0.06867136 0.012932602 -0.056639507 -0.07727875

update_node_embedding_layer.1.update_layer.weight f4 [64, 128]
00000000: f58f 26bc f22b e9bd 24cc b2ba 9135 d63d
00000010: 3f0d 93bd 19e0 943c 48e4 71bd deb5 3dbe
00000020: ab4f e5bd e187 b2be de07 a4bd c4f1 43bd
00000030: 5089 04be 7df7 d0bd b8cc cdbd 3b04 cf3c
00000040: 8d14 6d3e 4262 233b 1626 f73d 9989 8fbd
00000050: ceb6 1c3d 2836 dbbd ed66 2cbe d390 2fbe
00000060: 0637 efbd 542e 243c 0e74 b2bb 66eb 4bbd
00000070: 847e 243c 51a3 f13c 69f9 12bd f4ee ad3c
00000080: 69e3 143d fb69 c33b a442 4cbd 069e 253d
00000090: 4347 95bb f700 293d 6b27 dbbd e122 1e3d
000000a0: 5f75 c3bd 9850 203e 5093 343e 7220 b43b
000000b0: 59d5 c8bb b878 893b 79d7 bb3c 03d0 4d3d
000000c0: a24e 6abe 7c0f cb3e 0d4c aebd 58d0 3d3c
000000d0: 445a 02be 8f88 143c 9f75 d63d afa0 3bbd
000000e0: 9f84 723d d809 d63c 959e 47be c05f 9fbd
000000f0: 7629 6c3a 402b e63b 643a 933d 4ab7 653e
00000100: 4d9a d53b cbf8 ce3d 09fe c7bc 70a4 92bc
00000110: 57ca 16bc 0a51 85bc f941 20bd 69bd a03d
00000120: 16dc 9fbb 24c2 0fbd f8e8 13bd bebd bebc
00000130: 6e34 febb b7aa 00bb a6e3 bc3b 5b3d 5c3b
00000140: 3aee bb3b 250a a9bb 2f2a cebc 77cd d7bc
00000150: 2a7f c0bc bf31 78bc f1f9 81bc 745b 98bc
00000160: 4f7b 0dbe d1c7 d53d 9929 bfbc f211 c6bb
00000170: a20c 0b3c a7ec 91bc aee5 1d3d a781 c93a
00000180: 93a7 56bd 184b 8a3b 2308 82bc 698e c7bb
00000190: 0d1e 3ab8 93db d6bc 2870 43bc 82ae 52bb
000001a0: e644 f2bc 1918 ddbd 569b 5e3c ffba 25b9
000001b0: 4c99 32bd 2cc6 cb3b 914a e939 0569 2cbd
000001c0: f1ec 643c 706b 4abd e255 4d3c 29f2 37bd
000001d0: 8831 5abd a1ef 83bc f4f8 2ebd 4846 90bc
000001e0: cf0a 113c 2a0b b5bc 924c 0abd 6496 edbd
000001f0: e0cf 543d a67d 01bb 19ac dbbb d7ca b1bc
00000200: aefc 31bc 57d1 b23c 544c e6bb e948 16be
00000210: b30c 433c c638 2abc b43b 81bd 7379 dbbd
00000220: bbe5 0bbd ab2b c53d aff0 943c 31b4 9e3b
00000230: 861c 4b3c 9617 e33c 026c 52bc 9327 eebe
00000240: 3368 ebbd d741 5b3c 8dc4 dcbd 5c1d 303d
00000250: 36cc d1be 727b 323d e45f 93bc ae30 f5bc
00000260: f6d4 a8bd 8851 5b3b dd1b ccbb 51c3 2ebb
00000270: ab38 22bc 4033 b0be bb71 2cbe ca81 8dbc
00000280: 425f bfbe d73e 043c bd9e e43c ceea 9ebe
00000290: fc58 df3a 13df 9fbe d8cd fcbc 0fb0 88be
000002a0: ef65 403c 9ad0 9fbe 22de 94be ee47 32bc
000002b0: 5d39 45bc e456 9c3b df16 a0be 994e 96be
000002c0: 35ef c9bc f2df abbe 727b 863c f1ea 9a3a
000002d0: 5f01 09be 2151 3cbb a3e2 27be 9580 d7bd
000002e0: 3c2e c9be 2992 9ebe 2ebb 4a3d b2e4 59be
000002f0: 710b dabb c129 6fbb 59fb 29be bd5c 583d
00000300: 3536 15bd 0701 3f3d 5207 c0bc 1e03 7f3d
00000310: c05f 7cbc 58ab 4f3b 55a2 dc3d 92a2 503d
00000320: fca2 5e3b 48a9 333d 37da cbbb 2d5a a43d
00000330: 920a 90bc a9bb 8cbc 9ed5 1b3d bd43 0cbc
00000340: a4b1 da3c 6c42 3d3c b8c7 4e3d b44d cb3d
00000350: 685f 82bb 76d0 043a 755f 3b3d f6f6 6e3d
00000360: d8ec 883d a191 b13d 7216 813d 8742 59bb
00000370: e04a 133c ec6f fb3d 875e 9ebc 94ad ab3b
00000380: d0da cd3c 0158 ae3a 2dc7 f33c 7cd8 68bc
00000390: 5eb6 9c3d ed25 543d 0aa2 93b9 e372 c1bb
000003a0: f1ca 423d f2bf edbc b25e 633d 8b9c 1dbc
000003b0: b6ea d73c 9ad3 18bc 3062 513b 91ac f13d
000003c0: 66d8 7a3b 7191 d53d 8619 373c 1ce2 8d3d
000003d0: d339 cc3d e303 36bb 811c a83d 7df9 d7ba
000003e0: 87bd 70bb 2e00 633d 122f 0f3e 97de 2abd
000003f0: c2e3 883c fa64 663c 4818 583c a314 3c3e
-0.010166158 -0.11385335 -0.0013641161 0.10459436 -0.07180261 0.018173264 -0.059055597 -0.18526408
-0.11196836 -0.34869292 -0.08009313 -0.047837988 -0.12943006 -0.10203455 -0.10048813 0.025270572
0.23152371 0.0024930392 0.12067811 -0.070086665 0.038260274 -0.10703689 -0.16836138 -0.1714509
-0.11680417 0.010020811 -0.0054459637 -0.04978504 0.010039929 0.02949682 -0.035882387 0.021232106
0.036349688 0.0059635616 -0.04986824 0.040433906 -0.004555614 0.041260686 -0.10700878 0.038607482
-0.09543871 0.15655744 0.1763432 0.005497032 -0.0061289486 0.004195299 0.022929894 0.050247204
-0.22881559 0.3966025 -0.08510599 0.011585318 -0.12729746 0.009065761 0.10471653 -0.045807537
0.05920851 0.02612774 -0.19494088 -0.07781935 0.00090088637 0.007024199 0.071888715 0.224332
0.006518638 0.10106047 -0.024413126 -0.017900676 -0.009203515 -0.016273994 -0.039125416 0.07848627
-0.004878531 -0.035097256 -0.03611085 -0.023283836 -0.007757715 -0.0019633004 0.0057644425 0.0033605907
0.005735186 -0.00515868 -0.0251666 -0.02634309 -0.023498137 -0.015148579 -0.015866252 -0.018598296
-0.1381657 0.104385026 -0.023335265 -0.0060446197 0.008486899 -0.01781304 0.038549118 0.0015373722
-0.052405905 0.0042203777 -0.01587302 -0.0060899747 -4.4373843e-05 -0.026227748 -0.011928596 -0.0032147472
-0.029573869 -0.10795612 0.01358684 -0.00015805288 -0.043603227 0.0062186923 0.0004449678 -0.042092342
0.013972507 -0.049418867 0.012532683 -0.044908676 -0.053269893 -0.016105475 -0.04271789 -0.017611638
0.008852675 -0.02210005 -0.03376443 -0.1160095 0.051956058 -0.001975873 -0.0067038652 -0.021703167
-0.010863466 0.021828337 -0.007028142 -0.1467625 0.011904883 -0.010389512 -0.063102156 -0.10716524
-0.034154635 0.0962747 0.018181173 0.004843258 0.012396937 0.027721208 -0.012843134 -0.46514568
-0.11494484 0.013382397 -0.107796766 0.04299675 -0.40976113 0.043574758 -0.01799006 -0.029930439
-0.08243744 0.0033465344 -0.0062289075 -0.002666671 -0.009901206 -0.344141 -0.1684026 -0.017273802
-0.37377363 0.008071623 0.027907724 -0.31038517 0.0017040069 -0.3122488 -0.030859873 -0.26696822
0.011743053 -0.31213838 -0.29075724 -0.010881407 -0.012037602 0.0047711004 -0.3126745 -0.2935684
-0.024650196 -0.33569294 0.016416285 0.0011819286 -0.1337943 -0.002873488 -0.16395049 -0.10522572
-0.39293087 -0.30970886 0.049494915 -0.21278647 -0.006654196 -0.0036493393 -0.16599788 0.052822817
-0.03642865 0.04663184 -0.02344099 0.062258832 -0.015403688 0.0031687822 0.1077315 0.05093629
0.0033971658 0.04386261 -0.0062210816 0.08025012 -0.017583165 -0.017179327 0.038045518 -0.008561072
0.026696034 0.011551481 0.050483435 0.0992693 -0.0039786585 0.00050664635 0.04574533 0.05834099
0.06685799 0.08670355 0.06303109 -0.0033151226 0.00899002 0.12277207 -0.019332184 0.005239198
0.025128752 0.0013301374 0.02975806 -0.01421177 0.07651971 0.05179398 -0.00028158753 -0.005903588
0.04755682 -0.02902219 0.05551023 -0.009619842 0.026357036 -0.0093277935 0.0031949393 0.118004926
0.0038275956 0.10428131 0.011175519 0.069278926 0.099719666 -0.0027773313 0.08208562 -0.0016477552
-0.003673406 0.055420093 0.139828 -0.041716184 0.016710166 0.014062161 0.013189383 0.18367247
