ER_200spin/eco/network/network9200000.pth (torch, 238273 bytes, 11 tensors)

node_init_embedding_layer.0.weight f4 [64, 7]
0	0x3d112ddd	0.03544413
1	0xbe86f6d7	-0.263602
2	0xbea7871a	-0.32720262
3	0xbd06e63e	-0.03293442
4	0xba3c54c2	-0.0007184261
5	0xbb988354	-0.0046543274
6	0x3d889690	0.066693425
7	0x3c107300	0.008816481
8	0xbe3b03a6	-0.1826311
9	0xbcb4c439	-0.022066223
10	0x3d9e8ce2	0.07741715
11	0xbddf0413	-0.10889449
12	0x3dc5fdd0	0.096675515
13	0x3d1becc8	0.03806761
14	0x3cc4c8a7	0.02402146
15	0x3ee0cedf	0.4390783
16	0xbc93c8df	-0.018040119
17	0xbd373610	-0.044729292
18	0xbabb5d8e	-0.0014294849
19	0xbcbd803f	-0.023132442
20	0x3d13a7c5	0.03604867
21	0xbd346b09	-0.04404739
22	0x3eea90f6	0.4581372
23	0x3cde188f	0.02711132
24	0x3cf968ed	0.03044554
25	0x3a368d52	0.00069638074
26	0x3cab4862	0.020908538
27	0x3d3792f2	0.044817872
28	0xbbc981b0	-0.006149493
29	0xbb7f7c43	-0.0038983978
30	0xbc218543	-0.009858432
31	0xbc35e581	-0.011102081
32	0xbc314120	-0.01081875
33	0xbb77b1a6	-0.0037795096
34	0xbc79626c	-0.0152212195
35	0xbc35ae95	-0.011088987
36	0xbb5aad71	-0.003336754
37	0xbb09d2e0	-0.0021030232
38	0xbb2f15e3	-0.0026715926
39	0xbc590bb4	-0.013247419
40	0xbc86b436	-0.016443353
41	0xbbb2f8e5	-0.0054617994
42	0x3d14a79e	0.036292665
43	0x3f0515fc	0.5198667
44	0xbab19c55	-0.0013550619
45	0xbdd7e63e	-0.10541962
46	0x384e0ffa	4.9129107e-05
47	0xbd51075c	-0.05103241
48	0x3c0c54b7	0.0085651195
49	0x3c430a27	0.011904276
50	0xbe5b3349	-0.21406282
51	0xbf2ecb57	-0.6827902
52	0x3e898f39	0.26867083
53	0x3aa7924f	0.0012784692
54	0x3dbc39d8	0.0919072
55	0x3d5016a1	0.05080283
56	0x3d640e5f	0.055677768
57	0xbeb65fc7	-0.35619947
58	0x3db0a2ff	0.08624839
59	0x3e4a4a8b	0.19754998
60	0xbab5007a	-0.0013809346
61	0x3d5522ee	0.052035265
62	0x3d47a9f6	0.04874607
63	0x3d343624	0.043996945
64	0x3f01535a	0.5051781
65	0x3cc46434	0.023973562
66	0x3d173e1a	0.03692446
67	0xbaa42d4b	-0.0012525705
68	0xbb9e2e42	-0.0048272917
69	0xbcfbf4ac	-0.030756317
70	0xbcf670ef	-0.030083148
71	0x3ecff62b	0.406175
72	0x3dab0ee5	0.0835245
73	0x3de26c1e	0.11055778
74	0xbb9505e6	-0.0045478223
75	0x3cd7e919	0.026356267
76	0x3c802ffa	0.015647877
77	0xbcec5561	-0.028849306
78	0x3eb612c8	0.35561204
79	0xbe28761f	-0.1645131
80	0x3cc606ab	0.024173101
81	0x3bc9b69b	0.0061558015
82	0x3add06a5	0.0016862942
83	0xbe92f8cf	-0.2870545
84	0x3d36df6b	0.04464666
85	0x3f08e7ab	0.534785
86	0xbba6051f	-0.0050665285
87	0xbd98e618	-0.07465762
88	0xb9267487	-0.00015874403
89	0x3cb5ca2c	0.02219113
90	0x3c5176d7	0.012784681
91	0x3d109fc2	0.035308607
92	0xbebc2eb0	-0.3675437
93	0xbd054b96	-0.032542787
94	0x3d935f68	0.07195932
95	0xbb540f19	-0.0032357632
96	0xbcc99d83	-0.02461124
97	0x3c830c92	0.015997205
98	0x3d39c82c	0.045356914
99	0xbea4f2aa	-0.32216388
100	0xbcae37f5	-0.021266917
101	0x3df62877	0.12019437
102	0x39bc7ac2	0.00035949616
103	0xb97ebd53	-0.00024293856
104	0x3d11edd2	0.035627194
105	0x3c9a69f4	0.01884935
106	0x3d4a4d25	0.049389977
107	0xbe28cca1	-0.1648431
108	0x3dda6dd9	0.10665483
109	0xbb266555	-0.0025389988
110	0x3cd7e322	0.026353423
111	0xbe67db5d	-0.22642274
112	0x3d5e36ee	0.054251604
113	0xbe50bb0c	-0.20383853
114	0xbdfb1ca5	-0.12261323
115	0x3de7c34a	0.11316545
116	0xbcf88013	-0.030334508
117	0x3d9f01a9	0.077639885
118	0xbd19f11b	-0.03758345
119	0xbd9675b8	-0.07346672
120	0x3ed337dd	0.41253558
121	0x3d4b26b9	0.049597476
122	0x3c7e4d1e	0.015521316
123	0x3a494c9b	0.00076789566
124	0x3d4cf583	0.050038826
125	0x3d3f8f29	0.046767388
126	0x3d680f89	0.05665544
127	0xbee9d3f3	-0.45669517
128	0xbc063eac	-0.008193653
129	0x3e040535	0.12892611
130	0x3c04de1b	0.008109595
131	0x3be017fa	0.0068387957
132	0x3d739e82	0.059477337
133	0xbd92bf3c	-0.07165381
134	0x3ed4a9ab	0.41535696
135	0x3d9b72e5	0.07590274
136	0x3db8fdea	0.09032805
137	0xbb6c8eb2	-0.0036095795
138	0x3ce84a05	0.028355608
139	0x3cbe7a95	0.023251811
140	0x3d278fd5	0.040908653
141	0x3f06ee7d	0.52707654
142	0x3cdb93ae	0.026803818
143	0x3a48d658	0.0007661334
144	0xba9d4951	-0.0011999999
145	0x3b95b9b7	0.004569258
146	0xbca58f55	-0.020209948
147	0x3d5ba5a1	0.053624753
148	0xbee06599	-0.43827513
149	0x3ccc53bd	0.024942273
150	0x3e146d3c	0.14494795
151	0x39d4e125	0.00040603537
152	0x3c8d5cbd	0.017256135
153	0x3d4b2880	0.04959917
154	0x3c9a24aa	0.01881631
155	0xbe3be38c	-0.18348521
156	0x3dbc0241	0.091801174
157	0x3aec6809	0.0018036376
158	0xbd6107c1	-0.054939035
159	0x3dc16e40	0.09444857
160	0xbd1f01e9	-0.03882018
161	0xbc31a2ca	-0.010842035
162	0xbe60f802	-0.21969607
163	0x3e596737	0.2123078
164	0x3da7d985	0.081957854
165	0xb9061012	-0.00012785222
166	0x3d0a1d21	0.033719186
167	0x3db9dc25	0.09075192
168	0x3d296ec4	0.0413654
169	0xbe86e067	-0.2634308
170	0x3d9cc0fe	0.07653998
171	0x3ee50ecc	0.44737852
172	0x3b4eb1a7	0.0031538995
173	0x3dca5a31	0.09880484
174	0xbb98ef33	-0.0046671866
175	0xbd948124	-0.07251194
176	0x3ecb611d	0.3972253
177	0x3d65427e	0.055971615
178	0x3d01abf8	0.031658143
179	0x39fe7b9a	0.00048538746
180	0x3d26b32b	0.04069821
181	0xbd32617a	-0.043549992
182	0x3d5f3e48	0.054502755
183	0x3f0bb487	0.5457234
184	0x3cbaaaf4	0.022786595
185	0x3d0da081	0.034576897
186	0xba831a68	-0.0010002377
187	0x3cfb3b9a	0.030668069
188	0xbc128d87	-0.008944876
189	0xbb020dd5	-0.001984467
190	0x3b4a300a	0.0030851387
191	0x3a8fa26c	0.001095844
192	0xbc1a8f5b	-0.009433593
193	0xbbb782cb	-0.0056003085
194	0xbb8eda4b	-0.0043595186
195	0xbc28bf61	-0.010299535
196	0x3d245982	0.040124424
197	0x3eefb131	0.46814874
198	0x3ccc8256	0.024964493
199	0x3b7ecd10	0.003887955
200	0xbb88fe53	-0.0041807084
201	0x3a8cf669	0.0010754588
202	0xbd08086a	-0.03321115
203	0x3d5c063d	0.053716887
204	0xbee116bb	-0.43962654
205	0x3b761f80	0.0037555397
206	0x3df764ea	0.12079795
207	0x3b51b91b	0.00320012
208	0x3d39b4c4	0.045338407
209	0x3cc0f40b	0.023553869
210	0x3cdc38fd	0.026882643
211	0xbe566b15	-0.20939286
212	0xbc63b0c3	-0.013897124
213	0xbe4b0e69	-0.19829716
214	0xbb20fbe8	-0.002456421
215	0x3df433bc	0.1192393
216	0xbca93bc6	-0.020658385
217	0xbd8f09bd	-0.06984279
218	0xbe98fad9	-0.29878882
219	0x3cae6119	0.021286534
220	0x3e1fef19	0.15618552
221	0xbc92f785	-0.017940292
222	0x3c96ccd9	0.018408226
223	0x3d0bb245	0.034105558
224	0xbb2121a7	-0.0024586709
225	0x3c276496	0.010216853
226	0xbb802eda	-0.003911835
227	0xbc919d5c	-0.01777523
228	0xbb82edb8	-0.0039956234
229	0xbc082446	-0.0083094295
230	0xbb1a87c9	-0.002357947
231	0x3c453b3b	0.012038047
232	0x3e1330a4	0.14374024
233	0xbebc5861	-0.36786178
234	0x3b8d6fdd	0.0043163137
235	0x3af1afee	0.0018439272
236	0x3c2a0a1f	0.01037839
237	0xbed30267	-0.4121277
238	0x3cdabff8	0.026702866
239	0x3eedb12b	0.4642423
240	0x3acec665	0.0015775679
241	0xbcab0eab	-0.020881018
242	0x3ace05f9	0.0015718333
243	0x3d17e8cd	0.03708725
244	0x3c6cd0c5	0.014454071
245	0xbb445647	-0.0029958652
246	0x3b926890	0.004468031
247	0xbc35c51a	-0.011094356
248	0xbc3e6e0f	-0.01162292
249	0xbc364a1e	-0.011126069
250	0xbbcee017	-0.0063133347
251	0xbad7b7f7	-0.0016458024
252	0x3be95498	0.00712068
253	0xbe319cc1	-0.17344953
254	0xbe841abf	-0.25801656
255	0x3db43ef3	0.08801069

edge_embedding_layer.edge_embedding_NN.weight f4 [63, 8]
0	0x3cc98337	0.0245987
1	0x3cca358d	0.024683738
2	0x3eaec60e	0.3413548
3	0xbd7450ba	-0.0596473
4	0xbd4b1523	-0.049580704
5	0xbda7d8b5	-0.081956305
6	0xbbaa3ecb	-0.005195474
7	0xbd900514	-0.070322186
8	0xbc2291da	-0.009922469
9	0xbc308984	-0.010774974
10	0xbb8d67a7	-0.004315335
11	0xbb161a0b	-0.0022903706
12	0x3c12afd5	0.008953054
13	0xbcb5f926	-0.02221353
14	0xbc79e019	-0.015251183
15	0x3c0472b8	0.008083992
16	0x3cd48952	0.025944386
17	0x3c8f5133	0.017494773
18	0x3ea5adcd	0.32359162
19	0xbd7569f4	-0.059915498
20	0xbc9a161d	-0.018809373
21	0xbc6f090a	-0.014589557
22	0x39b43feb	0.00034379898
23	0xbc7d4010	-0.015457168
24	0x3d570c89	0.05250219
25	0x3d2ef3bc	0.042712912
26	0x3ea604b7	0.32425472
27	0xbe36f6e3	-0.17867617
28	0xbd84c6cd	-0.06483231
29	0x396a7b97	0.0002236202
30	0x3d419370	0.047259748
31	0xbd3bd656	-0.045858704
32	0xbc765733	-0.015035438
33	0xbbdcdea1	-0.0067404066
34	0x3c7c1de9	0.0153879905
35	0xbc711abd	-0.014715848
36	0xbc20fc8f	-0.00982584
37	0xbac778db	-0.0015218513
38	0xbab5c1b9	-0.0013866938
39	0xbb08a058	-0.0020847525
40	0xbc2a87bb	-0.010408337
41	0xba1a6be9	-0.00058907137
42	0x3b21fb4a	0.002471643
43	0xbb89685c	-0.004193349
44	0x3b376976	0.0027986444
45	0xbc5eb404	-0.013592724
46	0x3c3dafbd	0.011577544
47	0x3b304c3d	0.002690091
48	0xbc244c97	-0.010028026
49	0xbd4392ab	-0.047747295
50	0xbe3f9098	-0.18707502
51	0x3e032bf8	0.12809741
52	0x3b1639b3	0.0022922575
53	0xbce68613	-0.028140103
54	0xbe006a36	-0.12540516
55	0x3d821da0	0.06353307
56	0xbb8bf1a4	-0.004270749
57	0x3b313444	0.002703921
58	0xbe816495	-0.2527205
59	0x3e36fe23	0.17870383
60	0x3dd8af8d	0.10580359
61	0x3c8d8861	0.017276945
62	0xbbbc2981	-0.0057422523
63	0x3e025337	0.12727056
64	0x3a9b1dd0	0.0011834446
65	0xbe28e199	-0.16492309
66	0xbe79941e	-0.24372908
67	0x3df35a82	0.11882497
68	0x3dcb7cf1	0.0993594
69	0x3afc933a	0.0019269951
70	0x3a8497f1	0.0010116083
71	0x3db709f5	0.08937446
72	0x37dd42b4	2.6376314e-05
73	0xbda567b6	-0.08076422
74	0xbe67ea06	-0.22647867
75	0x3e065955	0.13120015
76	0x3cf7e7a8	0.03026183
77	0x3cba69b6	0.022755485
78	0xbd469074	-0.048477605
79	0x3de271f5	0.11056892
80	0xbcbf9b10	-0.02338937
81	0xbb7464dd	-0.0037291565
82	0xbe676ff7	-0.22601305
83	0x3e189a8f	0.1490271
84	0x3dd03ea0	0.10168195
85	0x3c26d073	0.010181534
86	0x3b8939a2	0.0041877786
87	0x3dcfea63	0.101521276
88	0xba078721	-0.0005169977
89	0xba95eb46	-0.0011437915
90	0xbacf199f	-0.0015800482
91	0xbc3ed8e9	-0.011648395
92	0xbc0960e9	-0.008384922
93	0xbc9bb220	-0.019005835
94	0xbcadfc9e	-0.021238621
95	0xbb4d5313	-0.0031330034
96	0xbc40debb	-0.011771853
97	0xbbd385ff	-0.0064551826
98	0xbc999342	-0.018746976
99	0x3c0c41de	0.008560626
100	0xbb3b6b8e	-0.0028598043
101	0xbc5799c0	-0.013159215
102	0x3ac1615c	0.0014753747
103	0xbb5d917b	-0.0033808637
104	0x3d5b618b	0.05355982
105	0x3ca1775d	0.019710237
106	0x3e9eb137	0.3099458
107	0xbe09ef6f	-0.13470243
108	0xbc8c5947	-0.017132415
109	0xbb0f4d9f	-0.0021866334
110	0x3d415791	0.04720265
111	0xbe05f985	-0.13083465
112	0xbc650409	-0.013978013
113	0xbd66ff46	-0.05639579
114	0xbe6031f3	-0.21894054
115	0x3e0359c0	0.12827206
116	0x3d608869	0.05481759
117	0x3c7a91a8	0.015293516
118	0xbea81987	-0.32831976
119	0x3dccb2a6	0.09995012
120	0x3d88fbea	0.06688674
121	0x3d4b125b	0.049578052
122	0x3ea093b8	0.313627
123	0xbe379698	-0.1792854
124	0xbdd62443	-0.10456135
125	0x3b723346	0.003695683
126	0x3d5f09a3	0.05445255
127	0xbd9a85db	-0.07545062
128	0xbc978f6e	-0.01850101
129	0xbd0a53e6	-0.033771418
130	0xbe5d8f69	-0.21636738
131	0x3e1a7285	0.15082748
132	0x3dd83f65	0.105589665
133	0xbb9c25fa	-0.0047652693
134	0x3cc63679	0.024195896
135	0x3d9d80b1	0.076905616
136	0x3d2d59b8	0.04232189
137	0x3c26a476	0.0101710465
138	0x3eac20f6	0.33618897
139	0xbdb75191	-0.089511044
140	0x3d23cce1	0.03999031
141	0xbb8ddc8f	-0.004329271
142	0x3ccfe121	0.025375905
143	0xbd899de4	-0.06719568
144	0x3d4fe925	0.050759453
145	0xba11c44d	-0.0005560562
146	0x3ea4d3bf	0.321928
147	0xbe066969	-0.13126148
148	0xb944f54d	-0.00018783398
149	0x3b6a23ad	0.003572683
150	0x3d063962	0.03276957
151	0xbe0d4be0	-0.13798475
152	0xbc5c005c	-0.01342782
153	0xbd6e5f31	-0.05819625
154	0xbe43e508	-0.19130337
155	0x3e0334df	0.12813137
156	0x3e1ab9fa	0.15110007
157	0xbb852208	-0.0040628947
158	0xbd13cd16	-0.036084257
159	0x3d93cd02	0.072168365
160	0xbabd41d8	-0.0014439179
161	0xbc205429	-0.00978569
162	0x3b1d0c6d	0.0023963705
163	0x3aa9ed3d	0.0012964379
164	0xbaa46acd	-0.0012544036
165	0xb9275185	-0.0001595673
166	0xbbe7546f	-0.007059626
167	0xbc163b4d	-0.009169412
168	0xbc475ac7	-0.012167639
169	0xbcf720f2	-0.030167077
170	0xbe60c26f	-0.2194917
171	0x3e0a80ad	0.13525648
172	0x3e04d838	0.12973106
173	0xbbb16a35	-0.005414272
174	0x3c428245	0.011871879
175	0x3d9cabca	0.07649954
176	0x3d4e116e	0.05030959
177	0x3d4495d6	0.047994457
178	0x3ea5f964	0.32416832
179	0xbe4db4b2	-0.20088461
180	0xbd3e6781	-0.046485428
181	0xbb88250a	-0.004154806
182	0x3d48e1e8	0.049043566
183	0xbcd715a0	-0.026255429
184	0xbac274e0	-0.0014835857
185	0xba8e844b	-0.0010873167
186	0x39d1eda0	0.0004004063
187	0x3b001626	0.0019544451
188	0xbc923157	-0.017845793
189	0xbbb0dbb9	-0.0053972867
190	0xbb3423de	-0.0027487199
191	0xbb7c7255	-0.0038520296
192	0x3d9050e6	0.0704668
193	0x3d1a8019	0.03771982
194	0x3ea39484	0.31949246
195	0xbe5a0dac	-0.21294278
196	0xbde7f56f	-0.113261096
197	0x3c320adf	0.01086685
198	0x3d0d5a81	0.03451014
199	0xbd8fee94	-0.07027927
200	0x3d046231	0.032320205
201	0xbaba89b6	-0.0014231715
202	0x3ead2d24	0.33823502
203	0xbea4e110	-0.3220296
204	0xbcb87db7	-0.022520883
205	0x3c446eed	0.011989337
206	0x3cc0d116	0.0235372
207	0xbea457ae	-0.32098144
208	0xbc57a7a1	-0.013162524
209	0xbc891fb1	-0.016738744
210	0xbe53abac	-0.20670956
211	0x3e20b4e9	0.15694012
212	0x3d1122d5	0.03543361
213	0x3be3d8c4	0.0069533307
214	0xbed21c8c	-0.41037405
215	0x3dd54a47	0.10414558
216	0x3d6d48cb	0.05793075
217	0x3c8cbbbd	0.017179364
218	0x3e9fbe80	0.31200027
219	0xbe27ab3c	-0.16373914
220	0x3d2e3e30	0.042539775
221	0xbaf0582e	-0.0018336826
222	0x3d1b230b	0.037875216
223	0xbd912013	-0.07086196
224	0xbc72cea2	-0.014819773
225	0xbc72e95d	-0.014826146
226	0xbc8821f8	-0.01661776
227	0xbc7a36e5	-0.015271877
228	0xbbf97fbc	-0.007614104
229	0xbc45d3ce	-0.012074424
230	0xbc541806	-0.012945181
231	0xbc2c6b4a	-0.010523627
232	0xbc214497	-0.009843013
233	0xbd8a54fe	-0.06754492
234	0xbe44b52f	-0.19209741
235	0x3e274099	0.16333236
236	0x3de37c56	0.111076996
237	0x3bcfc6ab	0.0063408217
238	0xbe2a817d	-0.16650958
239	0x3dc8d74b	0.09806689
240	0x3d3dc39f	0.046329137
241	0x3d41d876	0.047325574
242	0x3ea0aeb4	0.31383288
243	0xbe572918	-0.2101177
244	0xbd7f2c1c	-0.062297925
245	0xba976f97	-0.0011553642
246	0x3d54288f	0.051796492
247	0xbc53397c	-0.012892123
248	0x3cde5048	0.02713789
249	0xbcc08c09	-0.023504274
250	0x3ec13a66	0.37739867
251	0xbea49511	-0.3214498
252	0xbd794fb8	-0.06086704
253	0xbbda7596	-0.0066668494
254	0x3c671559	0.014104211
255	0xbeb05c43	-0.3444539

edge_embedding_layer.edge_feature_NN.weight f4 [64, 64]
0	0x3d3a6555	0.045506794
1	0x3bdaa9ff	0.006673097
2	0x3d1b9d03	0.037991535
3	0x3d8225bf	0.06354856
4	0x3c229df9	0.009925359
5	0x3c06994c	0.00821526
6	0xbd45a441	-0.048252348
7	0xbd6e2fe7	-0.058151152
8	0xbd2105b8	-0.039312094
9	0xbcf616ee	-0.03004023
10	0xbd150cc8	-0.036389142
11	0x3aa17491	0.0012318065
12	0xbbb9a833	-0.005665803
13	0x3d9ee0fd	0.07757757
14	0xbd2b78d2	-0.04186327
15	0x3d8841ad	0.06653152
16	0xbd1d2ea0	-0.038374543
17	0x3d03ee62	0.03220976
18	0x3d249365	0.04017963
19	0xbbbd5132	-0.0057775015
20	0x38e5ccfb	0.000109577515
21	0xbd110b49	-0.035411153
22	0x3d412dd1	0.047162835
23	0x3b299970	0.002587881
24	0x3d4c7557	0.04991659
25	0x3e0dceeb	0.13848464
26	0xbdc0ed8d	-0.09420309
27	0x3d4ea8d5	0.05045398
28	0xbb0ea57f	-0.0021766124
29	0xbd779836	-0.060447894
30	0x3d4af87c	0.04955338
31	0x3e068b8b	0.13139169
32	0xbd5b030f	-0.053469714
33	0xbd318816	-0.043342672
34	0x3db2c4a4	0.087289125
35	0xbc1eb401	-0.009686471
36	0x3d472e65	0.04862823
37	0xbd203504	-0.03911306
38	0xbd4af639	-0.049551222
39	0x3d82c0a9	0.06384403
40	0xbd12dbfe	-0.035854332
41	0x3d5bc81e	0.053657643
42	0x3cb12a3d	0.021626586
43	0x3d9adeb6	0.0756201
44	0x3b5e7067	0.0033941509
45	0xbca4e162	-0.020127002
46	0xbd00e813	-0.031471323
47	0xbb132378	-0.002245156
48	0x3b0960f6	0.0020962334
49	0xbd3d6474	-0.046238378
50	0x3c8e4d97	0.017370982
51	0xbc29b62f	-0.010358377
52	0x3cf2fc3f	0.029661296
53	0x3c54a5f9	0.012979024
54	0xbd282360	-0.04104936
55	0x3cf73007	0.030174268
56	0x3d9b9e75	0.07598583
57	0x3dfdef46	0.123991534
58	0x3c182ddc	0.0092882775
59	0x3c9b18cd	0.018932724
60	0x3d275e6a	0.040861525
61	0x3db5cc3c	0.08876845
62	0x3d2e29b3	0.042520236
63	0x3d5805f2	0.052740045
64	0xbc303ff4	-0.010757435
65	0xbc05461d	-0.008134392
66	0x3acbe4e5	0.0015555887
67	0x3c06c416	0.0082254615
68	0x3afbc13b	0.0019207367
69	0x3b0dc229	0.002163062
70	0x3bf8190b	0.0075713447
71	0x3c0fc407	0.008774764
72	0xbbf16fc0	-0.007368058
73	0xbc05bb90	-0.008162394
74	0xbc43b55a	-0.011945093
75	0x3a0b30f0	0.00053097215
76	0x3c61c0a9	0.013778844
77	0x3bcc8d7b	0.0062424517
78	0x3b309bde	0.0026948373
79	0xbc6ff1ae	-0.014645023
80	0x38ce2614	9.829938e-05
81	0x3bfcbd0f	0.007712967
82	0x3c04536f	0.008076533
83	0xbb091872	-0.0020919112
84	0xbc1671cf	-0.0091824075
85	0xbc1403b8	-0.00903409
86	0xbb964366	-0.0045856712
87	0xbcca8800	-0.024723053
88	0x3bc8d0ac	0.0061283913
89	0x3c2f1bb4	0.010687757
90	0xbc026435	-0.0079584615
91	0xbb3c7db2	-0.0028761444
92	0x3c4cccdb	0.012500013
93	0xbcac9ed0	-0.021071821
94	0x3ba3b3e2	0.004995809
95	0x3b97d3f0	0.004633419
96	0xb86cf069	-5.6490684e-05
97	0xbc7fc71e	-0.015611438
98	0xbc2defb4	-0.010616232
99	0xbb45fb0a	-0.0030209445
100	0xbcbaf724	-0.022822924
101	0x3b9752c7	0.004618022
102	0xbbac1fcd	-0.0052528144
103	0x3c1577d6	0.009122809
104	0x3a1af863	0.00059116463
105	0x3c5081b3	0.012726235
106	0x3b92ae4a	0.0044763433
107	0x3b841c8f	0.0040317248
108	0xbb22c8db	-0.0024838957
109	0xbc4a5853	-0.01235016
110	0xba183dd0	-0.00058075506
111	0x3c88aab7	0.016682966
112	0x3c5be4bb	0.013421233
113	0x3a4147f3	0.0007373087
114	0x3bb4e0f0	0.0055199787
115	0x3b6370ea	0.0034704753
116	0xbcc0dd45	-0.02354301
117	0xbc486df4	-0.012233246
118	0x3b85bdde	0.004081472
119	0xbc9396b4	-0.018016197
120	0xbc0d2da8	-0.008616842
121	0xbbdc8050	-0.006729163
122	0xbbaee179	-0.005336937
123	0x3a03acbd	0.00050229934
124	0x3b6e4b69	0.0036360866
125	0xbb84c5f2	-0.004051917
126	0x3c138cce	0.009005738
127	0xbcf299d2	-0.029614363
128	0x3cd5b308	0.026086345
129	0xbbd022fb	-0.0063518262
130	0x3ca21abd	0.01978814
131	0x3cf8a57c	0.030352347
132	0xbc3e3d2e	-0.011611266
133	0xbb84ebc2	-0.004056425
134	0xba9cf92a	-0.0011976112
135	0xbacd86de	-0.0015680452
136	0x3d24965c	0.040182456
137	0xbc839fb3	-0.016067361
138	0xbbcbab6f	-0.006215505
139	0x3b10207a	0.0021992014
140	0xbafb3ae3	-0.001916733
141	0x3c58e0c5	0.013237183
142	0xbcd0713a	-0.025444616
143	0x3a15c1cc	0.0005712777
144	0xbb96fe91	-0.0046079834
145	0xbc245aba	-0.0100313965
146	0xbcf5d95e	-0.030010875
147	0xbab53326	-0.0013824448
148	0xbcc653fd	-0.02420997
149	0x3c63cb8b	0.013903509
150	0x3c8b043f	0.016969798
151	0x3b86e627	0.0041167918
152	0xbc862883	-0.01637674
153	0xbde6ac54	-0.11263338
154	0xbcab74ea	-0.020929772
155	0xbd210eb4	-0.039320663
156	0xbbf69535	-0.007525111
157	0xbc2e35fe	-0.01063299
158	0x3c45084c	0.012025904
159	0xbe24734b	-0.16059606
160	0x3c5a52e4	0.013325427
161	0x3c9804d1	0.018556984
162	0x3962f259	0.00021643321
163	0x3d2394c4	0.039936796
164	0x3cbb2e49	0.022849219
165	0x3c5cb13e	0.013469992
166	0x3c5512f8	0.013005011
167	0x3d0ac78c	0.03388171
168	0x3cdbf1a3	0.02684862
169	0xbd8eebe7	-0.069785886
170	0xbbc06448	-0.0058713295
171	0x3cb75315	0.022378484
172	0xbb48607b	-0.0030575085
173	0x3d3d2dd1	0.046186272
174	0x3d59dd73	0.053189706
175	0x3c384fd8	0.011249505
176	0xbc58d26b	-0.013233761
177	0x3cc5e8ff	0.024158953
178	0xb90d89bd	-0.0001349812
179	0x3c36160b	0.011113654
180	0x3d0cd22a	0.034380116
181	0x3acd6703	0.0015670959
182	0x3cb2eab5	0.021840433
183	0xbd3d3b80	-0.04619932
184	0xbca5aca2	-0.02022392
185	0xbd2f3f11	-0.042784754
186	0x3b9e3c1b	0.0048289425
187	0x3c1a18e2	0.009405347
188	0x3c4b9548	0.012425728
189	0x3c0d614e	0.008629156
190	0x3cf81efe	0.030288216
191	0xb90def4e	-0.00013535956
192	0xbc64669c	-0.01394048
193	0xbbe11e57	-0.006870072
194	0xbc1844c6	-0.009293741
195	0x3c0bc6d4	0.008531291
196	0x3b5b1fe5	0.0033435759
197	0xbc06ab8d	-0.008219612
198	0xbc22d12a	-0.009937564
199	0x35f1eb25	1.8024335e-06
200	0x3bd59b52	0.0065187598
201	0xbacde4c1	-0.0015708433
202	0x3c0ae14f	0.008476569
203	0xbbf11adc	-0.007357938
204	0xbb971dd7	-0.0046117115
205	0x3b13a07e	0.002252608
206	0xbc10207d	-0.008796808
207	0xbb18d0e3	-0.0023317866
208	0xbc8ee465	-0.017442891
209	0x3bc7cc73	0.0060973703
210	0xbc816c24	-0.015798636
211	0xbba69a27	-0.0050842944
212	0x3b87c0a2	0.0041428367
213	0xbb974283	-0.004616083
214	0xb88678ba	-6.412105e-05
215	0xbb1cd23a	-0.0023929016
216	0x3b24f554	0.002517064
217	0xbc288a92	-0.010286944
218	0xbb48f6d8	-0.0030664708
219	0x3c013fed	0.007888776
220	0x3c3181f8	0.01083421
221	0xba960320	-0.0011445023
222	0xbb307756	-0.0026926599
223	0xba8412e0	-0.0010076426
224	0xbc858e08	-0.016303077
225	0x3bea81c1	0.007156581
226	0x3a88d0fb	0.0010438258
227	0x39478a4a	0.00019029636
228	0x3a6bbbd8	0.00089925295
229	0xbbb77335	-0.0055984505
230	0xbbb8831d	-0.0056308643
231	0x390ac7cf	0.0001323514
232	0xbbb30f06	-0.0054644374
233	0xbb89bf46	-0.00420371
234	0x390305e2	0.00012495325
235	0xb95c5f24	-0.00021016278
236	0x3c8fa7c0	0.017536044
237	0x3c8b199f	0.01697999
238	0xbc5d5942	-0.01351005
239	0x3bbb3935	0.0057136067
240	0xba249bc1	-0.00062793127
241	0xb9a491a7	-0.00031389037
242	0x3b473395	0.0030395736
243	0xbc5a2fdb	-0.013317074
244	0xba1649a6	-0.00057330204
245	0x3bb355bd	0.0054728673
246	0xbacdc1cb	-0.0015698014
247	0xbbfbfa05	-0.0076897168
248	0x3c57cca2	0.013171347
249	0xbc5dbc3b	-0.013533647
250	0xb9bc8578	-0.00035957596
251	0xba22f04f	-0.00062156183
252	0xbb065416	-0.0020496896
253	0xbc0deb9f	-0.0086621335
254	0x3bd47b37	0.006484415
255	0xbb9e6e9d	-0.0048349635

update_node_embedding_layer.0.message_layer.weight f4 [64, 128]
0	0xbc9c22c1	-0.01905954
1	0x3ae57d81	0.0017508717
2	0xbc67072d	-0.014100832
3	0xbb8a4754	-0.0042199288
4	0xbc92801a	-0.01788335
5	0x3c3a54a3	0.011372718
6	0x3bfd2931	0.0077258577
7	0x3b6a8d6e	0.0035789865
8	0xbc0ad4cf	-0.008473589
9	0xbc9c8d65	-0.01911039
10	0x3bd03c38	0.006354835
11	0xbcaa1045	-0.020759711
12	0xbc88d541	-0.01670325
13	0xbc5f2453	-0.0136195
14	0x3b215f90	0.002462361
15	0xba78c1cb	-0.00094893266
16	0xbc86d11f	-0.016457139
17	0xbb73953f	-0.0037167815
18	0xbb63882b	-0.0034718614
19	0x3ba99200	0.0051748753
20	0xbc40843b	-0.011750276
21	0xbccf5698	-0.025309846
22	0xbc3ec934	-0.01164465
23	0xbc3f5a57	-0.011679254
24	0x3c8ceebc	0.017203681
25	0x3c1858b3	0.009298491
26	0xbbdf6335	-0.0068172463
27	0xbb855148	-0.0040685274
28	0xbbc5af98	-0.0060328953
29	0xbc9afbe1	-0.018918933
30	0xbc0d20ff	-0.008613824
31	0x3c3d8da5	0.011569415
32	0xbaf72e49	-0.0018858399
33	0x3c07ff23	0.008300575
34	0x3b7578e3	0.0037456087
35	0xbba1efb0	-0.004941903
36	0xbbd959ec	-0.006633034
37	0xbb9c9303	-0.0047782674
38	0xbc9c59e0	-0.019085824
39	0xbc4e8239	-0.01260429
40	0xbbb2d960	-0.005458042
41	0x3b9f3470	0.004858546
42	0xbca0574c	-0.019572876
43	0xbc7b94b4	-0.015355278
44	0x3b732be2	0.0037105014
45	0x3c1dfd00	0.009642839
46	0xbc429fce	-0.011878921
47	0xb714f500	-8.878531e-06
48	0xbc234eeb	-0.009967546
49	0x3c1b6386	0.009484177
50	0xbb94e507	-0.0045439037
51	0xbbb05c0e	-0.0053820675
52	0xb948c84c	-0.00019148103
53	0x3b81be1a	0.0039594295
54	0xbcb4fc29	-0.022092896
55	0x3c2d8026	0.010589635
56	0xbbede422	-0.0072598616
57	0xbc2384cf	-0.0099803945
58	0xbc4b9017	-0.01242449
59	0xbbad9127	-0.0052968445
60	0xba5305d9	-0.00080498826
61	0x3c975d96	0.018477242
62	0x3c023bdf	0.007948845
63	0xbb1bffe5	-0.0023803648
64	0xbbce0970	-0.006287746
65	0xbb1f3f76	-0.00242993
66	0x3c2bc9a9	0.010485091
67	0xbc4a63bd	-0.012352881
68	0xba8a72ca	-0.0010562774
69	0xba2d4be5	-0.00066107354
70	0xbc697fcb	-0.01425166
71	0x3b94909b	0.00453384
72	0xbc11708e	-0.008876933
73	0xbb00e923	-0.001967021
74	0xbc0f88f2	-0.008760678
75	0x3c60e5df	0.013726681
76	0xbbd9b47f	-0.0066438313
77	0x3b8eb015	0.0043544867
78	0x3ae442e3	0.0017414953
79	0x3ca7206d	0.020401204
80	0xbb8d519f	-0.0043127085
81	0x3a04d92d	0.0005067762
82	0xbaa54a8c	-0.0012610718
83	0xbbac23d7	-0.005253296
84	0xbbd8ceb0	-0.006616436
85	0x3a544b39	0.0008098367
86	0xbc0b59b4	-0.008505274
87	0x3c6209b5	0.01379626
88	0x3b3ee9b5	0.0029131
89	0x3a97ac0d	0.0011571661
90	0x3a7abd20	0.0009564925
91	0x3c5eb829	0.013593712
92	0xbc83cc1a	-0.016088534
93	0xbc6453a1	-0.013935954
94	0xbbbe14a8	-0.0058008023
95	0x3ca5b5f8	0.020228371
96	0x3c38cd99	0.011279487
97	0xbc97e2b4	-0.018540718
98	0x3c629dca	0.013831565
99	0xbaacfb45	-0.0013197443
100	0x387dc87b	6.0506612e-05
101	0xbb0b3c1e	-0.002124555
102	0xbc177049	-0.009243079
103	0x3cc843ae	0.024446335
104	0x3b1c2ff5	0.0023832296
105	0xbb3391ec	-0.0027400209
106	0x3b7436c0	0.003726408
107	0x3b975742	0.0046185562
108	0xbc413f67	-0.011794901
109	0xbcc29778	-0.023753867
110	0x3becdd1b	0.0072285063
111	0xbbbac510	-0.005699761
112	0xbc21deea	-0.009879807
113	0x3c729569	0.01480613
114	0xbbdc6f53	-0.006727138
115	0x3c08b937	0.00834494
116	0x3aed3f71	0.0018100572
117	0x3ae5bb54	0.0017527142
118	0x3bdd1c90	0.0067477897
119	0xbc39376b	-0.011304717
120	0x3b93a6bb	0.00450596
121	0x3c065456	0.008198818
122	0xbc000146	-0.007812804
123	0xbc5c405c	-0.013443079
124	0xbb38e372	-0.002821174
125	0x3ad2f1cf	0.0016093793
126	0x3b82fe9a	0.003997636
127	0xbb6c5618	-0.0036062058
128	0x3cb04e13	0.021521604
129	0xbd46e340	-0.048556566
130	0x3dcf294f	0.10115301
131	0x3d1fc016	0.039001547
132	0xbb9aafee	-0.0047206795
133	0x3c7700d2	0.015075879
134	0x3e1047ce	0.14089891
135	0x3c32d40d	0.010914815
136	0xb9b34d16	-0.00034198974
137	0x3e022c3d	0.12712188
138	0x3ce505b2	0.027956817
139	0x3ca718b6	0.020397525
140	0x3dd0ebb5	0.102012075
141	0xbc8910c5	-0.01673163
142	0xbc44005e	-0.011962978
143	0x3be50d28	0.0069900937
144	0xbdbd6521	-0.092478044
145	0xba812493	-0.0009852819
146	0xbba86939	-0.0051394966
147	0x3d240f02	0.040053375
148	0x3e11eb0d	0.14249821
149	0x3914a847	0.00014177068
150	0x3d295a41	0.04134584
151	0x3cb23ab5	0.02175651
152	0xbc6ff3eb	-0.014645557
153	0xbcb2e377	-0.02183698
154	0x3dcd78e0	0.10032821
155	0x3c365618	0.011128925
156	0x3df379ba	0.11888452
157	0xbd1b2efa	-0.037886597
158	0xbe2aa3c2	-0.16664031
159	0x3d1b7778	0.03795573
160	0xba71bcbd	-0.00092215446
161	0xbbe0636c	-0.0068477895
162	0x3dae4118	0.085085094
163	0x3b5a4b35	0.0033308987
164	0xba3ddede	-0.00072429876
165	0x3c2aec8b	0.010432373
166	0xbd4bed0a	-0.049786605
167	0x3cb2bb4a	0.021817822
168	0x3972360c	0.00023099052
169	0x3b7ad1a6	0.0038271933
170	0x3d259649	0.040426526
171	0xbd87a4e2	-0.06623246
172	0x3cce51f6	0.025185566
173	0xbae71472	-0.0017629995
174	0x3d8a39e6	0.067493245
175	0xbd3bbd85	-0.045835037
176	0x3d5a816b	0.05334608
177	0xbc90948b	-0.017648956
178	0x3d908a8a	0.07057674
179	0x3dd1ae4e	0.10238324
180	0x3a1cd722	0.0005982985
181	0xbc3339d6	-0.010939082
182	0x3b6c83b7	0.003608925
183	0x3d6279a3	0.055291783
184	0xbb21a5cb	-0.002466547
185	0x3c3aaffe	0.011394499
186	0x3dff2b4c	0.1245943
187	0xbcc92a81	-0.0245564
188	0x3de1f77f	0.11033534
189	0x3bb60480	0.0055547357
190	0xbdea9fb1	-0.1145624
191	0x3da82d3c	0.08211753
192	0x3a01333b	0.00049285934
193	0xba04de7e	-0.00050685543
194	0x3ced6bce	0.02898207
195	0xbbefd5f3	-0.007319206
196	0x3d240dd9	0.04005227
197	0x3c1813fc	0.009282108
198	0x3b05d84a	0.0020423108
199	0x3b887cf4	0.004165286
200	0xbc195a3a	-0.009359891
201	0xbc88799d	-0.016659552
202	0x3d0e7dd1	0.034787957
203	0xbc707288	-0.014675744
204	0xbdb094db	-0.08622142
205	0x3d89c566	0.06727104
206	0xbba36a20	-0.0049870163
207	0xbb9f95a7	-0.004870135
208	0xbc95fddf	-0.018309532
209	0x3c1c70c3	0.009548369
210	0xbc32fc73	-0.010924446
211	0xbb7fdebc	-0.0039042672
212	0x3a491629	0.00076708436
213	0x3d216dca	0.039411344
214	0xbbf6db0f	-0.007533438
215	0xbde6b613	-0.11265197
216	0xbcc8fec8	-0.024535552
217	0xbc9d6578	-0.019213423
218	0x3e54189a	0.2071251
219	0xbc137c05	-0.0090017365
220	0x3c1d68ee	0.009607537
221	0xbd25bd77	-0.04046389
222	0xbc622706	-0.013803249
223	0xbc9b4ea6	-0.018958401
224	0x3e015c1e	0.12632796
225	0xbcc1722a	-0.023614008
226	0xbc40894f	-0.011751487
227	0xb8f1a10a	-0.000115217714
228	0xbc97e9e7	-0.01854415
229	0xbb195592	-0.002339695
230	0xbc0342e5	-0.008011554
231	0xbd0fa6df	-0.03507125
232	0xbb88de9f	-0.004176929
233	0xbce9390a	-0.028469581
234	0xbd47d2e4	-0.048785105
235	0xbc6551b3	-0.013996529
236	0xbc97d0ca	-0.018532176
237	0xbc9570b5	-0.01824222
238	0xbcf83f42	-0.030303601
239	0xbcd6fc2b	-0.02624329
240	0x3c49faf7	0.012327901
241	0xbbb0fe9a	-0.0054014446
242	0xb9ca69e5	-0.0003860734
243	0x3c74daa9	0.014944711
244	0x3c2c2f9e	0.0105094
245	0x3c4e369c	0.012586262
246	0xbbc6eb0b	-0.0060705
247	0xbc9f7564	-0.019465156
248	0xbd13d3ca	-0.03609065
249	0x3b4f5161	0.00316342
250	0xbc549177	-0.012974135
251	0xbc06a807	-0.008218772
252	0xbc9ed8ab	-0.019390425
253	0x3b1c27ce	0.0023827436
254	0x3dbed10c	0.09317216
255	0xbbb9d69d	-0.005671336

update_node_embedding_layer.0.update_layer.weight f4 [64, 128]
0	0x3bf605d7	0.0075080204
1	0x3bdf6e4b	0.006818568
2	0x3a62f235	0.00086573075
3	0xbba921c8	-0.0051614977
4	0x3bf3be54	0.0074384604
5	0xbc442742	-0.01197225
6	0xbbb97a0d	-0.0056603015
7	0xbacb5ba8	-0.0015514987
8	0x3bd251f7	0.0064184624
9	0x3c6c7e8f	0.014434471
10	0xbc3dfb84	-0.0115956105
11	0xbada4d45	-0.0016655108
12	0xbca535e6	-0.020167302
13	0xba325a05	-0.0006803575
14	0xbb0d007e	-0.0021515186
15	0xbc04be57	-0.008102021
16	0x3c43c989	0.011949905
17	0x39cc102d	0.00038921964
18	0xbc682ae5	-0.014170383
19	0xbb518af1	-0.0031973685
20	0xba4aa308	-0.0007729982
21	0xbc223fe4	-0.009902928
22	0xbc1d2f24	-0.009593759
23	0xbb8e6dcc	-0.004346585
24	0xbc29667b	-0.010339375
25	0xba2c5b7d	-0.0006574912
26	0xbc46e2b1	-0.012139008
27	0xba300e6e	-0.00067160174
28	0x3af31270	0.0018544924
29	0xbc2ae303	-0.0104301
30	0x3c290046	0.010315007
31	0xbbc986ba	-0.006150094
32	0xbca5f789	-0.020259636
33	0xbd09ad1d	-0.03361236
34	0xbc12288d	-0.008920801
35	0x3bcdcc8f	0.006280489
36	0x3c51ebcc	0.012812566
37	0x390a9601	0.00013216586
38	0xbc062897	-0.008188388
39	0x3c8cd89e	0.017193135
40	0x3c29734d	0.010342431
41	0xbb8fb0c4	-0.004385086
42	0x38757f5a	5.8531157e-05
43	0xbc11caa0	-0.008898407
44	0xbbf162e8	-0.007366527
45	0x3c671010	0.014102951
46	0xbcc74ff0	-0.02433011
47	0x3b9b9746	0.004748258
48	0xbc6f733c	-0.014614876
49	0x3b92cbab	0.0044798455
50	0xbb914f9b	-0.0044345385
51	0xbc11c791	-0.008897678
52	0xbc3143d6	-0.010819396
53	0xbbee4ddc	-0.007272465
54	0xbb95a3a7	-0.004566628
55	0x3911a3bc	0.00013889273
56	0xbae6172b	-0.0017554512
57	0xbc5588fb	-0.013033147
58	0x3ba6cf59	0.0050906357
59	0xbbde83be	-0.0067906072
60	0xbaffe9d4	-0.0019524642
61	0xbbfac709	-0.0076531214
62	0x3ca0e5a5	0.019640753
63	0x396b4b8d	0.00022439491
64	0x3c4bffcc	0.012451123
65	0x3b80bd43	0.0039288118
66	0x3c126bbc	0.008936819
67	0x3b5a3bff	0.003329992
68	0xbb8bb7e9	-0.004263867
69	0xbba25b70	-0.004954748
70	0x3c52af60	0.0128591955
71	0xbb678c76	-0.0035331524
72	0xbbd50efc	-0.0065020304
73	0x3be4f30c	0.0069869813
74	0x3bed38e9	0.0072394502
75	0xba428508	-0.0007420336
76	0x3c81d1cf	0.015847115
77	0x3abd19ae	0.0014427209
78	0xbbdb1dae	-0.0066868877
79	0x3b67e77d	0.003538578
80	0x3c8ac9bb	0.016941896
81	0xbc283cba	-0.010268385
82	0x3be60133	0.007019186
83	0x3a9f1042	0.0012135583
84	0x3c203a9e	0.0097796
85	0xbc34828f	-0.011017456
86	0xbc10ffd1	-0.008850054
87	0x3b1b513a	0.0023699538
88	0xbc1ec635	-0.009690811
89	0xbc4752e8	-0.0121657625
90	0x3cabce5c	0.020972423
91	0x3c73c974	0.014879573
92	0x3a8c76e1	0.0010716581
93	0x3c88d9d7	0.016705437
94	0xbb37c321	-0.002803989
95	0xbb807590	-0.0039202645
96	0x3b53e6fc	0.0032333722
97	0x3c48cdde	0.012256114
98	0x3aa02a8a	0.0012219709
99	0xbc2aefde	-0.010433165
100	0xbc8025ad	-0.015642965
101	0xbbad09da	-0.0052807154
102	0xbc3bbae8	-0.011458136
103	0xbbaa7bf0	-0.005202763
104	0xbc4c2417	-0.012459776
105	0x3c7b66a2	0.015344294
106	0xbc7b43e6	-0.0153360125
107	0xbc29fde0	-0.01037547
108	0xbac78e43	-0.0015224892
109	0xbcdec525	-0.027193615
110	0xbc9a8b57	-0.01886527
111	0xbbd0b97a	-0.006369767
112	0xbb786cc5	-0.0037906629
113	0x3b316a23	0.002707132
114	0xbbb7a87b	-0.0056048012
115	0xbc161b64	-0.009161804
116	0xbc24bd38	-0.010054879
117	0xbc43046c	-0.01190291
118	0xbc241296	-0.010014197
119	0x3b8a76a9	0.004225571
120	0xbb109f8b	-0.0022067751
121	0x3bb2cce3	0.0054565533
122	0x3cd234bb	0.02565991
123	0xbcbd9b09	-0.023145216
124	0xbbe2c894	-0.0069208834
125	0x3b5d8d15	0.0033806015
126	0xbb247746	-0.0025095507
127	0x3c760013	0.015014666
128	0x3e0d4d5c	0.13799042
129	0x3d7e294b	0.0620511
130	0xbb8a2deb	-0.0042168996
131	0xbe05b50e	-0.13057348
132	0xbbadeb00	-0.005307555
133	0xbbaef6d1	-0.0053394814
134	0xbdb97be8	-0.09056836
135	0x3d1f15b9	0.038839076
136	0x3d12fc12	0.035884924
137	0xbd5e3c72	-0.054256864
138	0xbd361de8	-0.044462115
139	0x3d271a2d	0.040796448
140	0xbd3b8a5f	-0.045786258
141	0x3ce926d3	0.028460896
142	0x3d3c39bf	0.04595351
143	0xbd2f4e4c	-0.04279928
144	0x3da63ba9	0.08116848
145	0xbe4b86dc	-0.19875664
146	0x3d4d65d1	0.050145928
147	0xbe46f060	-0.19427633
148	0xbd483538	-0.04887888
149	0x3d2b71f6	0.04185673
150	0x3d42d4c3	0.047566187
151	0xbad65915	-0.0016353453
152	0xbc5307b5	-0.0128802555
153	0xbdcaa190	-0.09894097
154	0xbd182260	-0.037142158
155	0x3bf57dec	0.0074918177
156	0xbcd8c0a4	-0.026459046
157	0x3d248ad5	0.040171463
158	0x3db9df5b	0.09075805
159	0xbb48f809	-0.0030665419
160	0xbc516d69	-0.012782433
161	0xbe4ebe5b	-0.20189802
162	0xbd9869c1	-0.07442046
163	0x3c8452b1	0.016152712
164	0x3d9f9b50	0.077932954
165	0x3d1d89c2	0.038461454
166	0x3daccbbc	0.08437297
167	0xbd6f6517	-0.058446016
168	0x3ca0d5ed	0.019633258
169	0x3983f395	0.0002516775
170	0x3d8eab21	0.06966234
171	0x3d24d9d3	0.040246796
172	0xbd0c66f8	-0.034277886
173	0xbbc36d41	-0.005963952
174	0xbd03a0b0	-0.032135665
175	0xbdeafbe0	-0.114738226
176	0xbe3cebad	-0.18449278
177	0x3d84a778	0.06477255
178	0xbd315f57	-0.043303814
179	0xbe5e5162	-0.21710733
180	0x3d54a059	0.051910732
181	0x3dfb6dc5	0.12276796
182	0x3d65172f	0.055930313
183	0xbe1d3b87	-0.15354739
184	0xbc532f28	-0.012889661
185	0x3c13e9a3	0.009027871
186	0xbdfcae35	-0.12337915
187	0x3cb3d160	0.021950424
188	0xbe15f7ef	-0.1464536
189	0x3d8a459b	0.067515574
190	0x3dd48f6a	0.103789166
191	0x3c9b738f	0.018976001
192	0xbb5fe0b6	-0.0034161038
193	0x3cf79370	0.03022167
194	0x3cbfd746	0.02341808
195	0x3ac08a28	0.0014689611
196	0xbccf36bc	-0.025294654
197	0xbc079711	-0.008275763
198	0x3b34e914	0.0027604746
199	0xbc323300	-0.010876417
200	0xbceac30b	-0.028657457
201	0x39c36909	0.00037271556
202	0xbd345737	-0.044028487
203	0xba3c14f0	-0.0007174751
204	0xbbe2e471	-0.006924205
205	0x3c4632cf	0.012097075
206	0x3c5445fc	0.012956139
207	0xbd28a353	-0.041171383
208	0xbcdb25a0	-0.02675134
209	0x3b92d2c5	0.004480692
210	0xbc9583ca	-0.018251318
211	0xb90f13fc	-0.00013644987
212	0x3c0c5fed	0.008567792
213	0x3b2593ea	0.0025265166
214	0x3d091d1d	0.03347503
215	0xbbf53fd0	-0.0074844137
216	0xbd3cbefd	-0.046080578
217	0xbc8fc198	-0.017548367
218	0x3b68e999	0.0035539626
219	0x3c460425	0.012085949
220	0x3be28274	0.006912524
221	0xbbe90609	-0.007111315
222	0xbc932397	-0.017961306
223	0xba83d7ef	-0.001005886
224	0x3c003bf4	0.007826794
225	0xbbf53f82	-0.0074843774
226	0xbd5f388c	-0.054497287
227	0xbd970f32	-0.07375945
228	0xbd47a2f6	-0.048739396
229	0x3c797fb8	0.015228204
230	0x3acd9b36	0.0015686515
231	0x3dacd1f2	0.084384814
232	0x3c06073b	0.008180435
233	0xbba06bca	-0.004895662
234	0x3c4efc40	0.012633383
235	0xbbe622ad	-0.0070231766
236	0xbd8f0548	-0.06983429
237	0x3c41230c	0.011788141
238	0xbcb9b4d0	-0.022669226
239	0x3ccf36f9	0.025294768
240	0x3a023801	0.00049674517
241	0xbda1ef83	-0.07907011
242	0xbca9a691	-0.020709308
243	0xbdaf04bf	-0.08545827
244	0x3cea7cfd	0.028624052
245	0xbd669446	-0.05629375
246	0x3b4b56d3	0.0031027093
247	0xbc4391b3	-0.011936593
248	0x3c4de29e	0.012566237
249	0x3ca09627	0.019602848
250	0xbc5cf29c	-0.013485577
251	0x3c0317d3	0.008001286
252	0xbbea5189	-0.007150833
253	0xbc33bdf1	-0.0109705785
254	0xbccd9b13	-0.02509836
255	0xbc0c7a69	-0.008574107

update_node_embedding_layer.1.message_layer.weight f4 [64, 128]
0	0xbb20c970	-0.0024534129
1	0xbd71d520	-0.059041142
2	0x3c9032f2	0.017602418
3	0x3e4f9b03	0.20273976
4	0xbd2dabb4	-0.042400077
5	0x3b034763	0.0020031563
6	0xbd374f17	-0.04475316
7	0xbcd5ed82	-0.02611423
8	0xbd34ec75	-0.044170815
9	0xbd0c7d35	-0.034299094
10	0xbd5c8e94	-0.05384691
11	0xbd6035ee	-0.05473893
12	0xbd9181d2	-0.071048394
13	0xbd6ff6ca	-0.058584966
14	0xbcd09933	-0.025463676
15	0x3bf77762	0.0075520733
16	0x3e8b7530	0.27237844
17	0xbc26d350	-0.010182217
18	0x3e68ccb6	0.22734341
19	0xbd6034b8	-0.054737777
20	0x3cf03a2e	0.029324617
21	0xbd4636f1	-0.04839224
22	0xbd335427	-0.043781426
23	0xbd8c5898	-0.068528354
24	0xbd37889e	-0.044808023
25	0x3b5a7c86	0.0033338382
26	0xbb039b7f	-0.0020081697
27	0xbd6b7948	-0.05748871
28	0x3c737182	0.014858605
29	0x3c25b5f0	0.010114178
30	0xbd336a7e	-0.04380273
31	0x3c358b3e	0.011080561
32	0x3cd9707b	0.026542893
33	0xbc8305f3	-0.015994048
34	0xbd1ce6c8	-0.038306028
35	0x3d47cf2c	0.04878156
36	0x3b859dc8	0.004077647
37	0x3d14fb66	0.036372565
38	0xbd49a455	-0.049228985
39	0x3ce83e23	0.028349942
40	0xbd7a1c0a	-0.061061896
41	0x3e570e72	0.21001604
42	0x3eac7305	0.33681503
43	0xbcb94a34	-0.02261839
44	0xbcb312cf	-0.021859555
45	0xbc91e34d	-0.01780858
46	0xbd22af91	-0.039718214
47	0x3adc3f7e	0.001680359
48	0xbc8ec2bd	-0.017426843
49	0x3f012985	0.5045398
50	0xbd7a6886	-0.061134838
51	0xbb0e87c0	-0.0021748394
52	0x3c0d4158	0.008621536
53	0xbba4e7e9	-0.0050325287
54	0x3e4ee04c	0.2020275
55	0xbd48fb1d	-0.049067605
56	0x3ca57386	0.020196687
57	0xbc103f8d	-0.008804214
58	0xbd34cead	-0.044142414
59	0xbc38a68f	-0.011270179
60	0x3c0fd767	0.008779383
61	0xbbe4a435	-0.006977583
62	0xbd55a44b	-0.052158635
63	0x3cab11af	0.020882456
64	0xbc07906e	-0.008274181
65	0xb99a7dc1	-0.00029466863
66	0x3d1f8e0b	0.038953822
67	0xbbcf9efe	-0.006336092
68	0xbc5d6636	-0.0135131385
69	0xbab257a1	-0.0013606438
70	0xbc745543	-0.014912906
71	0xbcafd685	-0.021464596
72	0x3c6ef60e	0.014585031
73	0xbce94874	-0.028476931
74	0x3d6e1a74	0.058130696
75	0xbc22c62d	-0.009934944
76	0xbd04c90a	-0.03241829
77	0xbb4d8a8f	-0.0031363105
78	0xbc6ac593	-0.014329332
79	0x3c0b4e76	0.008502593
80	0x3b49225e	0.003069065
81	0x3c10fb15	0.008848925
82	0xbc99aadd	-0.018758232
83	0x3b371bf4	0.0027940245
84	0xbbb91913	-0.005648741
85	0x3cdfb21b	0.027306607
86	0xbb939649	-0.0045039994
87	0xbc0497f1	-0.008092866
88	0xbc0d3e98	-0.008620881
89	0xbcf29e43	-0.02961648
90	0xbcbe3ee2	-0.023223344
91	0xbbc93a82	-0.006141008
92	0xbc8ed477	-0.017435296
93	0x3c25bf4a	0.010116408
94	0xbbde0e5d	-0.0067766146
95	0xbc577bef	-0.013152107
96	0xbd630492	-0.05542428
97	0xbbf1b515	-0.007376323
98	0x3c2fcb4d	0.010729623
99	0xbb8d5610	-0.004313238
100	0xbd01a621	-0.031652573
101	0xbce2795f	-0.027645765
102	0xbc2f37cb	-0.010694454
103	0xbc828ca5	-0.015936205
104	0xbc962158	-0.018326446
105	0xbc0e1cae	-0.00867383
106	0xbba51889	-0.005038325
107	0xbc203dc6	-0.009780353
108	0xbc5cd6fc	-0.013478991
109	0xbceeec9c	-0.029165559
110	0x3adb625f	0.0016737691
111	0xbcb63260	-0.022240818
112	0x3d142459	0.036167476
113	0xbb80b9cc	-0.0039283987
114	0x3b681a41	0.003541604
115	0xbbc7a210	-0.0060923174
116	0xbc848c5a	-0.016180206
117	0xbb16b80a	-0.002299788
118	0x3bf3bc15	0.0074381926
119	0xbbf099a2	-0.007342533
120	0x3ce99aa5	0.028516123
121	0xbb9e397e	-0.004828631
122	0x3b1c0a4e	0.0023809853
123	0xbc1f74b6	-0.009732416
124	0xbc98a1ae	-0.018631782
125	0xbbfce42c	-0.00771763
126	0x3ba3c7fc	0.004998205
127	0xbbeebd12	-0.0072857225
128	0x3a78809e	0.00094796147
129	0x3d8583b0	0.06519258
130	0xbc00e939	-0.007868105
131	0xbd503037	-0.05082723
132	0x3d47a16d	0.048737932
133	0x3ba9b1f3	0.005178684
134	0xbc4ad5d6	-0.012380084
135	0x3d7031fd	0.058641423
136	0x3dca2e4b	0.09872111
137	0xbe200407	-0.15626536
138	0x3d87c5c4	0.06629518
139	0x3d432b30	0.04764861
140	0x3dc6a2bd	0.096990086
141	0x3d12a0c2	0.03579784
142	0xbba51c8a	-0.0050388025
143	0x3ccc065e	0.02490538
144	0x3e7e4a4e	0.24833032
145	0xbc25233a	-0.010079199
146	0x3e377ef6	0.17919526
147	0x3ca8e2a7	0.020615889
148	0x3d4ca410	0.04996115
149	0x3d27a728	0.040930897
150	0x3d766cfc	0.06016253
151	0x3d8a6b58	0.067587554
152	0x3d968674	0.07349864
153	0x3c7f31bc	0.015575822
154	0xb9317ce5	-0.00016926562
155	0x3d59a0e1	0.05313194
156	0x3b223f6f	0.0024757048
157	0x3d64cf2b	0.055861633
158	0xbe537184	-0.20648772
159	0x3b229ccc	0.0024812697
160	0x3c90277b	0.01759695
161	0xbb0296af	-0.001992624
162	0x3d4d1242	0.05006624
163	0x3d60a64a	0.054846086
164	0x3c2a3b7f	0.010390162
165	0x3d0d539e	0.03450357
166	0x3d8bcbe0	0.068259954
167	0x3d8723e2	0.06598641
168	0x3d7a1f1c	0.061064824
169	0x3e68e15c	0.22742218
170	0x3e6c2dff	0.23064421
171	0xbb826220	-0.0039789826
172	0xbc4f9cc4	-0.012671653
173	0xbb9dd8fd	-0.004817127
174	0x3e1fc9a2	0.1560426
175	0x3d3cf671	0.046133462
176	0x3d252478	0.040317982
177	0x3ea25384	0.31704342
178	0x3d6e78e9	0.058220778
179	0xbc96decb	-0.018416783
180	0x3d1d11d7	0.03834709
181	0xbc495a32	-0.012289571
182	0x3d8b48d9	0.06801004
183	0xbe01d514	-0.12678939
184	0x3d508d51	0.05091602
185	0x3d12a7d2	0.035804577
186	0x3cbc2543	0.022966987
187	0x3d21e1a5	0.039521832
188	0xbcad2bb8	-0.02113901
189	0xbc52da06	-0.012869364
190	0x3ddb3eee	0.10705362
191	0x3d14795e	0.036248557
192	0x3b43ac96	0.0029857508
193	0x3a542e2e	0.00080940395
194	0x3d142fbf	0.036178347
195	0x3bfb1c33	0.0076632737
196	0xbbe84c64	-0.0070891846
197	0xbc32923b	-0.010899122
198	0x3c8ca009	0.017166154
199	0x3d906cbe	0.07051991
200	0xbd774d0e	-0.06037622
201	0xbe26663d	-0.16249938
202	0x3d6b00e8	0.05737391
203	0x3b937681	0.0045002108
204	0x3cc4d9b3	0.024029588
205	0x3dfefa0f	0.12450039
206	0x3c3004c2	0.010743322
207	0xbc350b83	-0.011050108
208	0xbbedd1c0	-0.00725767
209	0xbceb8326	-0.02874906
210	0xbc413ded	-0.011794549
211	0x3c00b643	0.007855955
212	0x3b8f01f1	0.004364245
213	0x3d6ec152	0.058289833
214	0xbcbdc00b	-0.023162862
215	0x3c5d6530	0.0135128945
216	0xbde66cf2	-0.112512484
217	0x3c41887b	0.011812325
218	0xbe7de49e	-0.24794242
219	0xbd79789d	-0.06090604
220	0xbbf35569	-0.007425953
221	0x3be178ea	0.006880869
222	0xbc8717c2	-0.01649082
223	0xbba979f2	-0.0051720077
224	0xbe1175cf	-0.14205097
225	0xbdb449a0	-0.08803105
226	0x3cfd8035	0.030944923
227	0x3c00c0bc	0.007858451
228	0x3d1710e8	0.036881357
229	0xbc51244e	-0.012765003
230	0xbd8a4e93	-0.06753268
231	0xbd9f049c	-0.07764551
232	0xbd3f0a22	-0.046640523
233	0x3a4f2916	0.00079025456
234	0x3d0e5974	0.034753278
235	0x3b345905	0.002751888
236	0xbd1ff0ea	-0.039048113
237	0x3d3f1f36	0.046660624
238	0x3c876c7d	0.016531223
239	0xbd8aa665	-0.067700185
240	0x3c87e230	0.016587347
241	0x3d2fa433	0.042881202
242	0x3c511afb	0.01276278
243	0x3c8f1faa	0.017471153
244	0x3c819d84	0.01582218
245	0xbd2e2bc8	-0.04252222
246	0xbded2a4e	-0.115803346
247	0x3b2a21e0	0.0025960132
248	0x3d7cc7a6	0.061713837
249	0xbbc967de	-0.006146415
250	0x3c21f2c6	0.009884542
251	0xbd53f76d	-0.051749635
252	0xbd8e8a15	-0.06959931
253	0x3c53e344	0.012932602
254	0xbd8374a6	-0.06418733
255	0xbd9e4452	-0.07727875

update_node_embedding_layer.1.update_layer.weight f4 [64, 128]
0	0xbc268ff5	-0.010166158
1	0xbdf16768	-0.11787301
2	0xbac55226	-0.0015054389
3	0x3de25b4a	0.11052568
4	0xbd93d0d8	-0.07217568
5	0x3c94e019	0.018173264
6	0xbd558f6c	-0.05213873
7	0xbe350943	-0.17679314
8	0xbdd082f7	-0.101812296
9	0xbeada7d2	-0.339171
10	0xbd95058d	-0.07276449
11	0xbd6173ba	-0.055042006
12	0xbe04556b	-0.1292321
13	0xbdc1c26c	-0.09460911
14	0xbdbf82bf	-0.0935111
15	0x3ce338fb	0.027737131
16	0x3e68beb4	0.22728997
17	0x3b236242	0.0024930392
18	0x3dfed2e3	0.12442567
19	0xbd92f2dd	-0.07175229
20	0x3d27299b	0.040811162
21	0xbdcbb58f	-0.09946739
22	0xbe265dcb	-0.16246717
23	0xbe28aef1	-0.16472985
24	0xbdd6f45e	-0.10495828
25	0x3c242e54	0.010020811
26	0xbbb2740e	-0.0054459637
27	0xbd63a9cd	-0.055581857
28	0x3c247e84	0.010039929
29	0x3d073946	0.033013605
30	0xbcf4319e	-0.029808816
31	0x3cadeef4	0.021232106
32	0x3d243eca	0.040098943
33	0x3bc369fb	0.0059635616
34	0xbd5b959a	-0.053609468
35	0x3d35a83c	0.044349894
36	0xbb954743	-0.004555614
37	0x3d3b8bff	0.045787808
38	0xbdd1202c	-0.102112144
39	0x3d2aa0c1	0.041657213
40	0xbdbd109f	-0.09231686
41	0x3e204f48	0.15655243
42	0x3e38cafd	0.18046184
43	0x3bb42072	0.005497032
44	0xbbc8d559	-0.0061289486
45	0x3b8978b8	0.004195299
46	0x3caa7cd3	0.020811474
47	0x3d5a7921	0.053338174
48	0xbe60c90e	-0.21951696
49	0x3ec44f52	0.38341767
50	0xbda7d2ad	-0.0819448
51	0x3c3dd058	0.011585318
52	0xbdf4e937	-0.11958545
53	0x3c14888f	0.009065761
54	0x3de04d23	0.10952213
55	0xbd473381	-0.048633102
56	0x3d7c450f	0.061589297
57	0x3cf0c2fc	0.02938985
58	0xbe3ae264	-0.18250424
59	0xbd982963	-0.07429769
60	0x3a6c2976	0.00090088637
61	0x3be62b40	0.007024199
62	0x3d8d723a	0.069065526
63	0x3e6614aa	0.2246882
64	0x3bd59a4d	0.006518638
65	0x3dce9ae2	0.10088135
66	0xbcc7fe09	-0.024413126
67	0xbc591b72	-0.013251172
68	0xbc16ca57	-0.009203515
69	0xbc85510a	-0.016273994
70	0xbd0754d8	-0.033039898
71	0x3d9fe8bd	0.07808063
72	0xbb9fdc16	-0.004878531
73	0xbcdb7939	-0.026791202
74	0xbcfe82a6	-0.031068157
75	0xbc8db5d0	-0.017298609
76	0xbbfe346e	-0.007757715
77	0xbb00aab7	-0.0019633004
78	0x3c0f6690	0.00875248
79	0x3b5c3d5b	0.0033605907
80	0x3bbbee3a	0.005735186
81	0xbba90a25	-0.00515868
82	0xbc9576cf	-0.018245129
83	0xbca1ffbe	-0.019775268
84	0xbb59a942	-0.0033212458
85	0xbc7831bf	-0.015148579
86	0xbc1e1a11	-0.009649769
87	0xbc5d4477	-0.013505093
88	0xbe158177	-0.14600168
89	0x3dd8385f	0.10557627
90	0xbc32e701	-0.010919333
91	0xbbc611f2	-0.0060446197
92	0x3c0b0ba4	0.008486662
93	0xbc44705d	-0.01198968
94	0x3d1f18c8	0.038841993
95	0x3ac981a7	0.0015373722
96	0xbd396827	-0.045265343
97	0x3b8a4b18	0.0042203777
98	0xbc564722	-0.013078483
99	0xbbc78e69	-0.0060899747
100	0x3b9eee84	0.0048502106
101	0xbca44071	-0.02005026
102	0xbc437028	-0.011928596
103	0xbb52ada2	-0.003214695
104	0xbcae2fe9	-0.02126308
105	0xbdd474f5	-0.1037387
106	0x3c4f8a87	0.012667305
107	0xb925baff	-0.00015805288
108	0xbd2bda16	-0.04195603
109	0x3bb6635e	0.0055660447
110	0x39e94a91	0.0004449678
111	0xbd213bef	-0.039363798
112	0x3c64ecf1	0.013972507
113	0xbd2d3614	-0.0422879
114	0x3c4d55e2	0.012532683
115	0xbd1daebe	-0.038496725
116	0xbd3d68ae	-0.04624241
117	0xbc83efa1	-0.016105475
118	0xbd0f9a05	-0.035058994
119	0xbc904efb	-0.017615786
120	0x3c110acf	0.008852675
121	0xbc68204f	-0.014167859
122	0xbcdc567d	-0.02689671
123	0xbdf30afb	-0.11867329
124	0x3d5260dc	0.051361904
125	0xbb017da6	-0.001975873
126	0xbbdaf8fa	-0.0066825124
127	0xbc83e836	-0.016101938
128	0xbc31fcae	-0.010863466
129	0x3c720f79	0.014774197
130	0xbbe64c54	-0.007028142
131	0xbe08f69a	-0.13375321
132	0x3bc7bef9	0.0060957638
133	0xbc2a38c6	-0.010389512
134	0xbd806756	-0.0626971
135	0xbde217f5	-0.11039726
136	0xbd1f20a1	-0.038849477
137	0x3dc53bf9	0.096305795
138	0x3c625aa2	0.013815554
139	0x3b09a435	0.0021002416
140	0x3bab7850	0.005232848
141	0x3ca9ed63	0.020743078
142	0x38d56064	0.000101745856
143	0xbeeb54fb	-0.45963272
144	0xbdeb6833	-0.11494484
145	0x3c5b41d7	0.013382397
146	0xbde4e6f1	-0.11176861
147	0x3d2518aa	0.040306725
148	0xbecd2ed1	-0.4007478
149	0x3d156b84	0.036479488
150	0xbca4f454	-0.020136036
151	0xbd0c343e	-0.03422951
152	0xbda9a2e0	-0.08283019
153	0x3b362f15	0.002779906
154	0xbbcc1bdd	-0.0062289075
155	0xbbf23137	-0.007391121
156	0xbc2238b3	-0.009901213
157	0xbead2918	-0.33820415
158	0xbe22893e	-0.15872666
159	0xbc8d81ca	-0.017273802
160	0xbec08714	-0.37603056
161	0x3c043ed7	0.008071623
162	0x3cd5a2bd	0.026078576
163	0xbe9ec847	-0.31012174
164	0x3adf58fc	0.0017040069
165	0xbe9fe9e4	-0.31233132
166	0xbd0bd4f5	-0.03413864
167	0xbe867896	-0.26263875
168	0x3be11097	0.0068684327
169	0xbea17ee7	-0.3154213
170	0xbe8cee9a	-0.2752579
171	0xbc3247ee	-0.010881407
172	0xbc45395d	-0.012037602
173	0x3b9c56e4	0.0047711004
174	0xbe9fb43d	-0.31192198
175	0xbe9260e5	-0.2858955
176	0xbcb8b2c1	-0.022546174
177	0xbeabdff2	-0.33569294
178	0x3c14fe04	0.009093765
179	0x3a9aeaf1	0.0011819286
180	0xbdf4ccc8	-0.119531214
181	0xbb3c5121	-0.002873488
182	0xbe19df5e	-0.15026614
183	0xbdb9582f	-0.09050023
184	0xbec5d84f	-0.38641593
185	0xbea5eefe	-0.324089
186	0x3d80ed54	0.06295267
187	0xbe55e260	-0.20887136
188	0xbbda0b71	-0.006654196
189	0xbb6f29c1	-0.0036493393
190	0xbe24527e	-0.16047093
191	0x3d5a47b4	0.053291038
192	0xbd153635	-0.03642865
193	0x3d3dac31	0.046306793
194	0xbcc00752	-0.02344099
195	0x3d60d743	0.05489279
196	0xbc7c5fc0	-0.015403688
197	0x3b4fab58	0.0031687822
198	0x3dd9e695	0.10639683
199	0x3d54689b	0.051857572
200	0x3b5ea2fc	0.0033971658
201	0x3d109a7e	0.035303585
202	0xbb2fc8fe	-0.0026822682
203	0x3d936550	0.07197058
204	0xbc900a92	-0.017583165
205	0xbc8cbba9	-0.017179327
206	0x3d1fdfce	0.039031796
207	0xbc0c43bd	-0.008561072
208	0x3cdab1a4	0.026696034
209	0x3c3d426c	0.011551481
210	0x3d2c9285	0.04213192
211	0x3dc245bd	0.09485958
212	0x3bfa4d86	0.007638636
213	0x3a04d076	0.00050664635
214	0x3d148dbb	0.036267977
215	0x3d4961ae	0.04916542
216	0x3d90660c	0.07050714
217	0x3db1ef3b	0.08688208
218	0x3d63edd5	0.055646736
219	0xbb594287	-0.0033151226
220	0x3c13494a	0.008989641
221	0x3df27096	0.1183788
222	0xbcad2998	-0.021137998
223	0x3babad94	0.005239198
224	0x3c92c0b5	0.017914155
225	0x3aae5801	0.0013301374
226	0x3d035a0e	0.032068305
227	0xbc68d87c	-0.01421177
228	0x3d8caf1a	0.068693355
229	0x3d2d55d6	0.042318188
230	0xb993a20a	-0.00028158753
231	0xbbc1720f	-0.0059034894
232	0x3d1cbf81	0.03826857
233	0xbcbd79fc	-0.023129456
234	0x3d8c50bd	0.06851337
235	0xbc1d9c8b	-0.009619842
236	0x3d44b161	0.048020724
237	0xbbdaabf8	-0.0066733323
238	0x3b516230	0.0031949393
239	0x3de5804a	0.1120611
240	0x3b7ad866	0.0038275956
241	0x3dca7d10	0.09887135
242	0x3c371986	0.011175519
243	0x3d90ef0c	0.070768446
244	0x3dc10486	0.09424691
245	0xbb3603e3	-0.0027773313
246	0x3d9c4826	0.07630949
247	0xba377b72	-0.0006999291
248	0xbb70bd87	-0.003673406
249	0x3d4347e6	0.04767599
250	0x3e07a176	0.13245186
251	0xbd236943	-0.039895307
252	0x3c88c10d	0.016693616
253	0x3c6664fa	0.014062161
254	0x3c57f1d5	0.013180216
255	0x3e3a61ea	0.18201414
