ER_200spin/eco/network/network7600000.pth (torch, 238273 bytes, 11 tensors)

node_init_embedding_layer.0.weight f4 [64, 7]
0.02627428 -0.2706689 -0.25708848 -0.017495535 -0.0025244576 -0.013529621 0.070745066 0.007953675
-0.210931 -0.026868168 0.09493067 -0.087111145 0.09810401 0.03428928 0.022256441 0.4191855
-0.021053808 -0.041174047 -0.00012003336 -0.015325296 0.029959878 -0.026955914 0.41531903 0.02652469
0.00018236291 0.0022585585 0.013180335 0.032028113 -0.006149493 -0.0038983978 -0.009858432 -0.011102081
-0.01081875 -0.0037795096 -0.0152212195 -0.011088987 -0.0034881043 -0.0020412283 -0.0026715926 -0.013247419
-0.016443353 -0.005384931 0.033818707 0.5022367 -0.0031324008 -0.12476993 0.00036755006 -0.039596234
0.01403194 0.022538595 -0.21556301 -0.6263505 0.24627565 0.0010979685 0.10188599 0.034268524
0.037776135 -0.33499357 0.08273677 0.18481448 -0.0013540998 0.04836829 0.055091646 0.0447098
0.47273937 0.019625297 0.044708963 -0.00027199846 -0.0025119307 -0.020733748 -0.022666456 0.378886
0.07392657 0.0852521 -0.0011002293 0.02560309 -0.0052802465 -0.0042235716 0.35432938 -0.16125314
0.06429149 -0.0051259384 0.0012537172 -0.24983941 0.04186836 0.5089865 -0.0073784264 -0.07829339
-6.0571138e-06 0.020167569 0.01717932 0.029668601 -0.33765465 -0.025922175 0.0805097 -0.0007470735
-0.02108461 0.03514936 0.036436394 -0.3070281 -0.014977376 0.117042504 -0.0024258236 -0.0018034339
0.053396035 0.033698305 0.047131855 -0.15941173 0.09896085 -0.003021027 0.028271902 -0.21447839
0.032291755 -0.20658566 -0.09683439 0.120819844 -0.022767952 0.084983915 0.013705448 -0.047697764
0.38261414 0.046107672 0.00013682281 -8.7990185e-05 0.049817428 0.03871026 0.047697082 -0.43300635
-0.0052356767 0.12895234 0.009890714 0.007904532 0.069625475 -0.046732377 0.3623499 0.070574336
0.05689743 -0.0059385966 0.013975631 0.024893766 0.03972611 0.5000802 0.026229717 0.0015921714
-0.0031694167 0.0056437496 -0.010951387 0.04481318 -0.41254413 0.025825486 0.14196414 0.004534826
0.01747461 0.059731364 0.022528296 -0.19999298 0.0952724 0.047480676 -0.039956283 0.09825319
-0.030968444 0.0027950048 -0.2053942 0.19929186 0.050509892 -0.0019210102 0.034308568 0.090024
0.024416067 -0.25311303 0.07209106 0.43410963 0.0025814024 0.10246126 -0.00016538818 -0.052242517
0.3792568 0.017004628 0.009698953 0.0021154615 0.041355167 -0.06689398 0.048749536 0.5181795
0.025962967 0.04006427 -0.003927136 0.028565684 7.835873e-05 -0.001984467 0.0030851387 0.001095844
-0.009433593 -0.0056003085 -0.0043595186 -0.010299535 0.038346354 0.44100574 0.019876596 -0.0039812876
4.985629e-06 0.0032732834 -0.026895836 0.041707892 -0.42497143 0.0013513118 0.12592456 0.004246284
0.04077452 0.034599084 0.016241618 -0.20898558 -0.023191132 -0.19481252 -0.0017359824 0.12256842
-0.020009622 -0.03304128 -0.28052503 0.023128128 0.1314376 -0.01841782 -0.0035972586 0.025015075
-0.0024586709 0.010525238 -0.0038744959 -0.01777523 -0.0039956234 -0.008076048 -0.0017723935 0.021415956
0.14900681 -0.34414572 0.010961359 0.005040905 0.016599609 -0.38368726 0.023958575 0.44322497
0.0025058016 -0.013374379 0.001196659 0.034552436 0.0143623995 -0.0029958652 0.004468031 -0.011094356
-0.01162292 -0.011126069 -0.0063133347 -0.0016458024 0.013273534 -0.18415941 -0.20321622 0.06531358
00000000: 293d d73c 1d95 8abe 1aa1 83be cc52 8fbc
00000010: 5f71 25bb 58ab 5dbc cae2 903d 2250 023c
00000020: 4cfe 57be a21a dcbc 036b c23d 5467 b2bd
00000030: c1ea c83d eb72 0c3d 2453 b63c 7b9f d63e
00000040: 0979 acbc 1ea6 28bd 6bba fbb8 f316 7bbc
00000050: 6b6e f53c a6d2 dcbc b2a4 d43e 4f4a d93c
00000060: ac38 3f39 5304 143b 55f2 573c e92f 033d
00000070: b081 c9bb 437c 7fbb 4385 21bc 81e5 35bc
00000080: 2041 31bc a6b1 77bb 6c62 79bc 95ae 35bc
00000090: ae98 64bb 21c6 05bb e315 2fbb b40b 59bc
000000a0: 36b4 86bc 1374 b0bb 7c85 0a3d 9692 003f
000000b0: f748 4dbb 6187 ffbd bcb3 c039 a92f 22bd
000000c0: 39e6 653c dca2 b83c 8dbc 5cbe 8258 20bf
000000d0: af2f 7c3e b6e9 8f3a 9aa9 d03d 275d 0c3d
000000e0: 26bb 1a3d 4784 abbe e571 a93d 0240 3d3e
000000f0: 0d7c b1ba d41d 463d c7a7 613d a021 373d
00000100: e50a f23e 3bc5 a03c bf20 373d 049b 8eb9
00000110: 349f 24bb d2d9 a9bc 01af b9bc 59fd c13e
00000120: d066 973d a798 ae3d 9235 90ba 92bd d13c
00000130: eb05 adbb e365 8abb a96a b53e 8b1f 25be
00000140: 42ab 833d 7df7 a7bb c553 a43a e7d5 7fbe
00000150: 287e 2b3d f04c 023f bac6 f1bb 4958 a0bd
00000160: 363e cbb6 7536 a53c a5bb 8c3c 910b f33c
00000170: 12e1 acbe be5a d4bc 45e2 a43d 41d7 43ba
00000180: a2b9 acbc c6f8 0f3d 543e 153d ca32 9dbe
00000190: ab63 75bc fbb3 ef3d 91fa 1ebb 3361 ecba
000001a0: cdb5 5a3d 3c07 0a3d 550d 413d d43c 23be
000001b0: fcab ca3d 6cfc 45bb 7a9a e73c 39a0 5bbe
000001c0: 5c44 043d 318b 53be 1c51 c6bd 6570 f73d
000001d0: db83 babc 0c0c ae3d d18c 603c bb5e 43bd
000001e0: 00e6 c33e 66db 3c3d 1878 0f39 5f87 b8b8
000001f0: 5c0d 4c3d a68e 1e3d 045e 433d 02b3 ddbe
00000200: 0a90 abbb 150c 043e a90c 223c 0382 013c
00000210: cd97 8e3d 736a 3fbd ed85 b93e 4789 903d
00000220: 480d 693d 8f98 c2bb 0cfa 643c 03ee cb3c
00000230: d8b7 223d 4205 003f b4df d63c 68b0 d03a
00000240: fdb5 4fbb 34ef b83b 726d 33bc 068e 373d
00000250: fc38 d3be f88f d33c 0c5f 113e e198 943b
00000260: ea26 8f3c e0a8 743d 438d b83c f6ca 4cbe
00000270: 2d1e c33d 197b 423d 33a9 23bd f838 c93d
00000280: 89b1 fdbc 662c 373b db52 52be 2a13 4c3e
00000290: 76e3 4e3d 68ca fbba 2487 0c3d 815e b83d
000002a0: 3404 c83c 0898 81be 7aa4 933d 9e43 de3e
000002b0: bf2c 293b 36d7 d13d 0d6c 2db9 40fc 55bd
000002c0: f32d c23e 4a4d 8b3c 5be8 1e3c 8ea3 0a3b
000002d0: 0964 293d b6ff 88bd 98ad 473d 69a7 043f
000002e0: 4ab0 d43c 6f1a 243d 34af 80bb 9502 ea3c
000002f0: 8654 a438 d50d 02bb 0a30 4a3b 6ca2 8f3a
00000300: 5b8f 1abc cb82 b7bb 4bda 8ebb 61bf 28bc
00000310: 1111 1d3d 81cb e13e 3ed4 a23c 7675 82bb
00000320: 3a4a a736 9584 563b a854 dcbc e5d5 2a3d
00000330: db95 d9be 801e b13a 5ef2 003e 6924 8b3b
00000340: 2f03 273d c5b7 0d3d 240d 853c 5100 56be
00000350: 54fb bdbc ef7c 47be e789 e3ba 2705 fb3d
00000360: 38eb a3bc 4b56 07bd faa0 8fbe 3377 bd3c
00000370: 9497 063e f8e0 96bc fcbf 6bbb 6aec cc3c
00000380: a721 21bb 0c72 2c3c 41eb 7dbb 5c9d 91bc
00000390: b8ed 82bb 6751 04bc a84f e8ba 8470 af3c
000003a0: 3e95 183e de33 b0be 4697 333c 2d2e a53b
000003b0: e7fb 873c a872 c4be c644 c43c 62ee e23e
000003c0: 6038 243b 3620 5bbc 37d9 9c3a db86 0d3d
000003d0: 4550 6b3c 4756 44bb 9068 923b 1ac5 35bc
000003e0: 0f6e 3ebc 1e4a 36bc 17e0 cebb f7b7 d7ba
000003f0: 3d79 593c 4994 3cbe ea17 50be 20c3 853d

edge_embedding_layer.edge_embedding_NN.weight f4 [63, 8]
0.027169561 0.027157139 0.31804883 -0.060510036 -0.037518986 -0.08367305 -0.013099092 -0.07315714
-0.009922469 -0.010774974 -0.004315335 -0.0022903706 0.008953054 -0.02221353 -0.015251183 0.008083992
0.026751699 0.020123174 0.29337132 -0.059819672 -0.01378012 -0.02431102 -0.008021034 -0.027620057
0.053232357 0.0454001 0.29366514 -0.16763742 -0.045213852 0.0016523286 0.041267425 -0.05617975
-0.015035438 -0.0067404066 0.0153879905 -0.014715848 -0.00982584 -0.0015218513 -0.0013866938 -0.0020847525
-0.010408337 -0.00058907137 0.002471643 -0.004193349 0.0027986444 -0.013592724 0.011577544 0.002690091
-0.018743284 -0.042463556 -0.1739033 0.12617563 0.07443049 -0.017283978 -0.102467574 0.052689444
-0.007208063 0.0010950561 -0.22485054 0.1739879 0.09978953 0.013775596 0.00074596435 0.12375445
-0.0005476109 -0.16144228 -0.2190351 0.11310965 0.09790402 -0.00063897093 0.0068412777 0.07823208
-0.0065773763 -0.07203094 -0.2007536 0.13239686 0.048429683 0.018262777 -0.055216923 0.10181201
-0.023786899 -0.0007723187 -0.20176744 0.14774126 0.09701453 0.007468787 0.004360714 0.10043356
-0.0005169977 -0.0011437915 -0.0015800482 -0.011648395 -0.008384922 -0.019005835 -0.021238621 -0.0031330034
-0.011771853 -0.0064551826 -0.018746976 0.008560626 -0.0028598043 -0.013159215 0.0014753747 -0.0033808637
0.055765625 0.023274986 0.27802783 -0.13178077 -0.016468821 -0.0018758081 0.042253636 -0.13100079
-0.017750053 -0.023903854 -0.18768057 0.12330279 0.09068104 0.020055352 -0.30785158 0.08725073
0.0675313 0.05080068 0.2820675 -0.1694687 -0.07290808 0.005846042 0.048873104 -0.07813589
-0.015188143 -0.019514777 -0.19618855 0.1515545 0.104584605 7.704673e-05 0.028055089 0.07832211
0.043852486 0.013703897 0.29983726 -0.09209676 0.04685806 -0.0043866336 0.019648451 -0.07327931
0.055258367 0.00539082 0.27762264 -0.121253915 0.011803632 0.008919697 0.029535417 -0.13161062
-0.01843064 -0.03950375 -0.16402835 0.1261388 0.13963386 -0.0037138069 -0.03601507 0.07697045
-0.0014439179 -0.00978569 0.0023963705 0.0012964379 -0.0012544036 -0.0001595673 -0.007059626 -0.009169412
-0.010067041 -0.017379947 -0.19766183 0.13717538 0.12315327 -0.005294798 0.015521056 0.086156316
0.052112468 0.052892677 0.2956921 -0.18909305 -0.03223913 -0.00011440443 0.04466557 -0.036155656
-0.0014835857 -0.0010873167 0.0004004063 0.0019544451 -0.017845793 -0.0053972867 -0.0027487199 -0.0038520296
0.07102391 0.038539972 0.28912944 -0.20267202 -0.08915164 0.008342405 0.029803934 -0.07247734
0.03419657 -0.00014960025 0.33772895 -0.28031626 -0.012442583 0.017137 0.017949145 -0.27884272
-0.030011764 -0.022142079 -0.17571634 0.1407221 0.07878094 0.0058064503 -0.3596779 0.08388627
0.059678074 0.021680826 0.2780295 -0.15528172 0.04878776 -0.0067005437 0.03194369 -0.08301267
-0.014819773 -0.014826146 -0.01661776 -0.015271877 -0.007614104 -0.012074424 -0.012945181 -0.010523627
-0.016535394 -0.047861993 -0.16797361 0.15422688 0.1183515 0.00800808 -0.15576121 0.08708885
0.047356017 0.05198226 0.2842804 -0.19280668 -0.044704396 -0.00046905733 0.04636137 -0.02199803
0.025229119 -0.025698839 0.37541223 -0.2780313 -0.039565478 -0.0075183227 0.00944118 -0.30111706
00000000: b392 de3c a678 de3c 4cd7 a23e 5fd9 77bd
00000010: 82ad 19bd c75c abbd 939d 56bc 69d3 95bd
00000020: da91 22bc 8489 30bc a767 8dbb 0b1a 16bb
00000030: d5af 123c 26f9 b5bc 19e0 79bc b872 043c
00000040: 6126 db3c 5bd9 a43c c434 963e 7905 75bd
00000050: 03c6 61bc e727 c7bc a86a 03bc 7543 e2bc
00000060: 2c0a 5a3d 75f5 393d 475b 963e 25a9 2bbe
00000070: 2932 39bd f392 d83a 0808 293d bd1c 66bd
00000080: 3357 76bc a1de dcbb e91d 7c3c bd1a 71bc
00000090: 8ffc 20bc db78 c7ba b9c1 b5ba 58a0 08bb
000000a0: bb87 2abc e96b 1aba 4afb 213b 5c68 89bb
000000b0: 7669 373b 04b4 5ebc bdaf 3d3c 3d4c 303b
000000c0: 848b 99bc 44ee 2dbd b513 32be 2f34 013e
000000d0: 036f 983d 2197 8dbc 85da d1bd e3d0 573d
000000e0: 9d31 ecbb fc87 8f3a 383f 66be e229 323e
000000f0: 745e cc3d 0ab3 613c d28c 433a f972 fd3d
00000100: 8c8d 0fba 2051 25be bd4a 60be 08a6 e73d
00000110: e781 c83d 9d80 27ba cc2c e03b 2438 a03d
00000120: 0887 d7bb f584 93bd 5a92 4dbe 0b93 073e
00000130: 345e 463d d29b 953c 242b 62bd d182 d03d
00000140: bedc c2bc 6e75 4aba 209c 4ebe 7c49 173e
00000150: 8eaf c63d babc f43b 52e4 8e3b 1cb0 cd3d
00000160: 2187 07ba 46eb 95ba 9f19 cfba e9d8 3ebc
00000170: e960 09bc 20b2 9bbc 9efc adbc 1353 4dbb
00000180: bbde 40bc ff85 d3bb 4293 99bc de41 0c3c
00000190: 8e6b 3bbb c099 57bc 5c61 c13a 7b91 5dbb
000001a0: 7f6a 643d 2fab be3c aa59 8e3e 8af1 06be
000001b0: 9fe9 86bc addd f5ba 2612 2d3d 1225 06be
000001c0: 8f68 91bc 04d2 c3bc 562f 40be 2c86 fc3d
000001d0: fbb6 b93d 1f4b a43c b99e 9dbe 83b0 b23d
000001e0: da4d 8a3d 6014 503d 276b 903e 3489 2dbe
000001f0: d550 95bd 2890 bf3b 2a2f 483d b605 a0bd
00000200: b0d7 78bc 74dd 9fbc a7e5 48be 1a31 1b3e
00000210: 7430 d63d 2694 a138 c9d3 e53c 5867 a03d
00000220: aa9e 333d 4f86 603c 4584 993e 3a9d bcbd
00000230: 3dee 3f3d c0bd 8fbb caf5 a03c 7613 96bd
00000240: 9956 623d 7aa5 b03b 8e24 8e3e f953 f8bd
00000250: 0564 413c ec23 123c 42f4 f13c efc4 06be
00000260: dbfb 96bc afce 21bd 0cf7 27be 882a 013e
00000270: 2efc 0e3e 5763 73bb 8a84 13bd afa2 9d3d
00000280: d841 bdba 2954 20bc 6d0c 1d3b 3ded a93a
00000290: cd6a a4ba 8551 27b9 6f54 e7bb 4d3b 16bc
000002a0: 3bf0 24bc 6460 8ebc dd67 4abe b477 0c3e
000002b0: c837 fc3d fc7f adbb 074c 7e3c b972 b03d
000002c0: e273 553d fea5 583d f464 973e 9ca1 41be
000002d0: 2e0d 04bd 69ec efb8 3ff3 363d f417 14bd
000002e0: e074 c2ba 4b84 8eba a0ed d139 2616 003b
000002f0: 5731 92bc b9db b0bb de23 34bb 5572 7cbb
00000300: fc74 913d 17dc 1d3d c608 943e 4189 4fbe
00000310: 2395 b6bd 95ae 083c 6127 f43c 006f 94bd
00000320: b411 0c3d 03de 1cb9 cfea ac3e 9d85 8fbe
00000330: fadb 4bbc e562 8c3c 160a 933c 79c4 8ebe
00000340: 3bdb f5bc 4e63 b5bc fcee 33be 7419 103e
00000350: e757 a13d 0944 be3b b427 b8be 91cc ab3d
00000360: ff70 743d fd9b b13c e259 8e3e 2c02 1fbe
00000370: add5 473d 3c90 dbbb 63d7 023d 8c02 aabd
00000380: a2ce 72bc 5de9 72bc f821 88bc e536 7abc
00000390: bc7f f9bb ced3 45bc 0618 54bc 4a6b 2cbc
000003a0: 3c75 87bc f00a 44bd 4601 2cbe a7ed 1d3e
000003b0: 4562 f23d 5234 033c de7f 1fbe a45b b23d
000003c0: 62f8 413d 5aeb 543d 338d 913e 1d6f 45be
000003d0: f51b 37bd cfeb f5b9 6be5 3d3d 3635 b4bc
000003e0: 4cad ce3c 5f86 d2bc 0836 c03e 1e5a 8ebe
000003f0: 690f 22bd 435c f6bb 2eaf 1a3c 042c 9abe

edge_embedding_layer.edge_feature_NN.weight f4 [64, 64]
0.04979139 0.006673097 0.04106108 0.06204396 0.009925359 0.00821526 -0.0241655 -0.06274389
-0.03816584 -0.03637377 -0.04345352 0.0012318065 -0.005665803 0.07664466 -0.048804227 0.064577304
-0.039035108 0.032277796 0.039007224 -0.003049277 0.000109577515 -0.036410175 0.045696642 0.002587881
0.047933284 0.13776492 -0.08009158 0.049610224 -0.0021766124 -0.06271834 0.047843933 0.13000043
-0.052852277 -0.03944941 0.07795021 -0.0049868873 0.047159914 -0.03747644 -0.051427227 0.062696904
-0.0370837 0.05675385 0.021915663 0.07390471 0.0033941509 -0.019630967 -0.025749825 -0.002245156
0.0020962334 -0.047934294 0.017370982 -0.010358377 0.028826434 0.012979024 -0.03991785 0.0317973
0.07608483 0.125223 0.0092882775 0.018932724 0.050062533 0.08687761 0.041581735 0.054944113
-0.010757435 -0.008134392 0.0015555887 0.0082254615 0.0019207367 0.002163062 0.0075713447 0.008774764
-0.007368058 -0.008162394 -0.011945093 0.00053097215 0.013778844 0.0062424517 0.0026948373 -0.014645023
9.829938e-05 0.007712967 0.008076533 -0.0020919112 -0.0091824075 -0.00903409 -0.0045856712 -0.024723053
0.0061283913 0.010687757 -0.0079584615 -0.0028761444 0.012500013 -0.021071821 0.004995809 0.004633419
-5.6490684e-05 -0.015611438 -0.010616232 -0.0030209445 -0.022822924 0.004618022 -0.0052528144 0.009122809
0.00059116463 0.012726235 0.0044763433 0.0040317248 -0.0024838957 -0.01235016 -0.00058075506 0.016682966
0.013421233 0.0007373087 0.0055199787 0.0034704753 -0.02354301 -0.012233246 0.004081472 -0.018016197
-0.008616842 -0.006729163 -0.005336937 0.00050229934 0.0036360866 -0.004051917 0.009005738 -0.029614363
0.013871242 -0.0063518262 0.020439664 0.017144417 -0.011611266 -0.004056425 0.030147895 0.015048659
0.055052698 0.004508704 0.0112440605 0.0021992014 -0.001916733 -0.012110709 -0.0007492569 -0.01128858
0.0013140627 -0.029213348 -0.0344839 0.014685295 -0.02420997 0.020136906 0.0054407883 0.0041167918
-0.020509537 -0.090632424 0.012360567 -0.058378804 -0.007525111 0.010478813 0.0037613327 -0.1402077
0.02894063 0.031593423 0.00588353 0.0474261 0.01196224 0.02507166 0.020277234 0.01154628
0.04100966 -0.06542938 -0.0073650363 0.0032325366 -0.0030575085 0.053120606 0.06550753 0.011249505
-0.013233761 0.03095036 -0.0001349812 0.011113654 0.020287042 0.0015670959 0.035872355 -0.04911793
-0.04239168 -0.077796854 0.0048289425 0.009405347 0.008469983 -0.0067389044 0.015540256 -0.00466297
-0.01394048 -0.006870072 -0.009293741 0.008531291 0.0033435759 -0.008219612 -0.009937564 1.8024335e-06
0.0065187598 -0.0015708433 0.008476569 -0.007357938 -0.0046117115 0.002252608 -0.008796808 -0.0023317866
-0.017442891 0.0060973703 -0.015798636 -0.0050842944 0.0041428367 -0.004616083 -6.412105e-05 -0.0023929016
0.002517064 -0.010286944 -0.0030664708 0.007888776 0.01083421 -0.0011445023 -0.0026926599 -0.0010076426
-0.016303077 0.007156581 0.0010438258 0.00019029636 0.00089925295 -0.0055984505 -0.0056308643 0.0001323514
-0.0054644374 -0.00420371 0.00012495325 -0.00021016278 0.017536044 0.01697999 -0.01351005 0.0057136067
-0.00062793127 -0.00031389037 0.0030395736 -0.013317074 -0.00057330204 0.0054728673 -0.0015698014 -0.0076897168
0.013171347 -0.013533647 -0.00035957596 -0.00062156183 -0.0020496896 -0.0086621335 0.006484415 -0.0048349635
00000000: 0ef2 4b3d ffa9 da3b aa2f 283d cf21 7e3d
00000010: f99d 223c 4c99 063c baf6 c5bc de7f 80bd
00000020: c953 1cbd aafc 14bd 51fc 31bd 9174 a13a
00000030: 33a8 b9bb e0f7 9c3d f1e6 47bd 1b41 843d
00000040: 47e3 1fbd b935 043d 0ac6 1f3d 61d6 47bb
00000050: fbcc e538 d622 15bd 672c 3b3d 7099 293b
00000060: b155 443d 3f12 0d3e 0e07 a4bd 1734 4b3d
00000070: 7fa5 0ebb 7972 80bd 00f8 433d d51e 053e
00000080: a17b 58bd b495 21bd 5ca4 9f3d 0b69 a3bb
00000090: c12a 413d e580 19bd 5ba5 52bd 3c67 803d
000000a0: 14e5 17bd ba76 683d 7a88 b33c 5a5b 973d
000000b0: 6770 5e3b 1fd1 a0bc 4cf1 d2bc 7823 13bb
000000c0: f660 093b c056 44bd 974d 8e3c 2fb6 29bc
000000d0: 6a25 ec3c f9a5 543c e680 23bd e33d 023d
000000e0: 5dd2 9b3d 753a 003e dc2d 183c cd18 9b3c
000000f0: 5f0e 4d3d e3ec b13d 9c51 2a3d 140d 613d
00000100: f43f 30bc 1d46 05bc e5e4 cb3a 16c4 063c
00000110: 3bc1 fb3a 29c2 0d3b 0b19 f83b 07c4 0f3c
00000120: c06f f1bb 90bb 05bc 5ab5 43bc f030 0b3a
00000130: a9c0 613c 7b8d cc3b de9b 303b aef1 6fbc
00000140: 1426 ce38 0fbd fc3b 6f53 043c 7218 09bb
00000150: cf71 16bc b803 14bc 6643 96bb 0088 cabc
00000160: acd0 c83b b41b 2f3c 3564 02bc b27d 3cbb
00000170: dbcc 4c3c d09e acbc e2b3 a33b f0d3 973b
00000180: 69f0 6cb8 1ec7 7fbc b4ef 2dbc 0afb 45bb
00000190: 24f7 babc c752 973b cd1f acbb d677 153c
000001a0: 63f8 1a3a b381 503c 4aae 923b 8f1c 843b
000001b0: dbc8 22bb 5358 4abc d03d 18ba b7aa 883c
000001c0: bbe4 5b3c f347 413a f0e0 b43b ea70 633b
000001d0: 45dd c0bc f46d 48bc debd 853b b496 93bc
000001e0: a82d 0dbc 5080 dcbb 79e1 aebb bdac 033a
000001f0: 694b 6e3b f2c5 84bb ce8c 133c d299 f2bc
00000200: 3544 633c fb22 d0bb 1571 a73c 7372 8c3c
00000210: 2e3d 3ebc c2eb 84bb b8f8 f63c a78e 763c
00000220: f07e 613d c0bd 933b 0239 383c 7a20 103b
00000230: e33a fbba ff6b 46bc c869 44ba bcf3 38bc
00000240: a13c ac3a d550 efbc fd3e 0dbd 979a 703c
00000250: fd53 c6bc 27f6 a43c a448 b23b 27e6 863b
00000260: 9e03 a8bc 7e9d b9bd fa83 4a3c 9d1e 6fbd
00000270: 3595 f6bb 54af 2b3c b180 763b 9b92 0fbe
00000280: e614 ed3c 1b68 013d a0ca c03b df41 423d
00000290: 45fd 433c 1563 cd3c 711c a63c 9c2c 3d3c
000002a0: bff9 273d d7ff 85bd 6756 f1bb f7d8 533b
000002b0: 7b60 48bb fe94 593d d028 863d d84f 383c
000002c0: 6bd2 58bc 9c8b fd3c bd89 0db9 0b16 363c
000002d0: 0331 a63c 0367 cd3a e4ee 123d e22f 49bd
000002e0: e6a2 2dbd f553 9fbd 1b3c 9e3b e218 1a3c
000002f0: afc5 0a3c 07d2 dcbb 8f9c 7e3c d4cb 98bb
00000300: 9c66 64bc 571e e1bb c644 18bc d4c6 0b3c
00000310: e51f 5b3b 8dab 06bc 2ad1 22bc 25eb f135
00000320: 529b d53b c1e4 cdba 4fe1 0a3c dc1a f1bb
00000330: d71d 97bb 7ea0 133b 7d20 10bc e3d0 18bb
00000340: 65e4 8ebc 73cc c73b 246c 81bc 279a a6bb
00000350: a2c0 873b 8342 97bb ba78 86b8 3ad2 1cbb
00000360: 54f5 243b 928a 28bc d8f6 48bb ed3f 013c
00000370: f881 313c 2003 96ba 5677 30bb e012 84ba
00000380: 088e 85bc c181 ea3b fbd0 883a 4a8a 4739
00000390: d8bb 6b3a 3573 b7bb 1d83 b8bb cfc7 0a39
000003a0: 060f b3bb 46bf 89bb e205 0339 245f 5cb9
000003b0: c0a7 8f3c 9f19 8b3c 4259 5dbc 3539 bb3b
000003c0: c19b 24ba a791 a4b9 9533 473b db2f 5abc
000003d0: a649 16ba bd55 b33b cbc1 cdba 05fa fbbb
000003e0: a2cc 573c 3bbc 5dbc 7885 bcb9 4ff0 22ba
000003f0: 1654 06bb 9feb 0dbc 377b d43b 9d6e 9ebb

update_node_embedding_layer.0.message_layer.weight f4 [64, 128]
-0.01905954 0.0017508717 -0.014100832 -0.0042199288 -0.01788335 0.011372718 0.0077258577 0.0035789865
-0.008473589 -0.01911039 0.006354835 -0.020759711 -0.01670325 -0.0136195 0.002462361 -0.00094893266
-0.016457139 -0.0037167815 -0.0034718614 0.0051748753 -0.011750276 -0.025309846 -0.01164465 -0.011679254
0.017203681 0.009298491 -0.0068172463 -0.0040685274 -0.0060328953 -0.018918933 -0.008613824 0.011569415
-0.0018858399 0.008300575 0.0037456087 -0.004941903 -0.006633034 -0.0047782674 -0.019085824 -0.01260429
-0.005458042 0.004858546 -0.019572876 -0.015355278 0.0037105014 0.009642839 -0.011878921 -8.878531e-06
-0.009967546 0.009484177 -0.0045439037 -0.0053820675 -0.00019148103 0.0039594295 -0.022092896 0.010589635
-0.0072598616 -0.0099803945 -0.01242449 -0.0052968445 -0.00080498826 0.018477242 0.007948845 -0.0023803648
-0.006287746 -0.00242993 0.010485091 -0.012352881 -0.0010562774 -0.00066107354 -0.01425166 0.00453384
-0.008876933 -0.001967021 -0.008760678 0.013726681 -0.0066438313 0.0043544867 0.0017414953 0.020401204
-0.0043127085 0.0005067762 -0.0012610718 -0.005253296 -0.006616436 0.0008098367 -0.008505274 0.01379626
0.0029131 0.0011571661 0.0009564925 0.013593712 -0.016088534 -0.013935954 -0.0058008023 0.020228371
0.011279487 -0.018540718 0.013831565 -0.0013197443 6.0506612e-05 -0.002124555 -0.009243079 0.024446335
0.0023832296 -0.0027400209 0.003726408 0.0046185562 -0.011794901 -0.023753867 0.0072285063 -0.005699761
-0.009879807 0.01480613 -0.006727138 0.00834494 0.0018100572 0.0017527142 0.0067477897 -0.011304717
0.00450596 0.008198818 -0.007812804 -0.013443079 -0.002821174 0.0016093793 0.003997636 -0.0036062058
-0.00740336 -0.029748572 0.04546691 0.009669451 -0.0047206795 0.015075879 0.06996905 0.0017786897
-0.0014534043 0.080414645 0.02331949 0.006769864 0.06663667 -0.0124399895 -0.009250407 0.015632642
-0.07140495 -0.043564152 -0.0033134078 0.025372695 0.076978885 0.0018372599 0.0401059 -0.0024388728
-0.0003223665 -0.01007657 0.07282755 0.011128925 0.069610916 -0.029231742 -0.12200296 0.021308577
-0.00092215446 0.00014628888 0.05977944 0.0033308987 -0.020469923 -0.017357718 -0.036081742 0.016298592
0.00023099052 0.0038271933 0.027412228 -0.07139909 0.004514456 -0.0017629995 0.05202522 -0.036448438
0.02229223 -0.012016052 0.057361126 0.01830655 0.010601124 0.0051406533 0.004777189 0.008225303
-0.002466547 -0.005179755 0.07093895 -0.02286732 0.0549096 -0.00724996 -0.06171565 0.060941953
-0.00046140322 -0.00050685543 0.00039022256 -0.007319206 0.020424329 0.009282108 0.0020423108 -0.0018631532
0.00035334492 -0.010188536 0.007900791 -0.012019971 -0.051980667 0.033261616 -0.0049870163 -0.004870135
-0.018309532 0.009548369 -0.010924446 -0.0039042672 0.00076708436 0.02480436 0.00228053 -0.0837951
-0.013772917 -0.008768906 0.16273218 -0.0090017365 0.009607537 -0.013536578 -0.0062489356 -0.008920477
0.077588856 -0.013187831 -0.011888214 -0.000115217714 -0.01749254 -0.002339695 -0.008011554 -0.026005954
-0.0012713154 -0.023599306 -0.019157346 -0.013996529 -0.0077044177 -0.007624509 -0.023316417 -0.015318325
0.0055102375 -0.00022590107 -0.0003860734 0.014944711 0.0105094 0.012586262 0.0048746723 -0.019465156
-0.040677335 0.00316342 -0.012974135 0.00056059443 -0.013899557 0.0026403463 0.060797278 -0.005671336
00000000: c122 9cbc 817d e53a 2d07 67bc 5447 8abb
00000010: 1a80 92bc a354 3a3c 3129 fd3b 6e8d 6a3b
00000020: cfd4 0abc 658d 9cbc 383c d03b 4510 aabc
00000030: 41d5 88bc 5324 5fbc 905f 213b cbc1 78ba
00000040: 1fd1 86bc 3f95 73bb 2b88 63bb 0092 a93b
00000050: 3b84 40bc 9856 cfbc 34c9 3ebc 575a 3fbc
00000060: bcee 8c3c b358 183c 3563 dfbb 4851 85bb
00000070: 98af c5bb e1fb 9abc ff20 0dbc a58d 3d3c
00000080: 492e f7ba 23ff 073c e378 753b b0ef a1bb
00000090: ec59 d9bb 0393 9cbb e059 9cbc 3982 4ebc
000000a0: 60d9 b2bb 7034 9f3b 4c57 a0bc b494 7bbc
000000b0: e22b 733b 00fd 1d3c ce9f 42bc 00f5 14b7
000000c0: eb4e 23bc 8663 1b3c 07e5 94bb 0e5c b0bb
000000d0: 4cc8 48b9 1abe 813b 29fc b4bc 2680 2d3c
000000e0: 22e4 edbb cf84 23bc 1790 4bbc 2791 adbb
000000f0: d905 53ba 965d 973c df3b 023c e5ff 1bbb
00000100: 7009 cebb 763f 1fbb a9c9 2b3c bd63 4abc
00000110: ca72 8aba e54b 2dba cb7f 69bc 9b90 943b
00000120: 8e70 11bc 23e9 00bb f288 0fbc dfe5 603c
00000130: 7fb4 d9bb 15b0 8e3b e342 e43a 6d20 a73c
00000140: 9f51 8dbb 2dd9 043a 8c4a a5ba d723 acbb
00000150: b0ce d8bb 394b 543a b459 0bbc b509 623c
00000160: b5e9 3e3b 0dac 973a 20bd 7a3a 29b8 5e3c
00000170: 1acc 83bc a153 64bc a814 bebb f8b5 a53c
00000180: 99cd 383c b4e2 97bc ca9d 623c 45fb acba
00000190: 7bc8 7d38 1e3c 0bbb 4970 17bc ae43 c83c
000001a0: f52f 1c3b ec91 33bb c036 743b 4257 973b
000001b0: 673f 41bc 7897 c2bc 1bdd ec3b 10c5 babb
000001c0: eade 21bc 6995 723c 536f dcbb 37b9 083c
000001d0: 713f ed3a 54bb e53a 901c dd3b 6b37 39bc
000001e0: bba6 933b 5654 063c 4601 00bc 5c40 5cbc
000001f0: 72e3 38bb cff1 d23a 9afe 823b 1856 6cbb
00000200: e397 f2bb 47b3 f3bc 833b 3a3d 9e6c 1e3c
00000210: eeaf 9abb d200 773c ef4b 8f3d ec22 e93a
00000220: 2880 beba 6fb0 a43d 8408 bf3c bcd5 dd3b
00000230: ce78 883d 19d1 4bbc 058f 17bc 0710 803c
00000240: c23c 92bd 5370 32bd c225 59bb 66da cf3c
00000250: 1ba7 9d3d 36d0 f03a 1646 243d 7fd5 1fbb
00000260: 4d03 a9b9 3318 25bc 9c26 953d 1856 363c
00000270: 2b90 8e3d 6877 efbc b0dc f9bd 538f ae3c
00000280: bdbc 71ba 1f65 1939 49db 743d 354b 5a3b
00000290: 8ab0 a7bc c631 8ebc 73ca 13bd a084 853c
000002a0: 0c36 7239 a6d1 7a3b 9c8f e03c b039 92bd
000002b0: 00ee 933b 7214 e7ba 6618 553d f54a 15bd
000002c0: 329e b63c fade 44bc 80f3 6a3d 9ef7 953c
000002d0: 56b0 2d3c ed72 a83b f789 9c3b 6cc3 063c
000002e0: cba5 21bb efba a9bb 7148 913d 3f54 bbbc
000002f0: e4e8 603d 1391 edbb 8dc9 7cbd 459e 793d
00000300: 7ee8 f1b9 7ede 04ba c996 cc39 f3d5 efbb
00000310: ec50 a73c fc13 183c 4ad8 053b 0c35 f4ba
00000320: 2741 b939 d1ed 26bc 5272 013c 6aef 44bc
00000330: aee9 54bd 553d 083d 206a a3bb a795 9fbb
00000340: dffd 95bc c370 1c3c 73fc 32bc bcde 7fbb
00000350: 2916 493a 8332 cb3c f274 153b c49c abbd
00000360: cda7 61bc 75ab 0fbc 44a3 263e 057c 13bc
00000370: ee68 1d3c 86c8 5dbc dfc3 ccbb 3127 12bc
00000380: e8e6 9e3d c611 58bc c9c6 42bc 0aa1 f1b8
00000390: 844c 8fbc 9255 19bb e542 03bc 700a d5bc
000003a0: 44a2 a6ba 5553 c1bc deef 9cbc b351 65bc
000003b0: 5775 fcbb 04d7 f9bb 1202 bfbc b6f9 7abc
000003c0: 398f b43b dbdf 6cb9 e569 cab9 a9da 743c
000003d0: 9e2f 2c3c 9c36 4e3c b7bb 9f3b 6475 9fbc
000003e0: 479d 26bd 6151 4f3b 7791 54bc dbf4 123a
000003f0: f8ba 63bc a909 2d3b 9106 793d 9dd6 b9bb

update_node_embedding_layer.0.update_layer.weight f4 [64, 128]
0.0075080204 0.006818568 0.00086573075 -0.0051614977 0.0074384604 -0.01197225 -0.0056603015 -0.0015514987
0.0064184624 0.014434471 -0.0115956105 -0.0016655108 -0.020167302 -0.0006803575 -0.0021515186 -0.008102021
0.011949905 0.00038921964 -0.014170383 -0.0031973685 -0.0007729982 -0.009902928 -0.009593759 -0.004346585
-0.010339375 -0.0006574912 -0.012139008 -0.00067160174 0.0018544924 -0.0104301 0.010315007 -0.006150094
-0.020259636 -0.03361236 -0.008920801 0.006280489 0.012812566 0.00013216586 -0.008188388 0.017193135
0.010342431 -0.004385086 5.8531157e-05 -0.008898407 -0.007366527 0.014102951 -0.02433011 0.004748258
-0.014614876 0.0044798455 -0.0044345385 -0.008897678 -0.010819396 -0.007272465 -0.004566628 0.00013889273
-0.0017554512 -0.013033147 0.0050906357 -0.0067906072 -0.0019524642 -0.0076531214 0.019640753 0.00022439491
0.012451123 0.0039288118 0.008936819 0.003329992 -0.004263867 -0.004954748 0.0128591955 -0.0035331524
-0.0065020304 0.0069869813 0.0072394502 -0.0007420336 0.015847115 0.0014427209 -0.0066868877 0.003538578
0.016941896 -0.010268385 0.007019186 0.0012135583 0.0097796 -0.011017456 -0.008850054 0.0023699538
-0.009690811 -0.0121657625 0.020972423 0.014879573 0.0010716581 0.016705437 -0.002803989 -0.0039202645
0.0032333722 0.012256114 0.0012219709 -0.010433165 -0.015642965 -0.0052807154 -0.011458136 -0.005202763
-0.012459776 0.015344294 -0.0153360125 -0.01037547 -0.0015224892 -0.027193615 -0.01886527 -0.006369767
-0.0037906629 0.002707132 -0.0056048012 -0.009161804 -0.010054879 -0.01190291 -0.010014197 0.004225571
-0.0022067751 0.0054565533 0.02565991 -0.023145216 -0.0069208834 0.0033806015 -0.0025095507 0.015014666
0.10769535 0.039399758 0.0020226196 -0.08227787 -0.005307555 -0.0053395103 -0.09557045 0.0011810503
0.031642716 -0.06497814 -0.04684738 0.047756724 -0.050574023 0.02005229 0.035337996 -0.07254213
0.038521744 -0.17190114 0.042685047 -0.1527173 -0.05516526 0.03532559 0.017800158 0.00752723
-0.023827765 -0.09853868 -0.043574296 0.0074918177 -0.0377551 0.028473293 0.07882894 -0.0041238763
-0.012782433 -0.18920805 -0.07172537 0.016152712 0.053684607 0.060871594 0.1018147 -0.06204042
0.019633258 0.0002516775 0.0689313 0.027103791 -0.049657512 -0.005963952 -0.028300073 -0.10525102
-0.14891611 0.056483135 -0.06121665 -0.15896241 0.057765044 0.10635976 0.051955905 -0.13896894
-0.012889661 -0.0034861632 -0.12514062 0.015464726 -0.12562642 0.05928085 0.06628534 0.012787462
-0.0034161038 0.02317865 0.024387121 0.0014689611 -0.025247125 -0.008275763 0.0027742092 -0.010853345
-0.007811834 -0.01842161 -0.022383293 -0.0007174751 -0.017112939 0.012096844 -0.00016658021 -0.055868667
-0.02272855 0.004480692 -0.018251318 -0.00013644987 0.008567792 0.0025265166 0.03347503 -0.0074844137
-0.023236873 -0.017548367 0.0035539626 0.001498785 0.006912524 -0.007111315 -0.017961306 0.014435513
-0.008452361 -0.0074843774 -0.06993376 -0.060842603 -0.014902615 0.015286666 0.0015712676 0.058467183
0.008180435 -0.004895662 0.012664075 -0.006884232 -0.0639569 0.0089413235 -0.019461984 0.0072410633
0.0010577276 -0.040235344 -0.02080873 -0.070356324 0.011421425 -0.031158065 -0.0023770048 -0.0125775095
0.012566237 -0.0011083622 -0.013485577 0.008001286 -0.007150833 -0.0109705785 -0.02346034 -0.008574107
00000000: d705 f63b 4b6e df3b 35f2 623a c821 a9bb
00000010: 54be f33b 4227 44bc 0d7a b9bb a85b cbba
00000020: f751 d23b 8f7e 6c3c 84fb 3dbc 454d daba
00000030: e635 a5bc 055a 32ba 7e00 0dbb 57be 04bc
00000040: 89c9 433c 2d10 cc39 e52a 68bc f18a 51bb
00000050: 08a3 4aba e43f 22bc 242f 1dbc cc6d 8ebb
00000060: 7b66 29bc 7d5b 2cba b1e2 46bc 6e0e 30ba
00000070: 7012 f33a 03e3 2abc 4600 293c ba86 c9bb
00000080: 89f7 a5bc 1dad 09bd 8d28 12bc 8fcc cd3b
00000090: cceb 513c 0196 0a39 9728 06bc 9ed8 8c3c
000000a0: 4d73 293c c4b0 8fbb 5a7f 7538 a0ca 11bc
000000b0: e862 f1bb 1010 673c f04f c7bc 4697 9b3b
000000c0: 3c73 6fbc abcb 923b 9b4f 91bb 91c7 11bc
000000d0: d643 31bc dc4d eebb a7a3 95bb bca3 1139
000000e0: 2b17 e6ba fb88 55bc 59cf a63b be83 debb
000000f0: d4e9 ffba 09c7 fabb a5e5 a03c 8d4b 6b39
00000100: ccff 4b3c 43bd 803b bc6b 123c ff3b 5a3b
00000110: e9b7 8bbb 705b a2bb 60af 523c 768c 67bb
00000120: fc0e d5bb 0cf3 e43b e938 ed3b 0885 42ba
00000130: cfd1 813c ae19 bd3a ae1d dbbb 7de7 673b
00000140: bbc9 8a3c ba3c 28bc 3301 e63b 4210 9f3a
00000150: 9e3a 203c 8f82 34bc d1ff 10bc 3a51 1b3b
00000160: 35c6 1ebc e852 47bc 5cce ab3c 74c9 733c
00000170: e176 8c3a d7d9 883c 21c3 37bb 9075 80bb
00000180: fce6 533b decd 483c 8a2a a03a deef 2abc
00000190: ad25 80bc da09 adbb e8ba 3bbc f07b aabb
000001a0: 1724 4cbc a266 7b3c e643 7bbc e0fd 29bc
000001b0: 438e c7ba 25c5 debc 578b 9abc 7ab9 d0bb
000001c0: c56c 78bb 236a 313b 7ba8 b7bb 641b 16bc
000001d0: 38bd 24bc 6c04 43bc 9612 24bc a976 8a3b
000001e0: 8b9f 10bb e3cc b23b bb34 d23c 099b bdbc
000001f0: 94c8 e2bb 158d 5d3b 4677 24bb 1300 763c
00000200: 618f dc3d a461 213d ed8d 043b 4d81 a8bd
00000210: 00eb adbb 0ff7 aebb 71ba c3bd 79cd 9a3a
00000220: cb9b 013d 4213 85bd 0ae3 3fbd 8e9c 433d
00000230: b526 4fbd b344 a43c 93be 103d f890 94bd
00000240: fac8 1d3d da06 30be 84d6 2e3d ed61 1cbe
00000250: f8f4 61bd 91b1 103d a3d1 913c fba6 f63b
00000260: 7232 c3bc a6ce c9bd f67a 32bd ec7d f53b
00000270: 17a5 1abd d340 e93c 1171 a13d 9521 87bb
00000280: 696d 51bc c1bf 41be c0e4 92bd b152 843c
00000290: 64e4 5b3d 7e54 793d 3a84 d03d 181e 7ebd
000002a0: edd5 a03c 95f3 8339 da2b 8d3d c508 de3c
000002b0: ad65 4bbd 416d c3bb 8ed5 e7bc d98d d7bd
000002c0: 777d 18be dc5a 673d 4fbe 7abd 0bc7 22be
000002d0: 0a9b 6c3d 25d3 d93d b7cf 543d e04d 0ebe
000002e0: 282f 53bc 1d78 64bb dd24 00be c35f 7d3c
000002f0: 36a4 00be 7ad0 723d 9cc0 873d 8182 513c
00000300: b6e0 5fbb 27e1 bd3c 80c7 c73c 288a c03a
00000310: 0fd3 cebc 1197 07bc 82cf 353b 3ad2 31bc
00000320: 6afa ffbb ebe8 96bc 2b5d b7bc f014 3cba
00000330: 6f30 8cbc d731 463c 09ac 2eb9 8bd6 64bd
00000340: 3931 babc c5d2 923b ca83 95bc fc13 0fb9
00000350: ed5f 0c3c ea93 253b 1d1d 093d d03f f5bb
00000360: 415b bebc 98c1 8fbc 99e9 683b e172 c43a
00000370: 7482 e23b 0906 e9bb 9723 93bc ee82 6c3c
00000380: c67b 0abc 823f f5bb 6e39 8fbd 1836 79bd
00000390: 192a 74bc ed74 7a3c fef2 cd3a 497b 6f3d
000003a0: 3b07 063c ca6b a0bb fb7c 4f3c 2095 e1bb
000003b0: d6fb 82bd a17e 123c bd6e 9fbc 7146 ed3b
000003c0: 73a3 8a3a d1cd 24bd 1277 aabc fa16 90bd
000003d0: ee20 3b3c 333f ffbc 86c7 1bbb e611 4ebc
000003e0: 9ee2 4d3c 7746 91ba 9cf2 5cbc d317 033c
000003f0: 8951 eabb f1bd 33bc e62f c0bc 697a 0cbc

update_node_embedding_layer.1.message_layer.weight f4 [64, 128]
-0.0024534129 -0.059041142 0.017602418 0.20273976 -0.042400077 0.0020031563 -0.04475316 -0.02611423
-0.044170815 -0.034299094 -0.05384691 -0.05473893 -0.071048394 -0.058584966 -0.025463676 0.0075520733
0.27237844 -0.010182217 0.22734341 -0.054737777 0.029324617 -0.04839224 -0.043781426 -0.068528354
-0.044808023 0.0033338382 -0.0020081697 -0.05748871 0.014858605 0.010114178 -0.04380273 0.011080561
0.026542893 -0.015994048 -0.038306028 0.04878156 0.004077647 0.036372565 -0.049228985 0.028349942
-0.061061896 0.21001604 0.33681503 -0.02261839 -0.021859555 -0.01780858 -0.039718214 0.001680359
-0.017426843 0.5045398 -0.061134838 -0.0021748394 0.008621536 -0.0050325287 0.2020275 -0.049067605
0.020196687 -0.008804214 -0.044142414 -0.011270179 0.008779383 -0.006977583 -0.052158635 0.020882456
-0.008274181 -0.00029466863 0.038953822 -0.006336092 -0.0135131385 -0.0013606438 -0.014912906 -0.021464596
0.014585031 -0.028476931 0.058130696 -0.009934944 -0.03241829 -0.0031363105 -0.014329332 0.008502593
0.003069065 0.008848925 -0.018758232 0.0027940245 -0.005648741 0.027306607 -0.0045039994 -0.008092866
-0.008620881 -0.02961648 -0.023223344 -0.006141008 -0.017435296 0.010116408 -0.0067766146 -0.013152107
-0.05542428 -0.007376323 0.010729623 -0.004313238 -0.031652573 -0.027645765 -0.010694454 -0.015936205
-0.018326446 -0.00867383 -0.005038325 -0.009780353 -0.013478991 -0.029165559 0.0016737691 -0.022240818
0.036167476 -0.0039283987 0.003541604 -0.0060923174 -0.016180206 -0.002299788 0.0074381926 -0.007342533
0.028516123 -0.004828631 0.0023809853 -0.009732416 -0.018631782 -0.00771763 0.004998205 -0.0072857225
0.00094796147 0.061851572 -0.007868105 -0.046684746 0.04975704 0.005178684 0.015363171 0.041080136
0.08139762 -0.12783849 0.06556944 0.050035894 0.08331912 0.042008884 0.010523215 0.035286956
0.22582059 -0.01007959 0.1710636 0.023674846 0.05755704 0.037688 0.041594088 0.053369455
0.05787223 0.015576052 -0.00016926562 0.046263207 0.0024756393 0.06746112 -0.19642954 0.0024812697
0.034059048 -0.0019391803 0.0530059 0.06959491 0.010390162 0.047939967 0.07231278 0.07647341
0.062265426 0.21956854 0.232999 -0.0039744326 -0.012671653 -0.004817127 0.14888549 0.066214785
0.017235069 0.32217556 0.06394923 -0.016619144 0.018916601 -0.012289571 0.06383698 -0.12905572
0.05767031 0.05059589 0.011835563 0.013477157 -0.02115381 -0.012869364 0.081590906 0.043860108
0.0058589596 0.00080940395 0.03404135 0.0076632737 -0.021755291 -0.010899122 0.017166154 0.066116534
-0.056910925 -0.12951371 0.019562686 0.007417604 0.024392625 0.09483917 0.010743322 -0.011050108
-0.00725767 -0.02874906 -0.011794549 0.007855955 0.004364245 0.057640105 -0.020230848 0.015698852
-0.10206734 0.018596781 -0.25753698 -0.06090604 -0.007425953 0.010787353 -0.013977692 0.0021204415
-0.14772333 -0.08358269 0.03374402 0.007858451 0.044812735 -0.012765003 -0.06753268 -0.069458224
-0.043347772 0.0038767578 0.038534764 0.002751888 -0.03553494 0.052320577 0.018836588 -0.061272927
0.0040004463 0.04541825 0.01276278 0.017471153 0.01582218 -0.04252222 -0.11172246 0.0025960132
0.05137045 -0.006146415 0.009884542 -0.045909733 -0.06652471 0.006800064 -0.06705555 -0.07727875
00000000: 70c9 20bb 20d5 71bd f232 903c 039b 4f3e
00000010: b4ab 2dbd 6347 033b 174f 37bd 82ed d5bc
00000020: 75ec 34bd 357d 0cbd 948e 5cbd ee35 60bd
00000030: d281 91bd caf6 6fbd 3399 d0bc 6277 f73b
00000040: 3075 8b3e 50d3 26bc b6cc 683e b834 60bd
00000050: 2e3a f03c f136 46bd 2754 33bd 9858 8cbd
00000060: 9e88 37bd 867c 5a3b 7f9b 03bb 4879 6bbd
00000070: 8271 733c f0b5 253c 7e6a 33bd 3e8b 353c
00000080: 7b70 d93c f305 83bc c8e6 1cbd 2ccf 473d
00000090: c89d 853b 66fb 143d 55a4 49bd 233e e83c
000000a0: 0a1c 7abd 720e 573e 0573 ac3e 344a b9bc
000000b0: cf12 b3bc 4de3 91bc 91af 22bd 7e3f dc3a
000000c0: bdc2 8ebc 8529 013f 8668 7abd c087 0ebb
000000d0: 5841 0d3c e9e7 a4bb 4ce0 4e3e 1dfb 48bd
000000e0: 8673 a53c 8d3f 10bc adce 34bd 8fa6 38bc
000000f0: 67d7 0f3c 35a4 e4bb 4ba4 55bd af11 ab3c
00000100: 6e90 07bc c17d 9ab9 0b8e 1f3d fe9e cfbb
00000110: 3666 5dbc a157 b2ba 4355 74bc 85d6 afbc
00000120: 0ef6 6e3c 7448 e9bc 741a 6e3d 2dc6 22bc
00000130: 0ac9 04bd 8f8a 4dbb 93c5 6abc 764e 0b3c
00000140: 5e22 493b 15fb 103c ddaa 99bc f41b 373b
00000150: 1319 b9bb 1bb2 df3c 4996 93bb f197 04bc
00000160: 983e 0dbc 439e f2bc e23e bebc 823a c9bb
00000170: 77d4 8ebc 4abf 253c 5d0e debb ef7b 57bc
00000180: 9204 63bd 15b5 f1bb 4dcb 2f3c 1056 8dbb
00000190: 21a6 01bd 5f79 e2bc cb37 2fbc a58c 82bc
000001a0: 5821 96bc ae1c 0ebc 8918 a5bb c63d 20bc
000001b0: fcd6 5cbc 9cec eebc 5f62 db3a 6032 b6bc
000001c0: 5924 143d ccb9 80bb 411a 683b 10a2 c7bb
000001d0: 5a8c 84bc 0ab8 16bb 15bc f33b a299 f0bb
000001e0: a59a e93c 7e39 9ebb 4e0a 1c3b b674 1fbc
000001f0: aea1 98bc 2ce4 fcbb fcc7 a33b 12bd eebb
00000200: 9e80 783a 1358 7d3d 39e9 00bc 8138 3fbd
00000210: 0ace 4b3d f3b1 a93b cfb5 7b3c a543 283d
00000220: ccb3 a63d 18e8 02be 4549 863d 70f2 4c3d
00000230: 37a3 aa3d 8211 2c3d 9069 2c3c 0e89 103d
00000240: 833d 673e dd24 25bc 4c2b 2f3e c0f1 c13c
00000250: eec0 6b3d bb5e 1a3d 905e 2a3d ee99 5a3d
00000260: 6e0b 6d3d b232 7f3c e57c 31b9 7d7e 3d3d
00000270: 563e 223b 0e29 8a3d d324 49be cc9c 223b
00000280: 8081 0b3d 182c feba b71c 593d c787 8e3d
00000290: 7f3b 2a3c b35c 443d b918 943d 179e 9c3d
000002a0: 080a 7f3d 93d6 603e 4a97 6e3e f53b 82bb
000002b0: c49c 4fbc fdd8 9dbb 7075 183e 9e9b 873d
000002c0: 8f30 8d3c 32f4 a43e d0f7 823d df24 88bc
000002d0: fdf6 9a3c 325a 49bc f6bc 823d 2f27 04be
000002e0: b437 6c3d a33d 4f3d f3e9 413c 4bcf 5c3c
000002f0: c14a adbc 06da 52bc 2219 a73d a8a6 333d
00000300: 84fc bf3b 2e2e 543a f16e 0b3d 331c fb3b
00000310: 2738 b2bc 3b92 32bc 09a0 8c3c 1b68 873d
00000320: 6e1b 69bd 3e9f 04be ed41 a03c 5f0f f33b
00000330: 0bd3 c73c 0a3b c23d c204 303c 830b 35bc
00000340: c0d1 edbb 2683 ebbc ed3d 41bc 43b6 003c
00000350: f101 8f3b 0818 6c3d 2abb a5bc e19a 803c
00000360: ae08 d1bd 4758 983c e3db 83be 9d78 79bd
00000370: 6955 f3bb 70bd 303c b102 65bc 1bf7 0a3b
00000380: c944 17be 672d abbd 2b37 0a3d bcc0 003c
00000390: 8f8d 373d 4e24 51bc 934e 8abd 1d40 8ebd
000003a0: 6f8d 31bd 3411 7e3b a1d6 1d3d 0559 343b
000003b0: 168d 11bd 1a4e 563d 304f 9a3c 52f9 7abd
000003c0: 2d16 833b 7d08 3a3d fb1a 513c aa1f 8f3c
000003d0: 849d 813c c82b 2ebd bfce e4bd e021 2a3b
000003e0: d269 523d de67 c9bb c6f2 213c d80b 3cbd
000003f0: 1b3e 88bd 12d3 de3b 6c54 89bd 5244 9ebd

update_node_embedding_layer.1.update_layer.weight f4 [64, 128]
-0.010166158 -0.07529998 -0.0015054389 0.12978403 -0.073995486 0.018173264 -0.037568696 -0.1322762
-0.06166053 -0.3072928 -0.04392837 -0.059918188 -0.08966282 -0.07448325 -0.070538916 0.038947295
0.20460215 0.0024896995 0.13695687 -0.07467016 0.052485194 -0.0680734 -0.12188326 -0.11678636
-0.07891414 0.010020811 -0.0054459637 -0.046424814 0.010039929 0.044562295 -0.015369913 0.021232106
0.05048564 0.0065458403 -0.056271035 0.05414515 -0.004555614 0.055727158 -0.096281886 0.052991036
-0.08268474 0.14795549 0.18185173 0.0055172467 -0.0061289486 0.004195299 0.01964747 0.063993655
-0.17210773 0.3245451 -0.068393305 0.01227435 -0.08399448 0.009065761 0.12584104 -0.041138627
0.07086584 0.04042507 -0.14748079 -0.07503956 0.00096628093 0.007024199 0.05414731 0.22617175
0.006518638 0.10207086 -0.017742498 0.002817463 -0.009203515 -0.0058079646 -0.01425028 0.079163074
-0.004878531 0.00093886367 0.010392093 0.0035504617 -0.007757715 -0.0019633004 0.006561636 0.0027607274
0.005735186 -0.00515868 0.009190968 0.0132428985 0.012584904 -0.015148579 0.011618256 0.0064606946
-0.17132053 0.109350555 0.02248969 -0.0060446197 0.008486662 0.012795557 0.043152455 0.0015348429
-0.016380295 0.0042203777 0.017900473 -0.0060899747 0.024448663 0.00058497966 -0.011928596 -0.003214695
0.0064029074 -0.08832225 -0.0019281898 -0.00015805288 -0.013106861 0.011045508 0.0004449678 -0.021743381
0.01463146 -0.015037542 0.012532683 -0.011864437 -0.016833477 -0.016105475 -0.0050629326 -0.017895473
0.008852675 0.014320693 -0.0030273665 -0.12693752 0.050376125 -0.001975873 -0.0061194357 0.0017971235
-0.010863466 0.00679497 -0.007028142 -0.053326517 0.012956629 -0.010389512 -0.066826925 -0.13615215
-0.05174017 0.10776947 0.015782489 -0.0025657318 -0.0055324687 0.025429355 -0.0106007755 -0.42985916
-0.11505212 0.013382397 -0.11519075 0.038481873 -0.33594152 0.035324495 -0.040032692 -0.047158174
-0.1255718 0.0027341875 -0.0062289075 -0.009693348 -0.009917079 -0.3514397 -0.14296362 -0.017273802
-0.37612325 0.008304353 0.017357882 -0.30519658 0.0017040069 -0.31177947 -0.02882676 -0.279757
0.012489763 -0.3188949 -0.19322205 -0.010881407 -0.012037602 0.0047711004 -0.3205138 -0.26853567
-0.025542272 -0.33363193 0.0065107476 0.004584755 -0.104316995 -0.002873488 -0.15169244 -0.047051426
-0.30356026 -0.33945236 -0.0017906845 -0.18122293 -0.006654196 -0.0036493393 -0.14506373 0.050439563
-0.03642865 0.04175441 -0.024117185 0.039653096 -0.015403688 0.0044228206 0.07919869 0.054498218
0.0033971658 -0.0030630336 0.018350402 0.046603955 -0.017583165 -0.017179327 0.007352289 -0.008561072
0.026696034 0.011551481 0.006912506 0.03769828 -0.01848374 0.00050664635 0.018997192 0.027509378
0.08956004 0.08607097 0.017568404 -0.0033151226 0.008994487 0.07060324 -0.01989465 0.005279766
0.013027987 0.0013301374 0.005676406 -0.01421177 0.051240038 0.027226066 -0.00028158753 -0.0059180534
0.0013529183 -0.011382695 0.013824642 -0.009619842 0.026632583 0.005545107 0.0031949393 0.054751594
0.0037335341 0.054722343 0.011175519 0.03673188 0.05206197 -0.002770325 0.03534368 -1.4229316e-05
-0.003673406 0.012670264 0.07865597 -0.02971585 0.027755428 0.014062161 0.013303133 0.15042941
00000000: f58f 26bc e036 9abd 2652 c5ba 1be6 043e
00000010: f28a 97bd 19e0 943c a2e1 19bd 6a73 07be
00000020: c08f 7cbd 7b55 9dbe 3cee 33bd c66c 75bd
00000030: 24a1 b7bd ad8a 98bd b576 90bd 3387 1f3d
00000040: 3a83 513e 3a2a 233b 6c3e 0c3e abec 98bd
00000050: b7fa 563d 116a 8bbd ee9d f9bd b02d efbd
00000060: bd9d a1bd 542e 243c 0e74 b2bb f227 3ebd
00000070: 847e 243c f486 363d 16d2 7bbc f4ee ad3c
00000080: 08ca 4e3d 7d7e d63b 757c 66bd 4ec7 5d3d
00000090: 4347 95bb 2942 643d 702f c5bd 210d 593d
000000a0: 9e56 a9bd a581 173e 5737 3a3e 05ca b43b
000000b0: 59d5 c8bb b878 893b bbf3 a03c 1b0f 833d
000000c0: 023d 30be c62a a63e ca11 8cbd 5b1a 493c
000000d0: 4c05 acbd 8f88 143c 79dc 003e fa80 28bd
000000e0: 1c22 913d c294 253d 3405 17be 57ae 99bd
000000f0: 044e 7d3a 402b e63b 92c9 5d3d 9199 673e
00000100: 4d9a d53b 870a d13d b758 91bc 2fa5 383b
00000110: 57ca 16bc bd50 bebb 027a 69bc 4020 a23d
00000120: 16dc 9fbb 131e 763a 9943 2a3c ddae 683b
00000130: 6e34 febb b7aa 00bb fe02 d73b 52ed 343b
00000140: 3aee bb3b 250a a9bb b795 163c bef8 583c
00000150: ea30 4e3c bf31 78bc 7f5a 3e3c 3cb4 d33b
00000160: a66e 2fbe 2ff3 df3d 4c3c b83c f211 c6bb
00000170: a40b 0b3c 75a4 513c a1c0 303d c82c c93a
00000180: f82f 86bc 184b 8a3b 03a4 923c 698e c7bb
00000190: 9048 c83c 5259 193a 2870 43bc a2ad 52bb
000001a0: 7bcf d13b 4ce2 b4bd 50bb fcba ffba 25b9
000001b0: 29be 56bc 38f8 343c 914a e939 2d1f b2bc
000001c0: cbb8 6f3c 0660 76bc e255 4d3c 0e63 42bc
000001d0: 5ce6 89bc a1ef 83bc f5e6 a5bb 8799 92bc
000001e0: cf0a 113c 57a1 6a3c c866 46bb e9fb 01be
000001f0: 3257 4e3d a67d 01bb 8c85 c8bb 758d eb3a
00000200: aefc 31bc 57a8 de3b 544c e6bb e86c 5abd
00000210: 0a48 543c c638 2abc 8edc 88bd 786b 0bbe
00000220: 80ed 53bd 3db6 dc3d 474a 813c d625 28bb
00000230: b649 b5bb 3951 d03c e0ae 2dbc 8016 dcbe
00000240: 72a0 ebbd d741 5b3c 21e9 ebbd 2b9f 1d3d
00000250: 8700 acbe 6bb0 103d 52f9 23bd ee28 41bd
00000260: e595 00be 0e30 333b dd1b ccbb d9d0 1ebc
00000270: 3e7b 22bc e8ef b3be 0e65 12be ca81 8dbc
00000280: 3a93 c0be fb0e 083c 1e32 8e3c ba42 9cbe
00000290: fc58 df3a 8fa1 9fbe 1926 ecbc 4f3c 8fbe
000002a0: dda1 4c3c 3146 a3be 00dc 45be ee47 32bc
000002b0: 5d39 45bc e456 9c3b 631a a4be 827d 89be
000002c0: 073e d1bc ced1 aabe 1c58 d53b b63b 963b
000002d0: 26a4 d5bd 2151 3cbb 4355 1bbe ffb8 40bd
000002e0: 406c 9bbe b3cc adbe 67b5 eaba 8192 39be
000002f0: 710b dabb c129 6fbb 968b 14be b799 4e3d
00000300: 3536 15bd ac06 2b3d 6791 c5bc 496b 223d
00000310: c05f 7cbc 4fed 903b ec32 a23d 8639 5f3d
00000320: fca2 5e3b 2dbd 48bb 9553 963c cae3 3e3d
00000330: 920a 90bc a9bb 8cbc 78eb f03b bd43 0cbc
00000340: a4b1 da3c 6c42 3d3c 4e82 e23b 8369 1a3d
00000350: 366b 97bc 76d0 043a 00a0 9b3c 595b e13c
00000360: 416b b73d fa45 b03d 9deb 8f3c 8742 59bb
00000370: 9d5d 133c 6e98 903d 1bfa a2bc e301 ad3b
00000380: 5773 553c 0158 ae3a 2501 ba3b 7cd8 68bc
00000390: 13e1 513d 3309 df3c 0aa2 93b9 3bec c1bb
000003a0: 6854 b13a 7c7e 3abc c080 623c 8b9c 1dbc
000003b0: 932c da3c bbb3 b53b 3062 513b 3543 603d
000003c0: 4fae 743b 8924 603d 8619 373c 2b74 163d
000003d0: ef3e 553d 578e 35bb 89c4 103d 72ba 6eb7
000003e0: 87bd 70bb f096 4f3c 6216 a13d a76e f3bc
000003f0: 5a5f e33c fa64 663c 62f5 593c 2b0a 1a3e
