ER_200spin/eco/network/network4800000.pth (torch, 238273 bytes, 11 tensors)

node_init_embedding_layer.0.weight f4 [64, 7]
00000000: ba1b e23b eac6 82be cfd5 05be e219 203d
00000010: a9ce 033c 5341 bdbc c818 903d 3d87 3ebb
00000020: ad66 4dbe daf8 04bd 64b5 013e ca58 c9bc
00000030: 7326 993d e48b 0e3d e04f 05bb 4ab1 c13e
00000040: 8558 a0bc 5b1c a9bd aa7f 06ba 6628 893c
00000050: d6f6 ba3c 2bad e5bb ee13 c33e 2692 963c
00000060: aebc 36bd 65a5 1c38 44f6 923c dee1 8ebb
00000070: b081 c9bb 437c 7fbb 4385 21bc 81e5 35bc
00000080: 2041 31bc a6b1 77bb 6c62 79bc 95ae 35bc
00000090: 6ab6 6bbb 9752 04bb e315 2fbb b40b 59bc
000000a0: 81b1 86bc ca7a aebb f2fe 933c 8f30 e53e
000000b0: 8112 833c 9e02 64be 2c89 223b 567a 60bc
000000c0: d47d ea3c a608 9d3b e0af 4bbe 4113 04bf
000000d0: 8baf 663e 50a6 a13b 90af d83d 6f28 b73c
000000e0: dd4c 333c f488 9abe 584c 7c3d d151 323e
000000f0: fe43 283b 38ee df3c 73c9 7f3d abd3 4a3c
00000100: 8ff5 ca3e bda1 3b3d 68aa 3ebc 842e 9fb9
00000110: 1f81 d33c a1de 673c 34d2 35bc 73e8 b33e
00000120: 3fc4 f23c 55e6 873d 40a5 03bb 471d b13c
00000130: 88bd 2dbd 7c60 01bd 430d a93e 2e1f 35be
00000140: fae4 ca3d 8015 81ba 9295 86bc e972 6abe
00000150: f2b5 a53c 223c e03e b678 bbbb 9f3b 22be
00000160: 480f d43a db15 223d a02b b93c b682 3a3c
00000170: df52 94be 5b97 13ba 8c63 e43d 28a6 c13b
00000180: ee57 b2bc d2c0 763d 478b 793c ef1a 91be
00000190: 4cd0 b73b 5805 e83d ee53 343b 52ce f8bb
000001a0: 4aa6 903d 8d0b 3f3c 66d4 683c 87c0 25be
000001b0: e046 f43d 5e9a 85bc c223 933c 3f67 58be
000001c0: 2956 013c 29d4 60be cefb 41bd 4e44 233e
000001d0: 9db0 0bbc 7298 8c3d 390a 343d 17ce 91bc
000001e0: b007 b43e 4046 663c df5f 963b fe8c 9fbb
000001f0: 7b24 f63c 43e8 b83b bcfa d33c c9f1 bbbe
00000200: 9d00 e83b 63ed 0a3e 6845 273c 5592 8f3a
00000210: cf95 a53d a2cc 48bb 59d7 993e 6c33 8c3d
00000220: 4b43 833d db89 c5ba ee55 cb3b 323f 3f3c
00000230: 1a24 0f3c 54cd e33e 3196 353d a157 86bd
00000240: df12 0ebb df8c 023d 1ffa 223c 4848 b73c
00000250: 827a b2be 026f 003d 2e11 153e 321f 003c
00000260: 3bb4 d53b 124b 8f3d 9474 8abb 09af 45be
00000270: f72c af3d 551c 3f3e 8373 bbbc 4dc6 843d
00000280: 2d3e cfbc 805b 0bbc e198 43be 6682 013e
00000290: 00eb 273d c1a2 8a3b ebdb 30bc 6bed a13d
000002a0: 65fa d23b 340e 6dbe 1051 643d 84ac cf3e
000002b0: 40ef 963b 92f5 963d 6131 1d3c 7bcb 1ebc
000002c0: b4bf b93e 3a24 183c 9ee5 e53b 2297 b33b
000002d0: 8517 1a3d 23de 1dbd 97da 063c 5041 e53e
000002e0: 3b10 3f3d ba3e 63bc 9cf1 b0b9 ff98 553d
000002f0: 599c b63c d50d 02bb 0a30 4a3b 6ca2 8f3a
00000300: 5b8f 1abc cb82 b7bb 4bda 8ebb 61bf 28bc
00000310: 88f3 4d3c 2188 c53e 2c16 853c 69ac 7ebd
00000320: cf93 203a 169e f83c 1d48 0fbc d664 953c
00000330: ffc0 b7be e73b ff3b ee8d 003e 0d1b 783b
00000340: 718b e33c fdaf 3f3d e772 9f3b e0e8 5fbe
00000350: 0f0f a0bc 1cf0 43be 7ea6 08bc 1eea c23d
00000360: c233 e5bb d90e bebb 523a 78be 9f61 0a3d
00000370: 5921 db3d 7d3c 783b 080d d0bc d2cb dc3c
00000380: a721 21bb d028 2c3c ae8f 7ebb 5c9d 91bc
00000390: b8ed 82bb e96d 04bc 1c46 e9ba d0f5 cf3c
000003a0: bcb8 033e ec13 a6be 157e 053d 65f8 a53b
000003b0: 1f71 493c bf19 b5be f75f 1c3c fe84 ce3e
000003c0: ab65 213c 11d5 3cbd 8be8 4d3a 2461 483d
000003d0: 8f6c 3f3c 4756 44bb 9068 923b 1ac5 35bc
000003e0: 0f6e 3ebc 1e4a 36bc 17e0 cebb f7b7 d7ba
000003f0: 5e03 0e3b 1607 49be 887b d2bd 6d8e b03d
0.006900278 -0.25542384 -0.13069843 0.039087184 0.008044877 -0.023102438 0.07035977 -0.0029072308
-0.20058699 -0.032463886 0.12666851 -0.02457847 0.07478037 0.03480138 -0.0020341799 0.37830573
-0.01957346 -0.082573615 -0.0005130718 0.016742896 0.022822779 -0.0070091686 0.38101143 0.018380236
-0.044613533 3.7347334e-05 0.017939694 -0.0043604216 -0.006149493 -0.0038983978 -0.009858432 -0.011102081
-0.01081875 -0.0037795096 -0.0152212195 -0.011088987 -0.0035966882 -0.002019083 -0.0026715926 -0.013247419
-0.016442062 -0.005324696 0.018065903 0.4476361 0.016000034 -0.22266623 0.0024801 -0.013701042
0.028624453 0.0047922907 -0.1989131 -0.5159188 0.22527902 0.004933156 0.10580361 0.022358147
0.010943619 -0.30182612 0.061596245 0.17414023 0.0025675292 0.027335271 0.062447976 0.012379567
0.3964047 0.045808543 -0.011637308 -0.000303615 0.025818406 0.0141522 -0.01109748 0.35138282
0.029634593 0.06635729 -0.002008751 0.021620406 -0.04241708 -0.031586155 0.3301793 -0.17687675
0.09906955 -0.0009848326 -0.016428743 -0.22895397 0.02022836 0.43795878 -0.005721177 -0.15843056
0.001617887 0.039571624 0.02260381 0.011383703 -0.28969476 -0.00056301587 0.111517996 0.0059097
-0.021770444 0.06024248 0.01523096 -0.2834086 0.0056095477 0.11329144 0.0027515846 -0.0075929547
0.07062967 0.011660469 0.014210796 -0.16186725 0.11927581 -0.01630896 0.017961387 -0.21133135
0.007894077 -0.21955933 -0.04735928 0.15944025 -0.008525995 0.06865014 0.04395506 -0.017798467
0.35162115 0.014054835 0.0045890654 -0.0048691025 0.030046692 0.005642922 0.025876395 -0.36707905
0.0070801512 0.13567118 0.010209419 0.0010953645 0.08085214 -0.0030639549 0.3004711 0.068457454
0.064093195 -0.0015070991 0.006205312 0.011672782 0.008736635 0.4449259 0.044332687 -0.06559683
-0.0021678729 0.031872626 0.009947329 0.022373334 -0.3485909 0.031355865 0.14557335 0.007819938
0.0065217293 0.069967404 -0.004225323 -0.19305052 0.08553498 0.18663152 -0.022882229 0.06483135
-0.025298202 -0.008505702 -0.19101287 0.126474 0.040995598 0.0042308276 -0.01079462 0.07906612
0.0064385408 -0.2314995 0.05574137 0.40561306 0.0046061575 0.073710576 0.009594292 -0.009692068
0.3627907 0.009285981 0.007015898 0.005480663 0.037620086 -0.038541924 0.008230827 0.44776392
0.046646338 -0.013869936 -0.0003374935 0.05214786 0.02229135 -0.001984467 0.0030851387 0.001095844
-0.009433593 -0.0056003085 -0.0043595186 -0.010299535 0.012570269 0.3858042 0.016245924 -0.062176142
0.0006125541 0.030348819 -0.0087452205 0.018236559 -0.35889432 0.0077891233 0.12554142 0.003785792
0.027776452 0.046798695 0.0048659923 -0.21866179 -0.01953843 -0.19134563 -0.008340476 0.095173106
-0.0069946954 -0.00580011 -0.24240997 0.033784505 0.1069972 0.003787785 -0.025396839 0.026952658
-0.0024586709 0.010507777 -0.0038842964 -0.01777523 -0.0039956234 -0.008082845 -0.0017797383 0.025385767
0.1286344 -0.32437074 0.032590944 0.0050650113 0.012295037 -0.35371205 0.009544364 0.4033584
0.0098509 -0.046101633 0.0007854781 0.048920766 0.011683597 -0.0029958652 0.004468031 -0.011094356
-0.01162292 -0.011126069 -0.0063133347 -0.0016458024 0.0021669487 -0.1963161 -0.10277468 0.086209156

edge_embedding_layer.edge_embedding_NN.weight f4 [63, 8]
00000000: 4aff 0d3d 9759 0b3d 3147 8e3e 0df2 2cbd
00000010: 2f19 44bb b7e7 03bd 069c 12bc e5d7 7bbd
00000020: da91 22bc 8489 30bc a767 8dbb 0b1a 16bb
00000030: d5af 123c 26f9 b5bc 19e0 79bc b872 043c
00000040: 11ac 003d ce37 ca3c 42a0 813e d973 41bd
00000050: 86ae 17bc 01d0 bfbc d394 14bb c628 33bd
00000060: eb01 4b3d 469d 2f3d 84bd 803e f5ea fabd
00000070: aad4 b3bc 85e1 3cba cc23 4a3d 8ffe a0bd
00000080: 3357 76bc a1de dcbb e91d 7c3c bd1a 71bc
00000090: 8ffc 20bc db78 c7ba b9c1 b5ba 58a0 08bb
000000a0: bb87 2abc e96b 1aba 4afb 213b 5c68 89bb
000000b0: 7669 373b 04b4 5ebc bdaf 3d3c 3d4c 303b
000000c0: 3960 2cbc c512 e9bc d908 0ebe 2fd5 f43d
000000d0: e517 9b3d 5b71 0ebc 98b0 e7bd c7b7 933d
000000e0: 08c3 adbb 56be 1d3c c5e6 3ebe ad5c 1d3e
000000f0: 86be ad3d cfc1 2e3c 16f8 4ebc 701a f73d
00000100: de6d dbbb 72e5 e3bd 8072 36be 4d36 be3d
00000110: 00d3 cf3d ac39 68bc 34dd 78bc a6f8 923d
00000120: 4f01 dcba bc8b 4abd fd0b 21be 707c f13d
00000130: c565 283d b6c0 2e3c 198b c5bd 996a cd3d
00000140: 67ad 39bc 436d 493c 4b26 2cbe a001 0a3e
00000150: 73a3 b03d d25b 8d3b 415a 12bc 9cd1 d93d
00000160: 2187 07ba 46eb 95ba 9f19 cfba e9d8 3ebc
00000170: e960 09bc 20b2 9bbc 9efc adbc 1353 4dbb
00000180: 7d3d 3dbc ff85 d3bb 363f 9abc a3aa 0f3c
00000190: 8e6b 3bbb c099 57bc 4b89 c13a 6440 4fbb
000001a0: a90f 623d 9366 bf3c 6b09 743e 3c96 ddbd
000001b0: c92f 21bc 990b 1b3b dd29 513d d003 edbd
000001c0: c774 47bc 5bf2 8cbc 9ef8 20be 8486 d53d
000001d0: ef40 693d a976 613c 501b 9fbe a1b4 b13d
000001e0: 236b 873d 8877 4a3d 3420 6f3e 11c7 fabd
000001f0: d16f 31bd 68d0 99b9 21cf 6e3d 6398 bbbd
00000200: 6399 0ebc 316d acbb 7d92 21be 3320 0a3e
00000210: df89 b93d c529 303b bf8a afbb 5978 ad3d
00000220: 58dd 2b3d 01d7 2c3c e11b 8b3e bc2e 9abd
00000230: e8fa 323d 4598 bdb9 dcc2 d33c d99c 85bd
00000240: 0ed8 613d 2e76 b53b b6f7 753e 2a1c d5bd
00000250: 80a5 f83b 607d 603b 1fdf 263d 5475 f4bd
00000260: eb40 343b 3540 4cbb b1d4 0bbe e4a3 e93d
00000270: 4695 d03d 848a f83a c8f2 76bd dbfb c43d
00000280: d841 bdba 2954 20bc 6d0c 1d3b 3ded a93a
00000290: cd6a a4ba 8551 27b9 6f54 e7bb 4d3b 16bc
000002a0: 7ce7 01bc d2b1 9fbb 42b3 1fbe 7463 f13d
000002b0: 7815 e43d fb82 eebb aae0 52bc 3da7 c53d
000002c0: ceb8 543d 42d7 5a3d 1561 803e 35d7 0abe
000002d0: 5c47 c7bb 55f2 0bbb 5657 6b3d d46b 90bd
000002e0: e074 c2ba 4b84 8eba a0ed d139 2616 003b
000002f0: 5731 92bc b9db b0bb de23 34bb 5572 7cbb
00000300: 4ca3 8a3d 0496 193d 5c27 7f3e 108f 20be
00000310: dbc8 40bd 607a 483b 887f 283d 9487 bfbd
00000320: aeea 143d cebe 833b 9cee 963e ab10 81be
00000330: 3d64 d63b a9c9 773b 9743 b73c 66b8 67be
00000340: fc68 a6bc 4803 1bbc 78ba 17be 7539 ff3d
00000350: 0b9b 393d c3e9 ec3b 002c 9fbe 48c9 b83d
00000360: 4e21 7b3d ff9d c33c babc 723e 5952 f1bd
00000370: be7c 5e3d 855a 3abb 5e59 283d db4a aabd
00000380: a2ce 72bc 5de9 72bc f821 88bc e536 7abc
00000390: bc7f f9bb ced3 45bc 0618 54bc 4a6b 2cbc
000003a0: f2e9 1fbb 7124 02bd 864c 01be 33f5 083e
000003b0: c261 a73d e25b bc3b 5dba 42be c25c b93d
000003c0: e59d 2f3d a0e0 4e3d a2c7 773e dacc 0dbe
000003d0: 185f acbc 38fd 0bbb a335 623d 9939 74bd
000003e0: df8a 123d 85f8 dabb 14b1 b03e 2236 5dbe
000003f0: b0f3 5c3c d085 d339 4fd6 863c 7b8a 69be
0.03466729 0.034020986 0.2778869 -0.042223025 -0.0029922237 -0.032203402 -0.008948332 -0.06148519
-0.009922469 -0.010774974 -0.004315335 -0.0022903706 0.008953054 -0.02221353 -0.015251183 0.008083992
0.031414095 0.024684813 0.2531758 -0.04722962 -0.009257918 -0.023414614 -0.0022671714 -0.043740056
0.049562376 0.042874597 0.2514459 -0.12251846 -0.021951992 -0.0007205236 0.049350545 -0.07861053
-0.015035438 -0.0067404066 0.0153879905 -0.014715848 -0.00982584 -0.0015218513 -0.0013866938 -0.0020847525
-0.010408337 -0.00058907137 0.002471643 -0.004193349 0.0027986444 -0.013592724 0.011577544 0.002690091
-0.010520988 -0.028451333 -0.13870563 0.11954724 0.07572917 -0.008694018 -0.113129795 0.07212787
-0.0053027906 0.009627899 -0.18642719 0.15367384 0.08483605 0.010666325 -0.0126323905 0.120655894
-0.006696447 -0.111277476 -0.17817116 0.09287701 0.10147667 -0.014173906 -0.015189458 0.07176332
-0.0016785058 -0.049449667 -0.1572723 0.11791313 0.04111268 0.010666063 -0.096456714 0.100300975
-0.011332846 0.012294116 -0.16811483 0.13477182 0.086249255 0.0043139243 -0.008932651 0.10635683
-0.0005169977 -0.0011437915 -0.0015800482 -0.011648395 -0.008384922 -0.019005835 -0.021238621 -0.0031330034
-0.0115503045 -0.0064551826 -0.01882897 0.00876871 -0.0028598043 -0.013159215 0.0014765648 -0.0031624073
0.055190716 0.02336434 0.23831718 -0.108196706 -0.009838053 0.0023658036 0.051065315 -0.11572993
-0.012173838 -0.017205408 -0.1571984 0.104260474 0.05694669 0.013761201 -0.31075525 0.0867703
0.066122316 0.0494304 0.23352128 -0.12245 -0.043319527 -0.0002933771 0.058303002 -0.09159925
-0.008703562 -0.00526204 -0.15778537 0.13488846 0.090595 0.0026880365 -0.005357116 0.0847022
0.041959137 0.010549308 0.27169707 -0.07528445 0.043696314 -0.0003616234 0.025849752 -0.06524057
0.055137686 0.0055377698 0.24020275 -0.104057625 0.0075880885 0.0034254417 0.04074013 -0.11936441
0.0027504514 -0.00311662 -0.13655354 0.11408213 0.10184722 0.0018962179 -0.060290128 0.0961835
-0.0014439179 -0.00978569 0.0023963705 0.0012964379 -0.0012544036 -0.0001595673 -0.007059626 -0.009169412
-0.007928725 -0.0048734928 -0.15595725 0.11786547 0.11136907 -0.0072787977 -0.012870947 0.09651039
0.051934056 0.053427942 0.25074068 -0.13558657 -0.0060815047 -0.0021354158 0.057456337 -0.070518166
-0.0014835857 -0.0010873167 0.0004004063 0.0019544451 -0.017845793 -0.0053972867 -0.0027487199 -0.0038520296
0.06769428 0.03749658 0.24917358 -0.15679574 -0.04706655 0.003059052 0.04113725 -0.09352031
0.03635662 0.0040205484 0.2947892 -0.2520803 0.006542711 0.0037809408 0.022371097 -0.22628936
-0.020313732 -0.0094612315 -0.14817226 0.12462131 0.045313876 0.007230015 -0.31088257 0.09022766
0.06131106 0.02387905 0.23704806 -0.11783285 0.054318182 -0.0028435302 0.041100852 -0.08315059
-0.014819773 -0.014826146 -0.01661776 -0.015271877 -0.007614104 -0.012074424 -0.012945181 -0.010523627
-0.0024400917 -0.031773034 -0.12626848 0.13374786 0.08172943 0.005748258 -0.19016404 0.09050895
0.04287519 0.050507188 0.24197248 -0.13847676 -0.021041438 -0.0021360647 0.055226933 -0.059625242
0.03577697 -0.006682458 0.345101 -0.21602681 0.013485834 0.00040344754 0.016459612 -0.22806732

edge_embedding_layer.edge_feature_NN.weight f4 [64, 64]
00000000: d666 673d ffa9 da3b af4e 513d a2c5 6a3d
00000010: f99d 223c 4c99 063c 1149 dabc 2cb7 72bd
00000020: 15c3 04bd e15a dabc 41e5 22bd 9174 a13a
00000030: 33a8 b9bb be31 953d b4e3 37bd 1584 733d
00000040: 0fee f2bc dd8a f83c 5c45 103d 9cdf b9bb
00000050: fbcc e538 81d4 07bd 0d58 263d 7099 293b
00000060: ae82 2a3d 40f7 0b3e 6cb4 87bd 6775 353d
00000070: 7fa5 0ebb 1608 64bd 3f86 313d 2a93 003e
00000080: f14d 28bd 674f 18bd 3f55 933d b51b 76bb
00000090: 2c76 313d 2804 17bd 68f6 41bd a38e 733d
000000a0: 3271 23bd 43d3 823d c40d 9f3c ba09 8d3d
000000b0: 6770 5e3b 4bd1 e9bc 2a9d 17bd 7823 13bb
000000c0: f660 093b d4a7 40bd 974d 8e3c 2fb6 29bc
000000d0: e7e0 c23c f9a5 543c 2d14 33bd 5485 f83c
000000e0: b95a 933d 39f1 013e dc2d 183c cd18 9b3c
000000f0: bb82 7e3d 9217 a83d 2688 113d 0f83 5b3d
00000100: f43f 30bc 1d46 05bc e5e4 cb3a 0ec6 063c
00000110: 3bc1 fb3a 29c2 0d3b 0b19 f83b 697d 333c
00000120: c06f f1bb bde7 c3bb b429 25bc f030 0b3a
00000130: a9c0 613c 7b8d cc3b 1a91 9f3b 795e 64bc
00000140: 467b b43a 0fbd fc3b 6f53 043c 298b fdba
00000150: cf71 16bc b803 14bc 6643 96bb 0088 cabc
00000160: 2f5e f83b 0ed6 4e3c 4ef2 c5bb b27d 3cbb
00000170: dbcc 4c3c efdc 9ebc eab2 bf3b f0d3 973b
00000180: 69f0 6cb8 1ec7 7fbc b4ef 2dbc 0afb 45bb
00000190: 24f7 babc c752 973b cd1f acbb d677 153c
000001a0: fee5 1d3b b381 503c 9c85 c73b b71b a33b
000001b0: dbc8 22bb 5358 4abc d03d 18ba b7aa 883c
000001c0: bbe4 5b3c f347 413a f0e0 b43b ea70 633b
000001d0: 45dd c0bc f46d 48bc debd 853b b496 93bc
000001e0: a82d 0dbc 5080 dcbb 79e1 aebb bdac 033a
000001f0: bee8 a83b 6f5d 33bb 1153 133c 2fa5 e6bc
00000200: 276e a2bc fb22 d0bb 00e2 ac39 9702 86bb
00000210: 2e3d 3ebc c2eb 84bb 8cac 4d3d 25e3 9b3c
00000220: bce0 693d 1ae0 743c 21f7 883c 7a20 103b
00000230: f033 fbba 4734 4abd e054 043c be1f f4bc
00000240: 73e0 af3b df14 32bd 382b 3fbd df2d cb3c
00000250: fd53 c6bc cb15 b63c 9930 a8bc 27e6 863b
00000260: 702c c1bc 22e6 f7bd 9bb3 d43c 1a02 c0bd
00000270: 3595 f6bb 2d2d a63c 6bf1 27bc b3ef 17be
00000280: bebc 213d f320 1a3d 396d 84bc 521f 393d
00000290: 56cf 2fbc 40de 183d 611d a93c 6087 0ebd
000002a0: 1800 3b3d cb98 8abd bb9a fdbc 2a59 c9bc
000002b0: 7b60 48bb 893f 403d d557 5d3d d84f 383c
000002c0: 6bd2 58bc d90b f83c bd89 0db9 0b16 363c
000002d0: a95e 8ebc 0367 cd3a 2917 323d fee3 87bd
000002e0: 7cdd 98bd a6f2 3cbe 1b3c 9e3b e218 1a3c
000002f0: 26ab 90bc 66ce a1bc 1780 05bd 1b48 99ba
00000300: 9c66 64bc 571e e1bb c644 18bc d4c6 0b3c
00000310: e51f 5b3b 8dab 06bc 2ad1 22bc 25eb f135
00000320: 529b d53b c1e4 cdba 4fe1 0a3c dc1a f1bb
00000330: d71d 97bb 7ea0 133b 7d20 10bc e3d0 18bb
00000340: 65e4 8ebc 73cc c73b 246c 81bc 279a a6bb
00000350: a2c0 873b 8342 97bb ba78 86b8 3ad2 1cbb
00000360: 54f5 243b 928a 28bc d8f6 48bb ed3f 013c
00000370: f881 313c 2003 96ba 5677 30bb e012 84ba
00000380: 088e 85bc c181 ea3b fbd0 883a 4a8a 4739
00000390: d8bb 6b3a 3573 b7bb 1d83 b8bb cfc7 0a39
000003a0: 060f b3bb 46bf 89bb e205 0339 245f 5cb9
000003b0: c0a7 8f3c 9f19 8b3c 4259 5dbc 3539 bb3b
000003c0: c19b 24ba a791 a4b9 9533 473b db2f 5abc
000003d0: a649 16ba bd55 b33b cbc1 cdba 05fa fbbb
000003e0: a2cc 573c 3bbc 5dbc 7885 bcb9 4ff0 22ba
000003f0: 1654 06bb 9feb 0dbc 377b d43b 9d6e 9ebb
0.056494556 0.006673097 0.05110043 0.057317384 0.009925359 0.00821526 -0.026646169 -0.059256718
-0.032412607 -0.026654663 -0.039769415 0.0012318065 -0.005665803 0.07284878 -0.04489489 0.059452135
-0.02965453 0.030339653 0.035222396 -0.0056724083 0.000109577515 -0.033161644 0.040611316 0.002587881
0.041628532 0.13668537 -0.066262096 0.044301417 -0.0021766124 -0.055671774 0.043340918 0.12556139
-0.041089956 -0.0371851 0.07193994 -0.0037553136 0.043325588 -0.036869198 -0.047354132 0.0594622
-0.039902873 0.06387951 0.019415744 0.06886621 0.0033941509 -0.028542181 -0.037015118 -0.002245156
0.0020962334 -0.047035053 0.017370982 -0.010358377 0.023788882 0.012979024 -0.043720413 0.030337013
0.07195038 0.12689675 0.0092882775 0.018932724 0.062136393 0.08207621 0.035530232 0.053591784
-0.010757435 -0.008134392 0.0015555887 0.008225931 0.0019207367 0.002163062 0.0075713447 0.010955193
-0.007368058 -0.005978553 -0.010080744 0.00053097215 0.013778844 0.0062424517 0.0048695924 -0.01393854
0.0013769649 0.007712967 0.008076533 -0.0019343841 -0.0091824075 -0.00903409 -0.0045856712 -0.024723053
0.007579587 0.012624277 -0.006040848 -0.0028761444 0.012500013 -0.019392459 0.0058501856 0.004633419
-5.6490684e-05 -0.015611438 -0.010616232 -0.0030209445 -0.022822924 0.004618022 -0.0052528144 0.009122809
0.0024093385 0.012726235 0.0060889255 0.004977669 -0.0024838957 -0.01235016 -0.00058075506 0.016682966
0.013421233 0.0007373087 0.0055199787 0.0034704753 -0.02354301 -0.012233246 0.004081472 -0.018016197
-0.008616842 -0.006729163 -0.005336937 0.00050229934 0.005154698 -0.0027368923 0.008991973 -0.028154938
-0.019827915 -0.0063518262 0.0003297478 -0.004089664 -0.011611266 -0.004056425 0.05021338 0.01902921
0.05709909 0.014946008 0.016719403 0.0021992014 -0.0019165259 -0.04936626 0.008076876 -0.029800292
0.0053673326 -0.043476935 -0.046672076 0.024802146 -0.02420997 0.022227189 -0.020530986 0.0041167918
-0.02358076 -0.12104441 0.025964549 -0.09375401 -0.007525111 0.020285213 -0.01025043 -0.14837532
0.03948664 0.03762908 -0.016165363 0.045195885 -0.010730585 0.03732133 0.020643892 -0.034797072
0.045654386 -0.06767424 -0.03095757 -0.02457865 -0.0030575085 0.04693559 0.05403884 0.011249505
-0.013233761 0.030279087 -0.0001349812 0.011113654 -0.017379122 0.0015670959 0.04347912 -0.06635283
-0.0746412 -0.18451938 0.0048289425 0.009405347 -0.017659735 -0.019751739 -0.03259286 -0.0011694463
-0.01394048 -0.006870072 -0.009293741 0.008531291 0.0033435759 -0.008219612 -0.009937564 1.8024335e-06
0.0065187598 -0.0015708433 0.008476569 -0.007357938 -0.0046117115 0.002252608 -0.008796808 -0.0023317866
-0.017442891 0.0060973703 -0.015798636 -0.0050842944 0.0041428367 -0.004616083 -6.412105e-05 -0.0023929016
0.002517064 -0.010286944 -0.0030664708 0.007888776 0.01083421 -0.0011445023 -0.0026926599 -0.0010076426
-0.016303077 0.007156581 0.0010438258 0.00019029636 0.00089925295 -0.0055984505 -0.0056308643 0.0001323514
-0.0054644374 -0.00420371 0.00012495325 -0.00021016278 0.017536044 0.01697999 -0.01351005 0.0057136067
-0.00062793127 -0.00031389037 0.0030395736 -0.013317074 -0.00057330204 0.0054728673 -0.0015698014 -0.0076897168
0.013171347 -0.013533647 -0.00035957596 -0.00062156183 -0.0020496896 -0.0086621335 0.006484415 -0.0048349635

update_node_embedding_layer.0.message_layer.weight f4 [64, 128]
00000000: c122 9cbc 817d e53a 2d07 67bc 5447 8abb
00000010: 1a80 92bc a354 3a3c 3129 fd3b 6e8d 6a3b
00000020: cfd4 0abc 658d 9cbc 383c d03b 4510 aabc
00000030: 41d5 88bc 5324 5fbc 905f 213b cbc1 78ba
00000040: 1fd1 86bc 3f95 73bb 2b88 63bb 0092 a93b
00000050: 3b84 40bc 9856 cfbc 34c9 3ebc 575a 3fbc
00000060: bcee 8c3c b358 183c 3563 dfbb 4851 85bb
00000070: 98af c5bb e1fb 9abc ff20 0dbc a58d 3d3c
00000080: 492e f7ba 23ff 073c e378 753b b0ef a1bb
00000090: ec59 d9bb 0393 9cbb e059 9cbc 3982 4ebc
000000a0: 60d9 b2bb 7034 9f3b 4c57 a0bc b494 7bbc
000000b0: e22b 733b 00fd 1d3c ce9f 42bc 00f5 14b7
000000c0: eb4e 23bc 8663 1b3c 07e5 94bb 0e5c b0bb
000000d0: 4cc8 48b9 1abe 813b 29fc b4bc 2680 2d3c
000000e0: 22e4 edbb cf84 23bc 1790 4bbc 2791 adbb
000000f0: d905 53ba 965d 973c df3b 023c e5ff 1bbb
00000100: 7009 cebb 763f 1fbb a9c9 2b3c bd63 4abc
00000110: ca72 8aba e54b 2dba cb7f 69bc 9b90 943b
00000120: 8e70 11bc 23e9 00bb f288 0fbc dfe5 603c
00000130: 7fb4 d9bb 15b0 8e3b e342 e43a 6d20 a73c
00000140: 9f51 8dbb 2dd9 043a 8c4a a5ba d723 acbb
00000150: b0ce d8bb 394b 543a b459 0bbc b509 623c
00000160: b5e9 3e3b 0dac 973a 20bd 7a3a 29b8 5e3c
00000170: 1acc 83bc a153 64bc a814 bebb f8b5 a53c
00000180: 99cd 383c b4e2 97bc ca9d 623c 45fb acba
00000190: 7bc8 7d38 1e3c 0bbb 4970 17bc ae43 c83c
000001a0: f52f 1c3b ec91 33bb c036 743b 4257 973b
000001b0: 673f 41bc 7897 c2bc 1bdd ec3b 10c5 babb
000001c0: eade 21bc 6995 723c 536f dcbb 37b9 083c
000001d0: 713f ed3a 54bb e53a 901c dd3b 6b37 39bc
000001e0: bba6 933b 5654 063c 4601 00bc 5c40 5cbc
000001f0: 72e3 38bb cff1 d23a 9afe 823b 1856 6cbb
00000200: 3570 8dbb 7185 a4bb 07e6 66bc ecc0 f73b
00000210: eeaf 9abb d200 773c d97a b03a 3183 91bc
00000220: 95b6 e03b 4bd5 9b3c 15af ef3b 53db 1aba
00000230: d3ed 013c 544b d8ba b55c 5f3b 696c 293c
00000240: 84cb d4bc 62fc 283c 919f cf39 c589 303c
00000250: ab57 e83b 709b f83b af7f 3d3c 8c84 cbbb
00000260: d4bb 1bbb a631 2dbc a32d 3b3c 1856 363c
00000270: b7fb 023c bbd1 7dbc fd93 3f3c d631 d4bb
00000280: bdbc 71ba 05eb 713a 6988 81bb 354b 5a3b
00000290: b728 33bc 8a02 013b cece 6e3c 9f40 09bc
000002a0: 0c36 7239 a6d1 7a3b 5e8f 0a3c 990a 72bc
000002b0: d765 74bb 7214 e7ba ebaa 853c 6a26 5db8
000002c0: 230b a7bb db76 87ba eb59 8d3c 442b 0cbc
000002d0: dbca 323c 310d 55bc fa14 763c 46af 5a3a
000002e0: cba5 21bb 95c7 5bbc 2a33 613c eee4 86bc
000002f0: 92a3 283b 57bb 8f3b 5de5 9fba 84b8 173b
00000300: 02ba 233b 7ede 04ba cb94 5bbc f3d5 efbb
00000310: b1cd babb fc13 183c 4ad8 053b a339 1ebb
00000320: c4da 66ba 2dd1 063b 1e4b 9d39 008e 51bc
00000330: acc1 5b3c 8fe1 823b 206a a3bb a795 9fbb
00000340: e820 96bc c370 1c3c 73fc 32bc bcde 7fbb
00000350: 2916 493a 7bd6 4a3c 210c 3c3a 474a 5fbc
00000360: 1c04 0dbb a25f 97b9 9cb4 00bb 057c 13bc
00000370: ee68 1d3c ffac 6d3b e18b b7bb 03c3 5dba
00000380: b1e9 b2ba 1246 d9bb 85fb 0abc 0aa1 f1b8
00000390: 6ad6 2bbb 9255 19bb e542 03bc 8688 8dbc
000003a0: 738d 603b be3b 64bc 93ef 993b b351 65bc
000003b0: 17dc f5bb da16 0b3b 1571 97bc 9e71 3cbc
000003c0: 3a8a ba3b 09c3 373b e569 cab9 a9da 743c
000003d0: 3fc4 e93b 9c36 4e3c f297 5c3c 6475 9fbc
000003e0: 228a 26bb 6151 4f3b 7791 54bc b207 2d3c
000003f0: 10f1 febb a909 2d3b 14c7 8c3c 9dd6 b9bb
-0.01905954 0.0017508717 -0.014100832 -0.0042199288 -0.01788335 0.011372718 0.0077258577 0.0035789865
-0.008473589 -0.01911039 0.006354835 -0.020759711 -0.01670325 -0.0136195 0.002462361 -0.00094893266
-0.016457139 -0.0037167815 -0.0034718614 0.0051748753 -0.011750276 -0.025309846 -0.01164465 -0.011679254
0.017203681 0.009298491 -0.0068172463 -0.0040685274 -0.0060328953 -0.018918933 -0.008613824 0.011569415
-0.0018858399 0.008300575 0.0037456087 -0.004941903 -0.006633034 -0.0047782674 -0.019085824 -0.01260429
-0.005458042 0.004858546 -0.019572876 -0.015355278 0.0037105014 0.009642839 -0.011878921 -8.878531e-06
-0.009967546 0.009484177 -0.0045439037 -0.0053820675 -0.00019148103 0.0039594295 -0.022092896 0.010589635
-0.0072598616 -0.0099803945 -0.01242449 -0.0052968445 -0.00080498826 0.018477242 0.007948845 -0.0023803648
-0.006287746 -0.00242993 0.010485091 -0.012352881 -0.0010562774 -0.00066107354 -0.01425166 0.00453384
-0.008876933 -0.001967021 -0.008760678 0.013726681 -0.0066438313 0.0043544867 0.0017414953 0.020401204
-0.0043127085 0.0005067762 -0.0012610718 -0.005253296 -0.006616436 0.0008098367 -0.008505274 0.01379626
0.0029131 0.0011571661 0.0009564925 0.013593712 -0.016088534 -0.013935954 -0.0058008023 0.020228371
0.011279487 -0.018540718 0.013831565 -0.0013197443 6.0506612e-05 -0.002124555 -0.009243079 0.024446335
0.0023832296 -0.0027400209 0.003726408 0.0046185562 -0.011794901 -0.023753867 0.0072285063 -0.005699761
-0.009879807 0.01480613 -0.006727138 0.00834494 0.0018100572 0.0017527142 0.0067477897 -0.011304717
0.00450596 0.008198818 -0.007812804 -0.013443079 -0.002821174 0.0016093793 0.003997636 -0.0036062058
-0.0043163546 -0.0050207903 -0.014092929 0.00756084 -0.0047206795 0.015075879 0.0013464346 -0.017762752
0.006857703 0.019022604 0.0073145726 -0.00059073156 0.007930237 -0.0016501942 0.0034082357 0.010340788
-0.02597595 0.010314079 0.00039601003 0.010775034 0.007090529 0.007586889 0.011566087 -0.006210869
-0.0023763077 -0.010570919 0.011424455 0.011128925 0.007994584 -0.015491898 0.011692998 -0.0064756675
-0.00092215446 0.0009228441 -0.003953029 0.0033308987 -0.010935 0.0019685351 0.014575673 -0.008377223
0.00023099052 0.0038271933 0.008457033 -0.0147730345 -0.0037292147 -0.0017629995 0.016316852 -5.2726282e-05
-0.005097763 -0.0010335104 0.01725479 -0.008555237 0.010912622 -0.013003633 0.01501965 0.0008342158
-0.002466547 -0.013414283 0.013745109 -0.016466584 0.002573226 0.0043863463 -0.0012199093 0.0023150751
0.0024982695 -0.00050685543 -0.013402174 -0.007319206 -0.00570079 0.009282108 0.0020423108 -0.002414324
-0.00088064023 0.0020571456 0.0003000134 -0.012790203 0.013412874 0.003994174 -0.0049870163 -0.004870135
-0.018326238 0.009548369 -0.010924446 -0.0039042672 0.00076708436 0.012380238 0.0007173438 -0.013628549
-0.0021517342 -0.00028872216 -0.0019638902 -0.0090017365 0.009607537 0.0036266444 -0.0056013917 -0.000845954
-0.0013649968 -0.0066306675 -0.0084828185 -0.000115217714 -0.002622033 -0.002339695 -0.008011554 -0.017277014
0.0034263998 -0.013930259 0.004697749 -0.013996529 -0.0075030434 0.0021223337 -0.018486539 -0.011501698
0.0056927474 0.0028039834 -0.0003860734 0.014944711 0.00713399 0.012586262 0.013463961 -0.019465156
-0.0025411923 0.00316342 -0.012974135 0.010560917 -0.0077802017 0.0026403463 0.017184772 -0.005671336

update_node_embedding_layer.0.update_layer.weight f4 [64, 128]
00000000: d705 f63b 4b6e df3b 35f2 623a c821 a9bb
00000010: 54be f33b 4227 44bc 0d7a b9bb a85b cbba
00000020: f751 d23b 8f7e 6c3c 84fb 3dbc 454d daba
00000030: e635 a5bc 055a 32ba 7e00 0dbb 57be 04bc
00000040: 89c9 433c 2d10 cc39 e52a 68bc f18a 51bb
00000050: 08a3 4aba e43f 22bc 242f 1dbc cc6d 8ebb
00000060: 7b66 29bc 7d5b 2cba b1e2 46bc 6e0e 30ba
00000070: 7012 f33a 03e3 2abc 4600 293c ba86 c9bb
00000080: 89f7 a5bc 1dad 09bd 8d28 12bc 8fcc cd3b
00000090: cceb 513c 0196 0a39 9728 06bc 9ed8 8c3c
000000a0: 4d73 293c c4b0 8fbb 5a7f 7538 a0ca 11bc
000000b0: e862 f1bb 1010 673c f04f c7bc 4697 9b3b
000000c0: 3c73 6fbc abcb 923b 9b4f 91bb 91c7 11bc
000000d0: d643 31bc dc4d eebb a7a3 95bb bca3 1139
000000e0: 2b17 e6ba fb88 55bc 59cf a63b be83 debb
000000f0: d4e9 ffba 09c7 fabb a5e5 a03c 8d4b 6b39
00000100: ccff 4b3c 43bd 803b bc6b 123c ff3b 5a3b
00000110: e9b7 8bbb 705b a2bb 60af 523c 768c 67bb
00000120: fc0e d5bb 0cf3 e43b e938 ed3b 0885 42ba
00000130: cfd1 813c ae19 bd3a ae1d dbbb 7de7 673b
00000140: bbc9 8a3c ba3c 28bc 3301 e63b 4210 9f3a
00000150: 9e3a 203c 8f82 34bc d1ff 10bc 3a51 1b3b
00000160: 35c6 1ebc e852 47bc 5cce ab3c 74c9 733c
00000170: e176 8c3a d7d9 883c 21c3 37bb 9075 80bb
00000180: fce6 533b decd 483c 8a2a a03a deef 2abc
00000190: ad25 80bc da09 adbb e8ba 3bbc f07b aabb
000001a0: 1724 4cbc a266 7b3c e643 7bbc e0fd 29bc
000001b0: 438e c7ba 25c5 debc 578b 9abc 7ab9 d0bb
000001c0: c56c 78bb 236a 313b 7ba8 b7bb 641b 16bc
000001d0: 38bd 24bc 6c04 43bc 9612 24bc a976 8a3b
000001e0: 8b9f 10bb e3cc b23b bb34 d23c 099b bdbc
000001f0: 94c8 e2bb 158d 5d3b 4677 24bb 1300 763c
00000200: 7fc9 703d 8808 433c 4366 8eb9 7171 8aba
00000210: 00eb adbb 31f8 aebb d3ab a3bd e22a a4bb
00000220: fc75 1e3d 5fc5 59bd 823e 3c3c 77bc 473d
00000230: d656 33bd e987 a33c fc9b 013d c772 7dbd
00000240: 131a a73c f8f7 a3bc 0991 273d ef72 98bd
00000250: 4477 11bd 7f7a 163d 1960 8f3b f3dc ea3c
00000260: fdc4 0f3b 5d82 3ebc 2a09 eabc ec7d f53b
00000270: 18d2 c8bc ed47 c53c 8982 8f3d 0e87 a43c
00000280: 696d 51bc ada6 19be d199 11bd b152 843c
00000290: 7860 0e3d c4ce 823d 9667 d03d c56a 05bd
000002a0: edd5 a03c 95f3 8339 3641 813d 2208 863c
000002b0: 09a0 ccbc 416d c3bb 5ea8 79bd ab87 2abc
000002c0: 6a7e 11bd 12f8 283d 51a3 23bd 81a0 05be
000002d0: e4af 773d f9a6 363d 796b 213d 7b86 5dbd
000002e0: 282f 53bc 2bb8 df3c 3154 b8bc 91b1 9d3c
000002f0: 4676 8cbd 83e9 0c3d 6a72 3f3d 2c70 733a
00000300: b6e0 5fbb 68cb 1c3c 80c7 c73c 21ba 1e3a
00000310: 0fd3 cebc 1197 07bc ceca 353b ecd4 32bc
00000320: edba b7bb f4e7 22bc fa82 45bc f014 3cba
00000330: 3f5f 52bc 3835 463c 9474 3e3a 2e67 8abd
00000340: 3931 babc c5d2 923b ca83 95bc fc13 0fb9
00000350: ed5f 0c3c ea93 253b 1d1d 093d d03f f5bb
00000360: 6d0c c5bc 98c1 8fbc 99e9 683b ab09 72ba
00000370: be6d ff3b 8b10 e9bb 9723 93bc 1c92 3c3c
00000380: 7adb 903b 823f f5bb 5d2a 5bbd 7759 85bd
00000390: 2818 3fbb ed74 7a3c d738 ce3a c5fc 383d
000003a0: 3b07 063c ca6b a0bb b6c4 c83c 6a72 133a
000003b0: 923a a9bd 47d0 44bc 2c63 a9bb e8e1 ab3b
000003c0: 73a3 8a3a 2664 94bc 9322 aebc 84f8 a8bd
000003d0: 7d36 2b3c ec67 9fbc b911 e6ba ba64 80bb
000003e0: 9ee2 4d3c 26f7 813b 9cf2 5cbc d317 033c
000003f0: 8951 eabb f1bd 33bc 26af dcbc 697a 0cbc
0.0075080204 0.006818568 0.00086573075 -0.0051614977 0.0074384604 -0.01197225 -0.0056603015 -0.0015514987
0.0064184624 0.014434471 -0.0115956105 -0.0016655108 -0.020167302 -0.0006803575 -0.0021515186 -0.008102021
0.011949905 0.00038921964 -0.014170383 -0.0031973685 -0.0007729982 -0.009902928 -0.009593759 -0.004346585
-0.010339375 -0.0006574912 -0.012139008 -0.00067160174 0.0018544924 -0.0104301 0.010315007 -0.006150094
-0.020259636 -0.03361236 -0.008920801 0.006280489 0.012812566 0.00013216586 -0.008188388 0.017193135
0.010342431 -0.004385086 5.8531157e-05 -0.008898407 -0.007366527 0.014102951 -0.02433011 0.004748258
-0.014614876 0.0044798455 -0.0044345385 -0.008897678 -0.010819396 -0.007272465 -0.004566628 0.00013889273
-0.0017554512 -0.013033147 0.0050906357 -0.0067906072 -0.0019524642 -0.0076531214 0.019640753 0.00022439491
0.012451123 0.0039288118 0.008936819 0.003329992 -0.004263867 -0.004954748 0.0128591955 -0.0035331524
-0.0065020304 0.0069869813 0.0072394502 -0.0007420336 0.015847115 0.0014427209 -0.0066868877 0.003538578
0.016941896 -0.010268385 0.007019186 0.0012135583 0.0097796 -0.011017456 -0.008850054 0.0023699538
-0.009690811 -0.0121657625 0.020972423 0.014879573 0.0010716581 0.016705437 -0.002803989 -0.0039202645
0.0032333722 0.012256114 0.0012219709 -0.010433165 -0.015642965 -0.0052807154 -0.011458136 -0.005202763
-0.012459776 0.015344294 -0.0153360125 -0.01037547 -0.0015224892 -0.027193615 -0.01886527 -0.006369767
-0.0037906629 0.002707132 -0.0056048012 -0.009161804 -0.010054879 -0.01190291 -0.010014197 0.004225571
-0.0022067751 0.0054565533 0.02565991 -0.023145216 -0.0069208834 0.0033806015 -0.0025095507 0.015014666
0.05878591 0.0119038895 -0.00027160542 -0.0010562373 -0.005307555 -0.0053396453 -0.07991757 -0.005009995
0.038686737 -0.053166743 0.011489512 0.04876372 -0.043783985 0.019962268 0.0316429 -0.06187704
0.020398175 -0.020015702 0.0409098 -0.07443797 -0.03551413 0.036737915 0.0043754694 0.02866981
0.0021937483 -0.011627761 -0.028568823 0.0074918177 -0.024514243 0.024082148 0.070073195 0.02008393
-0.012782433 -0.15004988 -0.03554708 0.016152712 0.03475997 0.06387094 0.101760074 -0.032572526
0.019633258 0.0002516775 0.06311266 0.0163613 -0.024978654 -0.005963952 -0.060951583 -0.010408322
-0.03552095 0.041252203 -0.039950673 -0.13049509 0.060470477 0.04459283 0.039409135 -0.05408333
-0.012889661 0.027309498 -0.022501083 0.01924971 -0.06858496 0.03440238 0.046739973 0.0009286429
-0.0034161038 0.00956998 0.024387121 0.0006054957 -0.025247125 -0.008275763 0.002773929 -0.010915022
-0.005607 -0.009942997 -0.012055153 -0.0007174751 -0.012840091 0.012097649 0.00072652963 -0.06757961
-0.02272855 0.004480692 -0.018251318 -0.00013644987 0.008567792 0.0025265166 0.03347503 -0.0074844137
-0.024053777 -0.017548367 0.0035539626 -0.0009233008 0.0077950647 -0.007112568 -0.017961306 0.011509445
0.004420695 -0.0074843774 -0.053507198 -0.06511205 -0.0029158685 0.015286666 0.0015733492 0.045162935
0.008180435 -0.004895662 0.024507862 0.0005624654 -0.082631245 -0.012012548 -0.005169293 0.005245436
0.0010577276 -0.01811416 -0.02125672 -0.082505256 0.010450003 -0.019458733 -0.0017552889 -0.0039182575
0.012566237 0.00396623 -0.013485577 0.008001286 -0.007150833 -0.0109705785 -0.026938986 -0.008574107

update_node_embedding_layer.1.message_layer.weight f4 [64, 128]
00000000: 70c9 20bb bb6d e1bc f232 903c 7943 4b3e
00000010: 6c9d 35bb 195c 033b 47d9 cabc 5b4c a2bc
00000020: 36dd abbc c915 08bd ce84 c3bc 759f f2bc
00000030: 2ced 41bd 0c3a aabc d7b6 563b 3266 293d
00000040: 0cc0 6f3e 50d3 26bc fc06 623e 18bb efbc
00000050: b1d2 843d 22a0 acbc 2629 bfbc 86bc 3ebd
00000060: 2499 eabc 867c 5a3b 7f9b 03bb 8b96 02bd
00000070: 4184 733c ed19 3d3d 7536 c7bb 3e8b 353c
00000080: 8908 7f3d f305 83bc 0a19 59bc 075e b03d
00000090: c89d 853b 120e 983d 5198 dcbb c83a 833d
000000a0: 62eb bfbc 6857 5a3e 30ea 893e dc4c b9bc
000000b0: cf12 b3bc 4de3 91bc c78e 74bc 40f7 223d
000000c0: 859d 8ebc a8f9 b63e be71 d4bc c087 0ebb
000000d0: 95d4 76bb e9e7 a4bb de66 543e e278 55bc
000000e0: 8726 693d 4045 cf3c bc5e e9bc 6955 9bbc
000000f0: 67d7 0f3c 35a4 e4bb e88f b0bc ce71 d13c
00000100: 561d 823c c17d 9ab9 7e71 953b fe9e cfbb
00000110: 84ec c1bc a157 b2ba 4355 74bc 26a1 bcbc
00000120: 18ab 2a3d 1c4b 363c af7e 893d 439c 733c
00000130: 66dd 02bc ebdf 5bbc 93c5 6abc 764e 0b3c
00000140: 5e22 493b de43 663c ddaa 99bc f41b 373b
00000150: 1319 b9bb 2c74 efbb 45c9 af3c 3979 793c
00000160: 113a ad3c 5d98 a5ba 417b d1bb 823a c9bb
00000170: 77d4 8ebc b1ac 0d3d 8119 943c 4c0d 4d3c
00000180: b73b 22bd 5770 a53c 9773 0d3d 1056 8dbb
00000190: 1395 91bb 5f79 e2bc cb37 2fbc d290 633c
000001a0: 0663 f73b 7605 8a3c db21 9d3c c63d 20bc
000001b0: 40af 583c 81a3 5fbb 9f04 d53c 8e8a c23b
000001c0: 7bf9 213d a02b ab3c 411a 683b 10a2 c7bb
000001d0: 1445 24bb 0ab8 16bb 1181 153d a299 f0bb
000001e0: 3457 0d3d 7e39 9ebb 4e0a 1c3b a797 a73c
000001f0: 0b41 073c 2ce4 fcbb 2a32 643c 12bd eebb
00000200: 9e80 783a 7a6c 093d 39e9 00bc dc4b d5bd
00000210: 4f37 fa3c dc31 ba3b 07d4 fc3c 7249 0b3d
00000220: bd8d 3b3d ea2d c2bd a61c 383d 8304 243d
00000230: cd51 533d f9e7 e23c bbfb 98bb 1389 fdbb
00000240: 0b08 fb3c dd24 25bc 77cd 373d c63e 833c
00000250: ba0b 463c af8d b93c 4308 073d 8109 c53c
00000260: e378 033d b232 7f3c e57c 31b9 e7e5 c93c
00000270: 96af 223b dd16 9d3c 44b7 16be 5d17 263b
00000280: 9010 49bc 3cdf faba b24c 3a3d dfe8 ac3c
00000290: 7f3b 2a3c 404b a33b e5d5 6d3d 6289 4bbc
000002a0: 2391 473d ab44 db3d 1642 ed3c 893e 82bb
000002b0: c673 4fbc fdd8 9dbb d2f9 733d 1a83 993c
000002c0: b839 e03c a86e f73d a988 293d df24 88bc
000002d0: a0fb 023d 325a 49bc 6784 a2bc 5245 c6bd
000002e0: bcad 8a3b 813a bd3b cc5a ac3d 90e1 7e3d
000002f0: c14a adbc 06da 52bc cf42 973d 1e8d 963d
00000300: 9ad6 57bc 2e2e 543a 2e5e ac3c 331c fb3b
00000310: 5d24 58bd 3b92 32bc 09a0 8c3c 09f8 7a3d
00000320: b968 afbd 66c7 babd d51a cabc ae5a 86bc
00000330: 8317 333c da59 453d c204 303c 830b 35bc
00000340: 0069 edbb 2683 ebbc ed3d 41bc 43b6 003c
00000350: f101 8f3b fb6e 5a3d 325c 44bd 316c 133a
00000360: 8401 f2bd 66c9 02bc 82da 0fbe 9d78 79bd
00000370: 100e f3bb 3c88 85bb f9ad 2bbd 6c59 b9bc
00000380: 0341 18be 5d7c d9bd 67f7 8e3c bcc0 003c
00000390: 9082 9e3c 4e24 51bc 934e 8abd cfd0 a6bd
000003a0: ee72 a0bd 5572 e9bc 73b1 c33c 0559 343b
000003b0: 876c 7cbd fa99 013d d911 f6bb 8aaf a5bd
000003c0: ad10 b3bb 4667 d73c fb1a 513c aa1f 8f3c
000003d0: 08bb 763c c82b 2ebd 7306 07be e021 2a3b
000003e0: 9eba 0e3d de67 c9bb c6f2 213c 058f 72bd
000003f0: ae93 bebd 12d3 de3b 3822 97bd 5244 9ebd
-0.0024534129 -0.027518144 0.017602418 0.19849958 -0.002771224 0.0020043908 -0.024761809 -0.0198118
-0.020979505 -0.0332239 -0.023867037 -0.02961705 -0.047345325 -0.020779632 0.003276279 0.041357227
0.23413104 -0.010182217 0.22072977 -0.029264018 0.06485499 -0.021072451 -0.02333505 -0.04656651
-0.028637476 0.0033338382 -0.0020081697 -0.03188185 0.014863075 0.046167303 -0.00607949 0.011080561
0.062264 -0.015994048 -0.013250599 0.08611684 0.004077647 0.07424559 -0.0067320247 0.06407696
-0.023427669 0.21322405 0.26936483 -0.022619657 -0.021859555 -0.01780858 -0.014926619 0.039786577
-0.017409096 0.35737348 -0.025933143 -0.0021748394 -0.003766333 -0.0050325287 0.20742366 -0.013029309
0.05692151 0.025301576 -0.028487556 -0.018961625 0.008779383 -0.006977583 -0.021552995 0.025566962
0.01588313 -0.00029466863 0.0045606485 -0.006336092 -0.02367235 -0.0013606438 -0.014912906 -0.02302606
0.041667074 0.011126306 0.06713616 0.014868799 -0.007987356 -0.013420085 -0.014329332 0.008502593
0.003069065 0.014054267 -0.018758232 0.0027940245 -0.005648741 -0.00730755 0.021458277 0.015226656
0.021145852 -0.0012633909 -0.006392867 -0.006141008 -0.017435296 0.03458852 0.018078567 0.012515377
-0.03960773 0.02019517 0.034534063 -0.004313238 -0.00444282 -0.027645765 -0.010694454 0.013889508
0.0075496463 0.016848307 0.019181183 -0.009780353 0.013225377 -0.0034124556 0.02600318 0.005936927
0.039544564 0.020894825 0.003541604 -0.0060923174 -0.0025065588 -0.002299788 0.03650004 -0.007342533
0.03450699 -0.004828631 0.0023809853 0.020458056 0.008255254 -0.00771763 0.013927976 -0.0072857225
0.00094796147 0.033550717 -0.007868105 -0.1041486 0.030543951 0.005682213 0.030862821 0.03400559
0.04578947 -0.09481414 0.044949196 0.040043365 0.051591683 0.027698504 -0.0046686805 -0.007737288
0.030643484 -0.01007959 0.04487368 0.016021144 0.012087757 0.022650568 0.032966863 0.024052383
0.03209771 0.015576052 -0.00016926562 0.024645759 0.0024823896 0.019175941 -0.14718348 0.0025343515
-0.012272015 -0.0019140015 0.0454833 0.021107135 0.010390162 0.0049833357 0.058065314 -0.012422891
0.048722398 0.10706457 0.028962176 -0.00397474 -0.01266188 -0.004817127 0.05956442 0.018739272
0.027371272 0.12081653 0.041390095 -0.016619144 0.03197825 -0.012289571 -0.019838525 -0.096811906
0.0042321365 0.0057747965 0.08415756 0.062226832 -0.02115381 -0.012869364 0.073857896 0.07351135
-0.013173724 0.00080940395 0.021041002 0.0076632737 -0.052769054 -0.010899122 0.017166154 0.0612717
-0.08564896 -0.091200635 -0.024670998 -0.016400661 0.010930899 0.048181392 0.010743322 -0.011050108
-0.007245183 -0.02874906 -0.011794549 0.007855955 0.004364245 0.053328495 -0.047939487 0.0005623727
-0.11816695 -0.007982587 -0.14048198 -0.06090604 -0.007417448 -0.0040750783 -0.04191396 -0.022625647
-0.1486855 -0.106194235 0.017451955 0.007858451 0.019349366 -0.012765003 -0.06753268 -0.08145296
-0.07834421 -0.0284969 0.023888325 0.002751888 -0.061626937 0.031640984 -0.007509452 -0.08090122
-0.0054646344 0.026294362 0.01276278 0.017471153 0.01505924 -0.04252222 -0.13186054 0.0025960132
0.03484594 -0.006146415 0.009884542 -0.059218425 -0.093055114 0.006800064 -0.073795736 -0.07727875

update_node_embedding_layer.1.update_layer.weight f4 [64, 128]
00000000: f58f 26bc 1bd3 29bd 2652 c5ba 726d 0e3e
00000010: 5e3b 88bd 04de 9a3c 39ca d6bc 11a9 2cbd
00000020: b92a 0dbd 4edb 20be 68d3 20bd 2e06 88bd
00000030: 1b7b 79bd 71aa 33bd 8f54 92bb 6174 353d
00000040: 480b 2f3e 3a2a 233b 4753 033e 23f4 90bd
00000050: 32e2 693d bd49 91bd 0366 a7bc 2bbb 72bd
00000060: 8b57 3ebd 542e 243c 0e74 b2bb 39cb 4ebd
00000070: 6ee3 243c 3be1 4c3d a33c f1bb 2bea ad3c
00000080: b68a 613d 8572 dc3b 1010 7ebd 2ba7 773d
00000090: 4347 95bb eb91 7e3d 570e 9dbd e7ac 763d
000000a0: aca4 81bd 76db 0e3e 1685 223e d34f b63b
000000b0: 52db c8bb b878 893b de16 773b ae80 923d
000000c0: b155 13bd 730e 6a3e 75fd 0dbd 5b1a 493c
000000d0: ef4b 31bd 8f88 143c 2c0a ff3d 10a9 e0bc
000000e0: 2c7b 953d a594 3d3d 07e1 04bd 7783 00bd
000000f0: 044e 7d3a 402b e63b 3d5f 04bc 6fe4 523e
00000100: f739 be3c 2b82 b93d 23a8 f8b9 988d 403c
00000110: 1e65 16bc a7a0 363c 7f33 013b e114 9f3d
00000120: 16dc 9fbb 81ab 5d3c f31c 7b3b 7fab 5b3c
00000130: 6e34 febb b7aa 00bb fefd 083c 9a35 7b3b
00000140: 13b3 bb3b 250a a9bb ac46 b53c 7efe f43c
00000150: 9d2b 873c bf31 78bc 57c7 b33c 3d56 7b3c
00000160: 3a05 33be 18fa e73d 754f 143d 13f8 c5bb
00000170: a40b 0b3c 1779 d03c c0bb 063d c82c c93a
00000180: fc3e 3c3b 184b 8a3b 965c 043d 698e c7bb
00000190: 8135 0c3d bc3c 2b3c 79ae 43bc a2ad 52bb
000001a0: 5bea 9e3c a829 53bd aab2 35bb 5d10 28b9
000001b0: 374f a8bc 4b9f 913c 2db1 af39 54e4 9eba
000001c0: 05b9 6f3c cadc 833a e255 4d3c ae21 dc3a
000001d0: eb39 6ebb a1ef 83bc 9061 0c3c 9fc9 72bc
000001e0: cf0a 113c cc08 dc3c bedd 0a3c e115 0bbe
000001f0: 9d38 733d a67d 01bb 3d3e 7d3c f497 143c
00000200: aefc 31bc 8b8c 27bc 544c e6bb 8f58 17bd
00000210: 5187 afbc e5ba 2bbc 0c41 80bc fdfe 18bc
00000220: 864b 203b 50dc 6c3d 02b6 d8bc 2211 91bc
00000230: a916 0bbb 5340 a4bc c118 073c d8fa b3be
00000240: 31d8 8bbd d741 5b3c 7faf 82bd 1b92 ec3b
00000250: 1224 9abe 7f2b c03b 9063 a23a 5302 aebb
00000260: 077d e8bc 7339 333b dd1b ccbb 4aac 93bc
00000270: ec78 22bc 90f3 a1be 5136 bd3c 3a72 8dbc
00000280: 7739 b3be 1b0b 083c 464b 81bb 6221 9cbe
00000290: fc58 df3a 9a93 88be 86e6 8fbd abbc 8cbe
000002a0: 6161 9dbc 180c 82be 8669 07be 792f 32bc
000002b0: 7e42 46bc e456 9c3b 96ef 6fbe 5964 7dbe
000002c0: 128e 59bc 3907 afbe 37f8 88bc b63b 963b
000002d0: acf1 9fbc 2151 3cbb df88 45bd fba0 c23c
000002e0: ecd0 5fbe 668c 95be 8843 44bd e893 3dbd
000002f0: 710b dabb c129 6fbb a11c e7bd 193f 323d
00000300: 5934 2dbc da18 4f3d b5a0 b53c 0ff4 c53c
00000310: 80cb 7bbc ffda 0d3d f6db b93c 544d 833d
00000320: fca2 5e3b 0762 d2bb e99f be3b eb9c c53c
00000330: 920a 90bc a9bb 8cbc dacd f13b b23e 2dbc
00000340: 6868 d03c 6c42 3d3c 4bd4 d0bb 78e7 723c
00000350: 49fb 97bc 76d0 043a cde3 793c 5077 b33c
00000360: f4fd 5ebd 65bb a13d 69f3 9b3c 2b31 59bb
00000370: 9d5d 133c eec3 903c e61a 473d dc01 ad3b
00000380: 9ba3 3b3c 0158 ae3a b8af 7d3a 7cd8 68bc
00000390: e849 4b3d 68da c93c 09c6 93b9 3bec c1bb
000003a0: eb4a 2a3a f6dd 87bd 7889 47bc 349f 1dbc
000003b0: 6fe6 ebbb 458a 643d bc4c 4f3b 51b1 e6bd
000003c0: b3ae 743b 50ce 453c 8619 373c 76e3 1f3c
000003d0: b683 f03c 578e 35bb 31ae fa3c 5927 fa3a
000003e0: 87bd 70bb 36af 463c f76e 353d 73d6 bdbd
000003f0: 7245 603d fa64 663c bb64 d13c 138c e53c
-0.010166158 -0.04146109 -0.0015054389 0.13908938 -0.066519484 0.018904693 -0.026219474 -0.04215342
-0.03446457 -0.15708658 -0.039264113 -0.06641804 -0.06090842 -0.043863717 -0.0044656466 0.04430044
0.17094147 0.0024896995 0.12824737 -0.070778154 0.057100482 -0.070941426 -0.020434385 -0.05926053
-0.046470206 0.010020811 -0.0054459637 -0.050486777 0.010063989 0.050019484 -0.007361965 0.021229824
0.055063926 0.006727519 -0.062027037 0.06046216 -0.004555614 0.062150877 -0.07668751 0.060223486
-0.06330237 0.13950905 0.15871081 0.005563715 -0.0061296606 0.004195299 0.003770284 0.0715345
-0.035970394 0.22857074 -0.034665544 0.01227435 -0.043285307 0.009065761 0.12453112 -0.027424365
0.07298884 0.046284337 -0.032441165 -0.031375375 0.00096628093 0.007024199 -0.008079347 0.20594953
0.023221 0.09058031 -0.00047427518 0.011752509 -0.009179382 0.011146701 0.0019714532 0.07767654
-0.004878531 0.013529659 0.0038316816 0.013407587 -0.007757715 -0.0019633004 0.008361338 0.003833151
0.0057281344 -0.00515868 0.022128426 0.029906508 0.016500289 -0.015148579 0.021945639 0.015340385
-0.17482463 0.113269985 0.03620859 -0.0060415356 0.008486662 0.025448365 0.032893896 0.0015348429
0.0028724065 0.0042203777 0.03231486 -0.0060899747 0.034230713 0.010451492 -0.011943453 -0.003214695
0.019398859 -0.0515534 -0.00277249 -0.00016027824 -0.020545585 0.017776152 0.00033510607 -0.001212249
0.014631514 0.0010060307 0.012532683 0.0016794705 -0.003635044 -0.016105475 0.008568183 -0.014818578
0.008852675 0.026859663 0.008475719 -0.13582565 0.059380163 -0.001975873 0.015456733 0.009069432
-0.010863466 -0.010226379 -0.007028142 -0.03694969 -0.021426829 -0.010481571 -0.015656017 -0.009338138
0.0024459078 0.057827294 -0.026453976 -0.017708365 -0.0021223223 -0.020050203 0.008245648 -0.35152316
-0.068283446 0.013382397 -0.063811295 0.0072195656 -0.30105644 0.00586456 0.0012389291 -0.0053103357
-0.02837993 0.0027347475 -0.0062289075 -0.01802649 -0.009916525 -0.31631136 0.02309719 -0.017266382
-0.3500478 0.008303429 -0.003945741 -0.3049422 0.0017040069 -0.2667511 -0.07026391 -0.27487692
-0.019211473 -0.25399852 -0.13223848 -0.010875576 -0.012100814 0.0047711004 -0.23431239 -0.24745311
-0.013278501 -0.34185198 -0.01671992 0.004584755 -0.019524418 -0.002873488 -0.048226234 0.023758402
-0.21857041 -0.29208678 -0.047915965 -0.046283633 -0.006654196 -0.0036493393 -0.112847574 0.043517206
-0.010571563 0.05056081 0.022171358 0.024164228 -0.015368342 0.03463268 0.022687893 0.064112335
0.0033971658 -0.006420377 0.0058174026 0.024122676 -0.017583165 -0.017179327 0.0073792757 -0.01057403
0.02544041 0.011551481 -0.0063729635 0.014825694 -0.01855244 0.00050664635 0.015252066 0.021907479
-0.054441407 0.07897071 0.019036965 -0.0033140879 0.008994487 0.017671552 0.048609637 0.0052797627
0.011452581 0.0013301374 0.0009677368 -0.01421177 0.04963103 0.024640277 -0.00028185573 -0.0059180534
0.0006496149 -0.066341326 -0.012178771 -0.0096204765 -0.0071991007 0.055795927 0.003163143 -0.11264289
0.0037335574 0.0120731145 0.011175519 0.009758821 0.02935968 -0.002770325 0.030600639 0.0019085213
-0.003673406 0.0121267345 0.044295277 -0.092694186 0.05475373 0.014062161 0.025560727 0.028020894
