ER_200spin/eco/network/network6000000.pth (torch, 238273 bytes, 11 tensors)

node_init_embedding_layer.0.weight f4 [64, 7]
0	0x3a906511	0.0011016448
1	0xbe87687e	-0.2644691
2	0xbe395f38	-0.1810273
3	0x3d1f0427	0.03882232
4	0x3bee96ad	0.0072811455
5	0xbc96c16d	-0.01840278
6	0x3d7ad872	0.061241575
7	0x3b1f0568	0.0024264697
8	0xbe59d478	-0.21272457
9	0xbccfa1a8	-0.025345638
10	0x3e072c41	0.13200475
11	0xbcd72f4b	-0.026267668
12	0x3db665b4	0.08906117
13	0x3d0c307d	0.03422593
14	0x3ba9b3de	0.0051789125
15	0x3ec917be	0.39275926
16	0xbca41e31	-0.020033928
17	0xbda581d5	-0.08081404
18	0x3a93aabf	0.0011266096
19	0x3a8fa9fa	0.0010960691
20	0x3cf18b45	0.029485354
21	0xbc49ea41	-0.012323917
22	0x3ec7cbc2	0.39022642
23	0x3c86a3ea	0.016435582
24	0xbcd92cc1	-0.026510598
25	0x3b2332e9	0.002490217
26	0x3bbbe46c	0.005734017
27	0x3ba42a27	0.0050099078
28	0xbbc981b0	-0.006149493
29	0xbb7f7c43	-0.0038983978
30	0xbc218543	-0.009858432
31	0xbc35e581	-0.011102081
32	0xbc314120	-0.01081875
33	0xbb77b1a6	-0.0037795096
34	0xbc79626c	-0.0152212195
35	0xbc35ae95	-0.011088987
36	0xbb694a75	-0.0035597358
37	0xbb055265	-0.00203433
38	0xbb2f15e3	-0.0026715926
39	0xbc590bb4	-0.013247419
40	0xbc86b436	-0.016443353
41	0xbbaefaaf	-0.0053399424
42	0x3cb267ea	0.021778066
43	0x3ef06522	0.46952158
44	0x3c166d23	0.009181294
45	0xbe5f9ef8	-0.21837986
46	0x39ef860b	0.00045685502
47	0xbcdb0ede	-0.026740488
48	0x3cdc6521	0.02690369
49	0x3bb1f588	0.005430881
50	0xbe612182	-0.21985438
51	0xbf0d2ea0	-0.5514927
52	0x3e77b72e	0.24190971
53	0x3aa1c58d	0.00123422
54	0x3de42c5c	0.111412734
55	0x3c86b80b	0.01644518
56	0x3c8f5e94	0.017501153
57	0xbea4343d	-0.32071105
58	0x3d942353	0.072333
59	0x3e3ffcfe	0.18748853
60	0xbb3671ea	-0.0027838894
61	0x3d2471ae	0.040147476
62	0x3d811dbe	0.06304501
63	0x3ca05620	0.019572318
64	0x3ed955e7	0.4244835
65	0x3d29acf2	0.0414247
66	0xb9f2da92	-0.00046320684
67	0xb9900e15	-0.00027476312
68	0x3c77d65a	0.015126789
69	0x3c42d099	0.011890554
70	0xbc988a7a	-0.018620718
71	0x3eb76a45	0.35823265
72	0x3cfe0239	0.03100692
73	0x3d8345b4	0.06409779
74	0xbb222b90	-0.0024745204
75	0x3c820c13	0.015874898
76	0xbd33ac7e	-0.043865673
77	0xbc562ef4	-0.013072718
78	0x3eace9ad	0.3377203
79	0xbe5f7ea4	-0.21825653
80	0x3dbd4bca	0.09242971
81	0xba0ca187	-0.00053646456
82	0xbc6e16fd	-0.014531848
83	0xbe804e13	-0.25059566
84	0x3cd600f2	0.026123498
85	0x3eebefc7	0.46081373
86	0xbb7514af	-0.0037396362
87	0xbe297b69	-0.16550983
88	0x3a936714	0.001124593
89	0x3cfd41ec	0.030915223
90	0x3ce563c0	0.028001666
91	0x3cb6bff4	0.022308327
92	0xbe96e378	-0.2947042
93	0xbbbedbb8	-0.0058245324
94	0x3dcc074b	0.099623285
95	0x3b996cf8	0.0046821795
96	0xbc521430	-0.012822196
97	0x3d7165f3	0.058935117
98	0x3cdd1a9f	0.026990233
99	0xbe93794c	-0.2880348
100	0xbaf42b23	-0.0018628578
101	0x3def26ef	0.11677348
102	0x3b01a53d	0.0019782328
103	0x39c69284	0.00037874666
104	0x3d9102be	0.07080601
105	0x3ce6f3d6	0.028192442
106	0x3d0a28c3	0.03373028
107	0xbe45b3de	-0.19306895
108	0x3dcaabaa	0.098960236
109	0xbbf52cfd	-0.0074821697
110	0x3cab38ea	0.020901162
111	0xbe80a665	-0.2512695
112	0x3c941b19	0.018079327
113	0xbe5c6ebc	-0.21526617
114	0xbd932e31	-0.07186545
115	0x3e09e7eb	0.13467376
116	0xbc072139	-0.008247667
117	0x3db46aa0	0.088093996
118	0x3d11c4c8	0.035588056
119	0xbcbdebef	-0.023183791
120	0x3eb7315c	0.35779846
121	0x3cff594b	0.031170508
122	0x3bd129cb	0.006383156
123	0xbb89bb72	-0.0042032534
124	0x3d01535c	0.03157364
125	0x3c640ccc	0.013919067
126	0x3d0d9217	0.03456315
127	0xbecae7f7	-0.396301
128	0x3b5ddd85	0.003385396
129	0x3e08ecd2	0.1337159
130	0x3c376936	0.011194518
131	0x3c18ab6b	0.009318213
132	0x3da69e79	0.08135695
133	0xbc7a1258	-0.015263163
134	0x3ea1b098	0.31580043
135	0x3d879909	0.06620986
136	0x3d98f206	0.07468037
137	0xbc296b1d	-0.010340479
138	0xbba88a73	-0.0051434576
139	0x3c61d04d	0.013782573
140	0x3c7c255b	0.015389766
141	0x3eee6854	0.4656397
142	0x3d37286c	0.044716284
143	0xbd2deed5	-0.042464096
144	0x39961b26	0.00028630457
145	0x3caed036	0.021339517
146	0x3c47d7ac	0.012197416
147	0x3cf5e10b	0.030014535
148	0xbec01d17	-0.37522194
149	0x3cf34f6d	0.02970096
150	0x3e14f50f	0.14546607
151	0x3c038245	0.008026664
152	0x3c730619	0.014832997
153	0x3d901926	0.07036047
154	0xbb15ea05	-0.0022875082
155	0xbe55d3f5	-0.20881636
156	0x3dbe0ea4	0.09280136
157	0x3e0a1708	0.13485348
158	0xbcd0e52c	-0.025499903
159	0x3dadc7f8	0.08485407
160	0xbca499f7	-0.020092947
161	0xbc83ed98	-0.016104504
162	0xbe4707d0	-0.19436574
163	0x3e32784f	0.17428707
164	0x3d809a8b	0.06279477
165	0xbacf4214	-0.001581254
166	0x3c009b10	0.00784947
167	0x3dc23f25	0.094847
168	0x3c0679a3	0.008207711
169	0xbe7cfdc2	-0.24706176
170	0x3d88d70e	0.066816434
171	0x3ed816e6	0.4220497
172	0x3b986c16	0.0046515567
173	0x3dbcf6a0	0.092267275
174	0x3c117243	0.00887734
175	0xbcb0b150	-0.021568924
176	0x3ebcd447	0.36880705
177	0x3c8846b6	0.01663528
178	0x3b390852	0.002823372
179	0xbac35de2	-0.0014905299
180	0x3d08349d	0.0332533
181	0xbd182d50	-0.03715259
182	0x3c8fcec2	0.017554644
183	0x3ef4ba32	0.47798306
184	0x3d35af0a	0.044356383
185	0xbc097942	-0.0083907265
186	0xbb1744da	-0.002308181
187	0x3d355a0d	0.044275332
188	0x3cc779bc	0.02435004
189	0xbb020dd5	-0.001984467
190	0x3b4a300a	0.0030851387
191	0x3a8fa26c	0.001095844
192	0xbc1a8f5b	-0.009433593
193	0xbbb782cb	-0.0056003085
194	0xbb8eda4b	-0.0043595186
195	0xbc28bf61	-0.010299535
196	0x3c86a010	0.016433746
197	0x3ecd9f96	0.40160817
198	0x3c9245f9	0.017855631
199	0xbd5fdb8a	-0.05465273
200	0x3a9b5d19	0.0011853307
201	0x3c9de0d6	0.01927225
202	0xbbadb4c4	-0.00530109
203	0x3cd8b5ff	0.02645397
204	0xbeca4a10	-0.3950963
205	0x3bec6469	0.0072141183
206	0x3dfdb9fb	0.123889886
207	0x3bab44d8	0.0052267127
208	0x3d1a4e50	0.03767234
209	0x3d4075c4	0.04698731
210	0x3c84f187	0.01622845
211	0xbe5bd191	-0.21466662
212	0xbcff0e9c	-0.031134896
213	0xbe52320e	-0.20526907
214	0xbb6ed93d	-0.0036445402
215	0x3de621f5	0.112369455
216	0xbc929c84	-0.017896898
217	0xbc5c7c5b	-0.013457383
218	0xbe85409c	-0.26025856
219	0x3cff1ad0	0.031140715
220	0x3dda24b6	0.10651533
221	0xb8b165f2	-8.4590065e-05
222	0xbccf1388	-0.025277868
223	0x3cd5696e	0.02605125
224	0xbb2121a7	-0.0024586709
225	0x3c2d3ac5	0.010573094
226	0xbb7da860	-0.0038705096
227	0xbc919d5c	-0.01777523
228	0xbb82edb8	-0.0039956234
229	0xbc03cccd	-0.008044434
230	0xbad7f957	-0.0016477507
231	0x3d197f19	0.037474725
232	0x3e1b1edb	0.15148489
233	0xbeaa3145	-0.33240715
234	0x3aecda10	0.0018070359
235	0x3b570890	0.00328115
236	0x3c8d4061	0.017242612
237	0xbec05286	-0.3756296
238	0x3c3c9041	0.011509002
239	0x3ed69e89	0.41917828
240	0x3c3d58d3	0.011556822
241	0xbd198f52	-0.037490197
242	0x3a6d61bc	0.0009055396
243	0x3d23a227	0.039949562
244	0x3c98cbf8	0.018651947
245	0xbb445647	-0.0029958652
246	0x3b926890	0.004468031
247	0xbc35c51a	-0.011094356
248	0xbc3e6e0f	-0.01162292
249	0xbc364a1e	-0.011126069
250	0xbbcee017	-0.0063133347
251	0xbad7b7f7	-0.0016458024
252	0x3c9c2fb1	0.01906571
253	0xbe38436f	-0.17994474
254	0xbe08532d	-0.13312979
255	0x3d856a88	0.0651446

edge_embedding_layer.edge_embedding_NN.weight f4 [63, 8]
0	0x3d104785	0.035224456
1	0x3cee7f26	0.029113363
2	0x3e92c025	0.2866222
3	0xbd45105b	-0.0481113
4	0x3af99f77	0.0019044717
5	0xbd70a75f	-0.058753368
6	0xbc79338a	-0.015210042
7	0xbd8a36bf	-0.06748723
8	0xbc2291da	-0.009922469
9	0xbc308984	-0.010774974
10	0xbb8d67a7	-0.004315335
11	0xbb161a0b	-0.0022903706
12	0x3c12afd5	0.008953054
13	0xbcb5f926	-0.02221353
14	0xbc79e019	-0.015251183
15	0x3c0472b8	0.008083992
16	0x3d036fc7	0.03208902
17	0x3ca7633a	0.020433057
18	0x3e85ee2a	0.26158267
19	0xbd5b535d	-0.0535463
20	0xb9179147	-0.00014454602
21	0xbd290d00	-0.041272163
22	0xbc165e19	-0.009177708
23	0xbd392207	-0.045198467
24	0x3d56745a	0.052357055
25	0x3d2c1f60	0.04202211
26	0x3e88070b	0.26567873
27	0xbe114389	-0.14185919
28	0xbcb1ed5b	-0.021719625
29	0xba28effc	-0.0006444452
30	0x3d29ea33	0.041483115
31	0xbd97fb6f	-0.07421004
32	0xbc765733	-0.015035438
33	0xbbdcdea1	-0.0067404066
34	0x3c7c1de9	0.0153879905
35	0xbc711abd	-0.014715848
36	0xbc20fc8f	-0.00982584
37	0xbac778db	-0.0015218513
38	0xbab5c1b9	-0.0013866938
39	0xbb08a058	-0.0020847525
40	0xbc2a87bb	-0.010408337
41	0xba1a6be9	-0.00058907137
42	0x3b21fb4a	0.002471643
43	0xbb89685c	-0.004193349
44	0x3b376976	0.0027986444
45	0xbc5eb404	-0.013592724
46	0x3c3dafbd	0.011577544
47	0x3b304c3d	0.002690091
48	0xbb7bbb9f	-0.0038411391
49	0xbcda4a6b	-0.026646813
50	0xbe305c99	-0.17222823
51	0x3e0887f2	0.13333109
52	0x3d75bf7e	0.059997074
53	0xbbcecf94	-0.0063113663
54	0xbdb47965	-0.08812217
55	0x3d8e1adf	0.06938719
56	0xbbf4ecd0	-0.0074745193
57	0x3c0f5d6f	0.008750304
58	0xbe5069b1	-0.20352818
59	0x3e28af55	0.16473134
60	0x3db3dc80	0.087822914
61	0x3c37d0c9	0.011219212
62	0xbb309d9f	-0.0026949418
63	0x3dfe85b1	0.12427843
64	0xbbf5922e	-0.0074942326
65	0xbe19588f	-0.14975189
66	0xbe569a19	-0.20957221
67	0x3dd3fb35	0.10350648
68	0x3dc3cbc6	0.09560351
69	0xbb970a13	-0.0046093552
70	0xbb670f79	-0.0035257025
71	0x3d94240c	0.07233438
72	0xbaeffcc1	-0.001830958
73	0xbd69b286	-0.05705502
74	0xbe422193	-0.1895812
75	0x3e03f5ac	0.12886685
76	0x3d263c21	0.040584687
77	0x3c41412b	0.011795322
78	0xbda0858d	-0.07837973
79	0x3dd35fa4	0.103209764
80	0xbc68ea17	-0.014215968
81	0x3c2bb2d3	0.010479647
82	0xbe3c0134	-0.18359834
83	0x3e13cb36	0.14432988
84	0x3dbb6aec	0.09151253
85	0x3bc55661	0.00602226
86	0x3b3680c1	0.002784774
87	0x3ddcc1df	0.107791655
88	0xba078721	-0.0005169977
89	0xba95eb46	-0.0011437915
90	0xbacf199f	-0.0015800482
91	0xbc3ed8e9	-0.011648395
92	0xbc0960e9	-0.008384922
93	0xbc9bb220	-0.019005835
94	0xbcadfc9e	-0.021238621
95	0xbb4d5313	-0.0031330034
96	0xbc3d3d7d	-0.0115503045
97	0xbbd385ff	-0.0064551826
98	0xbc9a3f36	-0.01882897
99	0x3c0faaa3	0.00876871
100	0xbb3b6b8e	-0.0028598043
101	0xbc5799c0	-0.013159215
102	0x3ac1894b	0.0014765648
103	0xbb4f4064	-0.0031624073
104	0x3d6c70e8	0.057724863
105	0x3cbd6631	0.023120018
106	0x3e808b7c	0.25106418
107	0xbdf445cb	-0.119273745
108	0xbc33f707	-0.010984189
109	0xb9354a43	-0.0001728917
110	0x3d2dd7e0	0.042442203
111	0xbdf91ce7	-0.12163716
112	0xbc9be2e2	-0.019029085
113	0xbcd0fb59	-0.025510477
114	0xbe2a4019	-0.16626014
115	0x3de4c236	0.11169855
116	0x3d6a077c	0.057136044
117	0x3c394dde	0.011310069
118	0xbeaa706b	-0.33288893
119	0x3dafb78a	0.08579929
120	0x3d87db45	0.06633619
121	0x3d427ef0	0.04748434
122	0x3e827a48	0.25483918
123	0xbe170ff5	-0.14752181
124	0xbd3e5811	-0.046470705
125	0x3b044a72	0.0020185974
126	0x3d49272d	0.049109627
127	0xbdbcbb01	-0.09215356
128	0xbc8c68eb	-0.017139873
129	0xbcaf2fee	-0.02138516
130	0xbe31590d	-0.17319126
131	0x3e0fd5cc	0.14046401
132	0x3dc71cc4	0.097222835
133	0x3ab2a0a9	0.0013628203
134	0x3c104a96	0.008806845
135	0x3da3b262	0.07993008
136	0x3d3b72fc	0.045763955
137	0x3c337e5d	0.01095542
138	0x3e8ecf5a	0.27892572
139	0xbda66d72	-0.08126344
140	0x3d3115e6	0.043233775
141	0xbb1922ff	-0.0023366807
142	0x3c978fae	0.018501129
143	0xbd87c05f	-0.06628489
144	0x3d6d8409	0.057987247
145	0x3bd93b43	0.006629379
146	0x3e8001e8	0.25001454
147	0xbde27783	-0.11057951
148	0x3bbd6b41	0.005780608
149	0x3903bbe1	0.00012563124
150	0x3cfbd582	0.030741457
151	0xbdfd4a58	-0.123676956
152	0xbbbe0105	-0.0057984614
153	0xbccf6827	-0.025318218
154	0xbe1c55ff	-0.1526718
155	0x3df880b3	0.121339224
156	0x3dd91b88	0.10600954
157	0xbaee9e28	-0.0018205093
158	0xbd47119b	-0.048600774
159	0x3db70a31	0.08937491
160	0xbabd41d8	-0.0014439179
161	0xbc205429	-0.00978569
162	0x3b1d0c6d	0.0023963705
163	0x3aa9ed3d	0.0012964379
164	0xbaa46acd	-0.0012544036
165	0xb9275185	-0.0001595673
166	0xbbe7546f	-0.007059626
167	0xbc163b4d	-0.009169412
168	0xbc4a6ded	-0.01235531
169	0xbc76fd25	-0.015075003
170	0xbe32b172	-0.17450503
171	0x3e0139bb	0.12619679
172	0x3deae1c4	0.114688426
173	0xbbc18c50	-0.005906619
174	0x3ae7b153	0.0017676748
175	0x3dbb12f1	0.09134472
176	0x3d54f503	0.051991474
177	0x3d4d5a5b	0.050134998
178	0x3e89a9a7	0.26887247
179	0xbe240683	-0.16018109
180	0xbb6aaf74	-0.0035810145
181	0xbaa2bab2	-0.0012415259
182	0x3d41b794	0.047294214
183	0xbd817661	-0.06321407
184	0xbac274e0	-0.0014835857
185	0xba8e844b	-0.0010873167
186	0x39d1eda0	0.0004004063
187	0x3b001626	0.0019544451
188	0xbc923157	-0.017845793
189	0xbbb0dbb9	-0.0053972867
190	0xbb3423de	-0.0027487199
191	0xbb7c7255	-0.0038520296
192	0x3d8db6c2	0.06919624
193	0x3d1206c1	0.035650972
194	0x3e880e28	0.265733
195	0xbe3857c1	-0.18002225
196	0xbd69c409	-0.05707172
197	0x3ba88932	0.005143308
198	0x3d0044a5	0.031315465
199	0xbdb6f325	-0.08933095
200	0x3d0da742	0.034583338
201	0xbb5203e4	-0.0032045776
202	0x3ea4ffd3	0.32226428
203	0xbe89896a	-0.2686265
204	0xbc2c00bd	-0.010498223
205	0x3c414055	0.011795123
206	0x3c803aa5	0.015652964
207	0xbe81b646	-0.25334376
208	0xbcc32b4e	-0.02382436
209	0xbc979fac	-0.018508755
210	0xbe256e25	-0.16155298
211	0x3e0860f5	0.13318236
212	0x3d4ad0da	0.049515583
213	0x3bd049ba	0.006356445
214	0xbea67068	-0.32507634
215	0x3db4a12b	0.08819803
216	0x3d7b2370	0.061313093
217	0x3cb75cc3	0.0223831
218	0x3e839807	0.25701925
219	0xbe1016a1	-0.14071132
220	0x3d447ce9	0.047970686
221	0xbb2d03be	-0.0026399936
222	0x3d006739	0.03134844
223	0xbdaeaea9	-0.085294075
224	0xbc72cea2	-0.014819773
225	0xbc72e95d	-0.014826146
226	0xbc8821f8	-0.01661776
227	0xbc7a36e5	-0.015271877
228	0xbbf97fbc	-0.007614104
229	0xbc45d3ce	-0.012074424
230	0xbc541806	-0.012945181
231	0xbc2c6b4a	-0.010523627
232	0xbb8a0699	-0.0042122123
233	0xbd1f46e0	-0.03888595
234	0xbe1d93af	-0.15388368
235	0x3e15391c	0.14572567
236	0x3d9f1e3f	0.07769441
237	0x3b812e96	0.003942321
238	0xbe34d0e5	-0.17657812
239	0x3dba51e1	0.090976484
240	0x3d3acfec	0.045608446
241	0x3d450b71	0.048106615
242	0x3e839086	0.256962
243	0xbe257f13	-0.16161756
244	0xbca47c63	-0.020078843
245	0x3b017466	0.0019753217
246	0x3d41ca69	0.047312174
247	0xbd520f8c	-0.051284358
248	0x3d0d625e	0.03451764
249	0xbc2e3547	-0.0106328195
250	0x3eb90b97	0.36141655
251	0xbe6ff23b	-0.23432247
252	0xbac75fde	-0.0015211066
253	0x3ad6149c	0.0016333046
254	0x3c4e6c8b	0.012599121
255	0xbe805cf3	-0.25070915

edge_embedding_layer.edge_feature_NN.weight f4 [64, 64]
0	0x3d673c37	0.05645391
1	0x3bdaa9ff	0.006673097
2	0x3d4b4985	0.04963066
3	0x3d71998d	0.058984328
4	0x3c229df9	0.009925359
5	0x3c06994c	0.00821526
6	0xbd01d14d	-0.031693745
7	0xbd7d34c3	-0.061817896
8	0xbd2eb63d	-0.042654265
9	0xbd0aa38d	-0.03384738
10	0xbd2d8a24	-0.04236807
11	0x3aa17491	0.0012318065
12	0xbbb9a833	-0.005665803
13	0x3d989087	0.074494414
14	0xbd4eed06	-0.050519012
15	0x3d7aee4f	0.061262425
16	0xbd0f08b5	-0.034920413
17	0x3d00fe1d	0.03149234
18	0x3d177701	0.036978725
19	0xbbb887c4	-0.005631419
20	0x38e5ccfb	0.000109577515
21	0xbd14e302	-0.036349304
22	0x3d2da85c	0.042396888
23	0x3b299970	0.002587881
24	0x3d35bfe1	0.044372443
25	0x3e0e23bc	0.13880819
26	0xbd95f603	-0.07322314
27	0x3d439831	0.047752563
28	0xbb0ea57f	-0.0021766124
29	0xbd7631d1	-0.060106102
30	0x3d36bd56	0.04461416
31	0x3e031231	0.12799908
32	0xbd4cbede	-0.049986713
33	0xbd2e3818	-0.042533964
34	0x3d9ea803	0.077468894
35	0xbbd5cc4b	-0.0065245978
36	0x3d35f9bc	0.04442762
37	0xbd34a056	-0.04409822
38	0xbd5091b8	-0.05092022
39	0x3d773c39	0.060360167
40	0xbd1e27f5	-0.038612325
41	0x3d81eb18	0.06343669
42	0x3cae93a0	0.021310627
43	0x3d90bae6	0.07066898
44	0x3b5e7067	0.0033941509
45	0xbcd9df2c	-0.026595674
46	0xbd0bbf2a	-0.034117855
47	0xbb132378	-0.002245156
48	0x3b0960f6	0.0020962334
49	0xbd475820	-0.048668027
50	0x3c8e4d97	0.017370982
51	0xbc29b62f	-0.010358377
52	0x3cd2756e	0.02569076
53	0x3c54a5f9	0.012979024
54	0xbd2dad2c	-0.042401478
55	0x3d04bc92	0.032406397
56	0x3d97b38b	0.07407292
57	0x3e03dcd3	0.12877207
58	0x3c182ddc	0.0092882775
59	0x3c9b18cd	0.018932724
60	0x3d749119	0.05970869
61	0x3dab9cb7	0.083795
62	0x3d1fd205	0.03901865
63	0x3d60c41b	0.05487452
64	0xbc303ff4	-0.010757435
65	0xbc05461d	-0.008134392
66	0x3acbe4e5	0.0015555887
67	0x3c06c416	0.0082254615
68	0x3afbc13b	0.0019207367
69	0x3b0dc229	0.002163062
70	0x3bf8190b	0.0075713447
71	0x3c0fc407	0.008774764
72	0xbbf16fc0	-0.007368058
73	0xbc05bb90	-0.008162394
74	0xbc43b55a	-0.011945093
75	0x3a0b30f0	0.00053097215
76	0x3c61c0a9	0.013778844
77	0x3bcc8d7b	0.0062424517
78	0x3b309bde	0.0026948373
79	0xbc6ff1ae	-0.014645023
80	0x38ce2614	9.829938e-05
81	0x3bfcbd0f	0.007712967
82	0x3c04536f	0.008076533
83	0xbb091872	-0.0020919112
84	0xbc1671cf	-0.0091824075
85	0xbc1403b8	-0.00903409
86	0xbb964366	-0.0045856712
87	0xbcca8800	-0.024723053
88	0x3bc8d0ac	0.0061283913
89	0x3c2f1bb4	0.010687757
90	0xbc026435	-0.0079584615
91	0xbb3c7db2	-0.0028761444
92	0x3c4cccdb	0.012500013
93	0xbcac9ed0	-0.021071821
94	0x3ba3b3e2	0.004995809
95	0x3b97d3f0	0.004633419
96	0xb86cf069	-5.6490684e-05
97	0xbc7fc71e	-0.015611438
98	0xbc2defb4	-0.010616232
99	0xbb45fb0a	-0.0030209445
100	0xbcbaf724	-0.022822924
101	0x3b9752c7	0.004618022
102	0xbbac1fcd	-0.0052528144
103	0x3c1577d6	0.009122809
104	0x3a1af863	0.00059116463
105	0x3c5081b3	0.012726235
106	0x3b92ae4a	0.0044763433
107	0x3b841c8f	0.0040317248
108	0xbb22c8db	-0.0024838957
109	0xbc4a5853	-0.01235016
110	0xba183dd0	-0.00058075506
111	0x3c88aab7	0.016682966
112	0x3c5be4bb	0.013421233
113	0x3a4147f3	0.0007373087
114	0x3bb4e0f0	0.0055199787
115	0x3b6370ea	0.0034704753
116	0xbcc0dd45	-0.02354301
117	0xbc486df4	-0.012233246
118	0x3b85bdde	0.004081472
119	0xbc9396b4	-0.018016197
120	0xbc0d2da8	-0.008616842
121	0xbbdc8050	-0.006729163
122	0xbbaee179	-0.005336937
123	0x3a03acbd	0.00050229934
124	0x3b6e4b69	0.0036360866
125	0xbb84c5f2	-0.004051917
126	0x3c138cce	0.009005738
127	0xbcf299d2	-0.029614363
128	0x3cb38ea7	0.021918608
129	0xbbd022fb	-0.0063518262
130	0x3d0814ad	0.033222843
131	0xbba5503d	-0.0050449655
132	0xbc3e3d2e	-0.011611266
133	0xbb84ebc2	-0.004056425
134	0x3d150f1d	0.036391366
135	0x3c55d8a3	0.0130521385
136	0x3d3f43d4	0.046695545
137	0x3be21dc9	0.0069005233
138	0x3c1e988e	0.009679927
139	0x3b10207a	0.0021992014
140	0xbafb33f0	-0.0019165259
141	0xbd458d19	-0.048230264
142	0x3b4303da	0.0029756934
143	0xbccf27ff	-0.025287626
144	0xbb392ea5	-0.0028256562
145	0xbd44857b	-0.04797886
146	0xbd45265b	-0.04813228
147	0x3c7ca030	0.015419051
148	0xbcc653fd	-0.02420997
149	0x3c709202	0.0146832485
150	0xbcad2cfe	-0.021139618
151	0x3b86e627	0.0041167918
152	0xbcf100bd	-0.029419297
153	0xbdb6f24e	-0.08932935
154	0x3ca03fd8	0.019561693
155	0xbda5242c	-0.0806354
156	0xbbf69535	-0.007525111
157	0x3c6002b6	0.013672521
158	0xbc972161	-0.018448533
159	0xbe0fea3d	-0.14054199
160	0x3cea3e13	0.028594052
161	0x3cf0e8cd	0.029407883
162	0x3c2c3fb9	0.01051324
163	0x3d27813e	0.04089474
164	0xbc55a6c7	-0.013040251
165	0x3cce30b5	0.02516971
166	0x3c770dfb	0.015079017
167	0xbd0f01ae	-0.03491371
168	0x3d232a2e	0.039835148
169	0xbd20ab8e	-0.039226107
170	0xbcd0622b	-0.025437435
171	0xbcca509a	-0.024696637
172	0xbb48607b	-0.0030575085
173	0x3d3c3441	0.04594827
174	0x3d6b6a01	0.05747414
175	0x3c384fd8	0.011249505
176	0xbc58d26b	-0.013233761
177	0x3ccef0ec	0.025261365
178	0xb90d89bd	-0.0001349812
179	0x3c36160b	0.011113654
180	0xbc49a752	-0.012307959
181	0x3acd6703	0.0015670959
182	0x3d105a19	0.035242174
183	0xbd771d7c	-0.060330853
184	0xbd90da13	-0.07072844
185	0xbe0efcd6	-0.13963637
186	0x3b9e3c1b	0.0048289425
187	0x3c1a18e2	0.009405347
188	0xbb10fde6	-0.0022123992
189	0xbcb3bab2	-0.02193961
190	0xbcb0fdc5	-0.021605382
191	0xba0382ef	-0.0005016764
192	0xbc64669c	-0.01394048
193	0xbbe11e57	-0.006870072
194	0xbc1844c6	-0.009293741
195	0x3c0bc6d4	0.008531291
196	0x3b5b1fe5	0.0033435759
197	0xbc06ab8d	-0.008219612
198	0xbc22d12a	-0.009937564
199	0x35f1eb25	1.8024335e-06
200	0x3bd59b52	0.0065187598
201	0xbacde4c1	-0.0015708433
202	0x3c0ae14f	0.008476569
203	0xbbf11adc	-0.007357938
204	0xbb971dd7	-0.0046117115
205	0x3b13a07e	0.002252608
206	0xbc10207d	-0.008796808
207	0xbb18d0e3	-0.0023317866
208	0xbc8ee465	-0.017442891
209	0x3bc7cc73	0.0060973703
210	0xbc816c24	-0.015798636
211	0xbba69a27	-0.0050842944
212	0x3b87c0a2	0.0041428367
213	0xbb974283	-0.004616083
214	0xb88678ba	-6.412105e-05
215	0xbb1cd23a	-0.0023929016
216	0x3b24f554	0.002517064
217	0xbc288a92	-0.010286944
218	0xbb48f6d8	-0.0030664708
219	0x3c013fed	0.007888776
220	0x3c3181f8	0.01083421
221	0xba960320	-0.0011445023
222	0xbb307756	-0.0026926599
223	0xba8412e0	-0.0010076426
224	0xbc858e08	-0.016303077
225	0x3bea81c1	0.007156581
226	0x3a88d0fb	0.0010438258
227	0x39478a4a	0.00019029636
228	0x3a6bbbd8	0.00089925295
229	0xbbb77335	-0.0055984505
230	0xbbb8831d	-0.0056308643
231	0x390ac7cf	0.0001323514
232	0xbbb30f06	-0.0054644374
233	0xbb89bf46	-0.00420371
234	0x390305e2	0.00012495325
235	0xb95c5f24	-0.00021016278
236	0x3c8fa7c0	0.017536044
237	0x3c8b199f	0.01697999
238	0xbc5d5942	-0.01351005
239	0x3bbb3935	0.0057136067
240	0xba249bc1	-0.00062793127
241	0xb9a491a7	-0.00031389037
242	0x3b473395	0.0030395736
243	0xbc5a2fdb	-0.013317074
244	0xba1649a6	-0.00057330204
245	0x3bb355bd	0.0054728673
246	0xbacdc1cb	-0.0015698014
247	0xbbfbfa05	-0.0076897168
248	0x3c57cca2	0.013171347
249	0xbc5dbc3b	-0.013533647
250	0xb9bc8578	-0.00035957596
251	0xba22f04f	-0.00062156183
252	0xbb065416	-0.0020496896
253	0xbc0deb9f	-0.0086621335
254	0x3bd47b37	0.006484415
255	0xbb9e6e9d	-0.0048349635

update_node_embedding_layer.0.message_layer.weight f4 [64, 128]
0	0xbc9c22c1	-0.01905954
1	0x3ae57d81	0.0017508717
2	0xbc67072d	-0.014100832
3	0xbb8a4754	-0.0042199288
4	0xbc92801a	-0.01788335
5	0x3c3a54a3	0.011372718
6	0x3bfd2931	0.0077258577
7	0x3b6a8d6e	0.0035789865
8	0xbc0ad4cf	-0.008473589
9	0xbc9c8d65	-0.01911039
10	0x3bd03c38	0.006354835
11	0xbcaa1045	-0.020759711
12	0xbc88d541	-0.01670325
13	0xbc5f2453	-0.0136195
14	0x3b215f90	0.002462361
15	0xba78c1cb	-0.00094893266
16	0xbc86d11f	-0.016457139
17	0xbb73953f	-0.0037167815
18	0xbb63882b	-0.0034718614
19	0x3ba99200	0.0051748753
20	0xbc40843b	-0.011750276
21	0xbccf5698	-0.025309846
22	0xbc3ec934	-0.01164465
23	0xbc3f5a57	-0.011679254
24	0x3c8ceebc	0.017203681
25	0x3c1858b3	0.009298491
26	0xbbdf6335	-0.0068172463
27	0xbb855148	-0.0040685274
28	0xbbc5af98	-0.0060328953
29	0xbc9afbe1	-0.018918933
30	0xbc0d20ff	-0.008613824
31	0x3c3d8da5	0.011569415
32	0xbaf72e49	-0.0018858399
33	0x3c07ff23	0.008300575
34	0x3b7578e3	0.0037456087
35	0xbba1efb0	-0.004941903
36	0xbbd959ec	-0.006633034
37	0xbb9c9303	-0.0047782674
38	0xbc9c59e0	-0.019085824
39	0xbc4e8239	-0.01260429
40	0xbbb2d960	-0.005458042
41	0x3b9f3470	0.004858546
42	0xbca0574c	-0.019572876
43	0xbc7b94b4	-0.015355278
44	0x3b732be2	0.0037105014
45	0x3c1dfd00	0.009642839
46	0xbc429fce	-0.011878921
47	0xb714f500	-8.878531e-06
48	0xbc234eeb	-0.009967546
49	0x3c1b6386	0.009484177
50	0xbb94e507	-0.0045439037
51	0xbbb05c0e	-0.0053820675
52	0xb948c84c	-0.00019148103
53	0x3b81be1a	0.0039594295
54	0xbcb4fc29	-0.022092896
55	0x3c2d8026	0.010589635
56	0xbbede422	-0.0072598616
57	0xbc2384cf	-0.0099803945
58	0xbc4b9017	-0.01242449
59	0xbbad9127	-0.0052968445
60	0xba5305d9	-0.00080498826
61	0x3c975d96	0.018477242
62	0x3c023bdf	0.007948845
63	0xbb1bffe5	-0.0023803648
64	0xbbce0970	-0.006287746
65	0xbb1f3f76	-0.00242993
66	0x3c2bc9a9	0.010485091
67	0xbc4a63bd	-0.012352881
68	0xba8a72ca	-0.0010562774
69	0xba2d4be5	-0.00066107354
70	0xbc697fcb	-0.01425166
71	0x3b94909b	0.00453384
72	0xbc11708e	-0.008876933
73	0xbb00e923	-0.001967021
74	0xbc0f88f2	-0.008760678
75	0x3c60e5df	0.013726681
76	0xbbd9b47f	-0.0066438313
77	0x3b8eb015	0.0043544867
78	0x3ae442e3	0.0017414953
79	0x3ca7206d	0.020401204
80	0xbb8d519f	-0.0043127085
81	0x3a04d92d	0.0005067762
82	0xbaa54a8c	-0.0012610718
83	0xbbac23d7	-0.005253296
84	0xbbd8ceb0	-0.006616436
85	0x3a544b39	0.0008098367
86	0xbc0b59b4	-0.008505274
87	0x3c6209b5	0.01379626
88	0x3b3ee9b5	0.0029131
89	0x3a97ac0d	0.0011571661
90	0x3a7abd20	0.0009564925
91	0x3c5eb829	0.013593712
92	0xbc83cc1a	-0.016088534
93	0xbc6453a1	-0.013935954
94	0xbbbe14a8	-0.0058008023
95	0x3ca5b5f8	0.020228371
96	0x3c38cd99	0.011279487
97	0xbc97e2b4	-0.018540718
98	0x3c629dca	0.013831565
99	0xbaacfb45	-0.0013197443
100	0x387dc87b	6.0506612e-05
101	0xbb0b3c1e	-0.002124555
102	0xbc177049	-0.009243079
103	0x3cc843ae	0.024446335
104	0x3b1c2ff5	0.0023832296
105	0xbb3391ec	-0.0027400209
106	0x3b7436c0	0.003726408
107	0x3b975742	0.0046185562
108	0xbc413f67	-0.011794901
109	0xbcc29778	-0.023753867
110	0x3becdd1b	0.0072285063
111	0xbbbac510	-0.005699761
112	0xbc21deea	-0.009879807
113	0x3c729569	0.01480613
114	0xbbdc6f53	-0.006727138
115	0x3c08b937	0.00834494
116	0x3aed3f71	0.0018100572
117	0x3ae5bb54	0.0017527142
118	0x3bdd1c90	0.0067477897
119	0xbc39376b	-0.011304717
120	0x3b93a6bb	0.00450596
121	0x3c065456	0.008198818
122	0xbc000146	-0.007812804
123	0xbc5c405c	-0.013443079
124	0xbb38e372	-0.002821174
125	0x3ad2f1cf	0.0016093793
126	0x3b82fe9a	0.003997636
127	0xbb6c5618	-0.0036062058
128	0xbb902293	-0.004398653
129	0xbba48571	-0.0050207903
130	0xbc670422	-0.014100106
131	0x3bf7b8e9	0.007559885
132	0xbb9aafee	-0.0047206795
133	0x3c7700d2	0.015075879
134	0x3aab7852	0.0013082123
135	0xbc918d62	-0.017767612
136	0x3bd52da6	0.006505686
137	0x3c9b9f49	0.018996852
138	0x3befaf15	0.0073145726
139	0xba1adb53	-0.00059073156
140	0x3c01b1f3	0.007915962
141	0xbaff7143	-0.0019488711
142	0x3b4c5a15	0.0031181623
143	0x3c296c69	0.010340788
144	0xbcd4eb9e	-0.025991257
145	0x3c28fc62	0.010314079
146	0xb813a396	-3.5199882e-05
147	0x3c2fdbe1	0.010733576
148	0x3be78c79	0.007066306
149	0x3beaec50	0.007169284
150	0x3c3d7fd5	0.011566122
151	0xbbda5e94	-0.0066641066
152	0xbb2cb39e	-0.0026352177
153	0xbc2d31a6	-0.010570919
154	0x3c3a9f1f	0.0113904765
155	0x3c365618	0.011128925
156	0x3c02f26e	0.00799237
157	0xbc814784	-0.015781172
158	0x3c3f702b	0.011684458
159	0xbbdaeab4	-0.006680811
160	0xba71bcbd	-0.00092215446
161	0x3a71eb05	0.0009228441
162	0xbb81d999	-0.0039627072
163	0x3b5a4b35	0.0033308987
164	0xbc338290	-0.0109564215
165	0x3aca787f	0.0015447288
166	0x3c6e06b7	0.014527968
167	0xbc09754c	-0.008389782
168	0x3972360c	0.00023099052
169	0x3b7ad1a6	0.0038271933
170	0x3c07706c	0.00826655
171	0xbc724df0	-0.01478909
172	0xbb7465d7	-0.0037292147
173	0xbae71472	-0.0017629995
174	0x3c8598bd	0.016308183
175	0xb85d266a	-5.2726282e-05
176	0xbba838ec	-0.0051337387
177	0xbaa57c84	-0.001262561
178	0x3c8d59eb	0.01725479
179	0xbc0ca418	-0.008584045
180	0x3c32cadb	0.010912622
181	0xbc550c75	-0.013003458
182	0x3c737c5a	0.014861191
183	0x3a5aaf46	0.0008342158
184	0xbb21a5cb	-0.002466547
185	0xbc5fb7ab	-0.01365463
186	0x3c5e101e	0.013553647
187	0xbc8a125b	-0.016854456
188	0x3b195d02	0.0023401384
189	0x3b8fbb85	0.0043863677
190	0xba9fe55d	-0.0012199093
191	0x3b1713c4	0.0023052553
192	0x3b23ba02	0.0024982695
193	0xba04de7e	-0.00050685543
194	0xbc5f4685	-0.013627653
195	0xbbefd5f3	-0.007319206
196	0xbbc4ae72	-0.006002241
197	0x3c1813fc	0.009282108
198	0x3b05d84a	0.0020423108
199	0xbb2ffa14	-0.002685194
200	0xba66dac4	-0.00088064023
201	0x3b06d12d	0.0020571456
202	0x3980bb94	0.0002455382
203	0xbc518e00	-0.012790203
204	0x3c5bc1ac	0.013412874
205	0x3b753d07	0.0037420408
206	0xbba36a20	-0.0049870163
207	0xbb9f95a7	-0.004870135
208	0xbc9620e8	-0.018326238
209	0x3c1c70c3	0.009548369
210	0xbc32fc73	-0.010924446
211	0xbb7fdebc	-0.0039042672
212	0x3a491629	0.00076708436
213	0x3c474ce6	0.01216433
214	0x3a3c0c21	0.0007173438
215	0xbc5f3bf7	-0.013625137
216	0xbb0d041c	-0.0021517342
217	0xb9975fa2	-0.00028872216
218	0xbb09603a	-0.0020961897
219	0xbc137c05	-0.0090017365
220	0x3c1d68ee	0.009607537
221	0x3b6dacff	0.0036266444
222	0xbbb78be1	-0.0056013917
223	0xba5dc303	-0.000845954
224	0xbae11023	-0.0017170947
225	0xbbd94612	-0.0066306675
226	0xbc0afb85	-0.0084828185
227	0xb8f1a10a	-0.000115217714
228	0xbb2bd66a	-0.002622033
229	0xbb195592	-0.002339695
230	0xbc0342e5	-0.008011554
231	0xbc8d8886	-0.017277014
232	0x3b608d73	0.0034263998
233	0xbc643bbe	-0.013930259
234	0x3b99ef93	0.004697749
235	0xbc6551b3	-0.013996529
236	0xbbf5dc17	-0.0075030434
237	0x3b0b16da	0.0021223337
238	0xbc977115	-0.018486539
239	0xbc3c719e	-0.011501698
240	0x3bb43013	0.005498895
241	0x3b37c309	0.0028039834
242	0xb9ca69e5	-0.0003860734
243	0x3c74daa9	0.014944711
244	0x3be4f234	0.0069868807
245	0x3c4e369c	0.012586262
246	0x3c5c97f2	0.013463961
247	0xbc9f7564	-0.019465156
248	0xbb35050a	-0.0027621412
249	0x3b4f5161	0.00316342
250	0xbc549177	-0.012974135
251	0x3c2d07b2	0.010560917
252	0xbbfef110	-0.0077802017
253	0x3b2d09a9	0.0026403463
254	0x3c8a63e2	0.016893331
255	0xbbb9d69d	-0.005671336

update_node_embedding_layer.0.update_layer.weight f4 [64, 128]
0	0x3bf605d7	0.0075080204
1	0x3bdf6e4b	0.006818568
2	0x3a62f235	0.00086573075
3	0xbba921c8	-0.0051614977
4	0x3bf3be54	0.0074384604
5	0xbc442742	-0.01197225
6	0xbbb97a0d	-0.0056603015
7	0xbacb5ba8	-0.0015514987
8	0x3bd251f7	0.0064184624
9	0x3c6c7e8f	0.014434471
10	0xbc3dfb84	-0.0115956105
11	0xbada4d45	-0.0016655108
12	0xbca535e6	-0.020167302
13	0xba325a05	-0.0006803575
14	0xbb0d007e	-0.0021515186
15	0xbc04be57	-0.008102021
16	0x3c43c989	0.011949905
17	0x39cc102d	0.00038921964
18	0xbc682ae5	-0.014170383
19	0xbb518af1	-0.0031973685
20	0xba4aa308	-0.0007729982
21	0xbc223fe4	-0.009902928
22	0xbc1d2f24	-0.009593759
23	0xbb8e6dcc	-0.004346585
24	0xbc29667b	-0.010339375
25	0xba2c5b7d	-0.0006574912
26	0xbc46e2b1	-0.012139008
27	0xba300e6e	-0.00067160174
28	0x3af31270	0.0018544924
29	0xbc2ae303	-0.0104301
30	0x3c290046	0.010315007
31	0xbbc986ba	-0.006150094
32	0xbca5f789	-0.020259636
33	0xbd09ad1d	-0.03361236
34	0xbc12288d	-0.008920801
35	0x3bcdcc8f	0.006280489
36	0x3c51ebcc	0.012812566
37	0x390a9601	0.00013216586
38	0xbc062897	-0.008188388
39	0x3c8cd89e	0.017193135
40	0x3c29734d	0.010342431
41	0xbb8fb0c4	-0.004385086
42	0x38757f5a	5.8531157e-05
43	0xbc11caa0	-0.008898407
44	0xbbf162e8	-0.007366527
45	0x3c671010	0.014102951
46	0xbcc74ff0	-0.02433011
47	0x3b9b9746	0.004748258
48	0xbc6f733c	-0.014614876
49	0x3b92cbab	0.0044798455
50	0xbb914f9b	-0.0044345385
51	0xbc11c791	-0.008897678
52	0xbc3143d6	-0.010819396
53	0xbbee4ddc	-0.007272465
54	0xbb95a3a7	-0.004566628
55	0x3911a3bc	0.00013889273
56	0xbae6172b	-0.0017554512
57	0xbc5588fb	-0.013033147
58	0x3ba6cf59	0.0050906357
59	0xbbde83be	-0.0067906072
60	0xbaffe9d4	-0.0019524642
61	0xbbfac709	-0.0076531214
62	0x3ca0e5a5	0.019640753
63	0x396b4b8d	0.00022439491
64	0x3c4bffcc	0.012451123
65	0x3b80bd43	0.0039288118
66	0x3c126bbc	0.008936819
67	0x3b5a3bff	0.003329992
68	0xbb8bb7e9	-0.004263867
69	0xbba25b70	-0.004954748
70	0x3c52af60	0.0128591955
71	0xbb678c76	-0.0035331524
72	0xbbd50efc	-0.0065020304
73	0x3be4f30c	0.0069869813
74	0x3bed38e9	0.0072394502
75	0xba428508	-0.0007420336
76	0x3c81d1cf	0.015847115
77	0x3abd19ae	0.0014427209
78	0xbbdb1dae	-0.0066868877
79	0x3b67e77d	0.003538578
80	0x3c8ac9bb	0.016941896
81	0xbc283cba	-0.010268385
82	0x3be60133	0.007019186
83	0x3a9f1042	0.0012135583
84	0x3c203a9e	0.0097796
85	0xbc34828f	-0.011017456
86	0xbc10ffd1	-0.008850054
87	0x3b1b513a	0.0023699538
88	0xbc1ec635	-0.009690811
89	0xbc4752e8	-0.0121657625
90	0x3cabce5c	0.020972423
91	0x3c73c974	0.014879573
92	0x3a8c76e1	0.0010716581
93	0x3c88d9d7	0.016705437
94	0xbb37c321	-0.002803989
95	0xbb807590	-0.0039202645
96	0x3b53e6fc	0.0032333722
97	0x3c48cdde	0.012256114
98	0x3aa02a8a	0.0012219709
99	0xbc2aefde	-0.010433165
100	0xbc8025ad	-0.015642965
101	0xbbad09da	-0.0052807154
102	0xbc3bbae8	-0.011458136
103	0xbbaa7bf0	-0.005202763
104	0xbc4c2417	-0.012459776
105	0x3c7b66a2	0.015344294
106	0xbc7b43e6	-0.0153360125
107	0xbc29fde0	-0.01037547
108	0xbac78e43	-0.0015224892
109	0xbcdec525	-0.027193615
110	0xbc9a8b57	-0.01886527
111	0xbbd0b97a	-0.006369767
112	0xbb786cc5	-0.0037906629
113	0x3b316a23	0.002707132
114	0xbbb7a87b	-0.0056048012
115	0xbc161b64	-0.009161804
116	0xbc24bd38	-0.010054879
117	0xbc43046c	-0.01190291
118	0xbc241296	-0.010014197
119	0x3b8a76a9	0.004225571
120	0xbb109f8b	-0.0022067751
121	0x3bb2cce3	0.0054565533
122	0x3cd234bb	0.02565991
123	0xbcbd9b09	-0.023145216
124	0xbbe2c894	-0.0069208834
125	0x3b5d8d15	0.0033806015
126	0xbb247746	-0.0025095507
127	0x3c760013	0.015014666
128	0x3d6a31f5	0.05717655
129	0x3c95b0c6	0.018272769
130	0xba4a7393	-0.00077229104
131	0xbd316e4e	-0.043318085
132	0xbbadeb00	-0.005307555
133	0xbbaef7a7	-0.005339581
134	0xbdb16c65	-0.08663253
135	0xbb82a30c	-0.003986722
136	0x3d08515e	0.033280723
137	0xbd5c509c	-0.053787813
138	0x3ae30393	0.0017319791
139	0x3d65d857	0.05611452
140	0xbd4359be	-0.047693007
141	0x3c2dbfd7	0.01060482
142	0x3cd35249	0.025796073
143	0xbd96eda7	-0.07369547
144	0x3cbab904	0.0227933
145	0xbdbed353	-0.09317651
146	0x3d03a37e	0.03213834
147	0xbdae5677	-0.085125856
148	0xbd28b549	-0.041188512
149	0x3ce73224	0.028222151
150	0x3bd07974	0.0063621346
151	0x3c7e187e	0.015508769
152	0xbbf85bed	-0.007579318
153	0xbd7b9f53	-0.06143124
154	0xbd148336	-0.036257945
155	0x3bf57dec	0.0074918177
156	0xbce77882	-0.028255705
157	0x3ca22ff1	0.01979825
158	0x3d9678b6	0.073472425
159	0x3c346d28	0.011012353
160	0xbc516d69	-0.012782433
161	0xbe2a6e16	-0.16643557
162	0xbd3087c8	-0.04309824
163	0x3c8452b1	0.016152712
164	0x3d240c65	0.040050883
165	0x3d9cc909	0.07655532
166	0x3e0996b1	0.1343639
167	0xbd8de360	-0.06928134
168	0x3ca0d5ed	0.019633258
169	0x3983f395	0.0002516775
170	0x3d5f4f65	0.054519076
171	0x3ca7a333	0.020463562
172	0xbd131698	-0.03591022
173	0xbbc36d41	-0.005963952
174	0xbd48916e	-0.048966818
175	0xbd6b4402	-0.057437904
176	0xbda7be94	-0.08190647
177	0x3d15d20c	0.03657727
178	0xbd45525b	-0.048174243
179	0xbe0821f3	-0.132942
180	0x3d8a0995	0.06740109
181	0x3d95f6d8	0.07322472
182	0x3d18f12b	0.03733937
183	0xbdb92d56	-0.0904185
184	0xbc532f28	-0.012889661
185	0x3cc3a5ed	0.02388283
186	0xbd9b6c46	-0.07589011
187	0x3bb936f7	0.0056523043
188	0xbdc1ea57	-0.09468525
189	0x3d2d3e32	0.042295642
190	0x3d451aa4	0.04812111
191	0x3bd0ac05	0.0063681626
192	0xbb5fe0b6	-0.0034161038
193	0x3c1cd41c	0.009572055
194	0x3cc7c780	0.024387121
195	0x3ac08a28	0.0014689611
196	0xbcced30f	-0.025247125
197	0xbc079711	-0.008275763
198	0x3b35cace	0.002773929
199	0xbc32d4ec	-0.010915022
200	0xbc5cbad0	-0.013472274
201	0xbc8f7fed	-0.017517054
202	0xbcc72f01	-0.024314405
203	0xba3c14f0	-0.0007174751
204	0xbc986ef1	-0.018607588
205	0x3c46353d	0.012097654
206	0xbbbaaf81	-0.005697191
207	0xbd9ecc1e	-0.07753776
208	0xbcba3139	-0.02272855
209	0x3b92d2c5	0.004480692
210	0xbc9583ca	-0.018251318
211	0xb90f13fc	-0.00013644987
212	0x3c0c5fed	0.008567792
213	0x3b2593ea	0.0025265166
214	0x3d091d1d	0.03347503
215	0xbbf53fd0	-0.0074844137
216	0xbc3ba877	-0.011453739
217	0xbc8fc198	-0.017548367
218	0x3b68e999	0.0035539626
219	0xbbb3eff2	-0.00549125
220	0x3bff6dbe	0.0077950647
221	0xbbe90609	-0.007111315
222	0xbc932397	-0.017961306
223	0x3c212962	0.009836527
224	0x3b13a956	0.0022531352
225	0xbbf53f82	-0.0074843774
226	0xbd43869f	-0.047735807
227	0xbd9af611	-0.07566465
228	0xbb400d12	-0.0029304666
229	0x3c7a74ed	0.015286666
230	0x3ace38d7	0.0015733492
231	0x3d3a7129	0.045518074
232	0x3c06073b	0.008180435
233	0xbba06bca	-0.004895662
234	0x3c779be4	0.015112851
235	0xbbd6c6d2	-0.006554463
236	0xbd775d26	-0.060391568
237	0xba9ca3df	-0.0011950693
238	0xbc87d45a	-0.01658075
239	0x3982113c	0.00024808373
240	0x3a8aa373	0.0010577276
241	0xbc946426	-0.01811416
242	0xbcae2293	-0.02125672
243	0xbd88dce0	-0.066827536
244	0x3b93bf1f	0.0045088674
245	0xbd038799	-0.032111738
246	0xbc100ee7	-0.0087926155
247	0xbc5fbb96	-0.013655564
248	0x3c4de29e	0.012566237
249	0xbb3ba540	-0.0028632432
250	0xbc5cf29c	-0.013485577
251	0x3c0317d3	0.008001286
252	0xbbea5189	-0.007150833
253	0xbc33bdf1	-0.0109705785
254	0xbcd6c783	-0.026218181
255	0xbc0c7a69	-0.008574107

update_node_embedding_layer.1.message_layer.weight f4 [64, 128]
0	0xbb20c970	-0.0024534129
1	0xbcd117ab	-0.025523981
2	0x3c9032f2	0.017602418
3	0x3e670ff2	0.22564676
4	0xbb623a93	-0.0034519776
5	0x3b033ab1	0.0020023996
6	0xbcea3216	-0.028588336
7	0xbcc5660f	-0.024096517
8	0xbcc55196	-0.024086755
9	0xbc6e1d0a	-0.014533291
10	0xbcaeac46	-0.02132238
11	0xbcf4c848	-0.029880658
12	0xbd40facf	-0.04711419
13	0xbc96d713	-0.018413102
14	0x3b56841b	0.003273255
15	0x3d126b1a	0.03574667
16	0x3e8e5a30	0.27803183
17	0xbc26d350	-0.010182217
18	0x3e8302d6	0.255881
19	0xbce2b31d	-0.027673298
20	0x3d753a46	0.059870027
21	0xbca1927a	-0.019723166
22	0xbd079947	-0.03310516
23	0xbd47b358	-0.04875502
24	0xbd01e305	-0.031710643
25	0x3b5a7c86	0.0033338382
26	0xbb039b7f	-0.0020081697
27	0xbd024912	-0.031807967
28	0x3c738441	0.014863075
29	0x3d29d646	0.041464113
30	0xbc74b19e	-0.014934925
31	0x3c358b3e	0.011080561
32	0x3d6bb983	0.057549965
33	0xbc8305f3	-0.015994048
34	0xbc584fa5	-0.0132025825
35	0x3da694c4	0.081338435
36	0x3b859dc8	0.004077647
37	0x3d8e1c33	0.06938972
38	0xbba2cb05	-0.0049680495
39	0x3d6e3930	0.058160007
40	0xbcb70d91	-0.022345336
41	0x3e746f65	0.23870619
42	0x3ea63c25	0.32467762
43	0xbcb919b9	-0.022595273
44	0xbcb312cf	-0.021859555
45	0xbc91e34d	-0.01780858
46	0xbc8ab7fe	-0.016933437
47	0x3d0dcb9a	0.034617998
48	0xbcc217d3	-0.023693
49	0x3edf4875	0.43609968
50	0xbcc00d99	-0.023443984
51	0xbb0e87c0	-0.0021748394
52	0xbc238de1	-0.009982557
53	0xbba4e7e9	-0.0050325287
54	0x3e6fe472	0.23426989
55	0xbcbde39a	-0.023179818
56	0x3d52399d	0.051324476
57	0x3ca2fd04	0.019896038
58	0xbd2b5f95	-0.0418392
59	0xbcf0a12e	-0.029373731
60	0x3c0fd767	0.008779383
61	0xbbe4a435	-0.006977583
62	0xbcb85525	-0.022501538
63	0x3d54d35c	0.05195938
64	0x3c5d5fc5	0.013511603
65	0xb99a7dc1	-0.00029466863
66	0x3d2b320d	0.04179578
67	0xbbcf9efe	-0.006336092
68	0xbc2ee388	-0.010674365
69	0xbab257a1	-0.0013606438
70	0xbc745543	-0.014912906
71	0xbc13bcca	-0.009017179
72	0x3d175448	0.03694561
73	0x3b8bee8c	0.0042703804
74	0x3d800ecf	0.062528245
75	0x3c45ae87	0.012065536
76	0xbc25c430	-0.0101175755
77	0xbb50bc49	-0.0031850508
78	0xbc6ac593	-0.014329332
79	0x3c0b4e76	0.008502593
80	0x3b49225e	0.003069065
81	0x3c10fb15	0.008848925
82	0xbc99aadd	-0.018758232
83	0x3b371bf4	0.0027940245
84	0xbbb91913	-0.005648741
85	0x3ccd43b5	0.0250567
86	0x3c913430	0.01772508
87	0x3c62e561	0.0138486335
88	0x3c708358	0.014679752
89	0xbbd1ebe4	-0.006406294
90	0xbcb27953	-0.021786368
91	0xbbc93a82	-0.006141008
92	0xbc8ed477	-0.017435296
93	0x3d041ddc	0.03225504
94	0x3c775b6c	0.01509748
95	0x3c0c95ee	0.008580668
96	0xbd5dccff	-0.054150578
97	0x3c6ee184	0.014580134
98	0x3d047667	0.03233948
99	0xbb8d5610	-0.004313238
100	0xbc1b80ab	-0.009491126
101	0xbce2795f	-0.027645765
102	0xbc2f37cb	-0.010694454
103	0x3bf1312c	0.007360598
104	0x3b6ad8e3	0.003583484
105	0x3c5b569d	0.013387349
106	0x3c89f8ec	0.016842328
107	0xbc203dc6	-0.009780353
108	0x3c14dbae	0.009085579
109	0xbbe15706	-0.006876829
110	0x3cbe82a6	0.023255657
111	0x3a2c2c10	0.0006567845
112	0x3d8d3672	0.0689515
113	0x3c951dc8	0.018202677
114	0x3b681a41	0.003541604
115	0xbbc7a210	-0.0060923174
116	0xbc85e2ce	-0.0163435
117	0xbb16b80a	-0.002299788
118	0x3cf9ca61	0.03049201
119	0xbbf099a2	-0.007342533
120	0x3d18323e	0.03715729
121	0xbb9e397e	-0.004828631
122	0x3b1c0a4e	0.0023809853
123	0x3c639f7a	0.013893003
124	0x3b61a3f6	0.0034430004
125	0xbbfce42c	-0.00771763
126	0x3c75c5c5	0.015000765
127	0xbbeebd12	-0.0072857225
128	0x3a78809e	0.00094796147
129	0x3d36d941	0.044640783
130	0xbc00e939	-0.007868105
131	0xbdc620be	-0.09674214
132	0x3d276f00	0.040877342
133	0x3bba0c27	0.005677718
134	0x3ca8e534	0.020617105
135	0x3d3bdfc3	0.045867693
136	0x3d829e9e	0.0637791
137	0xbdf13bb4	-0.117789656
138	0x3d5d52b4	0.05403395
139	0x3d2a26dd	0.04154097
140	0x3d7f1fda	0.062286235
141	0x3d0fdb2d	0.03512113
142	0xbb98fe4f	-0.004668988
143	0x3cea1277	0.028573258
144	0x3e005a27	0.1253439
145	0xbc2524dd	-0.01007959
146	0x3de2f78b	0.11082371
147	0x3c909991	0.017651351
148	0x3d4e6a0b	0.0503941
149	0x3cdf2a7a	0.027241934
150	0x3d2358c6	0.039879583
151	0x3d174a43	0.036936056
152	0x3d3d702a	0.046249546
153	0x3c7f32b2	0.015576052
154	0xb9317ce5	-0.00016926562
155	0x3d062ec2	0.032759435
156	0x3b22af96	0.0024823896
157	0x3d746bbe	0.059673063
158	0xbe3fe0e0	-0.18738127
159	0x3b264d67	0.0025375725
160	0x3cdb4df9	0.026770579
161	0xbafadf3c	-0.0019140015
162	0x3d3b6ebe	0.04575991
163	0x3d8238c0	0.063584805
164	0x3c2a3b7f	0.010390162
165	0x3d290cc9	0.04127196
166	0x3d86ba0e	0.06578456
167	0x3d8a3718	0.067487895
168	0x3d6494f7	0.055806126
169	0x3e35585e	0.1770949
170	0x3e072c2f	0.13200448
171	0xbb823e89	-0.00397474
172	0xbc4f9cc7	-0.012671656
173	0xbb9dd8fd	-0.004817127
174	0x3e0cc79c	0.1374802
175	0x3d7a2c39	0.06107733
176	0x3d205635	0.039144713
177	0x3e59b070	0.21258712
178	0x3d5b9c81	0.05361605
179	0xbc8824df	-0.016619144
180	0x3cfd07dd	0.030887539
181	0xbc495a32	-0.012289571
182	0x3c6e8ac6	0.014559453
183	0xbdea16de	-0.11430143
184	0x3d4d6f9d	0.05015527
185	0x3d32007e	0.0434575
186	0x3d9b457b	0.07581612
187	0x3d66e015	0.056366045
188	0xbcad4ac1	-0.02115381
189	0xbc52da06	-0.012869364
190	0x3d9fa333	0.077948
191	0x3d6edb88	0.05831483
192	0xbb9f4a1d	-0.00486113
193	0x3a542e2e	0.00080940395
194	0x3cbfd01a	0.02341466
195	0x3bfb1c33	0.0076632737
196	0xbd535853	-0.051597904
197	0xbc32923b	-0.010899122
198	0x3c8ca009	0.017166154
199	0x3d6cd159	0.057816837
200	0xbd9131f0	-0.07089603
201	0xbdede251	-0.11615432
202	0x3a98a7d2	0.0011646694
203	0xbb97bc95	-0.004630635
204	0x3c79babf	0.015242278
205	0x3d7225cc	0.059118077
206	0x3c3004c2	0.010743322
207	0xbc350b83	-0.011050108
208	0xbbedd1c0	-0.00725767
209	0xbceb8326	-0.02874906
210	0xbc413ded	-0.011794549
211	0x3c00b643	0.007855955
212	0x3b8f01f1	0.004364245
213	0x3d4da87f	0.05020952
214	0xbd0c1f18	-0.03420934
215	0x3c056653	0.008142072
216	0xbddd62b8	-0.10809845
217	0x3ba8e8ca	0.0051547037
218	0xbe3cac49	-0.18425097
219	0xbd79789d	-0.06090604
220	0xbbf35569	-0.007425953
221	0x3b002274	0.0019551786
222	0xbce6b7cc	-0.028163813
223	0xbc445baf	-0.01198475
224	0xbe211699	-0.15731277
225	0xbdc6c9ca	-0.09706457
226	0x3cc32887	0.023823036
227	0x3c00c0bc	0.007858451
228	0x3cf77b44	0.030210145
229	0xbc51244e	-0.012765003
230	0xbd8a4e93	-0.06753268
231	0xbd9539fe	-0.07286452
232	0xbd6f7b93	-0.05846746
233	0xbc4c2a18	-0.012461208
234	0x3cf50a73	0.02991221
235	0x3b345905	0.002751888
236	0xbd46d253	-0.048540425
237	0x3d24ab58	0.04020247
238	0x3b8f98a6	0.004382211
239	0xbd97ab8b	-0.07405766
240	0xbc125cca	-0.008933255
241	0x3d0b591c	0.03402053
242	0x3c511afb	0.01276278
243	0x3c8f1faa	0.017471153
244	0x3cef085f	0.029178796
245	0xbd2e2bc8	-0.04252222
246	0xbdfd5942	-0.1237054
247	0x3b2a21e0	0.0025960132
248	0x3d1c3a4d	0.038141537
249	0xbbc967de	-0.006146415
250	0x3c21f2c6	0.009884542
251	0xbd5dbda8	-0.05413595
252	0xbda72238	-0.081608236
253	0x3bded312	0.006800064
254	0xbda167da	-0.07881136
255	0xbd9e4452	-0.07727875

update_node_embedding_layer.1.update_layer.weight f4 [64, 128]
0	0xbc268ff5	-0.010166158
1	0xbd3fb4bc	-0.04680322
2	0xbac55226	-0.0015054389
3	0x3e1073e2	0.14106706
4	0xbda93544	-0.08262113
5	0x3c9ab3be	0.018884536
6	0xbd2f4b73	-0.042796563
7	0xbd56cb1a	-0.052439786
8	0xbd126878	-0.03574416
9	0xbe67d4f9	-0.22639836
10	0xbd45fac0	-0.048334837
11	0xbd8c5d58	-0.068537414
12	0xbd828006	-0.06372075
13	0xbd8cf3a3	-0.068824075
14	0xbb92f88b	-0.004485195
15	0x3d2e8a8a	0.04261259
16	0x3e3a3b23	0.18186621
17	0x3b232a3a	0.0024896995
18	0x3e0aec06	0.13566598
19	0xbda2c9c9	-0.07948644
20	0x3d639533	0.05556221
21	0xbd9ffef1	-0.07812298
22	0xbd4e1c96	-0.05032023
23	0xbd8b6b50	-0.068075776
24	0xbd461b52	-0.0483659
25	0x3c242e54	0.010020811
26	0xbbb2740e	-0.0054459637
27	0xbd52b15b	-0.05143867
28	0x3c24e36e	0.010063989
29	0x3d46af01	0.04850674
30	0xbbfb9897	-0.0076781022
31	0x3cadf0f4	0.02123306
32	0x3d5d400d	0.05401616
33	0x3bdc7285	0.006727519
34	0xbd82bd34	-0.06383744
35	0x3d6f7428	0.058460385
36	0xbb954743	-0.004555614
37	0x3d7616b7	0.060080256
38	0xbdcea39f	-0.10089802
39	0x3d69ed34	0.05711098
40	0xbdb5f1c2	-0.08884002
41	0x3e12ec59	0.14347972
42	0x3e2e4f25	0.17022379
43	0x3bb91745	0.005648526
44	0xbbc8d559	-0.0061289486
45	0x3b8978b8	0.004195299
46	0x3c1f8e22	0.009738477
47	0x3d8d7645	0.06907324
48	0xbd86b1c9	-0.065768786
49	0x3e871fab	0.26391348
50	0xbd3ddea0	-0.04635489
51	0x3c491a5b	0.01227435
52	0xbd772ee7	-0.060347464
53	0x3c14888f	0.009065761
54	0x3e058685	0.13039596
55	0xbd015c8f	-0.03158241
56	0x3d92b98a	0.07164295
57	0x3d36f6ed	0.04466908
58	0xbd4af4bc	-0.049549803
59	0xbd270266	-0.04077377
60	0x3a7d4e04	0.00096628093
61	0x3be62b40	0.007024199
62	0x3c878daf	0.016547052
63	0x3e5fb965	0.21848066
64	0x3ca93a5f	0.020657716
65	0x3dcc32a5	0.09970597
66	0xbb6ab103	-0.0035811074
67	0x3c349cd8	0.011023723
68	0xbc16ca57	-0.009203515
69	0x3c06695c	0.008203831
70	0x395e820a	0.00021220013
71	0x3da2f392	0.079566136
72	0xbb9fdc16	-0.004878531
73	0x3c483d97	0.012221715
74	0x3b7b1cf3	0.0038316816
75	0x3c4e2b3b	0.012583549
76	0xbbfe346e	-0.007757715
77	0xbb00aab7	-0.0019633004
78	0x3bd6f88c	0.006560391
79	0x3b3525f9	0.0027641042
80	0x3bc1a399	0.005909395
81	0xbba90a25	-0.00515868
82	0x3caad24b	0.020852229
83	0x3ce6d928	0.02817972
84	0x3c83b20c	0.01607611
85	0xbc7831bf	-0.015148579
86	0x3cac1045	0.021003852
87	0x3c759995	0.01499023
88	0xbe4c1788	-0.19930851
89	0x3de45db3	0.11150684
90	0x3d0d97ba	0.034568526
91	0xbbc5e871	-0.006039672
92	0x3c0b0ba4	0.008486662
93	0x3cc3328a	0.02382781
94	0x3d48c474	0.049015477
95	0x3ac92cc8	0.0015348429
96	0x39a462a2	0.00031354005
97	0x3b8a4b18	0.0042203777
98	0x3cfb51b8	0.030678615
99	0xbbc78e69	-0.0060899747
100	0x3d098602	0.033575065
101	0x3c1f09cc	0.009706926
102	0xbc437028	-0.011928596
103	0xbb52ada2	-0.003214695
104	0x3c935bcf	0.017988114
105	0xbdb675d2	-0.08909191
106	0xbb35b2aa	-0.00277249
107	0xb925baff	-0.00015805288
108	0xbca84f37	-0.020545585
109	0x3c82c776	0.015964251
110	0x39afb12d	0.00033510607
111	0x3c317825	0.010831867
112	0x3c6fb8cb	0.01463146
113	0xba2eb78a	-0.00066649227
114	0x3c4d55e2	0.012532683
115	0x39eaa57c	0.00044755253
116	0xbba19ef3	-0.0049322783
117	0xbc83efa1	-0.016105475
118	0x3be80802	0.0070810327
119	0xbc929987	-0.017895473
120	0x3c110acf	0.008852675
121	0x3cd09b92	0.025464807
122	0x3bee4c79	0.0072723
123	0xbe162551	-0.14662673
124	0x3d66defb	0.056364994
125	0xbb017da6	-0.001975873
126	0x3c4ef550	0.012631729
127	0x3bcf2913	0.006322035
128	0xbc31fcae	-0.010863466
129	0x3bf13acc	0.0073617455
130	0xbbe64c54	-0.007028142
131	0xbd5f71bd	-0.05455183
132	0x3b334f50	0.0027360506
133	0xbc2bbcdb	-0.010482038
134	0xbd15e594	-0.036595896
135	0x3c29aa93	0.0103556095
136	0x3c520b6d	0.012820107
137	0x3d91f5df	0.07126974
138	0xbbd2b962	-0.0064307908
139	0xbcca2085	-0.02467371
140	0x3bd33663	0.0064456924
141	0xbb778e2d	-0.0037773952
142	0x3c07173a	0.008245284
143	0xbebc6076	-0.36792344
144	0xbdae0673	-0.08497324
145	0x3c5b41d7	0.013382397
146	0xbda89071	-0.08230675
147	0x3c05fee9	0.008178451
148	0xbe9a330a	-0.30117065
149	0x3c3b8892	0.011446135
150	0x3d024d88	0.03181222
151	0x3b01b63d	0.001979246
152	0xbc81f1ce	-0.015862372
153	0x3b333973	0.0027347475
154	0xbbcc1bdd	-0.0062289075
155	0xbc461ed4	-0.012092311
156	0xbc2278ec	-0.009916525
157	0xbea57d30	-0.32322073
158	0x3bb6c81a	0.005578053
159	0xbc8d723a	-0.017266382
160	0xbeb843aa	-0.35989124
161	0x3c080b1b	0.008303429
162	0xbc34d130	-0.011036202
163	0xbe99d5c6	-0.3004591
164	0x3adf58fc	0.0017040069
165	0xbe9406c2	-0.28911406
166	0xbd57a51c	-0.052647695
167	0xbea53b8f	-0.32272002
168	0xbc02e2b8	-0.007988624
169	0xbe9496f4	-0.29021418
170	0xbe0c771e	-0.13717315
171	0xbc324404	-0.010880474
172	0xbc45395d	-0.012037602
173	0x3b9c56e4	0.0047711004
174	0xbe71d058	-0.23614633
175	0xbe7e8ac0	-0.24857616
176	0x3c8638be	0.016384479
177	0xbea9528c	-0.3307079
178	0x3c1abcc2	0.009444417
179	0x3b963bb6	0.004584755
180	0xbc8a42a4	-0.01687748
181	0xbb3c5121	-0.002873488
182	0xbda33d54	-0.07970682
183	0x3c49f3aa	0.01232616
184	0xbe74d177	-0.2390803
185	0xbe998169	-0.29981545
186	0xbcea819d	-0.028626258
187	0xbd0564da	-0.032566883
188	0xbbda0b71	-0.006654196
189	0xbb6f29c1	-0.0036493393
190	0xbdd12c22	-0.10213496
191	0x3c90fe6c	0.017699443
192	0xbc38e5c0	-0.011285245
193	0x3d180138	0.037110537
194	0x3c73822f	0.014862581
195	0x3d0119b4	0.031518653
196	0xbc7c5fc0	-0.015403688
197	0x3ce5b149	0.028038638
198	0x3cce275e	0.025165256
199	0x3d7629a6	0.060098313
200	0x3b5ea2fc	0.0033971658
201	0xbac03824	-0.0014665169
202	0x3bbe9fe9	0.0058174026
203	0x3d02e743	0.03195883
204	0xbc900a92	-0.017583165
205	0xbc8cbba9	-0.017179327
206	0x3bed3480	0.0072389245
207	0xbbd4dafb	-0.006495831
208	0x3cdab1a4	0.026696034
209	0x3c3d426c	0.011551481
210	0xbb3795b7	-0.002801282
211	0x3c9366f6	0.017993432
212	0xbc97fb49	-0.01855244
213	0x3a04d076	0.00050664635
214	0x3cbef9b4	0.023312427
215	0x3cffcaf7	0.03122471
216	0xbce1f2a4	-0.02758152
217	0x3dc3c2d4	0.09558645
218	0x3cbf6916	0.023365539
219	0xbb59312b	-0.0033140879
220	0x3c135d9d	0.008994487
221	0x3cb9154c	0.022593163
222	0x3c620b9d	0.013796714
223	0x3bad01dc	0.0052797627
224	0x3c307a39	0.010771328
225	0x3aae5801	0.0013301374
226	0x3b8701cb	0.004120087
227	0xbc68d87c	-0.01421177
228	0x3d72c8e3	0.05927361
229	0x3d03d72f	0.032187637
230	0xb993a20a	-0.00028158753
231	0xbbc1ec3b	-0.0059180534
232	0x3b9b3a4a	0.004737173
233	0xbd641eba	-0.055693366
234	0xbc478978	-0.012178771
235	0xbc1d9c8b	-0.009619842
236	0xbbebe66f	-0.0071991007
237	0x3d64aeae	0.05583065
238	0x3b4f4cbc	0.003163143
239	0xbe103c34	-0.14085466
240	0x3b74ae4f	0.0037335341
241	0x3c73f00b	0.014888774
242	0x3c371986	0.011175519
243	0x3c7b0884	0.0153218545
244	0x3d0cb69e	0.034353845
245	0xbb358e57	-0.002770325
246	0x3d105768	0.035239607
247	0xb76eba72	-1.4229316e-05
248	0xbb70bd87	-0.003673406
249	0x3c8d4844	0.017246373
250	0x3d5031c6	0.050828718
251	0xbdb9d05e	-0.09072946
252	0x3d58f87c	0.05297135
253	0x3c6664fa	0.014062161
254	0x3ccf7145	0.025322566
255	0x3cdf53f5	0.027261714
