ER_200spin/eco/network/network10000000.pth (torch, 238273 bytes, 11 tensors)

node_init_embedding_layer.0.weight f4 [64, 7]
0	0x3d21a893	0.039467406
1	0xbe869504	-0.26285565
2	0xbebaa062	-0.36450487
3	0xbd731213	-0.05934341
4	0x3ad3d0ca	0.0016160246
5	0xbaba1d81	-0.0014199467
6	0x3d8a9266	0.067662045
7	0x3c616240	0.013756335
8	0xbe3027d2	-0.1720269
9	0xbcd52cb8	-0.0260223
10	0x3da89a60	0.0823257
11	0xbdcb575b	-0.09928771
12	0x3dab4f29	0.08364708
13	0x3d16d5d2	0.03682501
14	0x3ccd42ed	0.025056327
15	0x3ee4de64	0.4470092
16	0xbc8febcf	-0.017568497
17	0xbd209de9	-0.039213095
18	0x3a3c6c28	0.00071877474
19	0xbcdfd1e7	-0.027321769
20	0x3d1f68f9	0.03891847
21	0xbd46b905	-0.048516292
22	0x3ef99564	0.48746789
23	0x3cafd2e0	0.021462858
24	0x3d4d50e5	0.050125975
25	0x3ac4f8f2	0.0015027805
26	0x3c481414	0.012211818
27	0x3d44b9a0	0.04802859
28	0xbbc981b0	-0.006149493
29	0xbb7f7c43	-0.0038983978
30	0xbc218543	-0.009858432
31	0xbc35e581	-0.011102081
32	0xbc314120	-0.01081875
33	0xbb77b1a6	-0.0037795096
34	0xbc79626c	-0.0152212195
35	0xbc35ae95	-0.011088987
36	0xbb5aad71	-0.003336754
37	0xbb09d2e0	-0.0021030232
38	0xbb2f15e3	-0.0026715926
39	0xbc590bb4	-0.013247419
40	0xbc86b436	-0.016443353
41	0xbbb2f8e5	-0.0054617994
42	0x3d172ae8	0.036906153
43	0x3f071eb8	0.5278125
44	0xbab106af	-0.001350602
45	0xbdc0c78b	-0.0941306
46	0xb82c9c89	-4.115378e-05
47	0xbd63800d	-0.05554204
48	0x3bd5f90f	0.0065299342
49	0x3c029af0	0.00797151
50	0xbe5b465f	-0.21413563
51	0xbf337642	-0.7010232
52	0x3e87fe3f	0.26561162
53	0x3aef8ea2	0.0018276761
54	0x3daf66c4	0.08564523
55	0x3d749aaa	0.05971781
56	0x3d88107e	0.06643771
57	0xbeb98247	-0.36232206
58	0x3db5016a	0.0883816
59	0x3e4681dd	0.19385476
60	0xbaec2c2c	-0.0018018535
61	0x3d5be038	0.05368063
62	0x3d36f968	0.044671446
63	0x3d38a1bc	0.045076117
64	0x3f04de9f	0.5190219
65	0x3cc67451	0.024225386
66	0x3cf082cb	0.029359242
67	0xba2d7c4c	-0.0006617948
68	0xbbbc293e	-0.005742221
69	0xbd1ca8d1	-0.038246933
70	0xbd0828a7	-0.033241894
71	0x3ed9c5f9	0.42533854
72	0x3d86c0a0	0.06579709
73	0x3e078961	0.13236
74	0xbb549875	-0.0032439504
75	0x3ca3f986	0.020016443
76	0x3cc7f874	0.024410464
77	0xbd3ee2b2	-0.046602912
78	0x3eb7409f	0.3579149
79	0xbe3120b9	-0.17297639
80	0x3c73f524	0.014889989
81	0x3ab4e4cf	0.00138011
82	0xbb28f8a9	-0.0025782979
83	0xbe9b6412	-0.30349785
84	0x3d41c49b	0.04730664
85	0x3f0c02bc	0.5469167
86	0xba508b49	-0.00079553254
87	0xbd892b0e	-0.06697665
88	0xb6a01ea3	-4.771938e-06
89	0x3cc3d28f	0.023904113
90	0x3c6f0034	0.014587451
91	0x3d1dc10e	0.03851419
92	0xbec3f71b	-0.38274464
93	0xbd03326a	-0.0320305
94	0x3d83a13d	0.06427238
95	0x3a5a8552	0.00083359063
96	0xbcc1585a	-0.0236017
97	0x3bdf1260	0.0068076104
98	0x3d3ffde6	0.046872996
99	0xbeab4892	-0.33453804
100	0xbcc4a4e6	-0.024004411
101	0x3df0a922	0.117510095
102	0xbb224404	-0.0024759779
103	0x3a70a787	0.0009180237
104	0x3cbe3853	0.023220217
105	0x3c2073f3	0.009793269
106	0x3d34b748	0.044120103
107	0xbe3f2883	-0.18667798
108	0x3dccc694	0.09998813
109	0xbb74661e	-0.0037292312
110	0x3ca424c1	0.020037057
111	0xbe830132	-0.2558685
112	0x3d9011e8	0.07034665
113	0xbe4b1bba	-0.19834796
114	0xbe17062f	-0.14748453
115	0x3dd2a944	0.10286191
116	0xbcb73807	-0.022365583
117	0x3d962458	0.07331151
118	0xbdbab5f6	-0.091167375
119	0xbda0550e	-0.07828723
120	0x3edf799c	0.43647468
121	0x3d2f3015	0.042770464
122	0x3c9cfa44	0.019162305
123	0xb8bbdf97	-8.958502e-05
124	0x3d3c4c92	0.04597146
125	0x3d449535	0.047993857
126	0x3d67124d	0.056413937
127	0xbef95ef4	-0.48705256
128	0xbc198e69	-0.009372332
129	0x3e038f07	0.1284753
130	0x3c04222a	0.008064786
131	0x3b56bc95	0.0032766212
132	0x3d55621e	0.052095525
133	0xbda549d4	-0.08070722
134	0x3ee081cd	0.4384903
135	0x3d8ef524	0.069803506
136	0x3de9d4fc	0.11417577
137	0xbae9d7f7	-0.0017840852
138	0x3ccb7a8e	0.024838712
139	0x3c548084	0.012970094
140	0x3d2fa05c	0.04287754
141	0x3f0998f4	0.5374901
142	0x3cf7e7d8	0.030261919
143	0xbb2ab022	-0.0026044925
144	0xb9d051b3	-0.00039733722
145	0x3b98e629	0.004666109
146	0xbcd2dbd7	-0.025739593
147	0x3d640fd8	0.055679172
148	0xbeee5148	-0.46546388
149	0x3cd3198e	0.025769021
150	0x3e14a3aa	0.14515558
151	0xb9c50bc6	-0.0003758354
152	0x3c8325c4	0.016009219
153	0x3d300fe4	0.042983904
154	0x3cb234f3	0.021753764
155	0xbe35d6c8	-0.17757714
156	0x3dc4bf17	0.0960676
157	0xbcac8705	-0.021060476
158	0xbd48cfb8	-0.04902622
159	0x3dba2cc6	0.09090571
160	0xbd239efe	-0.03994655
161	0xbc5757b9	-0.013143473
162	0xbe67d850	-0.2264111
163	0x3e596743	0.21230797
164	0x3dec3381	0.11533261
165	0xbb36b59b	-0.0027879241
166	0x3d38381a	0.044975378
167	0x3dbc853f	0.09205102
168	0x3d493d45	0.049130697
169	0xbe87f6f2	-0.26555592
170	0x3d9f1482	0.077675834
171	0x3ee2e4d2	0.443152
172	0x3b8b2aca	0.004247044
173	0x3dc03c20	0.09386468
174	0xbc2b1b85	-0.010443573
175	0xbdab840d	-0.08374796
176	0x3ed575b1	0.41691354
177	0x3d8b3e22	0.0679896
178	0x3d5b8188	0.053590328
179	0xbab4c454	-0.001379142
180	0x3d08cd52	0.033398934
181	0xbceb8035	-0.028747657
182	0x3d6c0d87	0.05763009
183	0x3f0f2c2f	0.55926794
184	0x3cd0b939	0.025478946
185	0x3ce32982	0.027729753
186	0xba4cc75e	-0.00078116904
187	0x3d056bbb	0.032573443
188	0xbc34f9b9	-0.011045867
189	0xbb020dd5	-0.001984467
190	0x3b4a300a	0.0030851387
191	0x3a8fa26c	0.001095844
192	0xbc1a8f5b	-0.009433593
193	0xbbb782cb	-0.0056003085
194	0xbb8eda4b	-0.0043595186
195	0xbc28bf61	-0.010299535
196	0x3d2cc575	0.042180497
197	0x3ef59c7f	0.4797096
198	0x3cd24ae2	0.025670473
199	0x3a177d0a	0.0005778825
200	0xb9f899bd	-0.0004741679
201	0xba2bc959	-0.00065531355
202	0xbd1ad284	-0.03779842
203	0x3d79c7a7	0.06098142
204	0xbee602f9	-0.44924143
205	0x3b837b92	0.0040125335
206	0x3debc796	0.11512677
207	0x3af8ae1e	0.0018972789
208	0x3d48d257	0.04902872
209	0x3c636b5f	0.01388058
210	0x3d1647ff	0.036689755
211	0xbe5a018a	-0.2128965
212	0xbca55236	-0.020180803
213	0xbe444499	-0.19166793
214	0xb9d3a17b	-0.00040365368
215	0x3de361a9	0.111026116
216	0xbcd71c50	-0.026258618
217	0xbd8b42ac	-0.06799826
218	0xbe9c31df	-0.305068
219	0x3cee49e2	0.029087964
220	0x3e3bf799	0.1835617
221	0xbc4122d5	-0.01178809
222	0x3d0e8628	0.03479591
223	0x3d306351	0.043063466
224	0xbb2121a7	-0.0024586709
225	0x3c26a3b0	0.010170862
226	0xbb805488	-0.003916327
227	0xbc919d5c	-0.01777523
228	0xbb82edb8	-0.0039956234
229	0xbc087b47	-0.008330173
230	0xbb21649d	-0.002462662
231	0x3b9788f1	0.004624479
232	0x3e0e8129	0.13916458
233	0xbecc5861	-0.39911178
234	0x3c37809d	0.011200097
235	0x39cc566e	0.00038974307
236	0x3be627a9	0.007023771
237	0xbee4d884	-0.44696438
238	0x3ce9ed9f	0.02855569
239	0x3ef27504	0.473549
240	0x3b6ab5b3	0.0035813868
241	0xbca3e83d	-0.0200082
242	0x3b0eb0e7	0.0021772922
243	0x3d1fcd2d	0.03901403
244	0x3c9a3524	0.018824168
245	0xbb445647	-0.0029958652
246	0x3b926890	0.004468031
247	0xbc35c51a	-0.011094356
248	0xbc3e6e0f	-0.01162292
249	0xbc364a1e	-0.011126069
250	0xbbcee017	-0.0063133347
251	0xbad7b7f7	-0.0016458024
252	0x3b30a7db	0.0026955518
253	0xbe2cf410	-0.16889977
254	0xbe8ac8ea	-0.2710641
255	0x3e079d29	0.13243546

edge_embedding_layer.edge_embedding_NN.weight f4 [63, 8]
0	0x3cb6c624	0.022311278
1	0x3caa9799	0.02082424
2	0x3eb95850	0.3620019
3	0xbd71f24e	-0.05906897
4	0xbd3bae18	-0.045820326
5	0xbd9a29e0	-0.07527518
6	0xb988091e	-0.00025946734
7	0xbd914d48	-0.07094818
8	0xbc2291da	-0.009922469
9	0xbc308984	-0.010774974
10	0xbb8d67a7	-0.004315335
11	0xbb161a0b	-0.0022903706
12	0x3c12afd5	0.008953054
13	0xbcb5f926	-0.02221353
14	0xbc79e019	-0.015251183
15	0x3c0472b8	0.008083992
16	0x3cc14627	0.023593022
17	0x3c62f057	0.013851247
18	0x3eb0f9ff	0.34565732
19	0xbd7bb01d	-0.06144725
20	0xbc73e910	-0.014887109
21	0xbc4cf5b7	-0.012509755
22	0x3b56b420	0.0032761171
23	0xbbc79d49	-0.006091748
24	0x3d558794	0.05213125
25	0x3d2f4631	0.04279155
26	0x3ead267f	0.33818433
27	0xbe3acd87	-0.18242465
28	0xbd8e5796	-0.069502994
29	0x3b2451b4	0.0025073113
30	0x3d4d2195	0.050080854
31	0xbd2f1368	-0.042743117
32	0xbc765733	-0.015035438
33	0xbbdcdea1	-0.0067404066
34	0x3c7c1de9	0.0153879905
35	0xbc711abd	-0.014715848
36	0xbc20fc8f	-0.00982584
37	0xbac778db	-0.0015218513
38	0xbab5c1b9	-0.0013866938
39	0xbb08a058	-0.0020847525
40	0xbc2a87bb	-0.010408337
41	0xba1a6be9	-0.00058907137
42	0x3b21fb4a	0.002471643
43	0xbb89685c	-0.004193349
44	0x3b376976	0.0027986444
45	0xbc5eb404	-0.013592724
46	0x3c3dafbd	0.011577544
47	0x3b304c3d	0.002690091
48	0xbb6044b9	-0.003422065
49	0xbd8d6a00	-0.069049835
50	0xbe4aef9d	-0.19817968
51	0x3dfe950c	0.12430772
52	0xbd17ea4c	-0.037088677
53	0xbcf067e4	-0.029346414
54	0xbe0301a8	-0.127936
55	0x3d808d91	0.06277002
56	0xbaa16ee7	-0.0012316377
57	0x3b5fb7dd	0.003413669
58	0xbe8662f5	-0.26247373
59	0x3e391b01	0.18076707
60	0x3df27a6f	0.118397586
61	0x3c8ca552	0.017168675
62	0xbbf41158	-0.0074483566
63	0x3e02ccd5	0.1277345
64	0x3b724040	0.0036964566
65	0xbe362a0e	-0.1778948
66	0xbe826b8b	-0.25472674
67	0x3df3300c	0.118743986
68	0x3de5f044	0.11227468
69	0x3a483009	0.00076365523
70	0xba0b9b98	-0.00053256145
71	0x3dbbacfe	0.09163855
72	0x3b16f054	0.002303143
73	0xbdbb351a	-0.09140988
74	0xbe71dd44	-0.23619562
75	0x3e0480fe	0.12939832
76	0x3d0ed547	0.034871366
77	0x3cac1307	0.021005167
78	0xbd47f767	-0.048819926
79	0x3de6745c	0.112526625
80	0xbcc804c5	-0.024416337
81	0xbbd402d7	-0.006470065
82	0xbe6dbccf	-0.23216556
83	0x3e186762	0.14883187
84	0x3dee5619	0.116375156
85	0x3c0a775e	0.008451311
86	0x3b279741	0.0025572332
87	0x3dcc2b6f	0.09969222
88	0xba078721	-0.0005169977
89	0xba95eb46	-0.0011437915
90	0xbacf199f	-0.0015800482
91	0xbc3ed8e9	-0.011648395
92	0xbc0960e9	-0.008384922
93	0xbc9bb220	-0.019005835
94	0xbcadfc9e	-0.021238621
95	0xbb4d5313	-0.0031330034
96	0xbc40debb	-0.011771853
97	0xbbd385ff	-0.0064551826
98	0xbc999342	-0.018746976
99	0x3c0c41de	0.008560626
100	0xbb3b6b8e	-0.0028598043
101	0xbc5799c0	-0.013159215
102	0x3ac1615c	0.0014753747
103	0xbb5d917b	-0.0033808637
104	0x3d5247fd	0.051338185
105	0x3c99e1e0	0.018784463
106	0x3ea7b231	0.32753137
107	0xbe09fae4	-0.13474613
108	0xbcb71e4a	-0.02235331
109	0xba03f34e	-0.00050335086
110	0x3d4b1e84	0.04958965
111	0xbe067d58	-0.13133752
112	0xbc89dbb2	-0.016828392
113	0xbd8c7a97	-0.0685932
114	0xbe6d4918	-0.23172414
115	0x3e02c584	0.12770659
116	0x3d4a1ed0	0.04934579
117	0x3c3738e1	0.011182995
118	0xbeaca300	-0.3371811
119	0x3dd2e504	0.102975875
120	0x3d878b3f	0.06618356
121	0x3d46faa4	0.048578873
122	0x3ea752f7	0.32680485
123	0xbe3d4de9	-0.18486752
124	0xbdeaa834	-0.114578635
125	0x3bcaad9b	0.006185246
126	0x3d6a7764	0.057242766
127	0xbd9bc609	-0.076061316
128	0xbc9f0f19	-0.019416379
129	0xbd30fc4f	-0.04320937
130	0xbe633a96	-0.22190318
131	0x3e183f5d	0.14867921
132	0x3dedbfbc	0.11608836
133	0xbba44deb	-0.0050141714
134	0x3cba62ce	0.022752192
135	0x3d9513d1	0.0727917
136	0x3d20ef34	0.039290622
137	0x3c0019d4	0.007818658
138	0x3eb9b117	0.3626792
139	0xbdb78657	-0.0896117
140	0x3d17327d	0.036913384
141	0xbaae5864	-0.0013301489
142	0x3cdd2891	0.026996883
143	0xbd84cd26	-0.064844415
144	0x3d41fca8	0.047360092
145	0xbb500419	-0.0031740724
146	0x3eb1dbbe	0.34737962
147	0xbe097b18	-0.13425863
148	0xbc1846b8	-0.009294204
149	0x3be09e79	0.006854829
150	0x3d0bc582	0.034123905
151	0xbe106d42	-0.14104179
152	0xbc583933	-0.013197231
153	0xbd8a8989	-0.06764514
154	0xbe4a17e0	-0.1973567
155	0x3e00fb4c	0.12595862
156	0x3e26e86b	0.16299598
157	0xbba14edd	-0.0049227313
158	0xbd2071e3	-0.03917111
159	0x3d85e143	0.06537106
160	0xbabd41d8	-0.0014439179
161	0xbc205429	-0.00978569
162	0x3b1d0c6d	0.0023963705
163	0x3aa9ed3d	0.0012964379
164	0xbaa46acd	-0.0012544036
165	0xb9275185	-0.0001595673
166	0xbbe7546f	-0.007059626
167	0xbc163b4d	-0.009169412
168	0xbc4e7420	-0.012600929
169	0xbd24152c	-0.040059254
170	0xbe6611c5	-0.22467716
171	0x3e079771	0.13241364
172	0x3e0f7181	0.14008142
173	0xbbe62d49	-0.0070244414
174	0x3c3b4a36	0.0114312675
175	0x3d8d1a81	0.06889821
176	0x3d4343f8	0.047672242
177	0x3d394f3f	0.04524159
178	0x3eaea421	0.34109595
179	0xbe54fd8a	-0.20799842
180	0xbd372c7e	-0.044720165
181	0xbb286f62	-0.0025701155
182	0x3d505aae	0.05086773
183	0xbc956ada	-0.018239427
184	0xbac274e0	-0.0014835857
185	0xba8e844b	-0.0010873167
186	0x39d1eda0	0.0004004063
187	0x3b001626	0.0019544451
188	0xbc923157	-0.017845793
189	0xbbb0dbb9	-0.0053972867
190	0xbb3423de	-0.0027487199
191	0xbb7c7255	-0.0038520296
192	0x3d8d3ccf	0.06896364
193	0x3d14e9bf	0.03635573
194	0x3eaafa09	0.33393887
195	0xbe644643	-0.22292428
196	0xbe08d6f9	-0.13363256
197	0x3c16f6ef	0.009214147
198	0x3d15915b	0.036515575
199	0xbd9a109c	-0.07522699
200	0x3cf65fdb	0.030075004
201	0xbaada72a	-0.0013248671
202	0x3eb0f842	0.34564406
203	0xbeacd49e	-0.33755964
204	0xbcdd5e7e	-0.027022596
205	0x3c790ceb	0.015200834
206	0x3ccbd3c2	0.024881247
207	0xbeaba64b	-0.3352531
208	0xbc060378	-0.008179538
209	0xbc8faccf	-0.017538456
210	0xbe657161	-0.22406532
211	0x3e25d77f	0.16195486
212	0x3c92078c	0.017825864
213	0x3bc22009	0.005924229
214	0xbecea853	-0.40362796
215	0x3de131df	0.1099584
216	0x3d66a476	0.056309186
217	0x3c7dd965	0.015493725
218	0x3ea8fa7c	0.33003604
219	0xbe2bae8b	-0.16765802
220	0x3d28af76	0.041182958
221	0xba386219	-0.00070336607
222	0x3d258f10	0.04041964
223	0xbd86cd6d	-0.065821506
224	0xbc72cea2	-0.014819773
225	0xbc72e95d	-0.014826146
226	0xbc8821f8	-0.01661776
227	0xbc7a36e5	-0.015271877
228	0xbbf97fbc	-0.007614104
229	0xbc45d3ce	-0.012074424
230	0xbc541806	-0.012945181
231	0xbc2c6b4a	-0.010523627
232	0xbbba7755	-0.005690495
233	0xbda07dfe	-0.07836531
234	0xbe52bf43	-0.20580773
235	0x3e2a6dcb	0.16643445
236	0x3df112b9	0.11771149
237	0x3b894b43	0.00418988
238	0xbe2761ab	-0.16345851
239	0x3dcf6db4	0.10128346
240	0x3d3b59f7	0.045740094
241	0x3d3d35de	0.04619395
242	0x3ea85b5d	0.32882205
243	0xbe5e60dc	-0.21716636
244	0xbd817669	-0.06321413
245	0xb9281c85	-0.00016032353
246	0x3d5e07d0	0.05420667
247	0xbc05606b	-0.008140664
248	0x3cdf6a2e	0.02727231
249	0xbca2d1ba	-0.019875396
250	0x3ec2f2bc	0.38075817
251	0xbeaf45b9	-0.34232882
252	0xbd7c846b	-0.06164972
253	0xbc343798	-0.010999583
254	0x3c845b00	0.016156673
255	0xbebae6f6	-0.36504334

edge_embedding_layer.edge_feature_NN.weight f4 [64, 64]
0	0x3d340fa7	0.04396024
1	0x3bdaa9ff	0.006673097
2	0x3d172ed2	0.036909886
3	0x3d821539	0.06351704
4	0x3c229df9	0.009925359
5	0x3c06994c	0.00821526
6	0xbd56c1b4	-0.052430823
7	0xbd62e9aa	-0.05539862
8	0xbd2c13a4	-0.04201092
9	0xbcbea016	-0.023269694
10	0xbcfd85e3	-0.030947631
11	0x3aa17491	0.0012318065
12	0xbbb9a833	-0.005665803
13	0x3d9cc7bd	0.076552846
14	0xbcf40b2c	-0.029790483
15	0x3d888df4	0.066677004
16	0xbd2a7bb3	-0.041621875
17	0x3cfef884	0.03112436
18	0x3d1e6459	0.038669918
19	0xbc362d91	-0.011119262
20	0x38e5ccfb	0.000109577515
21	0xbd1b811e	-0.037964933
22	0x3d3fca98	0.046824068
23	0x3b299970	0.002587881
24	0x3d4ca73f	0.049964186
25	0x3e0d399f	0.13791512
26	0xbdafa600	-0.08576584
27	0x3d4ad632	0.04952068
28	0xbb0ea57f	-0.0021766124
29	0xbd67d7c5	-0.05660226
30	0x3d4acb5c	0.049510345
31	0x3e06bf24	0.13158852
32	0xbd66d3d6	-0.056354366
33	0xbd39c00d	-0.04534917
34	0x3dbd07fe	0.0923004
35	0xbc3cf478	-0.011532895
36	0x3d46770d	0.04845338
37	0xbd2193b7	-0.039447512
38	0xbd4d17b4	-0.050071433
39	0x3d816447	0.063179545
40	0xbd1562d3	-0.0364712
41	0x3d5acafc	0.053416237
42	0x3c9a0d31	0.018805118
43	0x3d9ac759	0.07557554
44	0x3b5e7067	0.0033941509
45	0xbca0a4d7	-0.019609852
46	0xbd05863f	-0.03259873
47	0xbb132378	-0.002245156
48	0x3b0960f6	0.0020962334
49	0xbd3e2733	-0.046424102
50	0x3c8e4d97	0.017370982
51	0xbc29b62f	-0.010358377
52	0x3cecc5fd	0.028903002
53	0x3c54a5f9	0.012979024
54	0xbd3423bb	-0.043979388
55	0x3ce573e9	0.028009372
56	0x3d991c5b	0.074761115
57	0x3df53956	0.119738266
58	0x3c182ddc	0.0092882775
59	0x3c9b18cd	0.018932724
60	0x3d178a4a	0.036997117
61	0x3db5c00c	0.08874521
62	0x3d29a1b2	0.04141397
63	0x3d51e601	0.05124474
64	0xbc303ff4	-0.010757435
65	0xbc05461d	-0.008134392
66	0x3acbe4e5	0.0015555887
67	0x3c06c416	0.0082254615
68	0x3afbc13b	0.0019207367
69	0x3b0dc229	0.002163062
70	0x3bf8190b	0.0075713447
71	0x3c0fc407	0.008774764
72	0xbbf16fc0	-0.007368058
73	0xbc05bb90	-0.008162394
74	0xbc43b55a	-0.011945093
75	0x3a0b30f0	0.00053097215
76	0x3c61c0a9	0.013778844
77	0x3bcc8d7b	0.0062424517
78	0x3b309bde	0.0026948373
79	0xbc6ff1ae	-0.014645023
80	0x38ce2614	9.829938e-05
81	0x3bfcbd0f	0.007712967
82	0x3c04536f	0.008076533
83	0xbb091872	-0.0020919112
84	0xbc1671cf	-0.0091824075
85	0xbc1403b8	-0.00903409
86	0xbb964366	-0.0045856712
87	0xbcca8800	-0.024723053
88	0x3bc8d0ac	0.0061283913
89	0x3c2f1bb4	0.010687757
90	0xbc026435	-0.0079584615
91	0xbb3c7db2	-0.0028761444
92	0x3c4cccdb	0.012500013
93	0xbcac9ed0	-0.021071821
94	0x3ba3b3e2	0.004995809
95	0x3b97d3f0	0.004633419
96	0xb86cf069	-5.6490684e-05
97	0xbc7fc71e	-0.015611438
98	0xbc2defb4	-0.010616232
99	0xbb45fb0a	-0.0030209445
100	0xbcbaf724	-0.022822924
101	0x3b9752c7	0.004618022
102	0xbbac1fcd	-0.0052528144
103	0x3c1577d6	0.009122809
104	0x3a1af863	0.00059116463
105	0x3c5081b3	0.012726235
106	0x3b92ae4a	0.0044763433
107	0x3b841c8f	0.0040317248
108	0xbb22c8db	-0.0024838957
109	0xbc4a5853	-0.01235016
110	0xba183dd0	-0.00058075506
111	0x3c88aab7	0.016682966
112	0x3c5be4bb	0.013421233
113	0x3a4147f3	0.0007373087
114	0x3bb4e0f0	0.0055199787
115	0x3b6370ea	0.0034704753
116	0xbcc0dd45	-0.02354301
117	0xbc486df4	-0.012233246
118	0x3b85bdde	0.004081472
119	0xbc9396b4	-0.018016197
120	0xbc0d2da8	-0.008616842
121	0xbbdc8050	-0.006729163
122	0xbbaee179	-0.005336937
123	0x3a03acbd	0.00050229934
124	0x3b6e4b69	0.0036360866
125	0xbb84c5f2	-0.004051917
126	0x3c138cce	0.009005738
127	0xbcf299d2	-0.029614363
128	0x3cd9ba3b	0.02657806
129	0xbbd022fb	-0.0063518262
130	0x3c96d479	0.018411862
131	0x3cdde820	0.027088225
132	0xbc3e3d2e	-0.011611266
133	0xbb84ebc2	-0.004056425
134	0xbbc2301f	-0.0059261466
135	0xbb74ce0d	-0.003735426
136	0x3d2410eb	0.040055197
137	0xbc9e9fd5	-0.019363323
138	0xbc12119e	-0.008915333
139	0x3b10207a	0.0021992014
140	0xbafb3ae3	-0.001916733
141	0x3c07763a	0.0082679335
142	0xbce482b3	-0.027894353
143	0xbb2d097a	-0.0026403354
144	0xbb7bfaf9	-0.0038449152
145	0xbc83ee31	-0.01610479
146	0xbd34f1ec	-0.044176027
147	0xbba1f895	-0.0049429634
148	0xbcc653fd	-0.02420997
149	0x3c5b143b	0.013371523
150	0x3c5f2a07	0.01362086
151	0x3b86e627	0.0041167918
152	0xbcc5a29f	-0.024125395
153	0xbe0aca82	-0.13553813
154	0xbcaab978	-0.020840392
155	0xbd3c541d	-0.045978654
156	0xbbf69535	-0.007525111
157	0xbc4e0ad2	-0.012575822
158	0x3bfa4f20	0.007638827
159	0xbe4a8a62	-0.19779351
160	0x3c44d084	0.012012605
161	0x3c9ba477	0.018999321
162	0xbc163278	-0.009167306
163	0x3d34dee1	0.044157866
164	0x3c9b0053	0.018921053
165	0x3c922a44	0.01784242
166	0x3c68828a	0.014191279
167	0x3cfb887b	0.030704727
168	0x3cd4d317	0.025979562
169	0xbdb52c54	-0.088463455
170	0xbcd3671e	-0.025806006
171	0x3c9960bc	0.018722884
172	0xbb48607b	-0.0030575085
173	0x3d4848e9	0.048897658
174	0x3d60c973	0.054879617
175	0x3c384fd8	0.011249505
176	0xbc58d26b	-0.013233761
177	0x3cc92ab4	0.024556495
178	0xb90d89bd	-0.0001349812
179	0x3c36160b	0.011113654
180	0x3cf54ada	0.029942919
181	0x3acd6703	0.0015670959
182	0x3c9ef0e8	0.019401982
183	0xbd8492ea	-0.06473334
184	0xbcbc9fca	-0.023025412
185	0xbd8012b9	-0.06253571
186	0x3b9e3c1b	0.0048289425
187	0x3c1a18e2	0.009405347
188	0xbcd3fa85	-0.025876293
189	0x3b6c6b86	0.003607483
190	0x3cbbdc2c	0.022932135
191	0x39ca3198	0.00038565393
192	0xbc64669c	-0.01394048
193	0xbbe11e57	-0.006870072
194	0xbc1844c6	-0.009293741
195	0x3c0bc6d4	0.008531291
196	0x3b5b1fe5	0.0033435759
197	0xbc06ab8d	-0.008219612
198	0xbc22d12a	-0.009937564
199	0x35f1eb25	1.8024335e-06
200	0x3bd59b52	0.0065187598
201	0xbacde4c1	-0.0015708433
202	0x3c0ae14f	0.008476569
203	0xbbf11adc	-0.007357938
204	0xbb971dd7	-0.0046117115
205	0x3b13a07e	0.002252608
206	0xbc10207d	-0.008796808
207	0xbb18d0e3	-0.0023317866
208	0xbc8ee465	-0.017442891
209	0x3bc7cc73	0.0060973703
210	0xbc816c24	-0.015798636
211	0xbba69a27	-0.0050842944
212	0x3b87c0a2	0.0041428367
213	0xbb974283	-0.004616083
214	0xb88678ba	-6.412105e-05
215	0xbb1cd23a	-0.0023929016
216	0x3b24f554	0.002517064
217	0xbc288a92	-0.010286944
218	0xbb48f6d8	-0.0030664708
219	0x3c013fed	0.007888776
220	0x3c3181f8	0.01083421
221	0xba960320	-0.0011445023
222	0xbb307756	-0.0026926599
223	0xba8412e0	-0.0010076426
224	0xbc858e08	-0.016303077
225	0x3bea81c1	0.007156581
226	0x3a88d0fb	0.0010438258
227	0x39478a4a	0.00019029636
228	0x3a6bbbd8	0.00089925295
229	0xbbb77335	-0.0055984505
230	0xbbb8831d	-0.0056308643
231	0x390ac7cf	0.0001323514
232	0xbbb30f06	-0.0054644374
233	0xbb89bf46	-0.00420371
234	0x390305e2	0.00012495325
235	0xb95c5f24	-0.00021016278
236	0x3c8fa7c0	0.017536044
237	0x3c8b199f	0.01697999
238	0xbc5d5942	-0.01351005
239	0x3bbb3935	0.0057136067
240	0xba249bc1	-0.00062793127
241	0xb9a491a7	-0.00031389037
242	0x3b473395	0.0030395736
243	0xbc5a2fdb	-0.013317074
244	0xba1649a6	-0.00057330204
245	0x3bb355bd	0.0054728673
246	0xbacdc1cb	-0.0015698014
247	0xbbfbfa05	-0.0076897168
248	0x3c57cca2	0.013171347
249	0xbc5dbc3b	-0.013533647
250	0xb9bc8578	-0.00035957596
251	0xba22f04f	-0.00062156183
252	0xbb065416	-0.0020496896
253	0xbc0deb9f	-0.0086621335
254	0x3bd47b37	0.006484415
255	0xbb9e6e9d	-0.0048349635

update_node_embedding_layer.0.message_layer.weight f4 [64, 128]
0	0xbc9c22c1	-0.01905954
1	0x3ae57d81	0.0017508717
2	0xbc67072d	-0.014100832
3	0xbb8a4754	-0.0042199288
4	0xbc92801a	-0.01788335
5	0x3c3a54a3	0.011372718
6	0x3bfd2931	0.0077258577
7	0x3b6a8d6e	0.0035789865
8	0xbc0ad4cf	-0.008473589
9	0xbc9c8d65	-0.01911039
10	0x3bd03c38	0.006354835
11	0xbcaa1045	-0.020759711
12	0xbc88d541	-0.01670325
13	0xbc5f2453	-0.0136195
14	0x3b215f90	0.002462361
15	0xba78c1cb	-0.00094893266
16	0xbc86d11f	-0.016457139
17	0xbb73953f	-0.0037167815
18	0xbb63882b	-0.0034718614
19	0x3ba99200	0.0051748753
20	0xbc40843b	-0.011750276
21	0xbccf5698	-0.025309846
22	0xbc3ec934	-0.01164465
23	0xbc3f5a57	-0.011679254
24	0x3c8ceebc	0.017203681
25	0x3c1858b3	0.009298491
26	0xbbdf6335	-0.0068172463
27	0xbb855148	-0.0040685274
28	0xbbc5af98	-0.0060328953
29	0xbc9afbe1	-0.018918933
30	0xbc0d20ff	-0.008613824
31	0x3c3d8da5	0.011569415
32	0xbaf72e49	-0.0018858399
33	0x3c07ff23	0.008300575
34	0x3b7578e3	0.0037456087
35	0xbba1efb0	-0.004941903
36	0xbbd959ec	-0.006633034
37	0xbb9c9303	-0.0047782674
38	0xbc9c59e0	-0.019085824
39	0xbc4e8239	-0.01260429
40	0xbbb2d960	-0.005458042
41	0x3b9f3470	0.004858546
42	0xbca0574c	-0.019572876
43	0xbc7b94b4	-0.015355278
44	0x3b732be2	0.0037105014
45	0x3c1dfd00	0.009642839
46	0xbc429fce	-0.011878921
47	0xb714f500	-8.878531e-06
48	0xbc234eeb	-0.009967546
49	0x3c1b6386	0.009484177
50	0xbb94e507	-0.0045439037
51	0xbbb05c0e	-0.0053820675
52	0xb948c84c	-0.00019148103
53	0x3b81be1a	0.0039594295
54	0xbcb4fc29	-0.022092896
55	0x3c2d8026	0.010589635
56	0xbbede422	-0.0072598616
57	0xbc2384cf	-0.0099803945
58	0xbc4b9017	-0.01242449
59	0xbbad9127	-0.0052968445
60	0xba5305d9	-0.00080498826
61	0x3c975d96	0.018477242
62	0x3c023bdf	0.007948845
63	0xbb1bffe5	-0.0023803648
64	0xbbce0970	-0.006287746
65	0xbb1f3f76	-0.00242993
66	0x3c2bc9a9	0.010485091
67	0xbc4a63bd	-0.012352881
68	0xba8a72ca	-0.0010562774
69	0xba2d4be5	-0.00066107354
70	0xbc697fcb	-0.01425166
71	0x3b94909b	0.00453384
72	0xbc11708e	-0.008876933
73	0xbb00e923	-0.001967021
74	0xbc0f88f2	-0.008760678
75	0x3c60e5df	0.013726681
76	0xbbd9b47f	-0.0066438313
77	0x3b8eb015	0.0043544867
78	0x3ae442e3	0.0017414953
79	0x3ca7206d	0.020401204
80	0xbb8d519f	-0.0043127085
81	0x3a04d92d	0.0005067762
82	0xbaa54a8c	-0.0012610718
83	0xbbac23d7	-0.005253296
84	0xbbd8ceb0	-0.006616436
85	0x3a544b39	0.0008098367
86	0xbc0b59b4	-0.008505274
87	0x3c6209b5	0.01379626
88	0x3b3ee9b5	0.0029131
89	0x3a97ac0d	0.0011571661
90	0x3a7abd20	0.0009564925
91	0x3c5eb829	0.013593712
92	0xbc83cc1a	-0.016088534
93	0xbc6453a1	-0.013935954
94	0xbbbe14a8	-0.0058008023
95	0x3ca5b5f8	0.020228371
96	0x3c38cd99	0.011279487
97	0xbc97e2b4	-0.018540718
98	0x3c629dca	0.013831565
99	0xbaacfb45	-0.0013197443
100	0x387dc87b	6.0506612e-05
101	0xbb0b3c1e	-0.002124555
102	0xbc177049	-0.009243079
103	0x3cc843ae	0.024446335
104	0x3b1c2ff5	0.0023832296
105	0xbb3391ec	-0.0027400209
106	0x3b7436c0	0.003726408
107	0x3b975742	0.0046185562
108	0xbc413f67	-0.011794901
109	0xbcc29778	-0.023753867
110	0x3becdd1b	0.0072285063
111	0xbbbac510	-0.005699761
112	0xbc21deea	-0.009879807
113	0x3c729569	0.01480613
114	0xbbdc6f53	-0.006727138
115	0x3c08b937	0.00834494
116	0x3aed3f71	0.0018100572
117	0x3ae5bb54	0.0017527142
118	0x3bdd1c90	0.0067477897
119	0xbc39376b	-0.011304717
120	0x3b93a6bb	0.00450596
121	0x3c065456	0.008198818
122	0xbc000146	-0.007812804
123	0xbc5c405c	-0.013443079
124	0xbb38e372	-0.002821174
125	0x3ad2f1cf	0.0016093793
126	0x3b82fe9a	0.003997636
127	0xbb6c5618	-0.0036062058
128	0x3d18682e	0.03720873
129	0xbd8a0243	-0.06738713
130	0x3e0f1165	0.13971479
131	0x3d0b05c3	0.03394104
132	0xbb9aafee	-0.0047206795
133	0x3c7700d2	0.015075879
134	0x3e5c893e	0.21536729
135	0x390d2996	0.000134623
136	0xb8a1b8da	-7.7115095e-05
137	0x3e248945	0.16067989
138	0x3b972eec	0.004613748
139	0x3cf17b37	0.029477699
140	0x3e0e3683	0.13887982
141	0xbc5843d7	-0.013199768
142	0xbc917869	-0.017757611
143	0x3bd3b27b	0.0064604855
144	0xbe0ebb90	-0.13938737
145	0x3b1ce8d4	0.0023942487
146	0x3b4922bb	0.0030690867
147	0x3c2938f8	0.010328524
148	0x3e47841a	0.19483986
149	0x3adeb459	0.0016991004
150	0x3cc8fe16	0.02453522
151	0x3d04ff3c	0.032469973
152	0xbcbd8b8c	-0.02313783
153	0xbd396e41	-0.045271162
154	0x3ddc9223	0.10770061
155	0x3c365618	0.011128925
156	0x3e3468db	0.17618124
157	0xbd13335a	-0.035937645
158	0xbe266721	-0.16250278
159	0x3cd485dd	0.025942737
160	0xba71bcbd	-0.00092215446
161	0xbbf71dd9	-0.0075414
162	0x3db638a2	0.088975206
163	0x3b5a4b35	0.0033308987
164	0xbc2f03b2	-0.010682033
165	0x3d3fbd72	0.04681153
166	0xbceee09d	-0.029159838
167	0x3d0d12a2	0.034441598
168	0x3972360c	0.00023099052
169	0x3b7ad1a6	0.0038271933
170	0x3d5c64c7	0.053807046
171	0xbd797a05	-0.060907383
172	0x3d66559d	0.05623399
173	0xbae71472	-0.0017629995
174	0x3da94c06	0.082664534
175	0xbcf53dae	-0.029936638
176	0x3d788c7e	0.06068086
177	0xbc3d1226	-0.011539971
178	0x3dc9f8d9	0.09861917
179	0x3e0cb10d	0.13739415
180	0xba93eec1	-0.0011286364
181	0xbd152f6d	-0.036422182
182	0x3c3a0cf9	0.011355632
183	0x3d834da2	0.06411292
184	0xbb21a5cb	-0.002466547
185	0x3c7a1bc8	0.015265413
186	0x3e0b5ab3	0.13608818
187	0xbc9100fe	-0.017700668
188	0x3e02aa3c	0.12760252
189	0x3ba65d84	0.005077066
190	0xbe34d694	-0.1765998
191	0x3dd84442	0.10559894
192	0x3bf7dc4a	0.0075641023
193	0xba04de7e	-0.00050685543
194	0x3d0b4dcf	0.03400975
195	0xbbefd5f3	-0.007319206
196	0x3d4b59f9	0.04964635
197	0x3c1813fc	0.009282108
198	0x3b05d84a	0.0020423108
199	0x3c7fc1e9	0.015610197
200	0xbc45eaaf	-0.012079879
201	0xbc970000	-0.018432617
202	0x3cb0986e	0.02155706
203	0xbce542c3	-0.027985936
204	0xbde86870	-0.11348045
205	0x3db3d20e	0.08780299
206	0xbba36a20	-0.0049870163
207	0xbb9f95a7	-0.004870135
208	0xbc95fddf	-0.018309532
209	0x3c1c70c3	0.009548369
210	0xbc32fc73	-0.010924446
211	0xbb7fdebc	-0.0039042672
212	0x3a491629	0.00076708436
213	0x3d0023fe	0.031284325
214	0xbc27f4c8	-0.0102512315
215	0xbe05c91c	-0.13064998
216	0xbcda0532	-0.026613805
217	0xbcaed37d	-0.02134108
218	0x3e4d350f	0.20039771
219	0xbc137c05	-0.0090017365
220	0x3c1d68ee	0.009607537
221	0xbd72473b	-0.059149962
222	0xbc892410	-0.016740829
223	0xbca8081f	-0.020511685
224	0x3e0cf576	0.13765511
225	0xbcd6c4c9	-0.026216881
226	0xbc7aff56	-0.015319666
227	0xb8f1a10a	-0.000115217714
228	0xbc97e9e7	-0.01854415
229	0xbb195592	-0.002339695
230	0xbc0342e5	-0.008011554
231	0xbd164c2b	-0.036693733
232	0xbbfc9b8c	-0.0077089723
233	0xbcfd4880	-0.03091836
234	0xbd865319	-0.06558818
235	0xbc6551b3	-0.013996529
236	0xbcae2fd1	-0.021263035
237	0xbca75825	-0.020427773
238	0xbd180623	-0.037115227
239	0xbcea160a	-0.028574962
240	0xbc02b176	-0.00797688
241	0xbc29e355	-0.010369142
242	0xb9ca69e5	-0.0003860734
243	0x3c74daa9	0.014944711
244	0x3c2c2f9e	0.0105094
245	0x3c4e369c	0.012586262
246	0xbc0f32a3	-0.0087401
247	0xbc9f7564	-0.019465156
248	0xbcf3f86f	-0.029781548
249	0x3b4f5161	0.00316342
250	0xbc549177	-0.012974135
251	0xbc26ee3f	-0.010188638
252	0xbcb4f01b	-0.022087147
253	0x3b1c297f	0.0023828445
254	0x3dd7b051	0.105316766
255	0xbbb9d69d	-0.005671336

update_node_embedding_layer.0.update_layer.weight f4 [64, 128]
0	0x3bf605d7	0.0075080204
1	0x3bdf6e4b	0.006818568
2	0x3a62f235	0.00086573075
3	0xbba921c8	-0.0051614977
4	0x3bf3be54	0.0074384604
5	0xbc442742	-0.01197225
6	0xbbb97a0d	-0.0056603015
7	0xbacb5ba8	-0.0015514987
8	0x3bd251f7	0.0064184624
9	0x3c6c7e8f	0.014434471
10	0xbc3dfb84	-0.0115956105
11	0xbada4d45	-0.0016655108
12	0xbca535e6	-0.020167302
13	0xba325a05	-0.0006803575
14	0xbb0d007e	-0.0021515186
15	0xbc04be57	-0.008102021
16	0x3c43c989	0.011949905
17	0x39cc102d	0.00038921964
18	0xbc682ae5	-0.014170383
19	0xbb518af1	-0.0031973685
20	0xba4aa308	-0.0007729982
21	0xbc223fe4	-0.009902928
22	0xbc1d2f24	-0.009593759
23	0xbb8e6dcc	-0.004346585
24	0xbc29667b	-0.010339375
25	0xba2c5b7d	-0.0006574912
26	0xbc46e2b1	-0.012139008
27	0xba300e6e	-0.00067160174
28	0x3af31270	0.0018544924
29	0xbc2ae303	-0.0104301
30	0x3c290046	0.010315007
31	0xbbc986ba	-0.006150094
32	0xbca5f789	-0.020259636
33	0xbd09ad1d	-0.03361236
34	0xbc12288d	-0.008920801
35	0x3bcdcc8f	0.006280489
36	0x3c51ebcc	0.012812566
37	0x390a9601	0.00013216586
38	0xbc062897	-0.008188388
39	0x3c8cd89e	0.017193135
40	0x3c29734d	0.010342431
41	0xbb8fb0c4	-0.004385086
42	0x38757f5a	5.8531157e-05
43	0xbc11caa0	-0.008898407
44	0xbbf162e8	-0.007366527
45	0x3c671010	0.014102951
46	0xbcc74ff0	-0.02433011
47	0x3b9b9746	0.004748258
48	0xbc6f733c	-0.014614876
49	0x3b92cbab	0.0044798455
50	0xbb914f9b	-0.0044345385
51	0xbc11c791	-0.008897678
52	0xbc3143d6	-0.010819396
53	0xbbee4ddc	-0.007272465
54	0xbb95a3a7	-0.004566628
55	0x3911a3bc	0.00013889273
56	0xbae6172b	-0.0017554512
57	0xbc5588fb	-0.013033147
58	0x3ba6cf59	0.0050906357
59	0xbbde83be	-0.0067906072
60	0xbaffe9d4	-0.0019524642
61	0xbbfac709	-0.0076531214
62	0x3ca0e5a5	0.019640753
63	0x396b4b8d	0.00022439491
64	0x3c4bffcc	0.012451123
65	0x3b80bd43	0.0039288118
66	0x3c126bbc	0.008936819
67	0x3b5a3bff	0.003329992
68	0xbb8bb7e9	-0.004263867
69	0xbba25b70	-0.004954748
70	0x3c52af60	0.0128591955
71	0xbb678c76	-0.0035331524
72	0xbbd50efc	-0.0065020304
73	0x3be4f30c	0.0069869813
74	0x3bed38e9	0.0072394502
75	0xba428508	-0.0007420336
76	0x3c81d1cf	0.015847115
77	0x3abd19ae	0.0014427209
78	0xbbdb1dae	-0.0066868877
79	0x3b67e77d	0.003538578
80	0x3c8ac9bb	0.016941896
81	0xbc283cba	-0.010268385
82	0x3be60133	0.007019186
83	0x3a9f1042	0.0012135583
84	0x3c203a9e	0.0097796
85	0xbc34828f	-0.011017456
86	0xbc10ffd1	-0.008850054
87	0x3b1b513a	0.0023699538
88	0xbc1ec635	-0.009690811
89	0xbc4752e8	-0.0121657625
90	0x3cabce5c	0.020972423
91	0x3c73c974	0.014879573
92	0x3a8c76e1	0.0010716581
93	0x3c88d9d7	0.016705437
94	0xbb37c321	-0.002803989
95	0xbb807590	-0.0039202645
96	0x3b53e6fc	0.0032333722
97	0x3c48cdde	0.012256114
98	0x3aa02a8a	0.0012219709
99	0xbc2aefde	-0.010433165
100	0xbc8025ad	-0.015642965
101	0xbbad09da	-0.0052807154
102	0xbc3bbae8	-0.011458136
103	0xbbaa7bf0	-0.005202763
104	0xbc4c2417	-0.012459776
105	0x3c7b66a2	0.015344294
106	0xbc7b43e6	-0.0153360125
107	0xbc29fde0	-0.01037547
108	0xbac78e43	-0.0015224892
109	0xbcdec525	-0.027193615
110	0xbc9a8b57	-0.01886527
111	0xbbd0b97a	-0.006369767
112	0xbb786cc5	-0.0037906629
113	0x3b316a23	0.002707132
114	0xbbb7a87b	-0.0056048012
115	0xbc161b64	-0.009161804
116	0xbc24bd38	-0.010054879
117	0xbc43046c	-0.01190291
118	0xbc241296	-0.010014197
119	0x3b8a76a9	0.004225571
120	0xbb109f8b	-0.0022067751
121	0x3bb2cce3	0.0054565533
122	0x3cd234bb	0.02565991
123	0xbcbd9b09	-0.023145216
124	0xbbe2c894	-0.0069208834
125	0x3b5d8d15	0.0033806015
126	0xbb247746	-0.0025095507
127	0x3c760013	0.015014666
128	0x3e24ab13	0.16080885
129	0x3d82c4d4	0.06385198
130	0xbb7818c6	-0.0037856563
131	0xbe183e35	-0.1486748
132	0xbbadeb00	-0.005307555
133	0xbbaef6d1	-0.0053394814
134	0xbdb97b01	-0.09056664
135	0x3d9ab26a	0.07553561
136	0x3d083844	0.033256784
137	0xbd52293e	-0.051308863
138	0xbd46aa84	-0.04850246
139	0x3c927c59	0.01788156
140	0xbd37227c	-0.04471062
141	0x3cb0bb9f	0.02157384
142	0x3d31309e	0.043259256
143	0xbcf51221	-0.029915871
144	0x3dbd2c9a	0.09237023
145	0xbe57b612	-0.21065548
146	0x3d3db59f	0.046315785
147	0xbe547c3f	-0.20750521
148	0xbd40229c	-0.046908006
149	0x3d1e7bef	0.03869241
150	0x3d60ba33	0.054865073
151	0xbbf1e31d	-0.0073818103
152	0xbc687e6b	-0.014190297
153	0xbddfdd81	-0.109309204
154	0xbd123f87	-0.035705116
155	0x3bf57dec	0.0074918177
156	0xbcb5256c	-0.02211257
157	0x3d20b646	0.03923633
158	0x3dc2e3de	0.095161185
159	0xbc4f22a8	-0.01264254
160	0xbc516d69	-0.012782433
161	0xbe511d08	-0.20421231
162	0xbd98525f	-0.07437586
163	0x3c8452b1	0.016152712
164	0x3dc79a6b	0.0974625
165	0x3cb4b444	0.022058614
166	0x3d97f693	0.07420077
167	0xbd949fd6	-0.07257049
168	0x3ca0d5ed	0.019633258
169	0x3983f395	0.0002516775
170	0x3d932d97	0.0718643
171	0x3d2d238b	0.042270225
172	0xbcdcf119	-0.026970433
173	0xbbc36d41	-0.005963952
174	0xbd24ee0a	-0.040266074
175	0xbdf41121	-0.119173296
176	0xbe3f61c3	-0.18689637
177	0x3d765090	0.060135424
178	0xbd20d7fe	-0.039268486
179	0xbe6a0711	-0.22854258
180	0x3d5b2bd1	0.053508583
181	0x3de37176	0.11105625
182	0x3d46d983	0.04854728
183	0xbe293aa5	-0.16526277
184	0xbc532f28	-0.012889661
185	0x3c47c966	0.012194013
186	0xbe0cc480	-0.13746834
187	0x3c816cc5	0.015798936
188	0xbe11eeec	-0.14251298
189	0x3d76092b	0.060067337
190	0x3deacc73	0.11464777
191	0x3cac1543	0.021006232
192	0xbb5fe0b6	-0.0034161038
193	0x3d21060d	0.03931241
194	0x3cbfd746	0.02341808
195	0x3ac08a28	0.0014689611
196	0xbccf36bc	-0.025294654
197	0xbc079711	-0.008275763
198	0x3b34e914	0.0027604746
199	0xbc323300	-0.010876417
200	0xbd460d78	-0.04835269
201	0x3c415eb6	0.011802366
202	0xbd796c99	-0.060894582
203	0xba3c14f0	-0.0007174751
204	0xbbcff324	-0.0063461233
205	0x3c46493b	0.01210242
206	0x3c748053	0.014923173
207	0xbd26dc20	-0.04073727
208	0xbcbfadce	-0.023398306
209	0x3b92d2c5	0.004480692
210	0xbc9583ca	-0.018251318
211	0xb90f13fc	-0.00013644987
212	0x3c0c5fed	0.008567792
213	0x3b2593ea	0.0025265166
214	0x3d091d1d	0.03347503
215	0xbbf53fd0	-0.0074844137
216	0xbd6ea3a4	-0.05826153
217	0xbc8fc198	-0.017548367
218	0x3b68e999	0.0035539626
219	0x3c524951	0.012834863
220	0x3be28274	0.006912524
221	0xbbe90609	-0.007111315
222	0xbc932397	-0.017961306
223	0xbcec1546	-0.028818738
224	0x3c8350ef	0.016029803
225	0xbbf53f82	-0.0074843774
226	0xbd436af2	-0.047709413
227	0xbdb3681e	-0.08760093
228	0xbd85efeb	-0.06539901
229	0x3c797fb8	0.015228204
230	0x3acd9b36	0.0015686515
231	0x3dbe0101	0.09277535
232	0x3c06073b	0.008180435
233	0xbba06bca	-0.004895662
234	0x3c4efc40	0.012633383
235	0xbbe622ad	-0.0070231766
236	0xbd99d789	-0.07511813
237	0x3c3ed3d2	0.011647182
238	0xbce5b818	-0.028041884
239	0x3ceade91	0.028670581
240	0x3a023801	0.00049674517
241	0xbdde1ef8	-0.108457506
242	0xbca9a691	-0.020709308
243	0xbdbe9a21	-0.093067415
244	0x3d071c93	0.032986235
245	0xbd9e70c0	-0.07736349
246	0xbb693e78	-0.0035590213
247	0xbc69fb57	-0.0142811155
248	0x3c4de29e	0.012566237
249	0x3ce9ffe4	0.028564401
250	0xbc5cf29c	-0.013485577
251	0x3c0317d3	0.008001286
252	0xbbea5189	-0.007150833
253	0xbc33bdf1	-0.0109705785
254	0xbcd4a873	-0.02595923
255	0xbc0c7a69	-0.008574107

update_node_embedding_layer.1.message_layer.weight f4 [64, 128]
0	0xbb20c970	-0.0024534129
1	0xbd71d520	-0.059041142
2	0x3c9032f2	0.017602418
3	0x3e4f9b03	0.20273976
4	0xbd2dabb4	-0.042400077
5	0x3b034763	0.0020031563
6	0xbd374f17	-0.04475316
7	0xbcd5ed82	-0.02611423
8	0xbd34ec75	-0.044170815
9	0xbd0c7d35	-0.034299094
10	0xbd5c8e94	-0.05384691
11	0xbd6035ee	-0.05473893
12	0xbd9181d2	-0.071048394
13	0xbd6ff6ca	-0.058584966
14	0xbcd09933	-0.025463676
15	0x3bf77762	0.0075520733
16	0x3e8b7530	0.27237844
17	0xbc26d350	-0.010182217
18	0x3e68ccb6	0.22734341
19	0xbd6034b8	-0.054737777
20	0x3cf03a2e	0.029324617
21	0xbd4636f1	-0.04839224
22	0xbd335427	-0.043781426
23	0xbd8c5898	-0.068528354
24	0xbd37889e	-0.044808023
25	0x3b5a7c86	0.0033338382
26	0xbb039b7f	-0.0020081697
27	0xbd6b7948	-0.05748871
28	0x3c737182	0.014858605
29	0x3c25b5f0	0.010114178
30	0xbd336a7e	-0.04380273
31	0x3c358b3e	0.011080561
32	0x3cd9707b	0.026542893
33	0xbc8305f3	-0.015994048
34	0xbd1ce6c8	-0.038306028
35	0x3d47cf2c	0.04878156
36	0x3b859dc8	0.004077647
37	0x3d14fb66	0.036372565
38	0xbd49a455	-0.049228985
39	0x3ce83e23	0.028349942
40	0xbd7a1c0a	-0.061061896
41	0x3e570e72	0.21001604
42	0x3eac7305	0.33681503
43	0xbcb94a34	-0.02261839
44	0xbcb312cf	-0.021859555
45	0xbc91e34d	-0.01780858
46	0xbd22af91	-0.039718214
47	0x3adc3f7e	0.001680359
48	0xbc8ec2bd	-0.017426843
49	0x3f012985	0.5045398
50	0xbd7a6886	-0.061134838
51	0xbb0e87c0	-0.0021748394
52	0x3c0d4158	0.008621536
53	0xbba4e7e9	-0.0050325287
54	0x3e4ee04c	0.2020275
55	0xbd48fb1d	-0.049067605
56	0x3ca57386	0.020196687
57	0xbc103f8d	-0.008804214
58	0xbd34cead	-0.044142414
59	0xbc38a68f	-0.011270179
60	0x3c0fd767	0.008779383
61	0xbbe4a435	-0.006977583
62	0xbd55a44b	-0.052158635
63	0x3cab11af	0.020882456
64	0xbc07906e	-0.008274181
65	0xb99a7dc1	-0.00029466863
66	0x3d1f8e0b	0.038953822
67	0xbbcf9efe	-0.006336092
68	0xbc5d6636	-0.0135131385
69	0xbab257a1	-0.0013606438
70	0xbc745543	-0.014912906
71	0xbcafd685	-0.021464596
72	0x3c6ef60e	0.014585031
73	0xbce94874	-0.028476931
74	0x3d6e1a74	0.058130696
75	0xbc22c62d	-0.009934944
76	0xbd04c90a	-0.03241829
77	0xbb4d8a8f	-0.0031363105
78	0xbc6ac593	-0.014329332
79	0x3c0b4e76	0.008502593
80	0x3b49225e	0.003069065
81	0x3c10fb15	0.008848925
82	0xbc99aadd	-0.018758232
83	0x3b371bf4	0.0027940245
84	0xbbb91913	-0.005648741
85	0x3cdfb21b	0.027306607
86	0xbb939649	-0.0045039994
87	0xbc0497f1	-0.008092866
88	0xbc0d3e98	-0.008620881
89	0xbcf29e43	-0.02961648
90	0xbcbe3ee2	-0.023223344
91	0xbbc93a82	-0.006141008
92	0xbc8ed477	-0.017435296
93	0x3c25bf4a	0.010116408
94	0xbbde0e5d	-0.0067766146
95	0xbc577bef	-0.013152107
96	0xbd630492	-0.05542428
97	0xbbf1b515	-0.007376323
98	0x3c2fcb4d	0.010729623
99	0xbb8d5610	-0.004313238
100	0xbd01a621	-0.031652573
101	0xbce2795f	-0.027645765
102	0xbc2f37cb	-0.010694454
103	0xbc828ca5	-0.015936205
104	0xbc962158	-0.018326446
105	0xbc0e1cae	-0.00867383
106	0xbba51889	-0.005038325
107	0xbc203dc6	-0.009780353
108	0xbc5cd6fc	-0.013478991
109	0xbceeec9c	-0.029165559
110	0x3adb625f	0.0016737691
111	0xbcb63260	-0.022240818
112	0x3d142459	0.036167476
113	0xbb80b9cc	-0.0039283987
114	0x3b681a41	0.003541604
115	0xbbc7a210	-0.0060923174
116	0xbc848c5a	-0.016180206
117	0xbb16b80a	-0.002299788
118	0x3bf3bc15	0.0074381926
119	0xbbf099a2	-0.007342533
120	0x3ce99aa5	0.028516123
121	0xbb9e397e	-0.004828631
122	0x3b1c0a4e	0.0023809853
123	0xbc1f74b6	-0.009732416
124	0xbc98a1ae	-0.018631782
125	0xbbfce42c	-0.00771763
126	0x3ba3c7fc	0.004998205
127	0xbbeebd12	-0.0072857225
128	0x3a78809e	0.00094796147
129	0x3d8753da	0.0660779
130	0xbc00bd54	-0.007857639
131	0xbd6bd478	-0.057575673
132	0x3d3f9df7	0.046781506
133	0x3ba9b1f3	0.005178684
134	0xbc91e2a0	-0.017808259
135	0x3d81ccb0	0.06337869
136	0x3dd572d4	0.10422292
137	0xbe25a9da	-0.16178074
138	0x3d8565e5	0.065135755
139	0x3d3ee54f	0.046605404
140	0x3dd0081b	0.10157796
141	0x3d015145	0.031571645
142	0xbc42c355	-0.011887391
143	0x3cc4ae96	0.02400903
144	0x3e7c1001	0.2461548
145	0xbc25233a	-0.010079199
146	0x3e3487aa	0.17629877
147	0x3ca23b55	0.019803682
148	0x3d477ba4	0.048701897
149	0x3d223a55	0.03960641
150	0x3d85c375	0.06531421
151	0x3d92c39f	0.07166218
152	0x3da0beef	0.07848918
153	0x3c7e8e42	0.015536847
154	0xb9317ce5	-0.00016926562
155	0x3d659daf	0.056058582
156	0x3b223f6f	0.0024757048
157	0x3d61e1b2	0.05514688
158	0xbe55a9c4	-0.20865542
159	0x3b229ccc	0.0024812697
160	0x3c717244	0.014736716
161	0xbb0296af	-0.001992624
162	0x3d4bfa43	0.049799215
163	0x3d4d3147	0.050095823
164	0x3c2a3b7f	0.010390162
165	0x3cefc0ef	0.029266803
166	0x3d84e2d5	0.06488577
167	0x3d8038f7	0.06260865
168	0x3d6e024f	0.05810767
169	0x3e681196	0.22662959
170	0x3e5da114	0.21643478
171	0xbb826220	-0.0039789826
172	0xbc4f9cc4	-0.012671653
173	0xbb9dd8fd	-0.004817127
174	0x3e2639f3	0.16233043
175	0x3d253372	0.040332265
176	0x3d40aea6	0.047041558
177	0x3ea284cc	0.3174194
178	0x3d5e9e82	0.054350384
179	0xbc96decb	-0.018416783
180	0x3d3b10c1	0.045670275
181	0xbc495a32	-0.012289571
182	0x3d832e2c	0.06405291
183	0xbdfbd88f	-0.12297165
184	0x3d4a2b49	0.049357686
185	0x3d0d75ff	0.034536358
186	0x3d0c4578	0.034245938
187	0x3d43529b	0.0476862
188	0xbcad2bb8	-0.02113901
189	0xbc52da06	-0.012869364
190	0x3df34104	0.11877635
191	0x3d05bc46	0.032650255
192	0x3b237759	0.0024942963
193	0x3a542e2e	0.00080940395
194	0x3d112414	0.035434797
195	0x3bfb1c33	0.0076632737
196	0x3a86504f	0.0010247322
197	0xbc32923b	-0.010899122
198	0x3c8ca009	0.017166154
199	0x3d91a934	0.07112351
200	0xbd775447	-0.060383108
201	0xbe1a8711	-0.15090586
202	0x3d87df50	0.0663439
203	0x3b818400	0.003952503
204	0x3cbe1029	0.023201065
205	0x3e084a5a	0.13309613
206	0x3c3004c2	0.010743322
207	0xbc350b83	-0.011050108
208	0xbbedd1c0	-0.00725767
209	0xbceb8326	-0.02874906
210	0xbc413ded	-0.011794549
211	0x3c00b643	0.007855955
212	0x3b8f01f1	0.004364245
213	0x3d6ac4c6	0.057316564
214	0xbcbf9fad	-0.023391569
215	0x3c569543	0.01309711
216	0xbde361b8	-0.11102623
217	0x3c1837eb	0.009290676
218	0xbe54b88a	-0.20773521
219	0xbd79789d	-0.06090604
220	0xbbf35569	-0.007425953
221	0x3bcef872	0.006316238
222	0xbc8d0ba0	-0.017217457
223	0xba6e27fb	-0.0009084937
224	0xbe0a5bfd	-0.13511653
225	0xbdb59c84	-0.088677436
226	0x3cf7b805	0.030239115
227	0x3c00c0bc	0.007858451
228	0x3d1710e8	0.036881357
229	0xbc51244e	-0.012765003
230	0xbd8a4e93	-0.06753268
231	0xbd93095a	-0.07179518
232	0xbd430aed	-0.04761784
233	0xb989fe94	-0.00026320352
234	0x3d0c65a6	0.034276627
235	0x3b345905	0.002751888
236	0xbd1ffbb1	-0.03905839
237	0x3d349f37	0.04409715
238	0x3c7dcf45	0.015491311
239	0xbd8d0b6d	-0.06886945
240	0x3c8e18b3	0.017345762
241	0x3d2b6bdb	0.041850906
242	0x3c511afb	0.01276278
243	0x3c8f1faa	0.017471153
244	0x3c819d84	0.01582218
245	0xbd2e2bc8	-0.04252222
246	0xbded8851	-0.11598266
247	0x3b2a21e0	0.0025960132
248	0x3d83bc6f	0.06432425
249	0xbbc967de	-0.006146415
250	0x3c21f2c6	0.009884542
251	0xbd39de60	-0.04537809
252	0xbd8f8994	-0.07008663
253	0x3c53e344	0.012932602
254	0xbd6b56e0	-0.057455897
255	0xbd9e4452	-0.07727875

update_node_embedding_layer.1.update_layer.weight f4 [64, 128]
0	0xbc268ff5	-0.010166158
1	0xbdd2af43	-0.10287335
2	0xbab2cc24	-0.0013641161
3	0x3dc78bd1	0.09743465
4	0xbd899a30	-0.06718862
5	0x3c94e019	0.018173264
6	0xbd84cecc	-0.06484756
7	0xbe4189d2	-0.1890023
8	0xbdfb3550	-0.12266028
9	0xbeb71da0	-0.3576479
10	0xbdad7fd2	-0.084716454
11	0xbd0cf8b4	-0.03441687
12	0xbe043d49	-0.12914003
13	0xbdd95340	-0.10611582
14	0xbdd9c24e	-0.10632764
15	0x3ccce0bf	0.025009511
16	0x3e6c4add	0.23075433
17	0x3b236242	0.0024930392
18	0x3deb8bf5	0.11501304
19	0xbd8dc647	-0.06922584
20	0x3d1ae200	0.037813187
21	0xbdd2fdd2	-0.10302319
22	0xbe2d3842	-0.16915992
23	0xbe35af22	-0.17742589
24	0xbe027a75	-0.12742026
25	0x3c242e54	0.010020811
26	0xbbb2740e	-0.0054459637
27	0xbd1f155d	-0.038838733
28	0x3c247e84	0.010039929
29	0x3cdb5194	0.026772298
30	0xbd292d6a	-0.041303076
31	0x3cadeef4	0.021232106
32	0x3d09577a	0.03353069
33	0x3bc369fb	0.0059635616
34	0xbd3446f4	-0.04401298
35	0x3d1db6e7	0.038504507
36	0xbb954743	-0.004555614
37	0x3d18d7fa	0.037315346
38	0xbddc9f6f	-0.10772597
39	0x3d185fd7	0.037200775
40	0xbdc22d5a	-0.094813064
41	0x3e1c772d	0.15279837
42	0x3e2d1400	0.1690216
43	0x3bb42072	0.005497032
44	0xbbc8d559	-0.0061289486
45	0x3b8978b8	0.004195299
46	0x3cb26ae7	0.02177949
47	0x3d4dffb6	0.050292693
48	0xbe6fb6aa	-0.23409525
49	0x3ecfab18	0.40560222
50	0xbda1dd64	-0.07903555
51	0x3c3dd058	0.011585318
52	0xbe05674b	-0.13027684
53	0x3c14888f	0.009065761
54	0x3dc98cb4	0.0984129
55	0xbd55bb7e	-0.05218076
56	0x3d6f2796	0.05838736
57	0x3cc9482e	0.02457055
58	0xbe50d68b	-0.20394342
59	0xbd9c3b85	-0.0762854
60	0x3a6c2976	0.00090088637
61	0x3be62b40	0.007024199
62	0x3d90ef35	0.07076875
63	0x3e66ccb8	0.22539032
64	0x3bd59a4d	0.006518638
65	0x3dcfaa02	0.10139848
66	0xbcc7fe09	-0.024413126
67	0xbcbb85a9	-0.022890883
68	0xbc16ca57	-0.009203515
69	0xbc85510a	-0.016273994
70	0xbd434bd6	-0.047679745
71	0x3da373ad	0.07981048
72	0xbb9fdc16	-0.004878531
73	0xbd2e7158	-0.04258856
74	0xbd11ec58	-0.035625786
75	0xbcf0e572	-0.029406283
76	0xbbfe346e	-0.007757715
77	0xbb00aab7	-0.0019633004
78	0x3bbce3a6	0.0057644425
79	0x3b5c3d5b	0.0033605907
80	0x3bbbee3a	0.005735186
81	0xbba90a25	-0.00515868
82	0xbd049760	-0.032370925
83	0xbd124057	-0.03570589
84	0xbd24ae53	-0.04020531
85	0xbc7831bf	-0.015148579
86	0xbcb2c8d4	-0.021824278
87	0xbcc0fabd	-0.023557061
88	0xbe0b7e0d	-0.13622303
89	0x3dd47ea0	0.10375714
90	0xbce62387	-0.028093113
91	0xbbc611f2	-0.0060446197
92	0x3c0b0ca2	0.008486899
93	0xbce05bcc	-0.027387522
94	0x3d1e36e4	0.038626567
95	0x3ac981a7	0.0015373722
96	0xbd64e373	-0.055880975
97	0x3b8a4b18	0.0042203777
98	0xbca05e75	-0.01957629
99	0xbbc78e69	-0.0060899747
100	0xbbc0b5b5	-0.005881036
101	0xbd02924a	-0.031877793
102	0xbc437028	-0.011928596
103	0xbb52ae82	-0.0032147472
104	0xbd175815	-0.036949236
105	0xbde2b777	-0.110701494
106	0x3c322daa	0.010875145
107	0xb925baff	-0.00015805288
108	0xbd517afa	-0.05114267
109	0x3c151ff2	0.009101855
110	0x39e94a91	0.0004449678
111	0xbd3de400	-0.046360016
112	0x3c64ecf1	0.013972507
113	0xbd74ad54	-0.05973561
114	0x3c4d55e2	0.012532683
115	0xbd59ca6e	-0.053171568
116	0xbd80f272	-0.06296243
117	0xbc83efa1	-0.016105475
118	0xbd485850	-0.048912346
119	0xbc999f6a	-0.018752772
120	0x3c110acf	0.008852675
121	0xbcf25ffd	-0.029586786
122	0xbd318174	-0.043336347
123	0xbde1bc50	-0.11022246
124	0x3d5bf82d	0.053703476
125	0xbb017da6	-0.001975873
126	0xbbdc98d9	-0.006732088
127	0xbcf59af3	-0.029981112
128	0xbc31fcae	-0.010863466
129	0x3caa5e7d	0.020797009
130	0xbbe64c54	-0.007028142
131	0xbe1afad2	-0.15134743
132	0x3c449f69	0.012000897
133	0xbc2a38c6	-0.010389512
134	0xbd88c9f0	-0.066791415
135	0xbddd79fc	-0.10814282
136	0xbd09354f	-0.033498105
137	0x3dbd6adc	0.092488974
138	0x3c984fb4	0.018592693
139	0x3b5f1ba6	0.003404358
140	0x3c507485	0.012723093
141	0x3cf8f6dc	0.03039115
142	0xbc50762e	-0.012723489
143	0xbef3f44c	-0.4764732
144	0xbdeb6833	-0.11494484
145	0x3c5b41d7	0.013382397
146	0xbdd8ff5e	-0.105955824
147	0x3d2aca9a	0.041697122
148	0xbed96b5e	-0.42464727
149	0x3d3806dd	0.04492842
150	0xbc9c3700	-0.019069195
151	0xbcfe870c	-0.031070255
152	0xbdaa3b1f	-0.08312058
153	0x3b5b5188	0.0033465344
154	0xbbcc1bdd	-0.0062289075
155	0xbb5a0282	-0.0033265655
156	0xbc2238ab	-0.009901206
157	0xbeaf670d	-0.3425831
158	0xbe31b6f4	-0.17354947
159	0xbc8d81ca	-0.017273802
160	0xbec0ff0f	-0.37694594
161	0x3c043ed7	0.008071623
162	0x3cd3b25a	0.02584188
163	0xbe9f160a	-0.31071502
164	0x3adf58fc	0.0017040069
165	0xbe9fd786	-0.3121912
166	0xbcfd1364	-0.030893035
167	0xbe90f59f	-0.28312394
168	0x3c3dbce6	0.011580681
169	0xbe9d0a3f	-0.3067188
170	0xbe8df72d	-0.27727643
171	0xbc3247ee	-0.010881407
172	0xbc45395d	-0.012037602
173	0x3b9c56e4	0.0047711004
174	0xbe9a861d	-0.30180445
175	0xbe969579	-0.29410914
176	0xbd09e170	-0.03366226
177	0xbeabdff2	-0.33569294
178	0x3c901bf4	0.017591454
179	0x3a9aeaf1	0.0011819286
180	0xbe167fcf	-0.14697193
181	0xbb3c5121	-0.002873488
182	0xbe26e2e2	-0.16297486
183	0xbde32ad5	-0.11092154
184	0xbecdbb1a	-0.4018181
185	0xbea08a73	-0.31355628
186	0x3cb94832	0.022617433
187	0xbe5bf12f	-0.21478723
188	0xbbda0b71	-0.006654196
189	0xbb6f29c1	-0.0036493393
190	0xbe2e533a	-0.17023936
191	0x3d514e0d	0.051099826
192	0xbd153635	-0.03642865
193	0x3d351e9b	0.04421864
194	0xbcbec3b7	-0.023286683
195	0x3d8c5106	0.068513915
196	0xbc7c5fc0	-0.015403688
197	0x3b57607c	0.0032863906
198	0x3dda6945	0.1066461
199	0x3d4244e2	0.047428973
200	0x3b5ea2fc	0.0033971658
201	0x3d4aa5a6	0.04947438
202	0xbba34181	-0.004982174
203	0x3db00f96	0.08596723
204	0xbc900a92	-0.017583165
205	0xbc8cbba9	-0.017179327
206	0x3d1bd59e	0.038045518
207	0xbc0c43bd	-0.008561072
208	0x3cdab1a4	0.026696034
209	0x3c3d426c	0.011551481
210	0x3d5d5304	0.054034248
211	0x3dc89d9e	0.09795688
212	0xbc7d6e9c	-0.015468266
213	0x3a04d076	0.00050664635
214	0x3d5d3333	0.054003906
215	0x3d80b6da	0.06284876
216	0x3d828771	0.0637349
217	0x3daaac2a	0.08333619
218	0x3d78f156	0.06077703
219	0xbb594287	-0.0033151226
220	0x3c134ae0	0.00899002
221	0x3e004528	0.12526381
222	0xbcc12552	-0.023577366
223	0x3babad94	0.005239198
224	0x3ce4df55	0.027938524
225	0x3aae5801	0.0013301374
226	0x3ce4db99	0.027936744
227	0xbc68d87c	-0.01421177
228	0x3da44d91	0.08022607
229	0x3d779790	0.060447276
230	0xb993a20a	-0.00028158753
231	0xbbc172e3	-0.005903588
232	0x3d5b21c8	0.053499013
233	0xbd01e871	-0.031715814
234	0x3d42393e	0.04741787
235	0xbc1d9c8b	-0.009619842
236	0x3cedeeea	0.029044587
237	0xbc53f18b	-0.012936006
238	0x3b516230	0.0031949393
239	0x3dfc678c	0.123244375
240	0x3b7ad866	0.0038275956
241	0x3dd7d917	0.105394535
242	0x3c371986	0.011175519
243	0x3d91b4fd	0.07114599
244	0x3dcdf203	0.10055926
245	0xbb3603e3	-0.0027773313
246	0x3daa765e	0.08323358
247	0xbb8e51cb	-0.0043432466
248	0xbb70bd87	-0.003673406
249	0x3d80f0ff	0.06295966
250	0x3e11bbe2	0.14231828
251	0xbd24c169	-0.040223513
252	0x3c674913	0.014116543
253	0x3c6664fa	0.014062161
254	0x3c58c24a	0.013229916
255	0x3e3cded1	0.18444373
