ER_200spin/eco/network/network2800000.pth (torch, 238273 bytes, 11 tensors)

node_init_embedding_layer.0.weight f4 [64, 7]
0	0xbb8af175	-0.0042402097
1	0xbe59ff18	-0.21288717
2	0xbd152cea	-0.036419787
3	0x3d40cdb4	0.047071174
4	0x3c125c55	0.0089331465
5	0xbcc6d527	-0.02427156
6	0x3d5ce4ff	0.053929325
7	0xb5ef0d30	-1.7810726e-06
8	0xbe32db8a	-0.1746656
9	0xbc3c67cc	-0.0114993565
10	0x3e1b09e5	0.15140493
11	0xbc7098a0	-0.014684826
12	0x3d9ac811	0.07557691
13	0x3d2db35b	0.042407375
14	0x3ab13897	0.0013520893
15	0x3eab68ba	0.33478338
16	0xbb9360a8	-0.0044976063
17	0xbd9370c9	-0.071992464
18	0x39859ee1	0.0002548611
19	0x3c901cf7	0.017591937
20	0x3be72455	0.0070538917
21	0x3b16c0fc	0.0023003211
22	0x3eb40500	0.35160065
23	0x3cb15a5c	0.021649532
24	0xbd4e97e6	-0.05043783
25	0x3a1da6a7	0.0006013908
26	0x3ca5a007	0.020217909
27	0xbc90899b	-0.01764374
28	0xbbc981b0	-0.006149493
29	0xbb8d7251	-0.004316606
30	0xbc218543	-0.009858432
31	0xbc35e581	-0.011102081
32	0xbc314120	-0.01081875
33	0xbb55f485	-0.0032646966
34	0xbc79626c	-0.0152212195
35	0xbc35ae95	-0.011088987
36	0xbb7ad567	-0.003827417
37	0xbafe3a53	-0.0019396044
38	0xbb2f15e3	-0.0026715926
39	0xbc590bb4	-0.013247419
40	0xbc8696c2	-0.016429309
41	0xbbab08c1	-0.0052195494
42	0x3c788fee	0.015171034
43	0x3ecc1648	0.3986075
44	0x3c8699a2	0.01643068
45	0xbe653560	-0.22383642
46	0xba1185ab	-0.0005551229
47	0xbc959c50	-0.018263012
48	0x3ccadc39	0.024763213
49	0x3ba4a351	0.0050243516
50	0xbe2edd4c	-0.17076606
51	0xbeb14fc6	-0.34631175
52	0x3e71017b	0.23535721
53	0x38822aa2	6.206824e-05
54	0x3dbd31af	0.09237992
55	0x3d02af14	0.03190525
56	0x3c8649cf	0.016392617
57	0xbe7019d1	-0.23447348
58	0x3d7ad63b	0.061239462
59	0x3e1710e4	0.14752537
60	0xbacfd610	-0.0015856642
61	0x3d2bb7bb	0.041923266
62	0x3d7fe3ea	0.062473215
63	0x3b894236	0.004188801
64	0x3ebaff97	0.36523125
65	0x3d172e80	0.03690958
66	0xbd4731e9	-0.048631582
67	0xbc8c47d0	-0.017124087
68	0x3caf5cc6	0.021406543
69	0x3b720ed0	0.0036935098
70	0xbd12ee15	-0.035871584
71	0x3ea420c8	0.3205626
72	0x3cb543d0	0.022127062
73	0x3d69e03c	0.057098612
74	0xbb01cfc0	-0.0019807667
75	0x3c7190ac	0.014743965
76	0xbce34661	-0.02774352
77	0xbce8a6a5	-0.028399775
78	0x3ea91bea	0.3302911
79	0xbe0538d3	-0.13009958
80	0x3dcdabd7	0.100425415
81	0xba84ab0a	-0.0010121774
82	0x3bb1b338	0.005422976
83	0xbe5134a1	-0.20430233
84	0x3c8f3c75	0.017484883
85	0x3ec4bc23	0.38424787
86	0x3a8db342	0.0010810869
87	0xbe073fbd	-0.13207908
88	0x390c344a	0.0001337092
89	0x3ce9a030	0.028518766
90	0x3ba906b4	0.00515827
91	0x3c61f040	0.01379019
92	0xbe82c036	-0.2553727
93	0x3c8a1cd2	0.016859446
94	0x3ddcc3d9	0.107795425
95	0x3c0ea6df	0.008706777
96	0xbc3ecaeb	-0.011645059
97	0x3d8b74fe	0.06809424
98	0x3c71b823	0.014753374
99	0xbe7fa4ad	-0.24965163
100	0x3cb6b0fa	0.022301186
101	0x3dc93c78	0.098259866
102	0x3b02c52e	0.0019953954
103	0x3bb730c6	0.005590531
104	0x3d94592c	0.07243571
105	0x3c205c39	0.009787613
106	0xbc8492e6	-0.016183328
107	0xbdb03053	-0.08602967
108	0x3e16a756	0.14712271
109	0x3b52e1ca	0.0032178038
110	0x3bd902f5	0.006622667
111	0xbe06bb7f	-0.13157462
112	0x3c29f1e5	0.010372614
113	0xbe40f651	-0.18843962
114	0xbbdb8bc9	-0.0067000133
115	0x3e41ac0d	0.18913288
116	0xbc0e5aa9	-0.008688607
117	0x3d92019c	0.07129213
118	0x3d75e0b7	0.060028758
119	0xbd005bcc	-0.031337544
120	0x3ea66e2f	0.32505938
121	0x3ca0b7b0	0.019618839
122	0xbac3a3ac	-0.0014926097
123	0xbb4c911b	-0.003121442
124	0x3c97f586	0.018549692
125	0x3a9df9ce	0.0012052597
126	0x3cc5398c	0.024075292
127	0xbe90f7e9	-0.2831414
128	0x3c864c99	0.016393946
129	0x3e0224e5	0.12709387
130	0x3bd8f895	0.00662143
131	0x3c49ab89	0.012308964
132	0x3da2a52b	0.079416595
133	0xbce007b0	-0.027347416
134	0x3e861ffe	0.26196283
135	0x3cf4501e	0.02982336
136	0x3d372c7c	0.044720158
137	0xbb703ec2	-0.00366585
138	0x3b1e599c	0.0024162298
139	0x3b229b17	0.002481168
140	0x3c9ce2f5	0.01915119
141	0x3ece93e7	0.40347216
142	0x3d07ae42	0.03312517
143	0xbd873ef7	-0.066038065
144	0xba496533	-0.00076826214
145	0x3cf5028d	0.029908443
146	0x3c118d20	0.0088837445
147	0x3cb48e56	0.022040527
148	0xbe8ef24b	-0.2791923
149	0x3d1184a3	0.035526883
150	0x3e05ad11	0.13054301
151	0x3b93b49b	0.004507614
152	0x3c92bf8f	0.017913608
153	0x3d8dafd6	0.06918304
154	0xbb5f6071	-0.0034084583
155	0xbe263c4b	-0.16233937
156	0x3db285df	0.0871694
157	0x3e6797e3	0.22616534
158	0xbcc29755	-0.023753801
159	0x3d70f0a2	0.058823235
160	0xbc71c8f8	-0.014757387
161	0xbbc107c1	-0.005890817
162	0xbe424933	-0.18973236
163	0x3da5d223	0.08096721
164	0x3cb95e93	0.022628104
165	0xbafc532f	-0.0019250865
166	0xbab048e3	-0.0013449456
167	0x3d8e8502	0.06958963
168	0x3b862989	0.004094307
169	0xbe46eccd	-0.1942627
170	0x3d3b0d8b	0.045667212
171	0x3eb129bb	0.3460215
172	0x39b99e6a	0.00035403977
173	0x3d931f9f	0.071837656
174	0x3c2bd18c	0.010486972
175	0xbc85303a	-0.016258348
176	0x3ea92cce	0.33041996
177	0x3867803d	5.5194123e-05
178	0xbcbc3680	-0.022975206
179	0x3c12517c	0.00893056
180	0x3d03b4bf	0.032154795
181	0xbd22baa3	-0.039728772
182	0x3bce0b3b	0.00628796
183	0x3ecb1a1e	0.39668363
184	0x3ceaf475	0.02868102
185	0xbc47263e	-0.012155114
186	0xba339ff6	-0.0006852144
187	0x3d355f54	0.044280365
188	0x3c0dac68	0.008647062
189	0xbb020dd5	-0.001984467
190	0x3b4a300a	0.0030851387
191	0x3a8fa26c	0.001095844
192	0xbc1a8f5b	-0.009433593
193	0xbbb782cb	-0.0056003085
194	0xbb8eda4b	-0.0043595186
195	0xbc28bf61	-0.010299535
196	0x3c86c2c2	0.01645029
197	0x3eb3e351	0.35134366
198	0x3bfc6d4a	0.007703458
199	0xbd83ce75	-0.06435863
200	0x3bd9d272	0.0066474015
201	0x3ce1c1dc	0.02755826
202	0xbca13c0b	-0.019681951
203	0x3c731577	0.014836661
204	0xbe8d171a	-0.27556688
205	0x3cb66f5d	0.022269899
206	0x3dec4f2c	0.11538538
207	0xbb04c4fb	-0.002025901
208	0x3d12faee	0.035883836
209	0x3d50c488	0.050968677
210	0x3b07a772	0.002069917
211	0xbe4a6d54	-0.19768268
212	0x3c74c183	0.014938715
213	0xbe381407	-0.1797639
214	0xbbe00501	-0.006836534
215	0x3dc4343b	0.09580275
216	0x3b50a9c0	0.003183946
217	0x3b403fc9	0.0029334894
218	0xbe619019	-0.22027625
219	0x3d150007	0.03637698
220	0x3db90b1f	0.09035324
221	0xb9a9fe12	-0.0003242349
222	0xbc71e7f6	-0.014764776
223	0x3d3ee414	0.04660423
224	0xbb2121a7	-0.0024586709
225	0x3c2c28d0	0.010507777
226	0xbb7e8fae	-0.0038842964
227	0xbc919d5c	-0.01777523
228	0xbb82edb8	-0.0039956234
229	0xbc046de9	-0.008082845
230	0xbae9461c	-0.0017797383
231	0x3cc00f62	0.023444835
232	0x3dee4051	0.11633361
233	0xbe8b2567	-0.27176973
234	0x3d6c627a	0.057711102
235	0x3a755aff	0.0009359568
236	0x3c643c60	0.01393041
237	0xbe977fb9	-0.29589632
238	0x3c6ae34b	0.014336417
239	0x3eba8b02	0.3643418
240	0x3bcbf1db	0.0062239
241	0xbd407122	-0.04698289
242	0x3b41753b	0.0029519338
243	0x3d2ef34e	0.042712502
244	0xbc04dae2	-0.008108826
245	0xbb445647	-0.0029958652
246	0x3b926890	0.004468031
247	0xbc35c51a	-0.011094356
248	0xbc3e6e0f	-0.01162292
249	0xbc364a1e	-0.011126069
250	0xbbcee017	-0.0063133347
251	0xbad7b7f7	-0.0016458024
252	0x3c47ee96	0.012202879
253	0xbe32805c	-0.17431778
254	0xbd300def	-0.042982038
255	0x3de68b82	0.11257078

edge_embedding_layer.edge_embedding_NN.weight f4 [63, 8]
0	0x3caf972e	0.021434393
1	0x3cf1d9d7	0.02952282
2	0x3e8104f3	0.25199088
3	0xbd3d8c6f	-0.046276506
4	0xbc26325d	-0.0101438435
5	0xbd120b6f	-0.035655435
6	0xbc822666	-0.01588745
7	0xbd705c75	-0.058681924
8	0xbc2291da	-0.009922469
9	0xbc308984	-0.010774974
10	0xbb8d67a7	-0.004315335
11	0xbb161a0b	-0.0022903706
12	0x3c12afd5	0.008953054
13	0xbcb5f926	-0.02221353
14	0xbc79e019	-0.015251183
15	0x3c0472b8	0.008083992
16	0x3caaec2c	0.020864569
17	0x3cb54d3a	0.022131551
18	0x3e61b494	0.22041541
19	0xbd43def0	-0.04782003
20	0xbc832cd8	-0.016012594
21	0xbd0684f8	-0.032841653
22	0xbbf1ff06	-0.0073851375
23	0xbd238828	-0.03992477
24	0x3d3e24cb	0.046421807
25	0x3d34f2f6	0.044177018
26	0x3e5e1e1c	0.21691173
27	0xbdc4eafc	-0.09615132
28	0xbca4643b	-0.020067325
29	0x3a07e48b	0.0005183897
30	0x3d407683	0.04698802
31	0xbdb420a3	-0.087952875
32	0xbc765733	-0.015035438
33	0xbbdcdea1	-0.0067404066
34	0x3c7c1de9	0.0153879905
35	0xbc711abd	-0.014715848
36	0xbc20fc8f	-0.00982584
37	0xbac778db	-0.0015218513
38	0xbab5c1b9	-0.0013866938
39	0xbb08a058	-0.0020847525
40	0xbc2a87bb	-0.010408337
41	0xba1a6be9	-0.00058907137
42	0x3b21fb4a	0.002471643
43	0xbb89685c	-0.004193349
44	0x3b376976	0.0027986444
45	0xbc5eb404	-0.013592724
46	0x3c3dafbd	0.011577544
47	0x3b304c3d	0.002690091
48	0xbab867c9	-0.0014069016
49	0xbc23dd26	-0.010001456
50	0xbde6363e	-0.112408146
51	0x3dc27a0f	0.09495937
52	0x3ddb8c11	0.10720075
53	0xbb8d189d	-0.0043059126
54	0xbdb7e8a3	-0.08979919
55	0x3dbcf821	0.09227014
56	0xbba076e4	-0.0048969854
57	0x3c2d7d0f	0.010588898
58	0xbe1c1704	-0.15243155
59	0x3e01bd19	0.12669791
60	0x3d9ec336	0.07752077
61	0x3c1c9f28	0.00955943
62	0xbc29e1e1	-0.010368795
63	0x3de96a5d	0.1139724
64	0xbb89d6e4	-0.004206525
65	0xbd9b1aa4	-0.07573441
66	0xbe0d08e0	-0.13772917
67	0x3d948f29	0.07253868
68	0x3de1bb48	0.11022049
69	0xbb1293d6	-0.002236595
70	0xbc635d9c	-0.013877299
71	0x3da0ffbc	0.078612775
72	0xbb9f2c4b	-0.004857575
73	0xbd32cc12	-0.043651648
74	0xbded67bd	-0.11592052
75	0x3da2d372	0.07950486
76	0x3d71be74	0.05901952
77	0x3c3f4d53	0.01167615
78	0xbdbc9be6	-0.09209423
79	0x3dca0889	0.09864909
80	0xbc412071	-0.01178752
81	0x3c80f8d9	0.01574366
82	0xbe0c5381	-0.13703729
83	0x3ddc259b	0.1074936
84	0x3d9e3e6d	0.077267505
85	0x3bc2da6c	0.005946448
86	0xbc5995e6	-0.0132803675
87	0x3dd845df	0.10560202
88	0xba078721	-0.0005169977
89	0xba95eb46	-0.0011437915
90	0xbacf199f	-0.0015800482
91	0xbc3ed8e9	-0.011648395
92	0xbc0960e9	-0.008384922
93	0xbc9bb220	-0.019005835
94	0xbcadfc9e	-0.021238621
95	0xbb4d5313	-0.0031330034
96	0xbc3d8376	-0.011566987
97	0xbbd385ff	-0.0064551826
98	0xbc9a3341	-0.018823268
99	0x3c0f6714	0.008752603
100	0xbb3b6b8e	-0.0028598043
101	0xbc5799c0	-0.013159215
102	0x3ac18bbb	0.0014766374
103	0xbb504e9b	-0.0031785134
104	0x3d5df15f	0.054185268
105	0x3cdcdb60	0.026960075
106	0x3e4f973f	0.2027254
107	0xbdbac674	-0.09119883
108	0xbc076a72	-0.008265125
109	0x39dd614a	0.0004222489
110	0x3d4d334b	0.050097745
111	0xbddd348c	-0.10801038
112	0xbbe8a990	-0.0071002916
113	0xbb925d47	-0.004466686
114	0xbe06a067	-0.13147126
115	0x3da208ad	0.07911811
116	0x3da25e8d	0.079281904
117	0x3c2ce6c2	0.010553064
118	0xbe80e5e4	-0.25175393
119	0x3db668b4	0.08906689
120	0x3d88cdce	0.06679879
121	0x3d545bdf	0.051845428
122	0x3e439a91	0.19101931
123	0xbda78fec	-0.08181748
124	0xbd392c42	-0.045208223
125	0x3a07ff64	0.00051878975
126	0x3d651606	0.055929206
127	0xbdbf7ec3	-0.0935035
128	0xbb9fb1dc	-0.0048734974
129	0x3a1ce32b	0.00059847784
130	0xbe076d94	-0.13225394
131	0x3ddfe6d4	0.10932699
132	0x3da5b33f	0.08090829
133	0x3b308f30	0.0026940815
134	0xbbf789b2	-0.0075542564
135	0x3db6e29b	0.0892994
136	0x3d1b9a06	0.037988685
137	0x3c584653	0.01320036
138	0x3e757f0d	0.23974247
139	0xbd8fb931	-0.07017744
140	0x3d23545f	0.039875384
141	0xbacbfb69	-0.0015562597
142	0x3cc3bbda	0.023893286
143	0xbd877688	-0.06614405
144	0x3d60dae9	0.05489627
145	0x3c16e7d0	0.009210542
146	0x3e525883	0.20541577
147	0xbdbfa646	-0.09357886
148	0x3c237a18	0.00997784
149	0xba98162e	-0.001160329
150	0x3d310875	0.043220956
151	0xbde94874	-0.113907725
152	0x3b1d54d1	0.0024006853
153	0x3a9f1132	0.0012135862
154	0xbde06154	-0.10956064
155	0x3db29dc5	0.087214984
156	0x3dc17cc7	0.094476275
157	0x3a02ddf0	0.0004992178
158	0xbd82f3a3	-0.06394126
159	0x3dc5dcd3	0.096612595
160	0xbabd41d8	-0.0014439179
161	0xbc205429	-0.00978569
162	0x3b1d0c6d	0.0023963705
163	0x3aa9ed3d	0.0012964379
164	0xbaa46acd	-0.0012544036
165	0xb9275185	-0.0001595673
166	0xbbe7546f	-0.007059626
167	0xbc163b4d	-0.009169412
168	0xbb03cc16	-0.0020110658
169	0xb9de4692	-0.0004239572
170	0xbe080991	-0.132849
171	0x3dc41b75	0.095755495
172	0x3dcf5a45	0.101246394
173	0xbbb0f5af	-0.0054003815
174	0xbc6480e3	-0.013946745
175	0x3dd510de	0.10403608
176	0x3d5cb4c8	0.053883344
177	0x3d6fa157	0.058503475
178	0x3e5935cb	0.21211927
179	0xbdc3c1d5	-0.09558455
180	0x39215493	0.00015385663
181	0x38086b31	3.2524757e-05
182	0x3d73819b	0.059449773
183	0xbdb10b8b	-0.0864478
184	0xbac274e0	-0.0014835857
185	0xba8e844b	-0.0010873167
186	0x39d1eda0	0.0004004063
187	0x3b001626	0.0019544451
188	0xbc923157	-0.017845793
189	0xbbb0dbb9	-0.0053972867
190	0xbb3423de	-0.0027487199
191	0xbb7c7255	-0.0038520296
192	0x3d8bb1cb	0.06821021
193	0x3d284ef3	0.041090917
194	0x3e5777f2	0.2104185
195	0xbdf129a8	-0.117755234
196	0xbd0e6c15	-0.034771044
197	0x3b9f76bb	0.0048664487
198	0x3d28759a	0.04112778
199	0xbdca79a4	-0.09886482
200	0x3ccb10eb	0.02478834
201	0x3ab1b37f	0.0013557522
202	0x3e80a659	0.25126913
203	0xbe67db6a	-0.22642294
204	0x3d1b3609	0.03789333
205	0xbb1ce0bb	-0.002393766
206	0x3c813f9b	0.0157774
207	0xbe468789	-0.1938764
208	0xbc4ffe57	-0.012694917
209	0x3ac0eb7f	0.0014718621
210	0xbe0121c9	-0.12610544
211	0x3dc9f892	0.09861864
212	0x3d9705ca	0.07374151
213	0x3bad198b	0.005282586
214	0xbe68cb2b	-0.22733752
215	0x3dc20555	0.09473673
216	0x3d556b6f	0.05210441
217	0x3c9e11dd	0.019295627
218	0x3e54dd20	0.20787477
219	0xbde23769	-0.11045725
220	0x3d49b81d	0.04924785
221	0xbb324dba	-0.0027206973
222	0x3d240e2f	0.04005259
223	0xbdc10123	-0.09424045
224	0xbc72cea2	-0.014819773
225	0xbc72e95d	-0.014826146
226	0xbc8821f8	-0.01661776
227	0xbc7a36e5	-0.015271877
228	0xbbf97fbc	-0.007614104
229	0xbc45d3ce	-0.012074424
230	0xbc541806	-0.012945181
231	0xbc2c6b4a	-0.010523627
232	0xb90ef6ad	-0.00013634069
233	0xbca7cb33	-0.020482635
234	0xbdc29eb9	-0.0950293
235	0x3dc89a9c	0.097951144
236	0x3dc4a618	0.09601992
237	0x3b89af06	0.0042017726
238	0xbe1fcb92	-0.15605
239	0x3dbe12fe	0.09280966
240	0x3d22f520	0.03978455
241	0x3d530f1a	0.051528074
242	0x3e54ea89	0.20792593
243	0xbddbe965	-0.10737876
244	0xbc82abda	-0.015951086
245	0x39e67a7a	0.0004396027
246	0x3d5c0779	0.053718064
247	0xbda65b57	-0.081228904
248	0x3d0838a5	0.033257145
249	0xba52caeb	-0.00080411014
250	0x3e941069	0.2891877
251	0xbe4d1454	-0.20027286
252	0x3d4ab1b5	0.04948588
253	0x38823aba	6.209822e-05
254	0x3c357a0d	0.011076462
255	0xbe48d287	-0.1961156

edge_embedding_layer.edge_feature_NN.weight f4 [64, 64]
0	0x3d409081	0.04701281
1	0x3bdaa9ff	0.006673097
2	0x3d329f75	0.0436091
3	0x3d63eabf	0.055643793
4	0x3c229df9	0.009925359
5	0x3c06994c	0.00821526
6	0xbcefb2b2	-0.029260013
7	0xbd68e40d	-0.05685811
8	0xbcc8cf01	-0.02451277
9	0xbca710dd	-0.020393783
10	0xbd1da60b	-0.03848843
11	0x3aa17491	0.0012318065
12	0xbbb9a833	-0.005665803
13	0x3d91d9c5	0.07121614
14	0xbd0885f3	-0.03333087
15	0x3d6cb9c4	0.057794347
16	0xbcfc73e0	-0.030816972
17	0x3cec2fc2	0.028831366
18	0x3d05f0c1	0.032700304
19	0xbc588079	-0.013214224
20	0x38e5ccfb	0.000109577515
21	0xbd154c61	-0.036449794
22	0x3d20a3ae	0.039218597
23	0x3b299970	0.002587881
24	0x3d1c52fc	0.038165078
25	0x3df50ab1	0.1196493
26	0xbd4e3d9b	-0.05035172
27	0x3cfde852	0.030994568
28	0xbb0ea57f	-0.0021766124
29	0xbd431b28	-0.04763332
30	0x3d2f91e7	0.042863753
31	0x3df72f8e	0.12069617
32	0xbd138dfc	-0.03602408
33	0xbd20807f	-0.039185043
34	0x3d8df455	0.06931368
35	0xbbabe724	-0.00524606
36	0x3d2c26e1	0.042029265
37	0xbd0f99d6	-0.03505882
38	0xbd444317	-0.047915544
39	0x3d725fdc	0.05917345
40	0xbd2a7725	-0.04161753
41	0x3d5bc049	0.053650174
42	0x3c93b40e	0.018030193
43	0x3d890bdd	0.06691716
44	0x3b5e63f3	0.0033934086
45	0xbd0de563	-0.03464259
46	0xbd3bd528	-0.04585758
47	0xbb132378	-0.002245156
48	0x3b0960f6	0.0020962334
49	0xbd4d30c8	-0.05009535
50	0x3c8e4d97	0.017370982
51	0xbc29b62f	-0.010358377
52	0x3cb480a5	0.022033999
53	0x3c54a5f9	0.012979024
54	0xbd4bca21	-0.049753312
55	0x3ce27fa0	0.027648747
56	0x3d8f3ff1	0.06994618
57	0x3decfb6e	0.11571394
58	0x3c182ddc	0.0092882775
59	0x3c9b16f1	0.018931838
60	0x3d8d882f	0.069107406
61	0x3da3c594	0.079966694
62	0x3cb6e364	0.022325225
63	0x3d5b43b7	0.053531375
64	0xbc303ff4	-0.010757435
65	0xbc05461d	-0.008134392
66	0x3acbe4e5	0.0015555887
67	0x3c06e193	0.008232492
68	0x3afbc13b	0.0019207367
69	0x3b0dc229	0.002163062
70	0x3bf8190b	0.0075713447
71	0x3c5ed985	0.013601665
72	0xbbf16fc0	-0.007368058
73	0xbb6b9c7e	-0.003595143
74	0xbc008053	-0.007843095
75	0x3a0b30f0	0.00053097215
76	0x3c61c0a9	0.013778844
77	0x3bcc8d7b	0.0062424517
78	0x3bf540b5	0.0074845203
79	0xbc645e79	-0.01393854
80	0x3b2d8eca	0.0026482814
81	0x3bfcbd0f	0.007712967
82	0x3c046dee	0.00808285
83	0xb907bfe2	-0.00012946085
84	0xbc1671cf	-0.0091824075
85	0xbc1403b8	-0.00903409
86	0xbb964366	-0.0045856712
87	0xbcca8800	-0.024723053
88	0x3c1a18f7	0.009405366
89	0x3c4ed60e	0.012624277
90	0xbb710661	-0.0036777484
91	0xbb3c7db2	-0.0028761444
92	0x3c4cccdb	0.012500013
93	0xbc8d9dc9	-0.017287152
94	0x3bbfd589	0.005854313
95	0x3b97d3f0	0.004633419
96	0xb86cf069	-5.6490684e-05
97	0xbc7fc71e	-0.015611438
98	0xbc2defb4	-0.010616232
99	0xbb45fb0a	-0.0030209445
100	0xbcaec579	-0.021334397
101	0x3b9752c7	0.004618022
102	0xbbac1fcd	-0.0052528144
103	0x3c157a69	0.009123423
104	0x3b8e9e54	0.0043523703
105	0x3c5081b3	0.012726235
106	0x3bc7859c	0.0060889255
107	0x3ba3249b	0.004978729
108	0xbb22c8db	-0.0024838957
109	0xbc4a5853	-0.01235016
110	0xba183dd0	-0.00058075506
111	0x3c88aab7	0.016682966
112	0x3c5be4bb	0.013421233
113	0x3a4147f3	0.0007373087
114	0x3bb4e0f0	0.0055199787
115	0x3b6370ea	0.0034704753
116	0xbcc0dd45	-0.02354301
117	0xbc486df4	-0.012233246
118	0x3bbe6e9d	0.005811526
119	0xbc9396b4	-0.018016197
120	0xbc0d2da8	-0.008616842
121	0xbbdc8050	-0.006729163
122	0xbbaee179	-0.005336937
123	0x3a03acbd	0.00050229934
124	0x3bdf895c	0.0068217944
125	0xbaa9311e	-0.0012908315
126	0x3c135708	0.008992918
127	0xbcd67c8f	-0.026182441
128	0x3cc5d556	0.024149578
129	0xbbd022fb	-0.0063518262
130	0x3d68f6eb	0.056876104
131	0xbc810be9	-0.01575275
132	0xbc3e3d2e	-0.011611266
133	0xbb84ebc2	-0.004056425
134	0x3d18c385	0.037295837
135	0x3c88b3b7	0.016687257
136	0x3d2ad41b	0.041706186
137	0x3c46b61c	0.012128379
138	0x3c7da04b	0.015480111
139	0x3b10207a	0.0021992014
140	0xbafb3480	-0.0019165426
141	0xbcc1b61e	-0.02364641
142	0x3b2ea10e	0.002664629
143	0xbc9e3080	-0.019310236
144	0x3b84d397	0.004053544
145	0x3c9fa77b	0.01948904
146	0xbc87b569	-0.016565995
147	0x3cdae60f	0.026721029
148	0xbcc653fd	-0.02420997
149	0x3cda3054	0.026634373
150	0xbae9e022	-0.0017843286
151	0x3b86e627	0.0041167918
152	0xbca91c90	-0.020643502
153	0xbde90837	-0.1137852
154	0x3ca3b7bc	0.019985072
155	0xbcaf3807	-0.02138902
156	0xbbf69535	-0.007525111
157	0x3c83febb	0.016112676
158	0x3c0e5fba	0.008689815
159	0xbe010a42	-0.1260157
160	0x3d0713d7	0.032977905
161	0x3d07a066	0.033111952
162	0xbca1bad4	-0.019742407
163	0x3bf5cbb7	0.0075010913
164	0xbca36e13	-0.019949948
165	0x3d0cd74d	0.034385014
166	0x3ca2fb8b	0.019895336
167	0xbd0e6369	-0.034762774
168	0x3d418ccc	0.047253415
169	0x3c2f2255	0.010689338
170	0xbc9617b6	-0.018321853
171	0xbb96302e	-0.00458338
172	0xbb48607b	-0.0030575085
173	0x3d494f54	0.04914792
174	0x3d20eee0	0.03929031
175	0x3c384fd8	0.011249505
176	0xbc58d26b	-0.013233761
177	0x3d030b46	0.031993173
178	0xb90d89bd	-0.0001349812
179	0x3c36160b	0.011113654
180	0xba8a10cc	-0.001053357
181	0x3acd6703	0.0015670959
182	0x3d2c4b2f	0.04206389
183	0xbcbfdba5	-0.023420164
184	0xbd012882	-0.031532772
185	0xbdb56deb	-0.08858856
186	0x3b9e3c1b	0.0048289425
187	0x3c122e43	0.0089221625
188	0xbd1142e9	-0.0354642
189	0xbcf5c88a	-0.030002851
190	0xbc65f7cf	-0.014036133
191	0xbbcc8520	-0.0062414557
192	0xbc64669c	-0.01394048
193	0xbbe11e57	-0.006870072
194	0xbc1844c6	-0.009293741
195	0x3c0bc6d4	0.008531291
196	0x3b5b1fe5	0.0033435759
197	0xbc06ab8d	-0.008219612
198	0xbc22d12a	-0.009937564
199	0x35f1eb25	1.8024335e-06
200	0x3bd59b52	0.0065187598
201	0xbacde4c1	-0.0015708433
202	0x3c0ae14f	0.008476569
203	0xbbf11adc	-0.007357938
204	0xbb971dd7	-0.0046117115
205	0x3b13a07e	0.002252608
206	0xbc10207d	-0.008796808
207	0xbb18d0e3	-0.0023317866
208	0xbc8ee465	-0.017442891
209	0x3bc7cc73	0.0060973703
210	0xbc816c24	-0.015798636
211	0xbba69a27	-0.0050842944
212	0x3b87c0a2	0.0041428367
213	0xbb974283	-0.004616083
214	0xb88678ba	-6.412105e-05
215	0xbb1cd23a	-0.0023929016
216	0x3b24f554	0.002517064
217	0xbc288a92	-0.010286944
218	0xbb48f6d8	-0.0030664708
219	0x3c013fed	0.007888776
220	0x3c3181f8	0.01083421
221	0xba960320	-0.0011445023
222	0xbb307756	-0.0026926599
223	0xba8412e0	-0.0010076426
224	0xbc858e08	-0.016303077
225	0x3bea81c1	0.007156581
226	0x3a88d0fb	0.0010438258
227	0x39478a4a	0.00019029636
228	0x3a6bbbd8	0.00089925295
229	0xbbb77335	-0.0055984505
230	0xbbb8831d	-0.0056308643
231	0x390ac7cf	0.0001323514
232	0xbbb30f06	-0.0054644374
233	0xbb89bf46	-0.00420371
234	0x390305e2	0.00012495325
235	0xb95c5f24	-0.00021016278
236	0x3c8fa7c0	0.017536044
237	0x3c8b199f	0.01697999
238	0xbc5d5942	-0.01351005
239	0x3bbb3935	0.0057136067
240	0xba249bc1	-0.00062793127
241	0xb9a491a7	-0.00031389037
242	0x3b473395	0.0030395736
243	0xbc5a2fdb	-0.013317074
244	0xba1649a6	-0.00057330204
245	0x3bb355bd	0.0054728673
246	0xbacdc1cb	-0.0015698014
247	0xbbfbfa05	-0.0076897168
248	0x3c57cca2	0.013171347
249	0xbc5dbc3b	-0.013533647
250	0xb9bc8578	-0.00035957596
251	0xba22f04f	-0.00062156183
252	0xbb065416	-0.0020496896
253	0xbc0deb9f	-0.0086621335
254	0x3bd47b37	0.006484415
255	0xbb9e6e9d	-0.0048349635

update_node_embedding_layer.0.message_layer.weight f4 [64, 128]
0	0xbc7f1cb7	-0.015570811
1	0x3bafcdfb	0.005365131
2	0xbc670102	-0.014099361
3	0xbb8a405e	-0.004219099
4	0xbc92801a	-0.01788335
5	0x3c3a54a3	0.011372718
6	0x3bfd3086	0.0077267317
7	0x3bdec414	0.0067982767
8	0xbb863dd6	-0.004096727
9	0xbc9c731e	-0.01909786
10	0x3c1b61db	0.00948378
11	0xbc905a9c	-0.01762133
12	0xbc88d357	-0.016702337
13	0xbc1a9e8e	-0.009437216
14	0x3bd98547	0.0066382024
15	0x3b0fd68a	0.0021947944
16	0xbc4cee00	-0.0125079155
17	0xbb736ad4	-0.0037142532
18	0x3a6a2c54	0.0008932997
19	0x3c09de7f	0.008414864
20	0xbc3ff6d7	-0.011716566
21	0xbcab7e7f	-0.020934341
22	0xbc003b4b	-0.007826637
23	0xbbf89a61	-0.007586763
24	0x3cb0071e	0.021487769
25	0x3c4aef8d	0.012386215
26	0xbb97db6e	-0.0046343124
27	0xbb855148	-0.0040685274
28	0xbbc5b711	-0.006033786
29	0xbc736b10	-0.014857069
30	0xbc0d159d	-0.00861111
31	0x3c7e86d2	0.015535073
32	0xbaf72e49	-0.0018858399
33	0x3c3a66d3	0.011377054
34	0x3b7582c7	0.0037461983
35	0xbba1efb0	-0.004941903
36	0xbb527d50	-0.003211815
37	0xbb96c7e1	-0.004601464
38	0xbc9c5a0d	-0.019085908
39	0xbc1bca71	-0.009508715
40	0xbbb2d960	-0.005458042
41	0x3b9f3470	0.004858546
42	0xbc8241d6	-0.015900534
43	0xbc3d33e1	-0.011548013
44	0x3b7415dc	0.0037244475
45	0x3c1dfd00	0.009642839
46	0xbc429efc	-0.011878725
47	0xb6e3def4	-6.7910823e-06
48	0xbc2348e7	-0.009966112
49	0x3c5c44ae	0.013444109
50	0xbadbb3d5	-0.0016761968
51	0xbbb00372	-0.0053715045
52	0x3b413148	0.0029478837
53	0x3b9ab502	0.004721285
54	0xbc95cca3	-0.018286055
55	0x3c61f210	0.013790622
56	0xbbede422	-0.0072598616
57	0xbbbfd027	-0.005853671
58	0xbc172601	-0.009225369
59	0xba892ae0	-0.0010465048
60	0x3b28d531	0.0025761838
61	0x3cb769ef	0.02238938
62	0x3c023b6f	0.00794874
63	0xbb1bee0d	-0.0023793012
64	0xbbce0970	-0.006287746
65	0xbb1f3f76	-0.00242993
66	0x3c371b50	0.011175945
67	0xbc4a63bd	-0.012352881
68	0xb97287b9	-0.00023129479
69	0xba2d4be5	-0.00066107354
70	0xbc697fcb	-0.01425166
71	0x3c0f57f3	0.008748996
72	0xbc11708e	-0.008876933
73	0xbb00e923	-0.001967021
74	0xbba24303	-0.004951836
75	0x3c60e5df	0.013726681
76	0xbb8e80d4	-0.0043488536
77	0x3ba31f91	0.0049781282
78	0x3ae442e3	0.0017414953
79	0x3ca7206d	0.020401204
80	0xbb8d519f	-0.0043127085
81	0x3a04d92d	0.0005067762
82	0xbaa54a8c	-0.0012610718
83	0xbbac23d7	-0.005253296
84	0xbbd8ceb0	-0.006616436
85	0x3ba08de5	0.0048997276
86	0xbc0b59b4	-0.008505274
87	0x3c8a0d7c	0.016852133
88	0x3b3ee9b5	0.0029131
89	0x3a97ac0d	0.0011571661
90	0x3b961e32	0.0045812363
91	0x3c5eb829	0.013593712
92	0xbc5da9a6	-0.013529217
93	0xbc6453a1	-0.013935954
94	0xbbbe14a8	-0.0058008023
95	0x3ca5b5f8	0.020228371
96	0x3c7a0468	0.01525984
97	0xbc97e2b4	-0.018540718
98	0x3c629dca	0.013831565
99	0xbaacfb45	-0.0013197443
100	0x387dc87b	6.0506612e-05
101	0xbb0b3c1e	-0.002124555
102	0xbc177049	-0.009243079
103	0x3cc843ae	0.024446335
104	0x3b1c2ff5	0.0023832296
105	0xbb3391ec	-0.0027400209
106	0x3b7436c0	0.003726408
107	0x3b975742	0.0046185562
108	0xbc413f67	-0.011794901
109	0xbcac15dd	-0.021006519
110	0x3becdd1b	0.0072285063
111	0xbbbac510	-0.005699761
112	0xbbc6a98f	-0.0060626934
113	0x3c729569	0.01480613
114	0xbbdc6f53	-0.006727138
115	0x3c08b937	0.00834494
116	0x3b19bfab	0.002346019
117	0x3ae5bb54	0.0017527142
118	0x3bdd1c90	0.0067477897
119	0xbc39376b	-0.011304717
120	0x3c0aeb86	0.008479005
121	0x3c065456	0.008198818
122	0xbc000146	-0.007812804
123	0xbc5c405c	-0.013443079
124	0xbb38e372	-0.002821174
125	0x3ad2f1cf	0.0016093793
126	0x3bfe720c	0.0077650603
127	0xbb6c5618	-0.0036062058
128	0xbb8ae97b	-0.004239259
129	0xbba48571	-0.0050207903
130	0xbc66e1b2	-0.014091896
131	0x3bf7c231	0.007560991
132	0xbb9aafee	-0.0047206795
133	0x3c7700d2	0.015075879
134	0x3ab2c5a0	0.0013639219
135	0xbc9170be	-0.017753955
136	0x3be94092	0.007118293
137	0x3c9c2cda	0.019064356
138	0x3befaf15	0.0073145726
139	0xba1adb53	-0.00059073156
140	0x3c0200bb	0.0079347445
141	0xbabcc77c	-0.0014402713
142	0x3b6d0db7	0.0036171505
143	0x3c296c69	0.010340788
144	0xbcd4ca28	-0.025975302
145	0x3c28fd8f	0.010314359
146	0x3a37a8c3	0.00070060435
147	0x3c31865f	0.010835259
148	0x3be89af8	0.007098552
149	0x3c011793	0.007879156
150	0x3c3d7faf	0.011566087
151	0xbbc0c94c	-0.0058833715
152	0xbb0f8de3	-0.002190464
153	0xbc2d31a6	-0.010570919
154	0x3c3bd5f0	0.011464581
155	0x3c365618	0.011128925
156	0x3c02fd33	0.007994938
157	0xbc7a9b15	-0.0152957635
158	0x3c3f93fd	0.011692998
159	0xbbceeb41	-0.0063146655
160	0xba71bcbd	-0.00092215446
161	0x3a71eb05	0.0009228441
162	0xbb816560	-0.0039488524
163	0x3b5a4b35	0.0033308987
164	0xbc3316ef	-0.010930761
165	0x3b1346b3	0.002247256
166	0x3c6ecece	0.014575673
167	0xbc08a402	-0.008339884
168	0x3972360c	0.00023099052
169	0x3b7ad1a6	0.0038271933
170	0x3c0d0a42	0.008608403
171	0xbc720a2b	-0.014772932
172	0xbb7465d7	-0.0037292147
173	0xbae71472	-0.0017629995
174	0x3c85ab45	0.01631702
175	0xb85d266a	-5.2726282e-05
176	0xbba5a0aa	-0.005054553
177	0xba61e5e7	-0.0008617327
178	0x3c8d59eb	0.01725479
179	0xbc0c0293	-0.008545536
180	0x3c32cadb	0.010912622
181	0xbc54ffd5	-0.013000448
182	0x3c78080e	0.015138639
183	0x3a62adc5	0.00086471095
184	0xbb21a5cb	-0.002466547
185	0xbc591808	-0.013250358
186	0x3c626065	0.013816928
187	0xbc849e5a	-0.01618879
188	0x3b3300b0	0.0027313642
189	0x3b8fcd01	0.004388452
190	0xba9fe55d	-0.0012199093
191	0x3b17bdc0	0.0023153871
192	0x3b23ba02	0.0024982695
193	0xba04de7e	-0.00050685543
194	0xbc58fdd2	-0.013244109
195	0xbbefd5f3	-0.007319206
196	0xbbb420df	-0.0054970826
197	0x3c1813fc	0.009282108
198	0x3b05d84a	0.0020423108
199	0xbb121e88	-0.002229603
200	0xba66dac4	-0.00088064023
201	0x3b06d12d	0.0020571456
202	0x39c63149	0.00037802223
203	0xbc518e00	-0.012790203
204	0x3c5bc1ac	0.013412874
205	0x3b876f7e	0.004133164
206	0xbba36a20	-0.0049870163
207	0xbb9f95a7	-0.004870135
208	0xbc9620e8	-0.018326238
209	0x3c1c70c3	0.009548369
210	0xbc32fc73	-0.010924446
211	0xbb7fdebc	-0.0039042672
212	0x3a491629	0.00076708436
213	0x3c4d5734	0.012532998
214	0x3a3c0c21	0.0007173438
215	0xbc5f4744	-0.013627831
216	0xbb0d041c	-0.0021517342
217	0xb9975fa2	-0.00028872216
218	0xbaf30a70	-0.0018542539
219	0xbc137c05	-0.0090017365
220	0x3c1d68ee	0.009607537
221	0x3b6dacff	0.0036266444
222	0xbbb78be1	-0.0056013917
223	0xba5dc303	-0.000845954
224	0xba93e24e	-0.0011282654
225	0xbbd94612	-0.0066306675
226	0xbc0afb85	-0.0084828185
227	0xb8f1a10a	-0.000115217714
228	0xbb2bd66a	-0.002622033
229	0xbb195592	-0.002339695
230	0xbc0342e5	-0.008011554
231	0xbc8d8886	-0.017277014
232	0x3b608d73	0.0034263998
233	0xbc643bbe	-0.013930259
234	0x3b99ef93	0.004697749
235	0xbc6551b3	-0.013996529
236	0xbbf5dc17	-0.0075030434
237	0x3b0b16da	0.0021223337
238	0xbc977115	-0.018486539
239	0xbc3c719e	-0.011501698
240	0x3bbe3610	0.0058047846
241	0x3b37c309	0.0028039834
242	0xb9ca69e5	-0.0003860734
243	0x3c74daa9	0.014944711
244	0x3bedd337	0.007257845
245	0x3c4e369c	0.012586262
246	0x3c5c97f2	0.013463961
247	0xbc9f7564	-0.019465156
248	0xbb1c54da	-0.0023854286
249	0x3b4f5161	0.00316342
250	0xbc549177	-0.012974135
251	0x3c2d07b2	0.010560917
252	0xbbfef110	-0.0077802017
253	0x3b2d09a9	0.0026403463
254	0x3c8e419e	0.017365273
255	0xbbb9d69d	-0.005671336

update_node_embedding_layer.0.update_layer.weight f4 [64, 128]
0	0x3bf605d7	0.0075080204
1	0x3bec16b1	0.0072048535
2	0x3a62f235	0.00086573075
3	0xbba921c8	-0.0051614977
4	0x3bf3be54	0.0074384604
5	0xbc442742	-0.01197225
6	0xbbb97a0d	-0.0056603015
7	0xba99ee8f	-0.001174407
8	0x3bdae870	0.0066805407
9	0x3c6c7e8f	0.014434471
10	0xbc3dfb84	-0.0115956105
11	0xbada4d45	-0.0016655108
12	0xbca52f04	-0.02016402
13	0xba2b4622	-0.0006533583
14	0xbb0690b5	-0.002053303
15	0xbc04b846	-0.008100575
16	0x3c49c3f0	0.012314782
17	0x39cc102d	0.00038921964
18	0xbc65b224	-0.014019523
19	0xbb518af1	-0.0031973685
20	0xba4a053d	-0.0007706469
21	0xbc1f686f	-0.009729489
22	0xbc1767f3	-0.009241092
23	0xbb8b7e13	-0.0042569726
24	0xbc230e6c	-0.009952169
25	0xba246401	-0.0006271005
26	0xbc45b3c0	-0.0120667815
27	0xba300e6e	-0.00067160174
28	0x3af348b9	0.0018561102
29	0xbc26d875	-0.010183443
30	0x3c308c53	0.010775643
31	0xbbc9865c	-0.00615005
32	0xbca5f789	-0.020259636
33	0xbd09ad1d	-0.03361236
34	0xbc10e695	-0.008844038
35	0x3bcdcc8f	0.006280489
36	0x3c56d235	0.013111641
37	0x390a9601	0.00013216586
38	0xbc062897	-0.008188388
39	0x3c8cd89e	0.017193135
40	0x3c29734d	0.010342431
41	0xbb8fb0c4	-0.004385086
42	0x387ed2fd	6.0754817e-05
43	0xbc0c0bed	-0.008547765
44	0xbbf162e8	-0.007366527
45	0x3c671010	0.014102951
46	0xbcc74ff0	-0.02433011
47	0x3b9c87a5	0.0047769123
48	0xbc6f6aee	-0.014612896
49	0x3b94ccdf	0.004541024
50	0xbb914f9b	-0.0044345385
51	0xbc11c791	-0.008897678
52	0xbc3143d6	-0.010819396
53	0xbbee4da6	-0.00727244
54	0xbb959352	-0.004564681
55	0x39a7c573	0.00031999833
56	0xbae6172b	-0.0017554512
57	0xbc536353	-0.012902099
58	0x3ba7a442	0.0051160166
59	0xbbde83be	-0.0067906072
60	0xbaffe9d4	-0.0019524642
61	0xbbf3c94d	-0.0074397684
62	0x3ca48b9c	0.020086102
63	0x396b4b8d	0.00022439491
64	0x3c4bffcc	0.012451123
65	0x3b80bd43	0.0039288118
66	0x3c126bbc	0.008936819
67	0x3b5a3bff	0.003329992
68	0xbb8bb7e9	-0.004263867
69	0xbba25b70	-0.004954748
70	0x3c52af60	0.0128591955
71	0xbb678c76	-0.0035331524
72	0xbbd3a3d8	-0.0064587407
73	0x3be4f30c	0.0069869813
74	0x3bef03b9	0.007294145
75	0xba428508	-0.0007420336
76	0x3c851d85	0.016249428
77	0x3abd19ae	0.0014427209
78	0xbbcefbce	-0.0063166386
79	0x3b67e77d	0.003538578
80	0x3c8ac9bb	0.016941896
81	0xbc283cba	-0.010268385
82	0x3be60133	0.007019186
83	0x3a9f1042	0.0012135583
84	0x3c203a9e	0.0097796
85	0xbc34828f	-0.011017456
86	0xbc10ffd1	-0.008850054
87	0x3b1b513a	0.0023699538
88	0xbc1ec635	-0.009690811
89	0xbc4752e8	-0.0121657625
90	0x3cabce5c	0.020972423
91	0x3c7adb3e	0.0153110605
92	0x3a8c76e1	0.0010716581
93	0x3c88d9d7	0.016705437
94	0xbb37c321	-0.002803989
95	0xbb5efe97	-0.003402626
96	0x3b5b57fd	0.0033469193
97	0x3c48cdde	0.012256114
98	0x3aa02a8a	0.0012219709
99	0xbc2aefde	-0.010433165
100	0xbc8025ad	-0.015642965
101	0xbbad09da	-0.0052807154
102	0xbc3bbae8	-0.011458136
103	0xbba8810d	-0.005142337
104	0xbc4c2417	-0.012459776
105	0x3c7b66a2	0.015344294
106	0xbc78eea3	-0.015193614
107	0xbc29fdc3	-0.010375443
108	0xbac78e43	-0.0015224892
109	0xbcdec525	-0.027193615
110	0xbc9a6d4a	-0.018850941
111	0xbbc0d99f	-0.0058853175
112	0xbb786cc5	-0.0037906629
113	0x3b316a23	0.002707132
114	0xbbb7a87b	-0.0056048012
115	0xbc161b64	-0.009161804
116	0xbc1843c0	-0.009293497
117	0xbc41d8c5	-0.011831467
118	0xbc2082f8	-0.00979685
119	0x3b8a76a9	0.004225571
120	0xbb109f8b	-0.0022067751
121	0x3bba3da9	0.00568362
122	0x3cd234bb	0.02565991
123	0xbcbd9b09	-0.023145216
124	0xbbe2c894	-0.0069208834
125	0x3b5d8d15	0.0033806015
126	0xbb226219	-0.002477771
127	0x3c760013	0.015014666
128	0x3d0981b9	0.03357098
129	0x3ca8261d	0.020525986
130	0xbb8a5bd5	-0.004222373
131	0x3bce340f	0.006292827
132	0xbbaddfa5	-0.0053062015
133	0xbbaeff7b	-0.0053405142
134	0xbd26309a	-0.040573694
135	0x3aa15f00	0.0012311637
136	0x3d2c9d66	0.042142294
137	0xbc4c9743	-0.0124872355
138	0x3c884f14	0.01663927
139	0x3ce3ac52	0.02779213
140	0xbcb6821a	-0.022278834
141	0x3c93415f	0.017975507
142	0x3d0287c3	0.031867754
143	0xbd8faa5b	-0.070149146
144	0x3ce921d5	0.028458515
145	0xba782414	-0.0009465825
146	0x3d219f69	0.039458666
147	0x3c42a262	0.011879535
148	0xbb8497c6	-0.004046413
149	0x3d176836	0.036964618
150	0x3c8c95d6	0.017161291
151	0x3d44a8d9	0.04801259
152	0x3c083b65	0.008314942
153	0x3a450099	0.00075150427
154	0x3c84064c	0.016116284
155	0x3bf57dec	0.0074918177
156	0xbc830ca9	-0.015997248
157	0x3ccbe2dc	0.024888448
158	0x3da24bf3	0.079246424
159	0x3cce75d7	0.025202675
160	0xbc516d69	-0.012782433
161	0xbe039e67	-0.12853394
162	0xbcc66620	-0.024218619
163	0x3c8452b1	0.016152712
164	0x3d280666	0.041021727
165	0x3d4b428f	0.049624022
166	0x3d9540e3	0.07287767
167	0xbcba8c27	-0.022771908
168	0x3ca0d5ed	0.019633258
169	0x3983f395	0.0002516775
170	0x3d35a80f	0.044349726
171	0x3cb69d4b	0.0222918
172	0xb93d7bf2	-0.00018070618
173	0xbbc36d41	-0.005963952
174	0xbcde31ff	-0.02712345
175	0x3c352ed1	0.011058525
176	0xbcc79ad5	-0.024365822
177	0x3d2f0de5	0.04273786
178	0xbcc49a3d	-0.023999328
179	0xbd874190	-0.06604302
180	0x3d9ad5b4	0.07560292
181	0x3d0c6643	0.034277212
182	0x3cd4dabf	0.025983213
183	0xbca081dd	-0.019593174
184	0xbc532f28	-0.012889661
185	0x3d1665e2	0.036718257
186	0x3c7b677d	0.015344498
187	0x3ca28fdb	0.019843986
188	0xbc7a61b2	-0.015282081
189	0x3d1e1a51	0.038599316
190	0x3d6a69f4	0.05722995
191	0x3c26cb7f	0.010180353
192	0xbbab5d2d	-0.0052296133
193	0x3c1ccb0f	0.009569897
194	0x3cc7c780	0.024387121
195	0x3a1eba21	0.0006054957
196	0xbce9a309	-0.028520124
197	0xbc079711	-0.008275763
198	0x3b337a20	0.0027386025
199	0xbb8b1faa	-0.004245718
200	0x3c95a93b	0.018269172
201	0xbb46ea9e	-0.0030352245
202	0x3be54c6d	0.006997636
203	0xba3ceb34	-0.0007206679
204	0xbc1616d1	-0.009160713
205	0x3c463538	0.012097649
206	0x3c2936c6	0.010328
207	0xbcc69021	-0.024238648
208	0xbcba356b	-0.02273055
209	0x3b925b57	0.004466455
210	0xbc95a9d5	-0.018269459
211	0xb919e1d6	-0.00014675347
212	0x3c0c61dd	0.008568254
213	0x3b254061	0.0025215375
214	0x3d091d1d	0.03347503
215	0xbbf53fd0	-0.0074844137
216	0x3aa6bead	0.0012721621
217	0xbc8fc198	-0.017548367
218	0x3b68e999	0.0035539626
219	0x3a9f2657	0.0012142163
220	0x3bfee3b8	0.007778611
221	0xbbe9108b	-0.007112568
222	0xbc932397	-0.017961306
223	0x3c45357f	0.01203668
224	0x3cd3e951	0.02586809
225	0xbbda7ed2	-0.00666795
226	0xbd9aa37a	-0.07550712
227	0xbcd048ab	-0.025425276
228	0xb9f100cc	-0.00045967696
229	0x3c83d775	0.016093949
230	0x3ace38d7	0.0015733492
231	0x3d14fc55	0.036373455
232	0x3c06073b	0.008180435
233	0xbba048b2	-0.0048914785
234	0x3cdd0190	0.026978284
235	0x3c56d4e4	0.0131122805
236	0xbd9ca70c	-0.07649049
237	0xbc912d53	-0.017721808
238	0x3c517ea8	0.012786545
239	0x3c0eb649	0.008710452
240	0x3a8aa373	0.0010577276
241	0xbc946426	-0.01811416
242	0xbce27870	-0.02764532
243	0xbda9af3b	-0.08285376
244	0x3c75a6c4	0.014993373
245	0x3ad70a82	0.001640633
246	0x3ba7b9df	0.005118593
247	0x3ba1ca06	0.004937413
248	0x3c4de29e	0.012566237
249	0x3c56de20	0.013114482
250	0xbc5cf29c	-0.013485577
251	0x3c0317d3	0.008001286
252	0xbbea5189	-0.007150833
253	0xbc33bdf1	-0.0109705785
254	0x3aaf7da7	0.0013388888
255	0xbc0d4649	-0.008622714

update_node_embedding_layer.1.message_layer.weight f4 [64, 128]
0	0xbb20d5f7	-0.0024541595
1	0xbca32659	-0.019915747
2	0x3c9032f2	0.017602418
3	0x3e1b40f7	0.15161501
4	0x3b1dc89b	0.002407587
5	0x3b035c19	0.0020043908
6	0xbc2790a1	-0.010227353
7	0xbc6ce4a5	-0.01445881
8	0xbc145ddf	-0.009055584
9	0x3a30704d	0.00067306013
10	0xbca7413b	-0.020416846
11	0xbc878794	-0.01654414
12	0xbd0e3d9b	-0.03472672
13	0xbc74a6f9	-0.0149323875
14	0x3b7baef0	0.0038403831
15	0x3d477bdb	0.048702102
16	0x3e2cc4e1	0.16871978
17	0xbc26d350	-0.010182217
18	0x3e168958	0.1470083
19	0xbc871832	-0.01649103
20	0x3d9220f7	0.07135194
21	0xbc30d1ab	-0.010792176
22	0xbcadfb7d	-0.021238083
23	0xbd08cc25	-0.033397812
24	0xbc8cfad8	-0.017209455
25	0x3b811a0c	0.0039398726
26	0xbb039b7f	-0.0020081697
27	0xbcaab7a9	-0.02083953
28	0x3c738441	0.014863075
29	0x3d582e3a	0.05277846
30	0x3c01d777	0.007924906
31	0x3c358b3e	0.011080561
32	0x3d8d4af2	0.0689906
33	0xbc8305f3	-0.015994048
34	0xb9e3f6dc	-0.00043480739
35	0x3dbd7f2d	0.092527725
36	0x3b859dc8	0.004077647
37	0x3da41a28	0.080128014
38	0x3aba16ab	0.0014197429
39	0x3d91ca5d	0.07118676
40	0xbc576042	-0.013145508
41	0x3e079d98	0.13243711
42	0x3e38e4d8	0.18056047
43	0xbcb94e49	-0.022620337
44	0xbcb312cf	-0.021859555
45	0xbc91e34d	-0.01780858
46	0xbb017b51	-0.001975734
47	0x3d3f476b	0.04669897
48	0xbc7c3976	-0.015394559
49	0x3e4f37b5	0.20236094
50	0xbcb15e28	-0.021651343
51	0xbb0e87c0	-0.0021748394
52	0x3b033bcf	0.0020024662
53	0xbba4ece9	-0.0050331247
54	0x3e13bb62	0.1442695
55	0x3b963b3a	0.004584697
56	0x3d80d63f	0.06290864
57	0x3d05e4ab	0.032688778
58	0xbc89394f	-0.01675096
59	0xbc617818	-0.013761543
60	0x3c13a50d	0.009011519
61	0xbbe4a435	-0.006977583
62	0xbc798e19	-0.015231633
63	0x3b97c6cf	0.004631854
64	0x3cc94619	0.024569558
65	0xb99a7dc1	-0.00029466863
66	0x3a81cfdd	0.0009903867
67	0xbbcf9efe	-0.006336092
68	0xbcf13e07	-0.029448522
69	0xbab257a1	-0.0013606438
70	0xbc745543	-0.014912906
71	0xbcc10183	-0.023560291
72	0x3d536caa	0.051617302
73	0x3c5c34b3	0.013440299
74	0x3d830f95	0.063994564
75	0x3cc3bb8e	0.023893144
76	0x3aaadadc	0.0013035196
77	0xbc60c424	-0.013718639
78	0xbc381070	-0.011234388
79	0x3c0b4e76	0.008502593
80	0x3bcc88fb	0.0062419153
81	0x3c6643de	0.014054267
82	0xbc99aadd	-0.018758232
83	0x3b371bf4	0.0027940245
84	0xbb8313e0	-0.004000172
85	0xbab32f53	-0.001367072
86	0x3d01bae8	0.03167239
87	0x3cc7d285	0.024392376
88	0x3d0781d4	0.033082798
89	0x3c1dc20f	0.009628787
90	0xbbc5dc54	-0.006038228
91	0xbbc93a82	-0.006141008
92	0xbc8ed477	-0.017435296
93	0x3d328640	0.043585062
94	0x3cdfbd74	0.027312018
95	0x3c4e7731	0.01260166
96	0xbd0c4bc1	-0.034251932
97	0x3cf36f60	0.029716194
98	0x3d31e437	0.043430533
99	0xbb8d5610	-0.004313238
100	0xbb3949f6	-0.0028272844
101	0xbce2795f	-0.027645765
102	0xbc2f37cb	-0.010694454
103	0x3cc7a656	0.024371307
104	0x3c90ba44	0.017666943
105	0x3cdde9ba	0.027088989
106	0x3ce5e278	0.02806209
107	0xbc203dc6	-0.009780353
108	0x3cbe5308	0.023232952
109	0x3be87762	0.0070943097
110	0x3d10174b	0.035178464
111	0x3c816275	0.015794018
112	0x3d77cc24	0.060497418
113	0x3cf54e6b	0.02994462
114	0x3b681a41	0.003541604
115	0xbbc7a210	-0.0060923174
116	0x3b117577	0.0022195259
117	0x3bc824b9	0.0061078933
118	0x3d3d5a4b	0.04622869
119	0xbbf099a2	-0.007342533
120	0x3d68123b	0.05665801
121	0xbb9e397e	-0.004828631
122	0x3b1c0a4e	0.0023809853
123	0x3d00d4f7	0.0314531
124	0x3c933f8c	0.017974637
125	0xbbfce42c	-0.00771763
126	0x3c0aff86	0.008483773
127	0xbbeebd12	-0.0072857225
128	0x3a78809e	0.00094796147
129	0x3d46aa25	0.048502106
130	0xbc00e939	-0.007868105
131	0xbe102bce	-0.1407921
132	0x3d212465	0.03934135
133	0x3bba31dc	0.005682213
134	0x3d83524c	0.06412181
135	0x3d5aa5a1	0.053380612
136	0x3d77218b	0.060334723
137	0xbcf495e3	-0.029856628
138	0x3d69c834	0.057075694
139	0x3d615e3e	0.055021517
140	0x3d8925fc	0.06696698
141	0x3d20fb15	0.03930195
142	0xbb98fb46	-0.004668626
143	0xbdc8a933	-0.09797897
144	0xbd9448f8	-0.0724048
145	0xbc2524dd	-0.01007959
146	0xbdac4879	-0.084122606
147	0x3cf6aa41	0.03011048
148	0xbdb60462	-0.08887555
149	0x3d0d7bbf	0.03454184
150	0x3d48ea45	0.04905154
151	0x3d2a2c09	0.0415459
152	0x3d5b1420	0.05348599
153	0x3c7f30f5	0.015575637
154	0xb9317ce5	-0.00016926562
155	0x3d1b2870	0.03788036
156	0x3b21abda	0.0024669082
157	0xbda807ce	-0.082046136
158	0xbdb8169a	-0.08988686
159	0x3b260f20	0.0025338605
160	0xbddaf9ba	-0.10692163
161	0xbafadf3c	-0.0019140015
162	0x3d80a027	0.06280547
163	0xbdb6bb36	-0.089224264
164	0x3c2a3d31	0.010390566
165	0xbdccd6f7	-0.10001939
166	0x3d836874	0.06416407
167	0xbdf9796b	-0.12181362
168	0x3d8a79da	0.067615226
169	0xbd0aa366	-0.033847235
170	0xbd2f1708	-0.042746574
171	0xbb823e89	-0.00397474
172	0xbc4f73c6	-0.01266188
173	0xbb9dd8fd	-0.004817127
174	0xbcc85706	-0.024455559
175	0xbdafd643	-0.08585789
176	0x3d49df5f	0.04928529
177	0xbd2dd666	-0.042440794
178	0x3d6ec9eb	0.058298033
179	0xbc88315f	-0.016625104
180	0x3d324db9	0.043531153
181	0xbc495c5e	-0.012290088
182	0xbdaa4da4	-0.0831559
183	0xbd85602b	-0.06512483
184	0xbdba533b	-0.09097906
185	0xbdaa7c4f	-0.08324491
186	0x3dba2b5b	0.09090301
187	0x3d8c8383	0.06861021
188	0xbcad4ac1	-0.02115381
189	0xbc52da06	-0.012869364
190	0x3d7ac4cc	0.061222836
191	0x3d561fca	0.05227641
192	0xbc2e7aaf	-0.010649367
193	0x3a47025d	0.00075916
194	0x3d367901	0.044548992
195	0x3bfb1c33	0.0076632737
196	0xbd1f0994	-0.038827494
197	0xbc30cc47	-0.010790891
198	0x3c9cab28	0.019124582
199	0x3d9a7e3f	0.07543611
200	0xbd990d75	-0.0747327
201	0xbd882c86	-0.06649117
202	0xbc46a16f	-0.01212345
203	0xbc7a1ddf	-0.015265911
204	0x3c6a3253	0.014294225
205	0x3d51f48c	0.05125861
206	0x3c3004c2	0.010743322
207	0xbc350b83	-0.011050108
208	0xbb87af5a	-0.0041407766
209	0xbceb8326	-0.02874906
210	0xbc413ded	-0.011794549
211	0x3bcf78c7	0.0063315365
212	0x3bf5c3bd	0.0075001405
213	0x3d8e508d	0.069489576
214	0xbd23ee2b	-0.040022057
215	0xbb37d998	-0.002805328
216	0xbdb13b37	-0.086538725
217	0x3975a1ce	0.00023425298
218	0xbd4ec2e5	-0.050478835
219	0xbd79789d	-0.06090604
220	0xbc12c10d	-0.00895716
221	0xb9a50c76	-0.00031480537
222	0xbd219b3a	-0.039454676
223	0xbcade09a	-0.021225262
224	0xbdd60a91	-0.10451234
225	0xbdd1f3cc	-0.10251579
226	0x3ca9c261	0.02072257
227	0x3c061431	0.008183525
228	0x3ccc3935	0.024929622
229	0xbc51244e	-0.012765003
230	0xbd8aaa03	-0.067707084
231	0xbda3244e	-0.07965909
232	0xbd88a8cc	-0.066728204
233	0xbcca4498	-0.024690911
234	0x3cda4bae	0.026647415
235	0x3b345905	0.002751888
236	0xbd6263eb	-0.05527107
237	0x3d1b4094	0.037903383
238	0xbb85af3c	-0.0040797275
239	0xbd931523	-0.07181766
240	0x3c82f817	0.01598744
241	0x3cee84c9	0.029116051
242	0x3c511afb	0.01276278
243	0x3c8f1faa	0.017471153
244	0x3cc7f907	0.024410738
245	0xbd20e865	-0.03928413
246	0xbe03801d	-0.1284184
247	0x3b2a21e0	0.0025960132
248	0x3d37a01a	0.04483042
249	0xbbc967de	-0.006146415
250	0x3c21f2c6	0.009884542
251	0xbd4e5325	-0.05037226
252	0xbda9114d	-0.08255253
253	0x3bded312	0.006800064
254	0xbd1bf25e	-0.038072936
255	0xbd9e4452	-0.07727875

update_node_embedding_layer.1.update_layer.weight f4 [64, 128]
0	0xbc26964e	-0.010167671
1	0xbd26802e	-0.040649585
2	0xbac55226	-0.0015054389
3	0x3dd8cc33	0.10585823
4	0xbd70f4c0	-0.05882716
5	0x3c9ade04	0.018904693
6	0xbcfb94fa	-0.030710686
7	0xbd3a4ce1	-0.045483474
8	0xbcfe9bee	-0.031080212
9	0xbca29d36	-0.019850355
10	0xbd1e1663	-0.03859557
11	0xbd7bdabe	-0.061487906
12	0xbd5e8515	-0.054326136
13	0xbccdc644	-0.025118954
14	0xbb7a98f9	-0.0038238151
15	0x3d44e1ec	0.04806702
16	0x3e097181	0.13422205
17	0x3b232a3a	0.0024896995
18	0x3db0fb2f	0.086416595
19	0xbd6ba50f	-0.05753046
20	0x3d78dc83	0.06075717
21	0xbd77a8e2	-0.060463794
22	0xbcd8a627	-0.026446415
23	0xbd5100a8	-0.051026016
24	0xbd3733e9	-0.04472724
25	0x3c242e54	0.010020811
26	0xbbb2740e	-0.0054459637
27	0xbd3513d2	-0.044208355
28	0x3c24e36e	0.010063989
29	0x3d5da9d9	0.054117057
30	0xbb5c6619	-0.003363019
31	0x3cade922	0.02122933
32	0x3d71b8d2	0.05901415
33	0x3bdc7285	0.006727519
34	0xbd6b3a62	-0.057428725
35	0x3d84d4fa	0.064859346
36	0xbb954743	-0.004555614
37	0x3d862446	0.06549887
38	0xbd4a3df2	-0.049375482
39	0x3d867211	0.06564725
40	0xbcdc0bd9	-0.026861118
41	0x3dc864e5	0.09784869
42	0x3df3019c	0.11865541
43	0x3bb64616	0.005562554
44	0xbbc8db52	-0.0061296606
45	0x3b8978b8	0.004195299
46	0x3c16eb99	0.009211444
47	0x3d9f16c1	0.07768012
48	0xbd3b744f	-0.045765217
49	0x3e24ea20	0.16104937
50	0xbd0c5e9d	-0.034269918
51	0x3c488081	0.012237669
52	0xbd3ed31e	-0.046588056
53	0x3c142678	0.009042375
54	0x3da597cb	0.08085593
55	0xbcb9a77b	-0.022662869
56	0x3d9af0b5	0.075654425
57	0x3d529570	0.051412046
58	0xbd036b66	-0.032084845
59	0xbd2a118c	-0.04152064
60	0x3abf04fc	0.0014573629
61	0x3be62b40	0.007024199
62	0xbced19a3	-0.028942889
63	0x3dd41d27	0.10357123
64	0x3d06cf74	0.032912686
65	0x3d3d993e	0.04628872
66	0x3c17fef3	0.009277093
67	0x3c974108	0.018463627
68	0xbc16651e	-0.009179382
69	0x3ca8add4	0.0205907
70	0x3c30ed77	0.0107988035
71	0x3d338543	0.04382826
72	0xbb9fdc16	-0.004878531
73	0x3cadff0f	0.021239785
74	0x3b7b1cf3	0.0038316816
75	0x3ca9f1d6	0.0207452
76	0xbbfe346e	-0.007757715
77	0xbb1a7761	-0.002356969
78	0x3c09016c	0.008362155
79	0x3b7b359a	0.003833151
80	0x3cd99b96	0.026563447
81	0xbba90a25	-0.00515868
82	0x3cf449df	0.02982038
83	0x3d1df1b8	0.0385606
84	0x3c9d1a13	0.019177472
85	0xbc7831bf	-0.015148579
86	0x3ceeb6c6	0.029139888
87	0x3cb09ff3	0.021560645
88	0xbe13f1f2	-0.14447764
89	0x3dbaee2b	0.09127458
90	0x3d3562f9	0.04428384
91	0xbbde4fe7	-0.0067844274
92	0x3c122dc5	0.008922045
93	0x3d0a07f0	0.033698976
94	0x3956ced2	0.00020485677
95	0x3ac9827c	0.001537397
96	0x3c47c0e8	0.0121919885
97	0x3b8a4b18	0.0042203777
98	0x3d2689e1	0.040658835
99	0xbb559758	-0.0032591429
100	0x3d26d1fd	0.040727604
101	0x3c8e09ee	0.01733872
102	0xbc43ae79	-0.011943453
103	0xbb52ada2	-0.003214695
104	0x3cdf42dd	0.027253563
105	0xbbfd47a6	-0.0077294884
106	0xbb35545b	-0.0027668688
107	0xb929d1ed	-0.000161953
108	0xbca84f37	-0.020545585
109	0x3c1ace70	0.009448633
110	0x39afb12d	0.00033510607
111	0x3cc29d6f	0.02375671
112	0xbb4f1813	-0.0031600043
113	0x3c1cce01	0.0095705995
114	0x3c4d55e2	0.012532683
115	0x3c1a561e	0.009419946
116	0x3b8aa8f7	0.004231568
117	0xbc5434a7	-0.012952006
118	0x3c877ddf	0.016539512
119	0xbc82e16e	-0.015976634
120	0x3c110acf	0.008852675
121	0x3d0dad38	0.034589022
122	0x3c83589b	0.016033461
123	0xbe0d0519	-0.13771476
124	0x3c40e23f	0.011772691
125	0xbb017da6	-0.001975873
126	0x3ccfdf6f	0.025375096
127	0x3c9d59b4	0.019207813
128	0xbc31fc8a	-0.010863433
129	0xbc3dd098	-0.011585377
130	0xbbe64c54	-0.007028142
131	0xbd9fb8ec	-0.07798943
132	0xbcc9ba37	-0.024624927
133	0xbc2bbae5	-0.010481571
134	0x3c38b15d	0.011272755
135	0x38a14f74	7.6918775e-05
136	0x3c018070	0.007904157
137	0x3c80b08a	0.01570918
138	0xbd129b6d	-0.035792757
139	0xbcb2e09b	-0.021835616
140	0xbc8a07b3	-0.016849374
141	0xbce7bb07	-0.028287424
142	0x3c0670d0	0.0082056075
143	0xbe778bd8	-0.2417444
144	0xbe0154c8	-0.12629998
145	0x3c5b41d7	0.013382397
146	0xbdf1194a	-0.11772402
147	0xbc416322	-0.01180342
148	0xbe6cceb4	-0.23125726
149	0xbbbcf78b	-0.005766814
150	0x3ba028fa	0.0048876973
151	0xbc570457	-0.013123593
152	0xbcaf2634	-0.021380521
153	0x3b63e98d	0.0034776658
154	0xbbcc1bdd	-0.0062289075
155	0xbcbb13da	-0.022836614
156	0xbc225106	-0.009907013
157	0xbe74497c	-0.23856157
158	0x3d49e006	0.04928591
159	0xbc8daddb	-0.017294815
160	0xbe848f5f	-0.25890633
161	0x3c080b1b	0.008303429
162	0xbb856999	-0.004071426
163	0xbe82f295	-0.255757
164	0x3adf58fc	0.0017040069
165	0xbe714115	-0.23559983
166	0xbd894bfc	-0.06703946
167	0xbe45822e	-0.19287941
168	0xbca693be	-0.02033412
169	0xbe7fedae	-0.24993011
170	0xbe012559	-0.12611903
171	0xbc322f28	-0.010875501
172	0xbc46427e	-0.012100814
173	0x3b9c56e4	0.0047711004
174	0xbe065eb5	-0.13122065
175	0xbe64acd5	-0.22331555
176	0xbc629c31	-0.013831184
177	0xbea12fc2	-0.3148175
178	0xbcb136e3	-0.021632617
179	0x3b963bb6	0.004584755
180	0x3b501915	0.0031753231
181	0xbb3c5121	-0.002873488
182	0xbdfb74e6	-0.12278156
183	0x3d158c2b	0.036510628
184	0xbe3d9442	-0.18513587
185	0xbe5a6131	-0.21326138
186	0x39e9a586	0.00044564548
187	0xbc9b2a52	-0.018941078
188	0xbbda3930	-0.0066596493
189	0xbb6f29c1	-0.0036493393
190	0xbd9eb532	-0.07749404
191	0x3d5bcac7	0.05366018
192	0xbc71cab4	-0.014757801
193	0x3d828a40	0.06374025
194	0x3c4b6b6a	0.012415746
195	0x3cd05054	0.025428928
196	0xbc7bcb80	-0.015368342
197	0x3cba80c5	0.02276648
198	0x3cdbe795	0.026843825
199	0x3db0b4a6	0.08628206
200	0x3b5ea2fc	0.0033971658
201	0xbb90b697	-0.0044162977
202	0x3bcb8c3d	0.006211786
203	0x3ce0991d	0.02741676
204	0xbc900a92	-0.017583165
205	0xbc6a0881	-0.014284254
206	0x3bf184b8	0.0073705576
207	0xbc2d3eb2	-0.01057403
208	0x3d2b8c56	0.04188188
209	0x3c3d426c	0.011551481
210	0xbbb0d154	-0.0053960476
211	0x3c9b7b68	0.018979743
212	0xbc9e091c	-0.019291453
213	0x3a04d076	0.00050664635
214	0x3c85431b	0.01626735
215	0x3cbbe08f	0.022934226
216	0xbda4e897	-0.080521755
217	0x3dd25179	0.10269446
218	0x3c8cb3b4	0.017175533
219	0xbb0b51dc	-0.0021258509
220	0x3c08b40f	0.008343711
221	0x3cc64666	0.02420349
222	0xb98a1882	-0.0002633967
223	0x3bad0202	0.0052797804
224	0x3b818d58	0.003953617
225	0x3aae5801	0.0013301374
226	0x3a98bda7	0.00116532
227	0xbc8693d7	-0.016427917
228	0x3d505e3e	0.050871126
229	0x3cdb4d36	0.026770215
230	0xb993c609	-0.00028185573
231	0xbbc1ec3b	-0.0059180534
232	0xb9b06053	-0.00033641103
233	0xbd29a53c	-0.041417345
234	0xbc47274d	-0.012155366
235	0xbc1da05e	-0.009620754
236	0xbbebe66f	-0.0071991007
237	0x3db1cb92	0.08681406
238	0x3b4f4cbc	0.003163143
239	0xbd491c37	-0.049099173
240	0xbab66622	-0.0013915936
241	0x3c6b5a2e	0.014364762
242	0x3c371986	0.011175519
243	0x3c63ee8e	0.013911856
244	0x3d043d55	0.032285053
245	0xbb358e57	-0.002770325
246	0x3d024933	0.03180809
247	0x3b8cd7b9	0.004298177
248	0xbb70bd87	-0.003673406
249	0x3c880d72	0.016607974
250	0x3d3fbd05	0.046811122
251	0xbd8869bc	-0.06660792
252	0x3d98091a	0.07423611
253	0x3c6664fa	0.014062161
254	0x3cc22ce8	0.023703054
255	0x3ca673e9	0.020318942
