ER_200spin/eco/network/network1200000.pth (torch, 238273 bytes, 11 tensors)

node_init_embedding_layer.0.weight f4 [64, 7]
0.021181177 -0.17437975 0.0060827835 0.08082974 0.0038181953 -0.023500083 0.07957488 0.012756007
-0.17813233 0.00836841 0.11195354 -0.0033759258 0.055857692 0.05079867 0.007631514 0.31549123
0.023054598 -0.03427501 0.004216548 0.029172381 -0.019757431 0.012317917 0.3395208 0.040700175
-0.060759008 2.7672855e-05 0.032331686 -0.035755616 -0.006149493 -0.004316606 -0.009858432 -0.011102081
-0.01081875 -0.0032646966 -0.0152212195 -0.011088987 -0.0037140641 -0.0020215185 -0.0026715926 -0.013247419
-0.016425833 -0.0052559846 0.016015228 0.376635 0.012490528 -0.12721016 -0.00046583646 -0.002409422
0.020738829 0.013371211 -0.16920449 -0.02180819 0.13207792 -0.0021237934 0.072238974 0.038713302
0.024661936 -0.1958387 0.030453624 0.09318952 0.0040899096 0.031328924 0.07137435 0.009133497
0.353744 0.01963237 -0.056565195 -0.0007787167 0.034081496 0.005917227 -0.03368428 0.30107704
0.0077206236 -0.0040922035 0.00027446216 0.028260155 -0.044093743 -0.022577588 0.33069828 -0.06541722
0.06841585 -0.0009782333 0.030570026 -0.12839055 0.02033109 0.3596717 0.035667907 -0.09016003
3.2579494e-05 0.037134312 -0.028993318 0.0240438 -0.2162038 0.016276726 0.09232559 0.010260789
-0.0065705087 0.07720964 0.021769626 -0.20916283 0.016708968 0.0761243 0.001993584 0.005578335
0.07883543 0.008566168 -0.07992528 -0.039011713 0.1158103 0.0005691454 0.0027985899 -0.06058731
0.020133099 -0.1583564 -0.014587428 0.1307807 0.0023932944 0.056959514 0.070866406 -0.037199505
0.30856872 0.037796114 -0.018618992 -0.00054237095 0.025657833 0.011769985 0.0277589 -0.21294795
0.009965735 0.09500058 0.0047380105 0.011479993 0.08284224 -0.03540937 0.24570829 0.03232915
0.019137856 -0.0029990382 0.0133376885 -0.0020468978 0.027810857 0.37989792 0.030902607 -0.03811325
-0.00010097274 0.04195721 -0.027807787 0.025530249 -0.21914136 0.024513144 0.09449164 0.004895588
0.015466415 0.07456083 0.005626387 -0.17229444 0.021784142 0.12626413 0.00019764848 0.02876593
0.008182097 -0.01062095 -0.17288367 0.03952896 0.045316353 -0.007982834 -0.00942756 0.07945803
0.01128572 -0.17910706 0.003448217 0.1520514 -0.000306009 0.056517 0.020588983 -0.0032915473
0.31846994 0.04148412 -0.03386557 0.007471459 0.045149904 -0.02893479 0.015548082 0.3789831
0.025757251 0.03498942 0.00058392563 0.054694 -0.012724089 -0.001984467 0.0030851387 0.001095844
-0.009433593 -0.0056003085 -0.0043595186 -0.010299535 0.017707068 0.3349695 0.0153197525 -0.05055192
0.008279327 0.03814315 -0.049280908 0.01746201 -0.22776666 0.016977338 0.07677715 -0.0031445008
0.026999136 0.053929307 0.0104300175 -0.19632077 0.018127207 -0.070488885 -0.007245364 0.071385615
0.045188747 0.019728228 -0.1917062 0.021269841 0.06934073 0.0019276395 -0.010966726 0.06426044
-0.0024586709 0.010507777 -0.0038842964 -0.01777523 -0.0039956234 -0.008082845 -0.0017797383 0.014821384
0.12914334 -0.1892646 0.031776134 -0.0064464104 0.026708616 -0.20478389 0.015311687 0.34433904
0.03308409 -0.027415201 0.0048210076 0.051651187 -0.04312155 -0.0029958652 0.004468031 -0.011094356
-0.01162292 -0.011126069 -0.0063133347 -0.0016458024 0.015874473 -0.1606299 -0.0069787945 0.08226341
00000000: 2684 ad3c 9b90 32be 1652 c73b 108a a53d
00000010: b03a 7a3b 3f83 c0bc 28f8 a23d 92fe 503c
00000020: 5268 36be a81b 093c e647 e53d a33e 5dbb
00000030: 09cb 643d 4412 503d c811 fa3b 1188 a13e
00000040: ffdc bc3c f463 0cbd f82a 8a3b ebfa ee3c
00000050: 56da a1bc 17d1 493c acd5 ad3e 3ab5 263d
00000060: 70de 78bd 0123 e837 3b6e 043d 7b74 12bd
00000070: b081 c9bb 5172 8dbb 4385 21bc 81e5 35bc
00000080: 2041 31bc 85f4 55bb 6c62 79bc 95ae 35bc
00000090: a867 73bb 747b 04bb e315 2fbb b40b 59bc
000000a0: 788f 86bc 653a acbb 5e32 833c 4dd6 c03e
000000b0: 12a5 4c3c 6143 02be 833b f4b9 65e7 1dbb
000000c0: 7ae4 a93c ec12 5b3c f143 2dbe 17a7 b2bc
000000d0: 6f3f 073e 572f 0bbb 07f2 933d d791 1e3d
000000e0: d407 ca3c f189 48be e179 f93c 26da be3d
000000f0: a604 863b c252 003d b72c 923d aaa4 153c
00000100: ef1d b53e 10d4 a03c e8b0 67bd cb22 4cba
00000110: 0a99 0b3d 4ce5 c13b 87f8 09bd c526 9a3e
00000120: 49fd fc3b e417 86bb b0e5 8f39 d781 e73c
00000130: a49b 34bd a2f4 b8bc 4951 a93e 77f9 85bd
00000140: 9c1d 8c3d 1038 80ba fe6d fa3c d078 03be
00000150: 638d a63c e426 b83e 8318 123d d2a5 b8bd
00000160: f7a5 0838 261a 183d 6583 edbc 81f7 c43c
00000170: 8764 5dbe c556 853c 3315 bd3d de1c 283c
00000180: 6c4d d7bb 1620 9e3d 3756 b23c c82e 56be
00000190: 3fe1 883c 0fe7 9b3d caa6 023b 77ca b63b
000001a0: 7874 a13d 1d59 0c3c ddaf a3bd bfca 1fbd
000001b0: f32d ed3d b432 153a 8c68 373b 662a 78bd
000001c0: 2bee a43c 2e28 22be 1c00 6fbc 60eb 053e
000001d0: d1d8 1c3b 614e 693d 6822 913d 825e 18bd
000001e0: b8fc 9d3e 19d0 1a3d db86 98bc e62d 0eba
000001f0: 6030 d23c e5d6 403c a266 e33c 070f 5abe
00000200: 5247 233c aa8f c23d 5041 9b3b 9516 3c3c
00000210: 31a9 a93d 6a09 11bd f49a 7b3e 926b 043d
00000220: fec6 9c3c 838b 44bb 5286 5a3c 3f25 06bb
00000230: 98d3 e33c fb81 c23e 7727 fd3c a41c 1cbd
00000240: 54c1 d3b8 53db 2b3d 28cd e3bc d024 d13c
00000250: 9866 60be cacf c83c d584 c13d 2b6b a03b
00000260: d966 7d3c 59b3 983d 8e5d b83b f46d 30be
00000270: a874 b23c 624b 013e dc3f 4f39 87a6 eb3c
00000280: 340e 063c 7e03 2ebc 6b08 31be 1ee9 213d
00000290: a49d 393d 6fca 02bc 0d76 1abc e4ba a23d
000002a0: bee7 383c d767 37be 7bfb 613b 5db3 1b3e
000002b0: d56f a0b9 5f7e 673d 3aaa a83c 00b7 57bb
000002c0: 7e0e a33e 41eb 293d a0b6 0abd 24d3 f43b
000002d0: 1bef 383d a708 edbc 62bd 7e3c 130a c23e
000002e0: df00 d33c 1151 0f3d 9612 193a d106 603d
000002f0: b378 50bc d50d 02bb 0a30 4a3b 6ca2 8f3a
00000300: 5b8f 1abc cb82 b7bb 4bda 8ebb 61bf 28bc
00000310: 6a0e 913c 1f81 ab3e b3ff 7a3c 880f 4fbd
00000320: 04a6 073c fe3b 1c3d c7da 49bd 7d0c 8f3c
00000330: aa3b 69be 0f14 8b3c 573d 9d3d f813 4ebb
00000340: 4b2d dd3c fae4 5c3d aae2 2a3c 5008 49be
00000350: 827f 943c 7a5c 90bd 856a edbb 9f32 923d
00000360: d617 393d 189d a13c a14e 44be 173e ae3c
00000370: 8302 8e3d d9a8 fc3a c8ad 33bc fa9a 833d
00000380: a721 21bb d028 2c3c ae8f 7ebb 5c9d 91bc
00000390: b8ed 82bb e96d 04bc 1c46 e9ba 64d5 723c
000003a0: 273e 043e 94ce 41be b127 023d 693c d3bb
000003b0: 07cc da3c deb2 51be dfdd 7a3c 354d b03e
000003c0: 2f83 073d d895 e0bc 8bf9 9d3b 3290 533d
000003d0: 39a0 30bd 4756 44bb 9068 923b 1ac5 35bc
000003e0: 0f6e 3ebc 1e4a 36bc 17e0 cebb f7b7 d7ba
000003f0: 2f0b 823c 2a7c 24be 5fae e4bb b879 a83d

edge_embedding_layer.edge_embedding_NN.weight f4 [63, 8]
0.014497881 0.035061907 0.22508243 -0.035639804 -0.028440038 -0.023562977 -0.004814357 -0.047974866
-0.009922469 -0.010774974 -0.004315335 -0.0022903706 0.008953054 -0.02221353 -0.015251183 0.008083992
0.014695841 0.028349625 0.19209817 -0.03717313 -0.03988632 -0.024163319 0.0047569135 -0.031851508
0.045152117 0.048495304 0.18246748 -0.06922613 -0.043718584 0.0005938022 0.05777333 -0.082808524
-0.015035438 -0.0067404066 0.0153879905 -0.014715848 -0.00982584 -0.0015218513 -0.0013866938 -0.0020847525
-0.010408337 -0.00058907137 0.002471643 -0.004193349 0.0027986444 -0.013592724 0.011577544 0.002690091
0.0008103266 -0.0029921327 -0.09542048 0.0832791 0.081166476 0.002217514 -0.051030044 0.10631231
-0.0062014437 0.009535995 -0.12094856 0.10719688 0.07141941 0.007307537 -0.018253332 0.113316365
-0.0011773919 -0.056154337 -0.09738817 0.05853484 0.060288593 0.0033030764 -0.014613673 0.08792976
-0.0015031748 -0.022766082 -0.09090918 0.06769819 0.06398823 0.016148753 -0.041070018 0.11371741
-0.014967789 0.014122882 -0.10941767 0.09234043 0.06740195 0.008966724 -0.021612864 0.11043922
-0.0005169977 -0.0011437915 -0.0015800482 -0.011648395 -0.008384922 -0.019005835 -0.021238621 -0.0031330034
-0.011566987 -0.0064551826 -0.018823268 0.008752603 -0.0028598043 -0.013159215 0.0014766374 -0.0031785134
0.055045567 0.03306667 0.16422892 -0.06302548 -0.038246077 0.00075819716 0.060930945 -0.09717889
-0.016583806 -0.01398756 -0.10757171 0.054792788 0.07022045 0.013667126 -0.063769035 0.09704782
0.06729536 0.054575074 0.15290064 -0.05384002 -0.060188506 0.0001686061 0.06458971 -0.09032685
-0.0033232928 -0.0018330584 -0.106927626 0.096478835 0.076110415 0.010051164 -0.014869774 0.09622395
0.0366527 0.020297803 0.20189713 -0.04976904 -0.0005728229 -0.0019907332 0.036346745 -0.05626087
0.05829534 0.01763045 0.16341662 -0.066495664 -0.01993427 0.0034865614 0.05774502 -0.1005163
0.002023655 0.0016895033 -0.09294886 0.073269665 0.06526158 0.0016737971 -0.04629719 0.10321546
-0.0014439179 -0.00978569 0.0023963705 0.0012964379 -0.0012544036 -0.0001595673 -0.007059626 -0.009169412
-0.0028774396 -0.0062455037 -0.10572372 0.081595205 0.080251165 0.000887052 -0.023110397 0.110221595
0.0572148 0.06585417 0.17215624 -0.06713976 -0.019543616 0.00362354 0.07265445 -0.080953866
-0.0014835857 -0.0010873167 0.0004004063 0.0019544451 -0.017845793 -0.0053972867 -0.0027487199 -0.0038520296
0.07041259 0.046955697 0.17029636 -0.086851075 -0.042544536 0.0028675336 0.05220659 -0.093513735
0.0026453817 -0.009977488 0.24616578 -0.17079015 0.021315131 -0.003768382 0.01694042 -0.13524772
-0.019011462 -0.0014924641 -0.10607616 0.07951703 0.05331654 0.0074507464 -0.07749679 0.10150675
0.05626308 0.02926396 0.16638027 -0.07979718 0.015132224 0.0010522292 0.054761 -0.08132389
-0.014819773 -0.014826146 -0.01661776 -0.015271877 -0.007614104 -0.012074424 -0.012945181 -0.010523627
0.00045307426 -0.018824343 -0.07280709 0.0820642 0.07121023 0.00782622 -0.06639935 0.10445904
0.03849447 0.05648592 0.17436354 -0.07969852 -0.03780235 0.0011337438 0.06585974 -0.076523066
0.020249302 -0.0009513819 0.26732445 -0.16769288 0.027197963 -0.003213736 0.017250923 -0.14319965
00000000: 8588 6d3c 139d 0f3d 027c 663e 0bfb 11bd
00000010: 15fb e8bc 2507 c1bc c1c1 9dbb 4b81 44bd
00000020: da91 22bc 8489 30bc a767 8dbb 0b1a 16bb
00000030: d5af 123c 26f9 b5bc 19e0 79bc b872 043c
00000040: d3c6 703c 793d e83c 62b5 443e da42 18bd
00000050: d65f 23bd 27f2 c5bc e2df 9b3b ba76 02bd
00000060: 6df1 383d 03a3 463d c1d8 3a3e 6ec6 8dbd
00000070: 4212 33bd 64a9 1b3a baa3 6c3d 8497 a9bd
00000080: 3357 76bc a1de dcbb e91d 7c3c bd1a 71bc
00000090: 8ffc 20bc db78 c7ba b9c1 b5ba 58a0 08bb
000000a0: bb87 2abc e96b 1aba 4afb 213b 5c68 89bb
000000b0: 7669 373b 04b4 5ebc bdaf 3d3c 3d4c 303b
000000c0: 196c 543a a817 44bb d06b c3bd 3c8e aa3d
000000d0: 9c3a a63d b653 113b e104 51bd 45ba d93d
000000e0: 7b35 cbbb dd3c 1c3c e1b3 f7bd 0a8a db3d
000000f0: 5744 923d 1074 ef3b 0388 95bc 6912 e83d
00000100: b752 9aba 1702 66bd 7373 c7bd 3ac2 6f3d
00000110: 2cf1 763d 6d78 583b 306e 6fbc 8514 b43d
00000120: 2d06 c5ba ef7f babc 982e babd 59a5 8a3d
00000130: 430c 833d 644a 843c 0939 28bd ace4 e83d
00000140: 753b 75bc a963 673c 5f16 e0bd fb1c bd3d
00000150: 090a 8a3d 2be9 123c 760d b1bc f52d e23d
00000160: 2187 07ba 46eb 95ba 9f19 cfba e9d8 3ebc
00000170: e960 09bc 20b2 9bbc 9efc adbc 1353 4dbb
00000180: 7683 3dbc ff85 d3bb 4133 9abc 1467 0f3c
00000190: 8e6b 3bbb c099 57bc bb8b c13a 9b4e 50bb
000001a0: 7677 613d eb70 073d a02b 283e 8113 81bd
000001b0: eba7 1cbd c0c1 463a ba92 793d ba05 c7bd
000001c0: c3da 87bc 142c 65bc 8f4e dcbd 676e 603d
000001d0: bdcf 8f3d 15ec 5f3c 5799 82bd 02c1 c63d
000001e0: 26d2 893d 1d8a 5f3d fc91 1c3e 5a87 5cbd
000001f0: 3988 76bd dbcb 3039 9c47 843d 49fd b8bd
00000200: 9acb 59bb 3c43 f0ba dffc dabd b296 c53d
00000210: c7df 9b3d a3ad 243c 5aa0 73bc 1011 c53d
00000220: 2421 163d 9447 a63c 1fbe 4e3e 9fda 4bbd
00000230: 7e29 16ba f676 02bb 53e0 143d cc71 66bd
00000240: 18c7 6e3d bc6d 903c b056 273e e12e 88bd
00000250: 324d a3bc cb7e 643b 0b86 6c3d 7ddb cdbd
00000260: 4c9f 043b 5372 dd3a f95b bebd 680e 963d
00000270: dda7 853d 5063 db3a 1fa2 3dbd a162 d33d
00000280: d841 bdba 2954 20bc 6d0c 1d3b 3ded a93a
00000290: cd6a a4ba 8551 27b9 6f54 e7bb 4d3b 16bc
000002a0: 6d93 3cbb 15a7 ccbb ad85 d8bd 631b a73d
000002b0: b95a a43d 0d89 683a 0452 bdbc dcbb e13d
000002c0: 115a 6a3d 8dde 863d ba49 303e 9280 89bd
000002d0: ef19 a0bc ea78 6d3b dbcb 943d 24cb a5bd
000002e0: e074 c2ba 4b84 8eba a0ed d139 2616 003b
000002f0: 5731 92bc b9db b0bb de23 34bb 5572 7cbb
00000300: 7a34 903d 9e54 403d 2b62 2e3e fade b1bd
00000310: 2e43 2ebd 3bed 3b3b 94d6 553d 2184 bfbd
00000320: 245e 2d3b 9e78 23bc e212 7c3e 9de3 2ebe
00000330: 129d ae3c f5f6 76bb a3c6 8a3c 617e 0abe
00000340: edbd 9bbc c99e c3ba 753e d9bd d3d9 a23d
00000350: 7262 5a3d 6425 f43b a3b6 9ebd c5e2 cf3d
00000360: 1e74 663d f9ba ef3c 975f 2a3e b46c a3bd
00000370: 26ed 773c f4ea 893a 124d 603d 248d a6bd
00000380: a2ce 72bc 5de9 72bc f821 88bc e536 7abc
00000390: bc7f f9bb ced3 45bc 0618 54bc 4a6b 2cbc
000003a0: 998a ed39 8235 9abc e21b 95bd 4611 a83d
000003b0: abd6 913d 8c39 003c 62fc 87bd 9fee d53d
000003c0: 61ac 1d3d c85d 673d 5b8c 323e fa38 a3bd
000003d0: a3d6 1abd 219a 943a 79e1 863d 20b8 9cbd
000003e0: dde1 a53c 2966 79ba c0de 883e afb7 2bbe
000003f0: 43ce de3c 8b9d 52bb cf51 8d3c eea2 12be

edge_embedding_layer.edge_feature_NN.weight f4 [64, 64]
0.0438137 0.006673097 0.04208308 0.054050814 0.009925359 0.00821526 -0.027054546 -0.053448215
-0.0192344 -0.019362757 -0.038592793 0.0012318065 -0.005665803 0.06920637 -0.013986338 0.05667123
-0.029571002 0.024707729 0.02947053 -0.013591538 0.000109577515 -0.036927775 0.03772651 0.002587881
0.03493336 0.10129834 -0.028865175 0.02727629 -0.0021766124 -0.036787342 0.04200667 0.10059114
-0.033352397 -0.03404734 0.062031392 -0.0016920947 0.041052982 -0.03149201 -0.044773027 0.058716517
-0.03953861 0.04952765 0.014079761 0.06487775 0.0033934086 -0.035656687 -0.04362835 -0.002245156
0.0020962334 -0.049192123 0.017370982 -0.010358377 0.019830862 0.012979024 -0.04635581 0.020067861
0.06653231 0.09287117 0.0092882775 0.018931838 0.06650273 0.078401364 0.019155739 0.054709993
-0.010757435 -0.008134392 0.0015555887 0.008232492 0.0019207367 0.002163062 0.0075713447 0.013601665
-0.007368058 -0.003595143 -0.007843095 0.00053097215 0.013778844 0.0062424517 0.0074845203 -0.01393854
0.0026482814 0.007712967 0.00808285 -0.00012946085 -0.0091824075 -0.00903409 -0.0045856712 -0.024723053
0.009405366 0.012624277 -0.0036777484 -0.0028761444 0.012500013 -0.017287152 0.005854313 0.004633419
-5.6490684e-05 -0.015611438 -0.010616232 -0.0030209445 -0.021334397 0.004618022 -0.0052528144 0.009123423
0.0043523703 0.012726235 0.0060889255 0.004978729 -0.0024838957 -0.01235016 -0.00058075506 0.016682966
0.013421233 0.0007373087 0.0055199787 0.0034704753 -0.02354301 -0.012233246 0.005811526 -0.018016197
-0.008616842 -0.006729163 -0.005336937 0.00050229934 0.0068217944 -0.0012908315 0.008992918 -0.026182441
0.021499434 -0.0063518262 0.055843093 -0.011280977 -0.011611266 -0.004056425 0.039306067 0.026317421
0.04646076 0.025276108 0.027258055 0.0021992014 -0.0019165426 -0.016581092 0.008747326 -0.008247297
0.014859575 0.027546365 -0.0056891013 0.037054956 -0.02420997 0.03262308 0.003199023 0.0041167918
-0.008409315 -0.0729314 0.023438392 -0.009588368 -0.007525111 0.020876346 0.013628157 -0.10232044
0.031595897 0.031039504 -0.027758578 0.006092923 -0.010627021 0.04060991 0.022687385 -0.03110303
0.054504294 0.012037826 -0.01611805 -0.00023395658 -0.0030575085 0.05526044 0.04199196 0.011249505
-0.013233761 0.036931157 -0.0001349812 0.011113654 -0.0016148597 0.0015670959 0.048397742 -0.008734056
-0.025474267 -0.0759498 0.0048289425 0.0089221625 -0.07796631 -0.017463237 -0.006580472 0.011218097
-0.01394048 -0.006870072 -0.009293741 0.008531291 0.0033435759 -0.008219612 -0.009937564 1.8024335e-06
0.0065187598 -0.0015708433 0.008476569 -0.007357938 -0.0046117115 0.002252608 -0.008796808 -0.0023317866
-0.017442891 0.0060973703 -0.015798636 -0.0050842944 0.0041428367 -0.004616083 -6.412105e-05 -0.0023929016
0.002517064 -0.010286944 -0.0030664708 0.007888776 0.01083421 -0.0011445023 -0.0026926599 -0.0010076426
-0.016303077 0.007156581 0.0010438258 0.00019029636 0.00089925295 -0.0055984505 -0.0056308643 0.0001323514
-0.0054644374 -0.00420371 0.00012495325 -0.00021016278 0.017536044 0.01697999 -0.01351005 0.0057136067
-0.00062793127 -0.00031389037 0.0030395736 -0.013317074 -0.00057330204 0.0054728673 -0.0015698014 -0.0076897168
0.013171347 -0.013533647 -0.00035957596 -0.00062156183 -0.0020496896 -0.0086621335 0.006484415 -0.0048349635
00000000: ff75 333d ffa9 da3b 4f5f 2c3d 6364 5d3d
00000010: f99d 223c 4c99 063c 7fa1 ddbc 84ec 5abd
00000020: 7691 9dbc a59e 9ebc 7a13 1ebd 9174 a13a
00000030: 33a8 b9bb 12bc 8d3d f426 65bc 1720 683d
00000040: e33e f2bc dd67 ca3c 2e6c f13c 0baf 5ebc
00000050: fbcc e538 9441 17bd 1d87 1a3d 7099 293b
00000060: 4816 0f3d 8175 cf3d a976 ecbc 8772 df3c
00000070: 7fa5 0ebb 53ae 16bd 300f 2c3d ba02 ce3d
00000080: 869c 08bd 3975 0bbd a114 7e3d 47c9 ddba
00000090: 2c27 283d c4fd 00bd ec63 37bd bb80 703d
000000a0: 3df3 21bd 81dd 4a3d ccae 663c a0de 843d
000000b0: f363 5e3b bf0c 12bd a4b3 32bd 7823 13bb
000000c0: f660 093b ae7d 49bd 974d 8e3c 2fb6 29bc
000000d0: 5574 a23c f9a5 543c 97df 3dbd 5b65 a43c
000000e0: 1742 883d 3d33 be3d dc2d 183c f116 9b3c
000000f0: 9532 883d e590 a03d 7fec 9c3c 9617 603d
00000100: f43f 30bc 1d46 05bc e5e4 cb3a 93e1 063c
00000110: 3bc1 fb3a 29c2 0d3b 0b19 f83b 85d9 5e3c
00000120: c06f f1bb 7e9c 6bbb 5380 00bc f030 0b3a
00000130: a9c0 613c 7b8d cc3b b540 f53b 795e 64bc
00000140: ca8e 2d3b 0fbd fc3b ee6d 043c e2bf 07b9
00000150: cf71 16bc b803 14bc 6643 96bb 0088 cabc
00000160: f718 1a3c 0ed6 4e3c 6106 71bb b27d 3cbb
00000170: dbcc 4c3c c99d 8dbc 89d5 bf3b f0d3 973b
00000180: 69f0 6cb8 1ec7 7fbc b4ef 2dbc 0afb 45bb
00000190: 79c5 aebc c752 973b cd1f acbb 697a 153c
000001a0: 549e 8e3b b381 503c 9c85 c73b 9b24 a33b
000001b0: dbc8 22bb 5358 4abc d03d 18ba b7aa 883c
000001c0: bbe4 5b3c f347 413a f0e0 b43b ea70 633b
000001d0: 45dd c0bc f46d 48bc 9d6e be3b b496 93bc
000001e0: a82d 0dbc 5080 dcbb 79e1 aebb bdac 033a
000001f0: 5c89 df3b 1e31 a9ba 0857 133c 8f7c d6bc
00000200: 951f b03c fb22 d0bb babb 643d d9d3 38bc
00000210: 2e3d 3ebc c2eb 84bb 66ff 203d a297 d73c
00000220: a34d 3e3d d70f cf3c 494c df3c 7a20 103b
00000230: 8034 fbba 12d5 87bc f250 0f3c ac1f 07bc
00000240: 9375 733c eaa8 e13c a46b babb f0c6 173d
00000250: fd53 c6bc c79f 053d b3a6 513b 27e6 863b
00000260: 39c7 09bc 0f5d 95bd df01 c03c 8818 1dbc
00000270: 3595 f6bb df04 ab3c a248 5f3c 618d d1bd
00000280: b36a 013d 8f46 fe3c f565 e3bc 25a7 c73b
00000290: f51c 2ebc 9456 263d e5da b93c c8cb febc
000002a0: e53f 5f3d 4d3a 453c 000a 84bc 3e52 75b9
000002b0: 7b60 48bb c558 623d c3ff 2b3d d84f 383c
000002c0: 6bd2 58bc 2045 173d bd89 0db9 0b16 363c
000002d0: b3a9 d3ba 0367 cd3a b63c 463d 4919 0fbc
000002e0: 69af d0bc 928b 9bbd 1b3c 9e3b 432e 123c
000002f0: cdac 9fbd 100f 8fbc 00a1 d7bb 1ccc 373c
00000300: 9c66 64bc 571e e1bb c644 18bc d4c6 0b3c
00000310: e51f 5b3b 8dab 06bc 2ad1 22bc 25eb f135
00000320: 529b d53b c1e4 cdba 4fe1 0a3c dc1a f1bb
00000330: d71d 97bb 7ea0 133b 7d20 10bc e3d0 18bb
00000340: 65e4 8ebc 73cc c73b 246c 81bc 279a a6bb
00000350: a2c0 873b 8342 97bb ba78 86b8 3ad2 1cbb
00000360: 54f5 243b 928a 28bc d8f6 48bb ed3f 013c
00000370: f881 313c 2003 96ba 5677 30bb e012 84ba
00000380: 088e 85bc c181 ea3b fbd0 883a 4a8a 4739
00000390: d8bb 6b3a 3573 b7bb 1d83 b8bb cfc7 0a39
000003a0: 060f b3bb 46bf 89bb e205 0339 245f 5cb9
000003b0: c0a7 8f3c 9f19 8b3c 4259 5dbc 3539 bb3b
000003c0: c19b 24ba a791 a4b9 9533 473b db2f 5abc
000003d0: a649 16ba bd55 b33b cbc1 cdba 05fa fbbb
000003e0: a2cc 573c 3bbc 5dbc 7885 bcb9 4ff0 22ba
000003f0: 1654 06bb 9feb 0dbc 377b d43b 9d6e 9ebb

update_node_embedding_layer.0.message_layer.weight f4 [64, 128]
-0.015464559 0.0054439316 -0.014098521 -0.0042191213 -0.01788335 0.011372718 0.0077267084 0.0070061553
-0.0038388595 -0.019097881 0.009512691 -0.01760792 -0.01670236 -0.009147685 0.0068210256 0.0023070637
-0.012245892 -0.0037142823 0.0011652375 0.008414931 -0.011716568 -0.020655544 -0.0077762776 -0.007549125
0.021826953 0.012472328 -0.0046079694 -0.0040685274 -0.0059861867 -0.014712329 -0.008611066 0.015683314
-0.0018858399 0.011377054 0.0037715773 -0.004941903 -0.0030892703 -0.00460002 -0.019085908 -0.009508729
-0.005458042 0.004858546 -0.01575485 -0.011506086 0.003724464 0.009642839 -0.011878734 -6.824607e-06
-0.0099661425 0.013546598 -0.0016762001 -0.0053715273 0.0029478837 0.0048136287 -0.01814366 0.013844441
-0.0072598616 -0.005668449 -0.009187484 -0.0007133213 0.0026156188 0.022402123 0.007948777 -0.0023793257
-0.006287746 -0.00242993 0.01129911 -0.012352881 -0.00015617447 -0.00066107354 -0.01425166 0.008922093
-0.008876933 -0.001967021 -0.0048631737 0.013726681 -0.0043488536 0.0050960365 0.0017414953 0.020401204
-0.0043127085 0.0005067762 -0.0012610718 -0.005253296 -0.006616436 0.0050565116 -0.008505274 0.016852133
0.0029131 0.0011571661 0.0047145206 0.013622425 -0.013529217 -0.013935954 -0.0058008023 0.020228371
0.015418434 -0.018540718 0.013831565 -0.0013197443 6.0506612e-05 -0.0021069173 -0.009187958 0.024446335
0.0023832296 -0.0027400209 0.003726408 0.0046185562 -0.011794901 -0.021006519 0.0072285063 -0.005699761
-0.0059828474 0.01480613 -0.006727138 0.00834494 0.0024302248 0.0017527142 0.0067477897 -0.011304717
0.008548886 0.008198818 -0.007812804 -0.013443079 -0.002821174 0.0016093793 0.007849047 -0.003556656
-0.004239259 -0.0050207903 -0.014091896 0.007560991 -0.0047206795 0.015075879 0.0013639219 -0.017753955
0.007118293 0.019064356 0.0073145726 -0.00059073156 0.0079347445 -0.0014402713 0.0036171505 0.010340788
-0.025975302 0.010314359 0.00070060435 0.010835259 0.007098552 0.007879156 0.011566087 -0.0058833715
-0.002190464 -0.010570919 0.011464581 0.011128925 0.007994938 -0.0152957635 0.011692998 -0.0063146655
-0.00092215446 0.0009228441 -0.0039488524 0.0033308987 -0.010930761 0.002247256 0.014575673 -0.008339884
0.00023099052 0.0038271933 0.008608403 -0.014772932 -0.0037292147 -0.0017629995 0.01631702 -5.2726282e-05
-0.005054553 -0.0008617327 0.01725479 -0.008545536 0.010912622 -0.013000448 0.015138639 0.00086471095
-0.002466547 -0.013250358 0.013816928 -0.01618879 0.0027313642 0.004388452 -0.0012199093 0.0023153871
0.0024982695 -0.00050685543 -0.013244109 -0.007319206 -0.0054970826 0.009282108 0.0020423108 -0.002229603
-0.00088064023 0.0020571456 0.00037802223 -0.012790203 0.013412874 0.004133164 -0.0049870163 -0.004870135
-0.018326238 0.009548369 -0.010924446 -0.0039042672 0.00076708436 0.012532998 0.0007173438 -0.013627831
-0.0021517342 -0.00028872216 -0.0018542539 -0.0090017365 0.009607537 0.0036266444 -0.0056013917 -0.000845954
-0.0011282654 -0.0066306675 -0.0084828185 -0.000115217714 -0.002622033 -0.002339695 -0.008011554 -0.017277014
0.0034263998 -0.013930259 0.004697749 -0.013996529 -0.0075030434 0.0021223337 -0.018486539 -0.011501698
0.0058047846 0.0028039834 -0.0003860734 0.014944711 0.007257845 0.012586262 0.013463961 -0.019465156
-0.0023854286 0.00316342 -0.012974135 0.010560917 -0.0077802017 0.0026403463 0.017365273 -0.005671336
00000000: 105f 7dbc 0263 b23b 7cfd 66bc 8e40 8abb
00000010: 1a80 92bc a354 3a3c 5430 fd3b e493 e53b
00000020: 6095 7bbb 2973 9cbc 1edb 1b3c 7c3e 90bc
00000030: 63d3 88bc 2ce0 15bc e982 df3b 1b32 173b
00000040: fea2 48bc 516b 73bb e2ba 983a c7de 093c
00000050: d9f6 3fbc d135 a9bc 25d0 febb a65e f7bb
00000060: 70ce b23c bc58 4c3c 73fe 96bb 4851 85bb
00000070: c627 c4bb fb0b 71bc 6e15 0dbc 4b7a 803c
00000080: 492e f7ba d366 3a3c 912c 773b b0ef a1bb
00000090: 5b75 4abb c4bb 96bb 0d5a 9cbc 80ca 1bbc
000000a0: 60d9 b2bb 7034 9f3b 5110 81bc 0684 3cbc
000000b0: 2316 743b 00fd 1d3c 069f 42bc eefe e4b6
000000c0: 0849 23bc 8df2 5d3c f1b3 dbba a303 b0bb
000000d0: 4831 413b a5bb 9d3b 03a2 94bc cbd3 623c
000000e0: 22e4 edbb 66be b9bb 1a87 16bc 2ffe 3aba
000000f0: cd6a 2b3b a884 b73c 963b 023c 76ee 1bbb
00000100: 7009 cebb 763f 1fbb e71f 393c bd63 4abc
00000110: c4c2 23b9 e54b 2dba cb7f 69bc f82d 123c
00000120: 8e70 11bc 23e9 00bb 425b 9fbb dfe5 603c
00000130: d480 8ebb a7fc a63b e342 e43a 6d20 a73c
00000140: 9f51 8dbb 2dd9 043a 8c4a a5ba d723 acbb
00000150: b0ce d8bb 18b1 a53b b459 0bbc 7c0d 8a3c
00000160: b5e9 3e3b 0dac 973a 447c 9a3b 9730 5f3c
00000170: a6a9 5dbc a153 64bc a814 bebb f8b5 a53c
00000180: 999d 7c3c b4e2 97bc ca9d 623c 45fb acba
00000190: 7bc8 7d38 3514 0abb 1789 16bc ae43 c83c
000001a0: f52f 1c3b ec91 33bb c036 743b 4257 973b
000001b0: 673f 41bc dd15 acbc 1bdd ec3b 10c5 babb
000001c0: c30b c4bb 6995 723c 536f dcbb 37b9 083c
000001d0: 6844 1f3b 54bb e53a 901c dd3b 6b37 39bc
000001e0: a010 0c3c 5654 063c 4601 00bc 5c40 5cbc
000001f0: 72e3 38bb cff1 d23a 4a99 003c c916 69bb
00000200: 7be9 8abb 7185 a4bb b2e1 66bc 31c2 f73b
00000210: eeaf 9abb d200 773c a0c5 b23a be70 91bc
00000220: 9240 e93b da2c 9c3c 15af ef3b 53db 1aba
00000230: bb00 023c 7cc7 bcba b70d 6d3b 696c 293c
00000240: 28ca d4bc 8ffd 283c c3a8 373a 5f86 313c
00000250: f89a e83b 9317 013c af7f 3d3c 4cc9 c0bb
00000260: e38d 0fbb a631 2dbc f0d5 3b3c 1856 363c
00000270: 33fd 023c 159b 7abc fd93 3f3c 41eb cebb
00000280: bdbc 71ba 05eb 713a 6065 81bb 354b 5a3b
00000290: ef16 33bc b346 133b cece 6e3c 02a4 08bc
000002a0: 0c36 7239 a6d1 7a3b 420a 0d3c 2b0a 72bc
000002b0: d765 74bb 7214 e7ba 45ab 853c 6a26 5db8
000002c0: aaa0 a5bb e7e5 61ba eb59 8d3c 9302 0cbc
000002d0: dbca 323c d5ff 54bc 0e08 783c c5ad 623a
000002e0: cba5 21bb 0818 59bc 6560 623c 5a9e 84bc
000002f0: b000 333b 01cd 8f3b 5de5 9fba c0bd 173b
00000300: 02ba 233b 7ede 04ba d2fd 58bc f3d5 efbb
00000310: df20 b4bb fc13 183c 4ad8 053b 881e 12bb
00000320: c4da 66ba 2dd1 063b 4931 c639 008e 51bc
00000330: acc1 5b3c 7e6f 873b 206a a3bb a795 9fbb
00000340: e820 96bc c370 1c3c 73fc 32bc bcde 7fbb
00000350: 2916 493a 3457 4d3c 210c 3c3a 4447 5fbc
00000360: 1c04 0dbb a25f 97b9 700a f3ba 057c 13bc
00000370: ee68 1d3c ffac 6d3b e18b b7bb 03c3 5dba
00000380: 4ee2 93ba 1246 d9bb 85fb 0abc 0aa1 f1b8
00000390: 6ad6 2bbb 9255 19bb e542 03bc 8688 8dbc
000003a0: 738d 603b be3b 64bc 93ef 993b b351 65bc
000003b0: 17dc f5bb da16 0b3b 1571 97bc 9e71 3cbc
000003c0: 1036 be3b 09c3 373b e569 cab9 a9da 743c
000003d0: 37d3 ed3b 9c36 4e3c f297 5c3c 6475 9fbc
000003e0: da54 1cbb 6151 4f3b 7791 54bc b207 2d3c
000003f0: 10f1 febb a909 2d3b 9e41 8e3c 9dd6 b9bb

update_node_embedding_layer.0.update_layer.weight f4 [64, 128]
0.0075080204 0.0072048535 0.00086573075 -0.0051614977 0.0074384604 -0.01197225 -0.0056603015 -0.001174407
0.0066805407 0.014434471 -0.0115956105 -0.0016655108 -0.02016402 -0.0006533583 -0.002053303 -0.008100575
0.012314782 0.00038921964 -0.014019523 -0.0031973685 -0.0007706469 -0.009729489 -0.009241092 -0.0042569726
-0.009952169 -0.0006271005 -0.0120667815 -0.00067160174 0.0018561102 -0.010183443 0.010775643 -0.00615005
-0.020259636 -0.03361236 -0.008844038 0.006280489 0.013111641 0.00013216586 -0.008188388 0.017193135
0.010342431 -0.004385086 6.0754817e-05 -0.008547765 -0.007366527 0.014102951 -0.02433011 0.0047769123
-0.014612896 0.004541024 -0.0044345385 -0.008897678 -0.010819396 -0.00727244 -0.004564681 0.00031999833
-0.0017554512 -0.012902099 0.0051160166 -0.0067906072 -0.0019524642 -0.0074397684 0.020086102 0.00022439491
0.012451123 0.0039288118 0.008936819 0.003329992 -0.004263867 -0.004954748 0.0128591955 -0.0035331524
-0.0064587407 0.0069869813 0.007294145 -0.0007420336 0.016249428 0.0014427209 -0.0063166386 0.003538578
0.016941896 -0.010268385 0.007019186 0.0012135583 0.0097796 -0.011017456 -0.008850054 0.0023699538
-0.009690811 -0.0121657625 0.020972423 0.0153110605 0.0010716581 0.016705437 -0.002803989 -0.003402626
0.0033469193 0.012256114 0.0012219709 -0.010433165 -0.015642965 -0.0052807154 -0.011458136 -0.005142337
-0.012459776 0.015344294 -0.015193614 -0.010375443 -0.0015224892 -0.027193615 -0.018850941 -0.0058853175
-0.0037906629 0.002707132 -0.0056048012 -0.009161804 -0.009293497 -0.011831467 -0.00979685 0.004225571
-0.0022067751 0.00568362 0.02565991 -0.023145216 -0.0069208834 0.0033806015 -0.002477771 0.015014666
0.027738161 0.017200295 -0.011957654 -0.0028858944 -0.0053062015 -0.0053413305 -0.025837729 0.004092413
0.03792797 -0.01789825 -0.0014688312 0.017527955 -0.020076958 0.014409002 0.028553255 -0.06493477
0.028216148 -0.012308184 0.037968375 0.004163473 -0.0003712568 0.033647984 0.01009868 0.032879636
0.0024219856 -0.018125426 0.0148110725 0.0074918177 -0.017338987 0.019792987 0.068813935 0.017950837
-0.012782433 -0.097912855 -0.026467275 0.016152712 0.041542087 0.05239943 0.057279173 -0.030910054
0.019633258 0.0002516775 0.041388914 0.016383842 0.0007720816 -0.005963952 -0.03425778 -0.0010065427
-0.038027782 0.04020512 -0.024483752 -0.065403305 0.07297434 0.02397857 0.01782239 -0.021621741
-0.012889661 0.028798198 -0.003551703 0.014881575 -0.019148778 0.033371635 0.04858674 0.013313241
-0.005231316 0.009569897 0.025348034 0.0006054957 -0.03757264 -0.008275823 0.0027344364 0.021724518
0.013926322 -0.0036583939 0.010920893 -0.0007206679 -0.01024035 0.012097649 0.011013064 0.0077134883
-0.02273055 0.0043943883 -0.018290954 0.000985935 0.008568254 0.0038711457 0.038809363 -0.008034486
0.03374596 -0.017548367 0.0036106461 0.0025769442 0.007778611 -0.007112568 -0.017961306 0.011268433
0.031646036 -0.006708055 0.0042805714 0.0063649956 -0.00045967696 0.014945777 0.0028796333 0.028079076
0.008180446 -0.0050287945 0.02535208 0.013160305 0.0073694936 -0.040159844 0.011958606 0.0079173725
0.0010577276 -0.01812115 -0.04468027 0.010132855 0.017378055 0.0010548326 0.004395248 0.0031053163
0.012566237 0.013511078 -0.013485577 0.008001286 -0.007150833 -0.0109705785 0.007808192 -0.008622526
00000000: d705 f63b b116 ec3b 35f2 623a c821 a9bb
00000010: 54be f33b 4227 44bc 0d7a b9bb 8fee 99ba
00000020: 70e8 da3b 8f7e 6c3c 84fb 3dbc 454d daba
00000030: 042f a5bc 2246 2bba b590 06bb 46b8 04bc
00000040: f0c3 493c 2d10 cc39 24b2 65bc f18a 51bb
00000050: 3d05 4aba 6f68 1fbc f367 17bc 137e 8bbb
00000060: 6c0e 23bc 0164 24ba c0b3 45bc 6e0e 30ba
00000070: b948 f33a 75d8 26bc 538c 303c 5c86 c9bb
00000080: 89f7 a5bc 1dad 09bd 95e6 10bc 8fcc cd3b
00000090: 35d2 563c 0196 0a39 9728 06bc 9ed8 8c3c
000000a0: 4d73 293c c4b0 8fbb fdd2 7e38 ed0b 0cbc
000000b0: e862 f1bb 1010 673c f04f c7bc a587 9c3b
000000c0: ee6a 6fbc dfcc 943b 9b4f 91bb 91c7 11bc
000000d0: d643 31bc a64d eebb 5293 95bb 73c5 a739
000000e0: 2b17 e6ba 5363 53bc 42a4 a73b be83 debb
000000f0: d4e9 ffba 4dc9 f3bb 9c8b a43c 8d4b 6b39
00000100: ccff 4b3c 43bd 803b bc6b 123c ff3b 5a3b
00000110: e9b7 8bbb 705b a2bb 60af 523c 768c 67bb
00000120: d8a3 d3bb 0cf3 e43b b903 ef3b 0885 42ba
00000130: 851d 853c ae19 bd3a cefb cebb 7de7 673b
00000140: bbc9 8a3c ba3c 28bc 3301 e63b 4210 9f3a
00000150: 9e3a 203c 8f82 34bc d1ff 10bc 3a51 1b3b
00000160: 35c6 1ebc e852 47bc 5cce ab3c 3edb 7a3c
00000170: e176 8c3a d7d9 883c 21c3 37bb 97fe 5ebb
00000180: fd57 5b3b decd 483c 8a2a a03a deef 2abc
00000190: ad25 80bc da09 adbb e8ba 3bbc 0d81 a8bb
000001a0: 1724 4cbc a266 7b3c a3ee 78bc c3fd 29bc
000001b0: 438e c7ba 25c5 debc 4a6d 9abc 9fd9 c0bb
000001c0: c56c 78bb 236a 313b 7ba8 b7bb 641b 16bc
000001d0: c043 18bc c5d8 41bc f882 20bc a976 8a3b
000001e0: 8b9f 10bb a93d ba3b bb34 d23c 099b bdbc
000001f0: 94c8 e2bb 158d 5d3b 1962 22bb 1300 763c
00000200: 243b e33c a2e7 8c3c 09ea 43bc 4621 3dbb
00000210: a5df adbb 5406 afbb a5a9 d3bc a619 863b
00000220: 5c5a 1b3d 5a9f 92bc cc85 c0ba c996 8f3c
00000230: 6f78 a4bc bc13 6c3c 84e8 e93c 85fc 84bd
00000240: 8d25 e73c 44a8 49bc ba84 1b3d be6d 883b
00000250: 3fa5 c2b9 78d2 093d ef74 253c ccac 063d
00000260: 2dba 1e3b c67b 94bc 24aa 723c ec7d f53b
00000270: 7e0a 8ebc e724 a23c 52ee 8c3d a20d 933c
00000280: 696d 51bc 8986 c8bd e6d1 d8bc b152 843c
00000290: 0928 2a3d c9a0 563d 919d 6a3d 1537 fdbc
000002a0: edd5 a03c 95f3 8339 6c87 293d 6837 863c
000002b0: 8565 4a3a 416d c3bb e351 0cbd f8ed 83ba
000002c0: 05c3 1bbd 20ae 243d 2692 c8bc 2bf2 85bd
000002d0: 9273 953d b56e c43c 4300 923c 1420 b1bc
000002e0: 282f 53bc 33ea eb3c b0c3 68bb d9d1 733c
000002f0: e6dd 9cbc b2b0 083d e402 473d c81f 5a3c
00000300: 766b abbb 0fcb 1c3c aea6 cf3c 21ba 1e3a
00000310: c5e5 19bd 5197 07bc 3b34 333b 9ef7 b13c
00000320: 3a2b 643c aac1 6fbb 8ced 323c 34eb 3cba
00000330: 24c7 27bc 3835 463c 2370 343c 6ec1 fc3b
00000340: 6b35 babc cdfe 8f3b e9d6 95bc 7d3a 813a
00000350: dd61 0c3c 0cb3 7d3b 91f6 1e3d 14a3 03bc
00000360: 3439 0a3d 98c1 8fbc 97a0 6c3b f3e1 283b
00000370: b8e3 fe3b 8b10 e9bb 9723 93bc 3c9f 383c
00000380: 469f 013d 3ecf dbbb 0944 8c3b 7491 d03b
00000390: cc00 f1b9 22df 743c 3bb8 3c3b 1706 e63c
000003a0: 4707 063c 96c8 a4bb 2aaf cf3c 529e 573c
000003b0: cb7b f13b a67e 24bd 07ee 433c deb7 013c
000003c0: 73a3 8a3a ce72 94bc a902 37bd 4604 263c
000003d0: 6c5c 8e3c 4f42 8a3a 0306 903b 9082 4b3b
000003e0: 9ee2 4d3c 925d 5d3c 9cf2 5cbc d317 033c
000003f0: 8951 eabb f1bd 33bc dddb ff3b 7f45 0dbc

update_node_embedding_layer.1.message_layer.weight f4 [64, 128]
-0.0024541595 -0.01365639 0.017602418 0.10976766 0.00725167 0.0020043908 -0.0053400327 -0.008172784
-0.0021181102 0.002263508 -0.014375506 -0.009235906 -0.028105471 -0.00977805 0.0038861807 0.04549108
0.11940652 -0.010193697 0.104450494 -0.0104416795 0.0690324 -0.005015964 -0.016226867 -0.02605201
-0.010695398 0.0039398726 -0.0020081697 -0.014245074 0.014869347 0.04840326 0.022770239 0.011080561
0.064689755 -0.015994048 0.0060217245 0.08725619 0.004077647 0.07509237 0.0058244006 0.06780754
-0.009430518 0.09663996 0.1253995 -0.022786455 -0.021859644 -0.01780858 0.001310306 0.041256644
-0.009534244 0.11823357 -0.015356909 -0.0021746668 0.0070506963 -0.0050331247 0.1043871 0.019697612
0.059466794 0.0293628 -0.011455163 -0.008288714 0.009011519 -0.007068795 -0.011998585 -0.011163707
0.028070726 -0.00029466863 -0.02196363 -0.006336092 -0.0034050562 -0.0013606438 -0.014912906 -0.046841104
0.056486662 0.019728204 0.03781207 0.027770426 0.0048040817 -0.019359533 -0.011234388 0.008502593
0.0062419153 0.019586701 -0.018758232 0.0027940245 -0.004000172 -0.025322765 0.03615816 0.02787703
0.038142446 0.013896559 0.0047789067 -0.006141008 -0.017435296 0.047265626 0.031207442 0.017885815
-0.003158584 0.03467057 0.04695704 -0.004313238 0.0018917235 -0.024577377 -0.010694454 0.029927569
0.022407679 0.031443212 0.031635802 -0.009780353 0.027982548 0.0109446235 0.038938247 0.020820212
0.052804455 0.03353446 0.003541604 -0.0060923174 -0.0029137286 0.0136825545 0.05148103 -0.0049778023
0.05441414 -0.004828631 0.0023809853 0.03680146 0.02286871 -0.00771763 0.03493975 -0.0072857225
0.00094796147 0.035352666 -0.007868105 -0.07883854 0.026564624 0.005682213 0.019710125 0.040516112
0.048505276 0.0013120722 0.045688 0.044721227 0.057297304 0.032512918 -0.004668662 -0.07973476
-0.063358866 -0.010078845 -0.08578578 0.021998119 -0.07789784 0.024176475 0.03504795 0.03143459
0.040622987 0.015576836 -0.00016926562 0.026405815 0.0024822375 -0.05419319 -0.08551122 0.0025338605
-0.07853158 -0.0019140015 0.052525595 -0.061423425 0.010391913 -0.0613514 0.04629643 -0.061022058
0.051589005 -0.057608005 -0.033616945 -0.0039745094 -0.012661907 -0.004817127 -0.027422458 -0.06928203
0.03716331 -0.045094058 0.045708798 -0.016627384 0.026121996 -0.012290088 -0.083076246 -0.066694185
-0.056710172 -0.069802046 0.058761276 0.045234077 -0.02115381 -0.012868097 0.03097528 0.005886566
-0.022949276 0.00075916 0.043361574 0.0076632737 0.01324664 -0.009961937 0.019124582 0.07233464
-0.0073813573 0.013925187 0.006081634 -0.022446802 -0.0003631312 0.055171568 0.010699536 -0.008041977
-0.004722763 -0.02874906 -0.011794549 0.0063315365 0.0075001405 0.066250585 -0.0018533941 -0.016048638
-0.013489766 -0.0015361595 -0.05062483 0.024276713 -0.00895716 -0.019819563 -0.014027688 0.014131096
-0.06785763 -0.016931033 0.0007141567 0.008183525 0.0087668765 -0.016979441 0.008774788 -0.004243914
-0.016463 -0.029540814 0.00646989 0.002751888 -0.0025233293 0.01843453 -0.009485628 -0.021120636
0.02538711 0.01566102 0.01276278 0.017471153 0.026825087 0.007920451 -0.03801307 0.008362231
0.048012123 -0.006146415 0.009884542 -0.009138825 -0.026916133 0.006800064 0.005520387 0.0021183365
00000000: f7d5 20bb 0dbf 5fbc f232 903c decd e03d
00000010: 6b9f ed3b 195c 033b 71fb aebb 24e7 05bc
00000020: fecf 0abb 5d57 143b 3e87 6bbc 3352 17bc
00000030: 723d e6bc 1d34 20bc 4baf 7e3b db54 3a3d
00000040: 688b f43d 7703 27bc 24ea d53d 9413 2bbc
00000050: dc60 8d3d f55c a4bb 35ee 84bc 066b d5bc
00000060: c03b 2fbc 0c1a 813b 7f9b 03bb 2c64 69bc
00000070: 909e 733c 7f42 463d a788 ba3c 3e8b 353c
00000080: 107c 843d f305 83bc e351 c53b 60b3 b23d
00000090: c89d 853b 07ca 993d 9dda be3b aede 8a3d
000000a0: 7682 1abc 2ceb c53d ba68 003e a9aa babc
000000b0: ff12 b3bc 4de3 91bc 93be ab3a bafc 283d
000000c0: 8535 1cbc 7124 f23d 8b9b 7bbc db84 0ebb
000000d0: 8709 e73b e9ec a4bb e7c8 d53d e35c a13c
000000e0: 7493 733d 418a f03c 70ae 3bbc 63cd 07bc
000000f0: 0da5 133c 5aa1 e7bb b795 44bc fbe7 36bc
00000100: 94f4 e53c c17d 9ab9 12ed b3bc fe9e cfbb
00000110: 5d27 5fbb a157 b2ba 4355 74bc 75dc 3fbd
00000120: 8f5e 673d 0b9d a13c d4e0 1a3d ce7e e33c
00000130: 8f6b 9d3b e297 9ebc 7010 38bc 764e 0b3c
00000140: fb88 cc3b 4a74 a03c ddaa 99bc f41b 373b
00000150: e013 83bb b071 cfbc 941a 143d 5f5e e43c
00000160: 413b 1c3d 65ae 633c 6098 9c3b 823a c9bb
00000170: 77d4 8ebc 9a99 413d c0a6 ff3c 4685 923c
00000180: 3f00 4fbb ba02 0e3d 0656 403d 1056 8dbb
00000190: b5f3 f73a 7f56 c9bc cb37 2fbc a92a f53c
000001a0: 4f90 b73c 99ca 003d 8b94 013d c63d 20bc
000001b0: a83b e53c 1451 333c b67d 1f3d 268f aa3c
000001c0: 7c49 583d 6e5b 093d 411a 683b 10a2 c7bb
000001d0: 41f4 3ebb cb2c 603c c6dd 523d d51c a3bb
000001e0: 5ce1 5e3d 7e39 9ebb 4e0a 1c3b 21bd 163d
000001f0: 2957 bb3c 2ce4 fcbb fc1c 0f3d 12bd eebb
00000200: 9e80 783a f5cd 103d 39e9 00bc 1a76 a1bd
00000210: 0e9e d93c dc31 ba3b 2177 a13c 39f4 253d
00000220: 78ad 463d d6f9 ab3a 5723 3b3d 9b2d 373d
00000230: 94b0 6a3d 442c 053d 93fb 98bb fa4b a3bd
00000240: 4bc2 81bd bd21 25bc 74b0 afbd 6635 b43c
00000250: e788 9fbd be0d c63c 708e 0f3d 8fc1 003d
00000260: 4a64 263d fc35 7f3c e57c 31b9 0251 d83c
00000270: 09ad 223b aef9 5dbd 8220 afbd 200f 263b
00000280: 2ad5 a0bd 3cdf faba 1425 573d 2197 7bbd
00000290: d842 2a3c 9b4b 7bbd 53a1 3d3d 44f2 79bd
000002a0: fe4e 533d 5ff6 6bbd ecb1 09bd 9a3c 82bb
000002b0: e373 4fbc fdd8 9dbb 10a5 e0bc bde3 8dbd
000002c0: 8e38 183d 8cb4 38bd 2639 3b3d 2736 88bc
000002d0: ccfd d53c 5e5c 49bc e123 aabd f696 88bd
000002e0: ed48 68bd 60f4 8ebd aaaf 703d 5e47 393d
000002f0: c14a adbc b6d4 52bc dfbf fd3c 18e4 c03b
00000300: 1f00 bcbc 5d02 473a e89b 313d 331c fb3b
00000310: 6f08 593c 6437 23bc 28ab 9c3c 2f24 943d
00000320: 50df f1bb 7826 643c 7248 c73b 5be2 b7bc
00000330: a562 beb9 95fb 613d 1b4d 2f3c 7fc2 03bc
00000340: 68c1 9abb 2683 ebbc ed3d 41bc c778 cf3b
00000350: bdc3 f53b 63ae 873d 96ed f2ba 6f78 83bc
00000360: 2e04 5dbc f658 c9ba fb5b 4fbd f5df c63c
00000370: 0dc1 12bc a35c a2bc 63d4 65bc 1d86 673c
00000380: f1f8 8abd f3b2 8abc 3f36 3b3a 3114 063c
00000390: f2a2 0f3c 7818 8bbc 21c4 0f3c 8810 8bbb
000003a0: 6add 86bc 94ff f1bc 5f01 d43b 0559 343b
000003b0: 715e 25bb 0304 973c 9c69 1bbc 2f05 adbc
000003c0: a1f8 cf3c 8a4b 803c fb1a 513c aa1f 8f3c
000003d0: 49c0 db3c c8c4 013c 98b3 1bbd bd01 093c
000003e0: 5ca8 443d de67 c9bb c6f2 213c 03bb 15bc
000003f0: 397f dcbc 12d3 de3b 5de4 b43b cad3 0a3b

update_node_embedding_layer.1.update_layer.weight f4 [64, 128]
-0.010167671 -0.032499757 -0.0015054389 0.08897757 -0.050814286 0.018904693 -0.009240803 -0.039345607
-0.023776691 -0.003585052 -0.032206215 -0.053081363 -0.045912623 -0.017318767 -0.0037494863 0.04881779
0.11324886 0.0023484598 0.07122425 -0.04887789 0.06199098 -0.05316212 -0.020673372 -0.04193272
-0.0376962 0.010020811 -0.0054459637 -0.035755526 0.010063989 0.055653866 -0.0017495181 0.02122933
0.060304746 0.006727519 -0.049144108 0.06672053 -0.004555614 0.06748961 -0.04020215 0.067944296
-0.014272028 0.08773588 0.088631555 0.0052243355 -0.0061313156 0.004195299 0.011750604 0.07990076
-0.03936452 0.11271613 -0.027393648 0.0121902125 -0.041879795 0.009042375 0.06724725 -0.020376146
0.07614149 0.05288018 -0.029087063 -0.036367167 0.0014573629 0.0063790046 -0.02345589 0.011245571
0.034795865 0.0042106058 0.011684847 0.01956297 -0.009179382 0.022348108 0.012761408 -0.013752868
-0.004878531 0.022775844 0.0038316816 0.022144219 -0.007757715 -0.002356969 0.008362155 0.003833151
0.027585179 -0.00515868 0.03099208 0.040502034 0.020048363 -0.015148566 0.030605292 0.022391347
-0.04978186 0.023422757 0.04595067 -0.0073595494 0.008922714 0.03542611 0.00022590571 0.001537397
0.014344213 0.0042203777 0.042644463 -0.0032591429 0.041874126 0.018399674 -0.011877797 -0.003214695
0.028883 0.005164664 -0.0027668688 -0.000161953 -0.020290814 0.0028346905 0.00033510607 0.037954807
-0.0029173677 0.011409202 0.012532683 0.010816447 0.0056575644 -0.012952006 0.01831508 -0.015976634
0.008852675 0.03600949 0.017357914 -0.08314999 0.0033561802 -0.001975873 0.02759051 0.020882059
-0.010863433 -0.00017870292 -0.007028142 -0.064137034 0.0046093944 -0.010481571 0.010704572 0.00940696
0.021368267 0.0025302784 -0.012046059 -0.0075883893 -0.0017769726 -0.00962642 0.00804263 -0.057371695
-0.019667365 0.013382397 -0.038370583 0.008966167 -0.08424661 0.0124226995 0.020911189 -0.00039887044
-0.013758786 0.003477857 -0.0062289075 -0.012258008 -0.009883218 -0.10101289 0.08997181 -0.017294815
-0.10129738 0.008303429 0.004377807 -0.09583311 0.0016754795 -0.11291424 -0.022449961 -0.10879663
0.014651572 -0.11873976 -0.11738731 -0.010869197 -0.012100814 0.0047711004 -0.028053626 -0.1116623
0.00010561336 -0.15254879 -0.00846379 0.004584755 0.022968916 -0.002873488 -0.05089983 0.06600531
-0.067048036 -0.056590885 0.029907478 0.0065484243 -0.0066596493 -0.0036493393 -0.004474704 0.0039967946
-0.030595833 0.030857285 -0.009680361 0.008070175 -0.015368342 -0.0022464993 0.011826442 0.055458058
0.0033971658 -0.017241668 0.006211786 0.012676869 -0.017583165 -0.014284254 0.0073705576 -0.01057403
-0.029697606 0.011551481 -0.016923567 0.004780829 -0.018460505 0.0005286833 -0.00093416823 0.0052967127
-0.061594866 0.0611726 0.0048362706 -0.0039813253 0.008346813 0.008880677 0.0020762696 0.0052797804
-0.010368904 0.0013301374 -0.011297103 -0.01648877 0.03374144 0.011759116 -0.00072730606 -0.0059180534
-0.011796312 -0.032384243 -0.012155366 -0.009620754 -0.0058350973 0.06710147 0.003163143 -0.088389985
-0.002027941 -0.0016790448 0.011175519 -3.7343e-05 0.014464923 -0.002770325 0.011874893 0.004298177
-0.003673406 -0.0018094648 0.02859423 -0.054041453 0.056583174 0.014062161 0.009324443 -0.0012990924
00000000: 4e96 26bc 771e 05bd 2652 c5ba df39 b63d
00000010: a422 50bd 04de 9a3c bd66 17bc dc28 21bd
00000020: 56c7 c2bc 31f3 6abb aaea 03bd d86b 59bd
00000030: e00e 3cbd 16e0 8dbc f1b9 75bb 2af5 473d
00000040: 05ef e73d 9ee8 193b 05de 913d 2f34 48bd
00000050: 41ea 7d3d 86c0 59bd 345b a9bc a5c1 2bbd
00000060: 5567 1abd 542e 243c 0e74 b2bb 6374 12bd
00000070: 6ee3 243c 4ff5 633d 1650 e5ba 22e9 ad3c
00000080: 1c02 773d 8572 dc3b 554b 49bd c6a4 883d
00000090: 4347 95bb fe37 8a3d 02ab 24bd 6126 8b3d
000000a0: 39d5 69bc deae b33d 7684 b53d e730 ab3b
000000b0: 34e9 c8bb b878 893b 9b85 403c 02a3 a33d
000000c0: b13c 21bd b7d7 e63d a568 e0bc 75b9 473c
000000d0: 268a 2bbd 7826 143c edb8 893d e0eb a6bc
000000e0: 12f0 9b3d e398 583d fe47 eebc bdf5 14bd
000000f0: fc04 bf3a f806 d13b 9126 c0bc 583f 383c
00000100: 1c86 0e3d 1ff9 893b cd71 3f3c 8642 a03c
00000110: 1e65 16bc 6113 b73c 3a15 513c b653 61bc
00000120: 16dc 9fbb 6894 ba3c f31c 7b3b cb67 b53c
00000130: 6e34 febb 6177 1abb 6c01 093c 9a35 7b3b
00000140: 50fa e13c 250a a9bb 1ae3 fd3c 76e5 253d
00000150: 773c a43c b131 78bc f3b7 fa3c 0f6e b73c
00000160: 10e8 4bbd 15e1 bf3c c536 3c3d 6028 f1bb
00000170: 9330 123c f81a 113d 1ae1 6c39 7c82 c93a
00000180: fd03 6b3c 184b 8a3b f6ab 2e3d 5897 55bb
00000190: 3484 2b3d eaba 963c 179b 42bc a2ad 52bb
000001a0: 0b9c ec3c 573c a93b 5b54 35bb edd1 29b9
000001b0: ec38 a6bc 37c6 393b 2db1 af39 8076 1b3d
000001c0: 4f31 3fbb a9ed 3a3c e255 4d3c 7837 313c
000001d0: 1763 b93b a734 54bc 8209 963c 6ee1 82bc
000001e0: cf0a 113c b07e 133d 2f32 8e3c 8b4a aabd
000001f0: 5cf3 5b3b a67d 01bb 7e05 e23c da10 ab3c
00000200: 8afc 31bc 3362 3bb9 544c e6bb 475a 83bd
00000210: 670a 973b e5ba 2bbc 3b62 2f3c a61f 1a3c
00000220: 810c af3c 07d3 253b d55c 45bc 06a8 f8bb
00000230: 4ee9 e8ba 22b8 1dbc 3cc5 033c 95fe 6abd
00000240: 741d a1bc d741 5b3c 792a 1dbd d5e6 123c
00000250: 7d89 acbd 9488 4b3c f14d ab3c 7c1f d1b9
00000260: 886c 61bc c2ec 633b dd1b ccbb d0d5 48bc
00000270: 39ed 21bc d9df cebd 2443 b83d dbad 8dbc
00000280: 0075 cfbd 1b0b 083c b573 8f3b 2644 c4bd
00000290: c39b db3a 953f e7bd fbe8 b7bc c4d0 debd
000002a0: 260d 703c d52d f3bd c268 f0bd b714 32bc
000002b0: 7e42 46bc e456 9c3b b8d0 e5bc 34af e4bd
000002c0: be7c dd38 c035 1cbe b5ab 0abc b63b 963b
000002d0: 4f29 bc3c 2151 3cbb 577c 50bd cb2d 873d
000002e0: 7b50 89bd d8cb 67bd 8700 f53c 2a94 d63b
000002f0: 3039 dabb c129 6fbb 8aa0 92bb 8bf7 823b
00000300: 1da4 fabc 6bc8 fc3c 609a 1ebc c438 043c
00000310: 80cb 7bbc 013a 13bb b1c3 413c fd27 633d
00000320: fca2 5e3b 663e 8dbc 3d8c cb3b a4b2 4f3c
00000330: 920a 90bc 8108 6abc b884 f13b b23e 2dbc
00000340: 6548 f3bc 6c42 3d3c 4ba3 8abc 80a8 9c3b
00000350: 7c3a 97bc 5697 0a3a f8e2 74ba 0c90 ad3b
00000360: e64a 7cbd 1f90 7a3d 9479 9e3b c775 82bb
00000370: 12c1 083c 4280 113c 0612 083b 0202 ad3b
00000380: 56e2 29bc 0158 ae3a 7c17 39bc 7513 87bc
00000390: 7734 0a3d 4fa9 403c afa8 3eba 3bec c1bb
000003a0: 5245 41bc 57a5 04bd 4d27 47bc 5ea0 1dbc
000003b0: 5834 bfbb 7f6c 893d bc4c 4f3b cf05 b5bd
000003c0: 34e7 04bb 6513 dcba 8619 373c bea0 1cb8
000003d0: 49fe 6c3c 578e 35bb e98e 423c b9d7 8c3b
000003e0: 87bd 70bb 902b edba 723e ea3c 925a 5dbd
000003f0: c2c3 673d fa64 663c 8cc5 183c 4f46 aaba
