ER_200spin/eco/network/network400000.pth (torch, 238273 bytes, 11 tensors)

node_init_embedding_layer.0.weight f4 [64, 7]
0	0xba4788d7	-0.0007611638
1	0x3e641bbf	0.2227621
2	0x3c65cb6f	0.014025553
3	0xbd0b9b9a	-0.03408394
4	0x3b79266a	0.0038017281
5	0x3d9d1155	0.076693214
6	0xbd06ccf6	-0.03291031
7	0x3cfb2a14	0.030659713
8	0xbe364591	-0.17799975
9	0x3ca17efa	0.019713867
10	0x3dccf6d7	0.100080185
11	0x3ae76782	0.0017654749
12	0xbcc1bc54	-0.023649372
13	0x3d85079b	0.06495591
14	0x3bc47197	0.0059949863
15	0x3e7dc036	0.24780354
16	0x3ae37b7c	0.0017355527
17	0x3c3116bb	0.010808642
18	0x3a52baee	0.0008038719
19	0x3d857cf2	0.06517972
20	0xbd23cd18	-0.039990515
21	0x3bc3e767	0.005978513
22	0x3e76187c	0.24032778
23	0x3bd5a071	0.0065193702
24	0xbd04d137	-0.032426085
25	0xbc8d6665	-0.01726074
26	0x3c8a904e	0.016914513
27	0x3c7c0709	0.015382537
28	0x3b5c4232	0.0033608791
29	0x3e73963e	0.23787782
30	0x3c4dd082	0.012561919
31	0xbb37b8a6	-0.0028033643
32	0x3a97f9c1	0.0011594818
33	0x3d6ce575	0.057836015
34	0xbd3310b7	-0.043717112
35	0xbbf7d0fc	-0.0075627547
36	0x3e70efc9	0.23528971
37	0x3bc06a03	0.0058720126
38	0x3b3ca92e	0.0028787362
39	0x3b847f29	0.004043479
40	0x3d8a917e	0.06766032
41	0xbd24c095	-0.040222723
42	0x3ccec78a	0.025241632
43	0xbdd3540e	-0.103187665
44	0x3c80b7aa	0.015712578
45	0xbc90da71	-0.017682286
46	0xbca73e09	-0.020415323
47	0x3c72fd9d	0.014830974
48	0x3c8dceaf	0.017310468
49	0x3c01672c	0.007898133
50	0x3e8c7ffa	0.27441388
51	0x3be50fc3	0.0069904043
52	0xbd8425ce	-0.06452523
53	0x3baa17e3	0.005190836
54	0x3d8e14c6	0.06937556
55	0xbca6a959	-0.020344423
56	0x3ba78857	0.0051126885
57	0x3e5edf96	0.21764979
58	0xb9c7f628	-0.00038139638
59	0xbd47a312	-0.0487395
60	0x3b44a5c0	0.0030006021
61	0x3d8e894e	0.069597825
62	0xbcd551af	-0.026039926
63	0x3cdfd55d	0.02732342
64	0xbe10d3ba	-0.14143267
65	0x3cb060f3	0.021530604
66	0xbc09a3dc	-0.0084008835
67	0xbca92473	-0.020647263
68	0x3cb6500b	0.022254964
69	0x3d099427	0.033588555
70	0x3c95d787	0.018291248
71	0xbe4375a9	-0.19087853
72	0x3c318cc6	0.010836786
73	0x3dc2b0ea	0.095064
74	0x3bff90bc	0.007799236
75	0xbcaa3c18	-0.020780608
76	0x3d490547	0.0490773
77	0x3c40cde5	0.011767839
78	0xbe7c89c4	-0.24661928
79	0x3ba64eb6	0.005075301
80	0x3e0ad523	0.13557868
81	0xbae130ec	-0.0017180718
82	0x3cb32463	0.021867936
83	0xbd12cf05	-0.03584196
84	0x3bac9e0c	0.005267864
85	0x3e7bac8f	0.24577545
86	0x3c796cfe	0.01522374
87	0xbd2adc5e	-0.041714065
88	0x3b8632f1	0.004095428
89	0x3da61897	0.08110159
90	0xbd2bfc54	-0.041988686
91	0x3c169860	0.0091916025
92	0x3e5aeb1f	0.21378754
93	0xbbab7f6f	-0.005233697
94	0x3c97434b	0.018464705
95	0x3a8fccaa	0.0010971029
96	0x3d9b261c	0.07575628
97	0xbd487222	-0.04893697
98	0x3d0d4934	0.03449364
99	0xbe43e242	-0.1912928
100	0x3c7fb238	0.0156064555
101	0x3dc88d98	0.09792632
102	0x3b8f8654	0.004380027
103	0xbd00296d	-0.031289507
104	0x3d92867f	0.07154559
105	0x3c6ff512	0.014645832
106	0xbe291bdd	-0.16514535
107	0x3c3cea47	0.011530465
108	0x3dcfbedb	0.10143825
109	0x3c54734c	0.012966942
110	0xbd121ee0	-0.035673976
111	0x3d8f8238	0.07007259
112	0x3cd44244	0.025910504
113	0xbe2ea4c6	-0.17055044
114	0x3bcb09f1	0.0061962535
115	0x3dfbb3bd	0.12290142
116	0x3b7e0c6b	0.0038764726
117	0xbd02d195	-0.031938154
118	0x3d844c9e	0.06459926
119	0x3c0e740d	0.008694661
120	0x3e76b59e	0.24092719
121	0x3ba05551	0.004892983
122	0x394c5ffb	0.00019490712
123	0x3bb35c8b	0.0054736785
124	0x3d846aa1	0.0646565
125	0xbca2860a	-0.019839305
126	0x39e6d633	0.0004402861
127	0x3e610de7	0.2197796
128	0xbceb84e5	-0.028749892
129	0xbdbe5112	-0.09292807
130	0xba3e833b	-0.00072674797
131	0x3ca4aa91	0.020100864
132	0xbd36fbc1	-0.044673685
133	0x3cee4442	0.029085282
134	0xbe31ad93	-0.1735137
135	0xbb31d71c	-0.0027136272
136	0x3de46191	0.11151422
137	0x3bf65a84	0.0075181145
138	0xbcf52b02	-0.029927734
139	0x3d82bf70	0.0638417
140	0xbc2d2b1d	-0.010569361
141	0xbdc7f079	-0.097626634
142	0x3cd32634	0.025775053
143	0xbd070da2	-0.032971986
144	0xba962cb5	-0.0011457416
145	0xba3365ff	-0.00068435067
146	0x3d54113c	0.05177425
147	0x3ba7f247	0.0051253173
148	0x3e6c6ecc	0.2308914
149	0x3c9e702e	0.0193406
150	0xbc07ca19	-0.00828793
151	0x3b349d09	0.002755942
152	0x3d99aec9	0.07504041
153	0xbd40ea84	-0.04709865
154	0x3c34f179	0.0110439
155	0xbe3509e0	-0.17679548
156	0xbaedf153	-0.0018153585
157	0x3e1eb6e0	0.15499449
158	0xbb9313a9	-0.0044884277
159	0x3d005a09	0.031335864
160	0xbd1b2ce1	-0.037884597
161	0x3c765306	0.015034443
162	0xbe3f290d	-0.18668003
163	0x3c2eff04	0.010680918
164	0x3dc6b447	0.09702354
165	0x3c6c9b61	0.014441342
166	0xbcce2727	-0.025165154
167	0x3d5dcc6d	0.054150034
168	0x3a531934	0.0008052767
169	0x3e64dc1a	0.22349587
170	0xbc8276b2	-0.015925739
171	0x3bbb34b9	0.005713072
172	0x3acd697f	0.0015671699
173	0x3da6c2c3	0.081426166
174	0xbd1b9326	-0.03798213
175	0x3cad4fa8	0.021156147
176	0xbe318ef7	-0.17339693
177	0x3ac77e00	0.0015220046
178	0x3dcf7a40	0.10130739
179	0x3c0ccfab	0.008594434
180	0xbd067ddb	-0.03283487
181	0x3d6150f6	0.05500885
182	0x3c612a76	0.013743034
183	0xbe366d18	-0.17815053
184	0x3c7028c6	0.014658159
185	0x3dcd33d5	0.10019652
186	0x3bf85ec0	0.0075796545
187	0xbd0a9fc9	-0.03384379
188	0x3d7d9dc9	0.061918054
189	0x3c9d10fa	0.019173134
190	0x3de980e0	0.11401534
191	0xbab127e0	-0.0013515912
192	0x3e157950	0.14597058
193	0xba5b61d7	-0.0008368766
194	0x3dc4b5ca	0.09604986
195	0xbcd6be7f	-0.026213882
196	0xbb19525d	-0.002339504
197	0x3bba5e8d	0.005687541
198	0xbbfb62b2	-0.0076716775
199	0x3c30f680	0.010800958
200	0xbbe1b22f	-0.006887696
201	0xbb869ae9	-0.004107822
202	0xbb7e3cd7	-0.0038793588
203	0x3c94f7c2	0.018184546
204	0xbe2d98ac	-0.16952771
205	0x3bba7c49	0.0056910855
206	0x3db0c8bd	0.08632038
207	0x3c88396e	0.016628947
208	0xbd1722c2	-0.036898382
209	0x3d74a1a2	0.059724458
210	0x3b8d23c6	0.004307243
211	0xbe2d6922	-0.16934636
212	0xbc45efdb	-0.012081112
213	0x3db8a665	0.09016112
214	0x3c8ed4a9	0.017435389
215	0xbd04fd6e	-0.032468252
216	0x3d5c64d5	0.0538071
217	0xbb8592b5	-0.0040763267
218	0x3c25342c	0.0100832395
219	0xbc2e2677	-0.010629288
220	0x3a2341fe	0.000622779
221	0xbb6a506c	-0.0035753502
222	0xbbb61324	-0.005556481
223	0xbb940ae1	-0.0045178984
224	0x3ce3f07f	0.027824638
225	0xbe2d8495	-0.16945107
226	0x3bd0ae47	0.0063684317
227	0x3dec9b8b	0.11553105
228	0x3b1cb884	0.002391369
229	0xbccf1077	-0.025276406
230	0x3d762dc1	0.060102228
231	0x3c125a0c	0.008932602
232	0x3e7500d8	0.23926103
233	0xbbf37d15	-0.0074306824
234	0xbdbfaba3	-0.09358909
235	0x3be4720a	0.0069716023
236	0x3dba45b8	0.09095329
237	0xbce828c7	-0.028339757
238	0xbcaf7a71	-0.02142069
239	0x3e175251	0.14777495
240	0xbc3fca17	-0.011705897
241	0x3ca65cc8	0.020307913
242	0x39d0ee61	0.00039850458
243	0x3d840707	0.06446653
244	0xbd293b83	-0.04131652
245	0xbbc53e7a	-0.0060194107
246	0xbd8fad7d	-0.07015512
247	0x3cbd3206	0.023095142
248	0xbca0c44b	-0.01962485
249	0xbb8686ac	-0.0041054096
250	0xbbbcbe07	-0.0057599577
251	0x3d6721b1	0.056428615
252	0xbc53de25	-0.012931381
253	0xbb12bcd7	-0.002239039
254	0x39e6b5f0	0.00044004573
255	0x3bd0949d	0.0063653723

edge_embedding_layer.edge_embedding_NN.weight f4 [63, 8]
0	0x3d804cc6	0.06264643
1	0x3d4e837c	0.050418362
2	0x3db9aa65	0.09065703
3	0xbd2a1a95	-0.041529257
4	0xbd92b48a	-0.07163341
5	0x3a80bd9e	0.0009822135
6	0x3d9619f0	0.07329166
7	0xbd2f8b5f	-0.042857524
8	0xbc31d40c	-0.010853779
9	0x3ab8a5a3	0.001408745
10	0x395d58b8	0.00021109253
11	0x3c2a94bf	0.01041144
12	0x3bba7d4b	0.0056912056
13	0xbb72c514	-0.0037043737
14	0xbbd87b15	-0.0066064694
15	0xbc34df23	-0.011039528
16	0x3d3f2476	0.04666563
17	0x3cca71cb	0.024712464
18	0x3dc9ef23	0.09860065
19	0xbd18785b	-0.037224155
20	0xbd6c9f59	-0.057769153
21	0x3ab6829c	0.0013924423
22	0x3da4fc79	0.08055968
23	0xbd5b1e84	-0.0534959
24	0x3cb8f10b	0.022575876
25	0x3d06b9d3	0.03289206
26	0x3dae2b9d	0.08504412
27	0xbd0a528d	-0.033770133
28	0x3d906d6e	0.07052122
29	0xbb10db45	-0.002210335
30	0x3d6ab434	0.05730076
31	0xbd3e9494	-0.046528414
32	0x3d90955d	0.07059739
33	0x3d7f7024	0.062362805
34	0x3db62dff	0.08895492
35	0xbd056470	-0.032566488
36	0xbda342b7	-0.07971709
37	0x3a95c3cb	0.0011426149
38	0x3dac6ce2	0.08419205
39	0xbd6121d1	-0.05496389
40	0x3d015847	0.03157833
41	0x3c0d409a	0.008621359
42	0x3dab152e	0.08353649
43	0xbcbf62f6	-0.023362618
44	0x3e017bc7	0.12644874
45	0xbae92444	-0.0017787297
46	0x3d77b858	0.06047854
47	0xbd88dabf	-0.066823475
48	0x3d1b6aad	0.03794353
49	0x3cc7678f	0.024341373
50	0x3db5467b	0.08851334
51	0xbd530c56	-0.051525436
52	0x3d558fb5	0.052139003
53	0xb8da0f5c	-0.00010397911
54	0x3d5a864a	0.053350724
55	0xbd1f7df6	-0.038938485
56	0x3d97f3c7	0.07419544
57	0x3cfeeea5	0.031119654
58	0x3da33b0a	0.07970245
59	0xbd1dbda0	-0.03851092
60	0xbd32ac15	-0.04362114
61	0x3b014867	0.0019726993
62	0x3d99f18a	0.07516773
63	0xbd8fae50	-0.07015669
64	0x3c81dc19	0.015852021
65	0x3c38d05b	0.011280145
66	0x3db45268	0.0880478
67	0xbd14ef7a	-0.036361195
68	0x3e0b121d	0.13581128
69	0xbac4de1c	-0.0015019807
70	0x3c2cbd3f	0.010543167
71	0xbd58231d	-0.05276786
72	0xbd3ea2d7	-0.046542015
73	0xbce7ed48	-0.028311387
74	0xbc50b262	-0.012737842
75	0x3d2034f1	0.03911299
76	0x3db52350	0.08844626
77	0xb7bb3869	-2.2318405e-05
78	0xbd6453a4	-0.05574383
79	0x3d3f8bcd	0.046764184
80	0x3a54a584	0.0008111822
81	0x3bf93308	0.0076049604
82	0x3dcf9d15	0.10137383
83	0xbc5a1f30	-0.0133131
84	0x3e120fe5	0.14263876
85	0xbb4cb889	-0.0031237921
86	0x3ce125b2	0.027483795
87	0xbd379d60	-0.04482782
88	0xbc86628b	-0.01640441
89	0xbc8fe62b	-0.017565807
90	0x3becebaa	0.007230242
91	0x3b6fdc30	0.0036599748
92	0x3c0e1d08	0.008673914
93	0xbc069eb3	-0.008216548
94	0x3c0a0b53	0.0084255515
95	0x3c10866b	0.00882111
96	0x3d3301d0	0.0437029
97	0x3d4323c5	0.047641534
98	0x3da84c41	0.08217669
99	0xbcb9ae70	-0.022666186
100	0x3d1dbb27	0.03850856
101	0xb9a5c38a	-0.0003161694
102	0x3da40bbe	0.08010052
103	0xbd296813	-0.04135902
104	0x3d8f0e58	0.06985158
105	0x3d4198ad	0.047264744
106	0x3dc315de	0.09525655
107	0xbd1e3f90	-0.038634837
108	0xbd0545ce	-0.032537274
109	0x3a97f083	0.0011592064
110	0x3dae7bb9	0.08519692
111	0xbd586e91	-0.05283982
112	0xba87dc7a	-0.001036539
113	0xbc0d0630	-0.008607432
114	0x3ad18e42	0.0015987831
115	0x3bb3459f	0.005470946
116	0x3ba031c7	0.0048887464
117	0xbc4aee55	-0.012385924
118	0xbbbeca77	-0.0058224755
119	0xbbbeef1e	-0.005826845
120	0x3d55d251	0.052202526
121	0x3d2dc866	0.042427443
122	0x3df1f6cb	0.1181465
123	0xbd2d3500	-0.042286873
124	0xbd617d94	-0.0550514
125	0x39a8ccf4	0.0003219616
126	0x3dd388e2	0.10328843
127	0xbd1f7057	-0.038925495
128	0xbcf13bd1	-0.029447468
129	0xbcba33ea	-0.022729833
130	0xbd4c4dfa	-0.04987905
131	0x3d138222	0.036012776
132	0x3dd83ed7	0.10558861
133	0x3c4de1eb	0.01256607
134	0xbd79c8b4	-0.06098242
135	0x3d916471	0.07099236
136	0x3ca7bc76	0.020475607
137	0x3cc49c0f	0.024000196
138	0x3dd25c4b	0.1027151
139	0xbd0ebb55	-0.034846622
140	0x3df0ac4d	0.11751614
141	0xbb5955fc	-0.0033162823
142	0x3d37d50b	0.044880908
143	0xbd5fb694	-0.05461748
144	0xbd0f3d96	-0.034970842
145	0xbd1c4b68	-0.03815785
146	0xbd05178f	-0.03249317
147	0x3c9bad87	0.019003643
148	0x3dd0529e	0.10172008
149	0x3b10a695	0.0022071947
150	0xbd964d3b	-0.07338949
151	0x3d1c7391	0.03819615
152	0xbc836dd4	-0.016043581
153	0x3bde45ce	0.0067832237
154	0xbc359430	-0.011082694
155	0x3b994997	0.004677962
156	0xbc35125c	-0.0110517405
157	0xbbdd7558	-0.006758373
158	0xbc8e805b	-0.017395189
159	0xbb2b2a0f	-0.0026117598
160	0x3cbd7aa6	0.023129772
161	0x3bf25e04	0.0073964614
162	0x3da08d44	0.07839444
163	0xbbc1087c	-0.005890904
164	0xbd7f1ad9	-0.062281463
165	0xbd017408	-0.031604797
166	0x3cb86412	0.022508655
167	0xbbba626f	-0.0056880037
168	0xbd1fa878	-0.038979024
169	0xbca278c6	-0.01983298
170	0xbd5e2e50	-0.054243386
171	0x3d2dc239	0.042421553
172	0x3dd1b196	0.1023895
173	0x3c40d01d	0.011768368
174	0xbd5f301b	-0.054489236
175	0x3d6664d7	0.056248512
176	0x3d0f4095	0.0349737
177	0x3d8bb5c9	0.06821782
178	0x3df877ff	0.121322624
179	0xbca48ccb	-0.020086667
180	0xbd0c2b29	-0.03422085
181	0x389f3dbc	7.59321e-05
182	0x3d817d18	0.06322688
183	0xbd6d5f09	-0.05795196
184	0x3cced826	0.025249552
185	0x3cb156a6	0.021647763
186	0x3db1c520	0.08680177
187	0xbc2e9d82	-0.01065767
188	0xbd29d062	-0.041458495
189	0xbd067990	-0.032830775
190	0x3cd340f3	0.025787806
191	0xbcdee5a6	-0.027209114
192	0xbcba885d	-0.022770101
193	0x3c2c421c	0.010513809
194	0x3c5e11b3	0.0135540245
195	0xbc2b3a73	-0.010450947
196	0x3c20f5bc	0.009824213
197	0xbc1b7fa1	-0.009490878
198	0x3abd39c5	0.0014436772
199	0xbc281781	-0.01025951
200	0xbbfd64e6	-0.0077329753
201	0xbb1639fa	-0.002292274
202	0x38a65aa9	7.9323836e-05
203	0xbb65db7d	-0.0035073452
204	0x3c322098	0.010872029
205	0xbc127231	-0.008938358
206	0x3c1ad012	0.009449022
207	0x3b5421e7	0.003236884
208	0x3c4ce9bc	0.0125068985
209	0xbc6177fd	-0.013761518
210	0x3e1301e3	0.14356188
211	0xbd28af99	-0.041183088
212	0xbd343a9e	-0.044001214
213	0xbc81aa59	-0.015828298
214	0x3c9214b0	0.01783213
215	0xbd2a654d	-0.041600514
216	0x3ccd2153	0.025040304
217	0x3cadeb56	0.021230381
218	0xbd8f0566	-0.069834515
219	0x3daed520	0.08536744
220	0xbd165db7	-0.036710467
221	0xbb2e5ce2	-0.0026605655
222	0xbbfae229	-0.007656355
223	0x3da28431	0.0793537
224	0xbd1444ce	-0.03619843
225	0xbcfcb932	-0.030850027
226	0xbbaea2d7	-0.0053294706
227	0x3bbc577e	0.0057477346
228	0x3dac466e	0.08411871
229	0xbb105aa6	-0.0022026687
230	0xbd5f1f9f	-0.054473516
231	0x3cb2b03a	0.021812547
232	0xbd3da0f5	-0.04629608
233	0xbd21583a	-0.03939078
234	0xbca48340	-0.020082116
235	0x3c7edfa1	0.015556247
236	0x3dd257ab	0.102706276
237	0x3a234dc0	0.0006229542
238	0xbd84a915	-0.06477562
239	0x3ceda328	0.029008463
240	0xbb31350e	-0.002703968
241	0x3ab8bb8d	0.001409398
242	0x3e348bc1	0.17631437
243	0xbd743c6b	-0.05962793
244	0xbc66ab82	-0.014078977
245	0xbc7995df	-0.015233486
246	0x3d16fd33	0.036862563
247	0xbd9c8f2c	-0.07644495
248	0xbd5139ce	-0.051080517
249	0xbd25ba25	-0.040460724
250	0xbc394de2	-0.011310073
251	0x3d130754	0.03589566
252	0x3dc355fc	0.095378846
253	0xb92a8e87	-0.00016265559
254	0xbd1b0202	-0.03784371
255	0x3d19624b	0.037447255

edge_embedding_layer.edge_feature_NN.weight f4 [64, 64]
0	0x3d6daf56	0.05802854
1	0xbb2023dd	-0.0024435439
2	0x3d527747	0.051383283
3	0x3c920676	0.017825346
4	0x3d8bd0e9	0.06826956
5	0x3ccfbee0	0.025359571
6	0x3cc2a20e	0.023758914
7	0x3d02ff98	0.031982034
8	0x3ce3ef84	0.02782417
9	0xbcb85baf	-0.022504656
10	0x3d0f89e2	0.035043605
11	0xbc45a5c2	-0.0120634455
12	0x3b8af006	0.004240039
13	0x3d41626f	0.047213014
14	0x3c63903e	0.0138893705
15	0x3d5e3b3d	0.054255713
16	0xbc0d8513	-0.008637684
17	0x3cc75abb	0.024335256
18	0xbc0ddaca	-0.00865812
19	0xbbd6155c	-0.006533308
20	0x3ca9f558	0.020746872
21	0xbca6b590	-0.020350248
22	0x3d45877f	0.048224922
23	0x3b912ff2	0.0044307644
24	0x3c3a658f	0.0113767525
25	0xbc418543	-0.011811557
26	0x3bd325ad	0.0064437003
27	0xbda164a1	-0.078805216
28	0xbb081db3	-0.0020769655
29	0xbb96a408	-0.004597191
30	0x3d39427e	0.045229428
31	0xbb840469	-0.004028846
32	0x3cfbd9bf	0.030743478
33	0x3d1b9089	0.037979636
34	0x3d08c17d	0.03338765
35	0xbc5ca49a	-0.013466978
36	0x3d7345e4	0.059392825
37	0xbc9bc32a	-0.01901396
38	0x3c708f63	0.014682624
39	0x3ba547b6	0.005043949
40	0xbc063bde	-0.008192984
41	0xbcb96f91	-0.022636207
42	0x3caf6a74	0.021413065
43	0x3c2d7fed	0.010589582
44	0x3c42ac15	0.011881848
45	0x3c00162e	0.007817788
46	0x3c6ced5e	0.01446089
47	0xb928305b	-0.00016039742
48	0x3d77a3d5	0.060458977
49	0xbaed1871	-0.0018088949
50	0xbbfd9a12	-0.007739314
51	0x3d77b20c	0.060472533
52	0xbd110bc9	-0.03541163
53	0x3d552df0	0.052045763
54	0x3c6239b4	0.013807703
55	0xbc438cf3	-0.01193546
56	0x3d688f1a	0.056777097
57	0xbae43f65	-0.0017413913
58	0xbcc2ba7e	-0.023770567
59	0x3c94aeac	0.018149696
60	0xbc61c588	-0.013780005
61	0x3cb7735d	0.022393877
62	0x3c9b3a9f	0.018948851
63	0x3d20938e	0.03920322
64	0xbd448582	-0.047978885
65	0x3a6279e0	0.00086393766
66	0xbcfc0815	-0.030765573
67	0x3c3fe655	0.01171263
68	0xbd1b0b9f	-0.03785288
69	0x3b3bee94	0.002867614
70	0x3beb184b	0.007174527
71	0x3c73efed	0.014888746
72	0xb99849dd	-0.00029046732
73	0x3c668162	0.014068933
74	0xb935b4f3	-0.00017328914
75	0xbc545406	-0.012959486
76	0x3c66cc7e	0.014086841
77	0xb98c1fa7	-0.00026726464
78	0xbbf661b8	-0.007518973
79	0xbd210a9f	-0.03931677
80	0x3c9cf73e	0.019160863
81	0x3c362afb	0.011118646
82	0x3cd53954	0.026028313
83	0xbb0c42e5	-0.0021402177
84	0xbbbe85ec	-0.0058143046
85	0x3c9330bc	0.017967574
86	0xbcf66738	-0.030078515
87	0xbc91f870	-0.01781866
88	0xbc8205ee	-0.015871968
89	0x3c8ebc53	0.017423784
90	0xbca071e6	-0.019585561
91	0xbd62d03c	-0.05537437
92	0x3b97e656	0.0046356125
93	0x3c84f609	0.0162306
94	0xbc07b5a5	-0.0082830535
95	0x3c955d21	0.018232884
96	0x3ca8f920	0.020626605
97	0x3d064e51	0.032789532
98	0x3bf2aa08	0.007405523
99	0x3c448781	0.011995197
100	0xbd19bd9e	-0.03753435
101	0x3c8cf2ec	0.017205678
102	0xbbb56e47	-0.0055368277
103	0x3ae343b2	0.00173389
104	0x3b78fefd	0.0037993782
105	0x3c1954db	0.00935861
106	0xbcb179e3	-0.021664565
107	0x3b706b23	0.0036684952
108	0x3bf53950	0.007483639
109	0x3c5f0a9c	0.013613369
110	0x3c1dd8e3	0.009634229
111	0x3be7a968	0.0070697553
112	0xbd442662	-0.047888167
113	0x3b6d03f6	0.003616569
114	0x3c1515e5	0.009099458
115	0xbd80b3d7	-0.06284302
116	0xbb758787	-0.0037464814
117	0xbd3b9191	-0.04579312
118	0x3bd452df	0.0064796056
119	0x3caf9650	0.02143398
120	0xbd5274a0	-0.051380754
121	0x3b18b16a	0.0023299106
122	0x3b494cfe	0.0030716057
123	0xbc7ab4d3	-0.015301901
124	0x3c8fca67	0.017552568
125	0xbba8dd1c	-0.0051533114
126	0x3c936d5e	0.017996486
127	0xbce2278d	-0.02760675
128	0x3a2cbcd3	0.00065894163
129	0xbc08f3e0	-0.008358926
130	0xbbfd9418	-0.0077386014
131	0xbbb7f75e	-0.0056142053
132	0x3b5d3d82	0.0033758585
133	0x3ba8730f	0.005140669
134	0xbc88e8a3	-0.016712492
135	0x3c03d939	0.008047395
136	0x3b3aafe0	0.0028486177
137	0xbbabcdc1	-0.0052430336
138	0xbab0d62d	-0.0013491564
139	0xbc29f7fe	-0.010374067
140	0xbbeba0b3	-0.0071907877
141	0xba88e8f3	-0.0010445401
142	0xbb975e4f	-0.0046193968
143	0xbbff9dc9	-0.007800792
144	0xbc08bf5a	-0.008346403
145	0x3c841279	0.01612209
146	0xba24f0cf	-0.0006291987
147	0xbc7aa487	-0.015298015
148	0x3b89030d	0.004181272
149	0xbacd055d	-0.0015641857
150	0x3bf58a18	0.0074932687
151	0xbbd879dd	-0.006606324
152	0xbcba2e66	-0.022727203
153	0xbb921a92	-0.004458734
154	0x3b7cc699	0.0038570522
155	0xba4837e7	-0.00076377246
156	0x3bcedc74	0.006312901
157	0xbc590338	-0.013245396
158	0xbbe19449	-0.006884132
159	0xbbded1e9	-0.0067999256
160	0xbbfac59d	-0.007652952
161	0xbadf4bbe	-0.0017036123
162	0x3b53ffc2	0.0032348488
163	0xbbafd998	-0.0053665154
164	0xbbb2fd29	-0.005462308
165	0xbbf1716b	-0.007368257
166	0xbbaca7f9	-0.0052690473
167	0xbae50341	-0.0017472283
168	0xbc81ae50	-0.015830189
169	0xbb668ce5	-0.0035179195
170	0xbb3f349e	-0.002917565
171	0xbc09e5b0	-0.008416578
172	0x3c53917d	0.012913105
173	0xbc54f60e	-0.012998117
174	0xbc45258b	-0.012032877
175	0x3ca480fd	0.020081038
176	0xbc053beb	-0.008131961
177	0x3b866d82	0.00410241
178	0xbc6ccef7	-0.014453641
179	0xbc372912	-0.0111792255
180	0x3ba1d04d	0.0049381615
181	0xbac531c2	-0.0015044736
182	0xbb978cc3	-0.0046249344
183	0xbb99ae23	-0.004689948
184	0x3a8ed2ef	0.0010896603
185	0x3c942f59	0.018088983
186	0x3ba14888	0.0049219765
187	0x3a1cf260	0.00059870444
188	0x3c44860f	0.011994853
189	0x3b5743e2	0.0032846858
190	0xbbfacb14	-0.0076536033
191	0xbc67025e	-0.0140996855
192	0x3d02320f	0.03178602
193	0xbcc8717b	-0.024468174
194	0x3d1e6ad8	0.038676113
195	0x3c8dd56c	0.017313682
196	0x3d6b90a6	0.057510994
197	0x3d15068d	0.0363832
198	0x3bfd5033	0.0077305078
199	0x3c9afb89	0.01891877
200	0x3c874380	0.016511679
201	0x3afd895f	0.0019343308
202	0x3d21b9cc	0.03948383
203	0xbcaedd31	-0.021345707
204	0x3caad252	0.020852242
205	0x3c947273	0.01812098
206	0x3806e696	3.216284e-05
207	0x3d57323b	0.052538138
208	0xbca0415b	-0.019562414
209	0x3d385c84	0.045010105
210	0x3c1bcf52	0.009509878
211	0xbb79cc5d	-0.0038116195
212	0x3b11e1a1	0.002225973
213	0x3b974282	0.0046160826
214	0x3d4d5c46	0.050136827
215	0x3c7210c0	0.014774501
216	0xbac6866a	-0.001514626
217	0x3bebed8b	0.007199948
218	0x3c97e4fd	0.018541807
219	0xbd4d3d25	-0.05010714
220	0x3c8737f1	0.016506167
221	0xba716a38	-0.0009209248
222	0x3d16665c	0.03671871
223	0xbbee81a6	-0.007278639
224	0x3ccc4fe5	0.02494044
225	0x3cb55f67	0.022140218
226	0x3ccde509	0.025133627
227	0x3a343e39	0.0006875727
228	0x3d4dc751	0.05023891
229	0x3c940994	0.018070973
230	0x3c84eab3	0.016225195
231	0xbc2444f2	-0.0100262035
232	0xbc62ac7b	-0.013835068
233	0xba3542ac	-0.0006914537
234	0x3ceadb63	0.028669065
235	0xbaf56ea5	-0.0018724991
236	0x3c2b5c63	0.010459038
237	0xbcc29351	-0.023751887
238	0x3b885bd3	0.004161337
239	0xbba736d7	-0.005102973
240	0x3d22dd27	0.03976169
241	0x3bba001f	0.005676284
242	0x3c11e51f	0.008904724
243	0x3d853bcf	0.06505548
244	0xbc183e2f	-0.0092921695
245	0x3d4fc0a1	0.050720815
246	0x3ca1e1f5	0.019761065
247	0x3a86b41d	0.0010277067
248	0x3d355857	0.0442737
249	0x3cdbd7df	0.026836334
250	0xbbeb43a1	-0.007179693
251	0x3c7273f7	0.014798156
252	0x3b742754	0.0037254887
253	0x3c908589	0.0176418
254	0x3c43eb09	0.011957892
255	0x3d1d417f	0.03839254

update_node_embedding_layer.0.message_layer.weight f4 [64, 128]
0	0x3ce1a8bb	0.027546277
1	0xbce751f2	-0.028237317
2	0x3d047cf8	0.032345742
3	0x3d8d2ce7	0.0689333
4	0x3d537b94	0.051631525
5	0x3cdc08b1	0.026859613
6	0xbb3ebbd1	-0.0029103647
7	0x3c68eeec	0.01421712
8	0x3c8300f5	0.015991667
9	0xbc345b62	-0.0110081155
10	0xbb4ad69d	-0.0030950673
11	0xbc1cca9c	-0.00956979
12	0x3c75c98e	0.015001668
13	0x3d5c78bb	0.053826075
14	0xbb86a526	-0.0041090427
15	0xbc934725	-0.01797826
16	0xba45d858	-0.00075471913
17	0x3d1623d5	0.036655266
18	0x3dc4cae0	0.09609008
19	0x3c06e362	0.008232923
20	0x3d359f41	0.04434133
21	0x3d37992d	0.044823814
22	0xbc92639d	-0.017869765
23	0x3bae1ec5	0.0053137266
24	0x3d24d5d9	0.040243004
25	0xbc083553	-0.008313495
26	0xb943206b	-0.00018608726
27	0x3cedd423	0.029031819
28	0x3c111014	0.008853931
29	0xbcd597f0	-0.026073426
30	0xbc3e3e19	-0.011611485
31	0x3a86a7b5	0.0010273369
32	0xbce0aecb	-0.027427098
33	0x3c9aa9a6	0.018879723
34	0x3d8079aa	0.062732056
35	0x3d1a1039	0.037613127
36	0x3cc5cd93	0.024145877
37	0xbb146337	-0.0022642144
38	0xbcdf2633	-0.027239894
39	0x3d4db78f	0.050223883
40	0x3d113bff	0.035457607
41	0x3da635b4	0.08115712
42	0xbd151e90	-0.0364061
43	0xbb376a41	-0.0027986916
44	0x3c9846ab	0.018588385
45	0xbc9ce8b5	-0.019153932
46	0x3d643e26	0.055723332
47	0x3ad03918	0.0015886156
48	0x3ca812ea	0.020516831
49	0x3d883a90	0.06651795
50	0xbc07dce1	-0.008292408
51	0xbb91f58a	-0.0044543194
52	0xbbedee25	-0.007261055
53	0xbc9b79d3	-0.018978989
54	0xbbffae81	-0.007802785
55	0xbc8358a1	-0.016033472
56	0x3d743fb7	0.059631076
57	0x3b915597	0.004435252
58	0x3d21bc1e	0.039486043
59	0x3d33ce7b	0.043898087
60	0xbb35cfc1	-0.002774224
61	0x3cc1c54c	0.023653649
62	0xbcd9b23e	-0.02657425
63	0xbc8a2b5b	-0.016866377
64	0x3c8263cc	0.015916727
65	0xbc1b62e3	-0.009484026
66	0xbd0ac062	-0.033874877
67	0x3c3a4787	0.0113695925
68	0x3ca8897a	0.020573366
69	0x3b3a2b39	0.002840711
70	0x3b47e5ee	0.003050204
71	0xbc0838ab	-0.008314292
72	0x3c176610	0.009240642
73	0x3a7de2f7	0.00096850045
74	0xbb008077	-0.001960782
75	0x3ccbf409	0.024896638
76	0x3ba40d3b	0.00500646
77	0xbb713c97	-0.0036809796
78	0x3c823308	0.015893474
79	0xbc8b17ff	-0.016979216
80	0x3c790580	0.015199065
81	0x3b81e6a0	0.00396426
82	0x3b314e69	0.0027054793
83	0x3cd8ca3b	0.026463619
84	0x3b398ffc	0.002831458
85	0x3bf89edd	0.0075872974
86	0xbc3d857e	-0.011567472
87	0xbb0200c2	-0.0019836877
88	0xbca00f17	-0.019538445
89	0x3ce6e11a	0.028183509
90	0xbcaffceb	-0.021482905
91	0x3c463630	0.01209788
92	0x3cb39bc7	0.021924866
93	0x3cbc2b15	0.022969762
94	0x3c3d22f2	0.011543976
95	0x3a3d6fbd	0.0007226428
96	0x3c3eaca0	0.011637837
97	0xbcd4978e	-0.025951173
98	0x3d059991	0.032617155
99	0xb9b5c864	-0.00034672313
100	0xba556d62	-0.00081416045
101	0x3bd8c026	0.0066147028
102	0x3c18235e	0.009285776
103	0x3c9aa01a	0.01887517
104	0xbc3349c6	-0.010942882
105	0xbaaf3d47	-0.0013369703
106	0x3ccba417	0.024858518
107	0xbb85e36d	-0.004085949
108	0x3b9eedcc	0.004850125
109	0x3b870cae	0.0041213846
110	0x3c880391	0.016603263
111	0x3d11e5c1	0.0356195
112	0x3c1bd5c0	0.009511411
113	0x3d1505e5	0.036382575
114	0x3b949061	0.004533813
115	0xbb141e2d	-0.0022600994
116	0x3c69fee1	0.014281959
117	0x3bd564fb	0.006512282
118	0x3b8fccaf	0.004388414
119	0x3b5afb90	0.0033414103
120	0xba15c6ac	-0.00057135033
121	0xbbbc1217	-0.005739461
122	0xbca70aa8	-0.020390823
123	0xbcc6f73e	-0.024287816
124	0xbbbcb965	-0.0057594054
125	0x3c6c7915	0.014433165
126	0x3caae666	0.020861816
127	0x3c06b277	0.00822126
128	0xbba80d40	-0.0051285326
129	0xbbcff294	-0.0063460562
130	0xbb92a0cb	-0.0044747344
131	0xba859bda	-0.0010193542
132	0xbbea9554	-0.0071589146
133	0x3c1d3f1e	0.009597568
134	0xbb5dcf0f	-0.003384534
135	0xbc56da98	-0.01311364
136	0xbc91ec89	-0.017812984
137	0xbc7f7b20	-0.01559332
138	0xbc0ae36b	-0.008477072
139	0x3c84eae5	0.016225288
140	0xbc8772f2	-0.016534302
141	0xbc11f769	-0.008909085
142	0x3baf8bb8	0.005357232
143	0xbc75fbc5	-0.01501364
144	0xbb307277	-0.0026923695
145	0xbc1bdf02	-0.009513618
146	0x3bedaf5b	0.00725357
147	0x3c7d304e	0.015453411
148	0xbd09571b	-0.033530336
149	0x3c3535a5	0.011060153
150	0xbc9fe72d	-0.019519413
151	0x3c49fba9	0.012328067
152	0xbb5e6a99	-0.003393805
153	0x3a11f020	0.00055670924
154	0x3c1cd21f	0.009571581
155	0xbb80168a	-0.003908937
156	0xba98f9a6	-0.0011671081
157	0xbc4ed634	-0.012624312
158	0xbb855684	-0.0040691514
159	0x3c89a666	0.016802978
160	0x3bb31a7d	0.005465804
161	0x3c1d38a5	0.009596025
162	0x3c04a13e	0.008095084
163	0xbbf80807	-0.0075693163
164	0xbbd38ae0	-0.006455764
165	0xbc263974	-0.010145534
166	0xbc4a8a30	-0.012362048
167	0xbb82ed23	-0.003995554
168	0xbb2e8e14	-0.0026634978
169	0xbc28ebbd	-0.010310111
170	0xba6e0461	-0.0009079632
171	0x3b9545cd	0.00455544
172	0xba3a9018	-0.00071168086
173	0x3c18a5a6	0.009316837
174	0x3c3606c1	0.011110009
175	0x3bc88646	0.0061195223
176	0x3baf01f4	0.005340809
177	0x3bbb4f7c	0.0057162624
178	0xbbedfd8e	-0.007262892
179	0xbc84a4f9	-0.016191946
180	0x3b6a10cc	0.0035715578
181	0x3b64833d	0.0034868263
182	0xbc31a2ea	-0.010842064
183	0xbbb2cb2a	-0.005456348
184	0x3ca8d3c5	0.020608792
185	0x3b2848d3	0.0025678172
186	0x3a66144e	0.00087768293
187	0xbb01a0c4	-0.0019779662
188	0x3acb3fd2	0.0015506691
189	0x395743be	0.00020529234
190	0xbbec5f81	-0.0072135334
191	0xbb125977	-0.0022331157
192	0xbb80f43b	-0.0039353645
193	0xbbd6f639	-0.0065601137
194	0x3bfe2158	0.0077554397
195	0x3bc502f9	0.0060123173
196	0xbb8990c2	-0.0041981647
197	0x3b2ace80	0.0026063025
198	0xbb1bfb88	-0.0023801047
199	0xbc81c9ee	-0.015843358
200	0xbae8f8d8	-0.0017774357
201	0xbba04d3c	-0.0048920196
202	0xbc9daa30	-0.01924619
203	0xbb29b698	-0.0025896188
204	0x3c9e7e20	0.01934725
205	0x3c0d4732	0.008622931
206	0xbc6af2f5	-0.014340152
207	0x3b8bef4b	0.0042704693
208	0xbccfd8b3	-0.025371885
209	0xbb2b4005	-0.0026130688
210	0xbcb84819	-0.022495316
211	0x3bd4e0be	0.006496518
212	0x3bc8b08b	0.006124561
213	0x3c8ab88d	0.016933704
214	0xbb18e036	-0.0023327
215	0x3c6b2e10	0.014354244
216	0x3b13e633	0.002256763
217	0xbc72b557	-0.014813743
218	0xbc08efb2	-0.008357929
219	0xbc72382b	-0.014783899
220	0x3c76b5a6	0.015057957
221	0xbb7b3373	-0.0038330227
222	0x3bdb5789	0.0066937846
223	0xbc6bffa7	-0.014404214
224	0xbafd5970	-0.0019329023
225	0x3bd92aeb	0.0066274307
226	0x3b47046d	0.0030367628
227	0xbb8b5674	-0.0042522494
228	0xbbb669a2	-0.0055667916
229	0xbc169cc7	-0.009192652
230	0xbc30e6af	-0.010797187
231	0xbca4fa10	-0.02013877
232	0xb9c7804b	-0.00038051824
233	0x3bbcb33e	0.005758672
234	0x3c5adede	0.0133588
235	0xbcf780ea	-0.030212838
236	0xbc21ff21	-0.009887488
237	0xbcb5fa0f	-0.022213964
238	0x3b899e1e	0.0041997572
239	0x3b2038c6	0.0024447902
240	0x3abc4d4b	0.0014366297
241	0xbc17d1d5	-0.009266336
242	0x3b6715fb	0.0035260904
243	0x3c61f165	0.013790463
244	0x3b31641c	0.0027067726
245	0x3c004e94	0.0078312345
246	0x3b4dd42c	0.0031406982
247	0xbbc158c4	-0.0059004743
248	0xbbb662ce	-0.0055659777
249	0xba4000b2	-0.00073243224
250	0xb9f5910b	-0.00046838107
251	0x3b98eeb7	0.004667129
252	0xbc7c24d0	-0.015389636
253	0xbad0d2ee	-0.0015932003
254	0xbbb47460	-0.005507037
255	0x3bcf1d39	0.0063206223

update_node_embedding_layer.0.update_layer.weight f4 [64, 128]
0	0xbbbbef77	-0.0057353335
1	0xb82f5ef0	-4.181167e-05
2	0xbbcf6bc8	-0.006329987
3	0xbbcbb2bd	-0.0062163756
4	0xbbd2e8ee	-0.006436459
5	0xbc250f2c	-0.010074418
6	0x3c311370	0.010807857
7	0x3c1a51de	0.009418933
8	0xba38598f	-0.0007032388
9	0xbb024e1a	-0.0019882978
10	0x3c3b18cb	0.011419485
11	0x3b8c1026	0.004274386
12	0xbc29693b	-0.01034003
13	0x3a779328	0.000944423
14	0xbc0793c7	-0.008274979
15	0x3cae127d	0.02124905
16	0xbbe9bd22	-0.007133142
17	0x3be0baf5	0.0068582245
18	0xbc41a2e4	-0.011818621
19	0x3b208329	0.002449224
20	0xbb89f170	-0.00420969
21	0xbc2c6d25	-0.010524069
22	0x3cc9d3ad	0.024637068
23	0xbc0f41af	-0.0087436875
24	0x3b26afc8	0.0025434364
25	0xbb2d61f0	-0.002645608
26	0x3b104e90	0.0022019483
27	0xbc27289b	-0.010202552
28	0xbb8d8f63	-0.0043200715
29	0x3adb2c22	0.0016721527
30	0x394acc32	0.0001934029
31	0x3c532526	0.012887275
32	0x3a75abed	0.0009371627
33	0xbc648063	-0.013946625
34	0x3c42ed56	0.011897406
35	0x3c06362d	0.008191627
36	0x3c05f1d0	0.008175328
37	0xbb82023f	-0.003967553
38	0xbc5ea164	-0.013588283
39	0xbbc0ce0b	-0.0058839372
40	0x3c3fd91d	0.011709479
41	0x3c563dd2	0.013076263
42	0xbbdaafed	-0.006673804
43	0x3ab74bb7	0.0013984357
44	0x3a68253d	0.00088556466
45	0xbb3b0dbb	-0.002854212
46	0xbb098bd9	-0.0020987897
47	0xb9987b95	-0.00029083775
48	0xba08d4a7	-0.0005219676
49	0xbba6148d	-0.005068368
50	0xbb5cb5f5	-0.003367779
51	0xbb472c97	-0.0030391568
52	0xbc12d45a	-0.008961761
53	0xbc2d0b3c	-0.0105617605
54	0xbc587ff0	-0.013214096
55	0x3b0e0cdf	0.0021675152
56	0xbb1eb5fe	-0.0024217363
57	0x3c2438a6	0.010023272
58	0xbba34546	-0.0049826233
59	0x3c50fb8d	0.012755287
60	0x3b28c9eb	0.0025755118
61	0x3a0c908f	0.0005362117
62	0xbbf77bfc	-0.007552622
63	0xbbf8f0a5	-0.0075970464
64	0xbb83cb73	-0.004022056
65	0xbbceacbc	-0.0063072126
66	0x3aeda8ef	0.0018132011
67	0xbc3bd8eb	-0.0114652915
68	0x3c0365a2	0.008019837
69	0xbc159fe0	-0.009132355
70	0xbb85b4cf	-0.004080392
71	0x3b9a4cd4	0.0047088657
72	0xbc9f7aad	-0.019467676
73	0x3ac4a6c6	0.0015003316
74	0x3acd07da	0.0015642599
75	0x3bfacf32	0.007654094
76	0x3cbdcb1e	0.023168143
77	0x3a9824fd	0.0011607703
78	0x3c2d887c	0.010591622
79	0xbca093e4	-0.01960177
80	0xbbcb41ce	-0.006202913
81	0xbb963be4	-0.0045847762
82	0xbad2d8d5	-0.001608635
83	0x3c916f58	0.017753288
84	0x3b99f7bf	0.004698723
85	0xbc22e8c0	-0.009943187
86	0x3ba924c2	0.0051618526
87	0x3ba8d0aa	0.005151828
88	0xbbcb54b0	-0.006205164
89	0xb9a85e25	-0.000321136
90	0xbc82dcc0	-0.015974402
91	0x3c8a368d	0.016871715
92	0xbbda0f00	-0.00665462
93	0xbc01c074	-0.00791942
94	0xbaa92e80	-0.0012907535
95	0xbbe14665	-0.0068748468
96	0x3bee1142	0.007265241
97	0xbb788550	-0.0037921257
98	0x3bd2f3ad	0.00643774
99	0x3b44577a	0.0029959367
100	0x3a36d850	0.0006974982
101	0x3adb45d8	0.0016729189
102	0x3c8fb70a	0.017543335
103	0xbcc18a81	-0.023625614
104	0x3c2cc004	0.010543827
105	0xbba56755	-0.0050477185
106	0xba84ab2c	-0.0010121814
107	0xbc6ec64a	-0.014573643
108	0xbc67bfd9	-0.014144861
109	0xbb954931	-0.0045558442
110	0x3c0c9392	0.008580105
111	0x396352f7	0.00021679314
112	0x3b9ef2cc	0.004850721
113	0x3ada40b2	0.0016651361
114	0x3c370eef	0.011172994
115	0xbb8ce23f	-0.0042994316
116	0x3b3064e4	0.0026915604
117	0xbba3a764	-0.0049943198
118	0x3bb8d963	0.005641149
119	0xbc01cee8	-0.007922865
120	0x3b835c5b	0.0040088124
121	0xbc0fe221	-0.008781941
122	0x3c231b35	0.009955217
123	0xbb321a04	-0.002717615
124	0xbbb9ab61	-0.005666182
125	0xbc931ce3	-0.01795811
126	0x3c17147f	0.009221195
127	0x3bcfff6e	0.0063475883
128	0x3d13d323	0.036090028
129	0xbd28b435	-0.041187484
130	0x3d6600d9	0.056153152
131	0x3db179e7	0.08665829
132	0x3d8aea3d	0.06782959
133	0x3d2109d1	0.039316002
134	0xbd62a7d4	-0.055335835
135	0x3d1ba592	0.037999697
136	0x3c9ae1fe	0.01890659
137	0xbd91fd3d	-0.071283795
138	0xbcbde24b	-0.023179194
139	0xbb154e2b	-0.0022782187
140	0x3d50c43f	0.050968405
141	0x3d1072d3	0.035265755
142	0xb9eeb287	-0.0004552791
143	0xbc92a315	-0.01790003
144	0xbc6154ce	-0.013753129
145	0x3d4bcda0	0.049756646
146	0x3dae650e	0.085153684
147	0xbcb5f665	-0.022212217
148	0x3c824a1b	0.015904477
149	0x3d7feb4e	0.062480263
150	0x3c799c26	0.015234983
151	0xbccf7a2f	-0.025326816
152	0x3d7254b7	0.05916282
153	0x3abc0901	0.0014345945
154	0xbb8d76eb	-0.0043171546
155	0x3cf4791b	0.029842904
156	0xbb8ca832	-0.0042925114
157	0xbc179bd1	-0.009253458
158	0xbc472e65	-0.012157057
159	0xba8fba90	-0.0010965634
160	0xbd8afce1	-0.06786514
161	0x3d1ae51e	0.03781616
162	0x3d55b590	0.052175105
163	0x3c3eb615	0.011640091
164	0xbb83bf89	-0.0040206355
165	0x3c206532	0.009789752
166	0xbcddbbb0	-0.027067035
167	0x3d1a54f2	0.037678666
168	0x3d0df00a	0.034652747
169	0x3dde9f40	0.10870218
170	0xbd0298ea	-0.03188411
171	0xbc00e647	-0.007867402
172	0x3d48cc3f	0.04902291
173	0xbd10ca13	-0.035348963
174	0x3d3a55d1	0.045491997
175	0xbd652880	-0.055946827
176	0x3d42d7b6	0.047569
177	0x3dccff85	0.10009674
178	0xbd1d0a30	-0.038339794
179	0xbcdb4189	-0.026764648
180	0x3c982de7	0.018576575
181	0xbc1d933d	-0.009617624
182	0xbcf439c8	-0.029812708
183	0xbbb53507	-0.005530003
184	0x3dcb5a57	0.0992934
185	0x3c357ce8	0.011077143
186	0x3dd1fce2	0.10253312
187	0x3cec93d2	0.02887908
188	0xbb8c467a	-0.0042808624
189	0x3d538cf8	0.05164811
190	0xbce1166e	-0.027476516
191	0xbc8e7a3d	-0.017392272
192	0xbaff46ed	-0.0019476094
193	0x3a9c1eb2	0.0011911003
194	0x3cae97a2	0.021312539
195	0x3d081454	0.03322251
196	0xbc14f3e4	-0.009091351
197	0xbccf55a6	-0.025309395
198	0x3c76fc32	0.0150747765
199	0xbca1005d	-0.019653494
200	0x3ce7bb07	0.028287424
201	0xbc87cb17	-0.016576333
202	0x3c933a05	0.017972002
203	0xbcba7062	-0.022758666
204	0xbcc66cab	-0.024221739
205	0xbbbe7baa	-0.0058130817
206	0xbc0cd495	-0.008595605
207	0xbc809dfe	-0.015700337
208	0x3c25d16b	0.01012073
209	0x3c638198	0.013885878
210	0x3c3b80cd	0.011444283
211	0x3c2295e2	0.00992343
212	0xbcc234e6	-0.023706865
213	0xbc727085	-0.014797335
214	0xbb0a5e28	-0.002111325
215	0x3c0996ad	0.00839774
216	0x3a9a5222	0.0011773745
217	0xbc574fa3	-0.0131415455
218	0x3ca7da20	0.020489752
219	0x3c1bc229	0.009506741
220	0xbcca1bce	-0.024671461
221	0xbc48979d	-0.012243179
222	0x3b5c82d4	0.0033647316
223	0x3c70a09c	0.01468673
224	0xbb1018be	-0.0021987404
225	0x3c6f12ea	0.014591912
226	0xbb3878b6	-0.0028148121
227	0x3c1e28e1	0.009653301
228	0x3c73383f	0.014844953
229	0xbb52bffc	-0.0032157889
230	0x3bc35f29	0.0059622717
231	0xbb0e8b6f	-0.002175059
232	0x3c6f6715	0.014611979
233	0xbc8ffc05	-0.017576227
234	0xbc9261dd	-0.01786893
235	0xbbb4d40a	-0.005518441
236	0x3cd7434f	0.026277212
237	0x3d16108a	0.036636867
238	0x3c03d06c	0.008045297
239	0x3acfbb35	0.0015848639
240	0x3b99ccf2	0.004693621
241	0xbc19775c	-0.009366836
242	0x3a87daa7	0.0010364846
243	0x3bb591de	0.0055410704
244	0x3c0d9c3b	0.008643205
245	0xbc7282cc	-0.014801692
246	0x3be72ee0	0.0070551485
247	0xbb6a8058	-0.0035782065
248	0xbd01ddf4	-0.03170581
249	0xbcb23ab1	-0.021756502
250	0xbc454aa9	-0.012041726
251	0xbc565fd4	-0.013084371
252	0x3c596b19	0.013270163
253	0x3d15c5da	0.03656564
254	0x3c5b3b31	0.013380812
255	0x3cf9fc63	0.030515855

update_node_embedding_layer.1.message_layer.weight f4 [64, 128]
0	0x3c8924f6	0.016741257
1	0x3d8cd033	0.06875648
2	0x3d52badf	0.051447745
3	0xbc134188	-0.008987792
4	0x3c55b757	0.0130442
5	0xbb4b5308	-0.0031024832
6	0x3c0f9c7c	0.008765336
7	0x3c56105a	0.013065422
8	0xbc9bb58a	-0.019007463
9	0x3b046d1a	0.002020663
10	0xbc3dac75	-0.0115767615
11	0x3d57c9c1	0.052682642
12	0xbc83bd31	-0.016081424
13	0x3c8e2fa0	0.017356694
14	0x3cc905d1	0.024538906
15	0x3c35940c	0.01108266
16	0x3c6391a0	0.0138897
17	0xbbba59c3	-0.00568697
18	0xbbae063c	-0.005310802
19	0x3d71660d	0.058935214
20	0xbb8855e5	-0.00416063
21	0x3cafd1bf	0.02146232
22	0x3c6856cf	0.014180853
23	0x3d05ba4f	0.03264838
24	0x3c2d9455	0.010594447
25	0xbc21bc8f	-0.009871616
26	0x3c80d7de	0.015727933
27	0xbbc420a5	-0.005985337
28	0x3c98e1c5	0.018662343
29	0x3b656fb2	0.0035009203
30	0xbc46342f	-0.0120974025
31	0xbc2f4ab5	-0.010698964
32	0xbc36a28b	-0.011147152
33	0x3c81354c	0.015772484
34	0x3d4c7a4b	0.049921315
35	0x3d4b8c9e	0.04969465
36	0xbb89ebca	-0.0042090164
37	0xbc401478	-0.01172363
38	0xba9c8c14	-0.0011943602
39	0x3d1e0bb3	0.038585376
40	0x3d25f522	0.04051698
41	0x3d7f228c	0.062288806
42	0x3bbd55aa	0.005778034
43	0x3d47aa2b	0.04874627
44	0x3a180b12	0.00057999894
45	0x3ac76d30	0.0015215036
46	0xbbfa99bb	-0.0076477206
47	0xbbebd54c	-0.007197058
48	0x3d411231	0.04713649
49	0x3d8d2cbb	0.06893297
50	0xbbe86baf	-0.007092915
51	0x3be813ac	0.007082423
52	0x3c753e9a	0.014968539
53	0xbb1c1644	-0.0023816982
54	0x3d4cf39b	0.050037008
55	0x3ba5878a	0.005051558
56	0x3d4b3f55	0.049620945
57	0x3da180d7	0.078859024
58	0x3bb58732	0.005539798
59	0xb8e74810	-0.00011028361
60	0xbc14c684	-0.009080533
61	0xbb67617c	-0.0035305908
62	0x3cc1f301	0.023675444
63	0xbb7db0b3	-0.0038710057
64	0x3cfa4e45	0.0305549
65	0xbc73cd51	-0.014880494
66	0x3c02dabb	0.00798672
67	0x3cfd5607	0.03092481
68	0x3cfcc695	0.03085641
69	0xbb1b9140	-0.0023737699
70	0xbce2d02e	-0.027687158
71	0x3c8a3e74	0.016875483
72	0x3ce19a4a	0.027539391
73	0xbc19ade1	-0.009379835
74	0x3cce61cd	0.02519312
75	0x3cce3347	0.025170935
76	0x3b8efa20	0.0043633133
77	0xbbd8915b	-0.0066091246
78	0x3cd092f7	0.025460703
79	0xbc3b1f87	-0.011421091
80	0x3ca4af62	0.02010316
81	0x3c90abad	0.017659986
82	0x3a9857de	0.0011622866
83	0xbc762310	-0.015023008
84	0x3b6be609	0.0035995266
85	0x3bfc0e55	0.007692138
86	0x3c3df767	0.01159463
87	0xbb080934	-0.0020757439
88	0xbcd7d78c	-0.026347898
89	0x3cc3d9b0	0.023907512
90	0xbc91b2e9	-0.017785506
91	0x3cacf51d	0.021112973
92	0x3c278001	0.01022339
93	0x3ce39731	0.027782055
94	0x3c7c6f19	0.015407347
95	0xbc9988c1	-0.018741967
96	0xbb9caf4b	-0.0047816387
97	0xbc2e69d4	-0.010645349
98	0x3d0abd5f	0.033872005
99	0x3a83abf4	0.0010045753
100	0xbc05559f	-0.008138089
101	0xba900fbd	-0.0010991018
102	0x3cfd1be5	0.03089709
103	0x3c170c56	0.00921925
104	0x3bf7d653	0.0075633912
105	0x3be682ef	0.0070346515
106	0x3bfd5ff4	0.007732386
107	0x3c3e1c49	0.011603423
108	0xba86f6f5	-0.0010296988
109	0x3ce68c86	0.028143179
110	0x3c625fe4	0.013816807
111	0x3b909449	0.004412208
112	0x3d143c6f	0.036190446
113	0x3d207b81	0.039180283
114	0x3be6b01f	0.0070400382
115	0xbc89aaa2	-0.016804997
116	0x3c11642d	0.008873981
117	0x3b7da9a9	0.0038705862
118	0xbbad19ff	-0.00528264
119	0x3af3f54a	0.001861253
120	0xbc29fedd	-0.010375706
121	0x3bc76650	0.0060851946
122	0xbc96596b	-0.018353185
123	0xbc0854a2	-0.008320959
124	0x3d48635d	0.048922885
125	0x3c55298d	0.013010395
126	0x3ceba6e2	0.0287661
127	0x3cad3b28	0.021146372
128	0x3c0c272b	0.00855426
129	0xbc6536a2	-0.013990076
130	0xbc499737	-0.012304119
131	0x3c926e67	0.01787491
132	0xbbf06ae3	-0.0073369606
133	0xbc185009	-0.009296426
134	0xbc8539b0	-0.01626286
135	0xb90b1437	-0.00013263604
136	0xbcb8ee51	-0.022574576
137	0x3c3ff540	0.011716187
138	0x3b9834ca	0.004644965
139	0xbc862652	-0.016375694
140	0x3a79866b	0.0009518626
141	0xbb8709f8	-0.0041210614
142	0xbb1f04be	-0.0024264301
143	0xbc945d5a	-0.01811092
144	0xbcbec92c	-0.023289286
145	0x3bced995	0.006312559
146	0xbc65f3d1	-0.014035181
147	0xbc7a8480	-0.0152903795
148	0x3a8a0c7d	0.0010532286
149	0xbc907ad8	-0.017636701
150	0x3a926faf	0.00111722
151	0xbcbcae58	-0.023032352
152	0x3baf2233	0.005344653
153	0x3c19a26a	0.009377101
154	0xbc6aa95a	-0.014322603
155	0x393ad33a	0.0001781703
156	0xbc124a41	-0.008928836
157	0xbc304557	-0.010758719
158	0xbc19c490	-0.009385243
159	0xbb27da9d	-0.0025612481
160	0xb93d342a	-0.00018043877
161	0xbb85eaf4	-0.0040868465
162	0xbc180d72	-0.009280549
163	0xbc47bc63	-0.012190911
164	0xbc4d099b	-0.012514497
165	0x3c25482b	0.010088007
166	0xbb5d8de9	-0.003380651
167	0xbc5503ac	-0.013001364
168	0xbcb352f1	-0.021890135
169	0x3bb92f48	0.0056513883
170	0xbc1bf36e	-0.009518487
171	0xbc02b76e	-0.007978303
172	0x3c8dee6e	0.017325606
173	0xbc539b24	-0.012915406
174	0xbc327447	-0.0108919805
175	0xbb1faf90	-0.0024366118
176	0xbd0e4203	-0.034730922
177	0xbb038427	-0.0020067783
178	0xbc5520e7	-0.013008333
179	0x3b4bd719	0.003110355
180	0xbbf11fcc	-0.007358527
181	0xbb82dc1a	-0.0039935233
182	0xbc6ff97d	-0.014646885
183	0x3c0b482b	0.008501093
184	0xbcb02038	-0.021499738
185	0x3c0cb3a1	0.008587749
186	0xbc50966d	-0.012731177
187	0xbbe63840	-0.0070257485
188	0x3bb43841	0.00549987
189	0x3bb84060	0.0056229085
190	0xbb5c1105	-0.003357948
191	0xbcd555ef	-0.026041953
192	0xbc4c8f3c	-0.012485322
193	0x3c65ab0a	0.01401783
194	0x3c3292f3	0.010899293
195	0xbc1673e7	-0.009182907
196	0xbca0de7f	-0.019637344
197	0x3b7a79c9	0.0038219562
198	0xbc1136d0	-0.008863166
199	0x3c3b59cf	0.011434986
200	0xbbf8933a	-0.00758591
201	0xbc29b08e	-0.010357035
202	0xbc1380fa	-0.009002918
203	0xbc8268a8	-0.015919045
204	0xbb2f17c6	-0.002671705
205	0x3c799c0b	0.015234957
206	0xbb803818	-0.003912937
207	0x3b52c7aa	0.0032162466
208	0x391dc3a0	0.00015045563
209	0xb99de336	-0.0003011466
210	0xbcdede21	-0.027205529
211	0x3c5806a7	0.01318518
212	0xbb6aec0e	-0.0035846266
213	0x3c024e14	0.007953186
214	0x3becaa85	0.007222476
215	0xbc6b4513	-0.01435973
216	0x3c42f704	0.011899713
217	0xbbceb531	-0.006308221
218	0xbc2c0305	-0.010498767
219	0x3bb55302	0.005533577
220	0xbb13e722	-0.0022568186
221	0xbb6fb810	-0.0036578216
222	0x3ac9c515	0.0015393818
223	0x3acb35d8	0.0015503718
224	0x3c921914	0.017834224
225	0xbb606e8b	-0.0034245576
226	0x3b8104e5	0.003937351
227	0x3bcb2d77	0.006200488
228	0xbc6043b0	-0.013688013
229	0xbc1b646b	-0.009484391
230	0xbd05f3a4	-0.032703057
231	0xbcb0ebb2	-0.021596763
232	0xbadc29e3	-0.0016797151
233	0xbc22c94d	-0.009935689
234	0xb8e01652	-0.0001068531
235	0x3c61fa93	0.013792652
236	0x3c6bd4cb	0.0143939955
237	0xbcaa5445	-0.020792136
238	0xbba9d269	-0.0051825535
239	0xbc55845c	-0.013032045
240	0xbb21a07b	-0.0024662304
241	0xbc8dd8b4	-0.017315246
242	0x3bb7439f	0.005592778
243	0xbc668613	-0.014070052
244	0xbb926c0b	-0.004468446
245	0xbc282c41	-0.010264457
246	0xbcb3acfe	-0.021933075
247	0xba87fda9	-0.0010375279
248	0x3c598aca	0.013277719
249	0xbb63246a	-0.0034659156
250	0x3a9a9c7b	0.0011795902
251	0xbc6b7cd9	-0.014373028
252	0xbc81ea2c	-0.015858732
253	0x3a6b77b3	0.0008982375
254	0xbc7ee022	-0.015556367
255	0xbafcb967	-0.0019281328

update_node_embedding_layer.1.update_layer.weight f4 [64, 128]
0	0xbb3a8537	-0.002846075
1	0x3d31c86d	0.04340403
2	0x3d9fc735	0.078016676
3	0xbbbf7de2	-0.005843864
4	0xbc829dd3	-0.015944397
5	0x3c954231	0.01822004
6	0xbc0a017e	-0.008423207
7	0x3c80715b	0.015679052
8	0x3c1d693c	0.009607609
9	0xbcc39787	-0.023875965
10	0xbc135cf9	-0.008994334
11	0x3d55cf7a	0.05219982
12	0xba202fa3	-0.0006110614
13	0x3c9449ca	0.018101592
14	0x3d10e7b3	0.035377216
15	0x3c0e027e	0.008667586
16	0x3ccbe63f	0.024890063
17	0xbc85f449	-0.016351836
18	0x3b130658	0.00224342
19	0x3d0c39cb	0.034234803
20	0xbc93458b	-0.017977497
21	0x3cf5d2d0	0.03000775
22	0x3d17e5b0	0.03708428
23	0x3d0c96c7	0.03432348
24	0xbc24cd8d	-0.010058773
25	0xba2b2eb6	-0.0006530093
26	0x3d211087	0.039322402
27	0xbc2bd86c	-0.010488611
28	0xbb2de6e0	-0.0026535317
29	0xbbeb316a	-0.0071775215
30	0x3a0b70bb	0.00053192273
31	0xbcd9bb53	-0.026578581
32	0x3abfdd6e	0.0014638135
33	0xbc078c3c	-0.008273181
34	0x3d05c4c0	0.03265834
35	0x3db8f214	0.09030548
36	0xbb9bfa03	-0.0047600283
37	0xbc88e1b5	-0.016709188
38	0x39a5c58d	0.0003161844
39	0x3d31b504	0.04338552
40	0x3d08876d	0.033332277
41	0x3d177813	0.036979746
42	0x3ac58b42	0.0015071409
43	0x3d0e6409	0.03476337
44	0xbc526d75	-0.012843479
45	0xb792067c	-1.7407576e-05
46	0x3b8ec16c	0.004356554
47	0xbc2267e7	-0.009912468
48	0x3d182142	0.037141092
49	0x3d2822d1	0.04104883
50	0xbc595ede	-0.013267247
51	0xbb655e38	-0.0034998786
52	0x3b5c0c15	0.0033576537
53	0xbae09afe	-0.0017136035
54	0x3d7aabe2	0.061199076
55	0xbc2a89a9	-0.010408797
56	0x3ce14bc6	0.027501952
57	0x3d3f2c32	0.046673007
58	0x3c566c35	0.013087322
59	0xbc99af0e	-0.01876023
60	0x3b122b53	0.0022303655
61	0xbc250e6a	-0.010074237
62	0xbbe352e6	-0.0069373725
63	0x3bc4e474	0.006008679
64	0x3deb9363	0.11502721
65	0xbb89c624	-0.0042045284
66	0x3bf944f8	0.0076070987
67	0x3dc64594	0.0968124
68	0xbb931f00	-0.0044897795
69	0x3ac1a8aa	0.0014774997
70	0x3dcc4668	0.099743664
71	0x3cb0b19e	0.02156907
72	0x3dfde3e2	0.12396981
73	0xbb84dbf3	-0.0040545403
74	0x3ab02b3e	0.0013440622
75	0x3c5ba742	0.013406577
76	0x3c9f475b	0.019443205
77	0xbc3751bc	-0.011188921
78	0xbc0dc53c	-0.008652981
79	0x3b9a8099	0.004715037
80	0x3dfa96a6	0.12235765
81	0xbad1d95a	-0.001601021
82	0x3df24391	0.118292935
83	0x3dd11f7f	0.102110855
84	0x3af4d843	0.0018680174
85	0x3d997a37	0.07494014
86	0xbbcd8696	-0.0062721474
87	0x3d600a73	0.054697465
88	0xbc200d95	-0.009768863
89	0x3d980621	0.07423044
90	0x3d9424b3	0.07233562
91	0xbab7a6a0	-0.001401145
92	0xbc2c2069	-0.010505774
93	0xbc92fea8	-0.017943695
94	0x3dc95340	0.09830332
95	0x3c305a81	0.010763765
96	0x3c062437	0.008187345
97	0x3d8d9359	0.0691287
98	0xbb6af9b0	-0.0035854392
99	0xbc35a52a	-0.011086741
100	0x3dc4cb6e	0.09609114
101	0xbbdad8f4	-0.006678695
102	0xbb20390c	-0.0024448065
103	0x3ddbb1ab	0.10727247
104	0x3acc8995	0.0015604967
105	0x3dceb4c1	0.1009307
106	0x3b80466f	0.0039146463
107	0x3e007599	0.1254486
108	0xbda78f36	-0.08181612
109	0x3dac6d7b	0.08419319
110	0xbc03da25	-0.008047615
111	0x3d51ae18	0.05119142
112	0x3b3097e6	0.0026946007
113	0x3b6bddd2	0.003599037
114	0xbdb56599	-0.08857269
115	0x3ca43b83	0.020047909
116	0xbc6e1b63	-0.014532897
117	0xba71753f	-0.00092108914
118	0xbb961cd4	-0.0045810733
119	0x3c13ac2b	0.009013216
120	0xba9f89dc	-0.0012171823
121	0x3d92083c	0.07130477
122	0xbc94780b	-0.018123647
123	0xbb8528e3	-0.004063712
124	0xbd960981	-0.073260315
125	0x3e010666	0.12600097
126	0x3b22f6c0	0.0024866313
127	0x3c446988	0.011988051
128	0xbb3a6001	-0.002843857
129	0x3d7a14ce	0.061054997
130	0x3d118ed1	0.03553659
131	0xbd1d3982	-0.03838492
132	0x3b03f7e0	0.0020136759
133	0xbc29ae88	-0.010356553
134	0x3c4aaba9	0.0123700285
135	0x3c5229b6	0.0128273275
136	0xbd13ec0e	-0.03611379
137	0xbd1402f1	-0.036135618
138	0xbd11588d	-0.03548484
139	0x3d5105f4	0.051031068
140	0xba638370	-0.00086789485
141	0x3d2990ce	0.041397862
142	0x3d0bb46b	0.034107607
143	0xbcf77698	-0.030207917
144	0xbb36cb00	-0.0027891994
145	0xbcac8c6f	-0.021063058
146	0x3c4f0eed	0.012637836
147	0x3d84e6cb	0.06489333
148	0xbcf87368	-0.030328467
149	0x3d4ef917	0.05053052
150	0x3d771c2f	0.060329612
151	0x3d87e42b	0.066353165
152	0xbcc35da1	-0.023848357
153	0xbc4d0b8b	-0.012514959
154	0x3d45b118	0.048264593
155	0xbd2707ad	-0.040778805
156	0xbcb229f4	-0.02174852
157	0xbcaa4276	-0.020783644
158	0xbb316e19	-0.002707368
159	0xba37f91f	-0.0007018018
160	0xbd57ac3f	-0.0526545
161	0xbc343617	-0.010999224
162	0x3d7917f0	0.060813844
163	0x3cfbe08c	0.03074672
164	0x3a2038e7	0.0006111995
165	0xbc87521a	-0.016518641
166	0x3c7e30bb	0.015514548
167	0x3d7795fa	0.060445763
168	0x3d933cce	0.07189332
169	0x3d76665c	0.06015621
170	0xba73f235	-0.0009305806
171	0x3d39d72f	0.04537123
172	0xbd24dd9b	-0.040250402
173	0x3c3a96a3	0.011388454
174	0xbb2c9c16	-0.0026338152
175	0x3b8ff18b	0.004392808
176	0x3d584c15	0.052806932
177	0x3d7b504b	0.06135587
178	0xbcf7857c	-0.030215017
179	0xbb995c01	-0.004680157
180	0xbc897fb0	-0.016784519
181	0x3c7e415a	0.015518511
182	0x3d96202c	0.07330355
183	0x3c550e5e	0.013003914
184	0x3d3f2b1d	0.046671975
185	0x3d50b944	0.050957933
186	0xbca0c429	-0.019624786
187	0x3bb9d7f4	0.0056714956
188	0xbd2d5cc7	-0.042324807
189	0xbcdc7355	-0.026910463
190	0xbcacb059	-0.021080183
191	0xbc4f2dbe	-0.012645183
192	0x3bd30aa9	0.00644048
193	0x3af492d2	0.0018659479
194	0xbc3106c1	-0.010804833
195	0x3d39332a	0.04521481
196	0xbc67385c	-0.014112558
197	0x3bc994a2	0.0061517516
198	0x3d06d805	0.032920856
199	0x3c5c768f	0.013456001
200	0x3c34383e	0.010999737
201	0x3c087595	0.008328815
202	0xbb4992e4	-0.003075772
203	0xbc261801	-0.010137559
204	0x38a72a03	7.971006e-05
205	0x3c234a2d	0.009966415
206	0x3ae489a6	0.0017436042
207	0x3c360389	0.011109241
208	0x3ce2e613	0.027697599
209	0xba4ac4c5	-0.00077350094
210	0x3d142974	0.036172345
211	0x3ce97441	0.028497817
212	0x3c4a1acd	0.012335491
213	0x3d5308bb	0.051521998
214	0xbc30e6e5	-0.010797237
215	0x3d01ff7a	0.031737782
216	0x3ca0d0d4	0.019630827
217	0x3c859cc5	0.016310105
218	0x3bccd934	0.0062514786
219	0xbbe45789	-0.006968443
220	0xbc80f306	-0.015740883
221	0xbba93901	-0.005164266
222	0x3cf5594a	0.029949803
223	0xbae950a1	-0.0017800519
224	0x3b634b03	0.0034682162
225	0x3c9effcf	0.019409088
226	0xbcaed8e9	-0.021343665
227	0x3bfaa62b	0.0076492033
228	0x3d1a78e4	0.037712947
229	0x3ba623b5	0.0050701746
230	0xbbbd2453	-0.0057721524
231	0x3c20cf4f	0.009815051
232	0x3b968467	0.0045934203
233	0x3ce8545f	0.028360544
234	0x3c304129	0.010757723
235	0x3d275f1b	0.040862184
236	0x3c682c45	0.014170711
237	0x3cb18d10	0.02167371
238	0x3a0de7a7	0.0005413242
239	0x3d08a4da	0.03336034
240	0xbc0fb8e9	-0.008772113
241	0xbc2cb3b9	-0.010540896
242	0xbbedffc5	-0.007263156
243	0x3c6c448e	0.014420642
244	0xbcac055e	-0.020998653
245	0xbc5426d0	-0.012948707
246	0xbc67c467	-0.014145947
247	0x3c0a8747	0.008455104
248	0xbc961d10	-0.018324405
249	0x3ca9fbee	0.020750012
250	0xba716ce2	-0.0009209645
251	0x3beb4570	0.0071799085
252	0xba8df29b	-0.0010829748
253	0x3cb75167	0.022377683
254	0xbc265240	-0.010151446
255	0x39c65c25	0.00037834156
