ER_200spin/eco/network/network8000000.pth (torch, 238273 bytes, 11 tensors)

node_init_embedding_layer.0.weight f4 [64, 7]
0	0x3cf42673	0.02980349
1	0xbe885e44	-0.2663442
2	0xbe8ce2fd	-0.27516928
3	0xbcbbfadb	-0.022946766
4	0xbb386915	-0.0028138806
5	0xbc47926c	-0.012180906
6	0x3d88dda6	0.06682901
7	0x3c39c778	0.011339061
8	0xbe4f3e21	-0.20238544
9	0xbcc59bd4	-0.024122156
10	0x3dcf2b91	0.101157315
11	0xbdaf563e	-0.08561371
12	0x3dcaaccf	0.09896242
13	0x3d130350	0.03589183
14	0x3ca66e5f	0.0203163
15	0x3ed9644f	0.42459342
16	0xbc9569fc	-0.018239014
17	0xbd1c514f	-0.03816348
18	0xb98d6398	-0.0002696782
19	0xbc7959c9	-0.01521916
20	0x3d02625c	0.031832084
21	0xbd03f33a	-0.03221438
22	0x3ed9f810	0.4257207
23	0x3cdd0143	0.02697814
24	0x3b6df2db	0.0036308083
25	0x3abb7787	0.001430259
26	0x3c978016	0.018493693
27	0x3d0f0c7b	0.03492401
28	0xbbc981b0	-0.006149493
29	0xbb7f7c43	-0.0038983978
30	0xbc218543	-0.009858432
31	0xbc35e581	-0.011102081
32	0xbc314120	-0.01081875
33	0xbb77b1a6	-0.0037795096
34	0xbc79626c	-0.0152212195
35	0xbc35ae95	-0.011088987
36	0xbb5aad71	-0.003336754
37	0xbb09d2e0	-0.0021030232
38	0xbb2f15e3	-0.0026715926
39	0xbc590bb4	-0.013247419
40	0xbc86b436	-0.016443353
41	0xbbb2f8e5	-0.0054617994
42	0x3d0793f4	0.033100083
43	0x3f01f9e8	0.5077195
44	0xbadb507c	-0.001673236
45	0xbdec2de6	-0.11532192
46	0x39ecdb67	0.00045176895
47	0xbd264f26	-0.040602826
48	0x3c5b685a	0.013391579
49	0x3c9fd184	0.019509085
50	0xbe5d8b42	-0.21635154
51	0xbf22f5e1	-0.6365643
52	0x3e85f0bc	0.26160228
53	0x3b03126d	0.0019999996
54	0x3dce4de8	0.10073453
55	0x3d1d2be9	0.038371954
56	0x3d26d4de	0.04073035
57	0xbeb0f5fe	-0.34562677
58	0x3daaaaa1	0.08333326
59	0x3e44d2dd	0.19221063
60	0xb972b934	-0.00023147912
61	0x3d4658f9	0.048424695
62	0x3d5bdc98	0.05367717
63	0x3d30d36c	0.043170378
64	0x3ef6922e	0.481584
65	0x3ca05035	0.019569496
66	0x3d328446	0.043583177
67	0xb927dc01	-0.00016008319
68	0xbb00763c	-0.0019601723
69	0xbccd3242	-0.025048379
70	0xbccec620	-0.025240958
71	0x3ec58b08	0.38582635
72	0x3d9c984e	0.07646237
73	0x3db62220	0.088932276
74	0xbada6191	-0.0016661157
75	0x3cd9976e	0.026561465
76	0x3a55930f	0.00081472186
77	0xba8dde33	-0.0010823667
78	0x3eb68b6e	0.3565325
79	0xbe20082e	-0.1562812
80	0x3d5a5155	0.05330022
81	0x3a9ba168	0.0011873664
82	0x3b40a5fa	0.0029395805
83	0xbe824aa8	-0.25447583
84	0x3d2bf532	0.041981883
85	0x3f03f745	0.5154918
86	0xbbaa105b	-0.005189938
87	0xbd986a2a	-0.07442124
88	0x3999fab4	0.00029369222
89	0x3cb4b48d	0.02205875
90	0x3c8876c2	0.01665819
91	0x3d007801	0.031364445
92	0xbeb18f62	-0.34679705
93	0xbcd9d7e9	-0.026592212
94	0x3daad417	0.08341234
95	0xb940af50	-0.00018375856
96	0xbcb450d1	-0.022011193
97	0x3d008a8b	0.031382125
98	0x3d1b4533	0.03790779
99	0xbea0176f	-0.31267878
100	0xbc8c0aa0	-0.01709491
101	0x3dfe0c11	0.12404645
102	0x38ee5cd6	0.000113660164
103	0xbaa4b7fe	-0.0012567041
104	0x3d496261	0.049166087
105	0x3d08f77a	0.033439137
106	0x3d46d45d	0.04854237
107	0xbe2151c6	-0.1575385
108	0x3dd65aa1	0.10466505
109	0x3b061a83	0.002046258
110	0x3ce83f73	0.028350567
111	0xbe5ac689	-0.21364798
112	0x3d153121	0.036423806
113	0xbe54f16e	-0.20795223
114	0xbdc407a3	-0.09571769
115	0x3e01616a	0.12634817
116	0xbcbbe98a	-0.022938509
117	0x3da66bd5	0.08126036
118	0x3bd377f6	0.0064535094
119	0xbd64128b	-0.055681746
120	0x3ec7a5d3	0.389937
121	0x3d3166a9	0.043310795
122	0x3b0bbdd9	0.0021322875
123	0x38b62b50	8.686504e-05
124	0x3d55f9a3	0.052240025
125	0x3d198e55	0.037489254
126	0x3d4d3b6a	0.05010549
127	0xbee28a69	-0.44246224
128	0xbbc6c7e7	-0.0060663107
129	0x3e075374	0.13215429
130	0x3c13fe05	0.009032731
131	0x3beffd41	0.0073238914
132	0x3d893cba	0.06701036
133	0xbd5c9b67	-0.05385914
134	0x3ec1baf8	0.37837958
135	0x3d8f5535	0.06998674
136	0x3d86dd73	0.06585207
137	0xbbb32130	-0.0054666027
138	0x3caffba4	0.021482296
139	0x3cc983b5	0.024598936
140	0x3d1ef74f	0.03881007
141	0x3f019c14	0.5062878
142	0x3ce02246	0.027360093
143	0x3b020231	0.0019837732
144	0xb951ba7c	-0.00020001264
145	0x3bd01225	0.0063498192
146	0xbc4c07e0	-0.012453049
147	0x3d418d75	0.047254045
148	0xbed82039	-0.42212084
149	0x3cd0238d	0.025407577
150	0x3e15a087	0.14612018
151	0x3b4d3f80	0.0031318367
152	0x3c923d99	0.017851638
153	0x3d6a9d88	0.05727914
154	0x3cb53843	0.022121554
155	0xbe462439	-0.19349755
156	0x3dba1a58	0.09087056
157	0x3d44e61b	0.04807101
158	0xbd31ea1f	-0.043436166
159	0x3dc959f9	0.09831614
160	0xbd15710a	-0.036484756
161	0xbabc3cb6	-0.0014361355
162	0xbe56796e	-0.20944759
163	0x3e4b5bfa	0.19859305
164	0x3d657735	0.056021888
165	0xb923d637	-0.00015624693
166	0x3d11c56f	0.035588678
167	0x3db68235	0.08911554
168	0x3ce577fe	0.028011318
169	0xbe83226e	-0.25612205
170	0x3d99bacd	0.075063325
171	0x3ee04e6e	0.43809837
172	0x3b078989	0.0020681343
173	0x3ddb7e77	0.10717481
174	0x394d32ec	0.00019569293
175	0xbd708c00	-0.058727264
176	0x3ec3ed81	0.3826714
177	0x3c610dd1	0.013736204
178	0x3c7566f6	0.014978161
179	0x389d1148	7.489562e-05
180	0x3d356019	0.0442811
181	0xbd9b4c2b	-0.07582887
182	0x3d4c25e6	0.04984083
183	0x3f05a3aa	0.52202857
184	0x3ccefda7	0.025267435
185	0x3d195c18	0.037441343
186	0xbb7516e1	-0.003739767
187	0x3cf4f8cf	0.029903797
188	0xbafbfedf	-0.0019225738
189	0xbb020dd5	-0.001984467
190	0x3b4a300a	0.0030851387
191	0x3a8fa26c	0.001095844
192	0xbc1a8f5b	-0.009433593
193	0xbbb782cb	-0.0056003085
194	0xbb8eda4b	-0.0043595186
195	0xbc28bf61	-0.010299535
196	0x3d17acd5	0.03703006
197	0x3ee552b0	0.44789648
198	0x3cb361aa	0.021897156
199	0xba8c83d2	-0.0010720438
200	0xba657e6a	-0.0008754494
201	0x3b874e36	0.0041291965
202	0xbcf5f7c0	-0.030025363
203	0x3d387729	0.045035515
204	0xbedc851e	-0.4307031
205	0x3b11c17a	0.0022240565
206	0x3e02b6c8	0.12765038
207	0x3b97646c	0.0046201255
208	0x3d2c7d5e	0.042111747
209	0x3d04b005	0.032394428
210	0x3c8eed7f	0.017447231
211	0xbe532a8c	-0.20621699
212	0xbcc1a111	-0.023636373
213	0xbe480c5b	-0.19535963
214	0xbb913e42	-0.0044324705
215	0x3dfd6e31	0.12374533
216	0xbcb94f71	-0.022620888
217	0xbd3ecc1d	-0.046581376
218	0xbe8f9030	-0.28039694
219	0x3cbfc522	0.02340943
220	0x3e0c5427	0.13703977
221	0xbc5a4bcb	-0.0133237345
222	0x3b9aa60b	0.004719501
223	0x3d0badc0	0.034101248
224	0xbb2121a7	-0.0024586709
225	0x3c2c720c	0.010525238
226	0xbb7deb41	-0.0038744959
227	0xbc919d5c	-0.01777523
228	0xbb82edb8	-0.0039956234
229	0xbc045167	-0.008076048
230	0xbae84fa8	-0.0017723935
231	0x3cabc487	0.020967735
232	0x3e15a946	0.14615354
233	0xbeb403f0	-0.35159254
234	0x3b7850d8	0.0037889984
235	0x3b550d0c	0.0032508997
236	0x3c6a7cf2	0.014312016
237	0xbec91730	-0.39275503
238	0x3cc21a9c	0.023694329
239	0x3ee5d735	0.44890752
240	0x3a0bed68	0.00053378055
241	0xbc6dda0d	-0.014517319
242	0x3a1222e4	0.0005574657
243	0x3d15e391	0.036593977
244	0x3c4cf16e	0.012508733
245	0xbb445647	-0.0029958652
246	0x3b926890	0.004468031
247	0xbc35c51a	-0.011094356
248	0xbc3e6e0f	-0.01162292
249	0xbc364a1e	-0.011126069
250	0xbbcee017	-0.0063133347
251	0xbad7b7f7	-0.0016458024
252	0x3c47a5db	0.012185539
253	0xbe3b589e	-0.18295524
254	0xbe64f2eb	-0.22358291
255	0x3d8e7ad6	0.06957023

edge_embedding_layer.edge_embedding_NN.weight f4 [63, 8]
0	0x3cdea769	0.027179437
1	0x3ce3368b	0.027735969
2	0x3ea51087	0.32239172
3	0xbd7b958b	-0.061421912
4	0xbd105a0f	-0.035242137
5	0xbd9d002b	-0.07666048
6	0xbc26e844	-0.010187212
7	0xbd94f480	-0.07273197
8	0xbc2291da	-0.009922469
9	0xbc308984	-0.010774974
10	0xbb8d67a7	-0.004315335
11	0xbb161a0b	-0.0022903706
12	0x3c12afd5	0.008953054
13	0xbcb5f926	-0.02221353
14	0xbc79e019	-0.015251183
15	0x3c0472b8	0.008083992
16	0x3ce7755e	0.028254207
17	0x3caff584	0.021479376
18	0x3e9923be	0.29910082
19	0xbd6bc448	-0.057560235
20	0xbc8188f8	-0.015812382
21	0xbca3e453	-0.020006334
22	0xbb9d2016	-0.0047950847
23	0xbca5fc68	-0.020261958
24	0x3d585752	0.05281765
25	0x3d34a069	0.04409829
26	0x3e9b5898	0.3034103
27	0xbe30a22a	-0.1724936
28	0xbd4a4b67	-0.049388316
29	0x38258be1	3.9469338e-05
30	0x3d2f61fb	0.04281805
31	0xbd5d88c4	-0.054085508
32	0xbc765733	-0.015035438
33	0xbbdcdea1	-0.0067404066
34	0x3c7c1de9	0.0153879905
35	0xbc711abd	-0.014715848
36	0xbc20fc8f	-0.00982584
37	0xbac778db	-0.0015218513
38	0xbab5c1b9	-0.0013866938
39	0xbb08a058	-0.0020847525
40	0xbc2a87bb	-0.010408337
41	0xba1a6be9	-0.00058907137
42	0x3b21fb4a	0.002471643
43	0xbb89685c	-0.004193349
44	0x3b376976	0.0027986444
45	0xbc5eb404	-0.013592724
46	0x3c3dafbd	0.011577544
47	0x3b304c3d	0.002690091
48	0xbc8acee4	-0.016944356
49	0xbd2ccd51	-0.042187992
50	0xbe385a5b	-0.18003218
51	0x3e02a611	0.12758662
52	0x3d49375a	0.049125053
53	0xbc92e06e	-0.017929282
54	0xbdd26b97	-0.102744274
55	0x3d66090f	0.056160983
56	0xbbb5de3d	-0.0055501745
57	0x3b3a99b2	0.0028472957
58	0xbe6ea176	-0.2330378
59	0x3e3432b6	0.1759747
60	0x3dd89e1e	0.105770335
61	0x3c6eba07	0.01457072
62	0x38a2a99d	7.756355e-05
63	0x3e005602	0.1253281
64	0x39ea7930	0.0004472225
65	0xbe293444	-0.16523844
66	0xbe659bbe	-0.22422692
67	0x3de98052	0.11401428
68	0x3dd0eee5	0.102018155
69	0xb93d53b5	-0.00018055628
70	0x3bc78d59	0.006089848
71	0x3da5e11f	0.08099579
72	0xbb23c51f	-0.002498932
73	0xbd926c74	-0.07149592
74	0xbe562d35	-0.20915683
75	0x3e097ec0	0.13427258
76	0x3d3612db	0.044451576
77	0x3c98fc05	0.01867486
78	0xbd4daacc	-0.050211713
79	0x3dda58ed	0.106614925
80	0xbcafb3c3	-0.021448022
81	0x3b100b0a	0.0021979236
82	0xbe571e69	-0.21007694
83	0x3e188f8c	0.14898509
84	0x3dcfb706	0.10142331
85	0x3c051cd6	0.008124551
86	0x3c0b81a7	0.008514798
87	0x3dcfe490	0.10151017
88	0xba078721	-0.0005169977
89	0xba95eb46	-0.0011437915
90	0xbacf199f	-0.0015800482
91	0xbc3ed8e9	-0.011648395
92	0xbc0960e9	-0.008384922
93	0xbc9bb220	-0.019005835
94	0xbcadfc9e	-0.021238621
95	0xbb4d5313	-0.0031330034
96	0xbc40debb	-0.011771853
97	0xbbd385ff	-0.0064551826
98	0xbc999342	-0.018746976
99	0x3c0c41de	0.008560626
100	0xbb3b6b8e	-0.0028598043
101	0xbc5799c0	-0.013159215
102	0x3ac1615c	0.0014753747
103	0xbb5d917b	-0.0033808637
104	0x3d6061ef	0.054780897
105	0x3cb0d8f2	0.021587823
106	0x3e92ef39	0.28698137
107	0xbe0a0a07	-0.13480388
108	0xbcb30e3a	-0.02185737
109	0xbb70bdc7	-0.003673421
110	0x3d320dfd	0.04347037
111	0xbe08c94d	-0.1335804
112	0xbcb487ef	-0.022037474
113	0xbd03301f	-0.032028314
114	0xbe4614bd	-0.19343849
115	0x3dfa1a52	0.122120515
116	0x3da569dd	0.080768324
117	0x3c8560a1	0.016281428
118	0xbea174d8	-0.31534457
119	0x3db6bf97	0.089232616
120	0x3d88e4e8	0.066842854
121	0x3d4ac679	0.049505685
122	0x3e960b2d	0.293054
123	0xbe326f4b	-0.17425267
124	0xbda3f3e0	-0.080055
125	0x3b99df6e	0.0046958243
126	0x3d4da2eb	0.0502042
127	0xbda2c764	-0.07948187
128	0xbc6e8873	-0.014558899
129	0xbc99a800	-0.018756866
130	0xbe4f81f8	-0.20264423
131	0x3e1bcf13	0.15215711
132	0x3de197d9	0.11015291
133	0xb9c6a1a9	-0.0003788595
134	0x3cf1d86a	0.02952214
135	0x3da0b0a6	0.07846193
136	0x3d3013a4	0.04298748
137	0x3c4a2cd4	0.012339789
138	0x3e9e726c	0.30946672
139	0xbdc07b34	-0.09398499
140	0x3d2c4083	0.04205371
141	0xbc23ed83	-0.010005358
142	0x3cad10e8	0.021126226
143	0xbd98e407	-0.07465368
144	0x3d5cbaa5	0.053888936
145	0x3b46086b	0.003021742
146	0x3e93ba7d	0.28853217
147	0xbe00e547	-0.12587462
148	0x3bb4de22	0.0055196444
149	0x3b59afc2	0.0033216332
150	0x3cf9626d	0.03044244
151	0xbe0bb4d6	-0.13643202
152	0xbc951f28	-0.018203333
153	0xbd29e3e0	-0.041477084
154	0xbe2d38e7	-0.16916238
155	0x3e01043a	0.12599269
156	0x3e15ee27	0.14641629
157	0xbb710b68	-0.003678048
158	0xbd0e5e1d	-0.034757722
159	0x3d991457	0.07474583
160	0xbabd41d8	-0.0014439179
161	0xbc205429	-0.00978569
162	0x3b1d0c6d	0.0023963705
163	0x3aa9ed3d	0.0012964379
164	0xbaa46acd	-0.0012544036
165	0xb9275185	-0.0001595673
166	0xbbe7546f	-0.007059626
167	0xbc163b4d	-0.009169412
168	0xbc18d6ed	-0.009328586
169	0xbc846c80	-0.016165018
170	0xbe51465f	-0.20437
171	0x3e0c6e07	0.13713847
172	0x3e05d081	0.13067819
173	0xbb949948	-0.004534874
174	0x3c89220a	0.016739864
175	0x3dab36e2	0.083600774
176	0x3d53d340	0.051715136
177	0x3d51d8ba	0.051232077
178	0x3e9c08da	0.30475503
179	0xbe472b99	-0.19450225
180	0xbd0f760e	-0.035024695
181	0xba5b6317	-0.00083689525
182	0x3d3c1946	0.04592254
183	0xbd09ac96	-0.033611856
184	0xbac274e0	-0.0014835857
185	0xba8e844b	-0.0010873167
186	0x39d1eda0	0.0004004063
187	0x3b001626	0.0019544451
188	0xbc923157	-0.017845793
189	0xbbb0dbb9	-0.0053972867
190	0xbb3423de	-0.0027487199
191	0xbb7c7255	-0.0038520296
192	0x3d908360	0.07056308
193	0x3d19277f	0.037391182
194	0x3e9911e9	0.29896477
195	0xbe548afd	-0.20756145
196	0xbdc83600	-0.09775925
197	0x3c05459e	0.008134274
198	0x3cfcab57	0.03084342
199	0xbd93d2e2	-0.07217957
200	0x3d0f8e29	0.035047684
201	0x3b0b2956	0.0021234355
202	0x3ead4dbf	0.33848378
203	0xbe92da63	-0.2868224
204	0xbc910f97	-0.01770763
205	0x3c6d6785	0.014490013
206	0x3ca69feb	0.020339927
207	0xbe92ef2d	-0.28698102
208	0xbcf5c99a	-0.030003358
209	0xbca80f7e	-0.0205152
210	0xbe38f10e	-0.18060705
211	0x3e105ac8	0.1409713
212	0x3d8b0ddf	0.06789755
213	0x3bc34735	0.0059594163
214	0xbec52dc0	-0.38511467
215	0x3db14860	0.086563826
216	0x3d70b088	0.058762103
217	0x3ca2349a	0.019800473
218	0x3e933823	0.28753766
219	0xbe229ec0	-0.15880871
220	0x3d3acb3f	0.045603987
221	0xbbd99926	-0.006640571
222	0x3d08b135	0.033372123
223	0xbda8d940	-0.08244562
224	0xbc72cea2	-0.014819773
225	0xbc72e95d	-0.014826146
226	0xbc8821f8	-0.01661776
227	0xbc7a36e5	-0.015271877
228	0xbbf97fbc	-0.007614104
229	0xbc45d3ce	-0.012074424
230	0xbc541806	-0.012945181
231	0xbc2c6b4a	-0.010523627
232	0xbc7f3957	-0.015577636
233	0xbd4aa2a6	-0.04947152
234	0xbe34686f	-0.17617963
235	0x3e1f6eb2	0.1556957
236	0x3def33ff	0.11679839
237	0x3bc651f5	0.0060522505
238	0xbe2063ec	-0.15663117
239	0x3db699b4	0.08916035
240	0x3d405957	0.0469602
241	0x3d4f3f5c	0.050597534
242	0x3e9683e0	0.29397488
243	0xbe4b670f	-0.19863532
244	0xbd4681b3	-0.048463535
245	0xba98709c	-0.001163024
246	0x3d440bfe	0.047863
247	0xbca17cef	-0.019712893
248	0x3cd4140b	0.025888463
249	0xbcca2683	-0.024676567
250	0x3ec19d78	0.37815452
251	0xbe93327f	-0.28749463
252	0xbd391fbc	-0.04519628
253	0xbbb692d9	-0.005571705
254	0x3c3542ff	0.011063336
255	0xbe9f1fd0	-0.3107896

edge_embedding_layer.edge_feature_NN.weight f4 [64, 64]
0	0x3d48b243	0.04899813
1	0x3bdaa9ff	0.006673097
2	0x3d263a2f	0.040582832
3	0x3d7fa8c0	0.062416792
4	0x3c229df9	0.009925359
5	0x3c06994c	0.00821526
6	0xbceb41ee	-0.028717961
7	0xbd809a5d	-0.062794425
8	0xbd1ea470	-0.03873104
9	0xbd0bbc16	-0.03411492
10	0xbd2ec69c	-0.042669877
11	0x3aa17491	0.0012318065
12	0xbbb9a833	-0.005665803
13	0x3d9d883f	0.076920025
14	0xbd36b599	-0.04460678
15	0x3d85350b	0.06504258
16	0xbd20d552	-0.039265938
17	0x3d04f187	0.0324569
18	0x3d20964a	0.039205827
19	0xbb5ff58f	-0.0034173464
20	0x38e5ccfb	0.000109577515
21	0xbd184bb9	-0.03718159
22	0x3d3cc8e4	0.04609002
23	0x3b299970	0.002587881
24	0x3d464972	0.048409887
25	0x3e0cacd0	0.13737798
26	0xbdb262d9	-0.0871026
27	0x3d4bd5f9	0.049764607
28	0xbb0ea57f	-0.0021766124
29	0xbd778a61	-0.060434703
30	0x3d45a04d	0.048248578
31	0x3e063be2	0.13108781
32	0xbd589537	-0.052876677
33	0xbd250715	-0.040289957
34	0x3da87ab0	0.08226526
35	0xbbe95f17	-0.0071219313
36	0x3d42c26e	0.047548704
37	0xbd1d78fc	-0.038445458
38	0xbd56535f	-0.052325603
39	0x3d811307	0.06302457
40	0xbd1aed3a	-0.037823893
41	0x3d66eca8	0.056378037
42	0x3cb0ceb1	0.021582933
43	0x3d983ca2	0.0743344
44	0x3b5e7067	0.0033941509
45	0xbcad8cbb	-0.02118527
46	0xbcead41a	-0.028665591
47	0xbb132378	-0.002245156
48	0x3b0960f6	0.0020962334
49	0xbd487407	-0.048938777
50	0x3c8e4d97	0.017370982
51	0xbc29b62f	-0.010358377
52	0x3cedea42	0.029042367
53	0x3c54a5f9	0.012979024
54	0xbd216eb8	-0.03941223
55	0x3d000392	0.031253405
56	0x3d9c1055	0.076203026
57	0x3dff3e49	0.12463052
58	0x3c182ddc	0.0092882775
59	0x3c9b18cd	0.018932724
60	0x3d44085f	0.047859546
61	0x3db305b8	0.08741325
62	0x3d2b3a9c	0.04180394
63	0x3d5deb5c	0.054179534
64	0xbc303ff4	-0.010757435
65	0xbc05461d	-0.008134392
66	0x3acbe4e5	0.0015555887
67	0x3c06c416	0.0082254615
68	0x3afbc13b	0.0019207367
69	0x3b0dc229	0.002163062
70	0x3bf8190b	0.0075713447
71	0x3c0fc407	0.008774764
72	0xbbf16fc0	-0.007368058
73	0xbc05bb90	-0.008162394
74	0xbc43b55a	-0.011945093
75	0x3a0b30f0	0.00053097215
76	0x3c61c0a9	0.013778844
77	0x3bcc8d7b	0.0062424517
78	0x3b309bde	0.0026948373
79	0xbc6ff1ae	-0.014645023
80	0x38ce2614	9.829938e-05
81	0x3bfcbd0f	0.007712967
82	0x3c04536f	0.008076533
83	0xbb091872	-0.0020919112
84	0xbc1671cf	-0.0091824075
85	0xbc1403b8	-0.00903409
86	0xbb964366	-0.0045856712
87	0xbcca8800	-0.024723053
88	0x3bc8d0ac	0.0061283913
89	0x3c2f1bb4	0.010687757
90	0xbc026435	-0.0079584615
91	0xbb3c7db2	-0.0028761444
92	0x3c4cccdb	0.012500013
93	0xbcac9ed0	-0.021071821
94	0x3ba3b3e2	0.004995809
95	0x3b97d3f0	0.004633419
96	0xb86cf069	-5.6490684e-05
97	0xbc7fc71e	-0.015611438
98	0xbc2defb4	-0.010616232
99	0xbb45fb0a	-0.0030209445
100	0xbcbaf724	-0.022822924
101	0x3b9752c7	0.004618022
102	0xbbac1fcd	-0.0052528144
103	0x3c1577d6	0.009122809
104	0x3a1af863	0.00059116463
105	0x3c5081b3	0.012726235
106	0x3b92ae4a	0.0044763433
107	0x3b841c8f	0.0040317248
108	0xbb22c8db	-0.0024838957
109	0xbc4a5853	-0.01235016
110	0xba183dd0	-0.00058075506
111	0x3c88aab7	0.016682966
112	0x3c5be4bb	0.013421233
113	0x3a4147f3	0.0007373087
114	0x3bb4e0f0	0.0055199787
115	0x3b6370ea	0.0034704753
116	0xbcc0dd45	-0.02354301
117	0xbc486df4	-0.012233246
118	0x3b85bdde	0.004081472
119	0xbc9396b4	-0.018016197
120	0xbc0d2da8	-0.008616842
121	0xbbdc8050	-0.006729163
122	0xbbaee179	-0.005336937
123	0x3a03acbd	0.00050229934
124	0x3b6e4b69	0.0036360866
125	0xbb84c5f2	-0.004051917
126	0x3c138cce	0.009005738
127	0xbcf299d2	-0.029614363
128	0x3c91650d	0.01774838
129	0xbbd022fb	-0.0063518262
130	0x3c915dc8	0.017744914
131	0x3ca6026c	0.020264827
132	0xbc3e3d2e	-0.011611266
133	0xbb84ebc2	-0.004056425
134	0x3c6467c5	0.013940756
135	0x3c792123	0.015205654
136	0x3d53fb44	0.051753297
137	0x3b9356cb	0.0044964305
138	0x3c3026b1	0.010751412
139	0x3b10207a	0.0021992014
140	0xbafb3ae3	-0.001916733
141	0xbb3a8086	-0.0028457954
142	0xbab89ef1	-0.0014085454
143	0xbb8fe4ae	-0.0043912744
144	0xb94f53cd	-0.00019772277
145	0xbcaf5ad6	-0.021405619
146	0xbcaa8af3	-0.02081821
147	0x3c07a859	0.008279883
148	0xbcc653fd	-0.02420997
149	0x3c8e2cf5	0.017355422
150	0x3bf1daad	0.0073808045
151	0x3b86e627	0.0041167918
152	0xbc65a4ae	-0.0140163135
153	0xbdb0d521	-0.08634401
154	0x3b948332	0.0045322413
155	0xbd52800c	-0.051391646
156	0xbbf69535	-0.007525111
157	0x3c0e099d	0.008669284
158	0x3b99e2df	0.0046962346
159	0xbe0f53cf	-0.13996814
160	0x3ccf4a99	0.025304126
161	0x3cd7ef07	0.026359094
162	0x3bd5f7df	0.0065297927
163	0x3d2ff77a	0.04296062
164	0x3c7d317c	0.0154536925
165	0x3c9c9983	0.019116169
166	0x3c8accea	0.016943414
167	0x3cabfc16	0.020994227
168	0x3d24a747	0.04019859
169	0xbd70f727	-0.058829453
170	0x3a988c2d	0.0011638455
171	0x3be149eb	0.006875267
172	0xbb48607b	-0.0030575085
173	0x3d4409b6	0.047860824
174	0x3d70fbe9	0.05883399
175	0x3c384fd8	0.011249505
176	0xbc58d26b	-0.013233761
177	0x3ce07c9b	0.027403167
178	0xb90d89bd	-0.0001349812
179	0x3c36160b	0.011113654
180	0x3ccb7c0e	0.024839427
181	0x3acd6703	0.0015670959
182	0x3cfcae5f	0.030844865
183	0xbd2fde1c	-0.04293643
184	0xbd0a3ad8	-0.033747524
185	0xbd5cb6c8	-0.05388525
186	0x3b9e3c1b	0.0048289425
187	0x3c1a18e2	0.009405347
188	0x3c769ecd	0.0150525095
189	0x3b1d5a3c	0.0024010083
190	0x3cbd6ca1	0.023123087
191	0xbbc9e351	-0.0061611314
192	0xbc64669c	-0.01394048
193	0xbbe11e57	-0.006870072
194	0xbc1844c6	-0.009293741
195	0x3c0bc6d4	0.008531291
196	0x3b5b1fe5	0.0033435759
197	0xbc06ab8d	-0.008219612
198	0xbc22d12a	-0.009937564
199	0x35f1eb25	1.8024335e-06
200	0x3bd59b52	0.0065187598
201	0xbacde4c1	-0.0015708433
202	0x3c0ae14f	0.008476569
203	0xbbf11adc	-0.007357938
204	0xbb971dd7	-0.0046117115
205	0x3b13a07e	0.002252608
206	0xbc10207d	-0.008796808
207	0xbb18d0e3	-0.0023317866
208	0xbc8ee465	-0.017442891
209	0x3bc7cc73	0.0060973703
210	0xbc816c24	-0.015798636
211	0xbba69a27	-0.0050842944
212	0x3b87c0a2	0.0041428367
213	0xbb974283	-0.004616083
214	0xb88678ba	-6.412105e-05
215	0xbb1cd23a	-0.0023929016
216	0x3b24f554	0.002517064
217	0xbc288a92	-0.010286944
218	0xbb48f6d8	-0.0030664708
219	0x3c013fed	0.007888776
220	0x3c3181f8	0.01083421
221	0xba960320	-0.0011445023
222	0xbb307756	-0.0026926599
223	0xba8412e0	-0.0010076426
224	0xbc858e08	-0.016303077
225	0x3bea81c1	0.007156581
226	0x3a88d0fb	0.0010438258
227	0x39478a4a	0.00019029636
228	0x3a6bbbd8	0.00089925295
229	0xbbb77335	-0.0055984505
230	0xbbb8831d	-0.0056308643
231	0x390ac7cf	0.0001323514
232	0xbbb30f06	-0.0054644374
233	0xbb89bf46	-0.00420371
234	0x390305e2	0.00012495325
235	0xb95c5f24	-0.00021016278
236	0x3c8fa7c0	0.017536044
237	0x3c8b199f	0.01697999
238	0xbc5d5942	-0.01351005
239	0x3bbb3935	0.0057136067
240	0xba249bc1	-0.00062793127
241	0xb9a491a7	-0.00031389037
242	0x3b473395	0.0030395736
243	0xbc5a2fdb	-0.013317074
244	0xba1649a6	-0.00057330204
245	0x3bb355bd	0.0054728673
246	0xbacdc1cb	-0.0015698014
247	0xbbfbfa05	-0.0076897168
248	0x3c57cca2	0.013171347
249	0xbc5dbc3b	-0.013533647
250	0xb9bc8578	-0.00035957596
251	0xba22f04f	-0.00062156183
252	0xbb065416	-0.0020496896
253	0xbc0deb9f	-0.0086621335
254	0x3bd47b37	0.006484415
255	0xbb9e6e9d	-0.0048349635

update_node_embedding_layer.0.message_layer.weight f4 [64, 128]
0	0xbc9c22c1	-0.01905954
1	0x3ae57d81	0.0017508717
2	0xbc67072d	-0.014100832
3	0xbb8a4754	-0.0042199288
4	0xbc92801a	-0.01788335
5	0x3c3a54a3	0.011372718
6	0x3bfd2931	0.0077258577
7	0x3b6a8d6e	0.0035789865
8	0xbc0ad4cf	-0.008473589
9	0xbc9c8d65	-0.01911039
10	0x3bd03c38	0.006354835
11	0xbcaa1045	-0.020759711
12	0xbc88d541	-0.01670325
13	0xbc5f2453	-0.0136195
14	0x3b215f90	0.002462361
15	0xba78c1cb	-0.00094893266
16	0xbc86d11f	-0.016457139
17	0xbb73953f	-0.0037167815
18	0xbb63882b	-0.0034718614
19	0x3ba99200	0.0051748753
20	0xbc40843b	-0.011750276
21	0xbccf5698	-0.025309846
22	0xbc3ec934	-0.01164465
23	0xbc3f5a57	-0.011679254
24	0x3c8ceebc	0.017203681
25	0x3c1858b3	0.009298491
26	0xbbdf6335	-0.0068172463
27	0xbb855148	-0.0040685274
28	0xbbc5af98	-0.0060328953
29	0xbc9afbe1	-0.018918933
30	0xbc0d20ff	-0.008613824
31	0x3c3d8da5	0.011569415
32	0xbaf72e49	-0.0018858399
33	0x3c07ff23	0.008300575
34	0x3b7578e3	0.0037456087
35	0xbba1efb0	-0.004941903
36	0xbbd959ec	-0.006633034
37	0xbb9c9303	-0.0047782674
38	0xbc9c59e0	-0.019085824
39	0xbc4e8239	-0.01260429
40	0xbbb2d960	-0.005458042
41	0x3b9f3470	0.004858546
42	0xbca0574c	-0.019572876
43	0xbc7b94b4	-0.015355278
44	0x3b732be2	0.0037105014
45	0x3c1dfd00	0.009642839
46	0xbc429fce	-0.011878921
47	0xb714f500	-8.878531e-06
48	0xbc234eeb	-0.009967546
49	0x3c1b6386	0.009484177
50	0xbb94e507	-0.0045439037
51	0xbbb05c0e	-0.0053820675
52	0xb948c84c	-0.00019148103
53	0x3b81be1a	0.0039594295
54	0xbcb4fc29	-0.022092896
55	0x3c2d8026	0.010589635
56	0xbbede422	-0.0072598616
57	0xbc2384cf	-0.0099803945
58	0xbc4b9017	-0.01242449
59	0xbbad9127	-0.0052968445
60	0xba5305d9	-0.00080498826
61	0x3c975d96	0.018477242
62	0x3c023bdf	0.007948845
63	0xbb1bffe5	-0.0023803648
64	0xbbce0970	-0.006287746
65	0xbb1f3f76	-0.00242993
66	0x3c2bc9a9	0.010485091
67	0xbc4a63bd	-0.012352881
68	0xba8a72ca	-0.0010562774
69	0xba2d4be5	-0.00066107354
70	0xbc697fcb	-0.01425166
71	0x3b94909b	0.00453384
72	0xbc11708e	-0.008876933
73	0xbb00e923	-0.001967021
74	0xbc0f88f2	-0.008760678
75	0x3c60e5df	0.013726681
76	0xbbd9b47f	-0.0066438313
77	0x3b8eb015	0.0043544867
78	0x3ae442e3	0.0017414953
79	0x3ca7206d	0.020401204
80	0xbb8d519f	-0.0043127085
81	0x3a04d92d	0.0005067762
82	0xbaa54a8c	-0.0012610718
83	0xbbac23d7	-0.005253296
84	0xbbd8ceb0	-0.006616436
85	0x3a544b39	0.0008098367
86	0xbc0b59b4	-0.008505274
87	0x3c6209b5	0.01379626
88	0x3b3ee9b5	0.0029131
89	0x3a97ac0d	0.0011571661
90	0x3a7abd20	0.0009564925
91	0x3c5eb829	0.013593712
92	0xbc83cc1a	-0.016088534
93	0xbc6453a1	-0.013935954
94	0xbbbe14a8	-0.0058008023
95	0x3ca5b5f8	0.020228371
96	0x3c38cd99	0.011279487
97	0xbc97e2b4	-0.018540718
98	0x3c629dca	0.013831565
99	0xbaacfb45	-0.0013197443
100	0x387dc87b	6.0506612e-05
101	0xbb0b3c1e	-0.002124555
102	0xbc177049	-0.009243079
103	0x3cc843ae	0.024446335
104	0x3b1c2ff5	0.0023832296
105	0xbb3391ec	-0.0027400209
106	0x3b7436c0	0.003726408
107	0x3b975742	0.0046185562
108	0xbc413f67	-0.011794901
109	0xbcc29778	-0.023753867
110	0x3becdd1b	0.0072285063
111	0xbbbac510	-0.005699761
112	0xbc21deea	-0.009879807
113	0x3c729569	0.01480613
114	0xbbdc6f53	-0.006727138
115	0x3c08b937	0.00834494
116	0x3aed3f71	0.0018100572
117	0x3ae5bb54	0.0017527142
118	0x3bdd1c90	0.0067477897
119	0xbc39376b	-0.011304717
120	0x3b93a6bb	0.00450596
121	0x3c065456	0.008198818
122	0xbc000146	-0.007812804
123	0xbc5c405c	-0.013443079
124	0xbb38e372	-0.002821174
125	0x3ad2f1cf	0.0016093793
126	0x3b82fe9a	0.003997636
127	0xbb6c5618	-0.0036062058
128	0x3af4a28c	0.0018664165
129	0xbcd6c84b	-0.026218554
130	0x3d5d6319	0.054049585
131	0x3c3f4696	0.011674544
132	0xbb9aafee	-0.0047206795
133	0x3c7700d2	0.015075879
134	0x3da42bed	0.08016191
135	0x3c0cd8e2	0.008596631
136	0x3a7aec2f	0.0009571937
137	0x3dac667e	0.08417986
138	0x3cd7cb86	0.026342165
139	0x3a3cfaa6	0.00072089804
140	0x3d8f6654	0.070019394
141	0xbc27a191	-0.0102313915
142	0xbbc5e830	-0.006039642
143	0x3c51744d	0.012784076
144	0xbd91dc6b	-0.071221195
145	0xbd0d54c7	-0.034504678
146	0xbb6f702f	-0.0036535372
147	0x3d0a3267	0.033739474
148	0x3db18a08	0.086689055
149	0x3b09b9d0	0.0021015294
150	0x3d5aa83e	0.053383105
151	0x3beeed6f	0.007291488
152	0xbb90585e	-0.0044050654
153	0xbc518cde	-0.012789933
154	0x3da540a1	0.080689676
155	0x3c365618	0.011128925
156	0x3d9510dd	0.07278607
157	0xbd00c1f3	-0.031434964
158	0xbe0305d6	-0.12795195
159	0x3d057191	0.03257901
160	0xba71bcbd	-0.00092215446
161	0xbb83b90f	-0.0040198634
162	0x3d815e0a	0.06316765
163	0x3b5a4b35	0.0033308987
164	0xbc5d96f4	-0.01352476
165	0xbbdcb700	-0.0067356825
166	0xbd261f9f	-0.0405575
167	0x3c75d34c	0.01500399
168	0x3972360c	0.00023099052
169	0x3b7ad1a6	0.0038271933
170	0x3cf0c197	0.029389186
171	0xbd84640e	-0.064643964
172	0x3c56c0b5	0.013107468
173	0xbae71472	-0.0017629995
174	0x3d294c4f	0.04133254
175	0xbd19f1b0	-0.037584007
176	0x3cd21b5b	0.02564781
177	0xbc026a3a	-0.007959897
178	0x3d67ebf5	0.05662151
179	0x3d070c29	0.03297058
180	0x3b99a594	0.004688928
181	0x3c578abc	0.013155635
182	0x3bcb583b	0.0062055863
183	0x3cc1c599	0.023653792
184	0xbb21a5cb	-0.002466547
185	0xba64b677	-0.0008724699
186	0x3db07bba	0.08617349
187	0xbcb353c9	-0.021890538
188	0x3d893eef	0.06701457
189	0x3b7cb04e	0.0038557234
190	0xbd807b3c	-0.06273505
191	0x3d7fe001	0.062469486
192	0xbb4f0f6c	-0.0031594886
193	0xba04de7e	-0.00050685543
194	0x3c3ff34e	0.011715723
195	0xbbefd5f3	-0.007319206
196	0x3cf37453	0.029718554
197	0x3c1813fc	0.009282108
198	0x3b05d84a	0.0020423108
199	0x3b9f408a	0.0048599886
200	0xbbbc54f5	-0.0057474324
201	0xbc6eb5cc	-0.014569711
202	0x3cb78b53	0.022405302
203	0xbc8169d0	-0.015797526
204	0xbd50a2e8	-0.05093661
205	0x3d44da2e	0.048059635
206	0xbba36a20	-0.0049870163
207	0xbb9f95a7	-0.004870135
208	0xbc95fddf	-0.018309532
209	0x3c1c70c3	0.009548369
210	0xbc32fc73	-0.010924446
211	0xbb7fdebc	-0.0039042672
212	0x3a491629	0.00076708436
213	0x3d071d51	0.032986943
214	0xbb822a0b	-0.003972297
215	0xbdb3eb78	-0.087851465
216	0xbca2eec6	-0.019889247
217	0xbc7388b5	-0.014864136
218	0x3e4a78a8	0.19772589
219	0xbc137c05	-0.0090017365
220	0x3c1d68ee	0.009607537
221	0xbc8ab5ff	-0.016932486
222	0xbc500a5c	-0.012697782
223	0xbc71aafd	-0.014750239
224	0x3dbf895a	0.093523696
225	0xbc9ec380	-0.019380331
226	0xbc71f266	-0.014767265
227	0xb8f1a10a	-0.000115217714
228	0xbca183e2	-0.019716207
229	0xbb195592	-0.002339695
230	0xbc0342e5	-0.008011554
231	0xbd018ea3	-0.03163017
232	0xbb2ec152	-0.002666552
233	0xbccb3a51	-0.02480808
234	0xbcb39a43	-0.021924144
235	0xbc6551b3	-0.013996529
236	0xbc65e67e	-0.014032004
237	0xbc5f499b	-0.013628389
238	0xbccb2de8	-0.024802163
239	0xbcb023f1	-0.021501513
240	0x3c7e8ce5	0.015536522
241	0xbaea80b6	-0.0017891142
242	0xb9ca69e5	-0.0003860734
243	0x3c74daa9	0.014944711
244	0x3c2c2f9e	0.0105094
245	0x3c4e369c	0.012586262
246	0xbab945e3	-0.0014135208
247	0xbc9f7564	-0.019465156
248	0xbd12a4ac	-0.035801575
249	0x3b4f5161	0.00316342
250	0xbc549177	-0.012974135
251	0xbb8b27fc	-0.00424671
252	0xbc81022f	-0.015748112
253	0x3b2d09a9	0.0026403463
254	0x3d93664e	0.071972474
255	0xbbb9d69d	-0.005671336

update_node_embedding_layer.0.update_layer.weight f4 [64, 128]
0	0x3bf605d7	0.0075080204
1	0x3bdf6e4b	0.006818568
2	0x3a62f235	0.00086573075
3	0xbba921c8	-0.0051614977
4	0x3bf3be54	0.0074384604
5	0xbc442742	-0.01197225
6	0xbbb97a0d	-0.0056603015
7	0xbacb5ba8	-0.0015514987
8	0x3bd251f7	0.0064184624
9	0x3c6c7e8f	0.014434471
10	0xbc3dfb84	-0.0115956105
11	0xbada4d45	-0.0016655108
12	0xbca535e6	-0.020167302
13	0xba325a05	-0.0006803575
14	0xbb0d007e	-0.0021515186
15	0xbc04be57	-0.008102021
16	0x3c43c989	0.011949905
17	0x39cc102d	0.00038921964
18	0xbc682ae5	-0.014170383
19	0xbb518af1	-0.0031973685
20	0xba4aa308	-0.0007729982
21	0xbc223fe4	-0.009902928
22	0xbc1d2f24	-0.009593759
23	0xbb8e6dcc	-0.004346585
24	0xbc29667b	-0.010339375
25	0xba2c5b7d	-0.0006574912
26	0xbc46e2b1	-0.012139008
27	0xba300e6e	-0.00067160174
28	0x3af31270	0.0018544924
29	0xbc2ae303	-0.0104301
30	0x3c290046	0.010315007
31	0xbbc986ba	-0.006150094
32	0xbca5f789	-0.020259636
33	0xbd09ad1d	-0.03361236
34	0xbc12288d	-0.008920801
35	0x3bcdcc8f	0.006280489
36	0x3c51ebcc	0.012812566
37	0x390a9601	0.00013216586
38	0xbc062897	-0.008188388
39	0x3c8cd89e	0.017193135
40	0x3c29734d	0.010342431
41	0xbb8fb0c4	-0.004385086
42	0x38757f5a	5.8531157e-05
43	0xbc11caa0	-0.008898407
44	0xbbf162e8	-0.007366527
45	0x3c671010	0.014102951
46	0xbcc74ff0	-0.02433011
47	0x3b9b9746	0.004748258
48	0xbc6f733c	-0.014614876
49	0x3b92cbab	0.0044798455
50	0xbb914f9b	-0.0044345385
51	0xbc11c791	-0.008897678
52	0xbc3143d6	-0.010819396
53	0xbbee4ddc	-0.007272465
54	0xbb95a3a7	-0.004566628
55	0x3911a3bc	0.00013889273
56	0xbae6172b	-0.0017554512
57	0xbc5588fb	-0.013033147
58	0x3ba6cf59	0.0050906357
59	0xbbde83be	-0.0067906072
60	0xbaffe9d4	-0.0019524642
61	0xbbfac709	-0.0076531214
62	0x3ca0e5a5	0.019640753
63	0x396b4b8d	0.00022439491
64	0x3c4bffcc	0.012451123
65	0x3b80bd43	0.0039288118
66	0x3c126bbc	0.008936819
67	0x3b5a3bff	0.003329992
68	0xbb8bb7e9	-0.004263867
69	0xbba25b70	-0.004954748
70	0x3c52af60	0.0128591955
71	0xbb678c76	-0.0035331524
72	0xbbd50efc	-0.0065020304
73	0x3be4f30c	0.0069869813
74	0x3bed38e9	0.0072394502
75	0xba428508	-0.0007420336
76	0x3c81d1cf	0.015847115
77	0x3abd19ae	0.0014427209
78	0xbbdb1dae	-0.0066868877
79	0x3b67e77d	0.003538578
80	0x3c8ac9bb	0.016941896
81	0xbc283cba	-0.010268385
82	0x3be60133	0.007019186
83	0x3a9f1042	0.0012135583
84	0x3c203a9e	0.0097796
85	0xbc34828f	-0.011017456
86	0xbc10ffd1	-0.008850054
87	0x3b1b513a	0.0023699538
88	0xbc1ec635	-0.009690811
89	0xbc4752e8	-0.0121657625
90	0x3cabce5c	0.020972423
91	0x3c73c974	0.014879573
92	0x3a8c76e1	0.0010716581
93	0x3c88d9d7	0.016705437
94	0xbb37c321	-0.002803989
95	0xbb807590	-0.0039202645
96	0x3b53e6fc	0.0032333722
97	0x3c48cdde	0.012256114
98	0x3aa02a8a	0.0012219709
99	0xbc2aefde	-0.010433165
100	0xbc8025ad	-0.015642965
101	0xbbad09da	-0.0052807154
102	0xbc3bbae8	-0.011458136
103	0xbbaa7bf0	-0.005202763
104	0xbc4c2417	-0.012459776
105	0x3c7b66a2	0.015344294
106	0xbc7b43e6	-0.0153360125
107	0xbc29fde0	-0.01037547
108	0xbac78e43	-0.0015224892
109	0xbcdec525	-0.027193615
110	0xbc9a8b57	-0.01886527
111	0xbbd0b97a	-0.006369767
112	0xbb786cc5	-0.0037906629
113	0x3b316a23	0.002707132
114	0xbbb7a87b	-0.0056048012
115	0xbc161b64	-0.009161804
116	0xbc24bd38	-0.010054879
117	0xbc43046c	-0.01190291
118	0xbc241296	-0.010014197
119	0x3b8a76a9	0.004225571
120	0xbb109f8b	-0.0022067751
121	0x3bb2cce3	0.0054565533
122	0x3cd234bb	0.02565991
123	0xbcbd9b09	-0.023145216
124	0xbbe2c894	-0.0069208834
125	0x3b5d8d15	0.0033806015
126	0xbb247746	-0.0025095507
127	0x3c760013	0.015014666
128	0x3decd888	0.115647376
129	0x3d392831	0.045204345
130	0x3b27edd3	0.0025623932
131	0xbdcd1e34	-0.100155264
132	0xbbadeb00	-0.005307555
133	0xbbaef6d1	-0.0053394814
134	0xbdbbc1fa	-0.091678575
135	0x3bd61be0	0.0065340847
136	0x3d0593a6	0.03261151
137	0xbd7dbbba	-0.061946608
138	0xbd3f85af	-0.04675835
139	0x3d5050c1	0.050858263
140	0xbd481656	-0.048849426
141	0x3cb87367	0.022515966
142	0x3d1d2425	0.03836455
143	0xbd8deed0	-0.069303155
144	0x3d36078f	0.044440802
145	0xbe3d32a5	-0.1847635
146	0x3d3bf8fe	0.045891754
147	0xbe306072	-0.17224291
148	0xbd581c91	-0.052761618
149	0x3d1a2084	0.037628666
150	0x3cc360be	0.023849841
151	0x3be9cc78	0.0071349703
152	0xbcb4a21f	-0.022049962
153	0xbdc9bce9	-0.09850485
154	0xbd284d88	-0.041089565
155	0x3bf57dec	0.0074918177
156	0xbd0f4946	-0.03498199
157	0x3d010d7d	0.031507004
158	0x3da1cc10	0.0790025
159	0xbbebfeef	-0.0072020213
160	0xbc516d69	-0.012782433
161	0xbe4590e3	-0.19293551
162	0xbd95c5d9	-0.07313127
163	0x3c8452b1	0.016152712
164	0x3d64e38c	0.055881068
165	0x3d6fc57a	0.058537938
166	0x3dcdbc24	0.100456506
167	0xbd73bb48	-0.059504777
168	0x3ca0d5ed	0.019633258
169	0x3983f395	0.0002516775
170	0x3d90e5d4	0.07075086
171	0x3ce18e8d	0.027533794
172	0xbd40d863	-0.047081362
173	0xbbc36d41	-0.005963952
174	0xbcb0f3d8	-0.021600649
175	0xbde5a16c	-0.112124294
176	0xbe25b11e	-0.16180846
177	0x3d74507d	0.059647072
178	0xbd66a56b	-0.0563101
179	0xbe2dad66	-0.16960678
180	0x3d5eade4	0.054365054
181	0x3dfe4832	0.12416114
182	0x3d5f5119	0.0545207
183	0xbe10ac68	-0.14128268
184	0xbc532f28	-0.012889661
185	0x3a7fd354	0.00097589684
186	0xbe009473	-0.12556629
187	0x3c930cec	0.017950498
188	0xbe03dfbe	-0.1287832
189	0x3d712d22	0.058880933
190	0x3d93873d	0.07203529
191	0x3c8622b7	0.016373975
192	0xbb5fe0b6	-0.0034161038
193	0x3cdfbc01	0.027311327
194	0x3cc7c780	0.024387121
195	0x3ac08a28	0.0014689611
196	0xbcced30f	-0.025247125
197	0xbc079711	-0.008275763
198	0x3b34e914	0.0027604746
199	0xbc31d23a	-0.010853345
200	0xbc7591fd	-0.01498842
201	0xbc355463	-0.011067483
202	0xbcfc358d	-0.030787254
203	0xba3c14f0	-0.0007174751
204	0xbc808be5	-0.015691707
205	0x3c4631d7	0.012096844
206	0x3b0efeff	0.002181947
207	0xbd50b29f	-0.050951596
208	0xbcdb25a0	-0.02675134
209	0x3b92d2c5	0.004480692
210	0xbc9583ca	-0.018251318
211	0xb90f13fc	-0.00013644987
212	0x3c0c5fed	0.008567792
213	0x3b2593ea	0.0025265166
214	0x3d091d1d	0.03347503
215	0xbbf53fd0	-0.0074844137
216	0xbcfa9bf7	-0.030591948
217	0xbc8fc198	-0.017548367
218	0x3b68e999	0.0035539626
219	0x3af143c1	0.0018407033
220	0x3be28274	0.006912524
221	0xbbe90609	-0.007111315
222	0xbc932397	-0.017961306
223	0x3c58f549	0.013242074
224	0xbb1d77bd	-0.0024027668
225	0xbbf53f82	-0.0074843774
226	0xbd870b92	-0.06594004
227	0xbd80d264	-0.06290129
228	0xbc742a19	-0.014902615
229	0x3c7a74ed	0.015286666
230	0x3acd9b36	0.0015686515
231	0x3d87e091	0.066346295
232	0x3c06073b	0.008180435
233	0xbba06bca	-0.004895662
234	0x3c4f7cfb	0.012664075
235	0xbbe19520	-0.006884232
236	0xbd85d112	-0.065340176
237	0x3c362312	0.01111676
238	0xbc9fdb77	-0.019513829
239	0x3c256939	0.010095888
240	0x3a8aa373	0.0010577276
241	0xbd4b05fb	-0.04956625
242	0xbca9a691	-0.020709308
243	0xbd968d86	-0.07351212
244	0x3c828be7	0.015935851
245	0xbd316ace	-0.043314748
246	0xba5ec697	-0.000849822
247	0xbc76c8a3	-0.015062484
248	0x3c4de29e	0.012566237
249	0x3b80635a	0.0039180936
250	0xbc5cf29c	-0.013485577
251	0x3c0317d3	0.008001286
252	0xbbea5189	-0.007150833
253	0xbc33bdf1	-0.0109705785
254	0xbd09bbbd	-0.033626307
255	0xbc0c7a69	-0.008574107

update_node_embedding_layer.1.message_layer.weight f4 [64, 128]
0	0xbb20c970	-0.0024534129
1	0xbd71d520	-0.059041142
2	0x3c9032f2	0.017602418
3	0x3e4f9b03	0.20273976
4	0xbd2dabb4	-0.042400077
5	0x3b034763	0.0020031563
6	0xbd374f17	-0.04475316
7	0xbcd5ed82	-0.02611423
8	0xbd34ec75	-0.044170815
9	0xbd0c7d35	-0.034299094
10	0xbd5c8e94	-0.05384691
11	0xbd6035ee	-0.05473893
12	0xbd9181d2	-0.071048394
13	0xbd6ff6ca	-0.058584966
14	0xbcd09933	-0.025463676
15	0x3bf77762	0.0075520733
16	0x3e8b7530	0.27237844
17	0xbc26d350	-0.010182217
18	0x3e68ccb6	0.22734341
19	0xbd6034b8	-0.054737777
20	0x3cf03a2e	0.029324617
21	0xbd4636f1	-0.04839224
22	0xbd335427	-0.043781426
23	0xbd8c5898	-0.068528354
24	0xbd37889e	-0.044808023
25	0x3b5a7c86	0.0033338382
26	0xbb039b7f	-0.0020081697
27	0xbd6b7948	-0.05748871
28	0x3c737182	0.014858605
29	0x3c25b5f0	0.010114178
30	0xbd336a7e	-0.04380273
31	0x3c358b3e	0.011080561
32	0x3cd9707b	0.026542893
33	0xbc8305f3	-0.015994048
34	0xbd1ce6c8	-0.038306028
35	0x3d47cf2c	0.04878156
36	0x3b859dc8	0.004077647
37	0x3d14fb66	0.036372565
38	0xbd49a455	-0.049228985
39	0x3ce83e23	0.028349942
40	0xbd7a1c0a	-0.061061896
41	0x3e570e72	0.21001604
42	0x3eac7305	0.33681503
43	0xbcb94a34	-0.02261839
44	0xbcb312cf	-0.021859555
45	0xbc91e34d	-0.01780858
46	0xbd22af91	-0.039718214
47	0x3adc3f7e	0.001680359
48	0xbc8ec2bd	-0.017426843
49	0x3f012985	0.5045398
50	0xbd7a6886	-0.061134838
51	0xbb0e87c0	-0.0021748394
52	0x3c0d4158	0.008621536
53	0xbba4e7e9	-0.0050325287
54	0x3e4ee04c	0.2020275
55	0xbd48fb1d	-0.049067605
56	0x3ca57386	0.020196687
57	0xbc103f8d	-0.008804214
58	0xbd34cead	-0.044142414
59	0xbc38a68f	-0.011270179
60	0x3c0fd767	0.008779383
61	0xbbe4a435	-0.006977583
62	0xbd55a44b	-0.052158635
63	0x3cab11af	0.020882456
64	0xbc07906e	-0.008274181
65	0xb99a7dc1	-0.00029466863
66	0x3d1f8e0b	0.038953822
67	0xbbcf9efe	-0.006336092
68	0xbc5d6636	-0.0135131385
69	0xbab257a1	-0.0013606438
70	0xbc745543	-0.014912906
71	0xbcafd685	-0.021464596
72	0x3c6ef60e	0.014585031
73	0xbce94874	-0.028476931
74	0x3d6e1a74	0.058130696
75	0xbc22c62d	-0.009934944
76	0xbd04c90a	-0.03241829
77	0xbb4d8a8f	-0.0031363105
78	0xbc6ac593	-0.014329332
79	0x3c0b4e76	0.008502593
80	0x3b49225e	0.003069065
81	0x3c10fb15	0.008848925
82	0xbc99aadd	-0.018758232
83	0x3b371bf4	0.0027940245
84	0xbbb91913	-0.005648741
85	0x3cdfb21b	0.027306607
86	0xbb939649	-0.0045039994
87	0xbc0497f1	-0.008092866
88	0xbc0d3e98	-0.008620881
89	0xbcf29e43	-0.02961648
90	0xbcbe3ee2	-0.023223344
91	0xbbc93a82	-0.006141008
92	0xbc8ed477	-0.017435296
93	0x3c25bf4a	0.010116408
94	0xbbde0e5d	-0.0067766146
95	0xbc577bef	-0.013152107
96	0xbd630492	-0.05542428
97	0xbbf1b515	-0.007376323
98	0x3c2fcb4d	0.010729623
99	0xbb8d5610	-0.004313238
100	0xbd01a621	-0.031652573
101	0xbce2795f	-0.027645765
102	0xbc2f37cb	-0.010694454
103	0xbc828ca5	-0.015936205
104	0xbc962158	-0.018326446
105	0xbc0e1cae	-0.00867383
106	0xbba51889	-0.005038325
107	0xbc203dc6	-0.009780353
108	0xbc5cd6fc	-0.013478991
109	0xbceeec9c	-0.029165559
110	0x3adb625f	0.0016737691
111	0xbcb63260	-0.022240818
112	0x3d142459	0.036167476
113	0xbb80b9cc	-0.0039283987
114	0x3b681a41	0.003541604
115	0xbbc7a210	-0.0060923174
116	0xbc848c5a	-0.016180206
117	0xbb16b80a	-0.002299788
118	0x3bf3bc15	0.0074381926
119	0xbbf099a2	-0.007342533
120	0x3ce99aa5	0.028516123
121	0xbb9e397e	-0.004828631
122	0x3b1c0a4e	0.0023809853
123	0xbc1f74b6	-0.009732416
124	0xbc98a1ae	-0.018631782
125	0xbbfce42c	-0.00771763
126	0x3ba3c7fc	0.004998205
127	0xbbeebd12	-0.0072857225
128	0x3a78809e	0.00094796147
129	0x3d805464	0.06266096
130	0xbc00e939	-0.007868105
131	0xbd319c49	-0.043361936
132	0x3d499d85	0.049222488
133	0x3ba9b1f3	0.005178684
134	0x3bbe0ec1	0.0058000986
135	0x3d3963ae	0.045261078
136	0x3dae6572	0.08515443
137	0xbe0a5fda	-0.13513127
138	0x3d84ddec	0.06487641
139	0x3d4b403c	0.049621806
140	0x3db0bb85	0.086295165
141	0x3d21e0fd	0.039521206
142	0x3c3c5016	0.011493703
143	0x3d0e4ae8	0.034739405
144	0x3e6fe07d	0.23425479
145	0xbc2524dd	-0.01007959
146	0x3e34ef14	0.17669326
147	0x3cb6bdce	0.022307303
148	0x3d6c5065	0.057693858
149	0x3d1d22d3	0.03836329
150	0x3d3b7d3d	0.045773733
151	0x3d68def6	0.056853257
152	0x3d7d1118	0.06178388
153	0x3c7f32b2	0.015576052
154	0xb9317ce5	-0.00016926562
155	0x3d4017bc	0.046897635
156	0x3b223edf	0.0024756712
157	0x3d8a2f79	0.06747336
158	0xbe4a2a96	-0.19742808
159	0x3b229ccc	0.0024812697
160	0x3d095467	0.033527758
161	0xbb0296af	-0.001992624
162	0x3d5578b6	0.052117072
163	0x3d8dbb68	0.069205105
164	0x3c2a3b7f	0.010390162
165	0x3d4474cb	0.047962945
166	0x3d8fc78d	0.07020483
167	0x3d9c2598	0.07624358
168	0x3d78819e	0.060670488
169	0x3e63038c	0.22169322
170	0x3e72cf72	0.23711947
171	0xbb824dd9	-0.0039765653
172	0xbc4f9cc4	-0.012671653
173	0xbb9dd8fd	-0.004817127
174	0x3e1aea12	0.15128353
175	0x3d858aec	0.06520638
176	0x3cb7de30	0.022444814
177	0x3ea3a8f7	0.31964847
178	0x3d7e9ec4	0.06216313
179	0xbc96decb	-0.018416783
180	0x3cbdd0b9	0.023170816
181	0xbc495a32	-0.012289571
182	0x3d8e29fe	0.06941603
183	0xbe001612	-0.12508419
184	0x3d6c22a1	0.057650212
185	0x3d4cbe1d	0.049985994
186	0x3c73aa97	0.014872215
187	0x3c9b419c	0.018952183
188	0xbcad4ac1	-0.02115381
189	0xbc52da06	-0.012869364
190	0x3dac2b53	0.08406701
191	0x3d210de4	0.039319888
192	0x3bbd113d	0.005769877
193	0x3a542e2e	0.00080940395
194	0x3d0a6d63	0.033795726
195	0x3bfb1c33	0.0076632737
196	0xbcac7f8d	-0.021056915
197	0xbc32923b	-0.010899122
198	0x3c8ca009	0.017166154
199	0x3d86d165	0.065829076
200	0xbd6a1ddb	-0.05715738
201	0xbe0901e3	-0.13379626
202	0x3cfbed9d	0.030752951
203	0x3be70e50	0.0070512667
204	0x3cc5e457	0.024156732
205	0x3dce3519	0.10068721
206	0x3c3004c2	0.010743322
207	0xbc350b83	-0.011050108
208	0xbbedd1c0	-0.00725767
209	0xbceb8326	-0.02874906
210	0xbc413ded	-0.011794549
211	0x3c00b643	0.007855955
212	0x3b8f01f1	0.004364245
213	0x3d6e02fc	0.058108315
214	0xbca5de76	-0.02024768
215	0x3c794e1c	0.015216377
216	0xbdd20d20	-0.1025641
217	0x3c95082e	0.018192377
218	0xbe880692	-0.26567513
219	0xbd79789d	-0.06090604
220	0xbbf35569	-0.007425953
221	0x3c254ab8	0.010088615
222	0xbc5efe8d	-0.013610494
223	0x3afe75d5	0.0019413779
224	0xbe124ac1	-0.14286329
225	0xbdab62f3	-0.083684824
226	0x3d09a224	0.033601895
227	0x3c00c0bc	0.007858451
228	0x3d30d7cc	0.04317455
229	0xbc51244e	-0.012765003
230	0xbd8a4e93	-0.06753268
231	0xbd92e8a9	-0.07173283
232	0xbd319dc7	-0.04336336
233	0x3b7ab9ae	0.0038257646
234	0x3d1a0cda	0.037609912
235	0x3b345905	0.002751888
236	0xbd12b2b3	-0.035814952
237	0x3d56ba14	0.05242355
238	0x3c9d4956	0.019200008
239	0xbd7c94a9	-0.06166521
240	0x3be8608e	0.0070915883
241	0x3d3b615d	0.04574715
242	0x3c511afb	0.01276278
243	0x3c8f1faa	0.017471153
244	0x3c819d84	0.01582218
245	0xbd2e2bc8	-0.04252222
246	0xbde54490	-0.11194718
247	0x3b2a21e0	0.0025960132
248	0x3d57fcc3	0.052731287
249	0xbbc967de	-0.006146415
250	0x3c21f2c6	0.009884542
251	0xbd4299e5	-0.047510047
252	0xbd88ac45	-0.06673483
253	0x3bded312	0.006800064
254	0xbd85ac41	-0.065269955
255	0xbd9e4452	-0.07727875

update_node_embedding_layer.1.update_layer.weight f4 [64, 128]
0	0xbc268ff5	-0.010166158
1	0xbdb41c37	-0.08794444
2	0xbac55226	-0.0015054389
3	0x3dffe89c	0.124955386
4	0xbd93d19f	-0.072177164
5	0x3c94e019	0.018173264
6	0xbd263208	-0.040575057
7	0xbe141598	-0.14461362
8	0xbd91811a	-0.07104702
9	0xbea056b2	-0.31316143
10	0xbd4e1a37	-0.05031797
11	0xbd6e25c6	-0.058141492
12	0xbdcd9127	-0.10037451
13	0xbda12e18	-0.0787012
14	0xbd97a54a	-0.07404573
15	0x3d1bf4aa	0.038075127
16	0x3e5653c9	0.20930399
17	0x3b232a3a	0.0024896995
18	0x3e0a102d	0.13482733
19	0xbd993cab	-0.074822746
20	0x3d538abb	0.051645976
21	0xbd919765	-0.07108954
22	0xbe08bf80	-0.13354301
23	0xbe04dd93	-0.12975149
24	0xbdb1d4f2	-0.08683194
25	0x3c242e54	0.010020811
26	0xbbb2740e	-0.0054459637
27	0xbd4bcc45	-0.049755353
28	0x3c247e84	0.010039929
29	0x3d32c2f6	0.04364296
30	0xbc85a631	-0.016314598
31	0x3cadeef4	0.021232106
32	0x3d4b1cce	0.049588017
33	0x3bc369fb	0.0059635616
34	0xbd617998	-0.0550476
35	0x3d590215	0.0529805
36	0xbb954743	-0.004555614
37	0x3d605beb	0.05477516
38	0xbdc6e558	-0.097117126
39	0x3d55b964	0.052178755
40	0xbdaad3bb	-0.08341166
41	0x3e18b7a4	0.14913803
42	0x3e396cf7	0.18107973
43	0x3bb44ff2	0.0055026943
44	0xbbc8d559	-0.0061289486
45	0x3b8978b8	0.004195299
46	0x3cb92586	0.0226009
47	0x3d803cbc	0.06261584
48	0xbe3e112d	-0.1856124
49	0x3ead7e6e	0.3388552
50	0xbd96a765	-0.07356147
51	0x3c3dd058	0.011585318
52	0xbdbd6eca	-0.09249647
53	0x3c14888f	0.009065761
54	0x3dfb33c8	0.12265736
55	0xbd27e91b	-0.04099379
56	0x3d908465	0.07056502
57	0x3d21abee	0.039470606
58	0xbe20af9c	-0.1569199
59	0xbd9c570c	-0.076337904
60	0x3a7d4e04	0.00096628093
61	0x3be62b40	0.007024199
62	0x3d6b9e45	0.057523984
63	0x3e67afc6	0.22625646
64	0x3bd59a4d	0.006518638
65	0x3dd089f3	0.10182562
66	0xbca6d9b9	-0.02036749
67	0x3a5a057f	0.0008316859
68	0xbc16ca57	-0.009203515
69	0xbc180577	-0.009278647
70	0xbc964651	-0.018344076
71	0x3da11fe8	0.07867414
72	0xbb9fdc16	-0.004878531
73	0xbb4ac694	-0.0030941116
74	0xbc47fd81	-0.012206436
75	0x3a3abf9a	0.0007123888
76	0xbbfe346e	-0.007757715
77	0xbb00aab7	-0.0019633004
78	0x3bd67ae7	0.006545413
79	0x3b34ed52	0.0027607274
80	0x3bbbee3a	0.005735186
81	0xbba90a25	-0.00515868
82	0x3ba5cf4e	0.005060113
83	0x3bd345eb	0.006447544
84	0x3c2b0f23	0.010440621
85	0xbc7831bf	-0.015148579
86	0x3c0ffb10	0.008787885
87	0x3b802919	0.003911149
88	0xbe294c8d	-0.16533108
89	0x3ddccc91	0.107812054
90	0x3c950bbe	0.018194076
91	0xbbc611f2	-0.0060446197
92	0x3c0b0ba4	0.008486662
93	0x3c040314	0.0080573745
94	0x3d2e0706	0.042487167
95	0x3ac92cc8	0.0015348429
96	0xbcc9cdc2	-0.024634246
97	0x3b8a4b18	0.0042203777
98	0x3c585a47	0.013205118
99	0xbbc78e69	-0.0060899747
100	0x3cb34061	0.021881284
101	0xbb04653f	-0.002020195
102	0xbc437028	-0.011928596
103	0xbb52ada2	-0.003214695
104	0x3b1f6cd6	0.0024326346
105	0xbdc645af	-0.0968126
106	0x3bd0d77a	0.006373343
107	0xb925baff	-0.00015805288
108	0xbd02c3ec	-0.031925127
109	0x3c29abc0	0.01035589
110	0x39e94a91	0.0004449678
111	0xbd059dff	-0.03262138
112	0x3c6fb8cb	0.01463146
113	0xbcb3da12	-0.02195457
114	0x3c4d55e2	0.012532683
115	0xbc87dd91	-0.016585143
116	0xbcb42373	-0.02198956
117	0xbc83efa1	-0.016105475
118	0xbc1d71bc	-0.009609636
119	0xbc929987	-0.017895473
120	0x3c110acf	0.008852675
121	0x3c26939b	0.010167028
122	0xbbefc2a9	-0.0073169065
123	0xbe0081a9	-0.12549461
124	0x3d4e01bf	0.050294634
125	0xbb017da6	-0.001975873
126	0xbbd6087f	-0.0065317745
127	0xba4af899	-0.00077427324
128	0xbc31fcae	-0.010863466
129	0x3c0ef2df	0.008724897
130	0xbbe64c54	-0.007028142
131	0xbdc7af2f	-0.097502105
132	0x3bfb8aa8	0.007676441
133	0xbc2a38c6	-0.010389512
134	0xbd980a31	-0.07423819
135	0xbe0aa39c	-0.13538975
136	0xbd5afcbc	-0.053463683
137	0x3dd63178	0.10458654
138	0x3ca8e9e1	0.020619335
139	0xbba164bd	-0.004925339
140	0xbb5ae5d7	-0.0033401155
141	0x3cb85eca	0.022506136
142	0xbb7e7e28	-0.003883252
143	0xbedd08df	-0.4317083
144	0xbdeba072	-0.11505212
145	0x3c5b41d7	0.013382397
146	0xbdebdd6c	-0.11516842
147	0x3d13e786	0.03610947
148	0xbeb55691	-0.35417607
149	0x3d0e8193	0.03479154
150	0xbd1fa416	-0.038974844
151	0xbd39c412	-0.045353003
152	0xbdf5f786	-0.12010102
153	0x3b33300e	0.0027341875
154	0xbbcc1bdd	-0.0062289075
155	0xbc33e698	-0.010980271
156	0xbc22762c	-0.00991587
157	0xbeb3c6d9	-0.35112646
158	0xbe28d919	-0.16489066
159	0xbc8d81ca	-0.017273802
160	0xbec0939e	-0.37612623
161	0x3c043ed7	0.008071623
162	0x3c8c29ff	0.017109869
163	0xbe9c41a9	-0.30518845
164	0x3adf58fc	0.0017040069
165	0xbe9f792c	-0.31147134
166	0xbd0b775c	-0.034049377
167	0xbe898f4b	-0.26867136
168	0x3c135890	0.008993283
169	0xbea37a21	-0.31929114
170	0xbe7cdee0	-0.24694395
171	0xbc3247ee	-0.010881407
172	0xbc45395d	-0.012037602
173	0x3b9c56e4	0.0047711004
174	0xbeaaba77	-0.33345386
175	0xbe85cb86	-0.2613184
176	0xbcf9c9e9	-0.030491786
177	0xbeaad1ce	-0.33363193
178	0x3b925131	0.004465245
179	0x3a9aeaf1	0.0011819286
180	0xbdee01c7	-0.11621433
181	0xbb3c5121	-0.002873488
182	0xbe1c7115	-0.15277512
183	0xbd6ab4f7	-0.057301488
184	0xbea95177	-0.33069965
185	0xbea9283b	-0.33038506
186	0x3c89c1b6	0.016816001
187	0xbe544d15	-0.2073253
188	0xbbda0b71	-0.006654196
189	0xbb6f29c1	-0.0036493393
190	0xbe1d86a1	-0.15383388
191	0x3d3c6a25	0.045999665
192	0xbd153635	-0.03642865
193	0x3d237aad	0.039911915
194	0xbcdbea70	-0.026845187
195	0x3d205650	0.039144814
196	0xbc7c5fc0	-0.015403688
197	0x3b6a3e75	0.0035742794
198	0x3d9d1786	0.07670502
199	0x3d4cedbc	0.05003141
200	0x3b5ea2fc	0.0033971658
201	0x3af0debe	0.0018376929
202	0xba2d0169	-0.00065996364
203	0x3d422f18	0.047408193
204	0xbc900a92	-0.017583165
205	0xbc8cbba9	-0.017179327
206	0x3bf6e0b6	0.007534112
207	0xbc0c43bd	-0.008561072
208	0x3cdab1a4	0.026696034
209	0x3c3d426c	0.011551481
210	0x3c178dd0	0.009250119
211	0x3d3c0cc7	0.045910623
212	0xbc711d10	-0.014716402
213	0x3a04d076	0.00050664635
214	0x3c95deea	0.01829477
215	0x3cdd4ea8	0.027015045
216	0x3dae6572	0.08515443
217	0x3da7ef1c	0.08199903
218	0x3cad5360	0.02115792
219	0xbb594287	-0.0033151226
220	0x3c135d9d	0.008994487
221	0x3d9ea6ab	0.07746633
222	0xbcd04e0b	-0.025427839
223	0x3bad01e3	0.005279766
224	0x3c9c1820	0.019054472
225	0x3aae5801	0.0013301374
226	0x3c39ab22	0.011332305
227	0xbc68d87c	-0.01421177
228	0x3d4a9d1f	0.04946625
229	0x3cd523a8	0.026017979
230	0xb993a20a	-0.00028158753
231	0xbbc1ec3b	-0.0059180534
232	0x3bc4e837	0.0060091275
233	0xbca068d0	-0.019581228
234	0x3d5057bf	0.05086493
235	0xbc1d9c8b	-0.009619842
236	0x3d0c2c62	0.034222014
237	0xbba0facd	-0.0049127103
238	0x3b516230	0.0031949393
239	0x3d939c4c	0.07207546
240	0x3b74ae4f	0.0037335341
241	0x3d6a9204	0.057268158
242	0x3c371986	0.011175519
243	0x3d213293	0.039354872
244	0x3d59a7cb	0.053138535
245	0xbb358e57	-0.002770325
246	0x3d28512f	0.041093048
247	0xb76eba72	-1.4229316e-05
248	0xbb70bd87	-0.003673406
249	0x3c881c81	0.016615154
250	0x3dad9597	0.084757976
251	0xbd0ebbb1	-0.034846965
252	0x3c9f29fd	0.019429201
253	0x3c6664fa	0.014062161
254	0x3c5a1d81	0.013312698
255	0x3e22705c	0.15863174
