ER_200spin/eco/network/network4400000.pth (torch, 238273 bytes, 11 tensors)

node_init_embedding_layer.0.weight f4 [64, 7]
0	0x3afda8ac	0.0019352636
1	0xbe7d117a	-0.24713698
2	0xbdfba19a	-0.122866824
3	0x3d19f219	0.037584398
4	0x3b651e74	0.0034960778
5	0xbca51fcd	-0.020156765
6	0x3d720af6	0.059092484
7	0xba91247d	-0.0011073496
8	0xbe3d9cb3	-0.18516807
9	0xbcece819	-0.028919267
10	0x3e08debb	0.13366215
11	0xbc669b28	-0.014075078
12	0x3da8b11c	0.08236906
13	0x3d236b05	0.039896984
14	0x399cc631	0.00029902303
15	0x3ebc3fc4	0.367674
16	0xbc93a0ee	-0.018021073
17	0xbd99d3a3	-0.075110696
18	0x39f47454	0.00046625978
19	0x3c5ef7b7	0.0136088645
20	0x3cb53b5b	0.02212303
21	0xbb536d18	-0.003226107
22	0x3ebe921e	0.37220854
23	0x3c925488	0.017862573
24	0xbd3a89cb	-0.045541566
25	0x3b62604d	0.0034542263
26	0x3c6e8aff	0.014559506
27	0xbc06d799	-0.008230113
28	0xbbc981b0	-0.006149493
29	0xbb7f7c43	-0.0038983978
30	0xbc218543	-0.009858432
31	0xbc35e581	-0.011102081
32	0xbc314120	-0.01081875
33	0xbb77b1a6	-0.0037795096
34	0xbc79626c	-0.0152212195
35	0xbc35ae95	-0.011088987
36	0xbb6c9fdf	-0.0036106033
37	0xbb03d05f	-0.0020113213
38	0xbb2f15e3	-0.0026715926
39	0xbc590bb4	-0.013247419
40	0xbc86b072	-0.016441558
41	0xbbae427d	-0.0053179846
42	0x3c63bdbc	0.013900217
43	0x3edb3809	0.4281619
44	0x3c892d99	0.016745375
45	0xbe569328	-0.20954573
46	0x3a95658d	0.0011398062
47	0xbcc6c37f	-0.024263142
48	0x3cdb7540	0.026789308
49	0x39aea5ff	0.00033311543
50	0xbe4472e1	-0.19184448
51	0xbf007f78	-0.501945
52	0x3e5de676	0.21669945
53	0x3969c775	0.00022294915
54	0x3dd926ae	0.10603081
55	0x3cb423c5	0.021989712
56	0x3c6dacae	0.014506502
57	0xbe98a9e2	-0.2981711
58	0x3d6cc2cb	0.057802957
59	0x3e27aa25	0.16373499
60	0xbaa547d5	-0.0012609909
61	0x3d0ff1c3	0.03514267
62	0x3d75647b	0.05991028
63	0x3bb80cdb	0.005616767
64	0x3ec12b44	0.37728322
65	0x3d323e3c	0.043516383
66	0xbbcfe065	-0.0063438886
67	0xbc22ee2c	-0.00994448
68	0x3c77623d	0.015099105
69	0x3c693821	0.014234574
70	0xbc858759	-0.01629989
71	0x3eac21f7	0.33619663
72	0x3cd82945	0.026386866
73	0x3d86ec58	0.06588048
74	0x3b7ed8b7	0.0038886496
75	0x3c38a367	0.011269427
76	0xbd34e5f4	-0.044164613
77	0xbcf49c18	-0.029859588
78	0x3ea74b02	0.32674414
79	0xbe2c7ad0	-0.16843724
80	0x3dd7421c	0.10510656
81	0x37662037	1.3716569e-05
82	0xbc6d3cbe	-0.014479814
83	0xbe65f11c	-0.22455257
84	0x3c864e6d	0.016394818
85	0x3ed58f27	0.4171078
86	0xbb3588ef	-0.0027700027
87	0xbe108177	-0.14111887
88	0x39a88073	0.0003213916
89	0x3ce9b63d	0.02852928
90	0x3ca86af9	0.020558821
91	0x3c0eb01c	0.00870898
92	0xbe90b8f1	-0.282661
93	0x39d00e94	0.00039683713
94	0x3de3dc05	0.1112595
95	0x3b90b0ca	0.004415606
96	0xbc962fae	-0.018333282
97	0x3d72437b	0.059146386
98	0x3c5ec25e	0.013596145
99	0xbe8d26e2	-0.27568728
100	0x3bfb0b5d	0.0076612667
101	0x3de2642c	0.110542625
102	0xba39c4a2	-0.00070864905
103	0xbac561ba	-0.0015059032
104	0x3d8f6976	0.07002537
105	0x3c302894	0.010751862
106	0x3bf15326	0.0073646484
107	0xbe1099f0	-0.14121222
108	0x3e035cb8	0.12828338
109	0xbbf8b7b5	-0.007590259
110	0x3bd48e92	0.0064867223
111	0xbe423a84	-0.18967634
112	0x3c27fbc7	0.0102528995
113	0xbe54af42	-0.2076998
114	0xbd2af7fd	-0.041740406
115	0x3e2e2513	0.1700633
116	0xbbe69d7f	-0.007037818
117	0x3d9982a8	0.07495624
118	0x3d379557	0.044820156
119	0xbca56dd0	-0.020193964
120	0x3ead2a7d	0.33821478
121	0x3c239a92	0.009985583
122	0x3c143578	0.009045951
123	0xbbdc882e	-0.006730101
124	0x3c950631	0.018191429
125	0x3baacfe0	0.005212769
126	0x3cbeabea	0.023275334
127	0xbeb5b9d7	-0.35493347
128	0x3be3d60e	0.0069530075
129	0x3e076312	0.13221386
130	0x3c04151f	0.008061676
131	0x3b9d3ac7	0.0047982666
132	0x3da24ddc	0.07925007
133	0xbc2cd30f	-0.010548367
134	0x3e8f2e48	0.27964997
135	0x3d853c04	0.06505588
136	0x3d825e56	0.063656494
137	0xba99e5eb	-0.0011741495
138	0xbb8281e8	-0.003982771
139	0x3c186af8	0.009302847
140	0x3c433426	0.011914289
141	0x3ede6d23	0.4344264
142	0x3d3ea8fa	0.046547867
143	0xbd818376	-0.06323902
144	0xbb1088d3	-0.002205421
145	0x3cdc877e	0.026920076
146	0x3c5ade27	0.013358629
147	0x3ca5cc6d	0.02023908
148	0xbead3104	-0.33826458
149	0x3cfa1a88	0.03053023
150	0x3e0ef255	0.1395963
151	0x3bc39456	0.0059686108
152	0x3c32d374	0.010914672
153	0x3d8bd811	0.06828321
154	0xbb19668d	-0.0023407072
155	0xbe36c271	-0.17847611
156	0x3dac1608	0.084026396
157	0x3e4697cb	0.19393842
158	0xbcdaa31d	-0.026689107
159	0x3d8f2b32	0.06990661
160	0xbcca66f6	-0.024707299
161	0xbbe7145a	-0.0070519866
162	0xbe4b17c5	-0.19833286
163	0x3dde9a8f	0.108693235
164	0x3d00c5f1	0.03143877
165	0xbab864e4	-0.0014068154
166	0xbb318b6d	-0.002709116
167	0x3d97e95d	0.074175574
168	0x3b8b2e24	0.0042474438
169	0xbe675892	-0.2259238
170	0x3d55277c	0.05203961
171	0x3ec99090	0.39368105
172	0x3b196757	0.0023407543
173	0x3d9c2eb5	0.07626096
174	0x3c0bbebd	0.008529362
175	0xbc0ff944	-0.008787457
176	0x3eb5330b	0.35390505
177	0x3c37514e	0.011188818
178	0x3be076d3	0.0068501025
179	0x3c15b835	0.009138157
180	0x3d07588d	0.033043433
181	0xbd29efe4	-0.041488543
182	0x3b3eb89a	0.002910173
183	0x3ed8ff8b	0.42382464
184	0x3d476aac	0.048685715
185	0xbb660a48	-0.0035101343
186	0xba736847	-0.0009285253
187	0x3d298a99	0.041391943
188	0x3cba4b20	0.0227409
189	0xbb020dd5	-0.001984467
190	0x3b4a300a	0.0030851387
191	0x3a8fa26c	0.001095844
192	0xbc1a8f5b	-0.009433593
193	0xbbb782cb	-0.0056003085
194	0xbb8eda4b	-0.0043595186
195	0xbc28bf61	-0.010299535
196	0x3c75eb43	0.015009704
197	0x3ec125c4	0.37724125
198	0x3c842e8b	0.016135475
199	0xbd76eb75	-0.060283143
200	0x3b3ecb06	0.002911271
201	0x3cce3599	0.025172042
202	0xbc090833	-0.008363771
203	0x3c829acf	0.01594296
204	0xbeb02199	-0.34400633
205	0x3be832f8	0.007086154
206	0x3dfc2e9e	0.12313579
207	0x3ad599dd	0.0016296465
208	0x3cfe7d5d	0.031065637
209	0x3d3bb008	0.045822173
210	0x3bfda53f	0.007740646
211	0xbe530a4b	-0.20609395
212	0xbc4f811b	-0.0126650585
213	0xbe3f5f98	-0.1868881
214	0xbb827e4c	-0.003982341
215	0x3dd396a4	0.10331467
216	0xbba61192	-0.0050680125
217	0xbc346eac	-0.011012714
218	0xbe72c30e	-0.2370722
219	0x3cfb4560	0.030672729
220	0x3dd46c3e	0.10372208
221	0x38b90279	8.821948e-05
222	0xbcaf963c	-0.021433942
223	0x3ce99122	0.028511588
224	0xbb2121a7	-0.0024586709
225	0x3c2c28d0	0.010507777
226	0xbb7e8fae	-0.0038842964
227	0xbc919d5c	-0.01777523
228	0xbb82edb8	-0.0039956234
229	0xbc046de9	-0.008082845
230	0xbae9461c	-0.0017797383
231	0x3cde5c6e	0.027143683
232	0x3df93b42	0.12169506
233	0xbea3dafb	-0.32003006
234	0x3d276589	0.040868316
235	0x3ba4965a	0.005022806
236	0x3bef65d7	0.0073058414
237	0xbeb16647	-0.34648344
238	0x3c3c84b0	0.011506245
239	0x3ec986fb	0.39360794
240	0x3c15f91a	0.009153629
241	0xbd35cfe6	-0.04438772
242	0x3b0b8876	0.0021291054
243	0x3d32390e	0.043511443
244	0x3c2891da	0.01028868
245	0xbb445647	-0.0029958652
246	0x3b926890	0.004468031
247	0xbc35c51a	-0.011094356
248	0xbc3e6e0f	-0.01162292
249	0xbc364a1e	-0.011126069
250	0xbbcee017	-0.0063133347
251	0xbad7b7f7	-0.0016458024
252	0x3bd1c9cb	0.0064022294
253	0xbe4003f4	-0.18751508
254	0xbdb6e297	-0.08929937
255	0x3db9fa9a	0.090810016

edge_embedding_layer.edge_embedding_NN.weight f4 [63, 8]
0	0x3ce1a3a4	0.02754385
1	0x3ce7c446	0.028291833
2	0x3e8ae02b	0.27124152
3	0xbd34c7e0	-0.04413593
4	0xbb98ae59	-0.0046594557
5	0xbd1f2016	-0.03884896
6	0xbc923e68	-0.017852023
7	0xbd806a0f	-0.06270229
8	0xbc2291da	-0.009922469
9	0xbc308984	-0.010774974
10	0xbb8d67a7	-0.004315335
11	0xbb161a0b	-0.0022903706
12	0x3c12afd5	0.008953054
13	0xbcb5f926	-0.02221353
14	0xbc79e019	-0.015251183
15	0x3c0472b8	0.008083992
16	0x3cc90c17	0.024541898
17	0x3c9dd57c	0.019266836
18	0x3e7b0160	0.24512243
19	0xbd44da06	-0.048059486
20	0xbc35a686	-0.011087066
21	0xbd06d8e9	-0.032921705
22	0xbc360ed9	-0.011111938
23	0xbd3844cf	-0.044987496
24	0x3d4705db	0.04858957
25	0x3d2fe6d6	0.04294475
26	0x3e7b4ea8	0.24541724
27	0xbdf34213	-0.11877837
28	0xbcaba678	-0.020953402
29	0x3a94d51a	0.0011355013
30	0x3d2e2743	0.04251791
31	0xbda71008	-0.081573546
32	0xbc765733	-0.015035438
33	0xbbdcdea1	-0.0067404066
34	0x3c7c1de9	0.0153879905
35	0xbc711abd	-0.014715848
36	0xbc20fc8f	-0.00982584
37	0xbac778db	-0.0015218513
38	0xbab5c1b9	-0.0013866938
39	0xbb08a058	-0.0020847525
40	0xbc2a87bb	-0.010408337
41	0xba1a6be9	-0.00058907137
42	0x3b21fb4a	0.002471643
43	0xbb89685c	-0.004193349
44	0x3b376976	0.0027986444
45	0xbc5eb404	-0.013592724
46	0x3c3dafbd	0.011577544
47	0x3b304c3d	0.002690091
48	0xbc0844af	-0.008317157
49	0xbcdfcaae	-0.027318325
50	0xbe08b9ff	-0.13352202
51	0x3de7f5be	0.113261685
52	0x3da17041	0.07882739
53	0xbc3fba1e	-0.011702089
54	0xbde92ed6	-0.11385886
55	0x3d96d4e3	0.07364824
56	0xbbb2cf34	-0.0054568294
57	0x3c203f9b	0.00978079
58	0xbe388d2d	-0.18022604
59	0x3e180c3f	0.14848422
60	0x3daa9076	0.08328335
61	0x3c116ff0	0.008876786
62	0xbc073c2e	-0.008254094
63	0x3df2c4af	0.11853921
64	0xbb185ec2	-0.002324984
65	0xbdce5797	-0.100753
66	0xbe31be0f	-0.17357658
67	0x3dbbfee0	0.09179473
68	0x3ddf752e	0.10911022
69	0xbc35d9c2	-0.011099281
70	0xbc23b0a0	-0.009990841
71	0x3d98ed32	0.074671164
72	0xbba67d1c	-0.005080832
73	0xbd5f226e	-0.054476194
74	0xbe13f241	-0.14447881
75	0x3ddf8193	0.10913386
76	0x3d3df239	0.04637358
77	0x3c10bd82	0.008834245
78	0xbdd281e7	-0.10278683
79	0x3dc5b0a1	0.0965283
80	0xbc358919	-0.01108005
81	0x3c57fcf9	0.013182872
82	0xbe266995	-0.16251214
83	0x3e04cd6c	0.12968987
84	0x3db10ef8	0.08645433
85	0x3b3ebf42	0.0029105698
86	0xbba5f92c	-0.005065104
87	0x3dd76b1a	0.10518475
88	0xba078721	-0.0005169977
89	0xba95eb46	-0.0011437915
90	0xbacf199f	-0.0015800482
91	0xbc3ed8e9	-0.011648395
92	0xbc0960e9	-0.008384922
93	0xbc9bb220	-0.019005835
94	0xbcadfc9e	-0.021238621
95	0xbb4d5313	-0.0031330034
96	0xbc3d3d7d	-0.0115503045
97	0xbbd385ff	-0.0064551826
98	0xbc9a3f36	-0.01882897
99	0x3c0faaa3	0.00876871
100	0xbb3b6b8e	-0.0028598043
101	0xbc5799c0	-0.013159215
102	0x3ac1894b	0.0014765648
103	0xbb4f4064	-0.0031624073
104	0x3d5faefc	0.054610237
105	0x3cc3ccd5	0.023901382
106	0x3e6db2a6	0.2321268
107	0xbdd97cd3	-0.106195115
108	0xbc1fd2c0	-0.009754837
109	0x3a841b8e	0.0010079013
110	0x3d369d18	0.04458341
111	0xbdebc2c6	-0.115117595
112	0xbc2dd75c	-0.010610428
113	0xbc5ea84d	-0.013589931
114	0xbe1c3a14	-0.1525653
115	0x3dca8217	0.09888094
116	0x3d5cc5c1	0.05389953
117	0x3c40e227	0.011772669
118	0xbe9f5706	-0.3112108
119	0x3daf89d9	0.08571214
120	0x3d870922	0.06593539
121	0x3d4c6043	0.04989649
122	0x3e66f9df	0.22556256
123	0xbdeddd34	-0.11614457
124	0xbd2d3a7a	-0.042292096
125	0x3aad6929	0.0013230193
126	0x3d53f12a	0.051743664
127	0xbdbcb5d3	-0.09214368
128	0xbbfc42a6	-0.007698375
129	0xbb39ce40	-0.0028351694
130	0xbe1d04f8	-0.15333927
131	0x3e0496b6	0.12948117
132	0x3dba84fa	0.091073945
133	0x3aa156de	0.0012309214
134	0xbb21d3ea	-0.002469296
135	0x3dac517f	0.08413982
136	0x3d278bb1	0.040904704
137	0x3c390b8e	0.011294259
138	0x3e888f45	0.26671806
139	0xbd997f6d	-0.07495008
140	0x3d318d62	0.043347724
141	0x39d56e20	0.00040708575
142	0x3c9bb9c0	0.019009471
143	0xbd8805a4	-0.06641701
144	0x3d60d3de	0.054889552
145	0x3bd2b413	0.006430158
146	0x3e6f6eb8	0.2338208
147	0xbdd246a8	-0.10267383
148	0x3c1ee911	0.009699122
149	0x3b3bf77f	0.0028681455
150	0x3d0f5dac	0.03500144
151	0xbdf2e796	-0.11860578
152	0x3b7d822b	0.0038682322
153	0xbac6b7bc	-0.0015160958
154	0xbe06a08d	-0.13147183
155	0x3dde3076	0.10849087
156	0x3dd7f61a	0.10544987
157	0x3afec2be	0.00194367
158	0xbd73f136	-0.05955621
159	0x3dc2efc3	0.09518387
160	0xbabd41d8	-0.0014439179
161	0xbc205429	-0.00978569
162	0x3b1d0c6d	0.0023963705
163	0x3aa9ed3d	0.0012964379
164	0xbaa46acd	-0.0012544036
165	0xb9275185	-0.0001595673
166	0xbbe7546f	-0.007059626
167	0xbc163b4d	-0.009169412
168	0xbb0a8e2b	-0.0021141868
169	0x3a9c96e8	0.0011946829
170	0xbe1ff86c	-0.15622109
171	0x3def651c	0.11689207
172	0x3de507a6	0.111830994
173	0xbbbfd7d6	-0.005854587
174	0xbbf7f2a3	-0.0075667663
175	0x3dcc9f82	0.09991361
176	0x3d569b05	0.052393932
177	0x3d60121f	0.05470478
178	0x3e788191	0.24268176
179	0xbe03ed6c	-0.12883538
180	0xbba62c48	-0.0050711967
181	0x3a2bef52	0.0006558794
182	0x3d544730	0.051825702
183	0xbd94d560	-0.072672606
184	0xbac274e0	-0.0014835857
185	0xba8e844b	-0.0010873167
186	0x39d1eda0	0.0004004063
187	0x3b001626	0.0019544451
188	0xbc923157	-0.017845793
189	0xbbb0dbb9	-0.0053972867
190	0xbb3423de	-0.0027487199
191	0xbb7c7255	-0.0038520296
192	0x3d8ab0a5	0.067719735
193	0x3d1dbd42	0.03851057
194	0x3e773ace	0.24143526
195	0xbe1972e2	-0.1498523
196	0xbd3871ea	-0.045030512
197	0x3ba283c7	0.0049595567
198	0x3d0f8fc2	0.035049208
199	0xbdc088b6	-0.094010755
200	0x3ce448db	0.027866771
201	0xbb5f8b29	-0.0034110046
202	0x3e8c05a5	0.27348056
203	0xbe823f46	-0.254389
204	0x3c40e877	0.011774174
205	0xbbfa13ff	-0.0076317783
206	0x3c5b227d	0.013374922
207	0xbe691c8d	-0.22764798
208	0xbca0f5f0	-0.019648522
209	0xbbe03d84	-0.0068432707
210	0xbe1359cd	-0.14389725
211	0x3df1ef62	0.11813237
212	0x3d3367d4	0.04380019
213	0x3bceb86a	0.006308605
214	0xbe9e4316	-0.30910558
215	0x3db59396	0.088660404
216	0x3d575af3	0.05257697
217	0x3c86935d	0.01642769
218	0x3e714536	0.23561558
219	0xbdf5eaf8	-0.12007707
220	0x3d6bcb1a	0.05756674
221	0x3957d24d	0.00020582341
222	0x3d04066f	0.032232698
223	0xbdb77d5a	-0.08959456
224	0xbc72cea2	-0.014819773
225	0xbc72e95d	-0.014826146
226	0xbc8821f8	-0.01661776
227	0xbc7a36e5	-0.015271877
228	0xbbf97fbc	-0.007614104
229	0xbc45d3ce	-0.012074424
230	0xbc541806	-0.012945181
231	0xbc2c6b4a	-0.010523627
232	0xbb144eea	-0.0022630044
233	0xbcf76b8e	-0.030202653
234	0xbdf1b433	-0.118019484
235	0x3e018599	0.1264862
236	0x3daa7973	0.08323946
237	0x3ba0125d	0.0048850016
238	0xbe460689	-0.1933843
239	0x3db62df9	0.08895487
240	0x3d2cf11a	0.04222212
241	0x3d509994	0.050927714
242	0x3e7172b0	0.23578906
243	0xbe0852ae	-0.1331279
244	0xbca32820	-0.019916594
245	0x39dc3208	0.00041998946
246	0x3d475280	0.048662663
247	0xbd826c30	-0.063682914
248	0x3d1436f4	0.03618522
249	0xbbae7385	-0.0053238296
250	0x3ea9827b	0.3310736
251	0xbe5d8323	-0.21632056
252	0x3c9345c8	0.01797761
253	0xba8826e1	-0.0010387563
254	0x3c189315	0.009312411
255	0xbe680d5a	-0.22661343

edge_embedding_layer.edge_feature_NN.weight f4 [64, 64]
0	0x3d4a3a4c	0.049372002
1	0x3bdaa9ff	0.006673097
2	0x3d350282	0.044191845
3	0x3d708867	0.058723833
4	0x3c229df9	0.009925359
5	0x3c06994c	0.00821526
6	0xbcb6bda3	-0.022307223
7	0xbd68125f	-0.056658145
8	0xbcf64367	-0.030061437
9	0xbcbb3443	-0.022852069
10	0xbd1a139f	-0.03761637
11	0x3aa17491	0.0012318065
12	0xbbb9a833	-0.005665803
13	0x3d9811a7	0.07425242
14	0xbd2ae3f4	-0.0417213
15	0x3d786d15	0.060650904
16	0xbcef0b95	-0.029180327
17	0x3d037880	0.03209734
18	0x3d15ffa6	0.03662076
19	0xbc072d1d	-0.008250502
20	0x38e5ccfb	0.000109577515
21	0xbd0d2902	-0.034462936
22	0x3d2c929c	0.042132005
23	0x3b299970	0.002587881
24	0x3d2ed19d	0.04268037
25	0x3e00f806	0.12594613
26	0xbd7fdfd6	-0.062469326
27	0x3d0d8f5f	0.034560557
28	0xbb0ea57f	-0.0021766124
29	0xbd5717f3	-0.052513074
30	0x3d38f78b	0.04515795
31	0x3e032c9c	0.12809986
32	0xbd1a9dfe	-0.03774833
33	0xbd15e7ad	-0.036597896
34	0x3d98d79f	0.074630015
35	0xb927a5aa	-0.00015988076
36	0x3d373497	0.044727888
37	0xbd0b77a9	-0.034049664
38	0xbd470fa2	-0.048598893
39	0x3d7a8fe7	0.061172392
40	0xbd1b93b6	-0.037982665
41	0x3d64e8d7	0.055886116
42	0x3cae0efe	0.021247383
43	0x3d8f9779	0.07011313
44	0x3b5e7067	0.0033941509
45	0xbcf4ea85	-0.029896984
46	0xbd14e8c4	-0.036354795
47	0xbb132378	-0.002245156
48	0x3b0960f6	0.0020962334
49	0xbd46640c	-0.048435256
50	0x3c8e4d97	0.017370982
51	0xbc29b62f	-0.010358377
52	0x3ccf3ad6	0.02529661
53	0x3c54a5f9	0.012979024
54	0xbd3bde41	-0.045866255
55	0x3d038d25	0.032117028
56	0x3d9672f8	0.07346147
57	0x3df406a8	0.11915332
58	0x3c182ddc	0.0092882775
59	0x3c9b18cd	0.018932724
60	0x3d8686b7	0.065686636
61	0x3daac52c	0.08338389
62	0x3cd266ee	0.025683846
63	0x3d5a69ff	0.053323742
64	0xbc303ff4	-0.010757435
65	0xbc05461d	-0.008134392
66	0x3acbe4e5	0.0015555887
67	0x3c06c60e	0.008225931
68	0x3afbc13b	0.0019207367
69	0x3b0dc229	0.002163062
70	0x3bf8190b	0.0075713447
71	0x3c337d69	0.010955193
72	0xbbf16fc0	-0.007368058
73	0xbbc3e7bd	-0.005978553
74	0xbc2529b4	-0.010080744
75	0x3a0b30f0	0.00053097215
76	0x3c61c0a9	0.013778844
77	0x3bcc8d7b	0.0062424517
78	0x3b9f911a	0.0048695924
79	0xbc645e79	-0.01393854
80	0x3ab47b46	0.0013769649
81	0x3bfcbd0f	0.007712967
82	0x3c04536f	0.008076533
83	0xbafd8b29	-0.0019343841
84	0xbc1671cf	-0.0091824075
85	0xbc1403b8	-0.00903409
86	0xbb964366	-0.0045856712
87	0xbcca8800	-0.024723053
88	0x3bf85e2f	0.007579587
89	0x3c4ed60e	0.012624277
90	0xbbc5f24e	-0.006040848
91	0xbb3c7db2	-0.0028761444
92	0x3c4cccdb	0.012500013
93	0xbc9edcef	-0.019392459
94	0x3bbfb2ea	0.0058501856
95	0x3b97d3f0	0.004633419
96	0xb86cf069	-5.6490684e-05
97	0xbc7fc71e	-0.015611438
98	0xbc2defb4	-0.010616232
99	0xbb45fb0a	-0.0030209445
100	0xbcbaf724	-0.022822924
101	0x3b9752c7	0.004618022
102	0xbbac1fcd	-0.0052528144
103	0x3c1577d6	0.009122809
104	0x3b1de5fe	0.0024093385
105	0x3c5081b3	0.012726235
106	0x3bc7859c	0.0060889255
107	0x3ba31bb7	0.004977669
108	0xbb22c8db	-0.0024838957
109	0xbc4a5853	-0.01235016
110	0xba183dd0	-0.00058075506
111	0x3c88aab7	0.016682966
112	0x3c5be4bb	0.013421233
113	0x3a4147f3	0.0007373087
114	0x3bb4e0f0	0.0055199787
115	0x3b6370ea	0.0034704753
116	0xbcc0dd45	-0.02354301
117	0xbc486df4	-0.012233246
118	0x3b85bdde	0.004081472
119	0xbc9396b4	-0.018016197
120	0xbc0d2da8	-0.008616842
121	0xbbdc8050	-0.006729163
122	0xbbaee179	-0.005336937
123	0x3a03acbd	0.00050229934
124	0x3ba8e8be	0.005154698
125	0xbb335d6f	-0.0027368923
126	0x3c135311	0.008991973
127	0xbce6a52f	-0.028154938
128	0xbca75613	-0.020426786
129	0xbbd022fb	-0.0063518262
130	0x3ae6b205	0.0017600661
131	0xbc02eb94	-0.0079907365
132	0xbc3e3d2e	-0.011611266
133	0xbb84ebc2	-0.004056425
134	0x3d32e184	0.0436721
135	0x3cc891c0	0.024483562
136	0x3d4ea2d4	0.050448254
137	0x3cbaaa90	0.022786409
138	0x3ca46db1	0.020071836
139	0x3b10207a	0.0021992014
140	0xbafb33f0	-0.0019165259
141	0xbd34b726	-0.044119976
142	0x3c83c15f	0.016083417
143	0xbd0cc1a4	-0.034364358
144	0x3bfd14a8	0.0077234097
145	0xbd2a99ba	-0.04165051
146	0xbd3114ab	-0.0432326
147	0x3cd68840	0.026188016
148	0xbcc653fd	-0.02420997
149	0x3c961f4a	0.018325467
150	0xbce6087a	-0.028080214
151	0x3b86e627	0.0041167918
152	0xbc8f9745	-0.017528186
153	0xbdf6359b	-0.12021943
154	0x3d05d9d1	0.03267843
155	0xbdd21f10	-0.10259831
156	0xbbf69535	-0.007525111
157	0x3cd59ab2	0.026074741
158	0xbc8299f7	-0.015942557
159	0xbe122694	-0.14272529
160	0x3d1f367f	0.03887033
161	0x3cfff3bc	0.031244151
162	0xb9de090e	-0.00042349886
163	0x3d1b3687	0.0378938
164	0xbc27b9a7	-0.010237134
165	0x3d084816	0.03327187
166	0x3c812ce3	0.015768474
167	0xbd107ac0	-0.035273314
168	0x3d482e0a	0.04887203
169	0xbd772a22	-0.060342915
170	0xbcf71637	-0.03016196
171	0xbce6d2fc	-0.028176777
172	0xbb48607b	-0.0030575085
173	0x3d2de998	0.0424591
174	0x3d39109e	0.045181863
175	0x3c384fd8	0.011249505
176	0xbc58d26b	-0.013233761
177	0x3cd54d70	0.026037902
178	0xb90d89bd	-0.0001349812
179	0x3c36160b	0.011113654
180	0xbca040d2	-0.019562159
181	0x3acd6703	0.0015670959
182	0x3d34a88f	0.044106063
183	0xbd891582	-0.066935554
184	0xbd94338d	-0.07236395
185	0xbe3cbc8a	-0.18431297
186	0x3b9e3c1b	0.0048289425
187	0x3c1a18e2	0.009405347
188	0xbc87f86d	-0.01659795
189	0xbc819271	-0.015816899
190	0xbd506098	-0.05087337
191	0xbc6fe3e6	-0.014641738
192	0xbc64669c	-0.01394048
193	0xbbe11e57	-0.006870072
194	0xbc1844c6	-0.009293741
195	0x3c0bc6d4	0.008531291
196	0x3b5b1fe5	0.0033435759
197	0xbc06ab8d	-0.008219612
198	0xbc22d12a	-0.009937564
199	0x35f1eb25	1.8024335e-06
200	0x3bd59b52	0.0065187598
201	0xbacde4c1	-0.0015708433
202	0x3c0ae14f	0.008476569
203	0xbbf11adc	-0.007357938
204	0xbb971dd7	-0.0046117115
205	0x3b13a07e	0.002252608
206	0xbc10207d	-0.008796808
207	0xbb18d0e3	-0.0023317866
208	0xbc8ee465	-0.017442891
209	0x3bc7cc73	0.0060973703
210	0xbc816c24	-0.015798636
211	0xbba69a27	-0.0050842944
212	0x3b87c0a2	0.0041428367
213	0xbb974283	-0.004616083
214	0xb88678ba	-6.412105e-05
215	0xbb1cd23a	-0.0023929016
216	0x3b24f554	0.002517064
217	0xbc288a92	-0.010286944
218	0xbb48f6d8	-0.0030664708
219	0x3c013fed	0.007888776
220	0x3c3181f8	0.01083421
221	0xba960320	-0.0011445023
222	0xbb307756	-0.0026926599
223	0xba8412e0	-0.0010076426
224	0xbc858e08	-0.016303077
225	0x3bea81c1	0.007156581
226	0x3a88d0fb	0.0010438258
227	0x39478a4a	0.00019029636
228	0x3a6bbbd8	0.00089925295
229	0xbbb77335	-0.0055984505
230	0xbbb8831d	-0.0056308643
231	0x390ac7cf	0.0001323514
232	0xbbb30f06	-0.0054644374
233	0xbb89bf46	-0.00420371
234	0x390305e2	0.00012495325
235	0xb95c5f24	-0.00021016278
236	0x3c8fa7c0	0.017536044
237	0x3c8b199f	0.01697999
238	0xbc5d5942	-0.01351005
239	0x3bbb3935	0.0057136067
240	0xba249bc1	-0.00062793127
241	0xb9a491a7	-0.00031389037
242	0x3b473395	0.0030395736
243	0xbc5a2fdb	-0.013317074
244	0xba1649a6	-0.00057330204
245	0x3bb355bd	0.0054728673
246	0xbacdc1cb	-0.0015698014
247	0xbbfbfa05	-0.0076897168
248	0x3c57cca2	0.013171347
249	0xbc5dbc3b	-0.013533647
250	0xb9bc8578	-0.00035957596
251	0xba22f04f	-0.00062156183
252	0xbb065416	-0.0020496896
253	0xbc0deb9f	-0.0086621335
254	0x3bd47b37	0.006484415
255	0xbb9e6e9d	-0.0048349635

update_node_embedding_layer.0.message_layer.weight f4 [64, 128]
0	0xbc9c22c1	-0.01905954
1	0x3ae57d81	0.0017508717
2	0xbc67072d	-0.014100832
3	0xbb8a4754	-0.0042199288
4	0xbc92801a	-0.01788335
5	0x3c3a54a3	0.011372718
6	0x3bfd2931	0.0077258577
7	0x3b6a8d6e	0.0035789865
8	0xbc0ad4cf	-0.008473589
9	0xbc9c8d65	-0.01911039
10	0x3bd03c38	0.006354835
11	0xbcaa1045	-0.020759711
12	0xbc88d541	-0.01670325
13	0xbc5f2453	-0.0136195
14	0x3b215f90	0.002462361
15	0xba78c1cb	-0.00094893266
16	0xbc86d11f	-0.016457139
17	0xbb73953f	-0.0037167815
18	0xbb63882b	-0.0034718614
19	0x3ba99200	0.0051748753
20	0xbc40843b	-0.011750276
21	0xbccf5698	-0.025309846
22	0xbc3ec934	-0.01164465
23	0xbc3f5a57	-0.011679254
24	0x3c8ceebc	0.017203681
25	0x3c1858b3	0.009298491
26	0xbbdf6335	-0.0068172463
27	0xbb855148	-0.0040685274
28	0xbbc5af98	-0.0060328953
29	0xbc9afbe1	-0.018918933
30	0xbc0d20ff	-0.008613824
31	0x3c3d8da5	0.011569415
32	0xbaf72e49	-0.0018858399
33	0x3c07ff23	0.008300575
34	0x3b7578e3	0.0037456087
35	0xbba1efb0	-0.004941903
36	0xbbd959ec	-0.006633034
37	0xbb9c9303	-0.0047782674
38	0xbc9c59e0	-0.019085824
39	0xbc4e8239	-0.01260429
40	0xbbb2d960	-0.005458042
41	0x3b9f3470	0.004858546
42	0xbca0574c	-0.019572876
43	0xbc7b94b4	-0.015355278
44	0x3b732be2	0.0037105014
45	0x3c1dfd00	0.009642839
46	0xbc429fce	-0.011878921
47	0xb714f500	-8.878531e-06
48	0xbc234eeb	-0.009967546
49	0x3c1b6386	0.009484177
50	0xbb94e507	-0.0045439037
51	0xbbb05c0e	-0.0053820675
52	0xb948c84c	-0.00019148103
53	0x3b81be1a	0.0039594295
54	0xbcb4fc29	-0.022092896
55	0x3c2d8026	0.010589635
56	0xbbede422	-0.0072598616
57	0xbc2384cf	-0.0099803945
58	0xbc4b9017	-0.01242449
59	0xbbad9127	-0.0052968445
60	0xba5305d9	-0.00080498826
61	0x3c975d96	0.018477242
62	0x3c023bdf	0.007948845
63	0xbb1bffe5	-0.0023803648
64	0xbbce0970	-0.006287746
65	0xbb1f3f76	-0.00242993
66	0x3c2bc9a9	0.010485091
67	0xbc4a63bd	-0.012352881
68	0xba8a72ca	-0.0010562774
69	0xba2d4be5	-0.00066107354
70	0xbc697fcb	-0.01425166
71	0x3b94909b	0.00453384
72	0xbc11708e	-0.008876933
73	0xbb00e923	-0.001967021
74	0xbc0f88f2	-0.008760678
75	0x3c60e5df	0.013726681
76	0xbbd9b47f	-0.0066438313
77	0x3b8eb015	0.0043544867
78	0x3ae442e3	0.0017414953
79	0x3ca7206d	0.020401204
80	0xbb8d519f	-0.0043127085
81	0x3a04d92d	0.0005067762
82	0xbaa54a8c	-0.0012610718
83	0xbbac23d7	-0.005253296
84	0xbbd8ceb0	-0.006616436
85	0x3a544b39	0.0008098367
86	0xbc0b59b4	-0.008505274
87	0x3c6209b5	0.01379626
88	0x3b3ee9b5	0.0029131
89	0x3a97ac0d	0.0011571661
90	0x3a7abd20	0.0009564925
91	0x3c5eb829	0.013593712
92	0xbc83cc1a	-0.016088534
93	0xbc6453a1	-0.013935954
94	0xbbbe14a8	-0.0058008023
95	0x3ca5b5f8	0.020228371
96	0x3c38cd99	0.011279487
97	0xbc97e2b4	-0.018540718
98	0x3c629dca	0.013831565
99	0xbaacfb45	-0.0013197443
100	0x387dc87b	6.0506612e-05
101	0xbb0b3c1e	-0.002124555
102	0xbc177049	-0.009243079
103	0x3cc843ae	0.024446335
104	0x3b1c2ff5	0.0023832296
105	0xbb3391ec	-0.0027400209
106	0x3b7436c0	0.003726408
107	0x3b975742	0.0046185562
108	0xbc413f67	-0.011794901
109	0xbcc29778	-0.023753867
110	0x3becdd1b	0.0072285063
111	0xbbbac510	-0.005699761
112	0xbc21deea	-0.009879807
113	0x3c729569	0.01480613
114	0xbbdc6f53	-0.006727138
115	0x3c08b937	0.00834494
116	0x3aed3f71	0.0018100572
117	0x3ae5bb54	0.0017527142
118	0x3bdd1c90	0.0067477897
119	0xbc39376b	-0.011304717
120	0x3b93a6bb	0.00450596
121	0x3c065456	0.008198818
122	0xbc000146	-0.007812804
123	0xbc5c405c	-0.013443079
124	0xbb38e372	-0.002821174
125	0x3ad2f1cf	0.0016093793
126	0x3b82fe9a	0.003997636
127	0xbb6c5618	-0.0036062058
128	0xbb8ae97b	-0.004239259
129	0xbba48571	-0.0050207903
130	0xbc66e1b2	-0.014091896
131	0x3bf7c231	0.007560991
132	0xbb9aafee	-0.0047206795
133	0x3c7700d2	0.015075879
134	0x3ab2c5a0	0.0013639219
135	0xbc9170be	-0.017753955
136	0x3be94092	0.007118293
137	0x3c9c2cda	0.019064356
138	0x3befaf15	0.0073145726
139	0xba1adb53	-0.00059073156
140	0x3c0200bb	0.0079347445
141	0xbabcc77c	-0.0014402713
142	0x3b6d0db7	0.0036171505
143	0x3c296c69	0.010340788
144	0xbcd4ca28	-0.025975302
145	0x3c28fd8f	0.010314359
146	0x3a37a8c3	0.00070060435
147	0x3c31865f	0.010835259
148	0x3be89af8	0.007098552
149	0x3c011793	0.007879156
150	0x3c3d7faf	0.011566087
151	0xbbc0c94c	-0.0058833715
152	0xbb0f8de3	-0.002190464
153	0xbc2d31a6	-0.010570919
154	0x3c3bd5f0	0.011464581
155	0x3c365618	0.011128925
156	0x3c02fd33	0.007994938
157	0xbc7a9b15	-0.0152957635
158	0x3c3f93fd	0.011692998
159	0xbbceeb41	-0.0063146655
160	0xba71bcbd	-0.00092215446
161	0x3a71eb05	0.0009228441
162	0xbb816560	-0.0039488524
163	0x3b5a4b35	0.0033308987
164	0xbc3316ef	-0.010930761
165	0x3b1346b3	0.002247256
166	0x3c6ecece	0.014575673
167	0xbc08a402	-0.008339884
168	0x3972360c	0.00023099052
169	0x3b7ad1a6	0.0038271933
170	0x3c0d0a42	0.008608403
171	0xbc720a2b	-0.014772932
172	0xbb7465d7	-0.0037292147
173	0xbae71472	-0.0017629995
174	0x3c85ab45	0.01631702
175	0xb85d266a	-5.2726282e-05
176	0xbba5a0aa	-0.005054553
177	0xba61e5e7	-0.0008617327
178	0x3c8d59eb	0.01725479
179	0xbc0c0293	-0.008545536
180	0x3c32cadb	0.010912622
181	0xbc54ffd5	-0.013000448
182	0x3c78080e	0.015138639
183	0x3a62adc5	0.00086471095
184	0xbb21a5cb	-0.002466547
185	0xbc591808	-0.013250358
186	0x3c626065	0.013816928
187	0xbc849e5a	-0.01618879
188	0x3b3300b0	0.0027313642
189	0x3b8fcd01	0.004388452
190	0xba9fe55d	-0.0012199093
191	0x3b17bdc0	0.0023153871
192	0x3b23ba02	0.0024982695
193	0xba04de7e	-0.00050685543
194	0xbc58fdd2	-0.013244109
195	0xbbefd5f3	-0.007319206
196	0xbbb420df	-0.0054970826
197	0x3c1813fc	0.009282108
198	0x3b05d84a	0.0020423108
199	0xbb121e88	-0.002229603
200	0xba66dac4	-0.00088064023
201	0x3b06d12d	0.0020571456
202	0x39c63149	0.00037802223
203	0xbc518e00	-0.012790203
204	0x3c5bc1ac	0.013412874
205	0x3b876f7e	0.004133164
206	0xbba36a20	-0.0049870163
207	0xbb9f95a7	-0.004870135
208	0xbc9620e8	-0.018326238
209	0x3c1c70c3	0.009548369
210	0xbc32fc73	-0.010924446
211	0xbb7fdebc	-0.0039042672
212	0x3a491629	0.00076708436
213	0x3c4d5734	0.012532998
214	0x3a3c0c21	0.0007173438
215	0xbc5f4744	-0.013627831
216	0xbb0d041c	-0.0021517342
217	0xb9975fa2	-0.00028872216
218	0xbaf30a70	-0.0018542539
219	0xbc137c05	-0.0090017365
220	0x3c1d68ee	0.009607537
221	0x3b6dacff	0.0036266444
222	0xbbb78be1	-0.0056013917
223	0xba5dc303	-0.000845954
224	0xba93e24e	-0.0011282654
225	0xbbd94612	-0.0066306675
226	0xbc0afb85	-0.0084828185
227	0xb8f1a10a	-0.000115217714
228	0xbb2bd66a	-0.002622033
229	0xbb195592	-0.002339695
230	0xbc0342e5	-0.008011554
231	0xbc8d8886	-0.017277014
232	0x3b608d73	0.0034263998
233	0xbc643bbe	-0.013930259
234	0x3b99ef93	0.004697749
235	0xbc6551b3	-0.013996529
236	0xbbf5dc17	-0.0075030434
237	0x3b0b16da	0.0021223337
238	0xbc977115	-0.018486539
239	0xbc3c719e	-0.011501698
240	0x3bbe3610	0.0058047846
241	0x3b37c309	0.0028039834
242	0xb9ca69e5	-0.0003860734
243	0x3c74daa9	0.014944711
244	0x3bedd337	0.007257845
245	0x3c4e369c	0.012586262
246	0x3c5c97f2	0.013463961
247	0xbc9f7564	-0.019465156
248	0xbb1c54da	-0.0023854286
249	0x3b4f5161	0.00316342
250	0xbc549177	-0.012974135
251	0x3c2d07b2	0.010560917
252	0xbbfef110	-0.0077802017
253	0x3b2d09a9	0.0026403463
254	0x3c8e419e	0.017365273
255	0xbbb9d69d	-0.005671336

update_node_embedding_layer.0.update_layer.weight f4 [64, 128]
0	0x3bf605d7	0.0075080204
1	0x3beb7497	0.0071855295
2	0x3a62f235	0.00086573075
3	0xbba921c8	-0.0051614977
4	0x3bf3be54	0.0074384604
5	0xbc442742	-0.01197225
6	0xbbb97a0d	-0.0056603015
7	0xba9ccde3	-0.0011963214
8	0x3bda8449	0.0066686017
9	0x3c6c7e8f	0.014434471
10	0xbc3dfb84	-0.0115956105
11	0xbada4d45	-0.0016655108
12	0xbca53127	-0.02016504
13	0xba2b5b43	-0.00065367314
14	0xbb06cdd7	-0.0020569467
15	0xbc04b876	-0.00810062
16	0x3c4977b5	0.012296607
17	0x39cc102d	0.00038921964
18	0xbc65cbb0	-0.014025614
19	0xbb518af1	-0.0031973685
20	0xba4a36f4	-0.0007713877
21	0xbc1f86c5	-0.009736721
22	0xbc17adb8	-0.009257726
23	0xbb8b927b	-0.004259405
24	0xbc235d57	-0.009970984
25	0xba25086b	-0.0006295505
26	0xbc45c3b2	-0.012070583
27	0xba300e6e	-0.00067160174
28	0x3af32bb9	0.0018552459
29	0xbc2707ed	-0.010194761
30	0x3c3027df	0.0107516935
31	0xbbc986ba	-0.006150094
32	0xbca5f789	-0.020259636
33	0xbd09ad1d	-0.03361236
34	0xbc10f8cd	-0.008848381
35	0x3bcdcc8f	0.006280489
36	0x3c56946c	0.01309691
37	0x390a9601	0.00013216586
38	0xbc062897	-0.008188388
39	0x3c8cd89e	0.017193135
40	0x3c29734d	0.010342431
41	0xbb8fb0c4	-0.004385086
42	0x387dfd6c	6.0555918e-05
43	0xbc0c52e5	-0.0085646855
44	0xbbf162e8	-0.007366527
45	0x3c671010	0.014102951
46	0xbcc74ff0	-0.02433011
47	0x3b9c75b4	0.0047747735
48	0xbc6f6ecf	-0.014613821
49	0x3b94bb7e	0.0045389524
50	0xbb914f9b	-0.0044345385
51	0xbc11c791	-0.008897678
52	0xbc3143d6	-0.010819396
53	0xbbee4ddc	-0.007272465
54	0xbb95937c	-0.0045647006
55	0x39a3292e	0.00031120464
56	0xbae6172b	-0.0017554512
57	0xbc537a40	-0.012907565
58	0x3ba7988a	0.0051146196
59	0xbbde83be	-0.0067906072
60	0xbaffe9d4	-0.0019524642
61	0xbbf41a97	-0.007449459
62	0x3ca45b1e	0.02006298
63	0x396b4b8d	0.00022439491
64	0x3c4bffcc	0.012451123
65	0x3b80bd43	0.0039288118
66	0x3c126bbc	0.008936819
67	0x3b5a3bff	0.003329992
68	0xbb8bb7e9	-0.004263867
69	0xbba25b70	-0.004954748
70	0x3c52af60	0.0128591955
71	0xbb678c76	-0.0035331524
72	0xbbd3a3d8	-0.0064587407
73	0x3be4f30c	0.0069869813
74	0x3bef0170	0.0072938725
75	0xba428508	-0.0007420336
76	0x3c84eb03	0.016225344
77	0x3abd19ae	0.0014427209
78	0xbbcfb2c7	-0.0063384506
79	0x3b67e77d	0.003538578
80	0x3c8ac9bb	0.016941896
81	0xbc283cba	-0.010268385
82	0x3be60133	0.007019186
83	0x3a9f1042	0.0012135583
84	0x3c203a9e	0.0097796
85	0xbc34828f	-0.011017456
86	0xbc10ffd1	-0.008850054
87	0x3b1b513a	0.0023699538
88	0xbc1ec635	-0.009690811
89	0xbc4752e8	-0.0121657625
90	0x3cabce5c	0.020972423
91	0x3c7a7d15	0.015288611
92	0x3a8c76e1	0.0010716581
93	0x3c88d9d7	0.016705437
94	0xbb37c321	-0.002803989
95	0xbb60c4e1	-0.0034297036
96	0x3b5b3799	0.0033449887
97	0x3c48cdde	0.012256114
98	0x3aa02a8a	0.0012219709
99	0xbc2aefde	-0.010433165
100	0xbc8025ad	-0.015642965
101	0xbbad09da	-0.0052807154
102	0xbc3bbae8	-0.011458136
103	0xbba8adcd	-0.005147672
104	0xbc4c2417	-0.012459776
105	0x3c7b66a2	0.015344294
106	0xbc791a9a	-0.015204096
107	0xbc29fde0	-0.01037547
108	0xbac78e43	-0.0015224892
109	0xbcdec525	-0.027193615
110	0xbc9a6dc7	-0.018851174
111	0xbbc1b3b6	-0.005911316
112	0xbb786cc5	-0.0037906629
113	0x3b316a23	0.002707132
114	0xbbb7a87b	-0.0056048012
115	0xbc161b64	-0.009161804
116	0xbc18fced	-0.009337646
117	0xbc41d8c5	-0.011831467
118	0xbc20c662	-0.009812923
119	0x3b8a76a9	0.004225571
120	0xbb109f8b	-0.0022067751
121	0x3bb9c110	0.005668767
122	0x3cd234bb	0.02565991
123	0xbcbd9b09	-0.023145216
124	0xbbe2c894	-0.0069208834
125	0x3b5d8d15	0.0033806015
126	0xbb226ba8	-0.0024783406
127	0x3c760013	0.015014666
128	0x3d614ffb	0.055007916
129	0x3c9e73eb	0.019342383
130	0x3b35a879	0.0027718826
131	0x3ba478f0	0.0050192997
132	0xbbadeb00	-0.005307555
133	0xbbaef7e4	-0.0053396095
134	0xbd9b4fe1	-0.07583595
135	0xbb9dfd16	-0.00482143
136	0x3d1c5092	0.038162775
137	0xbd13e700	-0.03610897
138	0x3cc9eb8f	0.024648456
139	0x3d2c3a1d	0.04204761
140	0xbd0c702e	-0.03428667
141	0x3ca20570	0.019777983
142	0x3d040f21	0.03224099
143	0xbd5cbab2	-0.053888984
144	0x3ce21479	0.027597653
145	0xbb163692	-0.002292071
146	0x3d2727a6	0.040809296
147	0xbd602705	-0.054724712
148	0xbd00770c	-0.031363532
149	0x3d17364c	0.036917016
150	0x3c42ae61	0.0118823955
151	0x3d12643f	0.035740133
152	0x3b86fbd4	0.0041193757
153	0xbb8302ac	-0.0039981212
154	0xbc4c561b	-0.012471701
155	0x3bf57dec	0.0074918177
156	0xbcb782b9	-0.0224012
157	0x3cc96285	0.02458311
158	0x3da07573	0.07834902
159	0x3caa6b57	0.020803137
160	0xbc516d69	-0.012782433
161	0xbe1992a0	-0.14997339
162	0xbd00f44c	-0.03148298
163	0x3c8452b1	0.016152712
164	0x3d2c4a43	0.04206301
165	0x3d7929b0	0.060830772
166	0x3dc73e90	0.0972873
167	0xbcb5bc10	-0.022184402
168	0x3ca0d5ed	0.019633258
169	0x3983f395	0.0002516775
170	0x3d7f7f68	0.062377363
171	0x3cb79e68	0.022414401
172	0xbc9b52b3	-0.018960332
173	0xbbc36d41	-0.005963952
174	0xbd78a349	-0.060702596
175	0x3ba7bfbc	0.005119292
176	0xbcd8be70	-0.026457995
177	0x3d3500a6	0.04419007
178	0xbd086fb3	-0.03330965
179	0xbe0233cb	-0.1271507
180	0x3d6eef4e	0.058333687
181	0x3d2677c9	0.04064158
182	0x3d19f556	0.037587486
183	0xbd17b78e	-0.037040286
184	0xbc532f28	-0.012889661
185	0x3d030566	0.03198757
186	0xbbd924c1	-0.006626696
187	0x3ca022f8	0.019547924
188	0xbd797287	-0.060900237
189	0x3d1e882d	0.038704086
190	0x3d62a88a	0.055336513
191	0x3a87dea1	0.0010366031
192	0xbb5fe0b6	-0.0034161038
193	0x3c1ccb0f	0.009569897
194	0x3cc7c780	0.024387121
195	0x3a1eba21	0.0006054957
196	0xbcced30f	-0.025247125
197	0xbc079711	-0.008275763
198	0x3b35cace	0.002773929
199	0xbc42da5e	-0.011892883
200	0x3b9d6bd7	0.0048041153
201	0xbbc74b13	-0.0060819476
202	0xbbeac1e8	-0.0071642287
203	0xba3ceb34	-0.0007206679
204	0xbc1a6feb	-0.009426097
205	0x3c463538	0.012097649
206	0x3bffe6d2	0.0078094983
207	0xbd80d7e8	-0.06291181
208	0xbcba3139	-0.02272855
209	0x3b92d2c5	0.004480692
210	0xbc95a9d5	-0.018269459
211	0xb90f13fc	-0.00013644987
212	0x3c0c6000	0.00856781
213	0x3b2593ea	0.0025265166
214	0x3d091d1d	0.03347503
215	0xbbf53fd0	-0.0074844137
216	0xbc9fe31d	-0.019517476
217	0xbc8fc198	-0.017548367
218	0x3b68e999	0.0035539626
219	0x3aa0f049	0.0012278642
220	0x3bff6dbe	0.0077950647
221	0xbbe9108b	-0.007112568
222	0xbc932397	-0.017961306
223	0x3c4d88ed	0.012544853
224	0x3c02c2f5	0.007981052
225	0xbbf53f82	-0.0074843774
226	0xbd8b1da8	-0.06792766
227	0xbd740be3	-0.05958165
228	0xbb310193	-0.0027008995
229	0x3c7a74ed	0.015286666
230	0x3ace38d7	0.0015733492
231	0x3d3c3a1d	0.04595386
232	0x3c06073b	0.008180435
233	0xbba06bca	-0.004895662
234	0x3ce450b6	0.027870517
235	0x3c1ba33a	0.009499365
236	0xbdb53ae6	-0.088491246
237	0xbc44d047	-0.012012548
238	0xbad1e34f	-0.0016013178
239	0x3c0200f5	0.0079347985
240	0x3a8aa373	0.0010577276
241	0xbc946426	-0.01811416
242	0xbcae2293	-0.02125672
243	0xbdbb6f94	-0.09152141
244	0x3c5a61cd	0.013328982
245	0xbc587c14	-0.013213176
246	0x3ba69613	0.005083808
247	0x3afba275	0.0019198196
248	0x3c4de29e	0.012566237
249	0x3c2611c4	0.010136072
250	0xbc5cf29c	-0.013485577
251	0x3c0317d3	0.008001286
252	0xbbea5189	-0.007150833
253	0xbc33bdf1	-0.0109705785
254	0xbc658383	-0.014008406
255	0xbc0c7a69	-0.008574107

update_node_embedding_layer.1.message_layer.weight f4 [64, 128]
0	0xbb20d31e	-0.0024539898
1	0xbcfa70e4	-0.030571409
2	0x3c9032f2	0.017602418
3	0x3e43af3f	0.1910982
4	0xbbfb7ab8	-0.0076745413
5	0x3b035c19	0.0020043908
6	0xbcf97c2c	-0.030454718
7	0xbcb4ef6f	-0.022086827
8	0xbc950ef3	-0.018195605
9	0xbd056039	-0.03256247
10	0xbcf480c1	-0.02984655
11	0xbcde8095	-0.027160922
12	0xbd3898e1	-0.04506767
13	0xbcd20629	-0.025637703
14	0x3b56b6d7	0.003276279
15	0x3d3998c3	0.0453117
16	0x3e658f19	0.22417869
17	0xbc26d350	-0.010182217
18	0x3e488d29	0.19585098
19	0xbcde3cce	-0.027128603
20	0x3d8c8d74	0.068629175
21	0xbca7c2df	-0.020478664
22	0xbcf054a1	-0.02933723
23	0xbd34a2a5	-0.044100422
24	0xbcd6294d	-0.02614274
25	0x3b5a7c86	0.0033338382
26	0xbb039b7f	-0.0020081697
27	0xbcfb7fc0	-0.030700564
28	0x3c738441	0.014863075
29	0x3d4c934b	0.049945157
30	0xbab1e3e2	-0.0013571943
31	0x3c358b3e	0.011080561
32	0x3d875ff8	0.066101015
33	0xbc8305f3	-0.015994048
34	0xbc30d9d7	-0.010794125
35	0x3db7d041	0.08975268
36	0x3b859dc8	0.004077647
37	0x3d9f49dd	0.0777776
38	0xbc3518a8	-0.011053242
39	0x3d885a13	0.06657805
40	0xbce289f7	-0.027653677
41	0x3e3b8be1	0.18315078
42	0x3e82c5a4	0.25541413
43	0xbcb94cdc	-0.022619657
44	0xbcb312cf	-0.021859555
45	0xbc91e34d	-0.01780858
46	0xbc3325b4	-0.010934282
47	0x3d319edf	0.043364402
48	0xbcc27a3a	-0.023739923
49	0x3ea236e3	0.316825
50	0xbd026f59	-0.03184447
51	0xbb0e87c0	-0.0021748394
52	0xbc121a3b	-0.008917387
53	0xbba4e7e9	-0.0050325287
54	0x3e3e3334	0.1857422
55	0xbc1385d5	-0.009004076
56	0x3d76c2f7	0.060244527
57	0x3ceee0cf	0.029159931
58	0xbd03a83c	-0.032142863
59	0xbccc1fd0	-0.024917513
60	0x3c0fd767	0.008779383
61	0xbbe4a435	-0.006977583
62	0xbcde1569	-0.027109819
63	0x3b893142	0.00418678
64	0x3c9cea0d	0.019154573
65	0xb99a7dc1	-0.00029466863
66	0x3be47212	0.006971606
67	0xbbcf9efe	-0.006336092
68	0xbcc18f67	-0.02362795
69	0xbab257a1	-0.0013606438
70	0xbc745543	-0.014912906
71	0xbcbfbe80	-0.023406267
72	0x3d3c3078	0.04594466
73	0x3b8007be	0.003907173
74	0x3d960c82	0.073266044
75	0x3c959b78	0.01826261
76	0xbb99f945	-0.0046989047
77	0xbc5bdfeb	-0.013420085
78	0xbc381070	-0.011234388
79	0x3c0b4e76	0.008502593
80	0x3bcc88fb	0.0062419153
81	0x3c6643de	0.014054267
82	0xbc99aadd	-0.018758232
83	0x3b371bf4	0.0027940245
84	0xbb8313e0	-0.004000172
85	0xbc5788ee	-0.013155205
86	0x3cd10c2c	0.0255185
87	0x3c970a6a	0.018437583
88	0x3cd3a692	0.025836263
89	0x3b327296	0.0027228943
90	0xbbd17b41	-0.006392867
91	0xbbc93a82	-0.006141008
92	0xbc8ed477	-0.017435296
93	0x3d1b3a81	0.03789759
94	0x3cb2c4dc	0.021822385
95	0x3bb39aeb	0.005481114
96	0xbd223bb7	-0.03960773
97	0x3cc82f7b	0.024436703
98	0x3d1af250	0.037828743
99	0xbb8d5610	-0.004313238
100	0xbc335218	-0.010944866
101	0xbce2795f	-0.027645765
102	0xbc2f37cb	-0.010694454
103	0x3c933dcd	0.017973805
104	0x3c400cde	0.011721818
105	0x3ca962b4	0.020676948
106	0x3cb804a7	0.022463156
107	0xbc203dc6	-0.009780353
108	0x3c8b77fd	0.017024988
109	0x3a04a524	0.0005060008
110	0x3cf1538e	0.029458787
111	0x3c1889d2	0.009310203
112	0x3d4cd08d	0.050003577
113	0x3cc6d2ac	0.024270378
114	0x3b681a41	0.003541604
115	0xbbc7a210	-0.0060923174
116	0xbb2173ce	-0.0024635675
117	0xbb16b80a	-0.002299788
118	0x3d2704bc	0.040776
119	0xbbf099a2	-0.007342533
120	0x3cf7dd87	0.030257
121	0xbb9e397e	-0.004828631
122	0x3b1c0a4e	0.0023809853
123	0x3cc7ed7e	0.024405237
124	0x3c4b150c	0.012395155
125	0xbbfce42c	-0.00771763
126	0x3c64322a	0.013927976
127	0xbbeebd12	-0.0072857225
128	0x3a78809e	0.00094796147
129	0x3d29d2cd	0.0414608
130	0xbc00e939	-0.007868105
131	0xbddca047	-0.10772758
132	0x3d27b94a	0.04094819
133	0x3bba31dc	0.005682213
134	0x3d438806	0.047737144
135	0x3d32e17b	0.043672066
136	0x3d5f74f1	0.054554883
137	0xbda85220	-0.08218789
138	0x3d6157e0	0.055015445
139	0x3d3e27ea	0.046424784
140	0x3d6de8bb	0.058083277
141	0x3d23be82	0.039976604
142	0xbb98fbbb	-0.0046686805
143	0xbc8a320f	-0.016869573
144	0xbb891763	-0.004183696
145	0xbc2524dd	-0.01007959
146	0x3c564360	0.013077587
147	0x3cbf41a2	0.023346726
148	0xb9434309	-0.00018621622
149	0x3cf176ed	0.029475654
150	0x3d32487a	0.04352615
151	0x3cf579ba	0.02996527
152	0x3d2fac16	0.042888723
153	0x3c7f32f7	0.015576116
154	0xb9317ce5	-0.00016926562
155	0x3cff98e5	0.031200835
156	0x3b22af96	0.0024823896
157	0x3be9d7ef	0.007136337
158	0xbe00d308	-0.12580502
159	0x3b261477	0.0025341788
160	0xbcbc6816	-0.02299885
161	0xbafadf3c	-0.0019140015
162	0x3d57857b	0.05261753
163	0x3b90e485	0.004421773
164	0x3c2a3b7f	0.010390162
165	0xbc36f752	-0.011167364
166	0x3d8c2c65	0.06844405
167	0xbd4ebfc7	-0.050475862
168	0x3d7966cb	0.060889047
169	0x3da6a678	0.0813722
170	0x39b20830	0.00033956906
171	0xbb823e89	-0.00397474
172	0xbc4f73c6	-0.01266188
173	0xbb9dd8fd	-0.004817127
174	0x3d2a96f6	0.041647874
175	0x3bd61e2b	0.006534358
176	0x3d1d5646	0.038412355
177	0x3dc15344	0.0943971
178	0x3d54e9e6	0.051980875
179	0xbc8824df	-0.016619144
180	0x3d0c06b6	0.034186088
181	0xbc495a32	-0.012289571
182	0xbd357102	-0.044297226
183	0xbdaf5467	-0.0856102
184	0xbc5179df	-0.012785404
185	0xbb2b6fd3	-0.0026159182
186	0x3da3dcbc	0.08001086
187	0x3d8660e7	0.065614514
188	0xbcad4ac1	-0.02115381
189	0xbc52da06	-0.012869364
190	0x3d9a900a	0.075470045
191	0x3d911f38	0.07086033
192	0xbc56e2d3	-0.013115603
193	0x3a542e2e	0.00080940395
194	0x3cf19923	0.029491967
195	0x3bfb1c33	0.0076632737
196	0xbd24a1b3	-0.04019327
197	0xbc32923b	-0.010899122
198	0x3c8ca009	0.017166154
199	0x3d8ca856	0.06868045
200	0xbdb2b738	-0.087263525
201	0xbdbac766	-0.091200635
202	0xbd01e10e	-0.03170877
203	0xbc91319d	-0.017723853
204	0x3c7af4b2	0.015317129
205	0x3d2fbddc	0.042905673
206	0x3c3004c2	0.010743322
207	0xbc350b83	-0.011050108
208	0xbb87af5a	-0.0041407766
209	0xbceb8326	-0.02874906
210	0xbc413ded	-0.011794549
211	0x3c00b643	0.007855955
212	0x3bf5c3bd	0.0075001405
213	0x3d82f0b7	0.06393569
214	0xbd500091	-0.05078179
215	0x3b403c1e	0.0029332708
216	0xbdf3c72e	-0.11903225
217	0xbc3e560b	-0.011617194
218	0xbdd2f78b	-0.10301121
219	0xbd79789d	-0.06090604
220	0xbc11d697	-0.00890126
221	0xbb02800f	-0.0019912755
222	0xbd39503d	-0.045242537
223	0xbceccd07	-0.028906358
224	0xbe084c0c	-0.1331026
225	0xbdd5feda	-0.10449
226	0x3c96f635	0.018427948
227	0x3c00c0bc	0.007858451
228	0x3c697467	0.014248944
229	0xbc51244e	-0.012765003
230	0xbd8a4e93	-0.06753268
231	0xbdab2506	-0.08356671
232	0xbda83652	-0.08213486
233	0xbd000cbc	-0.031262144
234	0x3ccc29e0	0.024922311
235	0x3b345905	0.002751888
236	0xbd871af4	-0.06596938
237	0x3d003ca8	0.031307846
238	0xbc165df1	-0.009177671
239	0xbdb3bf51	-0.08776725
240	0xbb3477db	-0.002753726
241	0x3cda36d4	0.026637472
242	0x3c511afb	0.01276278
243	0x3c8f1faa	0.017471153
244	0x3b84b238	0.0040495656
245	0xbd2e2bc8	-0.04252222
246	0xbe054ee8	-0.13018382
247	0x3b2a21e0	0.0025960132
248	0x3d283417	0.0410653
249	0xbbc967de	-0.006146415
250	0x3c21f2c6	0.009884542
251	0xbd859091	-0.065217145
252	0xbdc11a0a	-0.09428795
253	0x3bded312	0.006800064
254	0xbd801983	-0.06254866
255	0xbd9e4452	-0.07727875

update_node_embedding_layer.1.update_layer.weight f4 [64, 128]
0	0xbc269517	-0.010167382
1	0xbd4148f1	-0.047188703
2	0xbac55226	-0.0015054389
3	0x3e0d81db	0.13819067
4	0xbd8ceb90	-0.068808675
5	0x3c9ade04	0.018904693
6	0xbcd6475c	-0.026157074
7	0xbd39e73d	-0.04538654
8	0xbd098756	-0.033576332
9	0xbe08753a	-0.13325968
10	0xbd40d581	-0.047078613
11	0xbd83463e	-0.06409882
12	0xbd70a324	-0.058749333
13	0xbd332d02	-0.043744095
14	0xbb92548f	-0.0044656466
15	0x3d42e962	0.047585852
16	0x3e2c1549	0.16804995
17	0x3b232a3a	0.0024896995
18	0x3de4b2cc	0.11166915
19	0xbd88ee5f	-0.06686091
20	0x3d7754fa	0.060383774
21	0xbd8acd2a	-0.06777413
22	0xbcdd88fe	-0.027042862
23	0xbd68ef78	-0.056869
24	0xbd3c4af6	-0.045969926
25	0x3c242e54	0.010020811
26	0xbbb2740e	-0.0054459637
27	0xbd46ae33	-0.048505973
28	0x3c24e36e	0.010063989
29	0x3d5a63d0	0.053317845
30	0xbb8821b6	-0.0041544093
31	0x3cadea2b	0.021229824
32	0x3d6f3e52	0.058409043
33	0x3bdc7285	0.006727519
34	0xbd73d1c0	-0.059526205
35	0x3d8318d3	0.06401219
36	0xbb954743	-0.004555614
37	0x3d862dc2	0.06551696
38	0xbd98ffe6	-0.07470684
39	0x3d82778b	0.06370457
40	0xbd79afc6	-0.060958646
41	0x3df4cbb3	0.11952915
42	0x3e1eea69	0.15519108
43	0x3bb64fd3	0.005563715
44	0xbbc8db52	-0.0061296606
45	0x3b8978b8	0.004195299
46	0x3bc61cf7	0.0060459333
47	0x3d9a642b	0.07538637
48	0xbd386c08	-0.0450249
49	0x3e53d68f	0.20687316
50	0xbd2a3453	-0.041553807
51	0x3c491a5b	0.01227435
52	0xbd4134d2	-0.047169514
53	0x3c14888f	0.009065761
54	0x3de057ef	0.10954272
55	0xbcc1e573	-0.02366898
56	0x3d9bfc9d	0.076165415
57	0x3d4c1e78	0.049833745
58	0xbd0ca868	-0.034340292
59	0xbd204a2d	-0.03913324
60	0x3a7d4e04	0.00096628093
61	0x3be62b40	0.007024199
62	0xbc846762	-0.016162578
63	0x3e469c1a	0.19395486
64	0x3cdf41e7	0.027253104
65	0x3db91fb2	0.090392485
66	0x3b690f23	0.0035562
67	0x3c7191d8	0.0147442445
68	0xbc16651e	-0.009179382
69	0x3c77eefc	0.015132662
70	0x3bb38fdc	0.005479796
71	0x3da6c9de	0.08143972
72	0xbb9fdc16	-0.004878531
73	0x3c896c6b	0.01677533
74	0x3b7b1cf3	0.0038316816
75	0x3c875e71	0.016524525
76	0xbbfe346e	-0.007757715
77	0xbb00aab7	-0.0019633004
78	0x3c09016c	0.008362155
79	0x3b7b359a	0.003833151
80	0x3c7f3ca8	0.015578426
81	0xbba90a25	-0.00515868
82	0x3ccfed8e	0.02538183
83	0x3d088b37	0.03333589
84	0x3c872b9d	0.016500289
85	0xbc7831bf	-0.015148579
86	0x3ccd1c55	0.025037924
87	0x3c957cd3	0.018247997
88	0xbe26c36c	-0.16285485
89	0x3df24827	0.11830168
90	0x3d221d85	0.039578933
91	0xbbde5967	-0.00678556
92	0x3c0b0ba4	0.008486662
93	0x3cec495e	0.028843578
94	0x3d136478	0.035984486
95	0x3ac92cc8	0.0015348429
96	0x3bdd8c35	0.0067610987
97	0x3b8a4b18	0.0042203777
98	0x3d123df9	0.035703633
99	0xbbc78e69	-0.0060899747
100	0x3d186fcd	0.037215997
101	0x3c5d0797	0.013490579
102	0xbc43ae79	-0.011943453
103	0xbb52ada2	-0.003214695
104	0x3cb9f3fe	0.022699352
105	0xbd131e34	-0.035917476
106	0xbb355469	-0.002766872
107	0xb929d1ed	-0.000161953
108	0xbca84f37	-0.020545585
109	0x3c9a4c91	0.018835338
110	0x39afb12d	0.00033510607
111	0x3b6f80a3	0.003654518
112	0x3c6fb905	0.014631514
113	0x3b91b0aa	0.004446109
114	0x3c4d55e2	0.012532683
115	0x3ba2624b	0.004955565
116	0xb9b175a3	-0.00033847717
117	0xbc5434a7	-0.012952006
118	0x3c428d09	0.011874446
119	0xbc82e182	-0.015976671
120	0x3c110acf	0.008852675
121	0x3cf7f2b5	0.030267099
122	0x3c40564f	0.011739328
123	0xbe05d848	-0.13070786
124	0x3d7e90d9	0.062149856
125	0xbb017da6	-0.001975873
126	0x3c9f35f4	0.019434907
127	0x3c58b95d	0.013227788
128	0xbc31fcae	-0.010863466
129	0xbb51761b	-0.0031961265
130	0xbbe64c54	-0.007028142
131	0xbd2c437d	-0.04205655
132	0xbc84ca17	-0.016209645
133	0xbc2bbae5	-0.010481571
134	0xbb6bd5b9	-0.0035985543
135	0x3b13b5bc	0.0022538742
136	0x3c49a8e9	0.012308338
137	0x3d846967	0.064654164
138	0xbcc07e5b	-0.023497751
139	0xbc24a6c5	-0.010049527
140	0x3b5a9846	0.0033354922
141	0xbc77f26d	-0.015133482
142	0x3c0718c1	0.008245648
143	0xbeab92f5	-0.33510557
144	0xbd898ae7	-0.06715947
145	0x3c5b41d7	0.013382397
146	0xbd68e328	-0.056857258
147	0x3c1fdd25	0.009757315
148	0xbe974d7e	-0.2955131
149	0x3c0b4517	0.008500359
150	0x3c12087e	0.0089131575
151	0xb8d8fcc9	-0.000103467675
152	0xbc8df3fd	-0.017328257
153	0x3b333973	0.0027347475
154	0xbbcc1bdd	-0.0062289075
155	0xbc4bf265	-0.012447928
156	0xbc2278ec	-0.009916525
157	0xbe9e0e56	-0.30870312
158	0x3d30e842	0.04319025
159	0xbc8d8e70	-0.017279834
160	0xbeae53db	-0.34048352
161	0x3c080b1b	0.008303429
162	0x3b659302	0.003503025
163	0xbe9eae1e	-0.30992216
164	0x3adf58fc	0.0017040069
165	0xbe869721	-0.26287177
166	0xbd85a2e0	-0.065252066
167	0xbe86e71f	-0.26348206
168	0xbc3bf8d2	-0.011472898
169	0xbe714b6c	-0.23563927
170	0xbe0260c5	-0.12732227
171	0xbc322f79	-0.010875576
172	0xbc46427e	-0.012100814
173	0x3b9c56e4	0.0047711004
174	0xbe5dda64	-0.2166534
175	0xbe81eaf3	-0.25374565
176	0xbbbdfb19	-0.0057977554
177	0xbeaba9bc	-0.33527935
178	0xbc204019	-0.009780907
179	0x3b963bb6	0.004584755
180	0xbc426ba7	-0.011866487
181	0xbb3c5121	-0.002873488
182	0xbd48a0da	-0.048981525
183	0x3d283801	0.041069034
184	0xbe56a357	-0.20960747
185	0xbe9055ff	-0.2819061
186	0xbd3be1c6	-0.04586961
187	0xbd1dfb8c	-0.038569972
188	0xbbda0b71	-0.006654196
189	0xbb6f29c1	-0.0036493393
190	0xbdd4b0d5	-0.103852905
191	0x3d11fee9	0.035643492
192	0xbc0c2633	-0.008554029
193	0x3d7e161d	0.062032808
194	0x3cbfd3de	0.023416456
195	0x3cf90aeb	0.030400714
196	0xbc7bcb80	-0.015368342
197	0x3d110470	0.035404623
198	0x3cf0e962	0.02940816
199	0x3da099b1	0.07841814
200	0x3b5ea2fc	0.0033971658
201	0xba6fae40	-0.0009143092
202	0x3bbe9fe9	0.0058174026
203	0x3cfab664	0.030604549
204	0xbc900a92	-0.017583165
205	0xbc8cbba9	-0.017179327
206	0x3bf184b8	0.0073705576
207	0xbc2d3eb2	-0.01057403
208	0x3cfee69d	0.031115824
209	0x3c3d426c	0.011551481
210	0xbaacbc54	-0.0013178685
211	0x3caa9c06	0.02082635
212	0xbc97ec3b	-0.01854526
213	0x3a04d076	0.00050664635
214	0x3cad09fb	0.021122923
215	0x3cf00b31	0.029302211
216	0xbd77ca22	-0.060495503
217	0x3dc1a7c2	0.094558254
218	0x3cb8fc55	0.022581259
219	0xbb07630a	-0.0020658397
220	0x3c135d9d	0.008994487
221	0x3cc98d19	0.024603413
222	0x3d44c415	0.04803856
223	0x3bad01dc	0.0052797627
224	0x3c58c55a	0.013230646
225	0x3aae5801	0.0013301374
226	0x3bb007a4	0.0053720046
227	0xbc68d87c	-0.01421177
228	0x3d66974a	0.056296624
229	0x3cfba57f	0.030718563
230	0xb993c609	-0.00028185573
231	0xbbc1ec3b	-0.0059180534
232	0x3b9cad34	0.0047813896
233	0xbd6550b6	-0.055985175
234	0xbc47272f	-0.012155338
235	0xbc1da2ed	-0.009621364
236	0xbbebe66f	-0.0071991007
237	0x3d934fa4	0.071929246
238	0x3b4f4cbc	0.003163143
239	0xbdcc1ca7	-0.099664025
240	0x3b74af0e	0.0037335786
241	0x3c91ec74	0.017812945
242	0x3c371986	0.011175519
243	0x3c852566	0.016253185
244	0x3d108817	0.035286035
245	0xbb358e57	-0.002770325
246	0x3d1400e3	0.03613366
247	0x3b8cd7b9	0.004298177
248	0xbb70bd87	-0.003673406
249	0x3c96a34a	0.01838841
250	0x3d50d70e	0.050986342
251	0xbda74f75	-0.08169452
252	0x3d81e2aa	0.06342061
253	0x3c6664fa	0.014062161
254	0x3ce9669e	0.028491315
255	0x3cf3fd97	0.029784007
