ER_200spin/eco/network/network7200000.pth (torch, 238273 bytes, 11 tensors)

node_init_embedding_layer.0.weight f4 [64, 7]
0.02218256 -0.2716832 -0.23667471 -0.0009079266 -0.0026923476 -0.020207947 0.074670926 0.0048455563
-0.22034924 -0.031039562 0.102240145 -0.07350782 0.0963062 0.02896277 0.025400214 0.41271955
-0.02048469 -0.044880204 0.00048494217 -0.013331403 0.030794512 -0.021784902 0.40436867 0.023778899
-0.010117557 0.0014736085 0.007376611 0.026977487 -0.006149493 -0.0038983978 -0.009858432 -0.011102081
-0.01081875 -0.0037795096 -0.0152212195 -0.011088987 -0.0034881043 -0.0020412283 -0.0026715926 -0.013247419
-0.016443353 -0.005384931 0.03443472 0.49453482 -0.002336843 -0.14153317 0.0007996123 -0.037391137
0.015629353 0.024492105 -0.21608175 -0.61386245 0.2463416 0.0005361745 0.10128802 0.023419382
0.036434155 -0.33034888 0.08156152 0.17348917 -0.0021496902 0.048017897 0.057760235 0.04413453
0.4623558 0.021139799 0.045992427 -0.00067323475 -0.0025508255 -0.015582033 -0.019856628 0.37257263
0.06365089 0.06791975 -0.0015407099 0.021788253 -0.017933492 -0.0019606047 0.3544114 -0.17388974
0.07727982 -0.0021455842 -0.0004581366 -0.24109173 0.041709356 0.49986264 -0.008209673 -0.08864665
0.00087226665 0.01951916 0.018203113 0.028174888 -0.33402452 -0.023250308 0.08233702 0.00032815142
-0.020451073 0.041318692 0.035428856 -0.30272767 -0.0118615115 0.11442389 0.000504156 -0.0013231835
0.059600577 0.033011246 0.0429926 -0.15971266 0.09680551 -0.00084491225 0.028899368 -0.21785033
0.032009803 -0.20663247 -0.08725816 0.11973556 -0.020540131 0.08789059 0.028016554 -0.042310722
0.3724077 0.040912118 -0.007936686 -0.0004225675 0.044050492 0.032383595 0.046152033 -0.42417568
-0.0038957556 0.12991765 0.010360216 0.009023342 0.07283024 -0.034402605 0.35019237 0.06824522
0.061994992 -0.010627353 0.0065397834 0.022074256 0.038986593 0.4927596 0.02704336 -0.001135079
-0.004077993 0.005954633 -0.007776075 0.043356773 -0.40252128 0.026647178 0.1407643 0.0050949403
0.017769258 0.06289157 0.022927476 -0.2026207 0.09891631 0.062341083 -0.037564043 0.10023144
-0.024670837 0.004781095 -0.20679022 0.19534327 0.0380689 -0.0026434592 0.029398726 0.09283413
0.024387063 -0.25238448 0.0707201 0.42814112 0.0036490029 0.1039805 0.00053929 -0.050067693
0.37150383 0.007368494 0.0052576535 0.0018981944 0.037398253 -0.06839295 0.046793524 0.51053244
0.029348027 0.04127129 -0.004217751 0.028125726 0.0049859914 -0.001984467 0.0030851387 0.001095844
-0.009433593 -0.0056003085 -0.0043595186 -0.010299535 0.038933903 0.43238965 0.017332695 -0.0073940465
-0.00037551337 0.003876567 -0.022783538 0.04042576 -0.41688505 0.0023270953 0.12736696 0.0056108003
0.040982284 0.03823655 0.016208999 -0.21107073 -0.020831605 -0.2014763 -1.9366253e-06 0.12051517
-0.014868847 -0.022775782 -0.27781615 0.024756584 0.12439447 -0.02356441 -0.010465625 0.020041116
-0.0024586709 0.010573094 -0.0038705096 -0.01777523 -0.0039956234 -0.008044434 -0.0016477507 0.027544033
0.15167536 -0.33329585 0.001964041 0.0064338604 0.020061798 -0.374341 0.024759358 0.43594727
0.0055188653 -0.015228555 0.0007478723 0.033565763 0.01585718 -0.0029958652 0.004468031 -0.011094356
-0.01162292 -0.011126069 -0.0063133347 -0.0016458024 0.01349969 -0.1842565 -0.17981413 0.0689689
00000000: 33b8 b53c 0f1a 8bbe db5a 72be ec01 6eba
00000010: 1972 30bb 238b a5bc 12ed 983d 79c7 9e3b
00000020: 3ba3 61be ae46 febc 4863 d13d 458b 96bd
00000030: 2f3c c53d 5543 ed3c 1c14 d03c fa4f d33e
00000040: 82cf a7bc 4ed4 37bd d63f fe39 f56b 5abc
00000050: c644 fc3c 4076 b2bc 6909 cf3e f7cb c23c
00000060: 1cc4 25bc 1926 c13a 80b7 f13b e4ff dc3c
00000070: b081 c9bb 437c 7fbb 4385 21bc 81e5 35bc
00000080: 2041 31bc a6b1 77bb 6c62 79bc 95ae 35bc
00000090: ae98 64bb 21c6 05bb e315 2fbb b40b 59bc
000000a0: 36b4 86bc 1374 b0bb 6c0b 0d3d ab33 fd3e
000000b0: b825 19bb 12ee 10be 139d 513a 7327 19bd
000000c0: 2109 803c aba3 c83c 8944 5dbe 1726 1dbf
000000d0: f940 7c3e 108e 0c3a 1870 cf3d 01da bf3c
000000e0: fb3b 153d 7d23 a9be ba09 a73d 25a7 313e
000000f0: d1e1 0cbb 6aae 443d ff95 6c3d 69c6 343d
00000100: e6b9 ec3e 5f2d ad3c 8e62 3c3d 057c 30ba
00000110: c02b 27bb c94b 7fbc 5eaa a2bc d7c1 be3e
00000120: 665b 823d 8319 8b3d a5f1 c9ba 477d b23c
00000130: 42e9 92bc 7d7d 00bb 6975 b53e 2710 32be
00000140: e244 9e3d ee9c 0cbb 0e32 f0b9 c0e0 76be
00000150: 6ed7 2a3d ffed ff3e dd81 06bc 608c b5bd
00000160: d3a8 643a a5e6 9f3c b21e 953c 06cf e63c
00000170: 4305 abbe 6e77 bebc 50a0 a83d bd0b ac39
00000180: 0289 a7bc ca3d 293d d91d 113d 1fff 9abe
00000190: c956 42bc 1357 ea3d 5629 043a ac6e adba
000001a0: bc1f 743d cd36 073d 0219 303d b78b 23be
000001b0: f841 c63d 1a7d 5dba 5ebe ec3c 2814 5fbe
000001c0: b61c 033d 7697 53be 68b4 b2bd eb37 f53d
000001d0: c743 a8bc fbff b33d f982 e53c 024e 2dbd
000001e0: 39ac be3e 7793 273d e008 02bc 0d8c ddb9
000001f0: 4a6e 343d a9a4 043d ea09 3d3d 8e2d d9be
00000200: ef4f 7fbb 2209 053e e5bd 293c a4d6 133c
00000210: 0528 953d bfe9 0cbd 6a4c b33e 26c4 8b3d
00000220: 76ee 7d3d 591e 2ebc ae4b d63b 12d5 b43c
00000230: 68b0 1f3d fc4a fc3e 098a dd3c eec6 94ba
00000240: afa0 85bb 151f c33b 72ce febb df96 313d
00000250: 4517 cebe 2f4b da3c 8424 103e 75f3 a63b
00000260: d690 913c 4ccd 803d 67d2 bb3c cd7b 4fbe
00000270: a294 ca3d 5d59 7f3d c1dc 19bd 2446 cd3d
00000280: 7f1a cabc bbaa 9c3b d1c0 53be 1108 483e
00000290: 23ee 1b3d e33d 2dbb 99d5 f03c d21f be3d
000002a0: 61c7 c73c 8a38 81be b3d5 903d 5035 db3e
000002b0: 1c24 6f3b baf3 d43d 245f 0d3a c813 4dbd
000002c0: c035 be3e 6873 f13b 6548 ac3b d6cc f83a
000002d0: e92e 193d 9a11 8cbd 91aa 3f3d 41b2 023f
000002e0: 466b f03c 160c 293d 0f35 8abb ec67 e63c
000002f0: 8761 a33b d50d 02bb 0a30 4a3b 6ca2 8f3a
00000300: 5b8f 1abc cb82 b7bb 4bda 8ebb 61bf 28bc
00000310: 2879 1f3d 2d62 dd3e 4cfd 8d3c c249 f2bb
00000320: 8de0 c4b9 000e 7e3b 8ba4 babc 7b95 253d
00000330: f571 d5be 2e82 183b 7c6c 023e ceda b73b
00000340: 0add 273d ee9d 1c3d bcc8 843c ed22 58be
00000350: 0ba7 aabc ce4f 4ebe f8f6 01b6 a8d0 f63d
00000360: 779c 73bc 4794 babc eb3d 8ebe 52ce ca3c
00000370: 87c2 fe3d 260a c1bc 0378 2bbc 442d a43c
00000380: a721 21bb c53a 2d3c 60a8 7dbb 5c9d 91bc
00000390: b8ed 82bb cdcc 03bc 57f9 d7ba 06a4 e13c
000003a0: c950 1b3e c1a5 aabe 24b7 003b 22d3 d23b
000003b0: a458 a43c a0a9 bfbe 23d4 ca3c 7b34 df3e
000003c0: 99d7 b43b 3081 79bc dc0c 443a 417c 093d
000003d0: ebe6 813c 4756 44bb 9068 923b 1ac5 35bc
000003e0: 0f6e 3ebc 1e4a 36bc 17e0 cebb f7b7 d7ba
000003f0: ce2d 5d3c bcad 3cbe 3221 38be 913f 8d3d

edge_embedding_layer.edge_embedding_NN.weight f4 [63, 8]
0.027220685 0.026514988 0.31272757 -0.060370967 -0.036615 -0.08530531 -0.0153161185 -0.07372312
-0.009922469 -0.010774974 -0.004315335 -0.0022903706 0.008953054 -0.02221353 -0.015251183 0.008083992
0.026654622 0.019869639 0.28678536 -0.060522955 -0.011239763 -0.022974638 -0.0095897345 -0.03420713
0.051610425 0.043578204 0.28774655 -0.16250467 -0.045321595 0.0035476736 0.039908063 -0.06519553
-0.015035438 -0.0067404066 0.0153879905 -0.014715848 -0.00982584 -0.0015218513 -0.0013866938 -0.0020847525
-0.010408337 -0.00058907137 0.002471643 -0.004193349 0.0027986444 -0.013592724 0.011577544 0.002690091
-0.014826705 -0.036357615 -0.17378777 0.13184778 0.07901743 -0.010905651 -0.09511483 0.059270043
-0.0065557323 0.0028060246 -0.21924333 0.1723428 0.100233614 0.01317408 0.0023796435 0.12428833
0.00018929296 -0.14917253 -0.21455102 0.11453534 0.10218212 -0.0032953038 0.008354369 0.07935798
-0.0029996573 -0.066068165 -0.19667028 0.13168119 0.058685135 0.017267913 -0.05176185 0.10181069
-0.020284364 0.0010614286 -0.19827747 0.14707588 0.09930949 0.0075501185 0.0073555107 0.10232613
-0.0005169977 -0.0011437915 -0.0015800482 -0.011648395 -0.008384922 -0.019005835 -0.021238621 -0.0031330034
-0.011771853 -0.0064551826 -0.018746976 0.008560626 -0.0028598043 -0.013159215 0.0014753747 -0.0033808637
0.055608872 0.023781024 0.27221665 -0.13089105 -0.02108725 -0.003996331 0.040707696 -0.13090622
-0.019262709 -0.02161929 -0.1782612 0.11920257 0.09767129 0.0190241 -0.31198487 0.08490364
0.066228405 0.049173485 0.27577108 -0.16509795 -0.072261274 0.006013596 0.047603138 -0.08357739
-0.013956686 -0.018991299 -0.19170864 0.15008557 0.10545681 -0.00035129278 0.028369749 0.07991494
0.04417548 0.014481382 0.2919759 -0.09057669 0.044581164 -0.0062538614 0.018252274 -0.07322283
0.056148082 0.0070878826 0.26940277 -0.118174724 0.012312698 0.0057195425 0.029002167 -0.12933855
-0.015138406 -0.035925787 -0.1616623 0.12581669 0.12957177 -0.003113012 -0.032384608 0.08051919
-0.0014439179 -0.00978569 0.0023963705 0.0012964379 -0.0012544036 -0.0001595673 -0.007059626 -0.009169412
-0.008734894 -0.016080366 -0.1932216 0.13648908 0.121619046 -0.003895091 0.016659277 0.089480415
0.049767885 0.050498642 0.29159176 -0.18423559 -0.03528009 0.00045620732 0.04368483 -0.05052725
-0.0014835857 -0.0010873167 0.0004004063 0.0019544451 -0.017845793 -0.0053972867 -0.0027487199 -0.0038520296
0.06983431 0.03754508 0.28310797 -0.19776705 -0.085253924 0.008054483 0.028868044 -0.07921793
0.03370571 -0.0015855801 0.33371422 -0.2804252 -0.017375404 0.01322479 0.016865185 -0.2762708
-0.029500302 -0.024344139 -0.17250064 0.13846576 0.089113876 0.0053892033 -0.32965893 0.08355369
0.059653293 0.022400958 0.27225357 -0.15267307 0.04709953 -0.008886735 0.03034748 -0.08642675
-0.014819773 -0.014826146 -0.01661776 -0.015271877 -0.007614104 -0.012074424 -0.012945181 -0.010523627
-0.018509904 -0.044775326 -0.15894148 0.15037219 0.1151327 0.0067939134 -0.16318493 0.0863249
0.0443638 0.04931224 0.28043005 -0.18839799 -0.048023216 0.0007401111 0.04492587 -0.03751828
0.027614327 -0.0237135 0.37344128 -0.2662711 -0.032302603 -0.0032492392 0.010281015 -0.2895131
00000000: eafd de3c f635 d93c d41d a03e 8c47 77bd
00000010: 9cf9 15bd 8db4 aebd 75f0 7abc 26fc 96bd
00000020: da91 22bc 8489 30bc a767 8dbb 0b1a 16bb
00000030: d5af 123c 26f9 b5bc 19e0 79bc b872 043c
00000040: cb5a da3c a7c5 a23c 88d5 923e ebe6 77bd
00000050: fc26 38bc 4f35 bcbc 431e 1dbc c71c 0cbd
00000060: 7465 533d 0f7f 323d 8453 933e a067 26be
00000070: 23a3 39bd 1680 683b a376 233d 3c85 85bd
00000080: 3357 76bc a1de dcbb e91d 7c3c bd1a 71bc
00000090: 8ffc 20bc db78 c7ba b9c1 b5ba 58a0 08bb
000000a0: bb87 2abc e96b 1aba 4afb 213b 5c68 89bb
000000b0: 7669 373b 04b4 5ebc bdaf 3d3c 3d4c 303b
000000c0: b5eb 72bc b9eb 14bd 6cf5 31be 1b03 073e
000000d0: e4d3 a13d 9ead 32bc 90cb c2bd 25c5 723d
000000e0: 78d1 d6bb 48e5 373b 5381 60be a27a 303e
000000f0: 4847 cd3d 19d8 573c cbf3 1b3b e18a fe3d
00000100: f17c 4639 afc0 18be 43b3 5bbe 8191 ea3d
00000110: dc44 d13d 06f6 57bb c3e0 083c 7086 a23d
00000120: e695 44bb bf4e 87bd ef63 49be 6fd7 063e
00000130: d35f 703d 7075 8d3c 3c04 54bd 1f82 d03d
00000140: 652b a6bc a21f 8b3a 4009 4bbe 0f9b 163e
00000150: c662 cb3d fc66 f73b 7f06 f13b 5d90 d13d
00000160: 2187 07ba 46eb 95ba 9f19 cfba e9d8 3ebc
00000170: e960 09bc 20b2 9bbc 9efc adbc 1353 4dbb
00000180: bbde 40bc ff85 d3bb 4293 99bc de41 0c3c
00000190: 8e6b 3bbb c099 57bc 5c61 c13a 7b91 5dbb
000001a0: 21c6 633d 6cd0 c23c fb5f 8b3e 4e08 06be
000001b0: 2bbf acbc a7f3 82bb 1dbd 263d 480c 06be
000001c0: d4cc 9dbc f01a b1bc 1b8a 36be 7a20 f43d
000001d0: e307 c83d 6ed8 9b3c 7bbc 9fbe f6e1 ad3d
000001e0: c2a2 873d 236a 493d de31 8d3e 700f 29be
000001f0: b8fd 93bd b30d c53b 82fb 423d 9f2a abbd
00000200: 95aa 64bc a493 9bbc 454f 44be 08b0 193e
00000210: bdf9 d73d b82d b8b9 ad67 e83c 72aa a33d
00000220: 59f1 343d 5243 6d3c dd7d 953e 4680 b9bd
00000230: bd9a 363d 31ed ccbb cb85 953c daf5 95bd
00000240: 88fb 653d 7841 e83b 29ef 893e 9705 f2bd
00000250: 33bb 493c 006b bb3b f495 ed3c 5371 04be
00000260: 1407 78bc eb26 13bd cd8a 25be 17d6 003e
00000270: 76ae 043e ad03 4cbb b9a5 04bd 3fe7 a43d
00000280: d841 bdba 2954 20bc 6d0c 1d3b 3ded a93a
00000290: cd6a a4ba 8551 27b9 6f54 e7bb 4d3b 16bc
000002a0: cd1c 0fbc f9ba 83bc e2db 45be cbc3 0b3e
000002b0: 6813 f93d c844 7fbb 0979 883c 8241 b73d
000002c0: 69d9 4b3d aad7 4e3d 844b 953e 41a8 3cbe
000002d0: db81 10bd 1c2f ef39 ddee 323d a9f5 4ebd
000002e0: e074 c2ba 4b84 8eba a0ed d139 2616 003b
000002f0: 5731 92bc b9db b0bb de23 34bb 5572 7cbb
00000300: 4a05 8f3d dfc8 193d 87f3 903e 7283 4abe
00000310: 9c99 aebd f3f6 033c ad7c ec3c 033d a2bd
00000320: 000f 0a3d 3dd3 cfba 97dc aa3e e493 8fbe
00000330: dd56 8ebc caac 583c db28 8a3c 5e73 8dbe
00000340: 9eaa f1bc 5c6d c7bc 02a4 30be f8c9 0d3e
00000350: 5681 b63d ea97 b03b 0ec9 a8be 321e ab3d
00000360: 0357 743d 3782 b73c d264 8b3e 5456 1cbe
00000370: 70eb 403d ab99 11bc 479b f83c 8200 b1bd
00000380: a2ce 72bc 5de9 72bc f821 88bc e536 7abc
00000390: bc7f f9bb ced3 45bc 0618 54bc 4a6b 2cbc
000003a0: 15a2 97bc 5566 37bd 8ec1 22be 2bfb 193e
000003b0: b1ca eb3d 7a9f de3b f319 27be 1ccb b03d
000003c0: d1b6 353d a2fb 493d 8794 8f3e 67eb 40be
000003d0: feb3 44bd 0404 423a 3004 383d c5ac 19bd
000003e0: 7137 e23c d042 c2bc b233 bf3e b054 88be
000003f0: bc4f 04bd 30f1 54bb b471 283c 103b 94be

edge_embedding_layer.edge_feature_NN.weight f4 [64, 64]
0.05083513 0.006673097 0.042229675 0.061545543 0.009925359 0.00821526 -0.020828372 -0.062076416
-0.03813062 -0.034979504 -0.042807736 0.0012318065 -0.005665803 0.0763851 -0.048754342 0.064130105
-0.038941927 0.032344982 0.038537316 -0.0026673668 0.000109577515 -0.036242217 0.045139186 0.002587881
0.047495864 0.1381126 -0.07468111 0.049491346 -0.0021766124 -0.06086347 0.047340248 0.12962559
-0.0512617 -0.038281307 0.07748767 -0.0029128485 0.04667871 -0.03607514 -0.050591934 0.06248496
-0.0363714 0.057867676 0.021431135 0.07334062 0.0033941509 -0.018308368 -0.024277836 -0.002245156
0.0020962334 -0.047188997 0.017370982 -0.010358377 0.028319621 0.012979024 -0.039390482 0.03173134
0.07601427 0.12529938 0.0092882775 0.018932724 0.050925918 0.08636834 0.041180838 0.056128997
-0.010757435 -0.008134392 0.0015555887 0.0082254615 0.0019207367 0.002163062 0.0075713447 0.008774764
-0.007368058 -0.008162394 -0.011945093 0.00053097215 0.013778844 0.0062424517 0.0026948373 -0.014645023
9.829938e-05 0.007712967 0.008076533 -0.0020919112 -0.0091824075 -0.00903409 -0.0045856712 -0.024723053
0.0061283913 0.010687757 -0.0079584615 -0.0028761444 0.012500013 -0.021071821 0.004995809 0.004633419
-5.6490684e-05 -0.015611438 -0.010616232 -0.0030209445 -0.022822924 0.004618022 -0.0052528144 0.009122809
0.00059116463 0.012726235 0.0044763433 0.0040317248 -0.0024838957 -0.01235016 -0.00058075506 0.016682966
0.013421233 0.0007373087 0.0055199787 0.0034704753 -0.02354301 -0.012233246 0.004081472 -0.018016197
-0.008616842 -0.006729163 -0.005336937 0.00050229934 0.0036360866 -0.004051917 0.009005738 -0.029614363
0.023995489 -0.0063518262 0.030803382 0.023225352 -0.011611266 -0.004056425 0.034615263 0.019155873
0.0526208 0.010286167 0.01426202 0.0021992014 -0.001916733 -0.011366691 0.0058925687 -0.0022730064
0.0005040172 -0.026989147 -0.025268206 0.013179914 -0.02420997 0.017327897 0.00915239 0.0041167918
-0.008869069 -0.083461426 0.018960323 -0.057831284 -0.007525111 0.014434391 0.0076390617 -0.1394642
0.028616525 0.030303374 0.005097464 0.047285493 0.017339844 0.025552494 0.018629719 0.011636482
0.04411291 -0.05542903 -0.002158109 0.007170806 -0.0030575085 0.05351197 0.06644853 0.011249505
-0.013233761 0.029148763 -0.0001349812 0.011113654 0.022091247 0.0015670959 0.03390747 -0.0442861
-0.041819807 -0.09224017 0.0048289425 0.009405347 0.008258517 0.0046968106 0.019101584 0.0024956593
-0.01394048 -0.006870072 -0.009293741 0.008531291 0.0033435759 -0.008219612 -0.009937564 1.8024335e-06
0.0065187598 -0.0015708433 0.008476569 -0.007357938 -0.0046117115 0.002252608 -0.008796808 -0.0023317866
-0.017442891 0.0060973703 -0.015798636 -0.0050842944 0.0041428367 -0.004616083 -6.412105e-05 -0.0023929016
0.002517064 -0.010286944 -0.0030664708 0.007888776 0.01083421 -0.0011445023 -0.0026926599 -0.0010076426
-0.016303077 0.007156581 0.0010438258 0.00019029636 0.00089925295 -0.0055984505 -0.0056308643 0.0001323514
-0.0054644374 -0.00420371 0.00012495325 -0.00021016278 0.017536044 0.01697999 -0.01351005 0.0057136067
-0.00062793127 -0.00031389037 0.0030395736 -0.013317074 -0.00057330204 0.0054728673 -0.0015698014 -0.0076897168
0.013171347 -0.013533647 -0.00035957596 -0.00062156183 -0.0020496896 -0.0086621335 0.006484415 -0.0048349635
00000000: 7f38 503d ffa9 da3b 06f9 2c3d 2e17 7c3d
00000010: f99d 223c 4c99 063c 43a0 aabc d743 7ebd
00000020: da2e 1cbd ab46 0fbd 2a57 2fbd 9174 a13a
00000030: 33a8 b9bb cb6f 9c3d a2b2 47bd a556 833d
00000040: 9281 1fbd 2c7c 043d 4ed9 1d3d fdce 2ebb
00000050: fbcc e538 b872 14bd dee3 383d 7099 293b
00000060: 068b 423d 646d 0d3e 69f2 98bd 70b7 4a3d
00000070: 7fa5 0ebb f94b 79bd d9e7 413d 92bc 043e
00000080: caf7 51bd dccc 1cbd dbb1 9e3d 7de5 3ebb
00000090: 2d32 3f3d 87c3 13bd 7d39 4fbd 3bf0 7f3d
000000a0: 2dfa 14bd a806 6d3d 5990 af3c 9b33 963d
000000b0: 6770 5e3b 6efb 95bc 50e2 c6bc 7823 13bb
000000c0: f660 093b 4049 41bd 974d 8e3c 2fb6 29bc
000000d0: 8dfe e73c f9a5 543c ea57 21bd b9f8 013d
000000e0: 5fad 9b3d 7b4e 003e dc2d 183c cd18 9b3c
000000f0: b297 503d e2e1 b03d 3dad 283d 85e7 653d
00000100: f43f 30bc 1d46 05bc e5e4 cb3a 16c4 063c
00000110: 3bc1 fb3a 29c2 0d3b 0b19 f83b 07c4 0f3c
00000120: c06f f1bb 90bb 05bc 5ab5 43bc f030 0b3a
00000130: a9c0 613c 7b8d cc3b de9b 303b aef1 6fbc
00000140: 1426 ce38 0fbd fc3b 6f53 043c 7218 09bb
00000150: cf71 16bc b803 14bc 6643 96bb 0088 cabc
00000160: acd0 c83b b41b 2f3c 3564 02bc b27d 3cbb
00000170: dbcc 4c3c d09e acbc e2b3 a33b f0d3 973b
00000180: 69f0 6cb8 1ec7 7fbc b4ef 2dbc 0afb 45bb
00000190: 24f7 babc c752 973b cd1f acbb d677 153c
000001a0: 63f8 1a3a b381 503c 4aae 923b 8f1c 843b
000001b0: dbc8 22bb 5358 4abc d03d 18ba b7aa 883c
000001c0: bbe4 5b3c f347 413a f0e0 b43b ea70 633b
000001d0: 45dd c0bc f46d 48bc debd 853b b496 93bc
000001e0: a82d 0dbc 5080 dcbb 79e1 aebb bdac 033a
000001f0: 694b 6e3b f2c5 84bb ce8c 133c d299 f2bc
00000200: 3092 c43c fb22 d0bb 6057 fc3c 1843 be3c
00000210: 2e3d 3ebc c2eb 84bb bcc8 0d3d c7ec 9c3c
00000220: e888 573d 5087 283c 3fab 693c 7a20 103b
00000230: e33a fbba 5c3b 3abc 7316 c13b b8f6 14bb
00000240: 0620 043a 5818 ddbc 45ff cebc 91f0 573c
00000250: fd53 c6bc 3cf3 8d3c e8f3 153c 27e6 863b
00000260: 924f 11bc d3ed aabd ae52 9b3c 7fe0 6cbd
00000270: 3595 f6bb 397e 6c3c 1851 fa3b b4cf 0ebe
00000280: 346d ea3c c83e f83c a108 a73b 6fae 413d
00000290: 4a0c 8e3c 7753 d13c 5a9d 983c f1a6 3e3c
000002a0: bdaf 343d 8d09 63bd 106f 0dbb 15f9 ea3b
000002b0: 7b60 48bb 5e2f 5b3d 2b16 883d d84f 383c
000002c0: 6bd2 58bc 63c9 ee3c bd89 0db9 0b16 363c
000002d0: b4f8 b43c 0367 cd3a 8fe2 0a3d 5765 35bd
000002e0: 3f4b 2bbd 6ae8 bcbd 1b3c 9e3b e218 1a3c
000002f0: bb4e 073c b4e7 993b ed7a 9c3c 378e 233b
00000300: 9c66 64bc 571e e1bb c644 18bc d4c6 0b3c
00000310: e51f 5b3b 8dab 06bc 2ad1 22bc 25eb f135
00000320: 529b d53b c1e4 cdba 4fe1 0a3c dc1a f1bb
00000330: d71d 97bb 7ea0 133b 7d20 10bc e3d0 18bb
00000340: 65e4 8ebc 73cc c73b 246c 81bc 279a a6bb
00000350: a2c0 873b 8342 97bb ba78 86b8 3ad2 1cbb
00000360: 54f5 243b 928a 28bc d8f6 48bb ed3f 013c
00000370: f881 313c 2003 96ba 5677 30bb e012 84ba
00000380: 088e 85bc c181 ea3b fbd0 883a 4a8a 4739
00000390: d8bb 6b3a 3573 b7bb 1d83 b8bb cfc7 0a39
000003a0: 060f b3bb 46bf 89bb e205 0339 245f 5cb9
000003b0: c0a7 8f3c 9f19 8b3c 4259 5dbc 3539 bb3b
000003c0: c19b 24ba a791 a4b9 9533 473b db2f 5abc
000003d0: a649 16ba bd55 b33b cbc1 cdba 05fa fbbb
000003e0: a2cc 573c 3bbc 5dbc 7885 bcb9 4ff0 22ba
000003f0: 1654 06bb 9feb 0dbc 377b d43b 9d6e 9ebb

update_node_embedding_layer.0.message_layer.weight f4 [64, 128]
-0.01905954 0.0017508717 -0.014100832 -0.0042199288 -0.01788335 0.011372718 0.0077258577 0.0035789865
-0.008473589 -0.01911039 0.006354835 -0.020759711 -0.01670325 -0.0136195 0.002462361 -0.00094893266
-0.016457139 -0.0037167815 -0.0034718614 0.0051748753 -0.011750276 -0.025309846 -0.01164465 -0.011679254
0.017203681 0.009298491 -0.0068172463 -0.0040685274 -0.0060328953 -0.018918933 -0.008613824 0.011569415
-0.0018858399 0.008300575 0.0037456087 -0.004941903 -0.006633034 -0.0047782674 -0.019085824 -0.01260429
-0.005458042 0.004858546 -0.019572876 -0.015355278 0.0037105014 0.009642839 -0.011878921 -8.878531e-06
-0.009967546 0.009484177 -0.0045439037 -0.0053820675 -0.00019148103 0.0039594295 -0.022092896 0.010589635
-0.0072598616 -0.0099803945 -0.01242449 -0.0052968445 -0.00080498826 0.018477242 0.007948845 -0.0023803648
-0.006287746 -0.00242993 0.010485091 -0.012352881 -0.0010562774 -0.00066107354 -0.01425166 0.00453384
-0.008876933 -0.001967021 -0.008760678 0.013726681 -0.0066438313 0.0043544867 0.0017414953 0.020401204
-0.0043127085 0.0005067762 -0.0012610718 -0.005253296 -0.006616436 0.0008098367 -0.008505274 0.01379626
0.0029131 0.0011571661 0.0009564925 0.013593712 -0.016088534 -0.013935954 -0.0058008023 0.020228371
0.011279487 -0.018540718 0.013831565 -0.0013197443 6.0506612e-05 -0.002124555 -0.009243079 0.024446335
0.0023832296 -0.0027400209 0.003726408 0.0046185562 -0.011794901 -0.023753867 0.0072285063 -0.005699761
-0.009879807 0.01480613 -0.006727138 0.00834494 0.0018100572 0.0017527142 0.0067477897 -0.011304717
0.00450596 0.008198818 -0.007812804 -0.013443079 -0.002821174 0.0016093793 0.003997636 -0.0036062058
-0.0030736204 -0.02699447 0.03691496 0.009503543 -0.0047206795 0.015075879 0.058492176 0.0036731423
0.006322516 0.07159243 0.029849285 0.0120352525 0.057622813 -0.0016898356 0.00085488363 0.02117549
-0.05767302 -0.043233737 0.0033676429 0.029814325 0.06655746 0.009876026 0.03678104 -0.00044076465
0.009298115 -0.0069613545 0.06316824 0.011128925 0.057990212 -0.019092446 -0.09584605 0.020507922
-0.00092215446 0.0060679875 0.051147703 0.0033308987 -0.018316872 -0.020710327 -0.026300628 0.012201156
0.00023099052 0.0038271933 0.02913945 -0.05745898 0.0036125781 -0.0017629995 0.042816542 -0.02938317
0.016946925 -0.002551846 0.05588378 0.0003510264 0.014636138 0.0056827064 0.014522259 0.008673783
-0.002466547 -0.00052050775 0.061449066 -0.014771448 0.042172033 -0.00051613786 -0.05210174 0.054255582
0.0017064661 -0.00050685543 0.00012097761 -0.007319206 0.01914363 0.009282108 0.0020423108 0.00081890926
0.00475851 -0.0063406085 0.010819985 -0.010228308 -0.039316133 0.033313885 -0.0049870163 -0.004870135
-0.018309532 0.009548369 -0.010924446 -0.0039042672 0.00076708436 0.02397867 0.006699214 -0.063815415
-0.009414147 -0.004355869 0.10571836 -0.0090017365 0.009607537 -0.010587643 -0.0018135213 -0.004546416
0.06316786 -0.0087890625 -0.009465421 -0.000115217714 -0.013258781 -0.002339695 -0.008011554 -0.021770263
0.003421171 -0.018987041 -0.012740301 -0.013996529 -0.0032942132 -0.0032106328 -0.018885933 -0.010934371
0.00959051 0.003584449 -0.0003860734 0.014944711 0.010509394 0.012586262 0.009269608 -0.019465156
-0.030659154 0.00316342 -0.012974135 0.0048446213 -0.00940494 0.0026403463 0.05544342 -0.005671336
00000000: c122 9cbc 817d e53a 2d07 67bc 5447 8abb
00000010: 1a80 92bc a354 3a3c 3129 fd3b 6e8d 6a3b
00000020: cfd4 0abc 658d 9cbc 383c d03b 4510 aabc
00000030: 41d5 88bc 5324 5fbc 905f 213b cbc1 78ba
00000040: 1fd1 86bc 3f95 73bb 2b88 63bb 0092 a93b
00000050: 3b84 40bc 9856 cfbc 34c9 3ebc 575a 3fbc
00000060: bcee 8c3c b358 183c 3563 dfbb 4851 85bb
00000070: 98af c5bb e1fb 9abc ff20 0dbc a58d 3d3c
00000080: 492e f7ba 23ff 073c e378 753b b0ef a1bb
00000090: ec59 d9bb 0393 9cbb e059 9cbc 3982 4ebc
000000a0: 60d9 b2bb 7034 9f3b 4c57 a0bc b494 7bbc
000000b0: e22b 733b 00fd 1d3c ce9f 42bc 00f5 14b7
000000c0: eb4e 23bc 8663 1b3c 07e5 94bb 0e5c b0bb
000000d0: 4cc8 48b9 1abe 813b 29fc b4bc 2680 2d3c
000000e0: 22e4 edbb cf84 23bc 1790 4bbc 2791 adbb
000000f0: d905 53ba 965d 973c df3b 023c e5ff 1bbb
00000100: 7009 cebb 763f 1fbb a9c9 2b3c bd63 4abc
00000110: ca72 8aba e54b 2dba cb7f 69bc 9b90 943b
00000120: 8e70 11bc 23e9 00bb f288 0fbc dfe5 603c
00000130: 7fb4 d9bb 15b0 8e3b e342 e43a 6d20 a73c
00000140: 9f51 8dbb 2dd9 043a 8c4a a5ba d723 acbb
00000150: b0ce d8bb 394b 543a b459 0bbc b509 623c
00000160: b5e9 3e3b 0dac 973a 20bd 7a3a 29b8 5e3c
00000170: 1acc 83bc a153 64bc a814 bebb f8b5 a53c
00000180: 99cd 383c b4e2 97bc ca9d 623c 45fb acba
00000190: 7bc8 7d38 1e3c 0bbb 4970 17bc ae43 c83c
000001a0: f52f 1c3b ec91 33bb c036 743b 4257 973b
000001b0: 673f 41bc 7897 c2bc 1bdd ec3b 10c5 babb
000001c0: eade 21bc 6995 723c 536f dcbb 37b9 083c
000001d0: 713f ed3a 54bb e53a 901c dd3b 6b37 39bc
000001e0: bba6 933b 5654 063c 4601 00bc 5c40 5cbc
000001f0: 72e3 38bb cff1 d23a 9afe 823b 1856 6cbb
00000200: cb6e 49bb 8223 ddbc 2434 173d c0b4 1b3c
00000210: eeaf 9abb d200 773c 7e95 6f3d 1ab9 703b
00000220: 1c2d cf3b 0d9f 923d 7d86 f43c 822f 453c
00000230: e605 6c3d 797d ddba 451a 603a 3978 ad3c
00000240: 8b3a 6cbd dc15 31bd acb3 5c3b 2c3d f43c
00000250: 474f 883d 0ecf 213c b7a7 163d 6e16 e7b9
00000260: 1f57 183c 131c e4bb 5a5e 813d 1856 363c
00000270: 2587 6d3d c367 9cbc ef4a c4bd 3b00 a83c
00000280: bdbc 71ba f8d5 c63b 4180 513d 354b 5a3b
00000290: 440d 96bc b4a8 a9bc 6a74 d7bc 5be7 473c
000002a0: 0c36 7239 a6d1 7a3b dbb5 ee3c 1b5a 6bbd
000002b0: 01c1 6c3b 7214 e7ba 6660 2f3d f9b4 f0bc
000002c0: 47d4 8a3c df3c 27bb 64e6 643d f709 b839
000002d0: 6acc 6f3c ff35 ba3b c5ee 6d3c 7c1c 0e3c
000002e0: cba5 21bb af72 08ba 04b2 7b3d f203 72bc
000002f0: 95bc 2c3d 6d4d 07ba a268 55bd 1a3b 5e3d
00000300: 80ab df3a 7ede 04ba 5cb5 fd38 f3d5 efbb
00000310: 1ad3 9c3c fc13 183c 4ad8 053b 12ac 563a
00000320: 46ed 9b3b e1c4 cfbb 4e46 313c a294 27bc
00000330: f409 21bd 2474 083d 206a a3bb a795 9fbb
00000340: dffd 95bc c370 1c3c 73fc 32bc bcde 7fbb
00000350: 2916 493a ea6e c43c 1585 db3b a8b1 82bd
00000360: cb3d 1abc adbb 8ebb de82 d83d 057c 13bc
00000370: ee68 1d3c cb77 2dbc adb3 edba 1afa 94bb
00000380: 275e 813d 0000 10bc da14 1bbc 0aa1 f1b8
00000390: 5c3b 59bc 9255 19bb e542 03bc 8d57 b2bc
000003a0: ba35 603b b68a 9bbc b2bc 50bc b351 65bc
000003b0: bae3 57bb 7b69 52bb acb6 9abc 1326 33bc
000003c0: 8421 1d3c 13e9 6a3b e569 cab9 a9da 743c
000003d0: 982f 2c3c 9c36 4e3c 8edf 173c 6475 9fbc
000003e0: e828 fbbc 6151 4f3b 7791 54bc a1bf 9e3b
000003f0: 2d17 1abc a909 2d3b a418 633d 9dd6 b9bb

update_node_embedding_layer.0.update_layer.weight f4 [64, 128]
0.0075080204 0.006818568 0.00086573075 -0.0051614977 0.0074384604 -0.01197225 -0.0056603015 -0.0015514987
0.0064184624 0.014434471 -0.0115956105 -0.0016655108 -0.020167302 -0.0006803575 -0.0021515186 -0.008102021
0.011949905 0.00038921964 -0.014170383 -0.0031973685 -0.0007729982 -0.009902928 -0.009593759 -0.004346585
-0.010339375 -0.0006574912 -0.012139008 -0.00067160174 0.0018544924 -0.0104301 0.010315007 -0.006150094
-0.020259636 -0.03361236 -0.008920801 0.006280489 0.012812566 0.00013216586 -0.008188388 0.017193135
0.010342431 -0.004385086 5.8531157e-05 -0.008898407 -0.007366527 0.014102951 -0.02433011 0.004748258
-0.014614876 0.0044798455 -0.0044345385 -0.008897678 -0.010819396 -0.007272465 -0.004566628 0.00013889273
-0.0017554512 -0.013033147 0.0050906357 -0.0067906072 -0.0019524642 -0.0076531214 0.019640753 0.00022439491
0.012451123 0.0039288118 0.008936819 0.003329992 -0.004263867 -0.004954748 0.0128591955 -0.0035331524
-0.0065020304 0.0069869813 0.0072394502 -0.0007420336 0.015847115 0.0014427209 -0.0066868877 0.003538578
0.016941896 -0.010268385 0.007019186 0.0012135583 0.0097796 -0.011017456 -0.008850054 0.0023699538
-0.009690811 -0.0121657625 0.020972423 0.014879573 0.0010716581 0.016705437 -0.002803989 -0.0039202645
0.0032333722 0.012256114 0.0012219709 -0.010433165 -0.015642965 -0.0052807154 -0.011458136 -0.005202763
-0.012459776 0.015344294 -0.0153360125 -0.01037547 -0.0015224892 -0.027193615 -0.01886527 -0.006369767
-0.0037906629 0.002707132 -0.0056048012 -0.009161804 -0.010054879 -0.01190291 -0.010014197 0.004225571
-0.0022067751 0.0054565533 0.02565991 -0.023145216 -0.0069208834 0.0033806015 -0.0025095507 0.015014666
0.09755077 0.035380296 0.0012507658 -0.061908927 -0.005307555 -0.0053395103 -0.096002914 -0.008701386
0.029041262 -0.07134187 -0.022411576 0.047779527 -0.0558436 0.016225936 0.03087507 -0.083856426
0.028886138 -0.14936888 0.038069293 -0.12568295 -0.06341531 0.031260155 0.014068091 0.0096860165
-0.026295975 -0.09069341 -0.050743986 0.0074918177 -0.0450682 0.023452653 0.077588774 0.010944881
-0.012782433 -0.18887155 -0.07276642 0.016152712 0.048149664 0.07324157 0.11971864 -0.06051304
0.019633258 0.0002516775 0.07030149 0.023571443 -0.054967582 -0.005963952 -0.010201939 -0.09472981
-0.12982263 0.051853206 -0.07149744 -0.1351989 0.060694642 0.10496426 0.048608493 -0.12784469
-0.012889661 0.0075104707 -0.11367359 0.011542122 -0.12073368 0.05853503 0.061345696 0.00560167
-0.0034161038 0.024812963 0.024387121 0.0014689611 -0.025247125 -0.008275763 0.002773929 -0.010911016
-0.010796792 -0.018594852 -0.024256047 -0.0007174751 -0.019092562 0.012096844 -0.0027941102 -0.060038462
-0.02272855 0.004480692 -0.018251318 -0.00013644987 0.008567792 0.0025265166 0.03347503 -0.0074844137
-0.015140509 -0.017548367 0.0035539626 -0.002764843 0.006961719 -0.007111315 -0.017961306 0.011611107
-0.0075234897 -0.0074843774 -0.06722724 -0.062367834 -0.014363119 0.015286666 0.0015712676 0.054729987
0.008180435 -0.004895662 0.012664075 -0.006884232 -0.056336563 0.004972666 -0.016139368 0.0029134778
0.0010577276 -0.039061803 -0.020767706 -0.06425188 0.009069691 -0.032687116 -0.004622602 -0.014372035
0.012566237 -0.003923553 -0.013485577 0.008001286 -0.007150833 -0.0109705785 -0.024860593 -0.008574107
00000000: d705 f63b 4b6e df3b 35f2 623a c821 a9bb
00000010: 54be f33b 4227 44bc 0d7a b9bb a85b cbba
00000020: f751 d23b 8f7e 6c3c 84fb 3dbc 454d daba
00000030: e635 a5bc 055a 32ba 7e00 0dbb 57be 04bc
00000040: 89c9 433c 2d10 cc39 e52a 68bc f18a 51bb
00000050: 08a3 4aba e43f 22bc 242f 1dbc cc6d 8ebb
00000060: 7b66 29bc 7d5b 2cba b1e2 46bc 6e0e 30ba
00000070: 7012 f33a 03e3 2abc 4600 293c ba86 c9bb
00000080: 89f7 a5bc 1dad 09bd 8d28 12bc 8fcc cd3b
00000090: cceb 513c 0196 0a39 9728 06bc 9ed8 8c3c
000000a0: 4d73 293c c4b0 8fbb 5a7f 7538 a0ca 11bc
000000b0: e862 f1bb 1010 673c f04f c7bc 4697 9b3b
000000c0: 3c73 6fbc abcb 923b 9b4f 91bb 91c7 11bc
000000d0: d643 31bc dc4d eebb a7a3 95bb bca3 1139
000000e0: 2b17 e6ba fb88 55bc 59cf a63b be83 debb
000000f0: d4e9 ffba 09c7 fabb a5e5 a03c 8d4b 6b39
00000100: ccff 4b3c 43bd 803b bc6b 123c ff3b 5a3b
00000110: e9b7 8bbb 705b a2bb 60af 523c 768c 67bb
00000120: fc0e d5bb 0cf3 e43b e938 ed3b 0885 42ba
00000130: cfd1 813c ae19 bd3a ae1d dbbb 7de7 673b
00000140: bbc9 8a3c ba3c 28bc 3301 e63b 4210 9f3a
00000150: 9e3a 203c 8f82 34bc d1ff 10bc 3a51 1b3b
00000160: 35c6 1ebc e852 47bc 5cce ab3c 74c9 733c
00000170: e176 8c3a d7d9 883c 21c3 37bb 9075 80bb
00000180: fce6 533b decd 483c 8a2a a03a deef 2abc
00000190: ad25 80bc da09 adbb e8ba 3bbc f07b aabb
000001a0: 1724 4cbc a266 7b3c e643 7bbc e0fd 29bc
000001b0: 438e c7ba 25c5 debc 578b 9abc 7ab9 d0bb
000001c0: c56c 78bb 236a 313b 7ba8 b7bb 641b 16bc
000001d0: 38bd 24bc 6c04 43bc 9612 24bc a976 8a3b
000001e0: 8b9f 10bb e3cc b23b bb34 d23c 099b bdbc
000001f0: 94c8 e2bb 158d 5d3b 4677 24bb 1300 763c
00000200: b3c8 c73d eeea 103d bcf0 a33a 3794 7dbd
00000210: 00eb adbb 0ff7 aebb 2d9d c4bd 4290 0ebc
00000220: f1e7 ed3c b01b 92bd 7b98 b7bc 77b4 433d
00000230: 42bc 64bd 41ec 843c b7ed fc3c ebbc abbd
00000240: 9fa2 ec3c 28f4 18be 8cee 1b3d 08b3 00be
00000250: e3df 81bd a60a 003d da7d 663c 19b2 1e3c
00000260: a86a d7bc 77bd b9bd edd8 4fbd ec7d f53b
00000270: 6f99 38bd c71f c03c dde6 9e3d 2852 333c
00000280: 696d 51bc 8b67 41be 9006 95bd b152 843c
00000290: 9538 453d adff 953d 0c2f f53d 85dc 77bd
000002a0: edd5 a03c 95f3 8339 3afa 8f3d e618 c13c
000002b0: b025 61bd 416d c3bb 0926 27bc b401 c2bd
000002c0: 39f0 04be 0764 543d 406d 92bd 9571 0abe
000002d0: f29a 783d 80f7 d63d b319 473d b8e9 02be
000002e0: 282f 53bc 651a f63b b3cd e8bd 2b1b 3d3c
000002f0: 3843 f7bd 6dc2 6f3d a045 7b3d 378e b73b
00000300: b6e0 5fbb 8e44 cb3c 80c7 c73c 288a c03a
00000310: 0fd3 cebc 1197 07bc ceca 353b 1ec4 32bc
00000320: 07e5 30bc 3b54 98bc 9eb4 c6bc f014 3cba
00000330: 0168 9cbc d731 463c 641d 37bb e4ea 75bd
00000340: 3931 babc c5d2 923b ca83 95bc fc13 0fb9
00000350: ed5f 0c3c ea93 253b 1d1d 093d d03f f5bb
00000360: e60f 78bc 98c1 8fbc 99e9 683b 5e32 35bb
00000370: 221f e43b 0906 e9bb 9723 93bc 833c 3e3c
00000380: 9b87 f6bb 823f f5bb 6fae 89bd 6a75 7fbd
00000390: 4a53 6bbc ed74 7a3c fef2 cd3a 8d2c 603d
000003a0: 3b07 063c ca6b a0bb fb7c 4f3c 2095 e1bb
000003b0: 2bc1 66bd bff1 a23b b536 84bc 0cf0 3e3b
000003c0: 73a3 8a3a 45ff 1fbd 0921 aabc 7d96 83bd
000003d0: 0b99 143c ede2 05bd 3279 97bb af78 6bbc
000003e0: 9ee2 4d3c 2691 80bb 9cf2 5cbc d317 033c
000003f0: 8951 eabb f1bd 33bc 71a8 cbbc 697a 0cbc

update_node_embedding_layer.1.message_layer.weight f4 [64, 128]
-0.0024534129 -0.04632671 0.017602418 0.22052886 -0.029207362 0.0020031563 -0.04227016 -0.02162532
-0.034486007 -0.019844148 -0.042259928 -0.042397216 -0.06016284 -0.045361817 -0.009370077 0.023682447
0.28743622 -0.010182217 0.24546783 -0.04286361 0.046176344 -0.03650831 -0.039486393 -0.059127986
-0.037711807 0.0033338382 -0.0020081697 -0.04628229 0.014858605 0.026924621 -0.02842131 0.011080561
0.043578167 -0.015994048 -0.026239913 0.06606489 0.004077647 0.053813666 -0.03545296 0.04503012
-0.04796585 0.2274988 0.350629 -0.02261839 -0.021859555 -0.01780858 -0.025572535 0.01890338
-0.015075166 0.5148922 -0.048196085 -0.0021748394 0.0078392755 -0.0050325287 0.22078165 -0.03960826
0.037145305 0.007468851 -0.04331908 -0.01735041 0.008779383 -0.006977583 -0.04061714 0.038354337
0.0050088107 -0.00029466863 0.0431517 -0.006336092 -0.0135131385 -0.0013606438 -0.014912906 -0.018354034
0.028162548 -0.009691452 0.05813118 0.0034352257 -0.019212754 -0.0031363105 -0.014329332 0.008502593
0.003069065 0.008848925 -0.018758232 0.0027940245 -0.005648741 0.030348329 0.00892901 0.005145957
0.0053216266 -0.016171223 -0.023223344 -0.006141008 -0.017435296 0.023415903 0.006594563 0.00016728575
-0.05542428 0.0061473357 0.023934906 -0.004313238 -0.018951692 -0.027645765 -0.010694454 -0.002195871
-0.004924202 0.0046521206 0.008226442 -0.009780353 9.620454e-05 -0.01603249 0.014929752 -0.008635745
0.037915733 0.009427309 0.003541604 -0.0060923174 -0.016180206 -0.002299788 0.021142138 -0.007342533
0.033942826 -0.004828631 0.0023809853 0.003589196 -0.0051631215 -0.00771763 0.0050461 -0.0072857225
0.00094796147 0.059859127 -0.007868105 -0.057981238 0.050033204 0.005178684 0.022621013 0.035349127
0.07821888 -0.12029944 0.06526292 0.050688375 0.07971388 0.043601032 0.013056022 0.036224395
0.19778417 -0.01007959 0.1536867 0.025150094 0.057808734 0.037245836 0.036601454 0.049585916
0.054023318 0.015576052 -0.00016926562 0.045089412 0.0024756396 0.06828236 -0.19215669 0.0024705974
0.035477653 -0.0019140015 0.054248426 0.07041363 0.010390162 0.048526503 0.07404131 0.077065974
0.06316964 0.20583633 0.22028662 -0.0039725685 -0.012671653 -0.004817127 0.14623055 0.06721338
0.01216651 0.30343232 0.06445351 -0.016619144 0.017380415 -0.012289571 0.04787838 -0.12755421
0.057346486 0.05206735 0.0075871986 0.012343702 -0.02115381 -0.012869364 0.07836036 0.048502788
0.006709194 0.00080940395 0.03385293 0.0076632737 -0.023565833 -0.010899122 0.017166154 0.06722901
-0.056649283 -0.12350051 0.018108211 0.00824243 0.024943437 0.08688895 0.010743322 -0.011050108
-0.00725767 -0.02874906 -0.011794549 0.007855955 0.004364245 0.057853896 -0.020549105 0.016849125
-0.100412205 0.019350389 -0.25632578 -0.06090604 -0.007425953 0.011781182 -0.014409963 0.002553989
-0.14641085 -0.082930915 0.034709357 0.007858451 0.046490204 -0.012765003 -0.06753268 -0.06351943
-0.04362382 0.0029901392 0.03958514 0.002751888 -0.03531575 0.052727614 0.018488586 -0.06024414
0.0009919386 0.045751635 0.01276278 0.017471153 0.015822032 -0.04252222 -0.11098124 0.0025960132
0.050394304 -0.006146415 0.009884542 -0.041039582 -0.06662986 0.006800064 -0.06708032 -0.07727875
00000000: 70c9 20bb 14c1 3dbd f232 903c 51d2 613e
00000010: 4744 efbc 6347 033b 7a23 2dbd 9527 b1bc
00000020: 3341 0dbd 3290 a2bc bf18 2dbd b4a8 2dbd
00000030: 4f6d 76bd 50cd 39bd f484 19bc b101 c23c
00000040: d72a 933e 50d3 26bc eb5b 7b3e c191 2fbd
00000050: 6823 3d3d bd89 15bd 7cbc 21bd 3030 72bd
00000060: b277 1abd 867c 5a3b 7f9b 03bb 8092 3dbd
00000070: 8271 733c 0691 dc3c cfd3 e8bc 3e8b 353c
00000080: 057f 323d f305 83bc 16f5 d6bc 074d 873d
00000090: c89d 853b b86b 5c3d 1f37 11bd 8171 383d
000000a0: d777 44bd 72f5 683e a585 b33e 344a b9bc
000000b0: cf12 b3bc 4de3 91bc 7e7d d1bc 43db 9a3c
000000c0: d4fd 76bc facf 033f 4269 45bd c087 0ebb
000000d0: 4e70 003c e9e7 a4bb 9614 623e 453c 22bd
000000e0: ad25 183d 43bd f43b 596f 31bd 7222 8ebc
000000f0: 67d7 0f3c 35a4 e4bb 285e 26bd 7019 1d3d
00000100: f320 a43b c17d 9ab9 d6bf 303d fe9e cfbb
00000110: 3666 5dbc a157 b2ba 4355 74bc 335b 96bc
00000120: 25b5 e63c e5c8 1ebc f61a 6e3d 8621 613b
00000130: 1164 9dbc 8f8a 4dbb 93c5 6abc 764e 0b3c
00000140: 5e22 493b 15fb 103c ddaa 99bc f41b 373b
00000150: 1319 b9bb 0f9d f83c fb4a 123c 6b9f a83b
00000160: 0a61 ae3b 8379 84bc e23e bebc 823a c9bb
00000170: 77d4 8ebc b5d2 bf3c 3417 d83b 6d69 2f39
00000180: 9204 63bd 976f c93b 2313 c43c 1056 8dbb
00000190: 9440 9bbc 5f79 e2bc cb37 2fbc 9ae8 0fbb
000001a0: 335b a1bb d170 983b 33c8 063c c63d 20bc
000001b0: 6bc1 c938 9256 83bc eb9b 743c f17c 0dbc
000001c0: 874d 1b3d 0075 1a3c 411a 683b 10a2 c7bb
000001d0: 5a8c 84bc 0ab8 16bb 4732 ad3c a299 f0bb
000001e0: a207 0b3d 7e39 9ebb 4e0a 1c3b b738 6b3b
000001f0: 672f a9bb 2ce4 fcbb c159 a53b 12bd eebb
00000200: 9e80 783a d82e 753d 39e9 00bc bc7d 6dbd
00000210: 9eef 4c3d f3b1 a93b b44f b93c 3fca 103d
00000220: 3831 a03d 8e5f f6bd 91a8 853d 9d9e 4f3d
00000230: 0841 a33d ff96 323d ede8 553c 0860 143d
00000240: ef87 4a3e dd24 25bc 0c60 1d3e 9207 ce3c
00000250: dac8 6c3d 178f 183d 68eb 153d 9a1a 4b3d
00000260: 8e47 5d3d b232 7f3c e57c 31b9 adaf 383d
00000270: 573e 223b 9fd7 8b3d b9c4 44be bfe9 213b
00000280: 0451 113d 3cdf faba 9933 5e3d 0535 903d
00000290: 7f3b 2a3c bac3 463d f8a2 973d c4d4 9d3d
000002a0: 165f 813d c2c6 523e d192 613e 522c 82bb
000002b0: c49c 4fbc fdd8 9dbb 76bd 153e 2ba7 893d
000002c0: 0b56 473c 7b5b 9b3e 3400 843d df24 88bc
000002d0: 5f61 8e3c 325a 49bc 1f1c 443d 929d 02be
000002e0: 26e4 6a3d 9344 553d 099e f83b 3d3d 4a3c
000002f0: c14a adbc 06da 52bc 657b a03d dcaa 463d
00000300: ccd8 db3b 2e2e 543a 5fa9 0a3d 331c fb3b
00000310: 220d c1bc 3b92 32bc 09a0 8c3c 5daf 893d
00000320: 1409 68bd d6ed fcbd ac57 943c 420b 073c
00000330: 2e56 cc3c d5f2 b13d c204 303c 830b 35bc
00000340: c0d1 edbb 2683 ebbc ed3d 41bc 43b6 003c
00000350: f101 8f3b 35f8 6c3d 9956 a8bc 2d07 8a3c
00000360: eaa4 cdbd b584 9e3c 223d 83be 9d78 79bd
00000370: 6955 f3bb dc05 413c c417 6cbc d360 273b
00000380: baec 15be afd7 a9bd 662b 0e3d bcc0 003c
00000390: 836c 3e3d 4e24 51bc 934e 8abd 7a16 82bd
000003a0: e4ae 32bd 36f6 433b 0724 223d 0559 343b
000003b0: 3fa7 10bd e9f8 573d 6075 973c 8fc2 76bd
000003c0: f003 823a 1166 3b3d fb1a 513c aa1f 8f3c
000003d0: 359d 813c c82b 2ebd 224a e3bd e021 2a3b
000003e0: 426a 4e3d de67 c9bb c6f2 213c 1f19 28bd
000003f0: 3c75 88bd 12d3 de3b 6861 89bd 5244 9ebd

update_node_embedding_layer.1.update_layer.weight f4 [64, 128]
-0.010166158 -0.06641794 -0.0015054389 0.13394742 -0.0742155 0.018173264 -0.034568943 -0.12464165
-0.05377699 -0.29493147 -0.042601876 -0.061232977 -0.080518425 -0.07018275 -0.059162155 0.03930683
0.19885431 0.0024896995 0.13904047 -0.07443876 0.0528054 -0.069382355 -0.11414564 -0.10600243
-0.071413904 0.010020811 -0.0054459637 -0.044470783 0.010039929 0.044867653 -0.012376521 0.021125354
0.0510299 0.006727519 -0.056968134 0.054647714 -0.004555614 0.056285094 -0.09469875 0.05356978
-0.08220476 0.1471668 0.18287513 0.005523169 -0.0061289486 0.004195299 0.015398836 0.06463812
-0.16178522 0.31539404 -0.06297752 0.01227435 -0.082152486 0.009065761 0.12864818 -0.041395977
0.07077911 0.041144703 -0.13932185 -0.0725565 0.00096628093 0.007024199 0.04739489 0.22508872
0.007982752 0.10080362 -0.014818198 0.005566678 -0.009203515 -0.002119098 -0.010220123 0.07832359
-0.004878531 0.0050325044 0.012933391 0.0066370694 -0.007757715 -0.0019633004 0.006561636 0.0027607274
0.005735186 -0.00515868 0.013473665 0.018827869 0.012575817 -0.015148579 0.0151669895 0.009663142
-0.17823415 0.10817886 0.027055161 -0.0060446197 0.008486662 0.015896196 0.04477511 0.0015348429
-0.010391579 0.0042203777 0.022698995 -0.0060899747 0.027787317 0.004101032 -0.011928596 -0.003214695
0.010703447 -0.083499424 -0.008487525 -0.00015805288 -0.012283896 0.012538668 0.0004449678 -0.00793197
0.01463146 -0.0095191505 0.012532683 -0.007178702 -0.012344285 -0.016105475 -0.0006137574 -0.017895473
0.008852675 0.01836307 0.00037052153 -0.12845153 0.051642623 -0.001975873 -0.0020256522 0.00040079877
-0.010863466 -0.0016136412 -0.007028142 -0.047430962 0.0056852484 -0.010389512 -0.069649674 -0.115772106
-0.053377874 0.09723584 0.0031644446 -0.011390912 -0.013230755 0.019334357 -0.029980794 -0.43530324
-0.11505212 0.013382397 -0.11577752 0.030869136 -0.35173824 0.027239759 -0.035591766 -0.05051913
-0.12234158 0.0027347475 -0.0062289075 -0.019831577 -0.009917131 -0.3510682 -0.120568134 -0.017264713
-0.37612325 0.008303429 0.007946461 -0.30520052 0.0017040069 -0.31172428 -0.032376397 -0.3128099
0.007222474 -0.3187587 -0.16886485 -0.010881407 -0.012037602 0.0047711004 -0.31866175 -0.26071677
-0.016276356 -0.33363193 0.0016183148 0.004584755 -0.08489336 -0.002873488 -0.1489627 -0.05750516
-0.3194513 -0.34177902 -0.015317956 -0.15215829 -0.006654196 -0.0036493393 -0.14192027 0.042427164
-0.041500796 0.036222696 -0.022241343 0.024746751 -0.015403688 -0.0017820686 0.057305843 0.051376093
0.0033971658 -0.014407352 0.038277023 0.029919438 -0.017583165 -0.017179327 0.007352289 -0.008561072
0.026696034 0.011551481 -0.005792643 0.0204871 -0.018492483 0.00050664635 0.009563459 0.017582044
0.0908909 0.083324105 0.004454057 -0.0033151226 0.008994487 0.043320794 -0.021608073 0.0052797627
-0.0039151404 0.0013301374 -0.009065043 -0.01421177 0.041657086 0.017864807 -0.00028158753 -0.0059180534
-0.011052246 -0.007405823 0.0008412695 -0.009619842 0.026051192 0.0089976415 0.0031949393 0.003954478
0.0037335341 0.033484325 0.011175519 0.02091942 0.038695123 -0.002770325 0.023063583 -1.4229316e-05
-0.003673406 0.0029358042 0.057607666 -0.028013062 0.026847512 0.014062161 -0.001728105 0.12089141
00000000: f58f 26bc 2106 88bd 2652 c5ba 8329 093e
00000010: 4cfe 97bd 19e0 943c 2a98 0dbd 1f44 ffbd
00000020: 4345 5cbd 4201 97be 4e7f 2ebd 6ecf 7abd
00000030: d8e6 a4bd f9bb 8fbd 0454 72bd 3300 213d
00000040: 77a0 4b3e 3a2a 233b a060 0e3e 5973 98bd
00000050: 7a4a 583d 5618 8ebd 30c5 e9bd cd17 d9bd
00000060: 7441 92bd 542e 243c 0e74 b2bb ff26 36bd
00000070: 847e 243c 25c7 373d e4c6 4abc 140f ad3c
00000080: ba04 513d 8572 dc3b 6b57 69bd 48d6 5f3d
00000090: 4347 95bb 338b 663d 6bf1 c1bd fc6b 5b3d
000000a0: f85a a8bd e5b2 163e 9e43 3b3e b3fb b43b
000000b0: 59d5 c8bb b878 893b 664b 7c3c fe60 843d
000000c0: 06ab 25be 547b a13e 5cfa 80bd 5b1a 493c
000000d0: 903f a8bd 8f88 143c 59bc 033e d48e 29bd
000000e0: a3f4 903d 5987 283d 63aa 0ebe 8198 94bd
000000f0: 044e 7d3a 402b e63b 2521 423d a87d 663e
00000100: 17ca 023c 2172 ce3d 07c8 72bc ae68 b63b
00000110: 57ca 16bc 91e0 0abb 4e72 27bc 1e68 a03d
00000120: 16dc 9fbb b5e7 a43b 93e6 533c c67b d93b
00000130: 6e34 febb b7aa 00bb fe02 d73b 52ed 343b
00000140: 3aee bb3b 250a a9bb a6c0 5c3c e73c 9a3c
00000150: cd0a 4e3c bf31 78bc f77e 783c 2852 1e3c
00000160: 0383 36be e18c dd3d c9a2 dd3c f211 c6bb
00000170: a40b 0b3c bd38 823c 1b66 373d c82c c93a
00000180: 7141 2abc 184b 8a3b 3ef3 b93c 698e c7bb
00000190: 3aa2 e33c f361 863b 2870 43bc a2ad 52bb
000001a0: 835d 2f3c bf01 abbd 430f 0bbc ffba 25b9
000001b0: 6542 49bc fc6e 4d3c 914a e939 18f5 01bc
000001c0: cbb8 6f3c 36f6 1bbc e255 4d3c 513b ebbb
000001d0: af3f 4abc a1ef 83bc 90e4 20ba 8799 92bc
000001e0: cf0a 113c 266e 963c 8f42 c239 cc88 03be
000001f0: 3787 533d a67d 01bb cec0 04bb 4d22 d239
00000200: aefc 31bc d080 d3ba 544c e6bb f846 42bd
00000210: 524b ba3b c638 2abc 7da4 8ebd ed19 edbd
00000220: c2a2 5abd 9623 c73d 9262 4f3b f3a0 3abc
00000230: cfc5 58bc 1663 9e3c 489a f5bc 11e0 debe
00000240: 72a0 ebbd d741 5b3c c41c edbd 45e1 fc3c
00000250: 0917 b4be ea25 df3c acc8 11bd 26ed 4ebd
00000260: 398e fabd 7339 333b dd1b ccbb d575 a2bc
00000270: 767b 22bc 36bf b3be 6dec f6bd ba6e 8dbc
00000280: 3a93 c0be 1b0b 083c e031 023c 3e43 9cbe
00000290: fc58 df3a 539a 9fbe 1d9d 04bd 9f28 a0be
000002a0: 81aa ec3b 5734 a3be e8ea 2cbe ee47 32bc
000002b0: 5d39 45bc e456 9c3b a227 a3be ab7c 85be
000002c0: fe55 85bc ced1 aabe a21d d43a b63b 963b
000002d0: 92dc adbd 2151 3cbb ae89 18be 888a 6bbd
000002e0: 1f8f a3be a9fd aebe 2af8 7abc 62cf 1bbe
000002f0: 710b dabb c129 6fbb 8c53 11be 1bc8 2d3d
00000300: bdfc 29bd 405e 143d 7a33 b6bc b3b9 ca3c
00000310: c05f 7cbc 4d94 e9ba 88b9 6a3d bd6f 523d
00000320: fca2 5e3b d00c 6cbc 5ec8 1c3d 9c19 f53c
00000330: 920a 90bc a9bb 8cbc 78eb f03b bd43 0cbc
00000340: a4b1 da3c 6c42 3d3c 36d0 bdbb 90d4 a73c
00000350: 8c7d 97bc 76d0 043a 0eb0 1c3c 3808 903c
00000360: 0225 ba3d d4a5 aa3d 57f3 913b 8742 59bb
00000370: 9d5d 133c 2571 313d 6a03 b1bc dc01 ad3b
00000380: 944a 80bb 0158 ae3a 8c85 14bc 7cd8 68bc
00000390: 9fa0 2a3d 3759 923c 0aa2 93b9 3bec c1bb
000003a0: 7b14 35bc 8cac f2bb a488 5c3a 8b9c 1dbc
000003b0: 4f69 d53c d86a 133c 3062 513b 9194 813b
000003c0: 4fae 743b dc26 093d 8619 373c 345f ab3c
000003d0: c77e 1e3d 578e 35bb d7ef bc3c 72ba 6eb7
000003e0: 87bd 70bb 9f66 403b 04f6 6b3d a67b e5bc
000003f0: 50ef db3c fa64 663c 9581 e2ba ea95 f73d
