ER_200spin/eco/network/network8400000.pth (torch, 238273 bytes, 11 tensors)

node_init_embedding_layer.0.weight f4 [64, 7]
0.031940065 -0.26792267 -0.29105875 -0.02242883 -0.0014281293 -0.00914258 0.0659305 0.0086117815
-0.19800775 -0.020447418 0.085667334 -0.10230544 0.100501485 0.03934868 0.021462677 0.43124822
-0.017354444 -0.041067176 0.00037281873 -0.017421663 0.03260313 -0.037726045 0.43500695 0.027031492
0.015771687 0.0009451052 0.018602997 0.03804973 -0.006149493 -0.0038983978 -0.009858432 -0.011102081
-0.01081875 -0.0037795096 -0.0152212195 -0.011088987 -0.003336754 -0.0021030232 -0.0026715926 -0.013247419
-0.016443353 -0.0054617994 0.03331598 0.5128789 -0.003103493 -0.11524348 -0.0016458102 -0.044587776
0.0077689723 0.01491459 -0.21318083 -0.6608061 0.2738801 0.0013624721 0.09878914 0.046156343
0.043557752 -0.35022864 0.0878234 0.19561328 0.00021830382 0.050913412 0.053948402 0.042661287
0.48978516 0.020086823 0.04410027 -0.00289702 -0.0032542688 -0.027502194 -0.02856466 0.38896754
0.08147336 0.091098435 -0.00012452604 0.02476404 0.0055527412 -0.010014588 0.35493436 -0.15665887
0.034317102 0.0047185747 -0.0006811909 -0.265302 0.042938337 0.5222647 -0.0059090964 -0.07576337
-1.06221305e-05 0.021726735 0.013006362 0.030999456 -0.3566953 -0.027314696 0.07510298 0.001769954
-0.023166288 0.026988825 0.03941462 -0.3186173 -0.016974334 0.11923758 0.0018811882 -0.0005101836
0.045773316 0.0321133 0.051702894 -0.15291576 0.109276205 0.002064658 0.028465133 -0.20784691
0.04071251 -0.20699677 -0.10134123 0.1188172 -0.028345002 0.08115405 -0.004577674 -0.06347014
0.39528063 0.046243113 0.008252226 0.0036049546 0.050352618 0.04141835 0.05145243 -0.44991216
-0.006082233 0.12717195 0.009299312 0.008763869 0.064615615 -0.06239493 0.38464794 0.073593706
0.06882418 -0.0074909893 0.022171335 0.029775891 0.039047547 0.51467043 0.028169004 0.00525186
0.00090916385 0.0052211704 -0.012312032 0.048256144 -0.4303691 0.026425203 0.14357342 0.0031106155
0.019515788 0.05556352 0.022167314 -0.18853089 0.092722334 0.033285316 -0.04150389 0.099278644
-0.034546725 -0.0063655907 -0.21541604 0.20957343 0.060115434 -0.0030180681 0.030144423 0.09281284
0.03134069 -0.25818297 0.07693008 0.44866258 0.005018125 0.10727925 0.00034157102 -0.05957514
0.38826528 0.029695738 0.023377212 -0.0015331025 0.04505958 -0.06535614 0.05137491 0.5307336
0.02529653 0.04068747 -0.0004695708 0.029250521 -0.0034480349 -0.001984467 0.0030851387 0.001095844
-0.009433593 -0.0056003085 -0.0043595186 -0.010299535 0.03730953 0.45845675 0.023501694 0.0052434863
0.0020336204 0.0031676693 -0.02917973 0.047207028 -0.43449152 0.0041679814 0.12340558 0.004772586
0.045846988 0.030590525 0.022011926 -0.20741455 -0.015874451 -0.19215678 -0.001157739 0.124759674
-0.016406052 -0.060816355 -0.2892084 0.021556955 0.14109683 -0.0114289485 0.0086103035 0.031919584
-0.0024586709 0.010216853 -0.003911835 -0.01777523 -0.0039956234 -0.0083094295 -0.002357947 0.018887395
0.1458606 -0.3507967 -0.0034269965 0.001645906 0.012848931 -0.39412585 0.0253545 0.45510805
0.002345683 -0.017961627 0.00029121325 0.035956994 0.012875412 -0.0029958652 0.004468031 -0.011094356
-0.01162292 -0.011126069 -0.0063133347 -0.0016458024 0.013468155 -0.1814686 -0.23674586 0.069175966
00000000: 96d3 023d 292d 89be a705 95be aabc b7bc
00000010: 1130 bbba c3ca 15bc 9206 873d 6e18 0d3c
00000020: 8bc2 4abe 5881 a7bc 5b72 af3d 8485 d1bd
00000030: b9d3 cd3d 152c 213d 7fd2 af3c 91cc dc3e
00000040: e82a 8ebc 0e36 28bd e276 c339 e0b7 8ebc
00000050: dc8a 053d a086 1abd 3bb9 de3e 2671 dd3c
00000060: a033 813c f0c0 773a 5065 983c 09da 1b3d
00000070: b081 c9bb 437c 7fbb 4385 21bc 81e5 35bc
00000080: 2041 31bc a6b1 77bb 6c62 79bc 95ae 35bc
00000090: 71ad 5abb e0d2 09bb e315 2fbb b40b 59bc
000000a0: 36b4 86bc e5f8 b2bb 5676 083d 084c 033f
000000b0: f963 4bbb c604 ecbd 3ab8 d7ba aca1 36bd
000000c0: dd92 fe3b 535c 743c 134c 5abe 972a 29bf
000000d0: 033a 8c3e fa94 b23a f651 ca3d 6f0e 3d3d
000000e0: 9d69 323d 2b51 b3be c1dc b33d d94e 483e
000000f0: 7ce8 6439 958a 503d 00f9 5c3d 9abd 2e3d
00000100: 1fc5 fa3e 1f8d a43c 7ca2 343d eedb 3dbb
00000110: 9245 55bb 484c e1bc 6f00 eabc c126 c73e
00000120: 81db a63d d191 ba3d 3493 02b9 f5dd ca3c
00000130: c5f3 b53b 3a14 24bc f5b9 b53e 2f6b 20be
00000140: 1790 0c3d 469e 9a3b f391 32ba aad5 87be
00000150: 1ce0 2f3d 24b3 053f 18a1 c1bb d329 9bbd
00000160: b435 32b7 44fc b13c a318 553c 92f2 fd3c
00000170: c4a0 b6be 12c3 dfbc 97cf 993d cdfd e73a
00000180: 3ac7 bdbc ab17 dd3c 3971 213d cf21 a3be
00000190: c20d 8bbc d532 f43d 3492 f63a d8bd 05ba
000001a0: cd7c 3b3d 3c89 033d 6ac6 533d f395 1cbe
000001b0: 34cc df3d 374f 073b b62f e93c d2d5 54be
000001c0: 29c2 263d f6f6 53be fe8b cfbd 6f56 f33d
000001d0: c733 e8bc 1834 a63d 5000 96bb a2fc 81bd
000001e0: 3962 ca3e 6b69 3d3d 5834 073c 1a41 6c3b
000001f0: 8c3e 4e3d 4aa6 293d c9bf 523d e35a e6be
00000200: 784d c7bb 5d39 023e 245c 183c 5596 0f3c
00000210: 3155 843d d391 7fbd 93f0 c43e 4cb8 963d
00000220: b1f3 8c3d f976 f5bb a9a0 b53c 92ec f33c
00000230: 52f0 1f3d 71c1 033f afc2 e63c cb17 ac3b
00000240: f454 6e3a 5a16 ab3b 68b8 49bc 3ca8 453d
00000250: 5759 dcbe ab79 d83c e904 133e 78db 4b3b
00000260: 93df 9f3c 9396 633d 3a98 b53c 3e0e 41be
00000270: 35e5 bd3d 2f56 083d fcff 29bd 9a52 cb3d
00000280: de80 0dbd 7296 d0bb 0696 5cbe 6b9a 563e
00000290: 9a3b 763d c8ca 45bb 70f1 f63c a914 be3d
000002a0: 185f 003d 8f30 84be 858d 9d3d 1ab7 e53e
000002b0: 156f a43b 39b5 db3d e314 b339 1005 74bd
000002c0: b5ca c63e 7a44 f33c 9181 bf3c 62f2 c8ba
000002d0: 6590 383d 71d9 85bd 7f6e 523d 28de 073f
000002e0: ab3a cf3c e8a7 263d ba30 f6b9 ca9e ef3c
000002f0: 6df8 61bb d50d 02bb 0a30 4a3b 6ca2 8f3a
00000300: 5b8f 1abc cb82 b7bb 4bda 8ebb 61bf 28bc
00000310: e1d1 183d d8ba ea3e a086 c03c 8dd1 ab3b
00000320: 7d46 053b ac98 4f3b 540a efbc 285c 413d
00000330: ac75 debe 9093 883b 11bc fc3d 5a63 9c3b
00000340: 0dca 3b3d fb98 fa3c 5b52 b43c 7b64 54be
00000350: 230b 82bc bfc4 44be 46bf 97ba 0082 ff3d
00000360: fc65 86bc 921a 79bd 2013 94be 3698 b03c
00000370: b07b 103e 7c40 3bbc 3b12 0d3c 1cbe 023d
00000380: a721 21bb 9664 273c da2e 80bb 5c9d 91bc
00000390: b8ed 82bb 4624 08bc c987 1abb bdb9 9a3c
000003a0: 7b5c 153e a09b b3be 7697 60bb 71bb d73a
000003b0: 5384 523c ddca c9be 3eb4 cf3c ec03 e93e
000003c0: 08ba 193b 4324 93bc fbad 9839 a447 133d
000003d0: 64f3 523c 4756 44bb 9068 923b 1ac5 35bc
000003e0: 0f6e 3ebc 1e4a 36bc 17e0 cebb f7b7 d7ba
000003f0: 89a9 5c3c e8d2 39be 826d 72be 21ac 8d3d

edge_embedding_layer.edge_embedding_NN.weight f4 [63, 8]
0.026667628 0.026914775 0.3256331 -0.05892692 -0.046046663 -0.079026215 -0.010117001 -0.07105636
-0.009922469 -0.010774974 -0.004315335 -0.0022903706 0.008953054 -0.02221353 -0.015251183 0.008083992
0.027549928 0.020108016 0.3047332 -0.059941854 -0.012451135 -0.016945884 -0.0044850013 -0.01830224
0.053441968 0.044156734 0.30778298 -0.17319228 -0.06539019 -0.00093815284 0.04308104 -0.05101539
-0.015035438 -0.0067404066 0.0153879905 -0.014715848 -0.00982584 -0.0015218513 -0.0013866938 -0.0020847525
-0.010408337 -0.00058907137 0.002471643 -0.004193349 0.0027986444 -0.013592724 0.011577544 0.002690091
-0.015068448 -0.03707495 -0.17972915 0.1328625 0.04115829 -0.012632139 -0.11122 0.06427995
-0.006407987 0.0014338065 -0.2411508 0.17795609 0.10448853 0.016514417 -0.002028289 0.1276717
0.00063870323 -0.15881711 -0.23068917 0.117160015 0.102114774 0.002964754 0.0066695237 0.08642395
-0.005051191 -0.077838965 -0.21172845 0.13170916 0.03977986 0.022673672 -0.049215864 0.107953615
-0.021930408 0.001238811 -0.21733543 0.15016548 0.0999181 0.009937385 0.008396903 0.10330231
-0.0005169977 -0.0011437915 -0.0015800482 -0.011648395 -0.008384922 -0.019005835 -0.021238621 -0.0031330034
-0.011771853 -0.0064551826 -0.018746976 0.008560626 -0.0028598043 -0.013159215 0.0014753747 -0.0033808637
0.05494466 0.021277675 0.29102316 -0.13419607 -0.015857097 0.003520024 0.04326845 -0.13152179
-0.01986556 -0.038261764 -0.19910967 0.12425233 0.07885623 0.020839619 -0.3122396 0.093774304
0.06745934 0.049665995 0.29834178 -0.17461218 -0.09874102 0.0039798664 0.050347045 -0.07700391
-0.01587721 -0.022164198 -0.20963484 0.15270036 0.10636101 -0.0059483745 0.028944142 0.07932918
0.043415017 0.011947082 0.31578976 -0.091618165 0.044569526 -0.00462182 0.02162635 -0.0706517
0.053194784 0.0019028953 0.29838818 -0.12615462 0.0114493165 0.006567435 0.03012554 -0.13500687
-0.015936406 -0.040911656 -0.1788103 0.13011417 0.14647771 -0.0073668463 -0.038309895 0.07675296
-0.0014439179 -0.00978569 0.0023963705 0.0012964379 -0.0012544036 -0.0001595673 -0.007059626 -0.009169412
-0.01016211 -0.018755533 -0.21270585 0.13793409 0.126659 -0.008675453 0.015944969 0.08276888
0.05156575 0.050146606 0.30912134 -0.19685395 -0.049371213 -0.005344746 0.045695774 -0.034223594
-0.0014835857 -0.0010873167 0.0004004063 0.0019544451 -0.017845793 -0.0053972867 -0.0027487199 -0.0038520296
0.07112287 0.037965667 0.30466336 -0.20588404 -0.0994979 0.010803287 0.031048521 -0.07065309
0.034355093 0.0010318131 0.33489075 -0.29805383 -0.018907873 0.013298543 0.021087881 -0.29776445
-0.028361104 -0.022090709 -0.18177108 0.1449521 0.06427552 0.0109050665 -0.400896 0.09302032
0.059144363 0.019233176 0.2944803 -0.15928671 0.04764295 0.0021697371 0.033698667 -0.07557546
-0.014819773 -0.014826146 -0.01661776 -0.015271877 -0.007614104 -0.012074424 -0.012945181 -0.010523627
-0.0130981 -0.053214185 -0.18109922 0.15992501 0.122426935 0.008979708 -0.15625422 0.09459109
0.04724622 0.049973622 0.29812998 -0.20168245 -0.064083375 -0.0032113986 0.047916394 -0.019157192
0.024970239 -0.027788166 0.3767799 -0.29612306 -0.050806385 0.0003032814 0.01010523 -0.31945893
00000000: 1276 da3c 607c dc3c 62b9 a63e 5b5d 71bd
00000010: 6d9b 3cbd 7fd8 a1bd c7c1 25bc ff85 91bd
00000020: da91 22bc 8489 30bc a767 8dbb 0b1a 16bb
00000030: d5af 123c 26f9 b5bc 19e0 79bc b872 043c
00000040: 63b0 e13c 91b9 a43c fd05 9c3e 9785 75bd
00000050: d8ff 4bbc 18d2 8abc ebf6 92bb 94ee 95bc
00000060: f7e5 5a3d b1dd 343d bb95 9d3e 5159 31be
00000070: 4beb 85bd 5fee 75ba bf75 303d 83f5 50bd
00000080: 3357 76bc a1de dcbb e91d 7c3c bd1a 71bc
00000090: 8ffc 20bc db78 c7ba b9c1 b5ba 58a0 08bb
000000a0: bb87 2abc e96b 1aba 4afb 213b 5c68 89bb
000000b0: 7669 373b 04b4 5ebc bdaf 3d3c 3d4c 303b
000000c0: a7e1 76bc e7db 17bd eb0a 38be 1b0d 083e
000000d0: 9895 283d 08f7 4ebc 50c7 e3bd 35a5 833d
000000e0: 17fa d1bb 90ee bb3a 3cf0 76be 1f3a 363e
000000f0: 15fe d53d 3e49 873c 0bed 04bb 5fbc 023e
00000100: a66e 273a f4a0 22be c839 6cbe 97f1 ef3d
00000110: 8d21 d13d 514c 423b 058c da3b 0aff b03d
00000120: 7684 a5bb 096a 9fbd 58cf 58be c4de 063e
00000130: 35f0 223d 23be b93c 9396 49bd c916 dd3d
00000140: 66a7 b3bc 995f a23a 2e8d 5ebe fbc4 193e
00000150: dca1 cc3d 6ad0 223c 2a93 093c 2990 d33d
00000160: 2187 07ba 46eb 95ba 9f19 cfba e9d8 3ebc
00000170: e960 09bc 20b2 9bbc 9efc adbc 1353 4dbb
00000180: bbde 40bc ff85 d3bb 4293 99bc de41 0c3c
00000190: 8e6b 3bbb c099 57bc 5c61 c13a 7b91 5dbb
000001a0: a70d 613d 854e ae3c fd00 953e b26a 09be
000001b0: bee6 81bc 34b0 663b 423a 313d a6ad 06be
000001c0: 19bd a2bc 5eb8 1cbd 68e3 4bbe 0178 fe3d
000001d0: 607f a13d d9b7 aa3c dedd 9fbe be0c c03d
000001e0: 1f28 8a3d 926e 4b3d 41c0 983e 89cd 32be
000001f0: bb38 cabd 8a69 823b b438 4e3d 3ab4 9dbd
00000200: ec10 82bc b191 b5bc 84aa 56be 7c5d 1c3e
00000210: cdd3 d93d 95ea c2bb 441c ed3c 5677 a23d
00000220: f2d3 313d b2bd 433c 32af a13e 4ea2 bbbd
00000230: 898e 363d a372 97bb be29 b13c d7b1 90bd
00000240: c6e2 593d 926a f93a 56c6 983e ad2e 01be
00000250: ea95 3b3c a333 d73b d6c9 f63c 3e3f 0abe
00000260: 118d 82bc fb92 27bd 0c1a 37be a63c 053e
00000270: 41fe 153e 9665 f1bb d6ea 1cbd a830 9d3d
00000280: d841 bdba 2954 20bc 6d0c 1d3b 3ded a93a
00000290: cd6a a4ba 8551 27b9 6f54 e7bb 4d3b 16bc
000002a0: fb7e 26bc 34a5 99bc 90cf 59be 983e 0d3e
000002b0: e6b2 013e 7d23 0ebc 069f 823c bb82 a93d
000002c0: 9c36 533d 8766 4d3d 2745 9e3e 1594 49be
000002d0: 7839 4abd fb22 afbb 7e2b 3b3d 0a2e 0cbd
000002e0: e074 c2ba 4b84 8eba a0ed d139 2616 003b
000002f0: 5731 92bc b9db b0bb de23 34bb 5572 7cbb
00000300: dea8 913d e381 1b3d d6fc 9b3e 44d3 52be
00000310: 8ec5 cbbd 4500 313c 7859 fe3c 91b2 90bd
00000320: edb7 0c3d e73d 873a cd76 ab3e 839a 98be
00000330: afe4 9abc 22e2 593c 7ec0 ac3c 9574 98be
00000340: 8c55 e8bc 93f7 b4bc 3322 3abe 536e 143e
00000350: e2a2 833d 2aab 323c 3e42 cdbe 7081 be3d
00000360: 5c41 723d e58e 9d3c 1fc6 963e 0e1c 23be
00000370: 4125 433d 2632 0e3b 9d07 0a3d 4fc7 9abd
00000380: a2ce 72bc 5de9 72bc f821 88bc e536 7abc
00000390: bc7f f9bb ced3 45bc 0618 54bc 4a6b 2cbc
000003a0: 6a99 56bc 1ef7 59bd 1372 39be 62c3 233e
000003b0: f9ba fa3d a01f 133c 1b01 20be f9b8 c13d
000003c0: 4185 413d 24b1 4c3d 7ea4 983e d885 4ebe
000003d0: 253e 83bd 5476 52bb fb43 443d 8bef 9cbc
000003e0: 638e cc3c 02a4 e3bc 4ce9 c03e 719d 97be
000003f0: 5b1a 50bd be01 9f39 6890 253c 1f90 a3be

edge_embedding_layer.edge_feature_NN.weight f4 [64, 64]
0.0470959 0.006673097 0.03900325 0.062798604 0.009925359 0.00821526 -0.033843093 -0.059223257
-0.037471656 -0.030270005 -0.0389745 0.0012318065 -0.005665803 0.07695484 -0.040313438 0.06565011
-0.038668737 0.03188742 0.03940849 -0.0032776352 0.000109577515 -0.036228575 0.046509553 0.002587881
0.04914894 0.13691755 -0.08775666 0.049741186 -0.0021766124 -0.05776375 0.048663232 0.13018036
-0.05116943 -0.039747324 0.08182055 -0.006707543 0.047846787 -0.036642846 -0.05083105 0.06287544
-0.034899525 0.054205164 0.02182169 0.07472591 0.0033941509 -0.019719651 -0.027926672 -0.002245156
0.0020962334 -0.04774136 0.017370982 -0.010358377 0.029092602 0.012979024 -0.038738392 0.030968595
0.07585616 0.1237632 0.0092882775 0.018932724 0.04726123 0.08779546 0.041867685 0.054923873
-0.010757435 -0.008134392 0.0015555887 0.0082254615 0.0019207367 0.002163062 0.0075713447 0.008774764
-0.007368058 -0.008162394 -0.011945093 0.00053097215 0.013778844 0.0062424517 0.0026948373 -0.014645023
9.829938e-05 0.007712967 0.008076533 -0.0020919112 -0.0091824075 -0.00903409 -0.0045856712 -0.024723053
0.0061283913 0.010687757 -0.0079584615 -0.0028761444 0.012500013 -0.021071821 0.004995809 0.004633419
-5.6490684e-05 -0.015611438 -0.010616232 -0.0030209445 -0.022822924 0.004618022 -0.0052528144 0.009122809
0.00059116463 0.012726235 0.0044763433 0.0040317248 -0.0024838957 -0.01235016 -0.00058075506 0.016682966
0.013421233 0.0007373087 0.0055199787 0.0034704753 -0.02354301 -0.012233246 0.004081472 -0.018016197
-0.008616842 -0.006729163 -0.005336937 0.00050229934 0.0036360866 -0.004051917 0.009005738 -0.029614363
0.017311826 -0.0063518262 0.015422342 0.024678081 -0.011611266 -0.004056425 -0.00074567914 0.011875853
0.049521785 0.0012508554 0.0072817123 0.0021992014 -0.001916733 0.0075947745 -0.005666144 0.0018333762
-0.0016265998 -0.020889983 -0.0273178 0.004134639 -0.02420997 0.016680643 0.010175713 0.0041167918
-0.00086034666 -0.09057957 -0.0011635266 -0.050611444 -0.007525111 0.0043674856 0.007188873 -0.14374028
0.022042038 0.023738176 0.0048259865 0.039596688 0.017307952 0.017276295 0.016157262 0.03300795
0.03704594 -0.060675874 -0.0103525445 0.015663786 -0.0030575085 0.045548514 0.04904147 0.011249505
-0.013233761 0.026975704 -0.0001349812 0.011113654 0.02356817 0.0015670959 0.027946267 -0.05065602
-0.032422386 -0.055786476 0.0048289425 0.009405347 0.017900584 0.009681065 0.023667576 0.0009771733
-0.01394048 -0.006870072 -0.009293741 0.008531291 0.0033435759 -0.008219612 -0.009937564 1.8024335e-06
0.0065187598 -0.0015708433 0.008476569 -0.007357938 -0.0046117115 0.002252608 -0.008796808 -0.0023317866
-0.017442891 0.0060973703 -0.015798636 -0.0050842944 0.0041428367 -0.004616083 -6.412105e-05 -0.0023929016
0.002517064 -0.010286944 -0.0030664708 0.007888776 0.01083421 -0.0011445023 -0.0026926599 -0.0010076426
-0.016303077 0.007156581 0.0010438258 0.00019029636 0.00089925295 -0.0055984505 -0.0056308643 0.0001323514
-0.0054644374 -0.00420371 0.00012495325 -0.00021016278 0.017536044 0.01697999 -0.01351005 0.0057136067
-0.00062793127 -0.00031389037 0.0030395736 -0.013317074 -0.00057330204 0.0054728673 -0.0015698014 -0.0076897168
0.013171347 -0.013533647 -0.00035957596 -0.00062156183 -0.0020496896 -0.0086621335 0.006484415 -0.0048349635
00000000: a1e7 403d ffa9 da3b dfc1 1f3d 8e9c 803d
00000010: f99d 223c 4c99 063c 0e9f 0abd 1694 72bd
00000020: e17b 19bd cdf8 f7bc baa3 1fbd 9174 a13a
00000030: 33a8 b9bb 809a 9d3d b41f 25bd 9173 863d
00000040: 1c63 1ebd 629c 023d cc6a 213d 98cd 56bb
00000050: fbcc e538 6a64 14bd cd80 3e3d 7099 293b
00000060: 6650 493d 1d34 0c3e c4b9 b3bd 6abd 4b3d
00000070: 7fa5 0ebb af99 6cbd 1953 473d 004e 053e
00000080: 0997 51bd 17ce 22bd 8891 a73d f3ca dbbb
00000090: fefa 433d cf16 16bd 3834 50bd d7c4 803d
000000a0: cef2 0ebd 3c06 5e3d 67c3 b23c e609 993d
000000b0: 6770 5e3b 1b8b a1bc 7ac6 e4bc 7823 13bb
000000c0: f660 093b 728c 43bd 974d 8e3c 2fb6 29bc
000000d0: 9c53 ee3c f9a5 543c 26ac 1ebd dab1 fd3c
000000e0: 795a 9b3d 9077 fd3d dc2d 183c cd18 9b3c
000000f0: fe94 413d 1bce b33d 737d 2b3d dbf7 603d
00000100: f43f 30bc 1d46 05bc e5e4 cb3a 16c4 063c
00000110: 3bc1 fb3a 29c2 0d3b 0b19 f83b 07c4 0f3c
00000120: c06f f1bb 90bb 05bc 5ab5 43bc f030 0b3a
00000130: a9c0 613c 7b8d cc3b de9b 303b aef1 6fbc
00000140: 1426 ce38 0fbd fc3b 6f53 043c 7218 09bb
00000150: cf71 16bc b803 14bc 6643 96bb 0088 cabc
00000160: acd0 c83b b41b 2f3c 3564 02bc b27d 3cbb
00000170: dbcc 4c3c d09e acbc e2b3 a33b f0d3 973b
00000180: 69f0 6cb8 1ec7 7fbc b4ef 2dbc 0afb 45bb
00000190: 24f7 babc c752 973b cd1f acbb d677 153c
000001a0: 63f8 1a3a b381 503c 4aae 923b 8f1c 843b
000001b0: dbc8 22bb 5358 4abc d03d 18ba b7aa 883c
000001c0: bbe4 5b3c f347 413a f0e0 b43b ea70 633b
000001d0: 45dd c0bc f46d 48bc debd 853b b496 93bc
000001e0: a82d 0dbc 5080 dcbb 79e1 aebb bdac 033a
000001f0: 694b 6e3b f2c5 84bb ce8c 133c d299 f2bc
00000200: 88d1 8d3c fb22 d0bb fead 7c3c b029 ca3c
00000210: 2e3d 3ebc c2eb 84bb ae79 43ba f092 423c
00000220: 5bd7 4a3d bef3 a33a 6e9b ee3b 7a20 103b
00000230: e33a fbba 96dd f83b 10ab b9bb e64d f03a
00000240: a233 d5ba 7821 abbc 94c9 dfbc de7b 873b
00000250: fd53 c6bc d8a5 883c 09b8 263c 27e6 863b
00000260: e388 61ba c881 b9bd 7981 98ba f24d 4fbd
00000270: 3595 f6bb 201d 8f3b a390 eb3b a730 13be
00000280: 8191 b43c 9076 c23c 4f23 9e3b 2330 223d
00000290: 68c9 8d3c 0487 8d3c 3c5c 843c 5833 073d
000002a0: 7cbd 173d 4487 78bd b89d 29bc 5751 803c
000002b0: 7b60 48bb 1491 3a3d b5df 483d d84f 383c
000002c0: 6bd2 58bc 27fc dc3c bd89 0db9 0b16 363c
000002d0: 0912 c13c 0367 cd3a 92ef e43c b07c 4fbd
000002e0: 56cd 04bd 5c80 64bd 1b3c 9e3b e218 1a3c
000002f0: 3fa4 923c 549d 1e3c 81e2 c13c 7f14 803a
00000300: 9c66 64bc 571e e1bb c644 18bc d4c6 0b3c
00000310: e51f 5b3b 8dab 06bc 2ad1 22bc 25eb f135
00000320: 529b d53b c1e4 cdba 4fe1 0a3c dc1a f1bb
00000330: d71d 97bb 7ea0 133b 7d20 10bc e3d0 18bb
00000340: 65e4 8ebc 73cc c73b 246c 81bc 279a a6bb
00000350: a2c0 873b 8342 97bb ba78 86b8 3ad2 1cbb
00000360: 54f5 243b 928a 28bc d8f6 48bb ed3f 013c
00000370: f881 313c 2003 96ba 5677 30bb e012 84ba
00000380: 088e 85bc c181 ea3b fbd0 883a 4a8a 4739
00000390: d8bb 6b3a 3573 b7bb 1d83 b8bb cfc7 0a39
000003a0: 060f b3bb 46bf 89bb e205 0339 245f 5cb9
000003b0: c0a7 8f3c 9f19 8b3c 4259 5dbc 3539 bb3b
000003c0: c19b 24ba a791 a4b9 9533 473b db2f 5abc
000003d0: a649 16ba bd55 b33b cbc1 cdba 05fa fbbb
000003e0: a2cc 573c 3bbc 5dbc 7885 bcb9 4ff0 22ba
000003f0: 1654 06bb 9feb 0dbc 377b d43b 9d6e 9ebb

update_node_embedding_layer.0.message_layer.weight f4 [64, 128]
-0.01905954 0.0017508717 -0.014100832 -0.0042199288 -0.01788335 0.011372718 0.0077258577 0.0035789865
-0.008473589 -0.01911039 0.006354835 -0.020759711 -0.01670325 -0.0136195 0.002462361 -0.00094893266
-0.016457139 -0.0037167815 -0.0034718614 0.0051748753 -0.011750276 -0.025309846 -0.01164465 -0.011679254
0.017203681 0.009298491 -0.0068172463 -0.0040685274 -0.0060328953 -0.018918933 -0.008613824 0.011569415
-0.0018858399 0.008300575 0.0037456087 -0.004941903 -0.006633034 -0.0047782674 -0.019085824 -0.01260429
-0.005458042 0.004858546 -0.019572876 -0.015355278 0.0037105014 0.009642839 -0.011878921 -8.878531e-06
-0.009967546 0.009484177 -0.0045439037 -0.0053820675 -0.00019148103 0.0039594295 -0.022092896 0.010589635
-0.0072598616 -0.0099803945 -0.01242449 -0.0052968445 -0.00080498826 0.018477242 0.007948845 -0.0023803648
-0.006287746 -0.00242993 0.010485091 -0.012352881 -0.0010562774 -0.00066107354 -0.01425166 0.00453384
-0.008876933 -0.001967021 -0.008760678 0.013726681 -0.0066438313 0.0043544867 0.0017414953 0.020401204
-0.0043127085 0.0005067762 -0.0012610718 -0.005253296 -0.006616436 0.0008098367 -0.008505274 0.01379626
0.0029131 0.0011571661 0.0009564925 0.013593712 -0.016088534 -0.013935954 -0.0058008023 0.020228371
0.011279487 -0.018540718 0.013831565 -0.0013197443 6.0506612e-05 -0.002124555 -0.009243079 0.024446335
0.0023832296 -0.0027400209 0.003726408 0.0046185562 -0.011794901 -0.023753867 0.0072285063 -0.005699761
-0.009879807 0.01480613 -0.006727138 0.00834494 0.0018100572 0.0017527142 0.0067477897 -0.011304717
0.00450596 0.008198818 -0.007812804 -0.013443079 -0.002821174 0.0016093793 0.003997636 -0.0036062058
0.009551965 -0.035212874 0.071977034 0.029416943 -0.0047206795 0.015075879 0.100772545 0.021511246
0.0051614684 0.10287075 0.031015735 0.020515136 0.08547503 -0.004428926 -0.0018565218 0.013796619
-0.07049437 -0.020413224 0.00373625 0.044211026 0.1057312 0.008315587 0.050940756 0.012869088
0.003401245 -0.011384446 0.0947132 0.011128925 0.08951663 -0.025222193 -0.14192922 0.03842378
-0.00092215446 -0.0020199392 0.08286504 0.0033308987 -0.0013446789 -0.011971492 -0.049993347 0.0289664
0.00023099052 0.0038271933 0.03860873 -0.064993724 0.016444715 -0.0017629995 0.049886804 -0.04092054
0.04599453 -0.012644878 0.06747572 0.054843202 0.0055344743 0.00038808858 0.012997788 0.0333835
-0.002466547 0.005144783 0.10264789 -0.015439043 0.08239639 0.0032769567 -0.076605275 0.070312686
0.0030470623 -0.00050685543 0.016720535 -0.007319206 0.031900685 0.009282108 0.0020423108 0.006153928
-0.0037342864 -0.013688025 0.034723014 -0.008422569 -0.04427627 0.045929626 -0.0049870163 -0.004870135
-0.018309532 0.009548369 -0.010924446 -0.0039042672 0.00076708436 0.037035182 -0.0018584065 -0.08325633
-0.019513343 -0.01441639 0.19801423 -0.0090017365 0.009607537 -0.012873403 -0.008083901 -0.014309443
0.10801808 -0.01834629 -0.007903072 -0.000115217714 -0.01856425 -0.002339695 -0.008011554 -0.031021325
0.0015356764 -0.022894982 -0.014859674 -0.013996529 -0.0129745025 -0.013191117 -0.024694981 -0.021138517
0.020711927 0.00016978712 -0.0003860734 0.014944711 0.0105094 0.012586262 -0.00072484644 -0.019465156
-0.03429634 0.00316342 -0.012974135 -0.0036226152 -0.013689544 -0.0017855112 0.08368709 -0.005671336
00000000: c122 9cbc 817d e53a 2d07 67bc 5447 8abb
00000010: 1a80 92bc a354 3a3c 3129 fd3b 6e8d 6a3b
00000020: cfd4 0abc 658d 9cbc 383c d03b 4510 aabc
00000030: 41d5 88bc 5324 5fbc 905f 213b cbc1 78ba
00000040: 1fd1 86bc 3f95 73bb 2b88 63bb 0092 a93b
00000050: 3b84 40bc 9856 cfbc 34c9 3ebc 575a 3fbc
00000060: bcee 8c3c b358 183c 3563 dfbb 4851 85bb
00000070: 98af c5bb e1fb 9abc ff20 0dbc a58d 3d3c
00000080: 492e f7ba 23ff 073c e378 753b b0ef a1bb
00000090: ec59 d9bb 0393 9cbb e059 9cbc 3982 4ebc
000000a0: 60d9 b2bb 7034 9f3b 4c57 a0bc b494 7bbc
000000b0: e22b 733b 00fd 1d3c ce9f 42bc 00f5 14b7
000000c0: eb4e 23bc 8663 1b3c 07e5 94bb 0e5c b0bb
000000d0: 4cc8 48b9 1abe 813b 29fc b4bc 2680 2d3c
000000e0: 22e4 edbb cf84 23bc 1790 4bbc 2791 adbb
000000f0: d905 53ba 965d 973c df3b 023c e5ff 1bbb
00000100: 7009 cebb 763f 1fbb a9c9 2b3c bd63 4abc
00000110: ca72 8aba e54b 2dba cb7f 69bc 9b90 943b
00000120: 8e70 11bc 23e9 00bb f288 0fbc dfe5 603c
00000130: 7fb4 d9bb 15b0 8e3b e342 e43a 6d20 a73c
00000140: 9f51 8dbb 2dd9 043a 8c4a a5ba d723 acbb
00000150: b0ce d8bb 394b 543a b459 0bbc b509 623c
00000160: b5e9 3e3b 0dac 973a 20bd 7a3a 29b8 5e3c
00000170: 1acc 83bc a153 64bc a814 bebb f8b5 a53c
00000180: 99cd 383c b4e2 97bc ca9d 623c 45fb acba
00000190: 7bc8 7d38 1e3c 0bbb 4970 17bc ae43 c83c
000001a0: f52f 1c3b ec91 33bb c036 743b 4257 973b
000001b0: 673f 41bc 7897 c2bc 1bdd ec3b 10c5 babb
000001c0: eade 21bc 6995 723c 536f dcbb 37b9 083c
000001d0: 713f ed3a 54bb e53a 901c dd3b 6b37 39bc
000001e0: bba6 933b 5654 063c 4601 00bc 5c40 5cbc
000001f0: 72e3 38bb cff1 d23a 9afe 823b 1856 6cbb
00000200: d87f 1c3c 603b 10bd b268 933d cdfb f03c
00000210: eeaf 9abb d200 773c d661 ce3d 5a38 b03c
00000220: 8921 a93b e6ad d23d b614 fe3c 5c0f a83c
00000230: 880d af3d 8620 91bb 8956 f3ba 370b 623c
00000240: 5a5f 90bd a239 a7bc e0db 743b 9f16 353d
00000250: 9989 d83d 1a3e 083c 41a7 503d ded8 523c
00000260: 6ce7 5e3b d485 3abc fff8 c13d 1856 363c
00000270: 7f54 b73d c69e cebc e555 11be 4162 1d3d
00000280: bdbc 71ba f560 04bb 25b5 a93d 354b 5a3b
00000290: f03f b0ba 1424 44bc d3c5 4cbd f24a ed3c
000002a0: 0c36 7239 a6d1 7a3b 3024 1e3d 6e1b 85bd
000002b0: 11b7 863c 7214 e7ba 1b56 4c3d 4c9c 27bd
000002c0: c364 3c3d 762c 4fbc b630 8a3d 44a3 603d
000002d0: 895a b53b 5e78 cb39 adf4 543c 23bd 083d
000002e0: cba5 21bb 9195 a83b 0f39 d23d 0af4 7cbc
000002f0: 70bf a83d 36c2 563b 3ae3 9cbd 1900 903d
00000300: 39b1 473b 7ede 04ba 81f9 883c f3d5 efbb
00000310: 4baa 023d fc13 183c 4ad8 053b e4a6 c93b
00000320: eeba 74bb bd43 60bc b839 0e3d d1fe 09bc
00000330: 095b 35bd b420 3c3d 206a a3bb a795 9fbb
00000340: dffd 95bc c370 1c3c 73fc 32bc bcde 7fbb
00000350: 2916 493a 34b2 173d c695 f3ba 4b82 aabd
00000360: 72da 9fbc b932 6cbc 3ec4 4a3e 057c 13bc
00000370: ee68 1d3c f7ea 52bc 5772 04bc 2772 6abc
00000380: 9538 dd3d f54a 96bc e37b 01bc 0aa1 f1b8
00000390: 0e14 98bc 9255 19bb e542 03bc 6f20 febc
000003a0: c048 c93a 428e bbbc fd75 73bc b351 65bc
000003b0: 0293 54bc 8e1f 58bc 214d cabc af2a adbc
000003c0: 0fac a93c e208 3239 e569 cab9 a9da 743c
000003d0: 9e2f 2c3c 9c36 4e3c 9f03 3eba 6475 9fbc
000003e0: 527a 0cbd 6151 4f3b 7791 54bc 6669 6dbb
000003f0: 1c4a 60bc d007 eaba 2364 ab3d 9dd6 b9bb

update_node_embedding_layer.0.update_layer.weight f4 [64, 128]
0.0075080204 0.006818568 0.00086573075 -0.0051614977 0.0074384604 -0.01197225 -0.0056603015 -0.0015514987
0.0064184624 0.014434471 -0.0115956105 -0.0016655108 -0.020167302 -0.0006803575 -0.0021515186 -0.008102021
0.011949905 0.00038921964 -0.014170383 -0.0031973685 -0.0007729982 -0.009902928 -0.009593759 -0.004346585
-0.010339375 -0.0006574912 -0.012139008 -0.00067160174 0.0018544924 -0.0104301 0.010315007 -0.006150094
-0.020259636 -0.03361236 -0.008920801 0.006280489 0.012812566 0.00013216586 -0.008188388 0.017193135
0.010342431 -0.004385086 5.8531157e-05 -0.008898407 -0.007366527 0.014102951 -0.02433011 0.004748258
-0.014614876 0.0044798455 -0.0044345385 -0.008897678 -0.010819396 -0.007272465 -0.004566628 0.00013889273
-0.0017554512 -0.013033147 0.0050906357 -0.0067906072 -0.0019524642 -0.0076531214 0.019640753 0.00022439491
0.012451123 0.0039288118 0.008936819 0.003329992 -0.004263867 -0.004954748 0.0128591955 -0.0035331524
-0.0065020304 0.0069869813 0.0072394502 -0.0007420336 0.015847115 0.0014427209 -0.0066868877 0.003538578
0.016941896 -0.010268385 0.007019186 0.0012135583 0.0097796 -0.011017456 -0.008850054 0.0023699538
-0.009690811 -0.0121657625 0.020972423 0.014879573 0.0010716581 0.016705437 -0.002803989 -0.0039202645
0.0032333722 0.012256114 0.0012219709 -0.010433165 -0.015642965 -0.0052807154 -0.011458136 -0.005202763
-0.012459776 0.015344294 -0.0153360125 -0.01037547 -0.0015224892 -0.027193615 -0.01886527 -0.006369767
-0.0037906629 0.002707132 -0.0056048012 -0.009161804 -0.010054879 -0.01190291 -0.010014197 0.004225571
-0.0022067751 0.0054565533 0.02565991 -0.023145216 -0.0069208834 0.0033806015 -0.0025095507 0.015014666
0.11904044 0.05079316 -0.0006357148 -0.10851967 -0.005307555 -0.0053394814 -0.094055966 0.016121691
0.032620758 -0.06448422 -0.042364784 0.04675983 -0.05125075 0.025054216 0.039630905 -0.06413291
0.051606383 -0.18802685 0.048171423 -0.18189833 -0.055161424 0.03896484 0.032626405 0.0058519165
-0.020610852 -0.10455782 -0.04373555 0.0074918177 -0.03523832 0.03373266 0.07932965 -0.0023984446
-0.012782433 -0.197269 -0.07690408 0.016152712 0.05938117 0.061337195 0.10182317 -0.051834557
0.019633258 0.0002516775 0.07079963 0.029051792 -0.04445682 -0.005963952 -0.021536985 -0.11821507
-0.16992824 0.06055799 -0.056693595 -0.17473611 0.054532018 0.13954785 0.056485713 -0.14598562
-0.012889661 0.0072149723 -0.123164795 0.020099794 -0.13208416 0.064680375 0.0790257 0.014129497
-0.0034161038 0.03138343 0.02341808 0.0014689611 -0.025294654 -0.008275763 0.0027604746 -0.010876417
-0.021423088 -0.007003355 -0.035968445 -0.0007174751 -0.016896484 0.012096844 0.00086710224 -0.051836025
-0.02675134 0.004480692 -0.018251318 -0.00013644987 0.008567792 0.0025265166 0.03347503 -0.0074844137
-0.033008885 -0.017548367 0.0035539626 -1.0894709e-05 0.006912524 -0.007111315 -0.017961306 0.009176619
0.0013791623 -0.0074843774 -0.061442543 -0.068428755 -0.02037233 0.015228204 0.0015686515 0.06751884
0.008180435 -0.004895662 0.012633383 -0.0070231766 -0.06423056 0.011922559 -0.020408818 0.009736887
0.00049674517 -0.049523942 -0.020709308 -0.07171722 0.016892552 -0.04765119 -0.0021803775 -0.012653806
0.012566237 0.0054897843 -0.013485577 0.008001286 -0.007150833 -0.0109705785 -0.034702465 -0.008574107
00000000: d705 f63b 4b6e df3b 35f2 623a c821 a9bb
00000010: 54be f33b 4227 44bc 0d7a b9bb a85b cbba
00000020: f751 d23b 8f7e 6c3c 84fb 3dbc 454d daba
00000030: e635 a5bc 055a 32ba 7e00 0dbb 57be 04bc
00000040: 89c9 433c 2d10 cc39 e52a 68bc f18a 51bb
00000050: 08a3 4aba e43f 22bc 242f 1dbc cc6d 8ebb
00000060: 7b66 29bc 7d5b 2cba b1e2 46bc 6e0e 30ba
00000070: 7012 f33a 03e3 2abc 4600 293c ba86 c9bb
00000080: 89f7 a5bc 1dad 09bd 8d28 12bc 8fcc cd3b
00000090: cceb 513c 0196 0a39 9728 06bc 9ed8 8c3c
000000a0: 4d73 293c c4b0 8fbb 5a7f 7538 a0ca 11bc
000000b0: e862 f1bb 1010 673c f04f c7bc 4697 9b3b
000000c0: 3c73 6fbc abcb 923b 9b4f 91bb 91c7 11bc
000000d0: d643 31bc dc4d eebb a7a3 95bb bca3 1139
000000e0: 2b17 e6ba fb88 55bc 59cf a63b be83 debb
000000f0: d4e9 ffba 09c7 fabb a5e5 a03c 8d4b 6b39
00000100: ccff 4b3c 43bd 803b bc6b 123c ff3b 5a3b
00000110: e9b7 8bbb 705b a2bb 60af 523c 768c 67bb
00000120: fc0e d5bb 0cf3 e43b e938 ed3b 0885 42ba
00000130: cfd1 813c ae19 bd3a ae1d dbbb 7de7 673b
00000140: bbc9 8a3c ba3c 28bc 3301 e63b 4210 9f3a
00000150: 9e3a 203c 8f82 34bc d1ff 10bc 3a51 1b3b
00000160: 35c6 1ebc e852 47bc 5cce ab3c 74c9 733c
00000170: e176 8c3a d7d9 883c 21c3 37bb 9075 80bb
00000180: fce6 533b decd 483c 8a2a a03a deef 2abc
00000190: ad25 80bc da09 adbb e8ba 3bbc f07b aabb
000001a0: 1724 4cbc a266 7b3c e643 7bbc e0fd 29bc
000001b0: 438e c7ba 25c5 debc 578b 9abc 7ab9 d0bb
000001c0: c56c 78bb 236a 313b 7ba8 b7bb 641b 16bc
000001d0: 38bd 24bc 6c04 43bc 9612 24bc a976 8a3b
000001e0: 8b9f 10bb e3cc b23b bb34 d23c 099b bdbc
000001f0: 94c8 e2bb 158d 5d3b 4677 24bb 1300 763c
00000200: 79cb f33d 7d0c 503d 19a6 26ba 903f debd
00000210: 00eb adbb d1f6 aebb 6aa0 c0bd a311 843c
00000220: 589d 053d 4e10 84bd b286 2dbd 3c87 3f3d
00000230: 4eec 51bd 803e cd3c 0454 223d 1d58 83bd
00000240: 3761 533d 1c8a 40be 664f 453d 8e43 3abe
00000250: f2f0 61bd 9999 1f3d 44a3 053d 6fc1 bf3b
00000260: 17d8 a8bc 6922 d6bd 0c24 33bd ec7d f53b
00000270: 0e56 10bd 422b 0a3d 9577 a23d 392f 1dbb
00000280: 696d 51bc e200 4abe e37f 9dbd b152 843c
00000290: ab39 733d b63c 7b3d ab88 d03d 7950 54bd
000002a0: edd5 a03c 95f3 8339 65ff 903d 06fe ed3c
000002b0: 5b18 36bd 416d c3bb 556e b0bc be1a f2bd
000002c0: ab01 2ebe a80b 783d 8b37 68bd 06ee 32be
000002d0: f75c 5f3d a2e5 0e3e 905d 673d 417d 15be
000002e0: 282f 53bc 936b ec3b d33d fcbd 53a8 a43c
000002f0: 1241 07be 2577 843d 3ad8 a13d 687f 673c
00000300: b6e0 5fbb e98b 003d 46d7 bf3c 288a c03a
00000310: bc36 cfbc 1197 07bc 14e9 343b 0033 32bc
00000320: 797f afbc 667c e5bb a653 13bd f014 3cba
00000330: 7f6a 8abc d731 463c 3f4e 633a 0352 54bd
00000340: a025 dbbc c5d2 923b ca83 95bc fc13 0fb9
00000350: ed5f 0c3c ea93 253b 1d1d 093d d03f f5bb
00000360: 5334 07bd 98c1 8fbc 99e9 683b 6bc8 36b7
00000370: 7482 e23b 0906 e9bb 9723 93bc 8859 163c
00000380: 02c5 b43a 823f f5bb 2dab 7bbd 6024 8cbd
00000390: dfe3 a6bc b87f 793c 369b cd3a 5147 8a3d
000003a0: 3b07 063c ca6b a0bb 40fc 4e3c ad22 e6bb
000003b0: 508b 83bd d656 433c 6530 a7bc 7787 1f3c
000003c0: 0138 023a 9ed9 4abd 91a6 a9bc 7ae0 92bd
000003d0: 4062 8a3c e52d 43bd aae4 0ebb e951 4fbc
000003e0: 9ee2 4d3c a6e3 b33b 9cf2 5cbc d317 033c
000003f0: 8951 eabb f1bd 33bc 2c24 0ebd 697a 0cbc

update_node_embedding_layer.1.message_layer.weight f4 [64, 128]
-0.0024534129 -0.059041142 0.017602418 0.20273976 -0.042400077 0.0020031563 -0.04475316 -0.02611423
-0.044170815 -0.034299094 -0.05384691 -0.05473893 -0.071048394 -0.058584966 -0.025463676 0.0075520733
0.27237844 -0.010182217 0.22734341 -0.054737777 0.029324617 -0.04839224 -0.043781426 -0.068528354
-0.044808023 0.0033338382 -0.0020081697 -0.05748871 0.014858605 0.010114178 -0.04380273 0.011080561
0.026542893 -0.015994048 -0.038306028 0.04878156 0.004077647 0.036372565 -0.049228985 0.028349942
-0.061061896 0.21001604 0.33681503 -0.02261839 -0.021859555 -0.01780858 -0.039718214 0.001680359
-0.017426843 0.5045398 -0.061134838 -0.0021748394 0.008621536 -0.0050325287 0.2020275 -0.049067605
0.020196687 -0.008804214 -0.044142414 -0.011270179 0.008779383 -0.006977583 -0.052158635 0.020882456
-0.008274181 -0.00029466863 0.038953822 -0.006336092 -0.0135131385 -0.0013606438 -0.014912906 -0.021464596
0.014585031 -0.028476931 0.058130696 -0.009934944 -0.03241829 -0.0031363105 -0.014329332 0.008502593
0.003069065 0.008848925 -0.018758232 0.0027940245 -0.005648741 0.027306607 -0.0045039994 -0.008092866
-0.008620881 -0.02961648 -0.023223344 -0.006141008 -0.017435296 0.010116408 -0.0067766146 -0.013152107
-0.05542428 -0.007376323 0.010729623 -0.004313238 -0.031652573 -0.027645765 -0.010694454 -0.015936205
-0.018326446 -0.00867383 -0.005038325 -0.009780353 -0.013478991 -0.029165559 0.0016737691 -0.022240818
0.036167476 -0.0039283987 0.003541604 -0.0060923174 -0.016180206 -0.002299788 0.0074381926 -0.007342533
0.028516123 -0.004828631 0.0023809853 -0.009732416 -0.018631782 -0.00771763 0.004998205 -0.0072857225
0.00094796147 0.06374668 -0.007868105 -0.041159377 0.050707493 0.005178684 0.0054533854 0.04768063
0.08855383 -0.13974 0.066160515 0.048809443 0.08924098 0.040318176 0.0055502867 0.028742414
0.24316794 -0.01007959 0.17890272 0.021723395 0.053479686 0.03997549 0.049083196 0.059728704
0.06349264 0.015575822 -0.00016926562 0.04909464 0.002475733 0.0601455 -0.20173378 0.0024812697
0.025627328 -0.001992624 0.050627757 0.06377374 0.010390162 0.04328807 0.07221397 0.07108947
0.06371512 0.22390904 0.24720973 -0.003974566 -0.012671653 -0.004817127 0.15042958 0.056241237
0.027614024 0.3254804 0.062101793 -0.018416783 0.022399565 -0.012289571 0.07060425 -0.12758769
0.054615915 0.042313837 0.012735877 0.028058609 -0.021152098 -0.012869364 0.0913651 0.04083058
0.004397727 0.00080940395 0.037528478 0.0076632737 -0.007813615 -0.010899122 0.017166154 0.07246
-0.058788083 -0.14922068 0.04254928 0.006008412 0.025450682 0.116770886 0.010743322 -0.011050108
-0.00725767 -0.02874906 -0.011794549 0.007855955 0.004364245 0.06003699 -0.021665482 0.014787512
-0.10582793 0.015859349 -0.2570287 -0.06090604 -0.007425953 0.008450907 -0.0149328085 -0.00047945615
-0.14448039 -0.08508321 0.032315437 0.007858451 0.037854966 -0.012765003 -0.06753268 -0.07641192
-0.04476782 0.0024827183 0.03621236 0.002751888 -0.03746435 0.05125765 0.01809427 -0.063604295
0.011263555 0.044361617 0.01276278 0.017471153 0.01582218 -0.04252222 -0.113704525 0.0025960132
0.059678663 -0.006146415 0.009884542 -0.05140524 -0.06806912 0.02810189 -0.06495513 -0.07727875
00000000: 70c9 20bb 20d5 71bd f232 903c 039b 4f3e
00000010: b4ab 2dbd 6347 033b 174f 37bd 82ed d5bc
00000020: 75ec 34bd 357d 0cbd 948e 5cbd ee35 60bd
00000030: d281 91bd caf6 6fbd 3399 d0bc 6277 f73b
00000040: 3075 8b3e 50d3 26bc b6cc 683e b834 60bd
00000050: 2e3a f03c f136 46bd 2754 33bd 9858 8cbd
00000060: 9e88 37bd 867c 5a3b 7f9b 03bb 4879 6bbd
00000070: 8271 733c f0b5 253c 7e6a 33bd 3e8b 353c
00000080: 7b70 d93c f305 83bc c8e6 1cbd 2ccf 473d
00000090: c89d 853b 66fb 143d 55a4 49bd 233e e83c
000000a0: 0a1c 7abd 720e 573e 0573 ac3e 344a b9bc
000000b0: cf12 b3bc 4de3 91bc 91af 22bd 7e3f dc3a
000000c0: bdc2 8ebc 8529 013f 8668 7abd c087 0ebb
000000d0: 5841 0d3c e9e7 a4bb 4ce0 4e3e 1dfb 48bd
000000e0: 8673 a53c 8d3f 10bc adce 34bd 8fa6 38bc
000000f0: 67d7 0f3c 35a4 e4bb 4ba4 55bd af11 ab3c
00000100: 6e90 07bc c17d 9ab9 0b8e 1f3d fe9e cfbb
00000110: 3666 5dbc a157 b2ba 4355 74bc 85d6 afbc
00000120: 0ef6 6e3c 7448 e9bc 741a 6e3d 2dc6 22bc
00000130: 0ac9 04bd 8f8a 4dbb 93c5 6abc 764e 0b3c
00000140: 5e22 493b 15fb 103c ddaa 99bc f41b 373b
00000150: 1319 b9bb 1bb2 df3c 4996 93bb f197 04bc
00000160: 983e 0dbc 439e f2bc e23e bebc 823a c9bb
00000170: 77d4 8ebc 4abf 253c 5d0e debb ef7b 57bc
00000180: 9204 63bd 15b5 f1bb 4dcb 2f3c 1056 8dbb
00000190: 21a6 01bd 5f79 e2bc cb37 2fbc a58c 82bc
000001a0: 5821 96bc ae1c 0ebc 8918 a5bb c63d 20bc
000001b0: fcd6 5cbc 9cec eebc 5f62 db3a 6032 b6bc
000001c0: 5924 143d ccb9 80bb 411a 683b 10a2 c7bb
000001d0: 5a8c 84bc 0ab8 16bb 15bc f33b a299 f0bb
000001e0: a59a e93c 7e39 9ebb 4e0a 1c3b b674 1fbc
000001f0: aea1 98bc 2ce4 fcbb fcc7 a33b 12bd eebb
00000200: 9e80 783a 9f8d 823d 39e9 00bc bc96 28bd
00000210: a9b2 4f3d f3b1 a93b 50b2 b23b c44c 433d
00000220: b65b b53d 0118 0fbe 2a7f 873d 69ec 473d
00000230: fac3 b63d ac24 253d 2edf b53b 3675 eb3c
00000240: 0401 793e dd24 25bc 4632 373e 43f5 b13c
00000250: 840d 5b3d 57bd 233d 760b 493d 16a6 743d
00000260: 6e08 823d bc31 7f3c e57c 31b9 7617 493d
00000270: e83f 223b 215b 763d 4d93 4ebe cc9c 223b
00000280: 67f0 d13c af96 02bb 0d5f 4f3d ce9b 823d
00000290: 7f3b 2a3c d54e 313d ebe4 933d 5b97 913d
000002a0: 137d 823d 6948 653e 8c24 7d3e 133d 82bb
000002b0: c49c 4fbc fdd8 9dbb 360a 1a3e 365d 663d
000002c0: ce36 e23c 5ea5 a63e 735e 7e3d cbde 96bc
000002d0: 4b7f b73c 325a 49bc f698 903d 59a6 02be
000002e0: f0b4 5f3d 4651 2d3d 24aa 503c 2bdb e53c
000002f0: 2a47 adbc 06da 52bc a01d bb3d f73d 273d
00000300: cf1a 903b 2e2e 543a 76b7 193d 331c fb3b
00000310: ad04 00bc 3b92 32bc 09a0 8c3c e965 943d
00000320: c6cb 70bd 4ecd 18be 2748 2e3d 37e2 c43b
00000330: f37d d03c 9325 ef3d c204 303c 830b 35bc
00000340: c0d1 edbb 2683 ebbc ed3d 41bc 43b6 003c
00000350: f101 8f3b 59e9 753d cf7b b1bc 5247 723c
00000360: 50bc d8bd 77eb 813c 4499 83be 9d78 79bd
00000370: 6955 f3bb ac75 0a3c bda8 74bc 845f fbb9
00000380: abf2 13be 1b40 aebd 315d 043d bcc0 003c
00000390: cf0d 1b3d 4e24 51bc 934e 8abd da7d 9cbd
000003a0: 765e 37bd 1ab5 223b 6953 143d 0559 343b
000003b0: 3874 19bd 8bf3 513d 6f3a 943c f842 82bd
000003c0: c68a 383c 87b4 353d fb1a 513c aa1f 8f3c
000003d0: 849d 813c c82b 2ebd ebdd e8bd e021 2a3b
000003e0: 9d71 743d de67 c9bb c6f2 213c 4d8e 52bd
000003f0: d367 8bbd ef35 e63c 3207 85bd 5244 9ebd

update_node_embedding_layer.1.update_layer.weight f4 [64, 128]
-0.010166158 -0.10344439 -0.0015054389 0.122713655 -0.07411745 0.018173264 -0.04078629 -0.1571783
-0.08513787 -0.31961533 -0.057714555 -0.059998482 -0.11298051 -0.08201659 -0.07831722 0.03300488
0.21700704 0.0024896995 0.13173316 -0.07630411 0.046199366 -0.08358587 -0.14633384 -0.14467375
-0.095752195 0.010020811 -0.0054459637 -0.056191616 0.010039929 0.03884554 -0.020817406 0.021232106
0.045224138 0.0059635616 -0.05755627 0.0503981 -0.004555614 0.052276816 -0.097689174 0.04712517
-0.087246515 0.15196551 0.18775563 0.005512066 -0.0061289486 0.004195299 0.017253695 0.058388367
-0.19855 0.3587447 -0.0776079 0.011585318 -0.10163269 0.009065761 0.11909525 -0.045288857
0.066229634 0.034614787 -0.16704634 -0.07297588 0.00096962356 0.007024199 0.061323613 0.22665974
0.006518638 0.101209626 -0.022042952 -0.0039004963 -0.009203515 -0.010618266 -0.022735443 0.07746155
-0.004878531 -0.010236681 -0.022750434 -0.0047648544 -0.007757715 -0.0019633004 0.0018965785 0.0033605907
0.005735186 -0.00515868 -0.0024410044 -0.0029393325 0.0055438466 -0.015148579 0.0028123076 -0.0016140372
-0.15437329 0.10655223 0.010359796 -0.0060446197 0.008486662 0.0029219184 0.041829515 0.0015348429
-0.031217566 0.0042203777 0.0050822133 -0.0060899747 0.016559266 -0.007842636 -0.011928596 -0.003214695
-0.0046449574 -0.102884136 0.0010862482 -0.00015805288 -0.034964934 0.006008415 0.0004449678 -0.03855904
0.01463146 -0.027957454 0.012532683 -0.024080543 -0.030584022 -0.016105475 -0.017264396 -0.017895473
0.008852675 0.0021994 -0.013289351 -0.11995699 0.05169149 -0.001975873 -0.0066272262 -0.004441649
-0.010863466 0.014576518 -0.007028142 -0.094716996 0.013522701 -0.010389512 -0.04116938 -0.12957092
-0.040328097 0.11214688 0.026744284 0.0098658055 0.0010308698 0.02978161 0.0021706368 -0.4393337
-0.11494484 0.013382397 -0.114751875 0.05082054 -0.38361168 0.043251984 -0.029412337 -0.03670361
-0.11011447 0.002779906 -0.0062289075 -0.004850052 -0.009913915 -0.35762727 -0.15170163 -0.017273802
-0.37612623 0.008071623 0.03352292 -0.3090813 0.0017040069 -0.31097117 -0.022707883 -0.26060343
0.01671463 -0.31661034 -0.24861155 -0.010881407 -0.012037602 0.0047711004 -0.33683896 -0.27135968
-0.029464526 -0.33569294 0.012254225 0.0011819286 -0.0972819 -0.002873488 -0.15697466 -0.049579594
-0.3690441 -0.33079225 0.06310589 -0.18087791 -0.006654196 -0.0036493393 -0.13745612 0.064095646
-0.03642865 0.043576244 -0.021694548 0.036862418 -0.015403688 0.0037566756 0.0808911 0.05968009
0.0033971658 0.00912792 0.016064556 0.04739374 -0.017583165 -0.017179327 0.045261923 -0.008561072
0.026696034 0.011551481 0.012990213 0.05490208 0.00675723 0.00050664635 0.017656012 0.027540289
0.09604999 0.09073414 0.029592447 -0.0033151226 0.008994487 0.081188336 -0.026432065 0.005279766
0.020421099 0.0013301374 0.02078907 -0.01421177 0.04960384 0.024680002 -0.00028158753 -0.0059034894
0.013021007 -0.0029671341 0.06439369 -0.009619842 0.049123444 0.011162287 0.0031949393 0.082237646
0.0037335341 0.0635111 0.011175519 0.04402852 0.06098654 -0.002770325 0.049403876 0.0014119016
-0.003673406 0.021974813 0.09327414 -0.020000424 0.027305944 0.014062161 0.013312698 0.1595909
00000000: f58f 26bc a7da d3bd 2652 c5ba 4c51 fb3d
00000010: e4ca 97bd 19e0 943c 860f 27bd 59f3 20be
00000020: c35c aebd 9fa4 a3be 1966 6cbd f8c0 75bd
00000030: 5362 e7bd 50f8 a7bd c764 a0bd 2030 073d
00000040: 1837 5e3e 3a2a 233b 0fe5 063e 5445 9cbd
00000050: 8c3b 3d3d 122f abbd 8ad8 15be 5b25 14be
00000060: ba19 c4bd 542e 243c 0e74 b2bb 2e29 66bd
00000070: 847e 243c 801c 1f3d 4489 aabc f4ee ad3c
00000080: f23c 393d fb69 c33b 20c0 6bbd 3d6e 4e3d
00000090: 4347 95bb 3720 563d 4311 c8bd 5206 413d
000000a0: 4dae b2bd d99c 1b3e 0343 403e 909e b43b
000000b0: 59d5 c8bb b878 893b 9f57 8d3c a428 6f3d
000000c0: b150 4bbe 63ad b73e e4f0 9ebd 58d0 3d3c
000000d0: cd24 d0bd 8f88 143c 36e8 f33d cf80 39bd
000000e0: 67a3 873d 3cc8 0d3d 320e 2bbe 6174 95bd
000000f0: 562e 7e3a 402b e63b 782e 7b3d 7e19 683e
00000100: 4d9a d53b fe46 cf3d 6c93 b4bc 789f 7fbb
00000110: 57ca 16bc 3cf8 2dbc ae3f babc 29a4 9e3d
00000120: 16dc 9fbb c1b7 27bc 1e5f babc 7f22 9cbb
00000130: 6e34 febb b7aa 00bb 9d96 f83a 5b3d 5c3b
00000140: 3aee bb3b 250a a9bb 42f9 1fbb d1a1 40bb
00000150: 28a9 b53b bf31 78bc b14e 383b 1a8e d3ba
00000160: 0814 1ebe 0e38 da3d 22bc 293c f211 c6bb
00000170: a40b 0b3c a87d 3f3b 6d55 2b3d c82c c93a
00000180: fbbb ffbc 184b 8a3b b288 a63b 698e c7bb
00000190: 4ca7 873c 667e 00bc 2870 43bc a2ad 52bb
000001a0: ba34 98bb ebb4 d2bd 7160 8e3a ffba 25b9
000001b0: 6437 0fbd 3de2 c43b 914a e939 15f0 1dbd
000001c0: cbb8 6f3c 0807 e5bc e255 4d3c 8f44 c5bc
000001d0: 588b fabc a1ef 83bc 106e 8dbc 8799 92bc
000001e0: cf0a 113c cf23 103b 94bb 59bc 03ac f5bd
000001f0: 75ba 533d a67d 01bb 3429 d9bb 418b 91bb
00000200: aefc 31bc 59d2 6e3c 544c e6bb fcfa c1bd
00000210: 528e 5d3c c638 2abc 39a1 28bd 3dae 04be
00000220: 132f 25bd 43ad e53d d416 db3c 30a4 213c
00000230: 401e 873a 90f8 f33c 3e41 0e3b 59f0 e0be
00000240: 3368 ebbd d741 5b3c 0803 ebbd 3329 503d
00000250: c068 c4be fe28 313d 24f2 f0bc 8656 16bd
00000260: b283 e1bd 152f 363b dd1b ccbb 2fed 9ebb
00000270: f96d 22bc ec1a b7be ac57 1bbe ca81 8dbc
00000280: 9e93 c0be d73e 043c 544f 093d e73f 9ebe
00000290: fc58 df3a 9d37 9fbe e205 babc d06d 85be
000002a0: 1fed 883c c01a a2be 0794 7ebe ee47 32bc
000002b0: 5d39 45bc e456 9c3b 2876 acbe a8ef 8abe
000002c0: 975f f1bc f2df abbe f2c5 483c f1ea 9a3a
000002d0: bc3b c7bd 2151 3cbb f7bd 20be f913 4bbd
000002e0: 59f3 bcbe 9a5d a9be a93d 813d 0f38 39be
000002f0: 710b dabb c129 6fbb 4cc1 0cbe 9444 833d
00000300: 3536 15bd 017d 323d c4b8 b1bc 0cfd 163d
00000310: c05f 7cbc 8f32 763b 3caa a53d 1c73 743d
00000320: fca2 5e3b 458d 153c d199 833c f01f 423d
00000330: 920a 90bc a9bb 8cbc 9164 393d bd43 0cbc
00000340: a4b1 da3c 6c42 3d3c e7d4 543c 01e1 603d
00000350: c16b dd3b 76d0 043a 57a3 903c 2c9c e13c
00000360: dbb5 c43d d2d2 b93d dc6b f23c 8742 59bb
00000370: 9d5d 133c 1246 a63d 0f88 d8bc e301 ad3b
00000380: 264a a73c 0158 ae3a d74d aa3c 7cd8 68bc
00000390: 652d 4b3d b72d ca3c 0aa2 93b9 0f72 c1bb
000003a0: 1056 553c 4074 42bb d7e0 833d 8b9c 1dbc
000003b0: aa35 493d 06e2 363c 3062 513b 366c a83d
000003c0: 4fae 743b 1c12 823d 8619 373c 4057 343d
000003d0: 06cd 793d 578e 35bb b85b 4a3d 8e0f b93a
000003e0: 87bd 70bb 8604 b43c 8306 bf3d eed7 a3bc
000003f0: b7b0 df3c fa64 663c 811d 5a3c cc6b 233e
