ER_200spin/eco/network/network6800000.pth (torch, 238273 bytes, 11 tensors)

node_init_embedding_layer.0.weight f4 [64, 7]
0.017985089 -0.2657704 -0.21813911 0.01349716 -0.0019367347 -0.02181273 0.07284099 0.0008326408
-0.2240083 -0.034616742 0.10987309 -0.0576065 0.09261451 0.026026176 0.02437806 0.40241617
-0.021430843 -0.051839527 0.00097309664 -0.011190126 0.030647382 -0.01711754 0.39963558 0.01867801
-0.011917597 0.0018550473 0.0036140264 0.01674897 -0.006149493 -0.0038983978 -0.009858432 -0.011102081
-0.01081875 -0.0037795096 -0.0152212195 -0.011088987 -0.0035597358 -0.00203433 -0.0026715926 -0.013247419
-0.016443353 -0.0053399424 0.03502252 0.48337042 -0.00368946 -0.15382694 0.00042032942 -0.036263574
0.015370173 0.02855077 -0.21804647 -0.5996144 0.24682358 0.001169676 0.10203915 0.023215106
0.034585234 -0.31931508 0.07934616 0.17942938 -0.0012003302 0.045954157 0.060749985 0.045086592
0.44997126 0.020839853 0.04239769 -0.0026093647 0.00095912867 -0.013371527 -0.016910879 0.36866328
0.044811554 0.068530895 0.00045087695 0.017830838 -0.036991145 -0.0031729396 0.35334513 -0.19337505
0.081992485 -0.003052307 -0.00409334 -0.23476627 0.04172467 0.4852651 -0.011944552 -0.09873261
0.001237119 0.020298986 0.01721173 0.027401207 -0.31965628 -0.018558895 0.08368175 -0.0005589895
-0.016757619 0.04710679 0.034346193 -0.29284963 -0.009103004 0.115059026 -0.0016509597 -0.0010633145
0.063389935 0.03726877 0.041452076 -0.15554395 0.09498246 0.00028110255 0.030351164 -0.21463834
0.027346727 -0.21018364 -0.08209403 0.11778793 -0.017159589 0.088638104 0.03645832 -0.0359267
0.3663288 0.040372986 -0.0042192764 -0.0028731322 0.03864786 0.025254363 0.04438852 -0.4092905
-0.0015134795 0.13133496 0.010551635 0.010449422 0.076360896 -0.022797007 0.33633173 0.07238212
0.06428375 -0.010459091 0.0009879543 0.027553216 0.039822318 0.48775303 0.027316015 -0.0013038749
-0.00013641651 0.009839999 -0.004515125 0.041104004 -0.38697165 0.027536778 0.14229882 0.0059284926
0.017354064 0.06570016 0.017662322 -0.21181859 0.1022076 0.0761321 -0.034350332 0.09719351
-0.016960382 0.007097201 -0.20493557 0.18620381 0.04333538 -0.0019502881 0.020669477 0.08886818
0.02209281 -0.2535524 0.069297485 0.42953128 0.0051600602 0.09876034 0.0053178826 -0.042305224
0.367447 -0.0073546115 -0.0010091905 -0.0070530814 0.03205663 -0.07736451 0.0456851 0.5018443
0.028862283 0.03860514 -0.0063234204 0.030548887 0.0050374973 -0.001984467 0.0030851387 0.001095844
-0.009433593 -0.0056003085 -0.0043595186 -0.010299535 0.04004303 0.4224727 0.014601115 -0.008794487
0.0017931554 0.007504893 -0.019250693 0.03858194 -0.40389842 0.0042234864 0.12855412 0.0063131144
0.040045492 0.042091217 0.014687498 -0.20934817 -0.017936764 -0.21113485 -0.0019985344 0.1193917
-0.01453702 -0.004988838 -0.2679097 0.026101137 0.114379525 -0.023624487 -0.018407721 0.0153347505
-0.0024586709 0.010573094 -0.0038705096 -0.01777523 -0.0039956234 -0.008044434 -0.0016477507 0.034537613
0.15679123 -0.32355025 -0.0008913555 0.0060870037 0.022149665 -0.36560228 0.023308259 0.43115234
0.003028086 -0.013325335 0.0012659107 0.03357754 0.012957301 -0.0029958652 0.004468031 -0.011094356
-0.01162292 -0.011126069 -0.0063133347 -0.0016458024 0.012403213 -0.18509567 -0.16398746 0.057412375
00000000: 7755 933c 0f13 88be dc5f 5fbe 3123 5d3c
00000010: 08da fdba 9cb0 b2bc a82d 953d 9445 5a3a
00000020: 6f62 65be 49ca 0dbd 2505 e13d cbf4 6bbd
00000030: adac bd3d d934 d53c 7fb4 c73c 7e09 ce3e
00000040: bc8f afbc af55 54bd 6917 7f3a ca56 37bc
00000050: 3810 fb3c 153a 8cbc 099d cc3e a002 993c
00000060: 0642 43bc 0f25 f33a 4dd9 6c3b 2335 893c
00000070: b081 c9bb 437c 7fbb 4385 21bc 81e5 35bc
00000080: 2041 31bc a6b1 77bb 6c62 79bc 95ae 35bc
00000090: 754a 69bb 6552 05bb e315 2fbb b40b 59bc
000000a0: 36b4 86bc affa aebb c673 0f3d 547c f73e
000000b0: deca 71bb cf84 1dbe a95f dc39 1d89 14bd
000000c0: 2ed3 7b3c 4ee3 e93c 9347 5fbe 5480 19bf
000000d0: 52bf 7c3e d04f 993a e7f9 d03d 9b2d be3c
000000e0: 3fa9 0d3d 447d a3be 3d80 a23d 56bc 373e
000000f0: 6654 9dba 6d3a 3c3d fad4 783d b8ac 383d
00000100: a262 e63e 57b8 aa3c 33a9 2d3d e001 2bbb
00000110: 096e 7b3a 4014 5bbc af88 8abc 6fc1 bc3e
00000120: 528c 373d ed59 8c3d ae63 ec39 fa11 923c
00000130: 0784 17bd 18f1 4fbb a7e9 b43e 1c04 46be
00000140: adeb a73d 3709 48bb 6d21 86bb 9266 70be
00000150: 7de7 2a3d ab74 f83e 15b3 43bc 5334 cabd
00000160: d326 a23a 0f4a a63c 9dff 8c3c 7f78 e03c
00000170: fda9 a3be d308 98bc 5661 ab3d 2689 12ba
00000180: 4647 89bc 0df3 403d 98ae 0c3d 63f0 95be
00000190: c424 15bc 11a4 eb3d 0465 d8ba ea5e 8bba
000001a0: 95d2 813d 23a7 183d a7c9 293d ea46 1fbe
000001b0: 2a86 c23d f260 9339 01a3 f83c 27ca 5bbe
000001c0: 3e06 e03c 613a 57be ea20 a8bd cc3a f13d
000001d0: 4492 8cbc e587 b53d 5255 153d e027 13bd
000001e0: 738f bb3e 255e 253d db41 8abb 294b 3cbb
000001f0: 384d 1e3d 3de2 ce3c bdd0 353d 868e d1be
00000200: f25f c6ba ac7c 063e c4e0 2c3c 0d34 2b3c
00000210: 1a63 9c3d cac0 babc ac33 ac3e 143d 943d
00000220: 33a7 833d 9b5c 2bbc 3f7e 813a 48b7 e13c
00000230: ba1c 233d c4ba f93e d6c5 df3c c8e6 aaba
00000240: 070b 0fb9 f237 213c 9df3 93bb ac5c 283d
00000250: 2621 c6be cf94 e13c c8b6 113e cd43 c23b
00000260: 1c2a 8e3c ce8d 863d 93b0 903c f9e6 58be
00000270: 3852 d13d 25eb 9b3d efb2 0cbd 640d c73d
00000280: 80f0 8abc a38f e83b a1da 51be 36ac 3e3e
00000290: 7080 313d cfa0 ffba 0953 a93c 8500 b63d
000002a0: fbfb b43c 9fd1 81be d7eb 8d3d 86eb db3e
000002b0: b915 a93b dc42 ca3d a241 ae3b 3e48 2dbd
000002c0: 0322 bc3e f4fe f0bb d046 84ba 891d e7bb
000002d0: d04d 033d 4971 9ebd 4d20 3b3d de78 003f
000002e0: 9870 ec3c 6c20 1e3d b234 cfbb a941 fa3c
000002f0: 9711 a53b d50d 02bb 0a30 4a3b 6ca2 8f3a
00000300: 5b8f 1abc cb82 b7bb 4bda 8ebb 61bf 28bc
00000310: 2904 243d 574e d83e 8439 6f3c c116 10bc
00000320: 5008 eb3a 9beb f53b a1b3 9dbc 1908 1e3d
00000330: c6cb cebe 2c65 8a3b b1a3 033e 3ede ce3b
00000340: be06 243d d767 2c3d d5a3 703c 5e5f 56be
00000350: 1ff0 92bc bc33 58be d8f9 02bb a383 f43d
00000360: ae2c 6ebc 6879 a3bb 762b 89be 0dd2 d53c
00000370: d03f ea3d 2488 c1bc cacb 96bc 9b3e 7b3c
00000380: a721 21bb c53a 2d3c 60a8 7dbb 5c9d 91bc
00000390: b8ed 82bb cdcc 03bc 57f9 d7ba 5077 0d3d
000003a0: e18d 203e 61a8 a5be dba9 69ba 7d75 c73b
000003b0: 3773 b53c 3930 bbbe f6f0 be3c 00c0 dc3e
000003c0: da72 463b 8252 5abc eaec a53a 9a88 093d
000003d0: dc4a 543c 4756 44bb 9068 923b 1ac5 35bc
000003e0: 0f6e 3ebc 1e4a 36bc 17e0 cebb f7b7 d7ba
000003f0: d936 4b3c b889 3dbe 54ec 27be 3d29 6b3d

edge_embedding_layer.edge_embedding_NN.weight f4 [63, 8]
0.029760098 0.027250152 0.3054103 -0.056210395 -0.025195332 -0.073721506 -0.016477339 -0.07191982
-0.009922469 -0.010774974 -0.004315335 -0.0022903706 0.008953054 -0.02221353 -0.015251183 0.008083992
0.028893607 0.021274308 0.278321 -0.056477793 -0.00027344783 -0.02819307 -0.010388926 -0.038033184
0.05187754 0.04377157 0.28168356 -0.15519543 -0.037378952 0.0006476672 0.039397523 -0.07051145
-0.015035438 -0.0067404066 0.0153879905 -0.014715848 -0.00982584 -0.0015218513 -0.0013866938 -0.0020847525
-0.010408337 -0.00058907137 0.002471643 -0.004193349 0.0027986444 -0.013592724 0.011577544 0.002690091
-0.011704629 -0.028594274 -0.17241861 0.13041808 0.07566686 -0.009373555 -0.09241316 0.06040586
-0.007110985 0.003723811 -0.21444528 0.17031856 0.096684664 0.013692596 0.0022930198 0.1261695
-0.0027203301 -0.15493518 -0.21160887 0.11049208 0.099554196 -0.00549708 0.0057451124 0.07749522
-0.0033126709 -0.06474091 -0.19393931 0.13179836 0.056006145 0.016075445 -0.058787074 0.10466059
-0.018479079 0.0034344012 -0.1946886 0.1468397 0.095879 0.007513629 0.0062486404 0.106338
-0.0005169977 -0.0011437915 -0.0015800482 -0.011648395 -0.008384922 -0.019005835 -0.021238621 -0.0031330034
-0.011771853 -0.0064551826 -0.018746976 0.008560626 -0.0028598043 -0.013159215 0.0014753747 -0.0033808637
0.056471586 0.024408303 0.26634023 -0.12842354 -0.012770521 -0.00074691727 0.04046328 -0.12961054
-0.018561363 -0.019053847 -0.17445245 0.1184374 0.096958764 0.020837178 -0.31179273 0.08844463
0.066086456 0.04853818 0.27039814 -0.16060162 -0.06778699 0.001985938 0.046859197 -0.08970043
-0.0154709825 -0.020262701 -0.18719402 0.14692244 0.101193994 -0.0012952449 0.023362387 0.081459925
0.04497075 0.014392803 0.2889139 -0.08899926 0.046899594 -0.0063324184 0.017577287 -0.07333748
0.057208244 0.008125199 0.26257688 -0.11654216 0.015813315 0.0061699543 0.028711176 -0.12991402
-0.012768478 -0.03211202 -0.15917118 0.1239121 0.12510903 -0.0022415272 -0.033871587 0.08417445
-0.0014439179 -0.00978569 0.0023963705 0.0012964379 -0.0012544036 -0.0001595673 -0.007059626 -0.009169412
-0.009990725 -0.015920151 -0.18755084 0.13372076 0.11706505 -0.0062646056 0.0129488185 0.09222445
0.050138444 0.05070742 0.28681183 -0.17698945 -0.019495117 0.0005899516 0.04370143 -0.058683835
-0.0014835857 -0.0010873167 0.0004004063 0.0019544451 -0.017845793 -0.0053972867 -0.0027487199 -0.0038520296
0.06948765 0.037082307 0.2785748 -0.19247349 -0.07548689 0.0057074106 0.028605256 -0.0850398
0.034266483 -0.0027746821 0.330974 -0.27784735 -0.015864942 0.012686214 0.016208487 -0.2705571
-0.024751425 -0.015296735 -0.1701545 0.1390201 0.09381589 0.00890309 -0.3107839 0.08748574
0.060223103 0.023075512 0.26946953 -0.15038733 0.0487492 -0.009773921 0.029844878 -0.08834204
-0.014819773 -0.014826146 -0.01661776 -0.015271877 -0.007614104 -0.012074424 -0.012945181 -0.010523627
-0.013705138 -0.038680956 -0.15888938 0.14907746 0.11175954 0.0076965503 -0.1618396 0.0892801
0.044749506 0.04963087 0.2739402 -0.17829812 -0.039393533 -4.757653e-06 0.04477704 -0.045575596
0.030078866 -0.019055402 0.37133837 -0.2544961 -0.015996128 -0.0023205336 0.010977685 -0.2772318
00000000: 73cb f33c b63b df3c bd5e 9c3e df3c 66bd
00000010: 7166 cebc 4dfb 96bd 7cfb 86bc b34a 93bd
00000020: da91 22bc 8489 30bc a767 8dbb 0b1a 16bb
00000030: d5af 123c 26f9 b5bc 19e0 79bc b872 043c
00000040: 49b2 ec3c 7547 ae3c 1780 8e3e 4255 67bd
00000050: 8c5d 8fb9 27f5 e6bc 5036 2abc afc8 1bbd
00000060: 8b7d 543d d149 333d d438 903e 8deb 1ebe
00000070: ac1a 19bd 36c8 293a 4c5f 213d 4f68 90bd
00000080: 3357 76bc a1de dcbb e91d 7c3c bd1a 71bc
00000090: 8ffc 20bc db78 c7ba b9c1 b5ba 58a0 08bb
000000a0: bb87 2abc e96b 1aba 4afb 213b 5c68 89bb
000000b0: 7669 373b 04b4 5ebc bdaf 3d3c 3d4c 303b
000000c0: c6c4 3fbc 8a3e eabc 818e 30be 518c 053e
000000d0: 3af7 9a3d 8a93 19bc 1c43 bdbd 236c 773d
000000e0: 4403 e9bb 2e0b 743b 8b97 5bbe fd67 2e3e
000000f0: 9c02 c63d e956 603c 7d46 163b 9432 013e
00000100: 9147 32bb 54a7 1ebe ffaf 58be ac49 e23d
00000110: 12e3 cb3d d920 b4bb 7f41 bc3b d0b5 9e3d
00000120: 6519 59bb e296 84bd 0798 46be 26f6 063e
00000130: b366 653d a7b0 833c b7ca 70bd 4b58 d63d
00000140: 7061 97bc b113 613b 735c 47be 255d 163e
00000150: 365c c43d e334 f63b 65c1 cc3b bdc7 d93d
00000160: 2187 07ba 46eb 95ba 9f19 cfba e9d8 3ebc
00000170: e960 09bc 20b2 9bbc 9efc adbc 1353 4dbb
00000180: bbde 40bc ff85 d3bb 4293 99bc de41 0c3c
00000190: 8e6b 3bbb c099 57bc 5c61 c13a 7b91 5dbb
000001a0: c04e 673d ecf3 c73c bf5d 883e 7681 03be
000001b0: 733b 51bc c5cc 43ba d3bc 253d a0b8 04be
000001c0: 000e 98bc d016 9cbc aaa3 32be 4f8f f23d
000001d0: 5192 c63d bbb2 aa3c 4ca3 9fbe 7522 b53d
000001e0: 5658 873d f8cf 463d a071 8a3e c074 24be
000001f0: e8d3 8abd 8326 023b 6eef 3f3d dcb4 b7bd
00000200: 017a 7dbc f7fd a5bc caaf 3fbe d672 163e
00000210: cc3e cf3d 35c5 a9ba 7a62 bf3c 76d4 a63d
00000220: 4033 383d cbcf 6b3c 86ec 933e 3e45 b6bd
00000230: ca19 403d 2d80 cfbb 3efe 8f3c f631 96bd
00000240: 3153 6a3d 8e1f 053c 7a70 863e a8ad eebd
00000250: ed8a 813c 542d ca3b b333 eb3c 2e08 05be
00000260: e132 51bc e587 03bd c5fd 22be a1c5 fd3d
00000270: 951c 003e 96e6 12bb efbc 0abd a763 ac3d
00000280: d841 bdba 2954 20bc 6d0c 1d3b 3ded a93a
00000290: cd6a a4ba 8551 27b9 6f54 e7bb 4d3b 16bc
000002a0: 23b0 23bc fa6a 82bc 540d 40be 18ee 083e
000002b0: cdbf ef3d 5247 cdbb 4827 543c 2ce0 bc3d
000002c0: f85d 4d3d 95b2 4f3d 00d9 923e b93c 35be
000002d0: 39b4 9fbc fba6 1a3a 4500 333d 765e 70bd
000002e0: e074 c2ba 4b84 8eba a0ed d139 2616 003b
000002f0: 5731 92bc b9db b0bb de23 34bb 5572 7cbb
00000300: 8b4f 8e3d 9ee3 173d 5ba1 8e3e c517 45be
00000310: df98 9abd 3b05 bb3b 9255 ea3c 5929 aebd
00000320: 035b 0c3d 71d7 35bb 6d75 a93e 0242 8ebe
00000330: 32f7 81bc d7d9 4f3c a9c7 843c 7686 8abe
00000340: 80c3 cabc 289f 7abc fb3c 2ebe 495b 0e3e
00000350: 8c22 c03d 44de 113c 111f 9fbe b92b b33d
00000360: 80ac 763d db08 bd3c e9f7 893e 23ff 19be
00000370: 3ead 473d cc22 20bc 3f7d f43c acec b4bd
00000380: a2ce 72bc 5de9 72bc f821 88bc e536 7abc
00000390: bc7f f9bb ced3 45bc 0618 54bc 4a6b 2cbc
000003a0: 848b 60bc ec6f 1ebd e6b3 22be c3a7 183e
000003b0: 30e2 e43d 5833 fc3b 48b9 25be 7cd8 b63d
000003c0: 424b 373d bd49 4b3d e441 8c3e c893 36be
000003d0: 1d5b 21bd eea3 9fb6 2168 373d 7aad 3abd
000003e0: f467 f63c 131a 9cbc 1020 be3e 504d 82be
000003f0: 500a 83bc 1814 18bb c0db 333c 54f1 8dbe

edge_embedding_layer.edge_feature_NN.weight f4 [64, 64]
0.053596336 0.006673097 0.045622226 0.061423443 0.009925359 0.00821526 -0.023526706 -0.06217339
-0.040628012 -0.032748602 -0.043281563 0.0012318065 -0.005665803 0.076449454 -0.04620495 0.06378933
-0.040966142 0.0327294 0.038581412 -0.007977889 0.000109577515 -0.039778046 0.04491411 0.002587881
0.047373462 0.13832994 -0.06547911 0.049484123 -0.0021766124 -0.059377056 0.04714248 0.12861629
-0.054038078 -0.042806543 0.0783448 -0.0045756735 0.04651292 -0.040102195 -0.053349104 0.062445078
-0.03700988 0.060451105 0.021850608 0.073059075 0.0033941509 -0.02163949 -0.026136115 -0.002245156
0.0020962334 -0.050414816 0.017370982 -0.010358377 0.027968299 0.012979024 -0.04478774 0.032125287
0.07606087 0.1262882 0.0092882775 0.018932724 0.052128676 0.08638721 0.040974595 0.055716056
-0.010757435 -0.008134392 0.0015555887 0.0082254615 0.0019207367 0.002163062 0.0075713447 0.008774764
-0.007368058 -0.008162394 -0.011945093 0.00053097215 0.013778844 0.0062424517 0.0026948373 -0.014645023
9.829938e-05 0.007712967 0.008076533 -0.0020919112 -0.0091824075 -0.00903409 -0.0045856712 -0.024723053
0.0061283913 0.010687757 -0.0079584615 -0.0028761444 0.012500013 -0.021071821 0.004995809 0.004633419
-5.6490684e-05 -0.015611438 -0.010616232 -0.0030209445 -0.022822924 0.004618022 -0.0052528144 0.009122809
0.00059116463 0.012726235 0.0044763433 0.0040317248 -0.0024838957 -0.01235016 -0.00058075506 0.016682966
0.013421233 0.0007373087 0.0055199787 0.0034704753 -0.02354301 -0.012233246 0.004081472 -0.018016197
-0.008616842 -0.006729163 -0.005336937 0.00050229934 0.0036360866 -0.004051917 0.009005738 -0.029614363
0.021088883 -0.0063518262 0.027712204 0.022333298 -0.011611266 -0.004056425 0.038327485 0.021289265
0.054174762 0.013369229 0.016530167 0.0021992014 -0.001916733 -0.017673818 0.009955251 -0.0029649294
0.0016946099 -0.03130318 -0.027415192 0.014926334 -0.02420997 0.018394634 0.0048767836 0.0041167918
-0.005603106 -0.078748815 0.023642797 -0.062247306 -0.007525111 0.017730327 0.004791329 -0.14658168
0.030563517 0.032041386 0.01257162 0.047541585 0.014269081 0.02755792 0.019666905 0.0052468837
0.04634855 -0.06072209 -0.0019256023 0.0030656138 -0.0030575085 0.05582929 0.06879836 0.011249505
-0.013233761 0.030502617 -0.0001349812 0.011113654 0.018149255 0.0015670959 0.03552035 -0.04876263
-0.04602391 -0.10050833 0.0048289425 0.009405347 0.011934529 0.008961805 0.0077957 0.00083333993
-0.01394048 -0.006870072 -0.009293741 0.008531291 0.0033435759 -0.008219612 -0.009937564 1.8024335e-06
0.0065187598 -0.0015708433 0.008476569 -0.007357938 -0.0046117115 0.002252608 -0.008796808 -0.0023317866
-0.017442891 0.0060973703 -0.015798636 -0.0050842944 0.0041428367 -0.004616083 -6.412105e-05 -0.0023929016
0.002517064 -0.010286944 -0.0030664708 0.007888776 0.01083421 -0.0011445023 -0.0026926599 -0.0010076426
-0.016303077 0.007156581 0.0010438258 0.00019029636 0.00089925295 -0.0055984505 -0.0056308643 0.0001323514
-0.0054644374 -0.00420371 0.00012495325 -0.00021016278 0.017536044 0.01697999 -0.01351005 0.0057136067
-0.00062793127 -0.00031389037 0.0030395736 -0.013317074 -0.00057330204 0.0054728673 -0.0015698014 -0.0076897168
0.013171347 -0.013533647 -0.00035957596 -0.00062156183 -0.0020496896 -0.0086621335 0.006484415 -0.0048349635
00000000: d587 5b3d ffa9 da3b 5fde 3a3d 2697 7b3d
00000010: f99d 223c 4c99 063c 14bb c0bc 86a9 7ebd
00000020: 8f69 26bd 6623 06bd 0248 31bd 9174 a13a
00000030: 33a8 b9bb 8891 9c3d 6741 3dbd fba3 823d
00000040: 1dcc 27bd 430f 063d 8b07 1e3d b1b5 02bc
00000050: fbcc e538 4eee 22bd dcf7 373d 7099 293b
00000060: ad0a 423d 5da6 0d3e e919 86bd ddaf 4a3d
00000070: 7fa5 0ebb 5b35 73bd 7918 413d fdb3 033e
00000080: 0857 5dbd ea55 2fbd 3d73 a03d 88ef 95bb
00000090: 5584 3e3d 3342 24bd 9784 5abd 69c6 7f3d
000000a0: ac97 17bd 949b 773d 0c00 b33c ff9f 953d
000000b0: 6770 5e3b 4d45 b1bc 681b d6bc 7823 13bb
000000c0: f660 093b c47f 4ebd 974d 8e3c 2fb6 29bc
000000d0: c61d e53c f9a5 543c 5973 37bd ce95 033d
000000e0: cdc5 9b3d b251 013e dc2d 183c cd18 9b3c
000000f0: e184 553d c7eb b03d fad4 273d 8536 643d
00000100: f43f 30bc 1d46 05bc e5e4 cb3a 16c4 063c
00000110: 3bc1 fb3a 29c2 0d3b 0b19 f83b 07c4 0f3c
00000120: c06f f1bb 90bb 05bc 5ab5 43bc f030 0b3a
00000130: a9c0 613c 7b8d cc3b de9b 303b aef1 6fbc
00000140: 1426 ce38 0fbd fc3b 6f53 043c 7218 09bb
00000150: cf71 16bc b803 14bc 6643 96bb 0088 cabc
00000160: acd0 c83b b41b 2f3c 3564 02bc b27d 3cbb
00000170: dbcc 4c3c d09e acbc e2b3 a33b f0d3 973b
00000180: 69f0 6cb8 1ec7 7fbc b4ef 2dbc 0afb 45bb
00000190: 24f7 babc c752 973b cd1f acbb d677 153c
000001a0: 63f8 1a3a b381 503c 4aae 923b 8f1c 843b
000001b0: dbc8 22bb 5358 4abc d03d 18ba b7aa 883c
000001c0: bbe4 5b3c f347 413a f0e0 b43b ea70 633b
000001d0: 45dd c0bc f46d 48bc debd 853b b496 93bc
000001e0: a82d 0dbc 5080 dcbb 79e1 aebb bdac 033a
000001f0: 694b 6e3b f2c5 84bb ce8c 133c d299 f2bc
00000200: 98c2 ac3c fb22 d0bb b404 e33c 52f4 b63c
00000210: 2e3d 3ebc c2eb 84bb 48fd 1c3d d366 ae3c
00000220: 5be6 5d3d 9c0a 5b3c 466a 873c 7a20 103b
00000230: e33a fbba afc8 90bc 591b 233c 434f 42bb
00000240: ac1d de3a c337 00bd d395 e0bc 958d 743c
00000250: fd53 c6bc 58b0 963c 6dcd 9f3b 27e6 863b
00000260: 439a b7bb 0f47 a1bd 8aae c13c 08f7 7ebd
00000270: 3595 f6bb 313f 913c 9500 9d3b 8219 16be
00000280: 5760 fa3c d43d 033d 32f9 4d3c f7ba 423d
00000290: ddc8 693c 26c1 e13c 7d1c a13c 0dee ab3b
000002a0: fad7 3d3d bab7 78bd 7e64 fcba 77e8 483b
000002b0: 7b60 48bb 41ad 643d 28e6 8c3d d84f 383c
000002c0: 6bd2 58bc a0e0 f93c bd89 0db9 0b16 363c
000002d0: bfad 943c 0367 cd3a c97d 113d 53bb 47bd
000002e0: 9183 3cbd 50d7 cdbd 1b3c 9e3b e218 1a3c
000002f0: 0b89 433c 89d4 123c 1273 ff3b 7f74 5a3a
00000300: 9c66 64bc 571e e1bb c644 18bc d4c6 0b3c
00000310: e51f 5b3b 8dab 06bc 2ad1 22bc 25eb f135
00000320: 529b d53b c1e4 cdba 4fe1 0a3c dc1a f1bb
00000330: d71d 97bb 7ea0 133b 7d20 10bc e3d0 18bb
00000340: 65e4 8ebc 73cc c73b 246c 81bc 279a a6bb
00000350: a2c0 873b 8342 97bb ba78 86b8 3ad2 1cbb
00000360: 54f5 243b 928a 28bc d8f6 48bb ed3f 013c
00000370: f881 313c 2003 96ba 5677 30bb e012 84ba
00000380: 088e 85bc c181 ea3b fbd0 883a 4a8a 4739
00000390: d8bb 6b3a 3573 b7bb 1d83 b8bb cfc7 0a39
000003a0: 060f b3bb 46bf 89bb e205 0339 245f 5cb9
000003b0: c0a7 8f3c 9f19 8b3c 4259 5dbc 3539 bb3b
000003c0: c19b 24ba a791 a4b9 9533 473b db2f 5abc
000003d0: a649 16ba bd55 b33b cbc1 cdba 05fa fbbb
000003e0: a2cc 573c 3bbc 5dbc 7885 bcb9 4ff0 22ba
000003f0: 1654 06bb 9feb 0dbc 377b d43b 9d6e 9ebb

update_node_embedding_layer.0.message_layer.weight f4 [64, 128]
-0.01905954 0.0017508717 -0.014100832 -0.0042199288 -0.01788335 0.011372718 0.0077258577 0.0035789865
-0.008473589 -0.01911039 0.006354835 -0.020759711 -0.01670325 -0.0136195 0.002462361 -0.00094893266
-0.016457139 -0.0037167815 -0.0034718614 0.0051748753 -0.011750276 -0.025309846 -0.01164465 -0.011679254
0.017203681 0.009298491 -0.0068172463 -0.0040685274 -0.0060328953 -0.018918933 -0.008613824 0.011569415
-0.0018858399 0.008300575 0.0037456087 -0.004941903 -0.006633034 -0.0047782674 -0.019085824 -0.01260429
-0.005458042 0.004858546 -0.019572876 -0.015355278 0.0037105014 0.009642839 -0.011878921 -8.878531e-06
-0.009967546 0.009484177 -0.0045439037 -0.0053820675 -0.00019148103 0.0039594295 -0.022092896 0.010589635
-0.0072598616 -0.0099803945 -0.01242449 -0.0052968445 -0.00080498826 0.018477242 0.007948845 -0.0023803648
-0.006287746 -0.00242993 0.010485091 -0.012352881 -0.0010562774 -0.00066107354 -0.01425166 0.00453384
-0.008876933 -0.001967021 -0.008760678 0.013726681 -0.0066438313 0.0043544867 0.0017414953 0.020401204
-0.0043127085 0.0005067762 -0.0012610718 -0.005253296 -0.006616436 0.0008098367 -0.008505274 0.01379626
0.0029131 0.0011571661 0.0009564925 0.013593712 -0.016088534 -0.013935954 -0.0058008023 0.020228371
0.011279487 -0.018540718 0.013831565 -0.0013197443 6.0506612e-05 -0.002124555 -0.009243079 0.024446335
0.0023832296 -0.0027400209 0.003726408 0.0046185562 -0.011794901 -0.023753867 0.0072285063 -0.005699761
-0.009879807 0.01480613 -0.006727138 0.00834494 0.0018100572 0.0017527142 0.0067477897 -0.011304717
0.00450596 0.008198818 -0.007812804 -0.013443079 -0.002821174 0.0016093793 0.003997636 -0.0036062058
-0.0010193655 -0.034136042 0.02047644 0.022410741 -0.0047206795 0.015075879 0.037982613 0.0069445814
0.009274116 0.06620214 0.035534397 0.014988879 0.038290255 0.0018360903 0.004095981 0.022018973
-0.056134246 -0.026274838 0.0071103685 0.02108643 0.05961651 0.013583774 0.01363717 -0.003799912
0.014382583 -0.015327067 0.054586366 0.011128925 0.054396078 -0.014293359 -0.06243995 0.010439784
-0.00092215446 0.01355311 0.03437024 0.0033308987 -0.014290045 -0.023032786 -0.025051383 0.014796151
0.00023099052 0.0038271933 0.028791301 -0.04792523 -0.0078395605 -0.0017629995 0.021241464 -0.016381375
0.019765716 -0.0043325312 0.051732954 -0.0056952774 0.021429269 -0.012747226 0.018343028 0.014552455
-0.002466547 -0.00084888225 0.059156243 -0.011538924 0.03893844 -0.0041174185 -0.049713943 0.03390292
-0.004559856 -0.00050685543 -0.002196327 -0.007319206 0.009036749 0.009282108 0.0020423108 0.001308797
-0.0031804186 -0.0042738733 0.0058707064 -0.016605485 -0.021319646 0.023706587 -0.0049870163 -0.004870135
-0.018309532 0.009548369 -0.010924446 -0.0039042672 0.00076708436 0.022155717 -0.0012432182 -0.052566983
-0.00968774 -0.005103821 0.1007279 -0.0090017365 0.009607537 -0.008818445 -0.008235151 -0.0061864904
0.05858017 -0.013153054 -0.015833888 -0.000115217714 -0.013569004 -0.002339695 -0.008011554 -0.021496149
-0.0017432158 -0.021943403 -0.009161017 -0.013996529 -0.009782183 -0.005413486 -0.023880329 -0.015341476
0.012411524 -0.0029098631 -0.0003860734 0.014944711 0.010538038 0.012586262 0.007620831 -0.019465156
-0.022332499 0.00316342 -0.012974135 0.004826309 -0.0150535265 0.0026403463 0.0541352 -0.005671336
00000000: c122 9cbc 817d e53a 2d07 67bc 5447 8abb
00000010: 1a80 92bc a354 3a3c 3129 fd3b 6e8d 6a3b
00000020: cfd4 0abc 658d 9cbc 383c d03b 4510 aabc
00000030: 41d5 88bc 5324 5fbc 905f 213b cbc1 78ba
00000040: 1fd1 86bc 3f95 73bb 2b88 63bb 0092 a93b
00000050: 3b84 40bc 9856 cfbc 34c9 3ebc 575a 3fbc
00000060: bcee 8c3c b358 183c 3563 dfbb 4851 85bb
00000070: 98af c5bb e1fb 9abc ff20 0dbc a58d 3d3c
00000080: 492e f7ba 23ff 073c e378 753b b0ef a1bb
00000090: ec59 d9bb 0393 9cbb e059 9cbc 3982 4ebc
000000a0: 60d9 b2bb 7034 9f3b 4c57 a0bc b494 7bbc
000000b0: e22b 733b 00fd 1d3c ce9f 42bc 00f5 14b7
000000c0: eb4e 23bc 8663 1b3c 07e5 94bb 0e5c b0bb
000000d0: 4cc8 48b9 1abe 813b 29fc b4bc 2680 2d3c
000000e0: 22e4 edbb cf84 23bc 1790 4bbc 2791 adbb
000000f0: d905 53ba 965d 973c df3b 023c e5ff 1bbb
00000100: 7009 cebb 763f 1fbb a9c9 2b3c bd63 4abc
00000110: ca72 8aba e54b 2dba cb7f 69bc 9b90 943b
00000120: 8e70 11bc 23e9 00bb f288 0fbc dfe5 603c
00000130: 7fb4 d9bb 15b0 8e3b e342 e43a 6d20 a73c
00000140: 9f51 8dbb 2dd9 043a 8c4a a5ba d723 acbb
00000150: b0ce d8bb 394b 543a b459 0bbc b509 623c
00000160: b5e9 3e3b 0dac 973a 20bd 7a3a 29b8 5e3c
00000170: 1acc 83bc a153 64bc a814 bebb f8b5 a53c
00000180: 99cd 383c b4e2 97bc ca9d 623c 45fb acba
00000190: 7bc8 7d38 1e3c 0bbb 4970 17bc ae43 c83c
000001a0: f52f 1c3b ec91 33bb c036 743b 4257 973b
000001b0: 673f 41bc 7897 c2bc 1bdd ec3b 10c5 babb
000001c0: eade 21bc 6995 723c 536f dcbb 37b9 083c
000001d0: 713f ed3a 54bb e53a 901c dd3b 6b37 39bc
000001e0: bba6 933b 5654 063c 4601 00bc 5c40 5cbc
000001f0: 72e3 38bb cff1 d23a 9afe 823b 1856 6cbb
00000200: 3b9c 85ba 3cd2 0bbd 35be a73c bb96 b73c
00000210: eeaf 9abb d200 773c a893 1b3d 5f8f e33b
00000220: 76f2 173c fd94 873d 848c 113d ea93 753c
00000230: 3ed6 1c3d f8a8 f03a 9437 863b 2261 b43c
00000240: 06ed 65bd 543e d7bc 18fe e83b 73bd ac3c
00000250: 7130 743d 7a8e 5e3c 706e 5f3c f207 79bb
00000260: eda4 6b3c 611e 7bbc f495 5f3d 1856 363c
00000270: 6cce 5e3d b12e 6abc 08c1 7fbd a10b 2b3c
00000280: bdbc 71ba dd0d 5e3c cfc7 0c3d 354b 5a3b
00000290: cb20 6abc 41af bcbc 8f38 cdbc 8e6b 723c
000002a0: 0c36 7239 a6d1 7a3b bcdb eb3c 3f4d 44bd
000002b0: 8071 00bc 7214 e7ba 9402 ae3c 3c32 86bc
000002c0: b6eb a13c e8f7 8dbb efe5 533d 739f babb
000002d0: 6f8c af3c bed9 50bc 1e44 963c 6c6d 6e3c
000002e0: cba5 21bb 8687 5eba d14d 723d c10d 3dbc
000002f0: ea7d 1f3d 69eb 86bb d9a0 4bbd cadd 0a3d
00000300: d86a 95bb 7ede 04ba 41f0 0fbb f3d5 efbb
00000310: df0e 143c fc13 183c 4ad8 053b f18b ab3a
00000320: 926e 50bb d90b 8cbb 0e5f c03b 3a08 88bc
00000330: 8aa6 aebc 5134 c23c 206a a3bb a795 9fbb
00000340: dffd 95bc c370 1c3c 73fc 32bc bcde 7fbb
00000350: 2916 493a e87f b53c 7bf3 a2ba 7a50 57bd
00000360: 54b9 1ebc f43d a7bb 6e4a ce3d 057c 13bc
00000370: ee68 1d3c 3d7b 10bc baec 06bc 0bb8 cabb
00000380: c3f1 6f3d e87f 57bc 12b6 81bc 0aa1 f1b8
00000390: 8750 5ebc 9255 19bb e542 03bc b118 b0bc
000003a0: 9e7c e4ba a7c2 b3bc 1718 16bc b351 65bc
000003b0: 7345 20bc 9d63 b1bb aea0 c3bc d05a 7bbc
000003c0: b459 4b3c 67b3 3ebb e569 cab9 a9da 743c
000003d0: bca7 2c3c 9c36 4e3c 2ab8 f93b 6475 9fbc
000003e0: a5f2 b6bc 6151 4f3b 7791 54bc 0426 9e3b
000003f0: 11a3 76bc a909 2d3b dfbc 5d3d 9dd6 b9bb

update_node_embedding_layer.0.update_layer.weight f4 [64, 128]
0.0075080204 0.006818568 0.00086573075 -0.0051614977 0.0074384604 -0.01197225 -0.0056603015 -0.0015514987
0.0064184624 0.014434471 -0.0115956105 -0.0016655108 -0.020167302 -0.0006803575 -0.0021515186 -0.008102021
0.011949905 0.00038921964 -0.014170383 -0.0031973685 -0.0007729982 -0.009902928 -0.009593759 -0.004346585
-0.010339375 -0.0006574912 -0.012139008 -0.00067160174 0.0018544924 -0.0104301 0.010315007 -0.006150094
-0.020259636 -0.03361236 -0.008920801 0.006280489 0.012812566 0.00013216586 -0.008188388 0.017193135
0.010342431 -0.004385086 5.8531157e-05 -0.008898407 -0.007366527 0.014102951 -0.02433011 0.004748258
-0.014614876 0.0044798455 -0.0044345385 -0.008897678 -0.010819396 -0.007272465 -0.004566628 0.00013889273
-0.0017554512 -0.013033147 0.0050906357 -0.0067906072 -0.0019524642 -0.0076531214 0.019640753 0.00022439491
0.012451123 0.0039288118 0.008936819 0.003329992 -0.004263867 -0.004954748 0.0128591955 -0.0035331524
-0.0065020304 0.0069869813 0.0072394502 -0.0007420336 0.015847115 0.0014427209 -0.0066868877 0.003538578
0.016941896 -0.010268385 0.007019186 0.0012135583 0.0097796 -0.011017456 -0.008850054 0.0023699538
-0.009690811 -0.0121657625 0.020972423 0.014879573 0.0010716581 0.016705437 -0.002803989 -0.0039202645
0.0032333722 0.012256114 0.0012219709 -0.010433165 -0.015642965 -0.0052807154 -0.011458136 -0.005202763
-0.012459776 0.015344294 -0.0153360125 -0.01037547 -0.0015224892 -0.027193615 -0.01886527 -0.006369767
-0.0037906629 0.002707132 -0.0056048012 -0.009161804 -0.010054879 -0.01190291 -0.010014197 0.004225571
-0.0022067751 0.0054565533 0.02565991 -0.023145216 -0.0069208834 0.0033806015 -0.0025095507 0.015014666
0.080429204 0.028106706 0.0014343448 -0.05462548 -0.005307555 -0.005339581 -0.09277739 -0.005860058
0.027362308 -0.06618658 -0.012113891 0.047753472 -0.052513123 0.010510887 0.025663504 -0.08334173
0.026924463 -0.12437552 0.031866223 -0.12350067 -0.059372596 0.026368918 0.01110845 0.0068292674
-0.02317579 -0.08403137 -0.04617677 0.0074918177 -0.04131447 0.018846111 0.07955834 0.0066881697
-0.012782433 -0.18029605 -0.06362687 0.016152712 0.044535223 0.07574176 0.13070002 -0.06467591
0.019633258 0.0002516775 0.061497703 0.02212435 -0.051794447 -0.005963952 -0.021932043 -0.07713524
-0.116369255 0.043347973 -0.06758679 -0.13522933 0.060694642 0.08842694 0.042169068 -0.11242635
-0.012889661 0.012462988 -0.10192983 0.0053478517 -0.12147636 0.053587995 0.056896914 0.0053457716
-0.0034161038 0.019377526 0.024387121 0.0014689611 -0.025247125 -0.008275763 0.002773929 -0.010911016
-0.0119301705 -0.023982987 -0.023607427 -0.0007174751 -0.018696593 0.012096889 -0.0038155587 -0.06748023
-0.02272855 0.004480692 -0.018251318 -0.00013644987 0.008567792 0.0025265166 0.03347503 -0.0074844137
-0.014757364 -0.017548367 0.0035539626 -0.0036787607 0.0077950647 -0.007111315 -0.017961306 0.011454471
-0.010743715 -0.0074843774 -0.06677617 -0.07201764 -0.01853747 0.015286666 0.0015712676 0.05118796
0.008180435 -0.004895662 0.012664075 -0.006884232 -0.06059814 0.0029681704 -0.017198857 0.0017477091
0.0010577276 -0.037563503 -0.02125672 -0.0649052 0.006082323 -0.03206033 -0.006573185 -0.023122242
0.012566237 -0.003607763 -0.013485577 0.008001286 -0.007150833 -0.0109705785 -0.029183501 -0.008574107
00000000: d705 f63b 4b6e df3b 35f2 623a c821 a9bb
00000010: 54be f33b 4227 44bc 0d7a b9bb a85b cbba
00000020: f751 d23b 8f7e 6c3c 84fb 3dbc 454d daba
00000030: e635 a5bc 055a 32ba 7e00 0dbb 57be 04bc
00000040: 89c9 433c 2d10 cc39 e52a 68bc f18a 51bb
00000050: 08a3 4aba e43f 22bc 242f 1dbc cc6d 8ebb
00000060: 7b66 29bc 7d5b 2cba b1e2 46bc 6e0e 30ba
00000070: 7012 f33a 03e3 2abc 4600 293c ba86 c9bb
00000080: 89f7 a5bc 1dad 09bd 8d28 12bc 8fcc cd3b
00000090: cceb 513c 0196 0a39 9728 06bc 9ed8 8c3c
000000a0: 4d73 293c c4b0 8fbb 5a7f 7538 a0ca 11bc
000000b0: e862 f1bb 1010 673c f04f c7bc 4697 9b3b
000000c0: 3c73 6fbc abcb 923b 9b4f 91bb 91c7 11bc
000000d0: d643 31bc dc4d eebb a7a3 95bb bca3 1139
000000e0: 2b17 e6ba fb88 55bc 59cf a63b be83 debb
000000f0: d4e9 ffba 09c7 fabb a5e5 a03c 8d4b 6b39
00000100: ccff 4b3c 43bd 803b bc6b 123c ff3b 5a3b
00000110: e9b7 8bbb 705b a2bb 60af 523c 768c 67bb
00000120: fc0e d5bb 0cf3 e43b e938 ed3b 0885 42ba
00000130: cfd1 813c ae19 bd3a ae1d dbbb 7de7 673b
00000140: bbc9 8a3c ba3c 28bc 3301 e63b 4210 9f3a
00000150: 9e3a 203c 8f82 34bc d1ff 10bc 3a51 1b3b
00000160: 35c6 1ebc e852 47bc 5cce ab3c 74c9 733c
00000170: e176 8c3a d7d9 883c 21c3 37bb 9075 80bb
00000180: fce6 533b decd 483c 8a2a a03a deef 2abc
00000190: ad25 80bc da09 adbb e8ba 3bbc f07b aabb
000001a0: 1724 4cbc a266 7b3c e643 7bbc e0fd 29bc
000001b0: 438e c7ba 25c5 debc 578b 9abc 7ab9 d0bb
000001c0: c56c 78bb 236a 313b 7ba8 b7bb 641b 16bc
000001d0: 38bd 24bc 6c04 43bc 9612 24bc a976 8a3b
000001e0: 8b9f 10bb e3cc b23b bb34 d23c 099b bdbc
000001f0: 94c8 e2bb 158d 5d3b 4677 24bb 1300 763c
00000200: 11b8 a43d 0940 e63c a000 bc3a f8be 5fbd
00000210: 00eb adbb a7f7 aebb 1202 bebd bb05 c0bb
00000220: eb26 e03c d48c 87bd 5779 46bc 2599 433d
00000230: 0018 57bd db35 2c3c 453c d23c 12af aabd
00000240: b190 dc3c 98b8 febd 2886 023d ebed fcbd
00000250: ae30 73bd a103 d83c 3700 363c 0cc8 df3b
00000260: 28db bdbc a418 acbd da23 3dbd ec7d f53b
00000270: 5d39 29bd 2963 9a3c 7cef a23d 6f28 db3b
00000280: 696d 51bc 879f 38be ce4e 82bd b152 843c
00000290: 916a 363d 7f1e 9b3d 3ad6 053e ce74 84bd
000002a0: edd5 a03c 95f3 8339 04e5 7b3d 203e b53c
000002b0: 6a26 54bd 416d c3bb d4aa b3bc 15f9 9dbd
000002c0: 0153 eebd a58d 313d f16a 8abd 8f79 0abe
000002d0: f29a 783d 2f19 b53d 79b9 2c3d c93f e6bd
000002e0: 282f 53bc 8f31 4c3c 96c0 d0bd 083d af3b
000002f0: 99c8 f8bd 167f 5b3d bd0c 693d 952b af3b
00000300: b6e0 5fbb 9ebd 9e3c 80c7 c73c 288a c03a
00000310: 0fd3 cebc 1197 07bc ceca 353b 1ec4 32bc
00000320: c376 43bc f877 c4bc 5d64 c1bc f014 3cba
00000330: 9929 99bc 0832 463c 740e 7abb 1333 8abd
00000340: 3931 babc c5d2 923b ca83 95bc fc13 0fb9
00000350: ed5f 0c3c ea93 253b 1d1d 093d d03f f5bb
00000360: dfc8 71bc 98c1 8fbc 99e9 683b 5d17 71bb
00000370: be6d ff3b 0906 e9bb 9723 93bc 89ab 3b3c
00000380: 6806 30bc 823f f5bb f2c1 88bd fc7d 93bd
00000390: e4db 97bc ed74 7a3c fef2 cd3a 77aa 513d
000003a0: 3b07 063c ca6b a0bb fb7c 4f3c 2095 e1bb
000003b0: c135 78bd a385 423b 9ee4 8cbc 6313 e53a
000003c0: 73a3 8a3a 30dc 19bd 9322 aebc 04ed 84bd
000003d0: 394e c73b b151 03bd df63 d7bb db6a bdbc
000003e0: 9ee2 4d3c 3870 6cbb 9cf2 5cbc d317 033c
000003f0: 8951 eabb f1bd 33bc 3d12 efbc 697a 0cbc

update_node_embedding_layer.1.message_layer.weight f4 [64, 128]
-0.0024534129 -0.04438185 0.017602418 0.23280522 -0.026670694 0.0020031563 -0.039685965 -0.015681246
-0.030856585 -0.02672911 -0.038912017 -0.041324995 -0.05873688 -0.04000415 -0.017659578 0.02935682
0.2945581 -0.010182217 0.2592178 -0.040500678 0.053760435 -0.033975925 -0.032067202 -0.05629808
-0.033673476 0.0033338382 -0.0020081697 -0.044558775 0.014858605 0.03492284 -0.02261208 0.011080561
0.051124547 -0.015994048 -0.025216283 0.074784316 0.004077647 0.062821575 -0.029273778 0.052034076
-0.043279927 0.24303961 0.35444784 -0.022618376 -0.021859555 -0.01780858 -0.021930804 0.027811283
-0.006752191 0.5078795 -0.0454777 -0.0021748394 0.01848942 -0.0050325287 0.2341378 -0.025071112
0.044959538 0.013709028 -0.029704696 -0.019584946 0.008779383 -0.006977583 -0.029408952 0.045581073
0.0048196637 -0.00029466863 0.051185835 -0.006336092 -0.013040427 -0.0013606438 -0.014912906 -0.017159302
0.02830911 -0.0034454775 0.0581315 0.0034588557 -0.01951521 -0.0029959676 -0.014329332 0.008502593
0.003069065 0.008848925 -0.018758232 0.0027940245 -0.005648741 0.03305109 0.008843671 0.0050374777
0.0063532894 -0.016161688 -0.023223344 -0.006141008 -0.017435296 0.023323582 0.006484187 8.61378e-05
-0.05542428 0.0062083164 0.023674617 -0.004313238 -0.019124668 -0.027645765 -0.010694454 -0.0014325365
-0.0049200575 0.004660816 0.008090323 -0.009780353 0.00014844198 -0.016289886 0.014653477 -0.00842798
0.03851406 0.009428909 0.003541604 -0.0060923174 -0.016180206 -0.002299788 0.0214613 -0.007342533
0.025575066 -0.004828631 0.0023809853 0.004104593 -0.0050916364 -0.00771763 0.0050569274 -0.0072857225
0.00094796147 0.05890494 -0.007868105 -0.06858612 0.0497961 0.005181095 0.021202732 0.034821726
0.07619462 -0.11031296 0.06415843 0.052556176 0.07675713 0.042551 0.014174333 0.0385706
0.17484042 -0.01007959 0.14209962 0.02749074 0.05952715 0.03770032 0.034721315 0.047632802
0.053789686 0.015576052 -0.00016926562 0.044413216 0.0024756396 0.070055716 -0.18591543 0.0024705974
0.0371753 -0.0019140015 0.05626266 0.07193842 0.010390162 0.04982601 0.07321587 0.08034145
0.06277308 0.20047364 0.19540578 -0.003972101 -0.012671653 -0.004817127 0.14659002 0.06922479
0.012421224 0.27398235 0.064536326 -0.016619144 0.019238928 -0.012289571 0.03778253 -0.12401525
0.059558384 0.054683566 0.014220502 0.017958203 -0.02115381 -0.012869364 0.07836718 0.051105544
0.00965958 0.00080940395 0.030981762 0.0076632737 -0.035043996 -0.010899122 0.017166154 0.066018544
-0.053752646 -0.11786156 0.020037536 0.010838134 0.02784412 0.07430654 0.010743322 -0.011050108
-0.00725767 -0.02874906 -0.011794549 0.007855955 0.004364245 0.05501903 -0.017740304 0.020729143
-0.09758091 0.022255769 -0.24097778 -0.06090604 -0.007425953 0.015169115 -0.011892702 0.005095619
-0.14666697 -0.080266245 0.037836306 0.007858451 0.04848052 -0.012765003 -0.06753268 -0.06117337
-0.041138086 0.0050093913 0.04296581 0.002751888 -0.03228186 0.054894093 0.020532422 -0.057289306
0.00029018213 0.048264407 0.01276278 0.017471153 0.015853267 -0.04252222 -0.10814434 0.0025960132
0.048434548 -0.006146415 0.009884542 -0.038196776 -0.06396592 0.006800064 -0.06773264 -0.07727875
00000000: 70c9 20bb bec9 35bd f232 903c 7e64 6e3e
00000010: 807c dabc 6347 033b c08d 22bd f575 80bc
00000020: f3c6 fcbc 02f7 dabc 3562 1fbd 6644 29bd
00000030: 1596 70bd 64db 23bd d2aa 90bc b77d f03c
00000040: 52d0 963e 50d3 26bc 32b8 843e 0ae4 25bd
00000050: e733 5c3d 572a 0bbd e658 03bd d198 66bd
00000060: 33ed 09bd 867c 5a3b 7f9b 03bb 4383 36bd
00000070: 8271 733c 400b 0f3d f83c b9bc 3e8b 353c
00000080: f967 513d f305 83bc 6192 cebc 8528 993d
00000090: c89d 853b 99a8 803d 90cf efbc af21 553d
000000a0: 4b46 31bd 60df 783e 307a b53e 2c4a b9bc
000000b0: cf12 b3bc 4de3 91bc 3ba8 b3bc 7dd4 e33c
000000c0: 7c41 ddbb 6404 023f d346 3abd c087 0ebb
000000d0: 2077 973c e9e7 a4bb d2c1 6f3e ef61 cdbc
000000e0: 7e27 383d d59b 603c 4357 f3bc 9c70 a0bc
000000f0: 67d7 0f3c 35a4 e4bb 0beb f0bc 38b3 3a3d
00000100: 45ee 9d3b c17d 9ab9 3da8 513d fe9e cfbb
00000110: 84a7 55bc a157 b2ba 4355 74bc aa91 8cbc
00000120: 82e8 e73c 85cd 61bb 4c1b 6e3d f8ad 623b
00000130: 5dde 9fbc ff57 44bb 93c5 6abc 764e 0b3c
00000140: 5e22 493b 15fb 103c ddaa 99bc f41b 373b
00000150: 1319 b9bb 9460 073d 0be5 103c 6d11 a53b
00000160: 412f d03b 8465 84bc e23e bebc 823a c9bb
00000170: 77d4 8ebc 1911 bf3c 4e79 d43b e1a4 b438
00000180: 9204 63bd 226f cb3b 45f1 c13c 1056 8dbb
00000190: 56ab 9cbc 5f79 e2bc cb37 2fbc f3c3 bbba
000001a0: 6f38 a1bb c2b9 983b 468d 043c c63d 20bc
000001b0: 17a7 1b39 5e72 85bc 2315 703c 8315 0abc
000001c0: ebc0 1d3d b67b 1a3c 411a 683b 10a2 c7bb
000001d0: 5a8c 84bc 0ab8 16bb 9ccf af3c a299 f0bb
000001e0: cd82 d13c 7e39 9ebb 4e0a 1c3b d27f 863b
000001f0: bed7 a6bb 2ce4 fcbb 95b4 a53b 12bd eebb
00000200: 9e80 783a 4e46 713d 39e9 00bc e176 8cbd
00000210: fff6 4b3d 2dc6 a93b 5ab1 ad3c 3aa1 0e3d
00000220: ed0b 9c3d c3eb e1bd 7f65 833d 2545 573d
00000230: d832 9d3d f549 2e3d 763b 683c 35fc 1d3d
00000240: 5e09 333e dd24 25bc 9082 113e 4334 e13c
00000250: bed2 733d a76b 1a3d f037 0e3d 9d1a 433d
00000260: 9352 5c3d b232 7f3c e57c 31b9 a2ea 353d
00000270: 573e 223b 5f79 8f3d 9d60 3ebe bfe9 213b
00000280: 2145 183d 3cdf faba ad73 663d 7354 933d
00000290: 7f3b 2a3c 5c16 4c3d 34f2 953d 0f8a a43d
000002a0: 2c8f 803d f648 4d3e 7418 483e 6628 82bb
000002b0: c49c 4fbc fdd8 9dbb b21b 163e bac5 8d3d
000002c0: 6482 4b3c 6a47 8c3e 9f2b 843d df24 88bc
000002d0: f59a 9d3c 325a 49bc dbc1 1a3d b5fb fdbd
000002e0: 7ef3 733d e0fb 5f3d 1cfd 683c 151d 933c
000002f0: c14a adbc 06da 52bc f97e a03d 0c54 513d
00000300: 3743 1e3c 2e2e 543a 77cd fd3c 331c fb3b
00000310: 4b8a 0fbd 3b92 32bc 09a0 8c3c bb34 873d
00000320: bc2b 5cbd 6761 f1bd c225 a43c 6e92 313c
00000330: 5a19 e43c 072e 983d c204 303c 830b 35bc
00000340: c0d1 edbb 2683 ebbc ed3d 41bc 43b6 003c
00000350: f101 8f3b a25b 613d 1d54 91bc 2ad0 a93c
00000360: 80d8 c7bd bb51 b63c e1c2 76be 9d78 79bd
00000370: 6955 f3bb e187 783c 9cd9 42bc 26f9 a63b
00000380: de2f 16be a162 a4bd 3efa 1a3d bcc0 003c
00000390: 8293 463d 4e24 51bc 934e 8abd ed90 7abd
000003a0: 6980 28bd d225 a43b ebfc 2f3d 0559 343b
000003b0: fc39 04bd a1d8 603d 9c33 a83c 31a8 6abd
000003c0: 9623 9839 e6b0 453d fb1a 513c aa1f 8f3c
000003d0: b6de 813c c82b 2ebd c87a ddbd e021 2a3b
000003e0: 4e63 463d de67 c9bb c6f2 213c 3974 1cbd
000003f0: 9000 83bd 12d3 de3b 69b7 8abd 5244 9ebd

update_node_embedding_layer.1.update_layer.weight f4 [64, 128]
-0.010166158 -0.05115756 -0.0015054389 0.13520075 -0.075269476 0.018111467 -0.036855202 -0.11159809
-0.040752873 -0.2814264 -0.041238338 -0.06433018 -0.067885816 -0.0677912 -0.04785239 0.04012725
0.19137506 0.0024896995 0.13863705 -0.07722802 0.05304952 -0.073027864 -0.09856171 -0.09022943
-0.060507383 0.010020811 -0.0054459637 -0.042090602 0.010039929 0.045601234 -0.008968836 0.021125354
0.0515875 0.006727519 -0.060029328 0.055452585 -0.004555614 0.057004757 -0.09668338 0.05331455
-0.0826447 0.14565629 0.17718285 0.005525399 -0.0061289486 0.004195299 0.013331168 0.06584069
-0.14455433 0.3027604 -0.05671462 0.01227435 -0.077292986 0.009065761 0.1299372 -0.037226956
0.07060566 0.042106625 -0.12079134 -0.06330353 0.00096628093 0.007024199 0.042785414 0.22163801
0.013985123 0.09846304 -0.009805197 0.007731526 -0.009203515 0.0024249265 -0.0054302374 0.07699812
-0.004878531 0.008963635 0.0038316816 0.00906907 -0.007757715 -0.0019633004 0.006560391 0.0027607274
0.005735186 -0.00515868 0.017255895 0.023956683 0.0146273 -0.015148579 0.017804757 0.0119859
-0.18442576 0.10771236 0.031247044 -0.0060446197 0.008486662 0.01899149 0.04575013 0.0015348429
-0.00448159 0.0042203777 0.027060874 -0.0060899747 0.030479042 0.0065822443 -0.011928596 -0.003214695
0.014726575 -0.08766589 -0.00277249 -0.00015805288 -0.020545585 0.013806834 0.00033510607 -0.001036252
0.01463146 -0.005525388 0.012532683 -0.0036847894 -0.008877129 -0.016105475 0.0036104748 -0.017895473
0.008852675 0.02218204 0.0032395318 -0.13798222 0.05242136 -0.001975873 0.005253665 -0.0016584218
-0.010863466 0.0064865416 -0.007028142 -0.050858237 0.0054929955 -0.010388448 -0.066299304 -0.070321985
-0.03210318 0.09162901 0.00514409 -0.015731582 -0.004097492 0.0164854 -0.02885017 -0.42728317
-0.11505212 0.013382397 -0.11622976 0.02663981 -0.34918058 0.0248127 -0.010246653 -0.0330342
-0.09179156 0.0027347475 -0.0062289075 -0.015081247 -0.009917131 -0.35099995 -0.07216592 -0.017264713
-0.37612325 0.008303429 0.0020201246 -0.30520052 0.0017040069 -0.31172428 -0.03435448 -0.319229
0.0041246493 -0.3187905 -0.1475986 -0.010881386 -0.012037602 0.0047711004 -0.29066196 -0.26072222
-0.021037653 -0.33363193 0.010155404 0.004584755 -0.06021559 -0.002873488 -0.13899116 -0.051990543
-0.30819473 -0.3389399 -0.05429174 -0.10732422 -0.006654196 -0.0036493393 -0.13446292 0.02370019
-0.040148016 0.04543293 -0.027798075 0.02599626 -0.015403688 -0.007106887 0.039485354 0.058386087
0.0033971658 -0.014411236 0.0058174026 0.029658867 -0.017583165 -0.017179327 0.0072389245 -0.008561072
0.026696034 0.011551481 -0.009361305 0.014020218 -0.01827231 0.00050664635 0.014521485 0.023136089
0.056129448 0.09395148 0.00628341 -0.0033151226 0.008994487 0.02752626 -0.0018586295 0.0052797627
-0.01129232 0.0013301374 -0.010509767 -0.01421177 0.048158582 0.023501461 -0.00028158753 -0.0059180534
-0.010162053 -0.023039961 -0.012178771 -0.009619842 -0.0071991007 0.0147639 0.0031631505 -0.044715196
0.0037335341 0.02276485 0.011175519 0.01545676 0.034789506 -0.002770325 0.023470806 -1.4229316e-05
-0.003673406 0.004910114 0.050598513 -0.047402002 0.0388112 0.014062161 -0.00077668746 0.07423249
00000000: f58f 26bc 978a 51bd 2652 c5ba 1172 0a3e
00000010: e226 9abd 805e 943c 7bf5 16bd 8a8d e4bd
00000020: 7cec 26bd 1f17 90be 88e9 28bd 8bbf 83bd
00000030: b807 8bbd 1dd6 8abd de00 44bd 795c 243d
00000040: d3f7 433e 3a2a 233b dff6 0d3e b929 9ebd
00000050: 744a 593d a28f 95bd b9da c9bd 35ca b8bd
00000060: 97d6 77bd 542e 243c 0e74 b2bb 3267 2cbd
00000070: 847e 243c 5cc8 3a3d 06f2 12bc 140f ad3c
00000080: 6a4d 533d 8572 dc3b 50e1 75bd 4022 633d
00000090: 4347 95bb d27d 693d f001 c6bd 5c60 5a3d
000000a0: a041 a9bd ec26 153e 6c6f 353e 680e b53b
000000b0: 59d5 c8bb b878 893b f96a 5a3c 7cd7 863d
000000c0: 0d06 14be 6903 9b3e 974d 68bd 5b1a 493c
000000d0: c94b 9ebd 8f88 143c 420e 053e 4b7b 18bd
000000e0: b399 903d ff77 2c3d 7361 f7bd 48a5 81bd
000000f0: 044e 7d3a 402b e63b c23f 2f3d 13f5 623e
00000100: db21 653c fea6 c93d faa5 20bc be58 fd3b
00000110: 57ca 16bc 84eb 1e3b 22f0 b1bb 31b1 9d3d
00000120: 16dc 9fbb 36dc 123c f31c 7b3b 7096 143c
00000130: 6e34 febb b7aa 00bb 8cf8 d63b 52ed 343b
00000140: 3aee bb3b 250a a9bb 3c5c 8d3c ce40 c43c
00000150: 58a7 6f3c bf31 78bc 48db 913c 8260 443c
00000160: 1bda 3cbe 4c98 dc3d cdf9 ff3c f211 c6bb
00000170: a40b 0b3c 0b94 9b3c 7d64 3b3d c82c c93a
00000180: 4dda 92bb 184b 8a3b c4ae dd3c 698e c7bb
00000190: 2faf f93c deaf d73b 2870 43bc a2ad 52bb
000001a0: bc47 713c 2d8a b3bd aab2 35bb ffba 25b9
000001b0: 374f a8bc 0f36 623c 2db1 af39 d9d2 87ba
000001c0: cbb8 6f3c 500e b5bb e255 4d3c 827c 71bb
000001d0: 6171 11bc a1ef 83bc b79d 6c3b 8799 92bc
000001e0: cf0a 113c 1cb7 b53c 534e 543b 364b 0dbe
000001f0: c8b7 563d a67d 01bb f026 ac3b 675f d9ba
00000200: aefc 31bc 0e8d d43b 544c e6bb ba50 50bd
00000210: 96fe b33b 4f34 2abc eec7 87bd f904 90bd
00000220: a07e 03bd fea7 bb3d c18f a83b 85df 80bc
00000230: 4144 86bb 640c 873c 3157 ecbc dcc4 dabe
00000240: 72a0 ebbd d741 5b3c de09 eebd bb3b da3c
00000250: ccc7 b2be 0144 cb3c 94e1 27bc df4e 07bd
00000260: 37fd bbbd 7339 333b dd1b ccbb 5617 77bc
00000270: 767b 22bc 44b6 b3be bacb 93bd ba6e 8dbc
00000280: 3a93 c0be 1b0b 083c 1164 043b 3e43 9cbe
00000290: fc58 df3a 539a 9fbe 49b7 0cbd fc71 a3be
000002a0: 1128 873b 8238 a3be 1624 17be d747 32bc
000002b0: 5d39 45bc e456 9c3b a5d1 94be 627d 85be
000002c0: 2857 acbc ced1 aabe da62 263c b63b 963b
000002d0: 9fa4 76bd 2151 3cbb b353 0ebe 09f4 54bd
000002e0: b3cb 9dbe 8889 adbe 0461 5ebd cdcc dbbd
000002f0: 710b dabb c129 6fbb a6b0 09be e726 c23c
00000300: 3f72 24bd e117 3a3d cab8 e3bc 1cf6 d43c
00000310: c05f 7cbc e4e0 e8bb 65bb 213d 4026 6f3d
00000320: fca2 5e3b 1b1d 6cbc e99f be3b 27f7 f23c
00000330: 920a 90bc a9bb 8cbc 8034 ed3b bd43 0cbc
00000340: a4b1 da3c 6c42 3d3c 2960 19bc 0eb5 653c
00000350: d0af 95bc 76d0 043a 86eb 6d3c e587 bd3c
00000360: fee7 653d a269 c03d 10e5 cd3b 8742 59bb
00000370: 9d5d 133c c07e e13c 429d f3ba dc01 ad3b
00000380: 6c03 39bc 0158 ae3a 2831 2cbc 7cd8 68bc
00000390: ef41 453d 2386 c03c 0aa2 93b9 3bec c1bb
000003a0: bd7e 26bc 4dbe bcbc 7889 47bc 8b9c 1dbc
000003b0: 6fe6 ebbb 49e4 713c dc4c 4f3b 4827 37bd
000003c0: 4fae 743b 5a7d ba3c 8619 373c 5a3e 7d3c
000003d0: 717f 0e3d 578e 35bb d945 c03c 72ba 6eb7
000003e0: 87bd 70bb 06e5 a03b 6340 4f3d 9a28 42bd
000003f0: 7ef8 1e3d fa64 663c 9d9a 4bba 3407 983d
