ER_200spin/eco/network/network_best.pth (torch, 238273 bytes, 11 tensors)

node_init_embedding_layer.0.weight f4 [64, 7]
00000000: 804a 203d 1b14 86be 7961 b6be 5497 5fbd
00000010: afea 53ba a7a9 d139 f4a0 863d 57e5 113c
00000020: ab19 32be 04a7 cdbc ffe0 a03d 8d59 d9bd
00000030: 33bb b53d c892 163d d177 cc3c 41ee e33e
00000040: 53fc 91bc 05e3 1bbd 9e15 8bba 0fe2 d9bc
00000050: b7d8 193d b51a 3cbd 6674 f63e 6e4a c33c
00000060: 3eb6 463d ab3f 113b 24b7 873c f533 483d
00000070: b081 c9bb 437c 7fbb 4385 21bc 81e5 35bc
00000080: 2041 31bc a6b1 77bb 6c62 79bc 95ae 35bc
00000090: 71ad 5abb e0d2 09bb e315 2fbb b40b 59bc
000000a0: 36b4 86bc e5f8 b2bb b1d8 193d b2d0 063f
000000b0: 99f6 32bb 927e bcbd 834a edb8 8734 5ebd
000000c0: 9988 c73b 419d fa3b 0d99 5bbe 17b8 32bf
000000d0: e476 883e 5cde 5c3a 4f15 b33d 273b 643d
000000e0: d4f8 803d 3365 b9be 0149 b43d 5b9c 453e
000000f0: c9f2 e7ba 2bcf 4e3d 65e6 3d3d ed3e 3c3d
00000100: 4fff 033f dc50 c43c f517 083d ea44 c9ba
00000110: 3f24 bebb 54bf 14bd 1e4c 08bd c7c8 d73e
00000120: 977b 853d ee82 033e 912f 49bb 9437 b93c
00000130: 2a9c 703c 196d 1fbd d990 b73e ce40 2dbe
00000140: 7ed1 793c e0e0 473b 9e2b d3ba b4bb 98be
00000150: d6db 413d a35f 0b3f 9f7e d0ba 65c5 84bd
00000160: c07f 9539 4330 be3c d439 653c fdb8 193d
00000170: 2b3d c2be 6563 00bd 9caf 823d 38f1 d5b9
00000180: 91ee d0bc 52b1 273c 7ed2 3c3d 6cf7 a9be
00000190: a094 bdbc b346 f03d ece2 5139 36f3 c8ba
000001a0: 6267 dc3c 1f71 4e3c ba5c 363d dfbf 36be
000001b0: 3417 d23d dec6 77ba d11f ae3c 3780 7abe
000001c0: befd 833d c212 4cbe f175 15be 7b97 c63d
000001d0: d18a e4bc 067e 943d 221b a6bd ab88 9bbd
000001e0: dcee dc3e 4e51 393d c014 ac3c ac35 7039
000001f0: f538 493d c298 463d 08f5 663d ea65 f5be
00000200: 4ff1 16bc 1b9b 013e ae19 ea3b f00b 233b
00000210: 2750 5e3d 49c9 9dbd 8bbd dd3e 60f7 943d
00000220: a29c e53d 8503 24bb 5cfc e73c b7ec 493c
00000230: 7e4a 313d 8dff 083f 655c f53c 5411 a9b8
00000240: 0f83 bcb7 1cb7 8e3b 7a23 c3bc e039 613d
00000250: 6dcd eabe 7d8d cf3c b076 133e e79b 95ba
00000260: 52ed 713c 16fa 373d e9b9 ac3c 98a5 39be
00000270: a4f9 c13d c198 9ebc f34a 3dbd 0194 bb3d
00000280: b598 25bd 1d56 42bc 8984 66be 8797 5a3e
00000290: 10a3 e13d 1cc6 b0ba 3077 3c3d bcd9 be3d
000002a0: f013 403d 425b 87be f67a a03d cd8c e23e
000002b0: 6943 913b b13c c33d fe2b 0bbc 321b a7bd
000002c0: 4efd d23e 02cd 8b3d 3832 533d 23bd 9bba
000002d0: a484 163d 24a8 efbc e77c 6b3d 5e5f 0e3f
000002e0: c3bc cc3c b7da fa3c f83d 20ba 0d7a 023d
000002f0: af16 23bc d50d 02bb 0a30 4a3b 6ca2 8f3a
00000300: 5b8f 1abc cb82 b7bb 4bda 8ebb 61bf 28bc
00000310: 2851 2d3d 7803 f43e 2c12 cf3c 93c4 843b
00000320: 757b b839 5aa6 71ba 3adc 16bd 2f91 6e3d
00000330: 498d e5be 99a1 4d3b 3800 ec3d d9a3 043b
00000340: 7495 3c3d be2f 843c 5ba4 053d 9bde 58be
00000350: 6544 77bc 3a6a 48be d853 08ba ba73 e73d
00000360: 2054 a1bc cf9c 90bd fdd8 9bbe a3ea ea3c
00000370: 9360 333e 2f5e 2ebc f846 f73c f9c2 403d
00000380: a721 21bb b0a3 263c 8854 80bb 5c9d 91bc
00000390: b8ed 82bb 477b 08bc 9d64 21bb cdb7 9d3b
000003a0: 556d 0f3e ea9c c7be 2992 2b3c 95ef 743b
000003b0: 374c c03b 50b7 debe 5753 eb3c 2673 f13e
000003c0: 1d2b 1f3b 0463 99bc b2e1 013b aa00 1e3d
000003d0: 80bb 873c 4756 44bb 9068 923b 1ac5 35bc
000003e0: 0f6e 3ebc 1e4a 36bc 17e0 cebb f7b7 d7ba
000003f0: 2c34 813a 56eb 2dbe 5f84 8abe 1247 003e
0.03913355 -0.26187214 -0.3562124 -0.054587677 -0.0008083982 0.00039989987 0.06573668 0.008904777
-0.17392604 -0.025104053 0.078554146 -0.106127836 0.08873596 0.036761075 0.024959477 0.4451771
-0.017820513 -0.0380583 -0.0010611301 -0.026597051 0.03756019 -0.045923907 0.4813568 0.023839202
0.048513643 0.0022163193 0.01656682 0.048877675 -0.006149493 -0.0038983978 -0.009858432 -0.011102081
-0.01081875 -0.0037795096 -0.0152212195 -0.011088987 -0.003336754 -0.0021030232 -0.0026715926 -0.013247419
-0.016443353 -0.0054617994 0.03756017 0.52662194 -0.0027307628 -0.09203829 -0.000113149195 -0.054249313
0.0060892818 0.0076481407 -0.21445103 -0.6981215 0.26653206 0.0008425468 0.08744299 0.055720475
0.0629746 -0.3621002 0.08802987 0.19297926 -0.0017696257 0.05049054 0.0463623 0.04595845
0.51561445 0.023964338 0.033225972 -0.0015355621 -0.0058026607 -0.036315277 -0.033275716 0.42145368
0.065177135 0.12842914 -0.0030698518 0.02260951 0.01468567 -0.038922403 0.35852697 -0.16919252
0.015247701 0.0030499026 -0.0016111021 -0.29830706 0.047328793 0.54442805 -0.0015906877 -0.064829625
0.00028514676 0.023216372 0.013990838 0.037529934 -0.37937292 -0.03134479 0.06381151 -0.00040806248
-0.025504382 0.010235148 0.04609918 -0.3319658 -0.023142159 0.11732235 0.00020016328 -0.0015331272
0.026904766 0.012600212 0.044522025 -0.1784663 0.10258332 -0.0009451936 0.021255406 -0.24462973
0.06444882 -0.1992903 -0.14595772 0.09696861 -0.027898224 0.072505996 -0.08110644 -0.07594427
0.43150985 0.045243554 0.021005988 0.00022908178 0.049126584 0.048485525 0.056386024 -0.47929317
-0.009212806 0.12656824 0.0071441745 0.0024878941 0.054275658 -0.07704408 0.43308672 0.072737455
0.11211516 -0.0025026512 0.028318577 0.012324504 0.043283932 0.5351494 0.029951284 -8.0617756e-05
-2.2472375e-05 0.0043553244 -0.023820627 0.054986835 -0.45859852 0.025336022 0.14400744 -0.001141426
0.014766054 0.044916235 0.021084743 -0.18129575 0.09471443 -0.019359948 -0.046214055 0.09159089
-0.040428836 -0.011861351 -0.22511496 0.21346866 0.1101743 -0.0013486776 0.046012104 0.09318873
0.046894014 -0.26436812 0.07835953 0.44248047 0.0044330847 0.0953306 -0.008494375 -0.08159484
0.4120888 0.068262115 0.051561564 -0.0011881929 0.03674759 -0.02925498 0.057492163 0.5561427
0.024992352 0.03062187 -0.00061127497 0.031854678 -0.009954139 -0.001984467 0.0030851387 0.001095844
-0.009433593 -0.0056003085 -0.0043595186 -0.010299535 0.042313725 0.47658896 0.02527722 0.004051754
0.00035187197 -0.0009218209 -0.03683112 0.058243927 -0.44834355 0.0031376837 0.11523479 0.0020239262
0.046040967 0.016136046 0.032627445 -0.21178667 -0.01509199 -0.19571772 -0.0005200482 0.1130137
-0.019693434 -0.07061159 -0.30438986 0.028676337 0.17517309 -0.010642572 0.030185208 0.04706094
-0.0024586709 0.010170862 -0.003916327 -0.01777523 -0.0039956234 -0.008330173 -0.002462662 0.0048131705
0.1400655 -0.38986903 0.010471859 0.0037374247 0.0058684605 -0.4349923 0.028726263 0.47158164
0.0024287172 -0.018723972 0.0019818363 0.038574852 0.0165689 -0.0029958652 0.004468031 -0.011094356
-0.01162292 -0.011126069 -0.0063133347 -0.0016458024 0.0009857467 -0.16984305 -0.27054116 0.12527111

edge_embedding_layer.edge_embedding_NN.weight f4 [63, 8]
00000000: c071 b63c fd68 ae3c a4a1 b73e 67b5 73bd
00000010: 3331 48bd eb6c 9cbd 8dc4 d9ba 001a 93bd
00000020: da91 22bc 8489 30bc a767 8dbb 0b1a 16bb
00000030: d5af 123c 26f9 b5bc 19e0 79bc b872 043c
00000040: cd3f bb3c d33c 663c f589 af3e 4b44 82bd
00000050: 9fa7 87bc 887f 6fbc 603c 343b 6d46 4dbc
00000060: fc24 553d fed1 2d3d 367b ab3e 87e8 39be
00000070: 061a 8abd 1f4e 003b f75f 4c3d 0db6 35bd
00000080: 3357 76bc a1de dcbb e91d 7c3c bd1a 71bc
00000090: 8ffc 20bc db78 c7ba b9c1 b5ba 58a0 08bb
000000a0: bb87 2abc e96b 1aba 4afb 213b 5c68 89bb
000000b0: 7669 373b 04b4 5ebc bdaf 3d3c 3d4c 303b
000000c0: 7232 52bb 798e 7bbd 0b98 4abe 68cd 023e
000000d0: 1dd2 f0bc e503 b9bc f207 01be 32b0 833d
000000e0: a601 28bb a414 4d3b 9014 85be 84c3 383e
000000f0: 41e2 ea3d 8308 983c 03b2 12bc 5a5c 033e
00000100: 6a18 0d3b c3d7 32be 1b06 80be f238 f33d
00000110: ae74 dd3d 7ab7 3c3b 33e3 eeba 1c97 bb3d
00000120: 2ab8 283a aaf3 b6bd af7b 6cbe 5f19 053e
00000130: b21e 0b3d e3e1 c13c 1071 57bd 64ee e53d
00000140: 9220 c6bc 65c0 a9bb b78e 6bbe caff 183e
00000150: 19e7 e83d ae55 343c 5f13 6539 fdbe ce3d
00000160: 2187 07ba 46eb 95ba 9f19 cfba e9d8 3ebc
00000170: e960 09bc 20b2 9bbc 9efc adbc 1353 4dbb
00000180: bbde 40bc ff85 d3bb 4293 99bc de41 0c3c
00000190: 8e6b 3bbb c099 57bc 5c61 c13a 7b91 5dbb
000001a0: 72cd 553d eaa4 9f3c c9e1 a43e 2de0 08be
000001b0: a4a6 a9bc 2cc5 023b d6d6 4a3d 4f39 06be
000001c0: 5eab 71bc ec4a 83bd b47b 6abe 9c93 033e
000001d0: fb64 4b3d e82d 6c3c e597 acbe a2d1 d23d
000001e0: da48 873d 67a9 463d 35df a53e 8fe4 3cbe
000001f0: 6524 e4bd 8c5c 673b 41b9 693d 0339 9ebd
00000200: 57b4 a3bc 4ef5 1fbd c25f 60be 4b93 183e
00000210: 5059 ea3d 5b32 b8bb 909b aa3c 7dda 973d
00000220: 7714 243d 3cf8 143c 9a4e b63e d2ed b6bd
00000230: 7d00 183d 97c0 88b7 4460 dc3c 4e10 87bd
00000240: e156 483d 07ed 90ba 9179 ad3e 8282 06be
00000250: 9676 b8bb f8cb a43b 554c 0c3d 7052 0ebe
00000260: 37ca 59bc e454 7fbd 39d9 46be ad06 023e
00000270: 83b9 273e db63 97bb 1f91 27bd f7d5 8a3d
00000280: d841 bdba 2954 20bc 6d0c 1d3b 3ded a93a
00000290: cd6a a4ba 8551 27b9 6f54 e7bb 4d3b 16bc
000002a0: e12a 53bc d3ff 0ebd e2c0 63be e2e6 083e
000002b0: 49bb 0d3e 785c 01bc 0501 213c 1a53 933d
000002c0: 2580 443d c62e 3b3d b6b8 ac3e 9c6e 53be
000002d0: e9b8 33bd b8e2 babb 3c9e 4f3d e2ca a7bc
000002e0: e074 c2ba 4b84 8eba a0ed d139 2616 003b
000002f0: 5731 92bc b9db b0bb de23 34bb 5572 7cbb
00000300: 02e8 8d3d 9c2f 163d cfed a83e 31b4 61be
00000310: 987d 01be 5e03 0c3c 01ae 153d 5e01 9abd
00000320: c0a2 f73c dcbe 6cba 575c b13e cd3e a9be
00000330: 0f48 cdbc f59d 723c a79a c43c 8334 a8be
00000340: 07b4 eabb 890b 51bc 8e38 63be 71aa 263e
00000350: d42b bc3c b947 033c 4760 cfbe 2a75 e23d
00000360: 8e00 673d 4740 7e3c 9a70 a63e 77bd 2abe
00000370: f9cd 273d bfdb a23a ca2e 243d 2971 8cbd
00000380: a2ce 72bc 5de9 72bc f821 88bc e536 7abc
00000390: bc7f f9bb ced3 45bc 0618 54bc 4a6b 2cbc
000003a0: 014c aabb 4bad 97bd 73b5 50be 987e 2a3e
000003b0: ec17 ec3d 0522 dd3b e0ef 27be 3b11 d03d
000003c0: 1e9b 393d 8039 3c3d 7cb1 a63e 40fc 5cbe
000003d0: 8679 7cbd 7a5d 0c3a 21d4 5c3d 745b 22bc
000003e0: 57e5 d63c f451 adbc 2d19 c33e 39f5 aabe
000003f0: 485b 78bd d440 12bc df42 6e3c 7b9e b6be
0.022271037 0.021290297 0.3586551 -0.05949917 -0.048875045 -0.07637962 -0.0016614363 -0.071826935
-0.009922469 -0.010774974 -0.004315335 -0.0022903706 0.008953054 -0.02221353 -0.015251183 0.008083992
0.022857571 0.014052588 0.3428494 -0.06360682 -0.01655942 -0.014617808 0.0027501807 -0.012528998
0.052037224 0.042436592 0.3349244 -0.18155108 -0.06743245 0.0019577814 0.049896207 -0.04436307
-0.015035438 -0.0067404066 0.0153879905 -0.014715848 -0.00982584 -0.0015218513 -0.0013866938 -0.0020847525
-0.010408337 -0.00058907137 0.002471643 -0.004193349 0.0027986444 -0.013592724 0.011577544 0.002690091
-0.0032073525 -0.06141517 -0.19784562 0.12773669 -0.029397065 -0.022584865 -0.12600687 0.06430091
-0.0025635748 0.003129282 -0.2599225 0.18043333 0.11468936 0.018558746 -0.008953574 0.12828198
0.0021529444 -0.17465119 -0.25004658 0.11876096 0.108132705 0.0028795884 -0.001822567 0.09159681
0.0006436134 -0.08933194 -0.23094057 0.1299796 0.03396482 0.023667281 -0.05259806 0.1122711
-0.024185453 -0.005180406 -0.2300366 0.14941326 0.113722034 0.011006756 0.00021846358 0.10095022
-0.0005169977 -0.0011437915 -0.0015800482 -0.011648395 -0.008384922 -0.019005835 -0.021238621 -0.0031330034
-0.011771853 -0.0064551826 -0.018746976 0.008560626 -0.0028598043 -0.013159215 0.0014753747 -0.0033808637
0.05219788 0.019487817 0.3220351 -0.13366766 -0.020709343 0.001995395 0.04952129 -0.13107799
-0.01475033 -0.064107746 -0.22898751 0.12849277 0.04965685 0.014415242 -0.33709636 0.102938905
0.06605692 0.0485014 0.32396856 -0.18446563 -0.11139754 0.0035302965 0.057061438 -0.07725718
-0.019983454 -0.0390523 -0.21911529 0.14899938 0.11442816 -0.005621237 0.020826131 0.0741472
0.04005858 0.009092387 0.35606843 -0.089320794 0.03710984 -1.6302145e-05 0.026901372 -0.06594907
0.04891098 -0.0011056968 0.3388181 -0.13135722 -0.005629371 0.005029198 0.034252483 -0.13898635
-0.013292841 -0.062336817 -0.19418801 0.12697859 0.16379361 -0.004620058 -0.040909883 0.06779092
-0.0014439179 -0.00978569 0.0023963705 0.0012964379 -0.0012544036 -0.0001595673 -0.007059626 -0.009169412
-0.012888641 -0.03491194 -0.22241548 0.13369325 0.13840975 -0.007895581 0.009826903 0.07193585
0.04797377 0.045698904 0.33734673 -0.20647663 -0.043877516 -0.0057032965 0.050688013 -0.020482484
-0.0014835857 -0.0010873167 0.0004004063 0.0019544451 -0.017845793 -0.0053972867 -0.0027487199 -0.0038520296
0.069290176 0.036666498 0.32993934 -0.22041394 -0.12645566 0.008545725 0.036542896 -0.07519792
0.030228972 -0.0009031126 0.34640762 -0.33055726 -0.025058774 0.014808168 0.023999525 -0.32852563
-0.007162574 -0.012759098 -0.22189543 0.16275956 0.022970118 0.0080127055 -0.4050314 0.110575035
0.056397013 0.015518255 0.32507783 -0.16673838 0.040967915 0.0012425109 0.040083684 -0.06857521
-0.014819773 -0.014826146 -0.01661776 -0.015271877 -0.007614104 -0.012074424 -0.012945181 -0.010523627
-0.0051970487 -0.074061 -0.20381717 0.16649854 0.11528 0.00674844 -0.16400099 0.101595365
0.045313947 0.045953274 0.32557285 -0.215806 -0.06163933 0.0005354505 0.05391324 -0.009909499
0.026232405 -0.021157242 0.38105145 -0.33390215 -0.060633928 -0.008926589 0.0145423105 -0.35667786

edge_embedding_layer.edge_feature_NN.weight f4 [64, 64]
00000000: 3f6c 343d ffa9 da3b b902 193d c65f 823d
00000010: f99d 223c 4c99 063c 0b43 61bd ee9c 70bd
00000020: 59f9 2fbd da0a e5bc 455b 14bd 9174 a13a
00000030: 33a8 b9bb ad9e 9d3d adcb 21bd fcc8 883d
00000040: 8baf 31bd 2d3c 013d c18f 1f3d 5efa 69bc
00000050: fbcc e538 346b 23bd b083 403d 7099 293b
00000060: 0303 4d3d 3b42 0c3e c0cf c4bd 9f95 4c3d
00000070: 7fa5 0ebb 1f76 81bd 6b25 4b3d 773c 053e
00000080: b070 7bbd a5b1 4dbd d872 c03d d250 58bc
00000090: 1c0e 473d b932 30bd cb36 58bd d41a 823d
000000a0: a8be 1ebd 9cee 593d 4124 9f3c 6e1c 9b3d
000000b0: 6770 5e3b b510 b8bc db9a 0dbd 7823 13bb
000000c0: f660 093b efc2 49bd 974d 8e3c 2fb6 29bc
000000d0: 0def ef3c f9a5 543c d894 49bd 0fa8 e83c
000000e0: bd28 9a3d 0c49 f73d dc2d 183c cd18 9b3c
000000f0: c5c8 143d 9a2c b63d e373 2b3d 5d05 503d
00000100: f43f 30bc 1d46 05bc e5e4 cb3a 16c4 063c
00000110: 3bc1 fb3a 29c2 0d3b 0b19 f83b 07c4 0f3c
00000120: c06f f1bb 90bb 05bc 5ab5 43bc f030 0b3a
00000130: a9c0 613c 7b8d cc3b de9b 303b aef1 6fbc
00000140: 1426 ce38 0fbd fc3b 6f53 043c 7218 09bb
00000150: cf71 16bc b803 14bc 6643 96bb 0088 cabc
00000160: acd0 c83b b41b 2f3c 3564 02bc b27d 3cbb
00000170: dbcc 4c3c d09e acbc e2b3 a33b f0d3 973b
00000180: 69f0 6cb8 1ec7 7fbc b4ef 2dbc 0afb 45bb
00000190: 24f7 babc c752 973b cd1f acbb d677 153c
000001a0: 63f8 1a3a b381 503c 4aae 923b 8f1c 843b
000001b0: dbc8 22bb 5358 4abc d03d 18ba b7aa 883c
000001c0: bbe4 5b3c f347 413a f0e0 b43b ea70 633b
000001d0: 45dd c0bc f46d 48bc debd 853b b496 93bc
000001e0: a82d 0dbc 5080 dcbb 79e1 aebb bdac 033a
000001f0: 694b 6e3b f2c5 84bb ce8c 133c d299 f2bc
00000200: b94e c83c fb22 d0bb 7f37 873c c158 dc3c
00000210: 2e3d 3ebc c2eb 84bb 5006 2bba 37ea 17ba
00000220: df0b 2e3d 6594 75bc b171 b5bb 7a20 103b
00000230: e33a fbba ab03 f13b a246 c0bc c5be 3abb
00000240: aa0e 0bbb 1935 8cbc 1c6a 26bd 312b 26bb
00000250: fd53 c6bc db20 713c dd90 513c 27e6 863b
00000260: 8987 b0bc 3a6b 02be 0866 8dbc 538a 3dbd
00000270: 3595 f6bb f59e 16bc 4390 023c c483 44be
00000280: 2c19 6d3c 4a02 a53c f0ff 13bc 51b8 2f3d
00000290: 8739 973c 2ef8 913c 59d2 6f3c 5e43 f83c
000002a0: 3089 e33c 6519 b0bd 4bbc aebc 1999 943c
000002b0: 7b60 48bb 2975 423d c6b5 573d d84f 383c
000002c0: 6bd2 58bc 4493 cd3c bd89 0db9 0b16 363c
000002d0: 4e2b f63c 0367 cd3a 5ff3 ae3c 3813 81bd
000002e0: 2932 cdbc f74a 7cbd 1b3c 9e3b e218 1a3c
000002f0: 79a2 babc 0e81 993b d4da ca3c eeab 253b
00000300: 9c66 64bc 571e e1bb c644 18bc d4c6 0b3c
00000310: e51f 5b3b 8dab 06bc 2ad1 22bc 25eb f135
00000320: 529b d53b c1e4 cdba 4fe1 0a3c dc1a f1bb
00000330: d71d 97bb 7ea0 133b 7d20 10bc e3d0 18bb
00000340: 65e4 8ebc 73cc c73b 246c 81bc 279a a6bb
00000350: a2c0 873b 8342 97bb ba78 86b8 3ad2 1cbb
00000360: 54f5 243b 928a 28bc d8f6 48bb ed3f 013c
00000370: f881 313c 2003 96ba 5677 30bb e012 84ba
00000380: 088e 85bc c181 ea3b fbd0 883a 4a8a 4739
00000390: d8bb 6b3a 3573 b7bb 1d83 b8bb cfc7 0a39
000003a0: 060f b3bb 46bf 89bb e205 0339 245f 5cb9
000003b0: c0a7 8f3c 9f19 8b3c 4259 5dbc 3539 bb3b
000003c0: c19b 24ba a791 a4b9 9533 473b db2f 5abc
000003d0: a649 16ba bd55 b33b cbc1 cdba 05fa fbbb
000003e0: a2cc 573c 3bbc 5dbc 7885 bcb9 4ff0 22ba
000003f0: 1654 06bb 9feb 0dbc 377b d43b 9d6e 9ebb
0.044048544 0.006673097 0.037356112 0.063659236 0.009925359 0.00821526 -0.054995578 -0.05874341
-0.042962406 -0.027959276 -0.036219854 0.0012318065 -0.005665803 0.07696281 -0.03950088 0.0667896
-0.0433803 0.03155153 0.038955454 -0.014280884 0.000109577515 -0.03989716 0.047000587 0.002587881
0.0500517 0.1369714 -0.09609938 0.049947377 -0.0021766124 -0.06321358 0.04959623 0.13011347
-0.061386764 -0.050218243 0.09396905 -0.013202863 0.04859744 -0.043017123 -0.05278663 0.06352773
-0.038756043 0.05320607 0.019426467 0.07573782 0.0033941509 -0.022468904 -0.03457151 -0.002245156
0.0020962334 -0.04925817 0.017370982 -0.010358377 0.029288793 0.012979024 -0.049214214 0.02840045
0.075273015 0.120744795 0.0092882775 0.018932724 0.03632428 0.08895226 0.041858565 0.050786365
-0.010757435 -0.008134392 0.0015555887 0.0082254615 0.0019207367 0.002163062 0.0075713447 0.008774764
-0.007368058 -0.008162394 -0.011945093 0.00053097215 0.013778844 0.0062424517 0.0026948373 -0.014645023
9.829938e-05 0.007712967 0.008076533 -0.0020919112 -0.0091824075 -0.00903409 -0.0045856712 -0.024723053
0.0061283913 0.010687757 -0.0079584615 -0.0028761444 0.012500013 -0.021071821 0.004995809 0.004633419
-5.6490684e-05 -0.015611438 -0.010616232 -0.0030209445 -0.022822924 0.004618022 -0.0052528144 0.009122809
0.00059116463 0.012726235 0.0044763433 0.0040317248 -0.0024838957 -0.01235016 -0.00058075506 0.016682966
0.013421233 0.0007373087 0.0055199787 0.0034704753 -0.02354301 -0.012233246 0.004081472 -0.018016197
-0.008616842 -0.006729163 -0.005336937 0.00050229934 0.0036360866 -0.004051917 0.009005738 -0.029614363
0.0244516 -0.0063518262 0.016505955 0.02689779 -0.011611266 -0.004056425 -0.0006524073 -0.00057950936
0.04249179 -0.014988993 -0.0055372347 0.0021992014 -0.001916733 0.0073551736 -0.02347118 -0.0028495055
-0.0021218457 -0.017115163 -0.040628538 -0.0025355334 -0.02420997 0.014717306 0.012790886 0.0041167918
-0.021549003 -0.12736216 -0.017260566 -0.046274494 -0.007525111 -0.009193172 0.007968965 -0.1919089
0.0144713335 0.020142693 -0.009033188 0.042900387 0.018460048 0.017818537 0.014637553 0.03030556
0.027775377 -0.085985936 -0.02133002 0.018139409 -0.0030575085 0.047475014 0.052663587 0.011249505
-0.013233761 0.025094636 -0.0001349812 0.011113654 0.030049946 0.0015670959 0.021356283 -0.06302494
-0.025048332 -0.06159493 0.0048289425 0.009405347 -0.022782551 0.004684574 0.024762549 0.002527948
-0.01394048 -0.006870072 -0.009293741 0.008531291 0.0033435759 -0.008219612 -0.009937564 1.8024335e-06
0.0065187598 -0.0015708433 0.008476569 -0.007357938 -0.0046117115 0.002252608 -0.008796808 -0.0023317866
-0.017442891 0.0060973703 -0.015798636 -0.0050842944 0.0041428367 -0.004616083 -6.412105e-05 -0.0023929016
0.002517064 -0.010286944 -0.0030664708 0.007888776 0.01083421 -0.0011445023 -0.0026926599 -0.0010076426
-0.016303077 0.007156581 0.0010438258 0.00019029636 0.00089925295 -0.0055984505 -0.0056308643 0.0001323514
-0.0054644374 -0.00420371 0.00012495325 -0.00021016278 0.017536044 0.01697999 -0.01351005 0.0057136067
-0.00062793127 -0.00031389037 0.0030395736 -0.013317074 -0.00057330204 0.0054728673 -0.0015698014 -0.0076897168
0.013171347 -0.013533647 -0.00035957596 -0.00062156183 -0.0020496896 -0.0086621335 0.006484415 -0.0048349635

update_node_embedding_layer.0.message_layer.weight f4 [64, 128]
00000000: c122 9cbc 817d e53a 2d07 67bc 5447 8abb
00000010: 1a80 92bc a354 3a3c 3129 fd3b 6e8d 6a3b
00000020: cfd4 0abc 658d 9cbc 383c d03b 4510 aabc
00000030: 41d5 88bc 5324 5fbc 905f 213b cbc1 78ba
00000040: 1fd1 86bc 3f95 73bb 2b88 63bb 0092 a93b
00000050: 3b84 40bc 9856 cfbc 34c9 3ebc 575a 3fbc
00000060: bcee 8c3c b358 183c 3563 dfbb 4851 85bb
00000070: 98af c5bb e1fb 9abc ff20 0dbc a58d 3d3c
00000080: 492e f7ba 23ff 073c e378 753b b0ef a1bb
00000090: ec59 d9bb 0393 9cbb e059 9cbc 3982 4ebc
000000a0: 60d9 b2bb 7034 9f3b 4c57 a0bc b494 7bbc
000000b0: e22b 733b 00fd 1d3c ce9f 42bc 00f5 14b7
000000c0: eb4e 23bc 8663 1b3c 07e5 94bb 0e5c b0bb
000000d0: 4cc8 48b9 1abe 813b 29fc b4bc 2680 2d3c
000000e0: 22e4 edbb cf84 23bc 1790 4bbc 2791 adbb
000000f0: d905 53ba 965d 973c df3b 023c e5ff 1bbb
00000100: 7009 cebb 763f 1fbb a9c9 2b3c bd63 4abc
00000110: ca72 8aba e54b 2dba cb7f 69bc 9b90 943b
00000120: 8e70 11bc 23e9 00bb f288 0fbc dfe5 603c
00000130: 7fb4 d9bb 15b0 8e3b e342 e43a 6d20 a73c
00000140: 9f51 8dbb 2dd9 043a 8c4a a5ba d723 acbb
00000150: b0ce d8bb 394b 543a b459 0bbc b509 623c
00000160: b5e9 3e3b 0dac 973a 20bd 7a3a 29b8 5e3c
00000170: 1acc 83bc a153 64bc a814 bebb f8b5 a53c
00000180: 99cd 383c b4e2 97bc ca9d 623c 45fb acba
00000190: 7bc8 7d38 1e3c 0bbb 4970 17bc ae43 c83c
000001a0: f52f 1c3b ec91 33bb c036 743b 4257 973b
000001b0: 673f 41bc 7897 c2bc 1bdd ec3b 10c5 babb
000001c0: eade 21bc 6995 723c 536f dcbb 37b9 083c
000001d0: 713f ed3a 54bb e53a 901c dd3b 6b37 39bc
000001e0: bba6 933b 5654 063c 4601 00bc 5c40 5cbc
000001f0: 72e3 38bb cff1 d23a 9afe 823b 1856 6cbb
00000200: 5096 0c3d 347e 74bd e9af 063e d470 073d
00000210: eeaf 9abb d200 773c 7564 4b3e 09b5 06bb
00000220: 8162 36bb d4a9 1b3e 139a 1a3c 0c05 e33c
00000230: 66da 053e 29a3 8abc 2fcb 91bc 670c e83b
00000240: a438 fbbd 8f05 ccba 7ec4 cebb cc93 7e3c
00000250: eea9 3a3e 850a dfba 83f9 023d 8280 e43c
00000260: 97a3 e3bc fc48 26bd a12e da3d 1856 363c
00000270: ad25 253e f947 29bd 1dfa 26be 3b6d 0e3d
00000280: bdbc 71ba 2326 febb 3cbf a13d 354b 5a3b
00000290: 4169 30bc 341d fa3c 808e 2cbd 8194 a93c
000002a0: 0c36 7239 a6d1 7a3b b584 343d db5f 71bd
000002b0: e468 4c3d 7214 e7ba e15f 913d 31d5 0dbd
000002c0: 0804 4c3d d33a 46bc 5b9e af3d 9077 f83d
000002d0: c1ee 93ba 5e7e dcbc 3d71 b03b 6e76 6c3d
000002e0: cba5 21bb d57c 283c 9ae5 053e 264d bebc
000002f0: e760 ec3d b196 533c 3bc8 20be f2cd d93d
00000300: 92d7 8cbb 7ede 04ba 0896 233d f3d5 efbb
00000310: d046 3f3d fc13 183c 4ad8 053b 8fc9 1f3c
00000320: afea 45bc 0000 97bc 3f7a cc3c 59d7 e4bc
00000330: 18b5 d4bd 6d96 b23d 206a a3bb a795 9fbb
00000340: dffd 95bc c370 1c3c 73fc 32bc bcde 7fbb
00000350: 2916 493a f061 173d c8f4 27bc fbaf fabd
00000360: 3205 dabc 7dd3 aebc b031 513e 057c 13bc
00000370: ee68 1d3c 107a 61bd 1024 89bc 1f08 a8bc
00000380: c851 043e c9c4 d6bc 4bea b0bc 0aa1 f1b8
00000390: e7e9 97bc 9255 19bb e542 03bc 2b4c 16bd
000003a0: 8c9b fcbb 8048 fdbc ab01 7cbd b351 65bc
000003b0: d12f aebc 2558 a7bc 2306 18bd 0a16 eabc
000003c0: cece 3fb9 55e3 29bc e569 cab9 a9da 743c
000003d0: 9e2f 2c3c 9c36 4e3c a332 0fbc 6475 9fbc
000003e0: 1bb3 00bd 6151 4f3b 7791 54bc 3fee 26bc
000003f0: 1bf0 b4bc 7f29 1c3b 33d7 c63d 9dd6 b9bb
-0.01905954 0.0017508717 -0.014100832 -0.0042199288 -0.01788335 0.011372718 0.0077258577 0.0035789865
-0.008473589 -0.01911039 0.006354835 -0.020759711 -0.01670325 -0.0136195 0.002462361 -0.00094893266
-0.016457139 -0.0037167815 -0.0034718614 0.0051748753 -0.011750276 -0.025309846 -0.01164465 -0.011679254
0.017203681 0.009298491 -0.0068172463 -0.0040685274 -0.0060328953 -0.018918933 -0.008613824 0.011569415
-0.0018858399 0.008300575 0.0037456087 -0.004941903 -0.006633034 -0.0047782674 -0.019085824 -0.01260429
-0.005458042 0.004858546 -0.019572876 -0.015355278 0.0037105014 0.009642839 -0.011878921 -8.878531e-06
-0.009967546 0.009484177 -0.0045439037 -0.0053820675 -0.00019148103 0.0039594295 -0.022092896 0.010589635
-0.0072598616 -0.0099803945 -0.01242449 -0.0052968445 -0.00080498826 0.018477242 0.007948845 -0.0023803648
-0.006287746 -0.00242993 0.010485091 -0.012352881 -0.0010562774 -0.00066107354 -0.01425166 0.00453384
-0.008876933 -0.001967021 -0.008760678 0.013726681 -0.0066438313 0.0043544867 0.0017414953 0.020401204
-0.0043127085 0.0005067762 -0.0012610718 -0.005253296 -0.006616436 0.0008098367 -0.008505274 0.01379626
0.0029131 0.0011571661 0.0009564925 0.013593712 -0.016088534 -0.013935954 -0.0058008023 0.020228371
0.011279487 -0.018540718 0.013831565 -0.0013197443 6.0506612e-05 -0.002124555 -0.009243079 0.024446335
0.0023832296 -0.0027400209 0.003726408 0.0046185562 -0.011794901 -0.023753867 0.0072285063 -0.005699761
-0.009879807 0.01480613 -0.006727138 0.00834494 0.0018100572 0.0017527142 0.0067477897 -0.011304717
0.00450596 0.008198818 -0.007812804 -0.013443079 -0.002821174 0.0016093793 0.003997636 -0.0036062058
0.034323037 -0.05969067 0.13153042 0.033066586 -0.0047206795 0.015075879 0.1986254 -0.0020554683
-0.002782971 0.15201503 0.009436148 0.027712367 0.13071594 -0.016923504 -0.01779708 0.0070815566
-0.12266663 -0.0015565621 -0.006310045 0.015538167 0.18228886 -0.0017016685 0.031976234 0.027893309
-0.027787967 -0.040596947 0.10653425 0.011128925 0.16127653 -0.041328404 -0.16306348 0.03477214
-0.00092215446 -0.007756011 0.07897803 0.0033308987 -0.010767282 0.030531503 -0.042128086 0.020700695
0.00023099052 0.0038271933 0.04407187 -0.058929306 0.04990472 -0.0017629995 0.070983656 -0.034627143
0.049808532 -0.012098986 0.08575126 0.1213218 -0.0011286364 -0.026915725 0.005384593 0.05773013
-0.002466547 0.0102836685 0.13075867 -0.023230147 0.1154192 0.012914346 -0.15701382 0.10634984
-0.004298159 -0.00050685543 0.039938003 -0.007319206 0.04669839 0.009282108 0.0020423108 0.009752645
-0.012079879 -0.018432617 0.024960635 -0.027934717 -0.103861034 0.08720098 -0.0049870163 -0.004870135
-0.018309532 0.009548369 -0.010924446 -0.0039042672 0.00076708436 0.036958635 -0.0102512315 -0.12240597
-0.026613805 -0.02134108 0.2042911 -0.0090017365 0.009607537 -0.05504805 -0.016740829 -0.020511685
0.12921822 -0.026216881 -0.021596095 -0.000115217714 -0.01854415 -0.002339695 -0.008011554 -0.036693733
-0.0077089723 -0.03091836 -0.06152503 -0.013996529 -0.021263035 -0.020427773 -0.037115227 -0.028574962
-0.0001829222 -0.010369142 -0.0003860734 0.014944711 0.0105094 0.012586262 -0.0087401 -0.019465156
-0.03142081 0.00316342 -0.012974135 -0.010188638 -0.022087147 0.0023828445 0.09709015 -0.005671336

update_node_embedding_layer.0.update_layer.weight f4 [64, 128]
00000000: d705 f63b 4b6e df3b 35f2 623a c821 a9bb
00000010: 54be f33b 4227 44bc 0d7a b9bb a85b cbba
00000020: f751 d23b 8f7e 6c3c 84fb 3dbc 454d daba
00000030: e635 a5bc 055a 32ba 7e00 0dbb 57be 04bc
00000040: 89c9 433c 2d10 cc39 e52a 68bc f18a 51bb
00000050: 08a3 4aba e43f 22bc 242f 1dbc cc6d 8ebb
00000060: 7b66 29bc 7d5b 2cba b1e2 46bc 6e0e 30ba
00000070: 7012 f33a 03e3 2abc 4600 293c ba86 c9bb
00000080: 89f7 a5bc 1dad 09bd 8d28 12bc 8fcc cd3b
00000090: cceb 513c 0196 0a39 9728 06bc 9ed8 8c3c
000000a0: 4d73 293c c4b0 8fbb 5a7f 7538 a0ca 11bc
000000b0: e862 f1bb 1010 673c f04f c7bc 4697 9b3b
000000c0: 3c73 6fbc abcb 923b 9b4f 91bb 91c7 11bc
000000d0: d643 31bc dc4d eebb a7a3 95bb bca3 1139
000000e0: 2b17 e6ba fb88 55bc 59cf a63b be83 debb
000000f0: d4e9 ffba 09c7 fabb a5e5 a03c 8d4b 6b39
00000100: ccff 4b3c 43bd 803b bc6b 123c ff3b 5a3b
00000110: e9b7 8bbb 705b a2bb 60af 523c 768c 67bb
00000120: fc0e d5bb 0cf3 e43b e938 ed3b 0885 42ba
00000130: cfd1 813c ae19 bd3a ae1d dbbb 7de7 673b
00000140: bbc9 8a3c ba3c 28bc 3301 e63b 4210 9f3a
00000150: 9e3a 203c 8f82 34bc d1ff 10bc 3a51 1b3b
00000160: 35c6 1ebc e852 47bc 5cce ab3c 74c9 733c
00000170: e176 8c3a d7d9 883c 21c3 37bb 9075 80bb
00000180: fce6 533b decd 483c 8a2a a03a deef 2abc
00000190: ad25 80bc da09 adbb e8ba 3bbc f07b aabb
000001a0: 1724 4cbc a266 7b3c e643 7bbc e0fd 29bc
000001b0: 438e c7ba 25c5 debc 578b 9abc 7ab9 d0bb
000001c0: c56c 78bb 236a 313b 7ba8 b7bb 641b 16bc
000001d0: 38bd 24bc 6c04 43bc 9612 24bc a976 8a3b
000001e0: 8b9f 10bb e3cc b23b bb34 d23c 099b bdbc
000001f0: 94c8 e2bb 158d 5d3b 4677 24bb 1300 763c
00000200: 70bb 203e f6fd 7f3d ea3c 37bb 5acf 14be
00000210: 00eb adbb d1f6 aebb c719 b7bd ccf9 883d
00000220: 71b6 0c3d 181a 55bd af3c 4cbd bb57 c33c
00000230: bf62 35bd a6af c43c 161b 383d d7e1 f3bc
00000240: 3a54 b93d af48 58be e797 413d 7dba 54be
00000250: aeff 40bd 9375 243d e7a4 543d a81a a3bb
00000260: ff13 78bc 699e dfbd 8591 12bd ec7d f53b
00000270: 7043 b9bc 7784 223d da56 c13d fd93 1bbc
00000280: 696d 51bc 6ba4 4bbe 3afc 97bd b152 843c
00000290: d6f0 b83d 8294 f13c ed8a 983d fa52 8dbd
000002a0: edd5 a03c 95f3 8339 ba00 8f3d b72b 2e3d
000002b0: 6a03 e9bc 416d c3bb 5904 11bd 48b2 f6bd
000002c0: 4a1f 3fbe 74d0 823d 67b9 24bd 75ec 66be
000002d0: 212d 5b3d 14bd e33d 3cc3 4e3d 8224 29be
000002e0: 282f 53bc 06f5 383c e4e2 0abe 279c 973c
000002f0: e67c 15be 36e1 863d 6f02 e23d 97d2 ac3c
00000300: b6e0 5fbb 7967 0f3d 46d7 bf3c 288a c03a
00000310: bc36 cfbc 1197 07bc 14e9 343b 0033 32bc
00000320: 38ae 2dbd dc00 2e3c b690 67bd f014 3cba
00000330: ef23 efbb cf32 463c f3c8 6b3c 7dc8 20bd
00000340: a025 dbbc c5d2 923b ca83 95bc fc13 0fb9
00000350: ed5f 0c3c ea93 253b 1d1d 093d d03f f5bb
00000360: 1116 57bd 98c1 8fbc 99e9 683b 0eb6 503c
00000370: 7482 e23b 0906 e9bb 9723 93bc 1d90 afbc
00000380: ccb5 673c 823f f5bb 8f7f 48bd cd7a a9bd
00000390: 983f 89bd b87f 793c 369b cd3a 1aec bb3d
000003a0: 3b07 063c ca6b a0bb 40fc 4e3c ad22 e6bb
000003b0: aa13 93bd 290b 413c 185c ddbc 20f8 e23c
000003c0: 0138 023a c7a4 dabd 91a6 a9bc 18fa b5bd
000003d0: bffb 033d 4608 93bd 3fb2 12ba 8904 6abc
000003e0: 9ee2 4d3c 9c60 d73c 9cf2 5cbc d317 033c
000003f0: 8951 eabb f1bd 33bc 6b3d d5bc 697a 0cbc
0.0075080204 0.006818568 0.00086573075 -0.0051614977 0.0074384604 -0.01197225 -0.0056603015 -0.0015514987
0.0064184624 0.014434471 -0.0115956105 -0.0016655108 -0.020167302 -0.0006803575 -0.0021515186 -0.008102021
0.011949905 0.00038921964 -0.014170383 -0.0031973685 -0.0007729982 -0.009902928 -0.009593759 -0.004346585
-0.010339375 -0.0006574912 -0.012139008 -0.00067160174 0.0018544924 -0.0104301 0.010315007 -0.006150094
-0.020259636 -0.03361236 -0.008920801 0.006280489 0.012812566 0.00013216586 -0.008188388 0.017193135
0.010342431 -0.004385086 5.8531157e-05 -0.008898407 -0.007366527 0.014102951 -0.02433011 0.004748258
-0.014614876 0.0044798455 -0.0044345385 -0.008897678 -0.010819396 -0.007272465 -0.004566628 0.00013889273
-0.0017554512 -0.013033147 0.0050906357 -0.0067906072 -0.0019524642 -0.0076531214 0.019640753 0.00022439491
0.012451123 0.0039288118 0.008936819 0.003329992 -0.004263867 -0.004954748 0.0128591955 -0.0035331524
-0.0065020304 0.0069869813 0.0072394502 -0.0007420336 0.015847115 0.0014427209 -0.0066868877 0.003538578
0.016941896 -0.010268385 0.007019186 0.0012135583 0.0097796 -0.011017456 -0.008850054 0.0023699538
-0.009690811 -0.0121657625 0.020972423 0.014879573 0.0010716581 0.016705437 -0.002803989 -0.0039202645
0.0032333722 0.012256114 0.0012219709 -0.010433165 -0.015642965 -0.0052807154 -0.011458136 -0.005202763
-0.012459776 0.015344294 -0.0153360125 -0.01037547 -0.0015224892 -0.027193615 -0.01886527 -0.006369767
-0.0037906629 0.002707132 -0.0056048012 -0.009161804 -0.010054879 -0.01190291 -0.010014197 0.004225571
-0.0022067751 0.0054565533 0.02565991 -0.023145216 -0.0069208834 0.0033806015 -0.0025095507 0.015014666
0.15696502 0.062498055 -0.0027959892 -0.14532223 -0.005307555 -0.0053394814 -0.089404635 0.0668827
0.034353677 -0.052026838 -0.04986256 0.023845544 -0.044283625 0.024009537 0.044947706 -0.029770775
0.09049268 -0.21121477 0.047264006 -0.20774265 -0.047118835 0.04015119 0.051915076 -0.004977543
-0.015141486 -0.10918886 -0.03578331 0.0074918177 -0.022615165 0.03967711 0.09440394 -0.009495732
-0.012782433 -0.19886939 -0.07421155 0.016152712 0.09030311 0.02948976 0.07448373 -0.06900592
0.019633258 0.0002516775 0.069825605 0.04252216 -0.02844401 -0.005963952 -0.035404537 -0.12045723
-0.1866428 0.063874155 -0.040215876 -0.22551139 0.053509835 0.11120048 0.05047916 -0.16517833
-0.012889661 0.011288887 -0.13563114 0.018507076 -0.14598426 0.06585924 0.110356204 0.02109651
-0.0034161038 0.03501079 0.02341808 0.0014689611 -0.025294654 -0.008275763 0.0027604746 -0.010876417
-0.042402476 0.010620322 -0.05653449 -0.0007174751 -0.007297985 0.012097075 0.014391172 -0.0392537
-0.02675134 0.004480692 -0.018251318 -0.00013644987 0.008567792 0.0025265166 0.03347503 -0.0074844137
-0.05251128 -0.017548367 0.0035539626 0.012738718 0.006912524 -0.007111315 -0.017961306 -0.021431023
0.014142465 -0.0074843774 -0.048949774 -0.082753755 -0.06701583 0.015228204 0.0015686515 0.09175892
0.008180435 -0.004895662 0.012633383 -0.0070231766 -0.07181485 0.011782446 -0.027021453 0.027706206
0.00049674517 -0.1067596 -0.020709308 -0.08885592 0.032222506 -0.071793124 -0.0005596019 -0.014283308
0.012566237 0.026291184 -0.013485577 0.008001286 -0.007150833 -0.0109705785 -0.026030263 -0.008574107

update_node_embedding_layer.1.message_layer.weight f4 [64, 128]
00000000: 70c9 20bb 20d5 71bd f232 903c 039b 4f3e
00000010: b4ab 2dbd 6347 033b 174f 37bd 82ed d5bc
00000020: 75ec 34bd 357d 0cbd 948e 5cbd ee35 60bd
00000030: d281 91bd caf6 6fbd 3399 d0bc 6277 f73b
00000040: 3075 8b3e 50d3 26bc b6cc 683e b834 60bd
00000050: 2e3a f03c f136 46bd 2754 33bd 9858 8cbd
00000060: 9e88 37bd 867c 5a3b 7f9b 03bb 4879 6bbd
00000070: 8271 733c f0b5 253c 7e6a 33bd 3e8b 353c
00000080: 7b70 d93c f305 83bc c8e6 1cbd 2ccf 473d
00000090: c89d 853b 66fb 143d 55a4 49bd 233e e83c
000000a0: 0a1c 7abd 720e 573e 0573 ac3e 344a b9bc
000000b0: cf12 b3bc 4de3 91bc 91af 22bd 7e3f dc3a
000000c0: bdc2 8ebc 8529 013f 8668 7abd c087 0ebb
000000d0: 5841 0d3c e9e7 a4bb 4ce0 4e3e 1dfb 48bd
000000e0: 8673 a53c 8d3f 10bc adce 34bd 8fa6 38bc
000000f0: 67d7 0f3c 35a4 e4bb 4ba4 55bd af11 ab3c
00000100: 6e90 07bc c17d 9ab9 0b8e 1f3d fe9e cfbb
00000110: 3666 5dbc a157 b2ba 4355 74bc 85d6 afbc
00000120: 0ef6 6e3c 7448 e9bc 741a 6e3d 2dc6 22bc
00000130: 0ac9 04bd 8f8a 4dbb 93c5 6abc 764e 0b3c
00000140: 5e22 493b 15fb 103c ddaa 99bc f41b 373b
00000150: 1319 b9bb 1bb2 df3c 4996 93bb f197 04bc
00000160: 983e 0dbc 439e f2bc e23e bebc 823a c9bb
00000170: 77d4 8ebc 4abf 253c 5d0e debb ef7b 57bc
00000180: 9204 63bd 15b5 f1bb 4dcb 2f3c 1056 8dbb
00000190: 21a6 01bd 5f79 e2bc cb37 2fbc a58c 82bc
000001a0: 5821 96bc ae1c 0ebc 8918 a5bb c63d 20bc
000001b0: fcd6 5cbc 9cec eebc 5f62 db3a 6032 b6bc
000001c0: 5924 143d ccb9 80bb 411a 683b 10a2 c7bb
000001d0: 5a8c 84bc 0ab8 16bb 15bc f33b a299 f0bb
000001e0: a59a e93c 7e39 9ebb 4e0a 1c3b b674 1fbc
000001f0: aea1 98bc 2ce4 fcbb fcc7 a33b 12bd eebb
00000200: 9e80 783a 279b 863d 54bd 00bc bf8e 67bd
00000210: a0aa 3f3d f3b1 a93b 9258 8ebc 6e03 813d
00000220: 3f86 d43d e4c7 25be 2c49 853d b344 423d
00000230: ed77 ce3d 35b1 033d 5330 46bc 542e cd3c
00000240: 9fb7 7b3e 3a23 25bc 0a8e 353e 8173 a93c
00000250: 22bb 4b3d eff9 213d d720 853d 16e4 913d
00000260: bba1 a03d 428e 7e3c e57c 31b9 f1fe 633d
00000270: 6f3f 223b 7087 653d 7ad2 54be cc9c 223b
00000280: 9f2f 823c af96 02bb 12b1 4f3d 5c49 533d
00000290: 7f3b 2a3c bc29 fd3c a784 863d 9ac3 823d
000002a0: 8bda 703d a760 683e 57b3 603e 2062 82bb
000002b0: c49c 4fbc fdd8 9dbb 5519 263e c4ff 2b3d
000002c0: fb02 3e3d 304a a23e a070 603d cbde 96bc
000002d0: 0b21 3a3d 325a 49bc 0e6e 853d 92d8 ffbd
000002e0: 7af5 4e3d c215 113d 8bb4 043d a768 443d
000002f0: b82b adbc 06da 52bc b57a f33d aafb 0b3d
00000300: 6529 573b 2e2e 543a 5356 0b3d 331c fb3b
00000310: def6 b5ba 3b92 32bc 09a0 8c3c dbbe 903d
00000320: 1fa6 75bd 5538 1bbe b3ba 833d 33dd 973b
00000330: 044d c23c 9a10 063e c204 303c 830b 35bc
00000340: c0d1 edbb 2683 ebbc ed3d 41bc 43b6 003c
00000350: f101 8f3b f0ef 683d 7b8d bbbc bdf4 5b3c
00000360: 2542 e5bd 8117 343c 840d 69be 9d78 79bd
00000370: 6955 f3bb ff17 e23b 95fa 85bc 5a0c 4bba
00000380: bf59 09be 1ead b3bd f1f6 fd3c bcc0 003c
00000390: e810 173d 4e24 51bc 934e 8abd 0d49 93bd
000003a0: c639 3fbd 84d5 813a 7e73 0e3d 0559 343b
000003b0: 0386 1ebd 1e19 393d 5312 873c d0a8 8bbd
000003c0: 0d7f 903c f56e 2f3d fb1a 513c aa1f 8f3c
000003d0: 849d 813c c82b 2ebd 8114 ecbd e021 2a3b
000003e0: dcaa 813d de67 c9bb c6f2 213c 20b2 38bd
000003f0: a50f 8ebd 44e3 533c 5138 69bd 5244 9ebd
-0.0024534129 -0.059041142 0.017602418 0.20273976 -0.042400077 0.0020031563 -0.04475316 -0.02611423
-0.044170815 -0.034299094 -0.05384691 -0.05473893 -0.071048394 -0.058584966 -0.025463676 0.0075520733
0.27237844 -0.010182217 0.22734341 -0.054737777 0.029324617 -0.04839224 -0.043781426 -0.068528354
-0.044808023 0.0033338382 -0.0020081697 -0.05748871 0.014858605 0.010114178 -0.04380273 0.011080561
0.026542893 -0.015994048 -0.038306028 0.04878156 0.004077647 0.036372565 -0.049228985 0.028349942
-0.061061896 0.21001604 0.33681503 -0.02261839 -0.021859555 -0.01780858 -0.039718214 0.001680359
-0.017426843 0.5045398 -0.061134838 -0.0021748394 0.008621536 -0.0050325287 0.2020275 -0.049067605
0.020196687 -0.008804214 -0.044142414 -0.011270179 0.008779383 -0.006977583 -0.052158635 0.020882456
-0.008274181 -0.00029466863 0.038953822 -0.006336092 -0.0135131385 -0.0013606438 -0.014912906 -0.021464596
0.014585031 -0.028476931 0.058130696 -0.009934944 -0.03241829 -0.0031363105 -0.014329332 0.008502593
0.003069065 0.008848925 -0.018758232 0.0027940245 -0.005648741 0.027306607 -0.0045039994 -0.008092866
-0.008620881 -0.02961648 -0.023223344 -0.006141008 -0.017435296 0.010116408 -0.0067766146 -0.013152107
-0.05542428 -0.007376323 0.010729623 -0.004313238 -0.031652573 -0.027645765 -0.010694454 -0.015936205
-0.018326446 -0.00867383 -0.005038325 -0.009780353 -0.013478991 -0.029165559 0.0016737691 -0.022240818
0.036167476 -0.0039283987 0.003541604 -0.0060923174 -0.016180206 -0.002299788 0.0074381926 -0.007342533
0.028516123 -0.004828631 0.0023809853 -0.009732416 -0.018631782 -0.00771763 0.004998205 -0.0072857225
0.00094796147 0.06572562 -0.007857639 -0.056532618 0.04679358 0.005178684 -0.017376218 0.06299482
0.10377168 -0.16189533 0.06508097 0.047428798 0.10081468 0.03215142 -0.012096482 0.025046505
0.24581765 -0.010079199 0.17729965 0.02068496 0.04973901 0.039544996 0.06500404 0.07123582
0.07843348 0.015536847 -0.00016926562 0.055663053 0.0024757048 0.056037366 -0.20783415 0.0024812697
0.015891848 -0.001992624 0.050705977 0.051583633 0.010390162 0.03090369 0.0656827 0.06384964
0.05880217 0.2269312 0.21943413 -0.0039789826 -0.012671653 -0.004817127 0.16220601 0.041991964
0.04638956 0.31697226 0.054794908 -0.018416783 0.04544167 -0.012289571 0.06515132 -0.124924794
0.050527073 0.03542114 0.03239874 0.047951367 -0.02113901 -0.012869364 0.11888639 0.034175552
0.003283107 0.00080940395 0.034017872 0.0076632737 -0.0013882776 -0.010899122 0.017166154 0.07067653
-0.05997288 -0.15158208 0.064320944 0.0046345233 0.023718365 0.1309227 0.010743322 -0.011050108
-0.00725767 -0.02874906 -0.011794549 0.007855955 0.004364245 0.056869447 -0.022894612 0.013425049
-0.11194257 0.010991932 -0.22759062 -0.06090604 -0.007425953 0.006899833 -0.016354838 -0.0007745676
-0.13413142 -0.08773254 0.03100154 0.007858451 0.036881357 -0.012765003 -0.06753268 -0.07191668
-0.046685956 0.0009905552 0.03477811 0.002751888 -0.038702022 0.04518997 0.01648823 -0.06819308
0.017638708 0.042830426 0.01276278 0.017471153 0.01582218 -0.04252222 -0.11527348 0.0025960132
0.06331417 -0.006146415 0.009884542 -0.04509175 -0.06936578 0.012932602 -0.056938473 -0.07727875

update_node_embedding_layer.1.update_layer.weight f4 [64, 128]
00000000: f58f 26bc 9a33 e3bd 24cc b2ba 2c23 ce3d
00000010: 903e 8fbd 19e0 943c 622a 80bd 9ce4 3fbe
00000020: 5f86 eebd 894d b5be 36ae a9bd 7253 26bd
00000030: 7ecb 05be bd5f d6bd c292 d5bd 6c8c ce3c
00000040: 584c 6c3e 4262 233b f45b f03d 27ef 8cbd
00000050: 13cf 1b3d b122 d4bd 7045 2cbe f7e6 32be
00000060: dde7 f5bd 542e 243c 0e74 b2bb 4a70 36bd
00000070: 847e 243c 6754 e83c 9f02 1fbd f4ee ad3c
00000080: e756 103d fb69 c33b 061d 40bd 45b6 223d
00000090: 4347 95bb b6cb 213d 7b2d dcbd 64f8 1a3d
000000a0: 5bc3 c3bd 91da 1d3e 23cc 303e 7220 b43b
000000b0: 59d5 c8bb b878 893b 765e b83c 2331 4f3d
000000c0: baa7 6bbe f955 cd3e f6e9 a9bd 58d0 3d3c
000000d0: d62d 01be 8f88 143c f90b cf3d f7e6 48bd
000000e0: eacb 703d bf4f d23c 15ef 48be e97b 9cbd
000000f0: 7629 6c3a 402b e63b dd0b 933d 20ea 653e
00000100: 4d9a d53b 8126 cf3d 09fe c7bc 12bc a8bc
00000110: 57ca 16bc 0a51 85bc 8e32 33bd dac8 a13d
00000120: 16dc 9fbb 6026 22bd 1797 18bd c12b dbbc
00000130: 6e34 febb b7aa 00bb a6e3 bc3b 5b3d 5c3b
00000140: 3aee bb3b 250a a9bb 2dda edbc 025f 02bd
00000150: 29f8 e4bc bf31 78bc 8da2 9bbc 482a aebc
00000160: 41ce 0cbe 4e10 d53d 56cf d2bc f211 c6bb
00000170: a20c 0b3c b6d1 c3bc b1d9 1d3d a781 c93a
00000180: bf29 5fbd 184b 8a3b bdb0 81bc 698e c7bb
00000190: 3b89 39bb b66f efbc 2870 43bc 82ae 52bb
000001a0: 72a4 0bbd ede7 ddbd a6b9 463c ffba 25b9
000001b0: 14cd 26bd 4723 f93b 914a e939 7ec4 39bd
000001c0: f1ec 643c 6f7f 62bd e255 4d3c cc2c 4bbd
000001d0: b290 71bd a1ef 83bc ad7e 3fbd ea43 90bc
000001e0: cf0a 113c 6906 d8bc 04b4 22bd fb46 e5bd
000001f0: 3e17 583d a67d 01bb 8a98 dbbb 8264 d5bc
00000200: aefc 31bc afdc 963c 544c e6bb 9c5f 1bbe
00000210: c478 2e3c c638 2abc 6160 83bd debb e6bd
00000220: 1bdb 18bd 3ff1 c73d 6830 973c 41bb 3a3b
00000230: e431 123c d88d ea3c e966 0abc be29 f2be
00000240: 3368 ebbd d741 5b3c ac12 dcbd 9987 293d
00000250: 88bb d5be 447b 2e3d 7e11 c0bc c07e 0dbd
00000260: 97bd b5bd 8851 5b3b dd1b ccbb 8483 b1bb
00000270: ab38 22bc 774e b1be d939 2dbe ca81 8dbc
00000280: 3aba c0be d73e 043c 76e4 d43c 951e 9fbe
00000290: fc58 df3a 0625 a0be ed86 01bd ea02 8abe
000002a0: 9d10 293c 3f77 a0be 32df 8ebe ee47 32bc
000002b0: 5d39 45bc e456 9c3b 9952 a0be c490 96be
000002c0: 1167 0ebd f2df abbe af0e 7d3c f1ea 9a3a
000002d0: 6fcb 14be 2151 3cbb e1b3 2abe 6128 e0bd
000002e0: 7a74 cabe 4ad2 a0be e956 183d b356 5bbe
000002f0: 710b dabb c129 6fbb e4bf 2abe 13e7 4e3d
00000300: 3536 15bd 25dd 323d 5207 c0bc 26c7 833d
00000310: c05f 7cbc f75e 573b 1890 d63d 9328 433d
00000320: fca2 5e3b 9bfb 3d3d 24f5 d9bb a598 a93d
00000330: 920a 90bc a9bb 8cbc 9ed5 1b3d bd43 0cbc
00000340: a4b1 da3c 6c42 3d3c 9f67 563d a29b c93d
00000350: 773f 2fbc 76d0 043a d74d 493d 69c4 753d
00000360: 682b 773d acf7 aa3d 8251 843d 8742 59bb
00000370: e04a 133c 122f 013e 2e8e b9bc 94ad ab3b
00000380: d9cb df3c 0158 ae3a 1095 f43c 7cd8 68bc
00000390: e749 9e3d 8c2f 633d 0aa2 93b9 e372 c1bb
000003a0: d4a7 503d c687 fabc d9c1 3b3d 8b9c 1dbc
000003b0: 7822 0c3d 0481 4fbc 3062 513b 0043 003e
000003c0: 66d8 7a3b d981 d73d 8619 373c 4d77 963d
000003d0: 2176 cc3d e303 36bb 198a aa3d 398e c0ba
000003e0: 87bd 70bb 1e37 723d bb05 113e 7eb6 32bd
000003f0: b4dd 593c fa64 663c 4ac2 583c f592 3a3e
-0.010166158 -0.110938266 -0.0013641161 0.10065302 -0.06994355 0.018173264 -0.06258084 -0.18739551
-0.11646723 -0.35410717 -0.08285181 -0.040606923 -0.13065907 -0.104674794 -0.104283825 0.025213443
0.23075998 0.0024930392 0.11736289 -0.06881552 0.03803928 -0.10358179 -0.16823363 -0.17470919
-0.12007115 0.010020811 -0.0054459637 -0.04454068 0.010039929 0.028360559 -0.03882086 0.021232106
0.035239127 0.0059635616 -0.04690268 0.039724607 -0.004555614 0.039500915 -0.10750862 0.03783454
-0.095587455 0.15415408 0.17265372 0.005497032 -0.0061289486 0.004195299 0.02250598 0.05058397
-0.23013201 0.40104654 -0.08296578 0.011585318 -0.12615141 0.009065761 0.101097055 -0.04904839
0.058788218 0.025672792 -0.19622453 -0.076408215 0.00090088637 0.007024199 0.07179997 0.22452593
0.006518638 0.10114766 -0.024413126 -0.020597491 -0.009203515 -0.016273994 -0.043749385 0.078996375
-0.004878531 -0.03958738 -0.037253466 -0.026754262 -0.007757715 -0.0019633004 0.0057644425 0.0033605907
0.005735186 -0.00515868 -0.029034698 -0.031828888 -0.027950363 -0.015148579 -0.018998409 -0.021260396
-0.13750555 0.104035005 -0.025733631 -0.0060446197 0.008486899 -0.023903709 0.038537685 0.0015373722
-0.05448317 0.0042203777 -0.015831346 -0.0060899747 -0.0028310555 -0.029228073 -0.011928596 -0.0032147472
-0.034092374 -0.10835252 0.012129223 -0.00015805288 -0.04072292 0.0076030823 0.0004449678 -0.045353405
0.013972507 -0.05529731 0.012532683 -0.04960327 -0.058975883 -0.016105475 -0.046751667 -0.017610509
0.008852675 -0.026370244 -0.039722458 -0.11195179 0.05275654 -0.001975873 -0.0067015337 -0.026048902
-0.010863466 0.018415777 -0.007028142 -0.15173191 0.01064891 -0.010389512 -0.06414867 -0.112663016
-0.03731833 0.09762811 0.0184557 0.002849296 0.008923028 0.02863209 -0.008447387 -0.47297472
-0.11494484 0.013382397 -0.10745749 0.04138908 -0.41744637 0.042598024 -0.02344584 -0.034544706
-0.08874052 0.0033465344 -0.0062289075 -0.005417289 -0.009901206 -0.34630176 -0.16916598 -0.017273802
-0.3764208 0.008071623 0.025987845 -0.3107802 0.0017040069 -0.31278247 -0.031622816 -0.26955348
0.010318902 -0.31340978 -0.2790466 -0.010881407 -0.012037602 0.0047711004 -0.31313017 -0.29407322
-0.03476626 -0.33569294 0.015445395 0.0011819286 -0.14530729 -0.002873488 -0.16670181 -0.10945202
-0.3954199 -0.31410438 0.03719226 -0.21419792 -0.006654196 -0.0036493393 -0.16674763 0.05051334
-0.03642865 0.04366793 -0.02344099 0.06434469 -0.015403688 0.0032863 0.104767025 0.047646116
0.0033971658 0.046382528 -0.0066515375 0.08281068 -0.017583165 -0.017179327 0.038045518 -0.008561072
0.026696034 0.011551481 0.052344915 0.09844138 -0.010696284 0.00050664635 0.0491465 0.060001764
0.06034413 0.08348021 0.06460859 -0.0033151226 0.00899002 0.12615612 -0.022650804 0.005239198
0.027318882 0.0013301374 0.029856235 -0.01421177 0.077289395 0.055465266 -0.00028158753 -0.005903588
0.050941303 -0.03058232 0.045839164 -0.009619842 0.03421256 -0.012665037 0.0031949393 0.12525558
0.0038275956 0.10522813 0.011175519 0.073469736 0.09983469 -0.0027773313 0.08327121 -0.0014690823
-0.003673406 0.059134595 0.14162342 -0.04363107 0.013297487 0.014062161 0.013229916 0.18220122
