ER_200spin/eco/network/network3200000.pth (torch, 238273 bytes, 11 tensors)

node_init_embedding_layer.0.weight f4 [64, 7]
-0.0042250534 -0.21843478 -0.041271634 0.052525267 0.0024814152 -0.025202705 0.0551944 -0.0011879861
-0.1785571 -0.013212994 0.14752558 -0.015931092 0.07705328 0.03992407 0.00015265973 0.34538844
-0.0052950107 -0.07289094 0.0013884302 0.015866684 0.011255346 0.0031379685 0.35794738 0.017234175
-0.05224023 0.0027217143 0.018044846 -0.016006669 -0.006149493 -0.004316606 -0.009858432 -0.011102081
-0.01081875 -0.0032646966 -0.0152212195 -0.011088987 -0.0038176682 -0.001939865 -0.0026715926 -0.013247419
-0.016429601 -0.0052245227 0.014160349 0.4067892 0.016396081 -0.22205716 5.8375535e-06 -0.021057025
0.025059393 0.002297645 -0.17658801 -0.4264331 0.2345813 0.00028425254 0.093740426 0.024110917
0.015682403 -0.25360844 0.061354406 0.15207633 -0.0024400244 0.041218013 0.061856125 0.004524948
0.36852455 0.035968143 -0.042869788 -0.014770983 0.019203098 0.005305824 -0.032534476 0.32621711
0.020054864 0.06103025 -0.00079468597 0.013382806 -0.038123704 -0.027025353 0.33092147 -0.13448983
0.09990356 -0.001041517 -0.0010644955 -0.20635521 0.01651609 0.39370674 -0.00018985808 -0.13427953
0.0005605429 0.028032396 0.009578603 0.011139362 -0.2621078 0.014249396 0.11299433 0.0069267047
-0.014305645 0.065998144 0.013533236 -0.25665206 0.01882752 0.10410499 0.0007353726 0.0038681913
0.07163621 0.011493298 -0.0131570725 -0.1003674 0.14307319 -5.493894e-05 0.0052449247 -0.14560132
0.009401906 -0.19589303 -0.015431747 0.1865667 -0.005795563 0.07194869 0.0557817 -0.028827948
0.32987404 0.00809635 0.002059294 -0.004860944 0.017796801 -0.0030480577 0.024529988 -0.29925668
0.014611088 0.1315905 0.006462122 0.010991529 0.079685345 -0.023242539 0.2667297 0.034878023
0.0492295 -0.0024847002 0.00057349534 0.0038477122 0.016431728 0.41223475 0.0358991 -0.068823665
-0.0014550048 0.028417964 0.011193693 0.022112584 -0.29249793 0.035236176 0.13503656 0.004734007
0.016940996 0.06952341 -0.0021986782 -0.16959763 0.08839647 0.22138841 -0.022395857 0.06125068
-0.017624445 -0.008526426 -0.19138649 0.08328894 0.02170627 -0.00013557845 -0.0015678853 0.06805489
0.0054435935 -0.20782559 0.04661171 0.3600116 4.5698154e-05 0.07207426 0.010901773 -0.014632798
0.33826122 0.011981896 -0.018248316 0.0086135715 0.03208572 -0.040599305 0.003437761 0.403345
0.033879355 -0.01379526 -0.0010272053 0.04239675 0.014681932 -0.001984467 0.0030851387 0.001095844
-0.009433593 -0.0056003085 -0.0043595186 -0.010299535 0.016053887 0.3587746 0.008275531 -0.06588118
0.0035158684 0.026153648 -0.019428637 0.015866062 -0.28779763 0.019126527 0.12028899 -0.00017443753
0.03611688 0.049968697 0.0013009907 -0.19961958 0.00460114 -0.17708455 -0.00250147 0.09842368
-0.005715528 8.4978135e-05 -0.22363107 0.03424439 0.095254146 -0.0007228028 -0.016714565 0.043219052
-0.0024586709 0.010507777 -0.0038842964 -0.01777523 -0.0039956234 -0.008082845 -0.0017797383 0.025552608
0.117510326 -0.2827025 0.052975394 0.0009139223 0.01079838 -0.30770054 0.012904597 0.37273455
0.0085640075 -0.048495125 0.0029038158 0.042414002 -0.0050616027 -0.0029958652 0.004468031 -0.011094356
-0.01162292 -0.011126069 -0.0063133347 -0.0016458024 0.010846614 -0.18144642 -0.061707947 0.10699198
00000000: 5172 8abb 5ead 5fbe 720c 29bd bc24 573d
00000010: 3d9f 223b e775 cebc 8613 623d 33b6 9bba
00000020: acd7 36be 507b 58bc f210 173e ec81 82bc
00000030: 1cce 9d3d 6c87 233d 4913 2039 c1d6 b03e
00000040: c581 adbb d847 95bd fdfb b53a d9fa 813c
00000050: 5868 383c 60a6 4d3b e144 b73e af2e 8d3c
00000060: daf9 55bd ca5e 323b c9d2 933c 6b20 83bc
00000070: b081 c9bb 5172 8dbb 4385 21bc 81e5 35bc
00000080: 2041 31bc 85f4 55bb 6c62 79bc 95ae 35bc
00000090: d831 7abb 1143 feba e315 2fbb b40b 59bc
000000a0: 5f97 86bc 7932 abbb cf00 683c ad46 d03e
000000b0: 1351 863c f462 63be 34e0 c336 c87f acbc
000000c0: 5b49 cd3c 1694 163b 7dd3 34be 7055 dabe
000000d0: 1536 703e bb07 9539 fbfa bf3d 4284 c53c
000000e0: 6278 803c f7d8 81be c24e 7b3d e6b9 1b3e
000000f0: d1e8 1fbb 38d4 283d d95c 7d3d 0446 943b
00000100: 40af bc3e 5553 133d 3b98 2fbd fe01 72bc
00000110: d14f 9d3c 7adc ad3b df42 05bd ee05 a73e
00000120: 194a a43c dbfa 793d 7952 50ba 8f43 5b3c
00000130: 9a27 1cbd 4664 ddbc 8a6e a93e b4b7 09be
00000140: 3d9a cc3d 8383 88ba 8b86 8bba c84e 53be
00000150: c04c 873c ee93 c93e a414 47b9 9380 09be
00000160: 66f1 123a 32a4 e53c 93ef 1c3c df81 363c
00000170: fe32 86be 4c76 693c 9269 e73d 69f9 e23b
00000180: 3962 6abc 092a 873d 82ba 5d3c e667 83be
00000190: 2c3c 9a3c ff34 d53d 05c6 403a 7b81 7d3b
000001a0: 01b6 923d 634e 3c3c c390 57bc 6c8d cdbd
000001b0: c781 123e 3d6e 66b8 9edd ab3b 8318 15be
000001c0: 740a 1a3c 2f98 48be 70d5 7cbc 570b 3f3e
000001d0: b5e8 bdbb d659 933d 5a7b 643d 9728 ecbc
000001e0: 40e5 a83e 8ea6 043c 38f5 063b 8e48 9fbb
000001f0: 99ca 913c ecc1 47bb 1df3 c83c 2c38 99be
00000200: 5863 6f3c a9bf 063e 35c0 d33b d015 343c
00000210: 1232 a33d 2367 bebc cc90 883e 42dc 0e3d
00000220: dfa4 493d 5ad6 22bb 9f56 163a e629 7c3b
00000230: d59b 863c 6f10 d33e ef0a 133d 6cf3 8cbd
00000240: dcb5 beba cacc e83c c065 373c 7325 b53c
00000250: 4ac2 95be cf53 103d 0647 0a3e bb1f 9b3b
00000260: d8c7 8a3c 4a62 8e3d b317 10bb 00ab 2dbe
00000270: 3509 b53d a5b3 623e 8477 b7bc fee1 7a3d
00000280: 2461 90bc 6cb2 0bbc d2fa 43be 6493 aa3d
00000290: 59d1 b13c 102a 0eb9 8081 cdba 5d60 8b3d
000002a0: 2c60 b23b 3bd0 54be eceb 3e3d 7153 b83e
000002b0: 05ac 3f38 ab9b 933d 5a9d 323c 67be 6fbc
000002c0: 9330 ad3e b74f 443c 7e7d 95bc f01f 0d3c
000002d0: 516c 033d 754b 26bd 0f4c 613b 3c83 ce3e
000002e0: 14c5 0a3d 8405 62bc 4aa3 86ba 37a8 2d3d
000002f0: 7c8c 703c d50d 02bb 0a30 4a3b 6ca2 8f3a
00000300: 5b8f 1abc cb82 b7bb 4bda 8ebb 61bf 28bc
00000310: 7183 833c 4eb1 b73e 1896 073c b6ec 86bd
00000320: 7c6a 663b 2d40 d63c ce28 9fbc 8bf9 813c
00000330: 365a 93be 3caf 9c3c 135a f63d 38e9 36b9
00000340: 4bef 133d faab 4c3d 0186 aa3a 1369 4cbe
00000350: 29c5 963b a755 35be b4ef 23bb 5b92 c93d
00000360: 5349 bbbb 4a36 b238 8bff 64be d843 0c3d
00000370: 9b14 c33d 7a7a 3dba fcec 88bc 7606 313d
00000380: a721 21bb d028 2c3c ae8f 7ebb 5c9d 91bc
00000390: b8ed 82bb e96d 04bc 1c46 e9ba b453 d13c
000003a0: 41a9 f03d 62be 90be bafc 583d 4a94 6f3a
000003b0: b0eb 303c ed8a 9dbe ce6d 533c 10d7 be3e
000003c0: 0d50 0c3c d3a2 46bd f24d 3e3b 4eba 2d3d
000003d0: cddb a5bb 4756 44bb 9068 923b 1ac5 35bc
000003e0: 0f6e 3ebc 1e4a 36bc 17e0 cebb f7b7 d7ba
000003f0: ffb5 313c 17cd 39be 79c1 7cbd 9c1e db3d

edge_embedding_layer.edge_embedding_NN.weight f4 [63, 8]
0.023828462 0.028236803 0.2581084 -0.04688739 -0.010757612 -0.035754286 -0.016350323 -0.06058493
-0.009922469 -0.010774974 -0.004315335 -0.0022903706 0.008953054 -0.02221353 -0.015251183 0.008083992
0.022588521 0.020685883 0.22774237 -0.048889756 -0.014541439 -0.031277347 -0.008268059 -0.042068638
0.04698554 0.043935485 0.22451366 -0.10110477 -0.021502057 -0.00013744176 0.04502571 -0.08616967
-0.015035438 -0.0067404066 0.0153879905 -0.014715848 -0.00982584 -0.0015218513 -0.0013866938 -0.0020847525
-0.010408337 -0.00058907137 0.002471643 -0.004193349 0.0027986444 -0.013592724 0.011577544 0.002690091
-0.0036394275 -0.013908874 -0.11577112 0.1003458 0.10605735 -0.004919445 -0.102072984 0.08876446
-0.0045748106 0.0104209855 -0.15927196 0.13235998 0.0811999 0.011268035 -0.009391398 0.115335934
-0.0033383674 -0.0850162 -0.14873289 0.07813995 0.11167884 -0.005275815 -0.011585628 0.07885507
-0.0062227207 -0.05088064 -0.121805675 0.08682919 0.050267912 0.00806103 -0.10315933 0.09869459
-0.010877541 0.015291475 -0.14352666 0.11357835 0.081050195 0.0056293965 -0.010539397 0.10635843
-0.0005169977 -0.0011437915 -0.0015800482 -0.011648395 -0.008384922 -0.019005835 -0.021238621 -0.0031330034
-0.011566987 -0.0064551826 -0.018823268 0.008752603 -0.0028598043 -0.013159215 0.0014766374 -0.0031785134
0.054146368 0.02590128 0.21114582 -0.09566711 -0.008063966 -0.0001597727 0.04794196 -0.109755196
-0.005880814 -0.0062017245 -0.13828528 0.08500152 0.07090959 0.010258529 -0.2752578 0.08934101
0.06654576 0.051295355 0.19989675 -0.09046345 -0.045513462 0.0012706768 0.05428213 -0.09374965
-0.004736157 0.0011592517 -0.1373136 0.114805736 0.08514205 0.0011943107 -0.0055071623 0.088677704
0.038482346 0.012112876 0.24809419 -0.072337046 0.040750984 -0.0007825137 0.021639874 -0.06663923
0.054469 0.007928858 0.2141179 -0.09683655 0.011140156 -0.00022473694 0.0402346 -0.11531992
0.0035281125 0.0013059615 -0.11551054 0.09209615 0.09970769 0.0017250121 -0.062012173 0.09598859
-0.0014439179 -0.00978569 0.0023963705 0.0012964379 -0.0012544036 -0.0001595673 -0.007059626 -0.009169412
-0.0014907266 0.00069253135 -0.13825402 0.10099443 0.10776234 -0.004803092 -0.011671353 0.10337023
0.053397704 0.057473205 0.22056243 -0.103328906 0.00010952567 0.00033610789 0.05689649 -0.08392316
-0.0014835857 -0.0010873167 0.0004004063 0.0019544451 -0.017845793 -0.0053972867 -0.0027487199 -0.0038520296
0.0681383 0.040360667 0.21851681 -0.12676756 -0.04110897 0.005169696 0.038956326 -0.096941784
0.026529538 0.00018418134 0.25751978 -0.2343248 0.029873295 -0.0046465117 0.014274466 -0.20378572
-0.013564202 -0.0014889735 -0.13090168 0.103348956 0.06541097 0.0049331114 -0.25685394 0.09326314
0.051833976 0.017913504 0.21597561 -0.11389136 0.052398603 -0.0012769043 0.03712785 -0.0940917
-0.014819773 -0.014826146 -0.01661776 -0.015271877 -0.007614104 -0.012074424 -0.012945181 -0.010523627
-0.0005022457 -0.02583122 -0.09970226 0.10489498 0.09312814 0.0037634394 -0.17425658 0.09191375
0.04051881 0.0514316 0.21512948 -0.11251659 -0.018529693 -1.4042809e-05 0.051569276 -0.07728722
0.03459238 -0.002602169 0.30164856 -0.20508492 0.04099555 -0.0023450402 0.009448325 -0.20534413
00000000: e833 c33c de50 e73c c926 843e fe0c 40bd
00000010: b240 30bc 1673 12bd 1df1 85bc e727 78bd
00000020: da91 22bc 8489 30bc a767 8dbb 0b1a 16bb
00000030: d5af 123c 26f9 b5bc 19e0 79bc b872 043c
00000040: 900b b93c 7175 a93c 4c35 693e a040 48bd
00000050: 373f 6ebc ad1c 00bd c176 07bc 2a50 2cbd
00000060: e973 403d b2f5 333d e9e6 653e 0510 cfbd
00000070: 1525 b0bc 3e1e 10b9 e16c 383d b979 b0bd
00000080: 3357 76bc a1de dcbb e91d 7c3c bd1a 71bc
00000090: 8ffc 20bc db78 c7ba b9c1 b5ba 58a0 08bb
000000a0: bb87 2abc e96b 1aba 4afb 213b 5c68 89bb
000000b0: 7669 373b 04b4 5ebc bdaf 3d3c 3d4c 303b
000000c0: 7683 6ebb 0ce2 63bc 6919 edbd 1982 cd3d
000000d0: 9934 d93d 4c33 a1bb a40b d1bd 24ca b53d
000000e0: 4be8 95bb c8bc 2a3c 3018 23be 6089 073e
000000f0: 224c a63d 909d 383c 61de 19bc 3f35 ec3d
00000100: 83c8 5abb f91c aebd 6f4d 18be d707 a03d
00000110: e0b7 e43d bee0 acbb a5d1 3dbc c47e a13d
00000120: f7e7 cbbb 3868 50bd 4175 f9bd 81d3 b13d
00000130: bae5 4d3d 6912 043c 3345 d3bd 6420 ca3d
00000140: b737 32bc 1889 7a3c a7f8 12be c49b e83d
00000150: a5fd a53d cd76 b83b 6fad 2cbc 73d2 d93d
00000160: 2187 07ba 46eb 95ba 9f19 cfba e9d8 3ebc
00000170: e960 09bc 20b2 9bbc 9efc adbc 1353 4dbb
00000180: 7683 3dbc ff85 d3bb 4133 9abc 1467 0f3c
00000190: 8e6b 3bbb c099 57bc bb8b c13a 9b4e 50bb
000001a0: 95c8 5d3d ec2e d43c 9c36 583e 1eed c3bd
000001b0: ba1e 04bc a888 27b9 ca5e 443d 55c7 e0bd
000001c0: d8b3 c0bb d637 cbbb a89a 0dbe 4715 ae3d
000001d0: 0c39 913d 6413 283c 97ee 8cbe 6bf8 b63d
000001e0: 2549 883d 141b 523d bcb1 4c3e e744 b9bd
000001f0: 536c 3abd d78c a63a f056 5e3d d1ff bfbd
00000200: c431 9bbb 08f2 973a f09b 0cbe 451f eb3d
00000210: f55e ae3d 6b8a 9c3a 6d75 b4bb a89c b53d
00000220: aa9f 1d3d 1675 463c 670c 7e3e 7225 94bd
00000230: 81ea 263d 9b21 4dba 1b46 b13c 267a 88bd
00000240: e31a 5f3d 0ae8 013c b941 5b3e 3e52 c6bd
00000250: 3385 363c 5da7 6bb9 09cd 243d da2c ecbd
00000260: e837 673b cc2c ab3a ca90 ecbd e89c bc3d
00000270: 8c33 cc3d cd19 e23a 7a00 7ebd aa95 c43d
00000280: d841 bdba 2954 20bc 6d0c 1d3b 3ded a93a
00000290: cd6a a4ba 8551 27b9 6f54 e7bb 4d3b 16bc
000002a0: 7c64 c3ba fe8a 353a 7692 0dbe 2bd6 ce3d
000002b0: 80b2 dc3d 4263 9dbb 3439 3fbc c5b3 d33d
000002c0: 8db7 5a3d 0669 6b3d 1edb 613e 1b9e d3bd
000002d0: 25b1 e538 a337 b039 4b0c 693d e8df abbd
000002e0: e074 c2ba 4b84 8eba a0ed d139 2616 003b
000002f0: 5731 92bc b9db b0bb de23 34bb 5572 7cbb
00000300: 188c 8b3d 3a51 253d dfc2 5f3e 5bcf 01be
00000310: e161 28bd 8e66 a93b ab90 1f3d 6a89 c6bd
00000320: 7954 d93c cd20 4139 a2d9 833e d7f2 6fbe
00000330: d7b8 f43c c441 98bb 73df 693c 34ad 50be
00000340: 633c 5ebc a929 c3ba 170b 06be 9ea8 d33d
00000350: 30f6 853d f0a5 a13b 5c82 83be bf00 bf3d
00000360: dd4f 543d 57bf 923c b628 5d3e e03f e9bd
00000370: eb9f 563d cc5d a7ba 5f13 183d 26b3 c0bd
00000380: a2ce 72bc 5de9 72bc f821 88bc e536 7abc
00000390: bc7f f9bb ced3 45bc 0618 54bc 4a6b 2cbc
000003a0: 23a9 03ba ff9b d3bc b330 ccbd 2ed3 d63d
000003b0: f7b9 be3d 09a4 763b 5170 32be 473d bc3d
000003c0: 0df7 253d f1a9 523d e74a 5c3e 196f e6bd
000003d0: 95cb 97bc 6899 6bb7 4e3a 533d c348 9ebd
000003e0: bdb0 0d3d 2789 2abb ae71 9a3e c801 52be
000003f0: f3ea 273d 3faf 19bb 26cd 1a3c bb45 52be

edge_embedding_layer.edge_feature_NN.weight f4 [64, 64]
0.048029132 0.006673097 0.044384833 0.056104872 0.009925359 0.00821526 -0.029529557 -0.05758002
-0.02747832 -0.02241664 -0.038610205 0.0012318065 -0.005665803 0.071680374 -0.03883738 0.058218215
-0.030750887 0.029504044 0.033311978 -0.012472024 0.000109577515 -0.03605236 0.03966398 0.002587881
0.039004475 0.12236212 -0.05581577 0.03162449 -0.0021766124 -0.05144388 0.04316078 0.12359266
-0.037440326 -0.039375816 0.07132966 -0.006312581 0.042396728 -0.035060313 -0.048165273 0.059319407
-0.041275382 0.05533748 0.01866195 0.06742612 0.0033941509 -0.033476856 -0.044080205 -0.002245156
0.0020962334 -0.049781024 0.017370982 -0.010358377 0.02252957 0.012979024 -0.049393315 0.028897008
0.07054569 0.11640735 0.0092882775 0.018931838 0.06828799 0.0804959 0.022846298 0.053252045
-0.010757435 -0.008134392 0.0015555887 0.008232492 0.0019207367 0.002163062 0.0075713447 0.013601665
-0.007368058 -0.003595143 -0.007843095 0.00053097215 0.013778844 0.0062424517 0.0074845203 -0.01393854
0.0026482814 0.007712967 0.00808285 -0.00012946085 -0.0091824075 -0.00903409 -0.0045856712 -0.024723053
0.009405366 0.012624277 -0.0036777484 -0.0028761444 0.012500013 -0.017287152 0.005854313 0.004633419
-5.6490684e-05 -0.015611438 -0.010616232 -0.0030209445 -0.021334397 0.004618022 -0.0052528144 0.009123423
0.0043523703 0.012726235 0.0060889255 0.004978729 -0.0024838957 -0.01235016 -0.00058075506 0.016682966
0.013421233 0.0007373087 0.0055199787 0.0034704753 -0.02354301 -0.012233246 0.005811526 -0.018016197
-0.008616842 -0.006729163 -0.005336937 0.00050229934 0.0068217944 -0.0012908315 0.008992918 -0.026182441
0.010349858 -0.0063518262 0.04152015 -0.017609598 -0.011611266 -0.004056425 0.03252049 0.018568728
0.0420649 0.015061039 0.016204668 0.0021992014 -0.0019165426 -0.03167282 0.00608563 -0.02638359
0.0029999677 0.004791258 -0.030774076 0.024507642 -0.02420997 0.020956384 -0.007031665 0.0041167918
-0.013519677 -0.11482705 0.022089073 -0.043187007 -0.007525111 0.017597314 0.005006911 -0.12804885
0.029872932 0.02733207 -0.02066221 0.005724046 -0.009711738 0.029271204 0.015588445 -0.038522616
0.045301177 -0.0041192393 -0.036658533 -0.008009129 -0.0030575085 0.04406158 0.033465724 0.011249505
-0.013233761 0.027190842 -0.0001349812 0.011113654 -0.003125855 0.0015670959 0.040167075 -0.04620497
-0.04183019 -0.10428701 0.0048289425 0.0089221625 -0.02238928 -0.0195334 -0.02395425 -0.015376163
-0.01394048 -0.006870072 -0.009293741 0.008531291 0.0033435759 -0.008219612 -0.009937564 1.8024335e-06
0.0065187598 -0.0015708433 0.008476569 -0.007357938 -0.0046117115 0.002252608 -0.008796808 -0.0023317866
-0.017442891 0.0060973703 -0.015798636 -0.0050842944 0.0041428367 -0.004616083 -6.412105e-05 -0.0023929016
0.002517064 -0.010286944 -0.0030664708 0.007888776 0.01083421 -0.0011445023 -0.0026926599 -0.0010076426
-0.016303077 0.007156581 0.0010438258 0.00019029636 0.00089925295 -0.0055984505 -0.0056308643 0.0001323514
-0.0054644374 -0.00420371 0.00012495325 -0.00021016278 0.017536044 0.01697999 -0.01351005 0.0057136067
-0.00062793127 -0.00031389037 0.0030395736 -0.013317074 -0.00057330204 0.0054728673 -0.0015698014 -0.0076897168
0.013171347 -0.013533647 -0.00035957596 -0.00062156183 -0.0020496896 -0.0086621335 0.006484415 -0.0048349635
00000000: 32ba 443d ffa9 da3b dfcc 353d 39ce 653d
00000010: f99d 223c 4c99 063c f8e7 f1bc 07d9 6bbd
00000020: 371a e1bc 1aa3 b7bc bc25 1ebd 9174 a13a
00000030: 33a8 b9bb 29cd 923d f213 1fbd 3976 6e3d
00000040: 49e9 fbbc 77b2 f13c 2472 083d 7657 4cbc
00000050: fbcc e538 a4ab 13bd b376 223d 7099 293b
00000060: 28c3 1f3d fe98 fa3d 149f 64bd ae88 013d
00000070: 7fa5 0ebb d1b6 52bd 5cc9 303d 261e fd3d
00000080: 075b 19bd 8948 21bd 4915 923d c4d9 cebb
00000090: 31a8 2d3d 679b 0fbd f348 45bd e8f8 723d
000000a0: 6010 29bd 8ea9 623d f2e0 983c b516 8a3d
000000b0: 6770 5e3b 071f 09bd 728d 34bd 7823 13bb
000000c0: f660 093b 30e7 4bbd 974d 8e3c 2fb6 29bc
000000d0: ef8f b83c f9a5 543c a550 4abd 6bb9 ec3c
000000e0: 427a 903d fa66 ee3d dc2d 183c f116 9b3c
000000f0: 93da 8b3d 09db a43d 2928 bb3c d11e 5a3d
00000100: f43f 30bc 1d46 05bc e5e4 cb3a 93e1 063c
00000110: 3bc1 fb3a 29c2 0d3b 0b19 f83b 85d9 5e3c
00000120: c06f f1bb 7e9c 6bbb 5380 00bc f030 0b3a
00000130: a9c0 613c 7b8d cc3b b540 f53b 795e 64bc
00000140: ca8e 2d3b 0fbd fc3b ee6d 043c e2bf 07b9
00000150: cf71 16bc b803 14bc 6643 96bb 0088 cabc
00000160: f718 1a3c 0ed6 4e3c 6106 71bb b27d 3cbb
00000170: dbcc 4c3c c99d 8dbc 89d5 bf3b f0d3 973b
00000180: 69f0 6cb8 1ec7 7fbc b4ef 2dbc 0afb 45bb
00000190: 79c5 aebc c752 973b cd1f acbb 697a 153c
000001a0: 549e 8e3b b381 503c 9c85 c73b 9b24 a33b
000001b0: dbc8 22bb 5358 4abc d03d 18ba b7aa 883c
000001c0: bbe4 5b3c f347 413a f0e0 b43b ea70 633b
000001d0: 45dd c0bc f46d 48bc 9d6e be3b b496 93bc
000001e0: a82d 0dbc 5080 dcbb 79e1 aebb bdac 033a
000001f0: 5c89 df3b 1e31 a9ba 0857 133c 8f7c d6bc
00000200: 7392 293c fb22 d0bb 0811 2a3d 0142 90bc
00000210: 2e3d 3ebc c2eb 84bb 3534 053d 721d 983c
00000220: 3f4c 2c3d 93c2 763c a7bf 843c 7a20 103b
00000230: 8034 fbba 5cbb 01bd f769 c73b 6622 d8bc
00000240: 1b9b 443b fcff 9c3b ea19 fcbc 40c4 c83c
00000250: fd53 c6bc b9ac ab3c e269 e6bb 27e6 863b
00000260: a381 5dbc 722a ebbd 25f4 b43c dce4 30bd
00000270: 3595 f6bb 3e28 903c 0311 a43b 3d1f 03be
00000280: 14b8 f43c 81e7 df3c cc43 a9bc c790 bb3b
00000290: fb1d 1fbc 2aca ef3c ad66 7f3c e4c9 1dbd
000002a0: ba8d 393d affa 86bb 4227 16bd b938 03bc
000002b0: 7b60 48bb ea79 343d 5b13 093d d84f 383c
000002c0: 6bd2 58bc 54bf de3c bd89 0db9 0b16 363c
000002d0: 25db 4cbb 0367 cd3a 3b86 243d 6c41 3dbd
000002e0: 2256 2bbd 6e94 d5bd 1b3c 9e3b 432e 123c
000002f0: b969 b7bc 8204 a0bc b43b c4bc 4dec 7bbc
00000300: 9c66 64bc 571e e1bb c644 18bc d4c6 0b3c
00000310: e51f 5b3b 8dab 06bc 2ad1 22bc 25eb f135
00000320: 529b d53b c1e4 cdba 4fe1 0a3c dc1a f1bb
00000330: d71d 97bb 7ea0 133b 7d20 10bc e3d0 18bb
00000340: 65e4 8ebc 73cc c73b 246c 81bc 279a a6bb
00000350: a2c0 873b 8342 97bb ba78 86b8 3ad2 1cbb
00000360: 54f5 243b 928a 28bc d8f6 48bb ed3f 013c
00000370: f881 313c 2003 96ba 5677 30bb e012 84ba
00000380: 088e 85bc c181 ea3b fbd0 883a 4a8a 4739
00000390: d8bb 6b3a 3573 b7bb 1d83 b8bb cfc7 0a39
000003a0: 060f b3bb 46bf 89bb e205 0339 245f 5cb9
000003b0: c0a7 8f3c 9f19 8b3c 4259 5dbc 3539 bb3b
000003c0: c19b 24ba a791 a4b9 9533 473b db2f 5abc
000003d0: a649 16ba bd55 b33b cbc1 cdba 05fa fbbb
000003e0: a2cc 573c 3bbc 5dbc 7885 bcb9 4ff0 22ba
000003f0: 1654 06bb 9feb 0dbc 377b d43b 9d6e 9ebb

update_node_embedding_layer.0.message_layer.weight f4 [64, 128]
-0.015864834 0.0050560385 -0.014099987 -0.0042193546 -0.01788335 0.011372718 0.007726342 0.0067594117
-0.0047489246 -0.01909829 0.009482911 -0.01762133 -0.016702753 -0.010002939 0.0060753757 0.0021987332
-0.013021473 -0.0037155934 0.00026827023 0.008379973 -0.011720377 -0.021568013 -0.008251813 -0.008167237
0.020874934 0.012400059 -0.004659039 -0.0040685274 -0.006032468 -0.015358565 -0.008611897 0.015056066
-0.0018858399 0.011377054 0.003746583 -0.004941903 -0.0034379237 -0.0046031177 -0.019085908 -0.009503469
-0.005458042 0.004858546 -0.016272148 -0.011991934 0.003724058 0.009642839 -0.01187873 -7.6247898e-06
-0.009966933 0.012948927 -0.0016761968 -0.005372364 0.0029478837 0.0042043137 -0.018696547 0.013760171
-0.0072598616 -0.0064015323 -0.009254744 -0.001624535 0.002430781 0.021876479 0.00794874 -0.0023797916
-0.006287746 -0.00242993 0.010761297 -0.012352881 -0.0006963245 -0.00066107354 -0.01425166 0.0081771575
-0.008876933 -0.001967021 -0.0052910037 0.013726681 -0.0043486264 0.004658567 0.0017414953 0.020401204
-0.0043127085 0.0005067762 -0.0012610718 -0.005253296 -0.006616436 0.0043413816 -0.008505274 0.01685376
0.0029131 0.0011571661 0.0041957055 0.013593712 -0.013529217 -0.013935954 -0.0058008023 0.020228371
0.014901693 -0.018540718 0.013831565 -0.0013197443 6.0506612e-05 -0.002124555 -0.009243079 0.024446335
0.0023832296 -0.0027400209 0.003726408 0.0046185562 -0.011794901 -0.021006519 0.0072285063 -0.005699761
-0.006439358 0.01480613 -0.006727138 0.00834494 0.0020329051 0.0017527142 0.0067477897 -0.011304717
0.008015198 0.008198818 -0.007812804 -0.013443079 -0.002821174 0.0016093793 0.0075187595 -0.0036062058
-0.004239259 -0.0050207903 -0.014091896 0.007560991 -0.0047206795 0.015075879 0.0013639219 -0.017753955
0.007118293 0.019064356 0.0073145726 -0.00059073156 0.0079347445 -0.0014402713 0.0036171505 0.010340788
-0.025975302 0.010314359 0.00070060435 0.010835259 0.007098552 0.007879156 0.011566087 -0.0058833715
-0.002190464 -0.010570919 0.011464581 0.011128925 0.007994938 -0.0152957635 0.011692998 -0.0063146655
-0.00092215446 0.0009228441 -0.0039488524 0.0033308987 -0.010930761 0.002247256 0.014575673 -0.008339884
0.00023099052 0.0038271933 0.008608403 -0.014772932 -0.0037292147 -0.0017629995 0.01631702 -5.2726282e-05
-0.005054553 -0.0008617327 0.01725479 -0.008545536 0.010912622 -0.013000448 0.015138639 0.00086471095
-0.002466547 -0.013250358 0.013816928 -0.01618879 0.0027313642 0.004388452 -0.0012199093 0.0023153871
0.0024982695 -0.00050685543 -0.013244109 -0.007319206 -0.0054970826 0.009282108 0.0020423108 -0.002229603
-0.00088064023 0.0020571456 0.00037802223 -0.012790203 0.013412874 0.004133164 -0.0049870163 -0.004870135
-0.018326238 0.009548369 -0.010924446 -0.0039042672 0.00076708436 0.012532998 0.0007173438 -0.013627831
-0.0021517342 -0.00028872216 -0.0018542539 -0.0090017365 0.009607537 0.0036266444 -0.0056013917 -0.000845954
-0.0011282654 -0.0066306675 -0.0084828185 -0.000115217714 -0.002622033 -0.002339695 -0.008011554 -0.017277014
0.0034263998 -0.013930259 0.004697749 -0.013996529 -0.0075030434 0.0021223337 -0.018486539 -0.011501698
0.0058047846 0.0028039834 -0.0003860734 0.014944711 0.007257845 0.012586262 0.013463961 -0.019465156
-0.0023854286 0.00316342 -0.012974135 0.010560917 -0.0077802017 0.0026403463 0.017365273 -0.005671336
00000000: f8f6 81bc 20ad a53b a203 67bc 8342 8abb
00000010: 1a80 92bc a354 3a3c 412d fd3b 0e7e dd3b
00000020: de9c 9bbb 0474 9cbc 365e 1b3c 9c5a 90bc
00000030: 36d4 88bc 5ee3 23bc f213 c73b 9f18 103b
00000040: 0458 55bc 5081 73bb 9fa6 8c39 274c 093c
00000050: d306 40bc 67af b0bc 9d32 07bc e0cf 05bc
00000060: e901 ab3c 9e29 4b3c daaa 98bb 4851 85bb
00000070: 02ac c5bb 7ea2 7bbc ea18 0dbc b8ad 763c
00000080: 492e f7ba d366 3a3c 3b89 753b b0ef a1bb
00000090: ca4e 61bb c0d5 96bb 0d5a 9cbc 70b4 1bbc
000000a0: 60d9 b2bb 7034 9f3b 2b4d 85bc d179 44bc
000000b0: 530f 743b 00fd 1d3c 019f 42bc 72d8 ffb6
000000c0: 594c 23bc bc27 543c d5b3 dbba a80a b0bb
000000d0: 4831 413b 57c4 893b 8029 99bc 5772 613c
000000e0: 22e4 edbb f2c3 d1bb 36a1 17bc 59ee d4ba
000000f0: bd4d 1f3b 4d36 b33c 6f3b 023c 47f6 1bbb
00000100: 7009 cebb 763f 1fbb 2750 303c bd63 4abc
00000110: 8c89 36ba e54b 2dba cb7f 69bc 7cf9 053c
00000120: 8e70 11bc 23e9 00bb 2860 adbb dfe5 603c
00000130: ec7e 8ebb e4a6 983b e342 e43a 6d20 a73c
00000140: 9f51 8dbb 2dd9 043a 8c4a a5ba d723 acbb
00000150: b0ce d8bb 2642 8e3b b459 0bbc e610 8a3c
00000160: b5e9 3e3b 0dac 973a 217c 893b 29b8 5e3c
00000170: a6a9 5dbc a153 64bc a814 bebb f8b5 a53c
00000180: 3b26 743c b4e2 97bc ca9d 623c 45fb acba
00000190: 7bc8 7d38 1e3c 0bbb 4970 17bc ae43 c83c
000001a0: f52f 1c3b ec91 33bb c036 743b 4257 973b
000001b0: 673f 41bc dd15 acbc 1bdd ec3b 10c5 babb
000001c0: 4001 d3bb 6995 723c 536f dcbb 37b9 083c
000001d0: 7d3a 053b 54bb e53a 901c dd3b 6b37 39bc
000001e0: 2d52 033c 5654 063c 4601 00bc 5c40 5cbc
000001f0: 72e3 38bb cff1 d23a ed5f f63b 1856 6cbb
00000200: 7be9 8abb 7185 a4bb b2e1 66bc 31c2 f73b
00000210: eeaf 9abb d200 773c a0c5 b23a be70 91bc
00000220: 9240 e93b da2c 9c3c 15af ef3b 53db 1aba
00000230: bb00 023c 7cc7 bcba b70d 6d3b 696c 293c
00000240: 28ca d4bc 8ffd 283c c3a8 373a 5f86 313c
00000250: f89a e83b 9317 013c af7f 3d3c 4cc9 c0bb
00000260: e38d 0fbb a631 2dbc f0d5 3b3c 1856 363c
00000270: 33fd 023c 159b 7abc fd93 3f3c 41eb cebb
00000280: bdbc 71ba 05eb 713a 6065 81bb 354b 5a3b
00000290: ef16 33bc b346 133b cece 6e3c 02a4 08bc
000002a0: 0c36 7239 a6d1 7a3b 420a 0d3c 2b0a 72bc
000002b0: d765 74bb 7214 e7ba 45ab 853c 6a26 5db8
000002c0: aaa0 a5bb e7e5 61ba eb59 8d3c 9302 0cbc
000002d0: dbca 323c d5ff 54bc 0e08 783c c5ad 623a
000002e0: cba5 21bb 0818 59bc 6560 623c 5a9e 84bc
000002f0: b000 333b 01cd 8f3b 5de5 9fba c0bd 173b
00000300: 02ba 233b 7ede 04ba d2fd 58bc f3d5 efbb
00000310: df20 b4bb fc13 183c 4ad8 053b 881e 12bb
00000320: c4da 66ba 2dd1 063b 4931 c639 008e 51bc
00000330: acc1 5b3c 7e6f 873b 206a a3bb a795 9fbb
00000340: e820 96bc c370 1c3c 73fc 32bc bcde 7fbb
00000350: 2916 493a 3457 4d3c 210c 3c3a 4447 5fbc
00000360: 1c04 0dbb a25f 97b9 700a f3ba 057c 13bc
00000370: ee68 1d3c ffac 6d3b e18b b7bb 03c3 5dba
00000380: 4ee2 93ba 1246 d9bb 85fb 0abc 0aa1 f1b8
00000390: 6ad6 2bbb 9255 19bb e542 03bc 8688 8dbc
000003a0: 738d 603b be3b 64bc 93ef 993b b351 65bc
000003b0: 17dc f5bb da16 0b3b 1571 97bc 9e71 3cbc
000003c0: 1036 be3b 09c3 373b e569 cab9 a9da 743c
000003d0: 37d3 ed3b 9c36 4e3c f297 5c3c 6475 9fbc
000003e0: da54 1cbb 6151 4f3b 7791 54bc b207 2d3c
000003f0: 10f1 febb a909 2d3b 9e41 8e3c 9dd6 b9bb

update_node_embedding_layer.0.update_layer.weight f4 [64, 128]
0.0075080204 0.0072048535 0.00086573075 -0.0051614977 0.0074384604 -0.01197225 -0.0056603015 -0.001174407
0.0066805407 0.014434471 -0.0115956105 -0.0016655108 -0.02016402 -0.0006533583 -0.002053303 -0.008100575
0.012314782 0.00038921964 -0.014019523 -0.0031973685 -0.0007706469 -0.009729489 -0.009241092 -0.0042569726
-0.009952169 -0.0006271005 -0.0120667815 -0.00067160174 0.0018561102 -0.010183443 0.010775643 -0.00615005
-0.020259636 -0.03361236 -0.008844038 0.006280489 0.013111641 0.00013216586 -0.008188388 0.017193135
0.010342431 -0.004385086 6.0754817e-05 -0.008547765 -0.007366527 0.014102951 -0.02433011 0.0047769123
-0.014612896 0.004541024 -0.0044345385 -0.008897678 -0.010819396 -0.00727244 -0.004564681 0.00031999833
-0.0017554512 -0.012902099 0.0051160166 -0.0067906072 -0.0019524642 -0.0074397684 0.020086102 0.00022439491
0.012451123 0.0039288118 0.008936819 0.003329992 -0.004263867 -0.004954748 0.0128591955 -0.0035331524
-0.0064587407 0.0069869813 0.007294145 -0.0007420336 0.016249428 0.0014427209 -0.0063166386 0.003538578
0.016941896 -0.010268385 0.007019186 0.0012135583 0.0097796 -0.011017456 -0.008850054 0.0023699538
-0.009690811 -0.0121657625 0.020972423 0.0153110605 0.0010716581 0.016705437 -0.002803989 -0.003402626
0.0033469193 0.012256114 0.0012219709 -0.010433165 -0.015642965 -0.0052807154 -0.011458136 -0.005142337
-0.012459776 0.015344294 -0.015193614 -0.010375443 -0.0015224892 -0.027193615 -0.018850941 -0.0058853175
-0.0037906629 0.002707132 -0.0056048012 -0.009161804 -0.009293497 -0.011831467 -0.00979685 0.004225571
-0.0022067751 0.00568362 0.02565991 -0.023145216 -0.0069208834 0.0033806015 -0.002477771 0.015014666
0.035624202 0.019954935 -0.0047661914 0.005577178 -0.0053062015 -0.0053397827 -0.04978995 -0.00082284695
0.041447036 -0.014904522 0.018872535 0.02964571 -0.025144918 0.017874109 0.031215638 -0.06589548
0.027931709 -0.00025327428 0.039115623 0.006982161 -0.008259923 0.036536522 0.015946832 0.045974676
0.008493553 0.0039006728 0.012988683 0.0074918177 -0.017520923 0.024747225 0.079976164 0.02435384
-0.012782433 -0.13374695 -0.025562795 0.016152712 0.040716708 0.04985583 0.07737939 -0.021614827
0.019633258 0.0002516775 0.046207648 0.02171543 -0.0041261707 -0.005963952 -0.03966494 0.011108784
-0.024080584 0.041819043 -0.025613215 -0.08183223 0.07279211 0.032026935 0.027032582 -0.020812014
-0.012889661 0.035895195 0.016803427 0.01985947 -0.021019455 0.037814952 0.05739019 0.0071527013
-0.005160526 0.009569897 0.024387121 0.0006054957 -0.028520124 -0.008275763 0.002760338 -0.020294052
0.014446821 -0.0039921314 0.0041618533 -0.0007206679 -0.009031229 0.012097649 0.0099662775 -0.035214305
-0.022728592 0.004466455 -0.018269459 -0.00014675347 0.008568254 0.0025265166 0.03347503 -0.0074844137
-0.006739207 -0.017548367 0.0035539626 0.0011829636 0.007784586 -0.007112568 -0.017961306 0.0123182135
0.020789983 -0.006675725 -0.08461487 -0.034434427 -0.00045967696 0.015515238 0.0015733492 0.038170785
0.008180435 -0.0048914785 0.027467918 0.012364549 -0.08665826 -0.014884621 0.0075082066 0.008778069
0.0010577276 -0.01811416 -0.024976296 -0.08964187 0.014510008 -0.0016861242 0.0052890633 0.0045786654
0.012566237 0.01269855 -0.013485577 0.008001286 -0.007150833 -0.0109705785 -0.00219357 -0.008574107
00000000: d705 f63b b116 ec3b 35f2 623a c821 a9bb
00000010: 54be f33b 4227 44bc 0d7a b9bb 8fee 99ba
00000020: 70e8 da3b 8f7e 6c3c 84fb 3dbc 454d daba
00000030: 042f a5bc 2246 2bba b590 06bb 46b8 04bc
00000040: f0c3 493c 2d10 cc39 24b2 65bc f18a 51bb
00000050: 3d05 4aba 6f68 1fbc f367 17bc 137e 8bbb
00000060: 6c0e 23bc 0164 24ba c0b3 45bc 6e0e 30ba
00000070: b948 f33a 75d8 26bc 538c 303c 5c86 c9bb
00000080: 89f7 a5bc 1dad 09bd 95e6 10bc 8fcc cd3b
00000090: 35d2 563c 0196 0a39 9728 06bc 9ed8 8c3c
000000a0: 4d73 293c c4b0 8fbb fdd2 7e38 ed0b 0cbc
000000b0: e862 f1bb 1010 673c f04f c7bc a587 9c3b
000000c0: ee6a 6fbc dfcc 943b 9b4f 91bb 91c7 11bc
000000d0: d643 31bc a64d eebb 5293 95bb 73c5 a739
000000e0: 2b17 e6ba 5363 53bc 42a4 a73b be83 debb
000000f0: d4e9 ffba 4dc9 f3bb 9c8b a43c 8d4b 6b39
00000100: ccff 4b3c 43bd 803b bc6b 123c ff3b 5a3b
00000110: e9b7 8bbb 705b a2bb 60af 523c 768c 67bb
00000120: d8a3 d3bb 0cf3 e43b b903 ef3b 0885 42ba
00000130: 851d 853c ae19 bd3a cefb cebb 7de7 673b
00000140: bbc9 8a3c ba3c 28bc 3301 e63b 4210 9f3a
00000150: 9e3a 203c 8f82 34bc d1ff 10bc 3a51 1b3b
00000160: 35c6 1ebc e852 47bc 5cce ab3c 3edb 7a3c
00000170: e176 8c3a d7d9 883c 21c3 37bb 97fe 5ebb
00000180: fd57 5b3b decd 483c 8a2a a03a deef 2abc
00000190: ad25 80bc da09 adbb e8ba 3bbc 0d81 a8bb
000001a0: 1724 4cbc a266 7b3c a3ee 78bc c3fd 29bc
000001b0: 438e c7ba 25c5 debc 4a6d 9abc 9fd9 c0bb
000001c0: c56c 78bb 236a 313b 7ba8 b7bb 641b 16bc
000001d0: c043 18bc c5d8 41bc f882 20bc a976 8a3b
000001e0: 8b9f 10bb a93d ba3b bb34 d23c 099b bdbc
000001f0: 94c8 e2bb 158d 5d3b 1962 22bb 1300 763c
00000200: afea 113d 8878 a33c b62d 9cbb c3c0 b63b
00000210: a5df adbb 58f9 aebb 8cf0 4bbd 53b4 57ba
00000220: 5ec4 293d 1932 74bc 939a 9a3c 8fdb f23c
00000230: b7fc cdbc b96c 923c f0b7 ff3c 36f4 86bd
00000240: 0ad1 e43c e6c9 84b9 b437 203d 9dca e43b
00000250: a154 07bc 52a7 153d eea2 823c f14f 3c3d
00000260: 8b28 0b3c 6ea2 7f3b 7cce 543c ec7d f53b
00000270: 0a88 8fbc b1ba ca3c 8bca a33d b481 c73c
00000280: 696d 51bc f6f4 08be 1169 d1bc b152 843c
00000290: 90c6 263d a035 4c3d 1679 9e3d 9411 b1bc
000002a0: edd5 a03c 95f3 8339 3b44 3d3d 8fe4 b13c
000002b0: d434 87bb 416d c3bb b477 22bd 9e01 363c
000002c0: a544 c5bc 724a 2b3d ced2 d1bc a897 a7bd
000002d0: 0814 953d ad2e 033d 6f73 dd3c f57d aabc
000002e0: 282f 53bc d706 133d 57a7 893c 54b0 a23c
000002f0: fe30 acbc dae3 1a3d fa11 6b3d 3561 ea3b
00000300: a119 a9bb 0fcb 1c3c 80c7 c73c 21ba 1e3a
00000310: 09a3 e9bc 1197 07bc c9e6 343b b63f a6bc
00000320: 5cb2 6c3c 6dd0 82bb 2860 883b 34eb 3cba
00000330: b8f7 13bc 3835 463c 9949 233c e03c 10bd
00000340: 5031 babc 575b 923b d5a9 95bc d6e1 19b9
00000350: dd61 0c3c ea93 253b 1d1d 093d d03f f5bb
00000360: 91d4 dcbb 98c1 8fbc 99e9 683b ac0d 9b3a
00000370: d715 ff3b 8b10 e9bb 9723 93bc 55d2 493c
00000380: c14f aa3c 0ac0 dabb 904a adbd 1d0b 0dbd
00000390: cc00 f1b9 a033 7e3c d738 ce3a f858 1c3d
000003a0: 3b07 063c b248 a0bb 6604 e13c ad94 4a3c
000003b0: e379 b1bd a0de 73bc 6707 f63b e4d1 0f3c
000003c0: 73a3 8a3a 2664 94bc 179b ccbc 2896 b7bd
000003d0: 62bb 6d3c f100 ddba e14f ad3b a108 963b
000003e0: 9ee2 4d3c 940d 503c 9cf2 5cbc d317 033c
000003f0: 8951 eabb f1bd 33bc ffc1 0fbb 697a 0cbc

update_node_embedding_layer.1.message_layer.weight f4 [64, 128]
-0.0024541595 -0.020561038 0.017602418 0.16648056 0.0022671658 0.0020043908 -0.01379787 -0.0151809035
-0.010007979 0.0011705223 -0.020834697 -0.017240347 -0.035366867 -0.014878002 0.0032749043 0.048915498
0.18642479 -0.010182217 0.16280574 -0.016687248 0.07157544 -0.011048825 -0.021750564 -0.034350898
-0.018254513 0.0033338382 -0.0020081697 -0.021411493 0.014863075 0.053107187 0.005180567 0.011080561
0.069338895 -0.015994048 -0.001018153 0.09295662 0.004077647 0.08062797 0.0012576741 0.07144986
-0.013717412 0.14746633 0.20332101 -0.02261948 -0.021859555 -0.01780858 -0.002891663 0.047031358
-0.016019996 0.23605037 -0.022203773 -0.0021748394 0.0010279454 -0.0050325287 0.15860307 0.0014908544
0.06333983 0.03287965 -0.018854989 -0.014948516 0.009011519 -0.006977583 -0.015614875 0.00027254564
0.02354198 -0.00029466863 -0.00071155134 -0.006336092 -0.03846301 -0.0013606438 -0.014912906 -0.01917116
0.050242625 0.011399364 0.06894698 0.022770537 0.0003895752 -0.02612471 -0.011234388 0.008502593
0.0062419153 0.014054267 -0.018758232 0.0027940245 -0.004000172 0.003307309 0.030329233 0.0235265
0.03134444 0.00821313 -0.006038228 -0.006141008 -0.017435296 0.04265047 0.026185421 0.010957634
-0.03641944 0.028423525 0.04245581 -0.004313238 -0.0042533637 -0.027645765 -0.010694454 0.02285173
0.016263464 0.025804982 0.027093137 -0.009780353 0.021856286 0.0060091475 0.03406128 0.014276716
0.05666025 0.028928287 0.003541604 -0.0060923174 -0.0027564152 0.002884857 0.04486613 -0.007342533
0.05238727 -0.004828631 0.0023809853 0.029816477 0.016593456 -0.00771763 0.0061533786 -0.0072857225
0.00094796147 0.04637508 -0.007868105 -0.120114975 0.03786402 0.005682213 0.062127028 0.05075856
0.056845766 -0.048436288 0.055241328 0.053760353 0.06553886 0.03681143 -0.0046685273 -0.07506863
-0.044310007 -0.01007959 -0.04836175 0.029264357 -0.065747105 0.033634502 0.0462071 0.039070297
0.049426515 0.015576116 -0.00016926562 0.03656316 0.00247538 -0.057897918 -0.09148499 0.0025331937
-0.08361061 -0.0019140015 0.060799297 -0.06449298 0.010390162 -0.076573 0.06299609 -0.100240745
0.06383505 0.0021059443 -0.024081139 -0.00397474 -0.01266188 -0.004817127 -0.0071776737 -0.061637998
0.04698374 -0.0016138068 0.056262106 -0.016619144 0.03881007 -0.012289571 -0.0532312 -0.06696523
-0.06881706 -0.060600635 0.08639892 0.066370755 -0.02115381 -0.012869364 0.063835375 0.05422581
-0.011921471 0.00075916 0.038853385 0.0076632737 -0.03984914 -0.010914674 0.019124582 0.0741018
-0.08019482 -0.07687466 -0.020362627 -0.016271459 0.015070213 0.044522338 0.010743322 -0.011050108
-0.0041407766 -0.02874906 -0.011794549 0.0063315365 0.0075001405 0.06760801 -0.043841023 -0.002706606
-0.09614885 -0.0031650488 -0.063011035 -0.06090604 -0.00895716 -0.001912037 -0.041105043 -0.026625073
-0.10689517 -0.10522482 0.019489456 0.008183525 0.022513594 -0.012765003 -0.06770728 -0.083440535
-0.07193126 -0.02609404 0.025580706 0.002751888 -0.05952647 0.0351924 -0.0052305073 -0.07745972
0.007593398 0.027458873 0.01276278 0.017471153 0.01520643 -0.04252222 -0.13134041 0.0025960132
0.04057308 -0.006146415 0.009884542 -0.055792894 -0.08768806 0.006800064 -0.04123066 -0.07727875
00000000: f7d5 20bb 9f6f a8bc f232 903c e179 2a3e
00000010: bb94 143b 195c 033b 7610 62bc 53b9 78bc
00000020: 82f8 23bc 366c 993a 87ad aabc a13b 8dbc
00000030: d9dc 10bd ddc2 73bc c79f 563b 9e5b 483d
00000040: 24e6 3e3e 50d3 26bc 8cb6 263e b2b3 88bc
00000050: 2596 923d 2206 35bc 3d2e b2bc 87b3 0cbd
00000060: 7d8a 95bc 867c 5a3b 7f9b 03bb 2867 afbc
00000070: 4184 733c ec86 593d bfc1 a93b 3e8b 353c
00000080: 8d01 8e3d f305 83bc 8c73 85ba 0a60 be3d
00000090: c89d 853b 4720 a53d 8ad8 a43a 4e54 923d
000000a0: ffbe 60bc 6a01 173e 6233 503e 7d4c b9bc
000000b0: cf12 b3bc 4de3 91bc 0e82 3dbb f4a3 403d
000000c0: 5e3c 83bc 30b7 713e b0e4 b5bc c087 0ebb
000000d0: 20bc 863a e9e7 a4bb d868 223e c668 c33a
000000e0: 50b8 813d d0ac 063d c775 9abc 9fea 74bc
000000f0: 0da5 133c 35a4 e4bb 88d5 7fbc 75e4 8e39
00000100: 1cdb c03c c17d 9ab9 6787 3aba fe9e cfbb
00000110: 648b 1dbd a157 b2ba 4355 74bc d60c 9dbc
00000120: 36cb 4d3d 66c4 3a3c 1334 8d3d 4789 ba3c
00000130: e63f cc39 7d03 d6bc 7010 38bc 764e 0b3c
00000140: fb88 cc3b de43 663c ddaa 99bc f41b 373b
00000150: e013 83bb 70bf 583b 0375 f83c a6ba c03c
00000160: 0763 003d 5d90 063c 54dc c5bb 823a c9bb
00000170: 77d4 8ebc 42b2 2e3d cf82 d63c a687 333c
00000180: 8d2c 15bd 74d8 e83c 25e6 2d3d 1056 8dbb
00000190: cd5f 8bbb 5f79 e2bc cb37 2fbc 8d33 bb3c
000001a0: f53a 853c f864 d33c 6df2 dd3c c63d 20bc
000001b0: f40b b33c 62e8 c43b d783 0b3d e3e8 693c
000001c0: 9414 683d 04fb ec3c 411a 683b 10a2 c7bb
000001d0: f9a4 34bb de0f 3d3b 8cc5 373d a299 f0bb
000001e0: 0994 563d 7e39 9ebb 4e0a 1c3b af41 f43c
000001f0: 00ef 873c 2ce4 fcbb 48a2 c93b 12bd eebb
00000200: 9e80 783a ccf3 3d3d 39e9 00bc d7fe f5bd
00000210: 4d17 1b3d dc31 ba3b e978 7e3d 35e8 4f3d
00000220: 1bd7 683d 2165 46bd bb44 623d d133 5c3d
00000230: 3d39 863d 95c7 163d 72fa 98bb 95bd 99bd
00000240: 697e 35bd dd24 25bc f816 46bd cebb ef3c
00000250: 6ba6 86bd 55c4 093d a843 3d3d 2d08 203d
00000260: 7573 4a3d f732 7f3c e57c 31b9 41c3 153d
00000270: fc39 223b 5e26 6dbd 7c5c bbbd f003 263b
00000280: 0a3c abbd 3cdf faba af08 793d e514 84bd
00000290: 7f3b 2a3c 4ed2 9cbd 1804 813d 054b cdbd
000002a0: f3bb 823d e203 0a3b cf45 c5bc 893e 82bb
000002b0: c673 4fbc fdd8 9dbb b132 ebbb 2078 7cbd
000002c0: 0672 403d 5f86 d3ba 1873 663d df24 88bc
000002d0: 4ff7 1e3d 325a 49bc f508 5abd 1125 89bd
000002e0: f5ef 8cbd 5f38 78bd ebf1 b03d 64ed 873d
000002f0: c14a adbc 06da 52bc 1fbc 823d e21b 5e3d
00000300: 4652 43bc 5d02 473a ba24 1f3d 331c fb3b
00000310: da38 23bd 76d3 32bc 28ab 9c3c afc2 973d
00000320: 2f3d a4bd 7670 9dbd 86cf a6bc b94b 85bc
00000330: 0ee9 763c 0e5d 363d c204 303c 830b 35bc
00000340: 5aaf 87bb 2683 ebbc ed3d 41bc c778 cf3b
00000350: bdc3 f53b 1176 8a3d a592 33bd 5061 31bb
00000360: b0e9 c4bd b56c 4fbb ee0b 81bd 9d78 79bd
00000370: 0dc1 12bc 519d faba c35d 28bd d31c dabc
00000380: dbeb dabd 1c80 d7bd 5aa8 9f3c 3114 063c
00000390: 6e6e b83c 4e24 51bc 1daa 8abd dfe2 aabd
000003a0: b250 93bd 2bc3 d5bc a18e d13c 0559 343b
000003b0: 07d2 73bd e825 103d ad64 abbb 34a3 9ebd
000003c0: 0ad2 f83b 6ef1 e03c fb1a 513c aa1f 8f3c
000003d0: 6424 793c c82b 2ebd 1a7e 06be e021 2a3b
000003e0: f52f 263d de67 c9bb c6f2 213c 1787 64bd
000003f0: cc95 b3bd 12d3 de3b 7be1 28bd 5244 9ebd

update_node_embedding_layer.1.update_layer.weight f4 [64, 128]
-0.010167671 -0.041015573 -0.0015054389 0.11505671 -0.058996785 0.018904693 -0.033498406 -0.045239955
-0.031280924 -0.033560254 -0.039179523 -0.061902303 -0.054594066 -0.026554603 -0.00446776 0.048302826
0.14342992 0.0024896995 0.0935972 -0.05839664 0.060801994 -0.060929105 -0.02579851 -0.05164205
-0.04468017 0.010020811 -0.0054459637 -0.044601317 0.010063989 0.054327432 -0.0030441023 0.02122933
0.05924952 0.006727519 -0.057714015 0.065068364 -0.004555614 0.06577568 -0.050891675 0.065686606
-0.030723793 0.10464854 0.13050148 0.005564199 -0.0061296606 0.004195299 0.008871561 0.077505276
-0.04535814 0.17787308 -0.034592338 0.01227435 -0.04546846 0.009065761 0.08773191 -0.022102572
0.07621509 0.05137933 -0.030844666 -0.040390797 0.0014573629 0.007024199 -0.026948541 0.12915805
0.032112155 0.06629195 0.008366352 0.0180401 -0.009179382 0.019745363 0.010026203 0.063142136
-0.004878531 0.02058344 0.0038316816 0.020195384 -0.007757715 -0.002356969 0.008362155 0.003833151
0.02554047 -0.00515868 0.029206295 0.037807066 0.019177472 -0.015148579 0.02858085 0.021283029
-0.16569023 0.10563959 0.04358896 -0.0067844274 0.008917901 0.03308684 0.00020485677 0.001537397
0.011325503 0.0042203777 0.039914917 -0.0032591429 0.040383644 0.016830735 -0.011943453 -0.003214695
0.02656724 -0.022197941 -0.0027668688 -0.000161953 -0.020545585 0.0113846585 0.00033510607 0.018018363
-0.0031600043 0.008837522 0.012532683 0.00885034 0.0037081232 -0.012952006 0.015938783 -0.015976634
0.008852675 0.034080457 0.015581626 -0.1484482 0.0315559 -0.001975873 0.024516355 0.018377498
-0.010863433 -0.012937141 -0.007028142 -0.059853904 -0.03297974 -0.010481571 0.0030105307 -0.0029304293
0.002168242 0.036313113 -0.040105008 -0.018898137 -0.014230598 -0.03684167 0.008245942 -0.26886934
-0.1146787 0.013382397 -0.12390323 -0.008504319 -0.25267988 -0.0071436944 -0.0028742168 -0.012532689
-0.026379569 0.0027347475 -0.0062289075 -0.022682002 -0.009914192 -0.26106212 0.052266527 -0.017292285
-0.28473878 0.008303429 -0.0037372026 -0.27686512 0.0017040069 -0.25219834 -0.076166 -0.2124823
-0.029985515 -0.26056087 -0.11841583 -0.0108755985 -0.012100814 0.0047711004 -0.15625334 -0.24247457
-0.015022874 -0.31328675 -0.02413375 0.004584755 -0.010045716 -0.002873488 -0.11600972 0.042350035
-0.1974913 -0.23556481 -0.02286969 -0.034382157 -0.0066596493 -0.0036493393 -0.09127523 0.045202278
-0.019723982 0.06173774 0.007969156 0.01974886 -0.015368342 0.018827382 0.02134866 0.086208746
0.0033971658 -0.009291732 0.0058174026 0.021593945 -0.017583165 -0.014284254 0.0073705576 -0.01057403
0.035786238 0.011551481 -0.010384558 0.013695813 -0.01925721 0.00050664635 0.010441106 0.018258696
-0.08152325 0.10480777 0.012313023 -0.0020658406 0.008274864 0.0171737 -0.0002633967 0.0052797804
-0.00056204566 0.0013301374 -0.0036026058 -0.016427917 0.04630237 0.020740839 -0.00028185573 -0.0059180534
-0.005070722 -0.030569859 -0.012155366 -0.009621364 -0.0071991007 0.086124435 0.003163143 -0.070430756
-0.0013915936 0.009524787 0.011175519 0.007832338 0.027586933 -0.002770325 0.027847236 0.004298177
-0.003673406 0.013927055 0.0420864 -0.06495963 0.07297338 0.014062161 0.018526835 0.01546992
00000000: 4e96 26bc f2ff 27bd 2652 c5ba daa2 eb3d
00000010: 9da6 71bd 04de 9a3c a035 09bd 884d 39bd
00000020: 6d20 00bd 7a76 09bd b57a 20bd 458d 7dbd
00000030: 079e 5fbd 0a89 d9bc 4a66 92bb 2fd9 453d
00000040: 4bdf 123e 3a2a 233b e4af bf3d 5131 6fbd
00000050: 830b 793d cc90 79bd 6657 d3bc 9d86 53bd
00000060: 8e02 37bd 542e 243c 0e74 b2bb dfaf 36bd
00000070: 6ee3 243c 7186 5e3d 907f 47bb 22e9 ad3c
00000080: a0af 723d 8572 dc3b 8865 6cbd 9042 853d
00000090: 4347 95bb 66b5 863d ca73 50bd b386 863d
000000a0: 77b0 fbbc f951 d63d 2ea2 053e e253 b63b
000000b0: 52db c8bb b878 893b 065a 113c 16bb 9e3d
000000c0: 75c9 39bd 5c24 363e b2b0 0dbd 5b1a 493c
000000d0: 233d 3abd 8f88 143c caac b33d 7410 b5bc
000000e0: a816 9c3d 2273 523d f4ad fcbc d270 25bd
000000f0: fc04 bf3a 402b e63b 30c3 dcbc 0242 043e
00000100: 0988 033d 13c4 873d 0613 093c d5c8 933c
00000110: 1e65 16bc 07c1 a13c f144 243c aa50 813d
00000120: 16dc 9fbb 9a9e a83c f31c 7b3b ca70 a53c
00000130: 6e34 febb 6177 1abb 6c01 093c 9a35 7b3b
00000140: 3f3a d13c 250a a9bb 0a42 ef3c 95db 1a3d
00000150: 131a 9d3c bf31 78bc 6322 ea3c bf59 ae3c
00000160: b3aa 29be 9259 d83d 568a 323d e74f debb
00000170: 631c 123c 1186 073d d2ce 5639 7c82 c93a
00000180: 9a8e 393c 184b 8a3b d37d 233d 5897 55bb
00000190: 5269 253d 9ce0 893c 79ae 43bc a2ad 52bb
000001a0: 8aa3 d93c 75d8 b5bc 5b54 35bb edd1 29b9
000001b0: 374f a8bc b886 3a3c 2db1 af39 3f9b 933c
000001c0: 1318 4fbb 41cb 103c e255 4d3c 0401 113c
000001d0: fc03 733b a734 54bc 0d92 823c 6ee1 82bc
000001e0: cf0a 113c f397 0b3d 144a 7f3c ce02 18be
000001f0: c240 013d a67d 01bb 86d6 c83c 688c 963c
00000200: 8afc 31bc 4df6 53bc 544c e6bb 5e29 75bd
00000210: c415 07bd e5ba 2bbc 534c 453b 720c 40bb
00000220: 1019 0e3b 0fbd 143d 2645 24bd 44d0 9abc
00000230: 7427 69bc 4ae7 16bd fd19 073c 3ea9 89be
00000240: abdc eabd d741 5b3c fac0 fdbd b355 0bbc
00000250: 425f 81be a715 eabb 5b5d 3cbb e855 4dbc
00000260: f719 d8bc 7339 333b dd1b ccbb 9bcf b9bc
00000270: 236f 22bc efa9 85be 6d15 563d 8da8 8dbc
00000280: 48c9 91be 1b0b 083c dbeb 74bb 44c1 8dbe
00000290: fc58 df3a 2420 81be ebfc 9bbd f694 59be
000002a0: 2fa4 f5bc 3c68 85be 0084 f2bd 912f 32bc
000002b0: 7e42 46bc e456 9c3b e000 20be 414b 78be
000002c0: 8022 76bc 1f67 a0be 24b4 c5bc b63b 963b
000002d0: c996 24bc 2151 3cbb 8196 edbd 3b77 2d3d
000002e0: 293b 4abe e737 71be 3759 bbbc 4ed4 0cbd
000002f0: 3039 dabb c129 6fbb 82ee babd 0626 393d
00000300: 3094 a1bc b6e0 7c3d 1091 023c 5cc8 a13c
00000310: 80cb 7bbc e23b 9a3c 63e3 ae3c 368e b03d
00000320: fca2 5e3b 593c 18bc e99f be3b c9e5 b03c
00000330: 920a 90bc 8108 6abc b884 f13b b23e 2dbc
00000340: 9794 123d 6c42 3d3c fe23 2abc 6764 603c
00000350: 4cc1 9dbc 76d0 043a 2c11 2b3c 4393 953c
00000360: a9f5 a6bd 75a5 d63d 90bc 493c 0e63 07bb
00000370: 4c93 073c dcaf 8c3c 8218 8ab9 0202 ad3b
00000380: 3f56 13ba 0158 ae3a b219 6cbb d793 86bc
00000390: 8ea7 3d3d b1e8 a93c 09c6 93b9 3bec c1bb
000003a0: 4d28 a6bb a46d fabc 4d27 47bc eda2 1dbc
000003b0: 6fe6 ebbb 0262 b03d bc4c 4f3b 003e 90bd
000003c0: 2266 b6ba da0d 1c3c 8619 373c 3553 003c
000003d0: fefd e13c 578e 35bb e31f e43c b9d7 8c3b
000003e0: 87bd 70bb 4d2e 643c ca62 2c3d 8e09 85bd
000003f0: 1173 953d fa64 663c 97c5 973c 8c75 7d3c
