ER_200spin/eco/network/network8800000.pth (torch, 238273 bytes, 11 tensors)

node_init_embedding_layer.0.weight f4 [64, 7]
0	0x3d1442bd	0.03619646
1	0xbe86fc7f	-0.26364514
2	0xbe9eae0b	-0.3099216
3	0xbcd48bbf	-0.025945542
4	0xbadb8bdd	-0.0016750057
5	0xbbd4d0fe	-0.0064946404
6	0x3d84fb54	0.064932495
7	0x3bf3171b	0.007418526
8	0xbe4396c1	-0.19100477
9	0xbc90f53a	-0.017695058
10	0x3dac171b	0.084028445
11	0xbdd03f6d	-0.101683475
12	0x3dcbabcd	0.09944878
13	0x3d309094	0.04310663
14	0x3cc3517d	0.023842568
15	0x3ede9175	0.4347035
16	0xbc978dfa	-0.018500317
17	0xbd40575a	-0.046958305
18	0xb8bcd760	-9.004655e-05
19	0xbca95ba0	-0.020673573
20	0x3d08d1f6	0.03340336
21	0xbd23106b	-0.03981058
22	0x3ee51e43	0.4474965
23	0x3cdad3d3	0.026712334
24	0x3c7fb94f	0.015608146
25	0x3b27e59d	0.0025619038
26	0x3cb3f32c	0.02196654
27	0x3d2288b9	0.03968117
28	0xbbc981b0	-0.006149493
29	0xbb7f7c43	-0.0038983978
30	0xbc218543	-0.009858432
31	0xbc35e581	-0.011102081
32	0xbc314120	-0.01081875
33	0xbb77b1a6	-0.0037795096
34	0xbc79626c	-0.0152212195
35	0xbc35ae95	-0.011088987
36	0xbb5aad71	-0.003336754
37	0xbb09d2e0	-0.0021030232
38	0xbb2f15e3	-0.0026715926
39	0xbc590bb4	-0.013247419
40	0xbc86b436	-0.016443353
41	0xbbb2f8e5	-0.0054617994
42	0x3d13c2f4	0.036074594
43	0x3f0410fe	0.5158843
44	0xbb21a630	-0.0024665706
45	0xbdeaf76b	-0.114729725
46	0x39a783ee	0.00031951017
47	0xbd423333	-0.04741211
48	0x3c099456	0.008397182
49	0x3c8879df	0.016659675
50	0xbe5b8ff0	-0.21441627
51	0xbf2ba3df	-0.6704692
52	0x3e882b17	0.26595375
53	0x3b3ba894	0.0028634416
54	0x3dbdf316	0.092748806
55	0x3d48371e	0.04888069
56	0x3d440640	0.047857523
57	0xbeb5a8c9	-0.35480335
58	0x3db1998c	0.08671865
59	0x3e4ad88f	0.19809173
60	0xbabf9556	-0.0014616649
61	0x3d52615d	0.051362384
62	0x3d531768	0.051535994
63	0x3d32b786	0.043632053
64	0x3efefdff	0.4980316
65	0x3cbe058d	0.023196006
66	0x3d28cd19	0.04121122
67	0xba8b6593	-0.001063513
68	0xbb7f258c	-0.0038932292
69	0xbce8b5cf	-0.028407006
70	0xbcf9534d	-0.030435229
71	0x3ecbccd7	0.39804718
72	0x3da4a189	0.08038623
73	0x3dc4ad0e	0.0960332
74	0xbaf16a34	-0.0018418492
75	0x3cd9d5cd	0.026591206
76	0x3b8b38d3	0.0042487173
77	0xbc74d37a	-0.014942998
78	0x3eb56def	0.35435435
79	0xbe249711	-0.16073252
80	0x3ce328f4	0.027729489
81	0x3aa74230	0.0012760814
82	0x39b5d6d3	0.00034683067
83	0xbe8cd799	-0.27508238
84	0x3d33a2d7	0.043856468
85	0x3f074e35	0.5285371
86	0xbbb20c70	-0.0054336116
87	0xbda02131	-0.07818831
88	0x39f6c34c	0.00047066284
89	0x3cb5abc8	0.022176638
90	0x3c5aaac2	0.013346376
91	0x3d0263b1	0.031833354
92	0xbeb9acf4	-0.36264765
93	0xbced9cf9	-0.029005514
94	0x3d99334c	0.07480487
95	0xb78359aa	-1.565817e-05
96	0xbcd2a204	-0.02571202
97	0x3cb91687	0.02259375
98	0x3d2ac616	0.041692816
99	0xbea3ab66	-0.31966704
100	0xbc9cbe9f	-0.019133864
101	0x3df85385	0.12125305
102	0x392a5a78	0.00016246166
103	0xba31a930	-0.0006777225
104	0x3d280c4d	0.041027356
105	0x3cc7fd4e	0.024412777
106	0x3d4b7f44	0.049681917
107	0xbe240749	-0.16018404
108	0x3de5f5e6	0.11228542
109	0xbae6ff04	-0.0017623608
110	0x3ce43a3b	0.027859798
111	0xbe5d4b4d	-0.21610756
112	0x3d3cdaba	0.04610703
113	0xbe53cade	-0.20682856
114	0xbde45af2	-0.11150159
115	0x3ded87b8	0.11598152
116	0xbccc5bfd	-0.024946207
117	0x3da0ecc4	0.078576595
118	0xbc52979a	-0.012853527
119	0xbd8aefbd	-0.06784008
120	0x3ecf993f	0.40546605
121	0x3d41e9d2	0.04734213
122	0x3ba8f0a4	0.0051556397
123	0x38eaba11	0.00011192647
124	0x3d555d3e	0.052090876
125	0x3d254366	0.04034748
126	0x3d5b6f4f	0.05357295
127	0xbee7163b	-0.45134148
128	0xbbd5bcaa	-0.0065227346
129	0x3e052f12	0.13006237
130	0x3c1344b3	0.008988547
131	0x3c051cbe	0.008124528
132	0x3d80a417	0.06281298
133	0xbd7d7d8a	-0.0618873
134	0x3ecfc5ac	0.405805
135	0x3d95f3e2	0.073219076
136	0x3d99a1e1	0.07501579
137	0xbba994c6	-0.005175206
138	0x3ceef5b7	0.0291699
139	0x3cb70595	0.022341529
140	0x3d249cd1	0.040188614
141	0x3f057d00	0.5214386
142	0x3ce787f3	0.028263068
143	0x3b49dc98	0.003080165
144	0xb9bae08d	-0.00035643988
145	0x3baa0c9e	0.0051894924
146	0xbc80983e	-0.015697595
147	0x3d4ee645	0.05051257
148	0xbedd7e67	-0.432605
149	0x3cd24484	0.025667436
150	0x3e152903	0.14566426
151	0x3ac0cfed	0.0014710404
152	0x3c982eeb	0.01857706
153	0x3d5846b9	0.05280182
154	0x3c9c3f38	0.019073114
155	0xbe4026cf	-0.18764804
156	0x3dbc1e10	0.091854215
157	0x3c9a5115	0.018837491
158	0xbd40a1d5	-0.047029335
159	0x3dc5aa63	0.09651639
160	0xbd1725ac	-0.03690116
161	0xbc11d722	-0.008901389
162	0xbe5b6fb8	-0.21429336
163	0x3e55c791	0.2087691
164	0x3d88c86b	0.06678852
165	0xba8b1152	-0.001061002
166	0x3d24e4fa	0.04025743
167	0x3dbafd48	0.09130341
168	0x3d13ee07	0.036115672
169	0xbe8767e5	-0.26446453
170	0x3d9928e7	0.07478505
171	0x3ee5e92c	0.4490446
172	0x3b782657	0.003786465
173	0x3dd08393	0.10181346
174	0xbb467dc4	-0.0030287364
175	0xbd85954a	-0.06522615
176	0x3ec949a2	0.3931399
177	0x3d1ad4f5	0.037800748
178	0x3cd69f74	0.02619908
179	0xbab130cf	-0.0013518574
180	0x3d34b1a3	0.04411472
181	0xbd72d6d5	-0.05928691
182	0x3d59bf6d	0.053161073
183	0x3f09f777	0.53893226
184	0x3cc804a2	0.024416272
185	0x3d1effb3	0.038818073
186	0xba1292ff	-0.0005591362
187	0x3cf60fe2	0.03003687
188	0xbbc013c9	-0.0058617336
189	0xbb020dd5	-0.001984467
190	0x3b4a300a	0.0030851387
191	0x3a8fa26c	0.001095844
192	0xbc1a8f5b	-0.009433593
193	0xbbb782cb	-0.0056003085
194	0xbb8eda4b	-0.0043595186
195	0xbc28bf61	-0.010299535
196	0x3d1f6ee9	0.03892413
197	0x3eed79b9	0.4638193
198	0x3cbde1be	0.023178931
199	0x3b925530	0.0044657215
200	0xbab43457	-0.0013748509
201	0x3b0b0eb2	0.0021218476
202	0xbd01dbf5	-0.031703908
203	0x3d477293	0.04869325
204	0xbee0adcd	-0.438826
205	0x3b787057	0.0037908757
206	0x3dfb595b	0.122729026
207	0x3b7e319c	0.0038786894
208	0x3d337abe	0.043818228
209	0x3ce0d376	0.027444582
210	0x3cc13c49	0.023588317
211	0xbe56128e	-0.20905516
212	0xbc4cdb65	-0.01250348
213	0xbe45a660	-0.19301748
214	0x3a02c889	0.00049889885
215	0x3df7dc47	0.121025614
216	0xbc5aeeb6	-0.013362577
217	0xbd816890	-0.06318772
218	0xbe9790e2	-0.29602724
219	0x3cc72260	0.024308383
220	0x3e187aa8	0.1489054
221	0xbc4e288c	-0.012582909
222	0x3c4490a6	0.0119973775
223	0x3d1352bb	0.03596757
224	0xbb2121a7	-0.0024586709
225	0x3c276496	0.010216853
226	0xbb802eda	-0.003911835
227	0xbc919d5c	-0.01777523
228	0xbb82edb8	-0.0039956234
229	0xbc082446	-0.0083094295
230	0xbb1a87c9	-0.002357947
231	0x3c7d8891	0.0154744545
232	0x3e13c791	0.14431597
233	0xbeb8b55d	-0.3607587
234	0x3bdfcd28	0.0068298765
235	0x3beb009e	0.0071717044
236	0x3c4272c9	0.011868187
237	0xbecdc332	-0.40187985
238	0x3cd99a9b	0.02656298
239	0x3eeb6a12	0.45979363
240	0x3b07d492	0.0020726067
241	0xbca95ab0	-0.020673126
242	0x3adac680	0.0016691238
243	0x3d15d013	0.03657539
244	0x3c5cf316	0.013485691
245	0xbb445647	-0.0029958652
246	0x3b926890	0.004468031
247	0xbc35c51a	-0.011094356
248	0xbc3e6e0f	-0.01162292
249	0xbc364a1e	-0.011126069
250	0xbbcee017	-0.0063133347
251	0xbad7b7f7	-0.0016458024
252	0x3c410f48	0.0117834285
253	0xbe35c9a7	-0.17752706
254	0xbe7dec03	-0.24797063
255	0x3d987b00	0.074453354

edge_embedding_layer.edge_embedding_NN.weight f4 [63, 8]
0	0x3ccc9ff6	0.02497862
1	0x3ccd649f	0.025072394
2	0x3eab2559	0.33426932
3	0xbd6fa8b2	-0.05851049
4	0xbd41a571	-0.047276918
5	0xbda6872d	-0.081312515
6	0xbc0dc439	-0.00865274
7	0xbd901372	-0.07034959
8	0xbc2291da	-0.009922469
9	0xbc308984	-0.010774974
10	0xbb8d67a7	-0.004315335
11	0xbb161a0b	-0.0022903706
12	0x3c12afd5	0.008953054
13	0xbcb5f926	-0.02221353
14	0xbc79e019	-0.015251183
15	0x3c0472b8	0.008083992
16	0x3cd9b6b7	0.026576383
17	0x3c9d2ac1	0.019185426
18	0x3ea19a4a	0.31563026
19	0xbd718cc9	-0.058972154
20	0xbc883ad1	-0.016629608
21	0xbc5ac65e	-0.0133529585
22	0xbb272a10	-0.002550725
23	0xbc7dee63	-0.01549873
24	0x3d572593	0.052526068
25	0x3d2f928b	0.042864364
26	0x3ea22cc7	0.31674787
27	0xbe343af5	-0.17600615
28	0xbd80fcc8	-0.06298214
29	0xb9a2b254	-0.00031031913
30	0x3d38bf75	0.045104463
31	0xbd442fee	-0.04789727
32	0xbc765733	-0.015035438
33	0xbbdcdea1	-0.0067404066
34	0x3c7c1de9	0.0153879905
35	0xbc711abd	-0.014715848
36	0xbc20fc8f	-0.00982584
37	0xbac778db	-0.0015218513
38	0xbab5c1b9	-0.0013866938
39	0xbb08a058	-0.0020847525
40	0xbc2a87bb	-0.010408337
41	0xba1a6be9	-0.00058907137
42	0x3b21fb4a	0.002471643
43	0xbb89685c	-0.004193349
44	0x3b376976	0.0027986444
45	0xbc5eb404	-0.013592724
46	0x3c3dafbd	0.011577544
47	0x3b304c3d	0.002690091
48	0xbc25b64c	-0.010114264
49	0xbd29f35c	-0.04149185
50	0xbe3e8b43	-0.18607812
51	0x3e087db3	0.133292
52	0x3ce906a1	0.028445544
53	0xbc60239f	-0.013680368
54	0xbded135d	-0.11575959
55	0x3d852a7f	0.06502246
56	0xbbba56ba	-0.005686608
57	0x3af46a8a	0.0018647474
58	0xbe7d6e43	-0.24749093
59	0x3e362452	0.17787293
60	0x3dd287e9	0.10279829
61	0x3c8b7395	0.017022887
62	0xbb8c0572	-0.00427311
63	0x3e0206a1	0.12697841
64	0x3a894af6	0.0010474611
65	0xbe24086e	-0.1601884
66	0xbe73d561	-0.23811866
67	0x3df1a88d	0.11799727
68	0x3dcd1dd1	0.10015453
69	0x3b332109	0.0027332923
70	0x3b70e7a7	0.003675917
71	0x3db3e7bf	0.087844364
72	0xbb9ba778	-0.0047501884
73	0xbdac36aa	-0.08408864
74	0xbe5ec92e	-0.21756431
75	0x3e047f7e	0.1293926
76	0x3d1560e1	0.036469344
77	0x3cb4a241	0.022050025
78	0xbd4d8854	-0.05017884
79	0x3ddb18e7	0.10698109
80	0xbcc3e6d6	-0.023913782
81	0xbb4f810c	-0.0031662611
82	0xbe61d7a6	-0.2205492
83	0x3e18b393	0.14912252
84	0x3dcc4111	0.09973348
85	0x3c2c279a	0.010507489
86	0x3b883d08	0.004157666
87	0x3dd03ae2	0.10167481
88	0xba078721	-0.0005169977
89	0xba95eb46	-0.0011437915
90	0xbacf199f	-0.0015800482
91	0xbc3ed8e9	-0.011648395
92	0xbc0960e9	-0.008384922
93	0xbc9bb220	-0.019005835
94	0xbcadfc9e	-0.021238621
95	0xbb4d5313	-0.0031330034
96	0xbc40debb	-0.011771853
97	0xbbd385ff	-0.0064551826
98	0xbc999342	-0.018746976
99	0x3c0c41de	0.008560626
100	0xbb3b6b8e	-0.0028598043
101	0xbc5799c0	-0.013159215
102	0x3ac1615c	0.0014753747
103	0xbb5d917b	-0.0033808637
104	0x3d5da558	0.054112762
105	0x3ca5a6da	0.020221163
106	0x3e99ff71	0.300777
107	0xbe08cdab	-0.13359706
108	0xbc5ec557	-0.013596854
109	0x39cd9021	0.0003920803
110	0x3d3933a7	0.045215275
111	0xbe058b76	-0.13041481
112	0xbcaf8753	-0.021426832
113	0xbd503147	-0.050828245
114	0xbe525611	-0.20540644
115	0x3dfef0e2	0.124482885
116	0x3d8db5fb	0.06919476
117	0x3c820252	0.015870247
118	0xbea94eb9	-0.33067873
119	0x3dc17702	0.09446527
120	0x3d891714	0.06693855
121	0x3d49d3c5	0.049274225
122	0x3e9cb26c	0.30604875
123	0xbe34bccc	-0.17650145
124	0xbdcab8a5	-0.098984994
125	0x3b6c3fb5	0.0036048715
126	0x3d56e41b	0.052463632
127	0xbd9b471b	-0.07581922
128	0xbc8e98cb	-0.017406842
129	0xbce74031	-0.028228851
130	0xbe59fb6e	-0.21287319
131	0x3e1ad841	0.15121557
132	0x3dd0f34d	0.10202656
133	0xbba7c7e2	-0.0051202634
134	0x3cd2c858	0.025730297
135	0x3d9e6b19	0.07735271
136	0x3d2fc495	0.042912085
137	0x3c3acf8d	0.011402023
138	0x3ea66481	0.32498553
139	0xbdb5f211	-0.08884061
140	0x3d35b437	0.04436132
141	0xbb4bd500	-0.00311023
142	0x3cc07b01	0.023496153
143	0xbd8a7a73	-0.067616366
144	0x3d5743a2	0.052554734
145	0x3ab91b58	0.0014122529
146	0x3e9db605	0.30802932
147	0xbe00cea5	-0.12578829
148	0x3c1ab8c6	0.0094434675
149	0x3ba140f8	0.004921075
150	0x3d021109	0.031754527
151	0xbe09af21	-0.13445713
152	0xbc80822e	-0.015687075
153	0xbd565026	-0.05232253
154	0xbe3cafcd	-0.18426438
155	0x3e03de41	0.12877752
156	0x3e1746ee	0.14773151
157	0xbbaec201	-0.0053331857
158	0xbd1b1bc4	-0.037868276
159	0x3d97dcdb	0.07415172
160	0xbabd41d8	-0.0014439179
161	0xbc205429	-0.00978569
162	0x3b1d0c6d	0.0023963705
163	0x3aa9ed3d	0.0012964379
164	0xbaa46acd	-0.0012544036
165	0xb9275185	-0.0001595673
166	0xbbe7546f	-0.007059626
167	0xbc163b4d	-0.009169412
168	0xbc3ae5f3	-0.011407363
169	0xbccd0bc9	-0.025030034
170	0xbe5d22ef	-0.21595357
171	0x3e0c1872	0.136812
172	0x3dff87cf	0.12477075
173	0xbbd87967	-0.006606269
174	0x3c54ebd4	0.012995679
175	0x3da39570	0.07987487
176	0x3d4fcec1	0.050734285
177	0x3d486baf	0.04893082
178	0x3ea25cea	0.31711513
179	0xbe4b6dde	-0.1986613
180	0xbd441e87	-0.047880676
181	0xbbbfd361	-0.0058540558
182	0x3d420a5a	0.047373153
183	0xbce3c132	-0.027802084
184	0xbac274e0	-0.0014835857
185	0xba8e844b	-0.0010873167
186	0x39d1eda0	0.0004004063
187	0x3b001626	0.0019544451
188	0xbc923157	-0.017845793
189	0xbbb0dbb9	-0.0053972867
190	0xbb3423de	-0.0027487199
191	0xbb7c7255	-0.0038520296
192	0x3d90eacd	0.07076035
193	0x3d1abb35	0.03777619
194	0x3e9f98be	0.3117122
195	0xbe54c087	-0.20776568
196	0xbdd5250d	-0.104074575
197	0x3c3942bb	0.011307414
198	0x3d067f91	0.0328365
199	0xbd8f2ffa	-0.06991573
200	0x3d00881b	0.0313798
201	0xbaec4e6c	-0.0018028743
202	0x3eae1948	0.34003663
203	0xbe9ed771	-0.31023744
204	0xbcad9c9e	-0.021192845
205	0x3c1838de	0.009290902
206	0x3cad8a89	0.021184223
207	0xbe9e6fca	-0.30944663
208	0xbcb0036c	-0.021486007
209	0xbcae615f	-0.021286665
210	0xbe471c24	-0.19444329
211	0x3e1af03c	0.15130705
212	0x3d53ea40	0.05173707
213	0x3bf2a5ad	0.007405004
214	0xbed161f9	-0.4089506
215	0x3dc86a97	0.097859554
216	0x3d705886	0.058678173
217	0x3c945919	0.018108891
218	0x3e9afabb	0.30269417
219	0xbe253ac4	-0.16135699
220	0x3d4042e0	0.046938777
221	0xba44a313	-0.00075011066
222	0x3d136b82	0.0359912
223	0xbd951a20	-0.072803736
224	0xbc72cea2	-0.014819773
225	0xbc72e95d	-0.014826146
226	0xbc8821f8	-0.01661776
227	0xbc7a36e5	-0.015271877
228	0xbbf97fbc	-0.007614104
229	0xbc45d3ce	-0.012074424
230	0xbc541806	-0.012945181
231	0xbc2c6b4a	-0.010523627
232	0xbc598bec	-0.013277989
233	0xbd8073d3	-0.06272092
234	0xbe3eec06	-0.18644723
235	0x3e245bba	0.16050616
236	0x3de907ce	0.11378442
237	0x3bd87ca8	0.006606657
238	0xbe267fd3	-0.16259699
239	0x3dc24a8b	0.09486874
240	0x3d3f3331	0.04667968
241	0x3d46ea8a	0.048563518
242	0x3e9cc56c	0.3061937
243	0xbe52312b	-0.20526569
244	0xbd80c2fe	-0.06287192
245	0xbb09c3f7	-0.0021021345
246	0x3d4c1043	0.049820196
247	0xbc5daa75	-0.01352941
248	0x3cca86c4	0.024722464
249	0xbcd8a0b5	-0.026443819
250	0x3ec18a0e	0.3780064
251	0xbe9d1382	-0.30678946
252	0xbd53e6b2	-0.05173368
253	0xbb8018fb	-0.003909228
254	0x3c36402d	0.011123699
255	0xbea8e4f4	-0.32987177

edge_embedding_layer.edge_feature_NN.weight f4 [64, 64]
0	0x3d3bfc23	0.045894753
1	0x3bdaa9ff	0.006673097
2	0x3d1c360b	0.038137477
3	0x3d80c3d4	0.06287351
4	0x3c229df9	0.009925359
5	0x3c06994c	0.00821526
6	0xbd3fd377	-0.046832528
7	0xbd6f287f	-0.05838823
8	0xbd1d382b	-0.038383644
9	0xbcf875d4	-0.030329622
10	0xbd17ef2f	-0.037093338
11	0x3aa17491	0.0012318065
12	0xbbb9a833	-0.005665803
13	0x3d9e08b8	0.07716507
14	0xbd286f49	-0.041121755
15	0x3d86b28a	0.065770224
16	0xbd1ace32	-0.0377943
17	0x3d02e9f4	0.031961396
18	0x3d21c8af	0.039498027
19	0xbb6b75a5	-0.0035928276
20	0x38e5ccfb	0.000109577515
21	0xbd101ef1	-0.035185758
22	0x3d3e8f97	0.046523657
23	0x3b299970	0.002587881
24	0x3d497ac4	0.049189344
25	0x3e0bc8c6	0.13650808
26	0xbdbdc7f6	-0.09266655
27	0x3d4d5bae	0.05013626
28	0xbb0ea57f	-0.0021766124
29	0xbd6b5d19	-0.05746183
30	0x3d47e001	0.04879761
31	0x3e05027a	0.12989226
32	0xbd5042ae	-0.05084484
33	0xbd2abb44	-0.041682497
34	0x3dadc321	0.084844835
35	0xbc1730a8	-0.009227909
36	0x3d447ec2	0.04797245
37	0xbd1edd5a	-0.038785316
38	0xbd4cdd4d	-0.050015736
39	0x3d814d44	0.063135654
40	0xbd0fb8c9	-0.035088334
41	0x3d5c849a	0.053837396
42	0x3cb0e4dc	0.021593504
43	0x3d998a1e	0.07497047
44	0x3b5e7067	0.0033941509
45	0xbcab5403	-0.020914083
46	0xbd011d32	-0.031521983
47	0xbb132378	-0.002245156
48	0x3b0960f6	0.0020962334
49	0xbd4034e1	-0.04692543
50	0x3c8e4d97	0.017370982
51	0xbc29b62f	-0.010358377
52	0x3cef60f1	0.02922103
53	0x3c54a5f9	0.012979024
54	0xbd1ced01	-0.038311962
55	0x3cf99a31	0.030469032
56	0x3d9b46df	0.07581877
57	0x3e006258	0.12537515
58	0x3c182ddc	0.0092882775
59	0x3c9b18cd	0.018932724
60	0x3d3262f3	0.043551397
61	0x3db41a92	0.087941304
62	0x3d2c3246	0.042040132
63	0x3d5b3eab	0.05352656
64	0xbc303ff4	-0.010757435
65	0xbc05461d	-0.008134392
66	0x3acbe4e5	0.0015555887
67	0x3c06c416	0.0082254615
68	0x3afbc13b	0.0019207367
69	0x3b0dc229	0.002163062
70	0x3bf8190b	0.0075713447
71	0x3c0fc407	0.008774764
72	0xbbf16fc0	-0.007368058
73	0xbc05bb90	-0.008162394
74	0xbc43b55a	-0.011945093
75	0x3a0b30f0	0.00053097215
76	0x3c61c0a9	0.013778844
77	0x3bcc8d7b	0.0062424517
78	0x3b309bde	0.0026948373
79	0xbc6ff1ae	-0.014645023
80	0x38ce2614	9.829938e-05
81	0x3bfcbd0f	0.007712967
82	0x3c04536f	0.008076533
83	0xbb091872	-0.0020919112
84	0xbc1671cf	-0.0091824075
85	0xbc1403b8	-0.00903409
86	0xbb964366	-0.0045856712
87	0xbcca8800	-0.024723053
88	0x3bc8d0ac	0.0061283913
89	0x3c2f1bb4	0.010687757
90	0xbc026435	-0.0079584615
91	0xbb3c7db2	-0.0028761444
92	0x3c4cccdb	0.012500013
93	0xbcac9ed0	-0.021071821
94	0x3ba3b3e2	0.004995809
95	0x3b97d3f0	0.004633419
96	0xb86cf069	-5.6490684e-05
97	0xbc7fc71e	-0.015611438
98	0xbc2defb4	-0.010616232
99	0xbb45fb0a	-0.0030209445
100	0xbcbaf724	-0.022822924
101	0x3b9752c7	0.004618022
102	0xbbac1fcd	-0.0052528144
103	0x3c1577d6	0.009122809
104	0x3a1af863	0.00059116463
105	0x3c5081b3	0.012726235
106	0x3b92ae4a	0.0044763433
107	0x3b841c8f	0.0040317248
108	0xbb22c8db	-0.0024838957
109	0xbc4a5853	-0.01235016
110	0xba183dd0	-0.00058075506
111	0x3c88aab7	0.016682966
112	0x3c5be4bb	0.013421233
113	0x3a4147f3	0.0007373087
114	0x3bb4e0f0	0.0055199787
115	0x3b6370ea	0.0034704753
116	0xbcc0dd45	-0.02354301
117	0xbc486df4	-0.012233246
118	0x3b85bdde	0.004081472
119	0xbc9396b4	-0.018016197
120	0xbc0d2da8	-0.008616842
121	0xbbdc8050	-0.006729163
122	0xbbaee179	-0.005336937
123	0x3a03acbd	0.00050229934
124	0x3b6e4b69	0.0036360866
125	0xbb84c5f2	-0.004051917
126	0x3c138cce	0.009005738
127	0xbcf299d2	-0.029614363
128	0x3cad2b56	0.021138828
129	0xbbd022fb	-0.0063518262
130	0x3c7ccb5c	0.015429344
131	0x3cd1d79c	0.025615506
132	0xbc3e3d2e	-0.011611266
133	0xbb84ebc2	-0.004056425
134	0xbbb1c6f4	-0.0054253284
135	0x3bd4e46f	0.006496958
136	0x3d3b691d	0.04575454
137	0xbbbeb7cc	-0.00582025
138	0x3b143b5c	0.0022618389
139	0x3b10207a	0.0021992014
140	0xbafb3ae3	-0.001916733
141	0x3c27d939	0.010244661
142	0xbc615c09	-0.013754853
143	0xbac4b22a	-0.001500671
144	0xbad6bd5f	-0.0016383341
145	0xbc5cdf04	-0.013480905
146	0xbcdb4b73	-0.026769375
147	0x3b58f66a	0.0033105859
148	0xbcc653fd	-0.02420997
149	0x3c84636a	0.016160686
150	0x3c3c1152	0.011478739
151	0x3b86e627	0.0041167918
152	0xbc355c16	-0.011069318
153	0xbdda3ae1	-0.106557615
154	0xbc1fcffa	-0.009754175
155	0xbd326d3c	-0.043561205
156	0xbbf69535	-0.007525111
157	0xba97b922	-0.001157556
158	0x3bee3dbf	0.0072705443
159	0xbe1cb776	-0.1530436
160	0x3ca1e845	0.019764075
161	0x3cb3e4e0	0.021959722
162	0x3b81473e	0.0039452603
163	0x3d189595	0.037252028
164	0x3c96be64	0.018401332
165	0x3c76d555	0.015065511
166	0x3c807cf5	0.015684584
167	0x3cf881a0	0.030335248
168	0x3d069474	0.03285642
169	0xbd827fee	-0.06372057
170	0xbb528357	-0.0032121742
171	0x3c91f5f7	0.01781748
172	0xbb48607b	-0.0030575085
173	0x3d34af22	0.044112332
174	0x3d44a0db	0.048004966
175	0x3c384fd8	0.011249505
176	0xbc58d26b	-0.013233761
177	0x3cd58f04	0.026069172
178	0xb90d89bd	-0.0001349812
179	0x3c36160b	0.011113654
180	0x3cec629a	0.02885561
181	0x3acd6703	0.0015670959
182	0x3cd9a4eb	0.026567897
183	0xbd30d8e1	-0.04317558
184	0xbccc4458	-0.024934933
185	0xbd456677	-0.04819342
186	0x3b9e3c1b	0.0048289425
187	0x3c1a18e2	0.009405347
188	0x3c976a6f	0.018483369
189	0x3bd97e58	0.006637376
190	0x3ce0129d	0.027352626
191	0xbb027d6c	-0.0019911183
192	0xbc64669c	-0.01394048
193	0xbbe11e57	-0.006870072
194	0xbc1844c6	-0.009293741
195	0x3c0bc6d4	0.008531291
196	0x3b5b1fe5	0.0033435759
197	0xbc06ab8d	-0.008219612
198	0xbc22d12a	-0.009937564
199	0x35f1eb25	1.8024335e-06
200	0x3bd59b52	0.0065187598
201	0xbacde4c1	-0.0015708433
202	0x3c0ae14f	0.008476569
203	0xbbf11adc	-0.007357938
204	0xbb971dd7	-0.0046117115
205	0x3b13a07e	0.002252608
206	0xbc10207d	-0.008796808
207	0xbb18d0e3	-0.0023317866
208	0xbc8ee465	-0.017442891
209	0x3bc7cc73	0.0060973703
210	0xbc816c24	-0.015798636
211	0xbba69a27	-0.0050842944
212	0x3b87c0a2	0.0041428367
213	0xbb974283	-0.004616083
214	0xb88678ba	-6.412105e-05
215	0xbb1cd23a	-0.0023929016
216	0x3b24f554	0.002517064
217	0xbc288a92	-0.010286944
218	0xbb48f6d8	-0.0030664708
219	0x3c013fed	0.007888776
220	0x3c3181f8	0.01083421
221	0xba960320	-0.0011445023
222	0xbb307756	-0.0026926599
223	0xba8412e0	-0.0010076426
224	0xbc858e08	-0.016303077
225	0x3bea81c1	0.007156581
226	0x3a88d0fb	0.0010438258
227	0x39478a4a	0.00019029636
228	0x3a6bbbd8	0.00089925295
229	0xbbb77335	-0.0055984505
230	0xbbb8831d	-0.0056308643
231	0x390ac7cf	0.0001323514
232	0xbbb30f06	-0.0054644374
233	0xbb89bf46	-0.00420371
234	0x390305e2	0.00012495325
235	0xb95c5f24	-0.00021016278
236	0x3c8fa7c0	0.017536044
237	0x3c8b199f	0.01697999
238	0xbc5d5942	-0.01351005
239	0x3bbb3935	0.0057136067
240	0xba249bc1	-0.00062793127
241	0xb9a491a7	-0.00031389037
242	0x3b473395	0.0030395736
243	0xbc5a2fdb	-0.013317074
244	0xba1649a6	-0.00057330204
245	0x3bb355bd	0.0054728673
246	0xbacdc1cb	-0.0015698014
247	0xbbfbfa05	-0.0076897168
248	0x3c57cca2	0.013171347
249	0xbc5dbc3b	-0.013533647
250	0xb9bc8578	-0.00035957596
251	0xba22f04f	-0.00062156183
252	0xbb065416	-0.0020496896
253	0xbc0deb9f	-0.0086621335
254	0x3bd47b37	0.006484415
255	0xbb9e6e9d	-0.0048349635

update_node_embedding_layer.0.message_layer.weight f4 [64, 128]
0	0xbc9c22c1	-0.01905954
1	0x3ae57d81	0.0017508717
2	0xbc67072d	-0.014100832
3	0xbb8a4754	-0.0042199288
4	0xbc92801a	-0.01788335
5	0x3c3a54a3	0.011372718
6	0x3bfd2931	0.0077258577
7	0x3b6a8d6e	0.0035789865
8	0xbc0ad4cf	-0.008473589
9	0xbc9c8d65	-0.01911039
10	0x3bd03c38	0.006354835
11	0xbcaa1045	-0.020759711
12	0xbc88d541	-0.01670325
13	0xbc5f2453	-0.0136195
14	0x3b215f90	0.002462361
15	0xba78c1cb	-0.00094893266
16	0xbc86d11f	-0.016457139
17	0xbb73953f	-0.0037167815
18	0xbb63882b	-0.0034718614
19	0x3ba99200	0.0051748753
20	0xbc40843b	-0.011750276
21	0xbccf5698	-0.025309846
22	0xbc3ec934	-0.01164465
23	0xbc3f5a57	-0.011679254
24	0x3c8ceebc	0.017203681
25	0x3c1858b3	0.009298491
26	0xbbdf6335	-0.0068172463
27	0xbb855148	-0.0040685274
28	0xbbc5af98	-0.0060328953
29	0xbc9afbe1	-0.018918933
30	0xbc0d20ff	-0.008613824
31	0x3c3d8da5	0.011569415
32	0xbaf72e49	-0.0018858399
33	0x3c07ff23	0.008300575
34	0x3b7578e3	0.0037456087
35	0xbba1efb0	-0.004941903
36	0xbbd959ec	-0.006633034
37	0xbb9c9303	-0.0047782674
38	0xbc9c59e0	-0.019085824
39	0xbc4e8239	-0.01260429
40	0xbbb2d960	-0.005458042
41	0x3b9f3470	0.004858546
42	0xbca0574c	-0.019572876
43	0xbc7b94b4	-0.015355278
44	0x3b732be2	0.0037105014
45	0x3c1dfd00	0.009642839
46	0xbc429fce	-0.011878921
47	0xb714f500	-8.878531e-06
48	0xbc234eeb	-0.009967546
49	0x3c1b6386	0.009484177
50	0xbb94e507	-0.0045439037
51	0xbbb05c0e	-0.0053820675
52	0xb948c84c	-0.00019148103
53	0x3b81be1a	0.0039594295
54	0xbcb4fc29	-0.022092896
55	0x3c2d8026	0.010589635
56	0xbbede422	-0.0072598616
57	0xbc2384cf	-0.0099803945
58	0xbc4b9017	-0.01242449
59	0xbbad9127	-0.0052968445
60	0xba5305d9	-0.00080498826
61	0x3c975d96	0.018477242
62	0x3c023bdf	0.007948845
63	0xbb1bffe5	-0.0023803648
64	0xbbce0970	-0.006287746
65	0xbb1f3f76	-0.00242993
66	0x3c2bc9a9	0.010485091
67	0xbc4a63bd	-0.012352881
68	0xba8a72ca	-0.0010562774
69	0xba2d4be5	-0.00066107354
70	0xbc697fcb	-0.01425166
71	0x3b94909b	0.00453384
72	0xbc11708e	-0.008876933
73	0xbb00e923	-0.001967021
74	0xbc0f88f2	-0.008760678
75	0x3c60e5df	0.013726681
76	0xbbd9b47f	-0.0066438313
77	0x3b8eb015	0.0043544867
78	0x3ae442e3	0.0017414953
79	0x3ca7206d	0.020401204
80	0xbb8d519f	-0.0043127085
81	0x3a04d92d	0.0005067762
82	0xbaa54a8c	-0.0012610718
83	0xbbac23d7	-0.005253296
84	0xbbd8ceb0	-0.006616436
85	0x3a544b39	0.0008098367
86	0xbc0b59b4	-0.008505274
87	0x3c6209b5	0.01379626
88	0x3b3ee9b5	0.0029131
89	0x3a97ac0d	0.0011571661
90	0x3a7abd20	0.0009564925
91	0x3c5eb829	0.013593712
92	0xbc83cc1a	-0.016088534
93	0xbc6453a1	-0.013935954
94	0xbbbe14a8	-0.0058008023
95	0x3ca5b5f8	0.020228371
96	0x3c38cd99	0.011279487
97	0xbc97e2b4	-0.018540718
98	0x3c629dca	0.013831565
99	0xbaacfb45	-0.0013197443
100	0x387dc87b	6.0506612e-05
101	0xbb0b3c1e	-0.002124555
102	0xbc177049	-0.009243079
103	0x3cc843ae	0.024446335
104	0x3b1c2ff5	0.0023832296
105	0xbb3391ec	-0.0027400209
106	0x3b7436c0	0.003726408
107	0x3b975742	0.0046185562
108	0xbc413f67	-0.011794901
109	0xbcc29778	-0.023753867
110	0x3becdd1b	0.0072285063
111	0xbbbac510	-0.005699761
112	0xbc21deea	-0.009879807
113	0x3c729569	0.01480613
114	0xbbdc6f53	-0.006727138
115	0x3c08b937	0.00834494
116	0x3aed3f71	0.0018100572
117	0x3ae5bb54	0.0017527142
118	0x3bdd1c90	0.0067477897
119	0xbc39376b	-0.011304717
120	0x3b93a6bb	0.00450596
121	0x3c065456	0.008198818
122	0xbc000146	-0.007812804
123	0xbc5c405c	-0.013443079
124	0xbb38e372	-0.002821174
125	0x3ad2f1cf	0.0016093793
126	0x3b82fe9a	0.003997636
127	0xbb6c5618	-0.0036062058
128	0x3c483f34	0.0122221
129	0xbd223f7e	-0.039611332
130	0x3da6efe8	0.08151227
131	0x3ce4ac17	0.02791409
132	0xbb9aafee	-0.0047206795
133	0x3c7700d2	0.015075879
134	0x3de7bcf7	0.11315339
135	0x3c85f5a0	0.016352475
136	0x3a2e17da	0.00066411274
137	0x3de60aa4	0.11232498
138	0x3d03e5ae	0.03220146
139	0x3c976652	0.018481407
140	0x3db65033	0.089020155
141	0xbc33ee17	-0.010982058
142	0xbc073bb8	-0.008253984
143	0x3c4aa241	0.012367786
144	0xbda26cdd	-0.0793092
145	0xbc51d54c	-0.012807202
146	0xbb67e554	-0.0035384493
147	0x3d37b080	0.044846058
148	0x3df28df8	0.11843485
149	0x3b1612b3	0.002289933
150	0x3d4f65d2	0.050634213
151	0x3c6dd3de	0.014515845
152	0xbbc9206a	-0.0061378973
153	0xbcb9d3bb	-0.022683969
154	0x3dc46089	0.09588725
155	0x3c365618	0.011128925
156	0x3dcac9d5	0.09901778
157	0xbd095fc4	-0.033538595
158	0xbe2051ec	-0.1565625
159	0x3d1ff93c	0.039056048
160	0xba71bcbd	-0.00092215446
161	0xbc2002a2	-0.009766253
162	0x3da310bd	0.07962177
163	0x3b5a4b35	0.0033308987
164	0xbbceff7c	-0.006317077
165	0xbb28c36d	-0.0025751248
166	0xbd43bb1e	-0.04778587
167	0x3ca434f0	0.020044774
168	0x3972360c	0.00023099052
169	0x3b7ad1a6	0.0038271933
170	0x3d08bddc	0.03338419
171	0xbd89e4b6	-0.06733076
172	0x3cac1b1c	0.02100902
173	0xbae71472	-0.0017629995
174	0x3d5dc142	0.054139383
175	0xbd28df00	-0.041228294
176	0x3d2947b5	0.04132815
177	0xbc8ac9b0	-0.016941875
178	0x3d90086d	0.07032857
179	0x3d91a4f8	0.071115434
180	0x3a1cd722	0.0005982985
181	0xbac5ca00	-0.0015090108
182	0x3bdfb4ba	0.006826964
183	0x3d2a8657	0.041632023
184	0xbb21a5cb	-0.002466547
185	0x3bf7e152	0.007564702
186	0x3ddfb8c5	0.10923914
187	0xbcaef3c7	-0.021356476
188	0x3dbb7214	0.09152618
189	0x3baadf01	0.0052145724
190	0xbdc1a02f	-0.09454381
191	0x3d977664	0.07395628
192	0xba48e3ef	-0.0007663359
193	0xba04de7e	-0.00050685543
194	0x3c9fcffe	0.019508358
195	0xbbefd5f3	-0.007319206
196	0x3d033731	0.032035057
197	0x3c1813fc	0.009282108
198	0x3b05d84a	0.0020423108
199	0x3b0325e8	0.0020011608
200	0xbc195a3a	-0.009359891
201	0xbc88799d	-0.016659552
202	0x3d149d15	0.036282618
203	0xbc68d942	-0.014211955
204	0xbd82e495	-0.06391255
205	0x3d611cd7	0.054959144
206	0xbba36a20	-0.0049870163
207	0xbb9f95a7	-0.004870135
208	0xbc95fddf	-0.018309532
209	0x3c1c70c3	0.009548369
210	0xbc32fc73	-0.010924446
211	0xbb7fdebc	-0.0039042672
212	0x3a491629	0.00076708436
213	0x3d1485e8	0.036260515
214	0xbbf6db0f	-0.007533438
215	0xbdc75f1d	-0.09734938
216	0xbcc8fec8	-0.024535552
217	0xbc9d6578	-0.019213423
218	0x3e55e9b3	0.2088993
219	0xbc137c05	-0.0090017365
220	0x3c1d68ee	0.009607537
221	0xbcc722a5	-0.024308512
222	0xbc622706	-0.013803249
223	0xbc9b4ea6	-0.018958401
224	0x3de798f5	0.11308471
225	0xbcc1722a	-0.023614008
226	0xbc443293	-0.011974948
227	0xb8f1a10a	-0.000115217714
228	0xbc97e9e7	-0.01854415
229	0xbb195592	-0.002339695
230	0xbc0342e5	-0.008011554
231	0xbd0fa6df	-0.03507125
232	0xbb88de9f	-0.004176929
233	0xbce9390a	-0.028469581
234	0xbcf699a8	-0.030102566
235	0xbc6551b3	-0.013996529
236	0xbc97d0ca	-0.018532176
237	0xbc9570b5	-0.01824222
238	0xbcf83f42	-0.030303601
239	0xbcd6fc2b	-0.02624329
240	0x3c8f8df3	0.017523741
241	0xbbb0fe9a	-0.0054014446
242	0xb9ca69e5	-0.0003860734
243	0x3c74daa9	0.014944711
244	0x3c2c2f9e	0.0105094
245	0x3c4e369c	0.012586262
246	0xbbc6eb0b	-0.0060705
247	0xbc9f7564	-0.019465156
248	0xbd18b8b9	-0.03728554
249	0x3b4f5161	0.00316342
250	0xbc549177	-0.012974135
251	0xbc06a807	-0.008218772
252	0xbc9ed8ab	-0.019390425
253	0x3b0e6a08	0.002173068
254	0x3dadf577	0.08494084
255	0xbbb9d69d	-0.005671336

update_node_embedding_layer.0.update_layer.weight f4 [64, 128]
0	0x3bf605d7	0.0075080204
1	0x3bdf6e4b	0.006818568
2	0x3a62f235	0.00086573075
3	0xbba921c8	-0.0051614977
4	0x3bf3be54	0.0074384604
5	0xbc442742	-0.01197225
6	0xbbb97a0d	-0.0056603015
7	0xbacb5ba8	-0.0015514987
8	0x3bd251f7	0.0064184624
9	0x3c6c7e8f	0.014434471
10	0xbc3dfb84	-0.0115956105
11	0xbada4d45	-0.0016655108
12	0xbca535e6	-0.020167302
13	0xba325a05	-0.0006803575
14	0xbb0d007e	-0.0021515186
15	0xbc04be57	-0.008102021
16	0x3c43c989	0.011949905
17	0x39cc102d	0.00038921964
18	0xbc682ae5	-0.014170383
19	0xbb518af1	-0.0031973685
20	0xba4aa308	-0.0007729982
21	0xbc223fe4	-0.009902928
22	0xbc1d2f24	-0.009593759
23	0xbb8e6dcc	-0.004346585
24	0xbc29667b	-0.010339375
25	0xba2c5b7d	-0.0006574912
26	0xbc46e2b1	-0.012139008
27	0xba300e6e	-0.00067160174
28	0x3af31270	0.0018544924
29	0xbc2ae303	-0.0104301
30	0x3c290046	0.010315007
31	0xbbc986ba	-0.006150094
32	0xbca5f789	-0.020259636
33	0xbd09ad1d	-0.03361236
34	0xbc12288d	-0.008920801
35	0x3bcdcc8f	0.006280489
36	0x3c51ebcc	0.012812566
37	0x390a9601	0.00013216586
38	0xbc062897	-0.008188388
39	0x3c8cd89e	0.017193135
40	0x3c29734d	0.010342431
41	0xbb8fb0c4	-0.004385086
42	0x38757f5a	5.8531157e-05
43	0xbc11caa0	-0.008898407
44	0xbbf162e8	-0.007366527
45	0x3c671010	0.014102951
46	0xbcc74ff0	-0.02433011
47	0x3b9b9746	0.004748258
48	0xbc6f733c	-0.014614876
49	0x3b92cbab	0.0044798455
50	0xbb914f9b	-0.0044345385
51	0xbc11c791	-0.008897678
52	0xbc3143d6	-0.010819396
53	0xbbee4ddc	-0.007272465
54	0xbb95a3a7	-0.004566628
55	0x3911a3bc	0.00013889273
56	0xbae6172b	-0.0017554512
57	0xbc5588fb	-0.013033147
58	0x3ba6cf59	0.0050906357
59	0xbbde83be	-0.0067906072
60	0xbaffe9d4	-0.0019524642
61	0xbbfac709	-0.0076531214
62	0x3ca0e5a5	0.019640753
63	0x396b4b8d	0.00022439491
64	0x3c4bffcc	0.012451123
65	0x3b80bd43	0.0039288118
66	0x3c126bbc	0.008936819
67	0x3b5a3bff	0.003329992
68	0xbb8bb7e9	-0.004263867
69	0xbba25b70	-0.004954748
70	0x3c52af60	0.0128591955
71	0xbb678c76	-0.0035331524
72	0xbbd50efc	-0.0065020304
73	0x3be4f30c	0.0069869813
74	0x3bed38e9	0.0072394502
75	0xba428508	-0.0007420336
76	0x3c81d1cf	0.015847115
77	0x3abd19ae	0.0014427209
78	0xbbdb1dae	-0.0066868877
79	0x3b67e77d	0.003538578
80	0x3c8ac9bb	0.016941896
81	0xbc283cba	-0.010268385
82	0x3be60133	0.007019186
83	0x3a9f1042	0.0012135583
84	0x3c203a9e	0.0097796
85	0xbc34828f	-0.011017456
86	0xbc10ffd1	-0.008850054
87	0x3b1b513a	0.0023699538
88	0xbc1ec635	-0.009690811
89	0xbc4752e8	-0.0121657625
90	0x3cabce5c	0.020972423
91	0x3c73c974	0.014879573
92	0x3a8c76e1	0.0010716581
93	0x3c88d9d7	0.016705437
94	0xbb37c321	-0.002803989
95	0xbb807590	-0.0039202645
96	0x3b53e6fc	0.0032333722
97	0x3c48cdde	0.012256114
98	0x3aa02a8a	0.0012219709
99	0xbc2aefde	-0.010433165
100	0xbc8025ad	-0.015642965
101	0xbbad09da	-0.0052807154
102	0xbc3bbae8	-0.011458136
103	0xbbaa7bf0	-0.005202763
104	0xbc4c2417	-0.012459776
105	0x3c7b66a2	0.015344294
106	0xbc7b43e6	-0.0153360125
107	0xbc29fde0	-0.01037547
108	0xbac78e43	-0.0015224892
109	0xbcdec525	-0.027193615
110	0xbc9a8b57	-0.01886527
111	0xbbd0b97a	-0.006369767
112	0xbb786cc5	-0.0037906629
113	0x3b316a23	0.002707132
114	0xbbb7a87b	-0.0056048012
115	0xbc161b64	-0.009161804
116	0xbc24bd38	-0.010054879
117	0xbc43046c	-0.01190291
118	0xbc241296	-0.010014197
119	0x3b8a76a9	0.004225571
120	0xbb109f8b	-0.0022067751
121	0x3bb2cce3	0.0054565533
122	0x3cd234bb	0.02565991
123	0xbcbd9b09	-0.023145216
124	0xbbe2c894	-0.0069208834
125	0x3b5d8d15	0.0033806015
126	0xbb247746	-0.0025095507
127	0x3c760013	0.015014666
128	0x3e022a61	0.12711479
129	0x3d5a68a4	0.05332245
130	0xbbe3fb7d	-0.00695747
131	0xbdfc6661	-0.12324215
132	0xbbadeb00	-0.005307555
133	0xbbaef6d1	-0.0053394814
134	0xbdc3994a	-0.09550722
135	0x3ccb4885	0.024814853
136	0x3d04cda5	0.03242268
137	0xbd803d99	-0.06261749
138	0xbd1de68d	-0.03854995
139	0x3d33e0ed	0.043915678
140	0xbd55b9e1	-0.05217922
141	0x3ccf68b0	0.025318474
142	0x3d249604	0.04018213
143	0xbd607c17	-0.05480584
144	0x3d7973a1	0.060901288
145	0xbe45490b	-0.19266145
146	0x3d3ec45f	0.046573993
147	0xbe4142e7	-0.18873177
148	0xbd67b795	-0.05657156
149	0x3d1c7098	0.038193315
150	0x3d0fbb1d	0.035090555
151	0x3b35cfeb	0.0027742337
152	0xbc978dd0	-0.018500239
153	0xbdd15b00	-0.10222435
154	0xbd37008e	-0.044678263
155	0x3bf57dec	0.0074918177
156	0xbd134ef2	-0.03596396
157	0x3d0c146d	0.034199167
158	0x3da87d87	0.082270674
159	0x3ba69d35	0.0050846585
160	0xbc516d69	-0.012782433
161	0xbe4e2bf7	-0.20133959
162	0xbda3f4eb	-0.08005699
163	0x3c8452b1	0.016152712
164	0x3d85f6e8	0.06541234
165	0x3d4eba0c	0.050470397
166	0x3dc44e5c	0.09585258
167	0xbd6e9634	-0.058248714
168	0x3ca0d5ed	0.019633258
169	0x3983f395	0.0002516775
170	0x3d9236c1	0.0713935
171	0x3d04070a	0.032233275
172	0xbd301af0	-0.04299444
173	0xbbc36d41	-0.005963952
174	0xbcdf0628	-0.027224615
175	0xbdf21eb7	-0.11822265
176	0xbe3cc888	-0.18435872
177	0x3d75de25	0.060026307
178	0xbd5d7bf8	-0.054073304
179	0xbe4c2e99	-0.1993965
180	0x3d5f5c23	0.054531228
181	0x3e03e3fe	0.12879941
182	0x3d6734c7	0.056446817
183	0xbe15ce8b	-0.14629571
184	0xbc532f28	-0.012889661
185	0x3c472bba	0.012156421
186	0xbdf05092	-0.117341176
187	0x3c9bb650	0.019007832
188	0xbe121937	-0.14267431
189	0x3d82f450	0.06394255
190	0x3db1a0fa	0.08673282
191	0x3c4d7831	0.012540863
192	0xbb5fe0b6	-0.0034161038
193	0x3cf59776	0.029979449
194	0x3cbfd746	0.02341808
195	0x3ac08a28	0.0014689611
196	0xbccf36bc	-0.025294654
197	0xbc079711	-0.008275763
198	0x3b34e914	0.0027604746
199	0xbc323300	-0.010876417
200	0xbcbeb285	-0.023278484
201	0xbb9031ec	-0.0044004824
202	0xbd183e5d	-0.03716885
203	0xba3c14f0	-0.0007174751
204	0xbc641dab	-0.013923089
205	0x3c4631d7	0.012096844
206	0x3b9d4959	0.0048000035
207	0xbd419965	-0.04726543
208	0xbcdb25a0	-0.02675134
209	0x3b92d2c5	0.004480692
210	0xbc9583ca	-0.018251318
211	0xb90f13fc	-0.00013644987
212	0x3c0c5fed	0.008567792
213	0x3b2593ea	0.0025265166
214	0x3d091d1d	0.03347503
215	0xbbf53fd0	-0.0074844137
216	0xbd2a7bf8	-0.041622132
217	0xbc8fc198	-0.017548367
218	0x3b68e999	0.0035539626
219	0x3b872a30	0.004124902
220	0x3be28274	0.006912524
221	0xbbe90609	-0.007111315
222	0xbc932397	-0.017961306
223	0x3bb18369	0.0054172766
224	0x3b397e5b	0.0028304073
225	0xbbf53f82	-0.0074843774
226	0xbd716d00	-0.05894184
227	0xbd915965	-0.07097129
228	0xbd163bcf	-0.03667813
229	0x3c797fb8	0.015228204
230	0x3acd9b36	0.0015686515
231	0x3d9a2a81	0.07527638
232	0x3c06073b	0.008180435
233	0xbba06bca	-0.004895662
234	0x3c4efc40	0.012633383
235	0xbbe622ad	-0.0070231766
236	0xbd8bc443	-0.06824543
237	0x3c41230c	0.011788141
238	0xbcbc078c	-0.022952817
239	0x3c800546	0.015627515
240	0x3a023801	0.00049674517
241	0xbd769851	-0.060203854
242	0xbca9a691	-0.020709308
243	0xbda719f2	-0.081592456
244	0x3cae8510	0.021303684
245	0xbd4a4534	-0.049382403
246	0xba3fea74	-0.0007321008
247	0xbc438db1	-0.011935637
248	0x3c4de29e	0.012566237
249	0x3c28a891	0.010294096
250	0xbc5cf29c	-0.013485577
251	0x3c0317d3	0.008001286
252	0xbbea5189	-0.007150833
253	0xbc33bdf1	-0.0109705785
254	0xbcd90a06	-0.026494037
255	0xbc0c7a69	-0.008574107

update_node_embedding_layer.1.message_layer.weight f4 [64, 128]
0	0xbb20c970	-0.0024534129
1	0xbd71d520	-0.059041142
2	0x3c9032f2	0.017602418
3	0x3e4f9b03	0.20273976
4	0xbd2dabb4	-0.042400077
5	0x3b034763	0.0020031563
6	0xbd374f17	-0.04475316
7	0xbcd5ed82	-0.02611423
8	0xbd34ec75	-0.044170815
9	0xbd0c7d35	-0.034299094
10	0xbd5c8e94	-0.05384691
11	0xbd6035ee	-0.05473893
12	0xbd9181d2	-0.071048394
13	0xbd6ff6ca	-0.058584966
14	0xbcd09933	-0.025463676
15	0x3bf77762	0.0075520733
16	0x3e8b7530	0.27237844
17	0xbc26d350	-0.010182217
18	0x3e68ccb6	0.22734341
19	0xbd6034b8	-0.054737777
20	0x3cf03a2e	0.029324617
21	0xbd4636f1	-0.04839224
22	0xbd335427	-0.043781426
23	0xbd8c5898	-0.068528354
24	0xbd37889e	-0.044808023
25	0x3b5a7c86	0.0033338382
26	0xbb039b7f	-0.0020081697
27	0xbd6b7948	-0.05748871
28	0x3c737182	0.014858605
29	0x3c25b5f0	0.010114178
30	0xbd336a7e	-0.04380273
31	0x3c358b3e	0.011080561
32	0x3cd9707b	0.026542893
33	0xbc8305f3	-0.015994048
34	0xbd1ce6c8	-0.038306028
35	0x3d47cf2c	0.04878156
36	0x3b859dc8	0.004077647
37	0x3d14fb66	0.036372565
38	0xbd49a455	-0.049228985
39	0x3ce83e23	0.028349942
40	0xbd7a1c0a	-0.061061896
41	0x3e570e72	0.21001604
42	0x3eac7305	0.33681503
43	0xbcb94a34	-0.02261839
44	0xbcb312cf	-0.021859555
45	0xbc91e34d	-0.01780858
46	0xbd22af91	-0.039718214
47	0x3adc3f7e	0.001680359
48	0xbc8ec2bd	-0.017426843
49	0x3f012985	0.5045398
50	0xbd7a6886	-0.061134838
51	0xbb0e87c0	-0.0021748394
52	0x3c0d4158	0.008621536
53	0xbba4e7e9	-0.0050325287
54	0x3e4ee04c	0.2020275
55	0xbd48fb1d	-0.049067605
56	0x3ca57386	0.020196687
57	0xbc103f8d	-0.008804214
58	0xbd34cead	-0.044142414
59	0xbc38a68f	-0.011270179
60	0x3c0fd767	0.008779383
61	0xbbe4a435	-0.006977583
62	0xbd55a44b	-0.052158635
63	0x3cab11af	0.020882456
64	0xbc07906e	-0.008274181
65	0xb99a7dc1	-0.00029466863
66	0x3d1f8e0b	0.038953822
67	0xbbcf9efe	-0.006336092
68	0xbc5d6636	-0.0135131385
69	0xbab257a1	-0.0013606438
70	0xbc745543	-0.014912906
71	0xbcafd685	-0.021464596
72	0x3c6ef60e	0.014585031
73	0xbce94874	-0.028476931
74	0x3d6e1a74	0.058130696
75	0xbc22c62d	-0.009934944
76	0xbd04c90a	-0.03241829
77	0xbb4d8a8f	-0.0031363105
78	0xbc6ac593	-0.014329332
79	0x3c0b4e76	0.008502593
80	0x3b49225e	0.003069065
81	0x3c10fb15	0.008848925
82	0xbc99aadd	-0.018758232
83	0x3b371bf4	0.0027940245
84	0xbbb91913	-0.005648741
85	0x3cdfb21b	0.027306607
86	0xbb939649	-0.0045039994
87	0xbc0497f1	-0.008092866
88	0xbc0d3e98	-0.008620881
89	0xbcf29e43	-0.02961648
90	0xbcbe3ee2	-0.023223344
91	0xbbc93a82	-0.006141008
92	0xbc8ed477	-0.017435296
93	0x3c25bf4a	0.010116408
94	0xbbde0e5d	-0.0067766146
95	0xbc577bef	-0.013152107
96	0xbd630492	-0.05542428
97	0xbbf1b515	-0.007376323
98	0x3c2fcb4d	0.010729623
99	0xbb8d5610	-0.004313238
100	0xbd01a621	-0.031652573
101	0xbce2795f	-0.027645765
102	0xbc2f37cb	-0.010694454
103	0xbc828ca5	-0.015936205
104	0xbc962158	-0.018326446
105	0xbc0e1cae	-0.00867383
106	0xbba51889	-0.005038325
107	0xbc203dc6	-0.009780353
108	0xbc5cd6fc	-0.013478991
109	0xbceeec9c	-0.029165559
110	0x3adb625f	0.0016737691
111	0xbcb63260	-0.022240818
112	0x3d142459	0.036167476
113	0xbb80b9cc	-0.0039283987
114	0x3b681a41	0.003541604
115	0xbbc7a210	-0.0060923174
116	0xbc848c5a	-0.016180206
117	0xbb16b80a	-0.002299788
118	0x3bf3bc15	0.0074381926
119	0xbbf099a2	-0.007342533
120	0x3ce99aa5	0.028516123
121	0xbb9e397e	-0.004828631
122	0x3b1c0a4e	0.0023809853
123	0xbc1f74b6	-0.009732416
124	0xbc98a1ae	-0.018631782
125	0xbbfce42c	-0.00771763
126	0x3ba3c7fc	0.004998205
127	0xbbeebd12	-0.0072857225
128	0x3a78809e	0.00094796147
129	0x3d84857e	0.06470774
130	0xbc00e939	-0.007868105
131	0xbd37eed8	-0.044905514
132	0x3d4cd9ca	0.050012387
133	0x3ba9b1f3	0.005178684
134	0xbbd1141c	-0.006380571
135	0x3d59d2a9	0.053179417
136	0x3dc07abe	0.09398411
137	0xbe165ac8	-0.14683068
138	0x3d89234a	0.06696184
139	0x3d45a8b5	0.048256595
140	0x3dbf4a08	0.09340292
141	0x3d1c3896	0.038139902
142	0x3b5f077d	0.0034031563
143	0x3cdbd68a	0.026835699
144	0x3e7ddc68	0.2479111
145	0xbc25233a	-0.010079199
146	0x3e38c430	0.1804359
147	0x3cabc773	0.020969128
148	0x3d55bda7	0.05218282
149	0x3d271cf2	0.04079909
150	0x3d611fa3	0.05496181
151	0x3d8326f8	0.06403917
152	0x3d8bd265	0.06827239
153	0x3c7f31bc	0.015575822
154	0xb9317ce5	-0.00016926562
155	0x3d526f4f	0.051375683
156	0x3b223fe8	0.002475733
157	0x3d6ea56e	0.058263235
158	0xbe5103d7	-0.20411621
159	0x3b229ccc	0.0024812697
160	0x3cb4811f	0.022034226
161	0xbb0296af	-0.001992624
162	0x3d4df770	0.050284803
163	0x3d755e69	0.05990449
164	0x3c2a3b7f	0.010390162
165	0x3d22cb53	0.039744686
166	0x3d8fa968	0.070147336
167	0x3d8de9f1	0.069293864
168	0x3d7f76b2	0.062369056
169	0x3e6725c8	0.22573006
170	0x3e765275	0.24054892
171	0xbb826220	-0.0039789826
172	0xbc4f9cc4	-0.012671653
173	0xbb9dd8fd	-0.004817127
174	0x3e1cdae1	0.1531787
175	0x3d530958	0.051522583
176	0x3d0c661f	0.034277078
177	0x3ea609cb	0.32429346
178	0x3d779cb1	0.060452167
179	0xbc96decb	-0.018416783
180	0x3d07b5fb	0.033132534
181	0xbc495a32	-0.012289571
182	0x3d9293cb	0.071570955
183	0xbdff89bc	-0.124774426
184	0x3d5a2428	0.053257138
185	0x3d209998	0.03920898
186	0x3c99d6ab	0.01877912
187	0x3d153911	0.036431376
188	0xbcad2bb8	-0.02113901
189	0xbc52da06	-0.012869364
190	0x3dcaa387	0.098944716
191	0x3d1c1945	0.038110036
192	0x3b8960b0	0.0041924343
193	0x3a542e2e	0.00080940395
194	0x3d13cd54	0.036084488
195	0x3bfb1c33	0.0076632737
196	0xbc1b0891	-0.009462492
197	0xbc32923b	-0.010899122
198	0x3c8ca009	0.017166154
199	0x3d928307	0.07153898
200	0xbd736b5b	-0.059428554
201	0xbe208c69	-0.15678562
202	0x3d3fe222	0.046846516
203	0x3bbb56df	0.005717143
204	0x3cce5890	0.025188714
205	0x3dfb389a	0.12266655
206	0x3c3004c2	0.010743322
207	0xbc350b83	-0.011050108
208	0xbbedd1c0	-0.00725767
209	0xbceb8326	-0.02874906
210	0xbc413ded	-0.011794549
211	0x3c00b643	0.007855955
212	0x3b8f01f1	0.004364245
213	0x3d73501a	0.059402563
214	0xbcb604d5	-0.022219101
215	0x3c704b5e	0.014666406
216	0xbdde60a7	-0.10858279
217	0x3c5550dc	0.013019767
218	0xbe825283	-0.25453576
219	0xbd79789d	-0.06090604
220	0xbbf35569	-0.007425953
221	0x3c032f34	0.00800686
222	0xbc7928cf	-0.015207483
223	0xbb281a2e	-0.002565037
224	0xbe15ec3b	-0.14640896
225	0xbdb14b2e	-0.086569175
226	0x3d03eb76	0.032206975
227	0x3c00c0bc	0.007858451
228	0x3d16f872	0.03685803
229	0xbc51244e	-0.012765003
230	0xbd8a4e93	-0.06753268
231	0xbda33d37	-0.0797066
232	0xbd39362e	-0.045217685
233	0x3ad33c97	0.001611608
234	0x3d12f7bc	0.03588079
235	0x3b345905	0.002751888
236	0xbd1c4fbd	-0.03816198
237	0x3d4a62b8	0.04941055
238	0x3c9336d4	0.01797048
239	0xbd85a663	-0.065258764
240	0x3c66f59c	0.014096644
241	0x3d350131	0.04419059
242	0x3c511afb	0.01276278
243	0x3c8f1faa	0.017471153
244	0x3c819d84	0.01582218
245	0xbd2e2bc8	-0.04252222
246	0xbdeba47a	-0.11505981
247	0x3b2a21e0	0.0025960132
248	0x3d7b8d7d	0.06141423
249	0xbbc967de	-0.006146415
250	0x3c21f2c6	0.009884542
251	0xbd5a0422	-0.053226598
252	0xbd8c70b2	-0.068574324
253	0x3c827d0b	0.015928766
254	0xbd8a8b09	-0.067648
255	0xbd9e4452	-0.07727875

update_node_embedding_layer.1.update_layer.weight f4 [64, 128]
0	0xbc268ff5	-0.010166158
1	0xbde8797a	-0.11351295
2	0xbac55226	-0.0015054389
3	0x3dee5860	0.1163795
4	0xbd99901b	-0.07498189
5	0x3c94e019	0.018173264
6	0xbd415e84	-0.047209278
7	0xbe2a8167	-0.16650926
8	0xbdbdfab4	-0.092763335
9	0xbea7f4d0	-0.32803965
10	0xbd842b76	-0.06453602
11	0xbd6fd282	-0.058550365
12	0xbdfa97bc	-0.12235972
13	0xbdb6c39b	-0.089240275
14	0xbdad2004	-0.08453372
15	0x3cfb9faa	0.030715782
16	0x3e64037a	0.22266951
17	0x3b236242	0.0024930392
18	0x3e024892	0.12722996
19	0xbd99dad9	-0.07512445
20	0x3d32d80d	0.043663073
21	0xbdb9d399	-0.09073562
22	0xbe1edc73	-0.15513782
23	0xbe1f0d98	-0.1553253
24	0xbdc9a0a3	-0.09845092
25	0x3c242e54	0.010020811
26	0xbbb2740e	-0.0054459637
27	0xbd6a51e8	-0.057207018
28	0x3c247e84	0.010039929
29	0x3d14eacb	0.03635673
30	0xbccd6733	-0.025073623
31	0x3cadeef4	0.021232106
32	0x3d303c29	0.043026123
33	0x3bc369fb	0.0059635616
34	0xbd65d6f3	-0.056113195
35	0x3d446dbd	0.047956217
36	0xbb954743	-0.004555614
37	0x3d4b4576	0.04962679
38	0xbdce48c3	-0.10072472
39	0x3d37a07a	0.044830777
40	0xbdbc692a	-0.09199746
41	0x3e1da331	0.15394284
42	0x3e3d4de5	0.18486746
43	0x3bb42072	0.005497032
44	0xbbc8d559	-0.0061289486
45	0x3b8978b8	0.004195299
46	0x3c9458d4	0.018108763
47	0x3d664660	0.05621946
48	0xbe55ee73	-0.20891742
49	0x3ebfb5bd	0.37443343
50	0xbda58927	-0.080828
51	0x3c3dd058	0.011585318
52	0xbde0af3e	-0.10970925
53	0x3c14888f	0.009065761
54	0x3de9a0e8	0.114076436
55	0xbd3773ad	-0.04478805
56	0x3d8349ab	0.064105354
57	0x3d041fe5	0.03225698
58	0xbe31b2a7	-0.17353307
59	0xbd931696	-0.07182042
60	0x3a6c2976	0.00090088637
61	0x3be62b40	0.007024199
62	0x3d7f727a	0.062365033
63	0x3e670ee3	0.22564273
64	0x3bd59a4d	0.006518638
65	0x3dce7483	0.100808166
66	0xbcc7fe09	-0.024413126
67	0xbc03d306	-0.008045917
68	0xbc16ca57	-0.009203515
69	0xbc8582ab	-0.016297659
70	0xbcdf1f0d	-0.027236486
71	0x3d9df0e0	0.07711959
72	0xbb9fdc16	-0.004878531
73	0xbc9308ea	-0.017948586
74	0xbcf6f3c7	-0.030145539
75	0xbc281c19	-0.010260605
76	0xbbfe346e	-0.007757715
77	0xbb00aab7	-0.0019633004
78	0x3ba94e56	0.005166809
79	0x3b5c3d5b	0.0033605907
80	0x3bbbee3a	0.005735186
81	0xbba90a25	-0.00515868
82	0xbc1d0c2f	-0.009585424
83	0xbc3b0364	-0.011414383
84	0x3a9b6cc6	0.0011857979
85	0xbc7831bf	-0.015148579
86	0xbb2c2994	-0.00262699
87	0xbbdf04d1	-0.006805994
88	0xbe1d8356	-0.15382132
89	0x3dd946c8	0.106092036
90	0x3a3df888	0.0007246812
91	0xbbc611f2	-0.0060446197
92	0x3c0b0ba4	0.008486662
93	0xbb800472	-0.00390678
94	0x3d243f32	0.04009933
95	0x3ac92cc8	0.0015348429
96	0xbd1abf6e	-0.037780218
97	0x3b8a4b18	0.0042203777
98	0xbbddaa8e	-0.0067647165
99	0xbbc78e69	-0.0060899747
100	0x3c3b3b91	0.011427776
101	0xbc56c055	-0.013107379
102	0xbc437028	-0.011928596
103	0xbb52ada2	-0.003214695
104	0xbc4a889f	-0.012361675
105	0xbdd8897e	-0.105730996
106	0x3c3e7c25	0.011626278
107	0xb925baff	-0.00015805288
108	0xbd2badb8	-0.041913718
109	0x3b9cc9a4	0.0047847796
110	0x39e94a91	0.0004449678
111	0xbd1ddb55	-0.03853925
112	0x3c64ecf1	0.013972507
113	0xbd0d3fe9	-0.034484778
114	0x3c4d55e2	0.012532683
115	0xbcfa4318	-0.03054957
116	0xbd1c5e2e	-0.038175754
117	0xbc83efa1	-0.016105475
118	0xbcd39e6e	-0.025832381
119	0xbc900334	-0.017579652
120	0x3c110acf	0.008852675
121	0xbbad6cc4	-0.005292507
122	0xbc9c807d	-0.019104237
123	0xbdf51ef1	-0.11968792
124	0x3d50ab92	0.050944872
125	0xbb017da6	-0.001975873
126	0xbbd92934	-0.0066272262
127	0xbc206386	-0.009789353
128	0xbc31fcae	-0.010863466
129	0x3c2a8201	0.010406972
130	0xbbe64c54	-0.007028142
131	0xbddc16db	-0.10746547
132	0x3bce67e9	0.006299008
133	0xbc2a38c6	-0.010389512
134	0xbd49c7cd	-0.04926281
135	0xbdf564f3	-0.11982145
136	0xbd2fc3bc	-0.042911276
137	0x3dd46119	0.103700824
138	0x3c89bd6f	0.016813962
139	0x3acc7e85	0.0015601671
140	0xbaa90990	-0.0012896527
141	0x3cb34866	0.021885108
142	0x3c786580	0.015160918
143	0xbee62e40	-0.4495716
144	0xbdeb6833	-0.11494484
145	0x3c5b41d7	0.013382397
146	0xbde5822b	-0.11206468
147	0x3d27d5f5	0.04097553
148	0xbec9a571	-0.39384034
149	0x3d0d5eb5	0.034514148
150	0xbcdae3e8	-0.026720002
151	0xbd222bae	-0.039592437
152	0xbdbece29	-0.09316666
153	0x3b362f15	0.002779906
154	0xbbcc1bdd	-0.0062289075
155	0xbc34e6bf	-0.011041342
156	0xbc226df6	-0.009913912
157	0xbeb2eb80	-0.34945297
158	0xbe225dd5	-0.15856107
159	0xbc8d81ca	-0.017273802
160	0xbec0939e	-0.37612623
161	0x3c043ed7	0.008071623
162	0x3cd30b37	0.025762184
163	0xbe9e2e70	-0.30894804
164	0x3adf58fc	0.0017040069
165	0xbe9f290f	-0.31086013
166	0xbd00dee7	-0.031462576
167	0xbe85aac7	-0.26106855
168	0x3c0cf659	0.008603656
169	0xbea20758	-0.31646228
170	0xbe8d2903	-0.27570352
171	0xbc3247ee	-0.010881407
172	0xbc45395d	-0.012037602
173	0x3b9c56e4	0.0047711004
174	0xbea66500	-0.32498932
175	0xbe8cce7d	-0.27501288
176	0xbce5d5fc	-0.028056137
177	0xbeabdff2	-0.33569294
178	0x3bc40ef0	0.005983226
179	0x3a9aeaf1	0.0011819286
180	0xbdcead77	-0.100916795
181	0xbb3c5121	-0.002873488
182	0xbe13b386	-0.14423952
183	0xbd94973e	-0.0725541
184	0xbec4028d	-0.38283196
185	0xbea87c54	-0.32907355
186	0x3d925f13	0.0714704
187	0xbe48d4e1	-0.19612457
188	0xbbda0b71	-0.006654196
189	0xbb6f29c1	-0.0036493393
190	0xbe161034	-0.14654619
191	0x3d6a6a99	0.057230566
192	0xbd153635	-0.03642865
193	0x3d28e63f	0.041235205
194	0xbcc00752	-0.02344099
195	0x3d2bc8b1	0.04193944
196	0xbc7c5fc0	-0.015403688
197	0x3b4fab58	0.0031687822
198	0x3dc372e6	0.095433995
199	0x3d5797d0	0.052635014
200	0x3b5ea2fc	0.0033971658
201	0x3cae18a7	0.02125199
202	0x3c4c636a	0.012474874
203	0x3d63289b	0.055458646
204	0xbc900a92	-0.017583165
205	0xbc8cbba9	-0.017179327
206	0x3d46b52a	0.048512615
207	0xbc0c43bd	-0.008561072
208	0x3cdab1a4	0.026696034
209	0x3c3d426c	0.011551481
210	0x3cb586dd	0.022159034
211	0x3d91d3f9	0.07120509
212	0x3c40592f	0.011740013
213	0x3a04d076	0.00050664635
214	0x3cae6b40	0.021291375
215	0x3d0ca152	0.034333535
216	0x3db1e0ff	0.08685493
217	0x3dadbb8a	0.08483036
218	0x3d30d4e3	0.043171775
219	0xbb594287	-0.0033151226
220	0x3c13494a	0.008989641
221	0x3dc7795f	0.097399466
222	0xbce9668f	-0.028491287
223	0x3bad01e3	0.005279766
224	0x3c8aa84a	0.01692595
225	0x3aae5801	0.0013301374
226	0x3cf17701	0.02947569
227	0xbc68d87c	-0.01421177
228	0x3d646fcb	0.055770677
229	0x3ce29b1c	0.027661853
230	0xb993a20a	-0.00028158753
231	0xbbc1720f	-0.0059034894
232	0x3cc99b57	0.024610205
233	0xbc1f590b	-0.009725819
234	0x3d973bb6	0.07384436
235	0xbc1d9c8b	-0.009619842
236	0x3d51156d	0.051045824
237	0x3a8de269	0.0010824922
238	0x3b516230	0.0031949393
239	0x3dd0c346	0.101934955
240	0x3b7ad866	0.0038275956
241	0x3da5e8e0	0.08101058
242	0x3c371986	0.011175519
243	0x3d53c5a4	0.051702157
244	0x3da1a7f3	0.07893362
245	0xbb358e57	-0.002770325
246	0x3d7f5ce6	0.062344454
247	0xba3798e8	-0.0007003681
248	0xbb70bd87	-0.003673406
249	0x3d07e106	0.033173583
250	0x3de5820f	0.11206447
251	0xbd04e3c0	-0.03244376
252	0x3c95ca5c	0.018284969
253	0x3c6664fa	0.014062161
254	0x3c5a1d81	0.013312698
255	0x3e2e16fb	0.17000954
