ER_200spin/eco/network/network_best.pth (torch, 238273 bytes, 11 tensors)

node_init_embedding_layer.0.weight f4 [64, 7]
-0.0035885004 0.27459374 0.043452427 -0.048812345 0.0031377124 0.061899737 -0.027264047 0.031014092
-0.16834627 0.009087606 0.10757855 -0.00016925707 -0.016613135 0.088181384 0.0006417596 0.30817047
0.035646897 0.0048927884 0.00042938167 0.047833346 -0.03562509 0.007810194 0.29071894 0.025215942
-0.07578313 -0.025387075 -0.0028557943 0.023435177 -0.0040701674 0.29281962 0.04386499 -0.012331771
0.00063396024 0.039570596 -0.042980436 -0.027401717 0.27171254 0.028471025 0.0020751155 0.00025486492
0.05120676 -0.05624381 0.013770179 -0.13287376 0.019532511 -0.024307726 -0.019864298 0.039521817
0.018638974 0.005792103 0.32064414 0.035361234 -0.08802511 0.0011514704 0.054096363 -0.016148938
0.004444567 0.27553967 0.03082193 -0.072400615 0.0007461646 0.053656034 -0.012415911 0.016592015
-0.17678037 0.028005544 -0.012459995 -0.012281242 0.046829674 0.045510594 0.015377567 -0.1791869
-0.0027269993 0.10239629 0.0062420797 -0.013343236 0.069527596 0.009523657 -0.27087197 -0.013601536
0.1594768 0.006188363 0.015993064 -0.07658833 0.004948309 0.2965541 0.046372943 -0.056175455
0.0011072942 0.067393385 -0.03622485 0.00055385655 0.27606198 0.0016050917 0.015060679 -0.001336857
0.059743583 -0.079556614 0.03256671 -0.17293774 0.0064342134 0.10494723 0.0012806501 -0.028064094
0.09944467 0.00036712587 -0.14445405 -0.0054485826 0.1138549 0.009580006 -0.048451524 0.09751649
0.023879558 -0.15300404 -0.008112273 0.13201621 0.0011570673 -0.02661614 0.08904058 0.007317355
0.2913619 0.03174839 -0.00676528 0.004407839 0.05056637 -0.015485956 -0.002054546 0.25698122
-0.021847595 -0.099067934 -0.0009092044 0.0033280365 -0.07446292 0.026400473 -0.15451336 -0.01820429
0.11865041 0.0039487244 -0.024641542 0.0864436 -0.009701394 -0.11826558 0.026266001 -0.04648435
0.0010069275 -0.031252097 0.13613315 0.004045242 0.2857062 0.04948631 -0.01747968 0.0006124884
0.06059935 -0.04523687 0.007267143 -0.21114068 -0.018093033 0.17676267 0.0018941592 0.01858984
-0.07583057 0.0060799676 -0.17715794 -0.0010171778 0.102196716 0.012224335 -0.0282749 0.07637896
-0.014400531 0.27844927 -0.010244937 0.0033421388 -0.0008982321 0.06421742 -0.068125 0.009595737
-0.15888281 -0.013005974 0.112266086 0.007189334 -0.03770621 0.07864528 -0.000120036355 -0.15666458
-0.0030735796 0.11514021 0.005628518 -0.047608122 0.08918715 0.02039635 0.1536806 0.021384802
0.14343582 -0.0021835428 0.084199846 -0.027499452 -0.002339504 0.005687541 -0.0076716775 0.010800958
-0.006887696 -0.004107822 -0.0038793588 0.0041051223 -0.15127718 -0.009170486 0.097242385 0.013351267
-0.047315944 0.086403035 -0.009275371 -0.1415329 -0.03061159 0.10486156 0.014556766 -0.045222316
0.08658941 -0.0040763267 0.0071770833 -0.010629288 0.000622779 -0.0035753502 -0.008577 -0.0045178984
0.028094726 -0.15800032 -0.0049620373 0.12369261 0.0014306663 -0.018005664 0.08384494 0.00857847
0.28853926 0.028212244 -0.11504202 0.0051542646 0.07750334 -0.019248283 -0.034052867 0.19245923
-0.023987196 0.035704527 -0.0008957168 0.051717233 -0.06554914 0.0035790098 -0.047903214 0.042528924
-0.06509511 0.0013800303 -0.027056186 0.14928348 -0.012931381 -0.002239039 0.00044004573 0.0063653723
00000000: 0c2d 6bbb 8d97 8c3e 2cfb 313d 74ef 47bd
00000010: 14a2 4d3b 948a 7d3d da58 dfbc 4411 fe3c
00000020: f762 2cbe 2fe4 143c 2552 dc3d 997a 31b9
00000030: 4518 88bc 7198 b43d c23b 283a 85c8 9d3e
00000040: 7b02 123d af53 a03b a21e e139 e6ec 433d
00000050: 9deb 11bd a8ec ff3b 1dd9 943e aa91 ce3c
00000060: 3034 9bbd 8ef8 cfbc 4728 3bbb 21fb bf3c
00000070: 0a5f 85bb 74ec 953e c7ab 333d 320b 4abc
00000080: 5a30 263a c714 223d 410c 30bd 9179 e0bc
00000090: e81d 8b3e 113c e93c a9fe 073b 649f 8539
000000a0: 2ebe 513d e95f 66bd 519c 613c 0f10 08be
000000b0: a502 a03c ff20 c7bc 74ba a2bc a1e1 213d
000000c0: c3b0 983c aecb bd3b 782b a43e f1d6 103d
000000d0: 8246 b4bd efec 963a 2694 5d3d c74a 84bc
000000e0: bba3 913b 8913 8d3e 467e fc3c c646 94bd
000000f0: 429a 433a 6ec6 5b3d 1b6c 4bbc faeb 873c
00000100: ea05 35be e26b e53c 0225 4cbc 4337 49bc
00000110: 79d0 3f3d 5169 3a3d 31f2 7b3c c57c 37be
00000120: 75b7 32bb 25b5 d13d 5c8a cc3b 979d 5abc
00000130: 7c64 8e3d 1d09 1c3c bbaf 8abe fad8 5ebc
00000140: e34d 233e c0c7 ca3b e303 833c 58da 9cbd
00000150: 6d25 a23b f0d5 973e 8ef1 3d3d 3c18 66bd
00000160: a122 913a 8b05 8a3d 8260 14bd af30 113a
00000170: ff57 8d3e f161 d23a 11c1 763c 7a39 afba
00000180: b0b5 743d 94ee a2bd ac64 053d 9716 31be
00000190: 18d6 d23b 93ee d63d 7ddb a73a ace6 e5bc
000001a0: a6a9 cb3d cd7a c039 c3eb 13be 068a b2bb
000001b0: c22c e93d 75f5 1c3c 1b75 46bd bab6 c73d
000001c0: 109f c33c 17ad 1cbe 57e9 04bc 422f 073e
000001d0: bca8 973a 170a dabc e85a b63d 6cc6 ef3b
000001e0: 632d 953e 9a0a 023d 48af ddbb a26f 903b
000001f0: af1e 4f3d cfb8 7dbc 90a5 06bb 0b93 833e
00000200: baf9 b2bc 21e4 cabd ad57 6eba 301b 5a3b
00000210: 0480 98bd ce45 d83c c038 1ebe 2a21 95bc
00000220: fcfe f23d 4d64 813b 0fdd c9bc 5809 b13d
00000230: 98f2 1ebc 3935 f2bd cc2b d73c 6066 3ebd
00000240: e1fa 833a 3302 00bd 7d66 0b3e f38d 843b
00000250: 1548 923e 28b2 4a3d 8c31 8fbc 678f 203a
00000260: 0637 783d 4c4a 39bd 3721 ee3b 4335 58be
00000270: d737 94bc 4601 353e 7045 f83a b849 983c
00000280: 0f4d 9bbd 773a c73b e468 35be d352 85ba
00000290: 834c d13d 9448 483c c3a0 e7bc 926c 9c3d
000002a0: 34f0 6bbc e790 8e3e 61da 27bc c907 5b3b
000002b0: 5677 6bba 6c84 833d 1f85 8bbd 7037 1d3c
000002c0: 2db2 22be 0217 55bc c3eb e53d 8194 eb3b
000002d0: d471 1abd c710 a13d 07bc fbb8 ae6c 20be
000002e0: 1c6e 49bb a1ce eb3d 6e6f b83b bc00 43bd
000002f0: c1a7 b63d 3f16 a73c 725e 1d3e 2e2f af3c
00000300: d7e0 123e c519 0fbb f870 ac3d 8846 e1bc
00000310: 5d52 19bb 8d5e ba3b b262 fbbb 80f6 303c
00000320: 2fb2 e1bb e99a 86bb d73c 7ebb 4384 863b
00000330: 68e8 1abe ce3f 16bc 0427 c73d 46bf 5a3c
00000340: 5dce 41bd 13f4 b03d baf7 17bc 00ee 10be
00000350: 28c5 fabc a8c1 d63d 807f 6e3c 093b 39bd
00000360: ca55 b13d b592 85bb bd2d eb3b 7726 2ebc
00000370: fe41 233a 6c50 6abb 8c86 0cbc e10a 94bb
00000380: e926 e63c d6ca 21be 9698 a2bb 8d52 fd3d
00000390: 3285 bb3a 9d80 93bc e5b6 ab3d b68c 0c3c
000003a0: 6bbb 933e 5d1d e73c 279b ebbd 1be5 a83b
000003b0: 12ba 9e3d 93ae 9dbc 057b 0bbd 0814 453e
000003c0: cc80 c4bc e93e 123d 89ce 6aba 73d5 533d
000003d0: a13e 86bd d28d 6a3b 2936 44bd cf32 2e3d
000003e0: 9650 85bd 22e2 b43a efa4 ddbc c5dd 183e
000003f0: 25de 53bc d7bc 12bb f0b5 e639 9d94 d03b

edge_embedding_layer.edge_embedding_NN.weight f4 [63, 8]
0.057793725 0.03978024 0.1180137 -0.07654127 -0.06941639 0.00084837276 0.0642307 -0.08248393
-0.010853779 0.001408745 0.00021109253 0.01041144 0.0056912056 -0.0037043737 -0.0066064694 -0.011039528
0.04512174 0.014481063 0.11936161 -0.06596027 -0.05130419 0.0045696567 0.07194649 -0.088194296
0.024114858 0.019610057 0.09903533 -0.05827749 0.08090911 -0.00049779506 0.046453327 -0.07920966
0.06514921 0.052019525 0.11777243 -0.06928661 -0.07911727 0.00051474076 0.07501238 -0.095456034
0.033340074 0.00296073 0.09904782 -0.047083974 0.13486882 -0.0007700339 0.051003944 -0.099815
0.03530144 0.010978367 0.10873809 -0.080529064 0.05933882 0.00079224433 0.041921414 -0.076935515
0.0676556 0.019665224 0.11081123 -0.0773087 -0.043741416 0.0014951195 0.06523952 -0.11216526
0.020691348 0.009792875 0.10144757 -0.047970053 0.15275978 -0.00034412774 -0.0018399773 -0.075570166
-0.010572293 0.0058580325 -0.06675252 0.10013293 0.093630135 0.0017756473 -0.046350252 0.10566527
-0.009741414 -0.004020668 0.1391239 -0.032198902 0.16514365 0.0018900834 0.018538052 -0.065482914
-0.01640441 -0.017565807 0.007230242 0.0036599748 0.008673914 -0.008216548 0.0084255515 0.00882111
0.037304055 0.034165345 0.109873526 -0.0587677 0.040654346 1.7375716e-05 0.06874943 -0.08222472
0.06337273 0.036171366 0.12557776 -0.07630671 -0.032227803 -3.8886436e-05 0.07534959 -0.09453335
-0.001036539 -0.008607432 0.0015987831 0.005470946 0.0048887464 -0.012385924 -0.0058224755 -0.005826845
0.04947121 0.031267907 0.14117175 -0.07419366 -0.050513517 0.00018387251 0.09471489 -0.07637964
-0.007897071 0.004612244 -0.08767904 0.08768946 0.11188038 0.012687644 -0.061543692 0.12417451
0.024667563 0.016387124 0.11517202 -0.054168236 0.13077049 -0.0006807713 0.03501006 -0.08329853
-0.009922469 -0.030428585 -0.08144261 0.062256686 0.11195303 0.0063661058 -0.06406231 0.07948147
-0.016043581 0.0067832237 -0.011082694 0.004677962 -0.0110517405 -0.006758373 -0.017395189 -0.0026117598
0.017152289 -0.00080326287 0.10377107 -0.020534404 -0.043231964 -0.027794965 0.008270772 -0.019304793
-0.014351272 0.0020375848 -0.09857978 0.09622929 0.106684275 0.010637641 -0.05452313 0.1096457
0.036956023 0.057695463 0.13458824 -0.04516017 -0.026660645 0.0012936937 0.055195056 -0.08832073
0.01999771 0.012311431 0.110992104 -0.028040271 -0.031464316 -0.036137447 0.012065759 -0.045331202
-0.022770101 0.010513809 0.0135540245 -0.010450947 0.009824213 -0.009490878 0.0014436772 -0.01025951
-0.0077329753 -0.002292274 7.9323836e-05 -0.0035073452 0.010872029 -0.008938358 0.009449022 0.003236884
-0.0025139877 -0.013292046 0.20791985 -0.09568331 -0.0024039485 -0.0004665073 0.0066720834 -0.0911925
0.03186712 0.030028772 -0.10344787 0.12803464 -0.031728704 -0.009398332 0.0021878523 0.12570117
-0.038687088 -0.030919116 -0.0009941211 0.0032814322 0.082298584 -0.0026698736 -0.055471107 0.019812325
-0.052398402 -0.048896674 -0.022577986 0.0142220305 0.10297849 0.002495948 -0.06676972 0.028912408
-0.015024666 -0.006065374 0.22947644 -0.1336694 0.03245011 0.0060461564 0.032612022 -0.14854752
-0.017465057 -0.016396964 -0.06978686 0.09131371 0.10296239 0.007239108 -0.026181268 0.08917693
00000000: 1db9 6c3d 9bf0 223d 2bb1 f13d abc1 9cbd
00000010: 2e2a 8ebd 5565 5e3a 638b 833d 56ed a8bd
00000020: 0cd4 31bc a3a5 b83a b858 5d39 bf94 2a3c
00000030: 4b7d ba3b 14c5 72bb 157b d8bb 23df 34bc
00000040: 93d1 383d fb41 6d3c dc73 f43d 2e16 87bd
00000050: 5824 52bd 0fbd 953b ae58 933d 369f b4bd
00000060: 868c c53c 45a5 a03c 09d3 ca3d 61b4 6ebd
00000070: adb3 a53d 767e 02ba d845 3e3d ad38 a2bd
00000080: f36c 853d 6d12 553d ac32 f13d 23e6 8dbd
00000090: 3c08 a2bd abef 063a 17a0 993d 747e c3bd
000000a0: 9a8f 083d cf08 423b 95d9 ca3d 20db 40bd
000000b0: 0d1b 0a3e 1adc 49ba 83e9 503d cf6b ccbd
000000c0: 3e98 103d 9cde 333c 13b2 de3d 6cec a4bd
000000d0: 430d 733d 9eae 4f3a cab5 2b3d 5e90 9dbd
000000e0: 058f 8a3d f718 a13c 00f1 e23d 0654 9ebd
000000f0: 332a 33bd e3f7 c33a 4c9c 853d e6b6 e5bd
00000100: e780 a93c 4b72 203c bec3 cf3d 3f7c 44bd
00000110: 0f6d 1c3e 0b6c b4b9 652b f1ba 88c4 9abd
00000120: 6937 2dbc bdf4 bf3b 8cb5 88bd 7e12 cd3d
00000130: 28c1 bf3d d6bc e83a c3d9 3dbd 0867 d83d
00000140: 749a 1fbc cfbf 83bb 7f76 0e3e ffe2 03bd
00000150: 6b1b 293e adbc f73a 1ddd 973c e81b 86bd
00000160: 8b62 86bc 2be6 8fbc aaeb ec3b 30dc 6f3b
00000170: 081d 0e3c b39e 06bc 530b 0a3c 6b86 103c
00000180: 23cc 183d f6f0 0b3d 5f05 e13d 66b6 70bd
00000190: 2c85 263d 11c2 9137 80cc 8c3d 6f65 a8bd
000001a0: 90c9 813d 6d28 143d 7597 003e b146 9cbd
000001b0: 4d01 04bd fe19 23b8 e350 9a3d b39a c1bd
000001c0: 7adc 87ba 3006 0dbc 428e d13a 9f45 b33b
000001d0: c731 a03b 55ee 4abc 77ca bebb 1eef bebb
000001e0: 53a2 4a3d c712 003d 548f 103e d8f2 97bd
000001f0: 43e7 4ebd e7cd 4039 e1f9 c13d ee6c 9cbd
00000200: b762 01bc 4f22 973b 1291 b3bd 8896 b33d
00000210: 8a21 e53d d6df 4f3c 3d15 7cbd 354f fe3d
00000220: a113 ca3c 4a3e 863c 4fdf eb3d 83df 5dbd
00000230: b3e8 053e ca75 32ba b566 0f3d 6b98 aabd
00000240: da91 22bc 5e45 f9bc 62cb a6bd de00 7f3d
00000250: a147 e53d c49a d03b 1a33 83bd 2ec7 a23d
00000260: d46d 83bc ce45 de3b 3094 35bc 9749 993b
00000270: 5c12 35bc 5875 ddbb 5b80 8ebc 0f2a 2bbb
00000280: f582 8c3c 0f92 52ba ed85 d43d c437 a8bc
00000290: 0014 31bd 44b2 e3bc 2282 073c 1625 9ebc
000002a0: 9921 6bbc 0089 053b 32e4 c9bd dd13 c53d
000002b0: 497d da3d 8049 2e3c a553 5fbd ed8d e03d
000002c0: 335f 173d 1452 6c3d 80d1 093e dff9 38bd
000002d0: 6d67 dabc 2891 a93a 3614 623d 80e1 b4bd
000002e0: 3dd2 a33c e2b5 493c d44f e33d b6b4 e5bc
000002f0: bae0 00bd dc04 14bd 76af 453c 36ad 39bd
00000300: 5d88 babc 1c42 2c3c b311 5e3c 733a 2bbc
00000310: bcf5 203c a17f 1bbc c539 bd3a 8117 28bc
00000320: e664 fdbb fa39 16bb a95a a638 7ddb 65bb
00000330: 9820 323c 3172 12bc 12d0 1a3c e721 543b
00000340: b7c1 24bb e2c6 59bc f1e8 543e 9cf5 c3bd
00000350: 908b 1dbb 8d95 f4b9 7ea1 da3b 22c3 babd
00000360: 1987 023d e6fe f53c 7adc d3bd 831b 033e
00000370: f5f5 01bd 76fb 19bc 1262 0f3b cfb7 003e
00000380: 5a76 1ebd 164a fdbc 2b4d 82ba 4c0d 573b
00000390: 298c a83d 0cf9 2ebb ac35 63bd 754d a23c
000003a0: b59f 56bd e147 48bd 78f5 b8bc 8503 693c
000003b0: 63e6 d23d 0f93 233b 90be 88bd b7d9 ec3c
000003c0: 042a 76bc 0bc0 c6bb dffb 6a3e a2e0 08be
000003d0: 68ea 043d d61e c63b 2f94 053d d71c 18be
000003e0: e112 8fbc ed52 86bc 6aec 8ebd af02 bb3d
000003f0: f2dd d23d 0a36 ed3b 197a d6bc 65a2 b63d

edge_embedding_layer.edge_feature_NN.weight f4 [64, 64]
0.05904918 -0.0024435439 0.056177482 0.02132093 0.06849176 0.032792676 0.02952935 0.03605715
0.04387597 -0.080392934 0.07113799 -0.0120634455 0.0048510944 0.048620377 0.0138893705 0.055212
-0.032246992 0.030778749 -0.036687978 -0.006533308 0.01537786 -0.043026555 0.048359796 0.0012971899
0.0113767525 -0.011811557 0.03476859 -0.11035547 -0.0029504267 -0.0040102857 0.08968817 -0.04548692
0.035260163 0.06855087 0.038205765 -0.056166828 0.060495596 -0.026670324 0.0099634705 0.0034065032
-0.053462576 -0.043869384 0.016746512 0.010589582 0.010071951 -0.009209522 0.013956137 -0.003103082
0.059493624 -0.04445554 -0.06297575 0.06312007 -0.06260026 0.051485814 0.013808916 -0.034347437
0.05758589 0.0051199854 -0.023770567 0.013876909 -0.013780005 0.039867032 0.04607246 0.025604086
-0.041569524 0.00086393766 -0.019165056 0.017682446 -0.038757786 0.0016071602 0.016385395 0.022658143
-0.001373806 -0.0015708676 0.020677967 -0.012959486 0.0078046154 -0.0010758775 -0.007518973 -0.028255569
0.019748837 0.008741311 0.0263093 -0.0021402177 -0.0058143046 0.018142838 -0.022731695 -0.01781866
-0.015871968 0.017423784 -0.0028577182 -0.07911137 0.0034735813 0.02156739 0.028895753 0.012674984
0.017860847 0.034547195 0.031894475 0.006662162 -0.032582212 0.023058664 -0.0055368277 0.00173389
-0.0030716266 0.010725867 -0.021664565 0.0036684952 0.0056937602 0.016760465 0.008882773 0.004235625
-0.056958634 -0.020014755 -0.0032727653 -0.056137096 -0.004646832 -0.038077086 0.0064796056 0.022016928
-0.044643298 0.012188997 0.0030716057 -0.015301901 0.017552568 0.009131216 0.018999409 -0.046459872
0.00065894163 -0.008358926 -0.0077386014 -0.0056142053 0.0033758585 0.005140669 -0.016712492 0.008047395
0.0028486177 -0.0052430336 -0.0013491564 -0.010374067 -0.0071907877 -0.0010445401 -0.0046193968 -0.007800792
-0.008346403 0.01612209 -0.0006291987 -0.015298015 0.004181272 -0.0015641857 0.0074932687 -0.006606324
-0.022727203 -0.004458734 0.0038570522 -0.00076377246 0.006312901 -0.013245396 -0.006884132 -0.0067999256
-0.007652952 -0.0017036123 0.0032348488 -0.0053665154 -0.005462308 -0.007368257 -0.0052690473 -0.0017472283
-0.015830189 -0.0035179195 -0.002917565 -0.008416578 0.012913105 -0.012998117 -0.012032877 0.020081038
-0.008131961 0.00410241 -0.014453641 -0.0111792255 0.0049381615 -0.0015044736 -0.0046249344 -0.004689948
0.0010896603 0.018088983 0.0049219765 0.00059870444 0.011994853 0.0032846858 -0.0076536033 -0.0140996855
0.031088587 -0.024468174 0.04030976 0.018594984 0.056301877 0.041769262 0.01107826 0.020696044
0.029368011 -0.02846989 0.0670072 -0.021345707 0.019640643 0.0178667 3.216284e-05 0.051776763
-0.039461136 0.048979025 -0.0113182375 -0.0038116195 -0.002935272 -0.014346005 0.048504133 0.010850617
-0.001514626 0.007199948 0.03804082 -0.07873453 0.017012613 -0.008611036 0.07425329 -0.02888481
0.02741289 0.041711282 0.027584234 -0.030063098 0.049594283 0.006938804 0.010472687 -0.007169881
-0.0447221 -0.01789051 0.023977641 -0.0018724991 0.011189319 -0.041587282 0.004568931 -0.007877666
0.037487213 -0.025372824 -0.028141625 0.06573219 -0.030716151 0.04806571 0.0198718 -0.016953243
0.043245602 0.028300865 -0.007179693 0.009458863 0.0037254887 0.0327891 0.033878747 0.025977047
00000000: 8edd 713d dd23 20bb 5c1a 663d 3ba9 ae3c
00000010: 6845 8c3d 9d51 063d 89e7 f13c aab0 133d
00000020: 4ab7 333d 0da5 a4bd cbb0 913d c2a5 45bc
00000030: eef5 9e3b 2926 473d 3e90 633c fa25 623d
00000040: 6c15 04bd b723 fc3c 2246 16bd 5c15 d6bb
00000050: 6bf3 7b3c 9d3c 30bd ec14 463d 7806 aa3a
00000060: 8f65 3a3c 4385 41bc 8269 0e3d 0c02 e2bd
00000070: f25b 41bb b768 83bb 6eae b73d 7e50 3abd
00000080: f66c 103d 6664 8c3d a67d 1c3d 300f 66bd
00000090: 3bca 773d b97b dabc d33d 233c a43f 5f3b
000000a0: 93fb 5abd 62b0 33bd fb2f 893c ed7f 2d3c
000000b0: d304 253c 89e3 16bc 48a8 643c 145d 4bbb
000000c0: 96af 733d 0317 36bd 6ef9 80bd 1845 813d
000000d0: 9134 80bd cae2 523d cb3e 623c e6af 0cbd
000000e0: 2fdf 6b3d 8dc5 a73b 7eba c2bc fa5b 633c
000000f0: 88c5 61bc 9d4b 233d 7ab6 3c3d a9bf d13c
00000100: ce44 2abd e079 623a 0900 9dbc c7da 903c
00000110: 7cc0 1ebd 59a7 d23a aa3a 863c 929d b93c
00000120: 4811 b4ba 92e5 cdba d764 a93c 0654 54bc
00000130: dcbd ff3b 7504 8dba b861 f6bb 3978 e7bc
00000140: 50c8 a13c b737 0f3c 9a86 d73c e542 0cbb
00000150: ec85 bebb 4aa0 943c d237 babc 70f8 91bc
00000160: ee05 82bc 53bc 8e3c 8e48 3bbb 2405 a2bd
00000170: 06a5 633b 18ae b03c c9b6 ec3c bcaa 4f3c
00000180: e950 923c 5c81 0d3d c8a3 023d 444e da3b
00000190: ed74 05bd 86e5 bc3c 476e b5bb b243 e33a
000001a0: 584d 49bb 8cbb 2f3c e379 b1bc 236b 703b
000001b0: b992 ba3b 3e4d 893c 0d89 113c ffca 8a3b
000001c0: 754d 69bd fcf5 a3bc e47b 56bb 03f0 65bd
000001d0: 7444 98bb b8f6 1bbd df52 d43b d85c b43c
000001e0: e4db 36bd 5cb4 473c fe4c 493b d3b4 7abc
000001f0: 67ca 8f3c 199b 153c a6a4 9b3c b54c 3ebd
00000200: d3bc 2c3a e0f3 08bc 1894 fdbb 5ef7 b7bb
00000210: 823d 5d3b 0f73 a83b a3e8 88bc 39d9 033c
00000220: e0af 3a3b c1cd abbb 2dd6 b0ba fef7 29bc
00000230: b3a0 ebbb f3e8 88ba 4f5e 97bb c99d ffbb
00000240: 5abf 08bc 7912 843c cff0 24ba 87a4 7abc
00000250: 0d03 893b 5d05 cdba 188a f53b dd79 d8bb
00000260: 662e babc 921a 92bb 99c6 7c3b e737 48ba
00000270: 74dc ce3b 3803 59bc 4994 e1bb e9d1 debb
00000280: 9dc5 fabb be4b dfba c2ff 533b 98d9 afbb
00000290: 29fd b2bb 6b71 f1bb f9a7 acbb 4103 e5ba
000002a0: 50ae 81bc e58c 66bb 9e34 3fbb b0e5 09bc
000002b0: 7d91 533c 0ef6 54bc 8b25 45bc fd80 a43c
000002c0: eb3b 05bc 826d 863b f7ce 6cbc 1229 37bc
000002d0: 4dd0 a13b c231 c5ba c38c 97bb 23ae 99bb
000002e0: efd2 8e3a 592f 943c 8848 a13b 60f2 1c3a
000002f0: 0f86 443c e243 573b 14cb fabb 5e02 67bc
00000300: 7ead fe3c 7b71 c8bc d91b 253d 8254 983c
00000310: cc9c 663d 3f16 2b3d 9781 353c c08a a93c
00000320: 2f95 f03c b039 e9bc 123b 893d 31dd aebc
00000330: 6ae5 a03c 305d 923c 96e6 0638 df13 543d
00000340: 00a2 21bd 3b9e 483d 2170 39bc 5dcc 79bb
00000350: b15d 40bb 820b 6bbc 45ac 463d c9c6 313c
00000360: 6a86 c6ba 8bed eb3b b1d0 1b3d 923f a1bd
00000370: 095e 8b3c 4e15 0dbc 1c12 983d d69f ecbc
00000380: ff90 e03c 73d9 2a3d 55f8 e13c e346 f6bc
00000390: 6023 4b3d e85e e33b a295 2b3c 52f1 eabb
000003a0: 852e 37bd 1e8f 92bc c26c c43c a56e f5ba
000003b0: 6853 373c 6d57 2abd f9b6 953b 5311 01bc
000003c0: 318c 193d abda cfbc 4489 e6bc 999e 863d
000003d0: 70a0 fbbc 8de0 443d 2fca a23c 87e1 8abc
000003e0: 4d22 313d 37d7 e73c a143 ebbb 59f9 1a3c
000003f0: 5427 743b dd4d 063d 71c4 0a3d d1cd d43c

update_node_embedding_layer.0.message_layer.weight f4 [64, 128]
0.023185132 -0.023146437 0.035428163 0.08751603 0.05670479 0.031445567 -0.011645003 0.013051566
0.012890388 -0.020814652 0.0038013605 -0.009791583 0.010765447 0.052086204 0.0010829003 -0.012414113
0.0062730997 0.035578825 0.1279207 0.014706223 0.05336287 0.041993875 -0.020820783 0.0127082635
0.03980889 0.00012909055 0.0061764265 0.02243465 0.008853931 -0.019137878 -0.0057949293 0.0010295145
-0.021465119 0.012525342 0.072174564 0.050367482 0.024145877 -0.0022642144 -0.022054126 0.051126383
0.037271008 0.10826306 -0.028374821 -0.0027980972 0.01545056 -0.011017214 0.07075487 -0.008597271
0.016526425 0.103354014 -0.0011964348 0.004180733 0.025095146 -0.012103739 -0.0014191582 -0.007889477
0.075922 0.006510165 0.060777575 0.039644364 -0.002774224 0.02667656 -0.024653 -0.012479016
0.015341307 -0.029553818 -0.033874877 0.010698705 0.019897547 0.002840686 0.003050204 -0.008975431
0.008645652 0.0028282786 -0.0026417156 0.024239197 -0.006908185 -0.0036809796 0.015288168 -0.016985957
0.014690704 -0.033044375 0.0027054793 0.026463619 0.002831458 0.0075872974 -0.013047197 -0.0019836877
-0.03628246 0.027704265 -0.04553243 0.011592439 0.021319604 0.022753552 0.010949897 -0.022009714
0.011637837 -0.040664155 0.03188849 -0.00034672313 -0.021385202 0.0066147028 0.008683165 0.01887517
-0.011511029 -0.004585427 0.024132749 -0.004085949 0.004850125 0.0034088213 0.016118584 0.03501001
0.009039379 0.035936512 0.004533813 -0.0022600994 0.014281959 0.006512282 0.004388414 -0.010490608
-0.0018751962 -0.005739461 -0.033736132 -0.048999447 -0.006470019 0.013980958 0.020352863 0.0073549463
-0.0051285326 -0.0063460562 -0.0044747344 -0.0010193542 -0.0071589146 0.009597568 -0.003384534 -0.01311364
-0.017812984 -0.01559332 -0.008477072 0.016225288 -0.016534302 -0.008909085 0.005357232 -0.01501364
-0.0026923695 -0.009513618 0.00725357 0.015453411 -0.033530336 0.011060153 -0.019519413 0.012328067
-0.003393805 0.00055670924 0.009571581 -0.003908937 -0.0011671081 -0.012624312 -0.0040691514 0.016802978
0.005465804 0.009596025 0.008095084 -0.0075693163 -0.006455764 -0.010145534 -0.012362048 -0.003995554
-0.0026634978 -0.010310111 -0.0009079632 0.00455544 -0.00071168086 0.009316837 0.011110009 0.0061195223
0.005340809 0.0057162624 -0.007262892 -0.016191946 0.0035715578 0.0034868263 -0.010842064 -0.005456348
0.020608792 0.0025678172 0.00087768293 -0.0019779662 0.0015506691 0.00020529234 -0.0072135334 -0.0022331157
-0.0039353645 -0.0065601137 0.0077554397 0.0060123173 -0.0041981647 0.0026063025 -0.0023801047 -0.015843358
-0.0017774357 -0.0048920196 -0.01924619 -0.0025896188 0.01934725 0.008622931 -0.014340152 0.0042704693
-0.025371885 -0.0026130688 -0.022495316 0.006496518 0.006124561 0.016933704 -0.0023327 0.014354244
0.002256763 -0.014813743 -0.008357929 -0.014783899 0.015057957 -0.0038330227 0.0066937846 -0.014404214
-0.0019329023 0.0066274307 0.0030367628 -0.0042522494 -0.0055667916 -0.009192652 -0.010797187 -0.02013877
-0.00038051824 0.005758672 0.0133588 -0.030212838 -0.009887488 -0.022213964 0.0041997572 0.0024447902
0.0014366297 -0.009266336 0.0035260904 0.013790463 0.0027067726 0.0078312345 0.0031406982 -0.0059004743
-0.0055659777 -0.00073243224 -0.00046838107 0.004667129 -0.015389636 -0.0015932003 -0.005507037 0.0063206223
00000000: bfee bd3c 999d bdbc 1f1d 113d 9b3b b33d
00000010: 4843 683d 11cd 003d afca 3ebc 3cd6 553c
00000020: 3532 533c 7d83 aabc 3f20 793b e06c 20bc
00000030: 8f61 303c 5858 553d 1bf0 8d3a 9064 4bbc
00000040: 938e cd3b 1abb 113d a5fd 023e 5ff2 703c
00000050: 0693 5a3d c501 2c3d 5990 aabc 5236 503c
00000060: a60e 233d 7b5c 0739 9f63 ca3b dfc8 b73c
00000070: 1410 113c 0ac7 9cbc 64e3 bdbb c6f0 863a
00000080: 9ed7 afbc 1837 4d3c 42d0 933d 224e 4e3d
00000090: 93cd c53c 3763 14bb dbaa b4bc e669 513d
000000a0: 7ca9 183d 06b9 dd3d 5072 e8bc 4860 37bb
000000b0: 5824 7d3c 8b81 34bc eee7 903d 91db 0cbc
000000c0: 6d62 873c 45ab d33d b1d1 9cba 88fe 883b
000000d0: 5694 cd3c c34e 46bc 0c03 baba dd42 01bc
000000e0: fe7c 9b3d 3953 d53b e8f1 783d 2162 223d
000000f0: c1cf 35bb cd88 da3c 17f5 c9bc c974 4cbc
00000100: 1b5a 7b3c d91a f2bc 62c0 0abd 9f49 2f3c
00000110: 2e00 a33c cd2a 3a3b eee5 473b b00d 13bc
00000120: 7ea6 0d3c a45a 393b a220 2dbb 4891 c63c
00000130: 0e5e e2bb 973c 71bb 397b 7a3c 2226 8bbc
00000140: 47b1 703c 8a59 07bd 694e 313b 3bca d83c
00000150: fc8f 393b dd9e f83b e9c3 55bc c200 02bb
00000160: eb9c 14bd 0ef4 e23c 3780 3abd 37ee 3d3c
00000170: 73a6 ae3c a865 ba3c 3267 333c b74d b4bc
00000180: a0ac 3e3c 758f 26bd 819d 023d 64c8 b5b9
00000190: 0530 afbc 26c0 d83b d543 0e3c 1aa0 9a3c
000001a0: c198 3cbc 5a41 96bb 0bb2 c53c 6de3 85bb
000001b0: cced 9e3b 8866 5f3b 1f0b 843c a866 0f3d
000001c0: e719 143c 2a32 133d 6190 943b 2d1e 14bb
000001d0: e1fe 693c fb64 d53b afcc 8f3b cde0 2bbc
000001e0: 25c9 f5ba 1712 bcbb e62e 0abd a5b3 48bd
000001f0: 7402 d4bb 6310 653c 0cbb a63c c301 f13b
00000200: 400d a8bb 94f2 cfbb cba0 92bb da9b 85ba
00000210: 5495 eabb 1e3f 1d3c 0fcf 5dbb 98da 56bc
00000220: 89ec 91bc 207b 7fbc 6be3 0abc e5ea 843c
00000230: f272 87bc 69f7 11bc b88b af3b c5fb 75bc
00000240: 7772 30bb 02df 1bbc 5baf ed3b 4e30 7d3c
00000250: 1b57 09bd a535 353c 2de7 9fbc a9fb 493c
00000260: 996a 5ebb 20f0 113a 1fd2 1c3c 8a16 80bb
00000270: a6f9 98ba 34d6 4ebc 8456 85bb 66a6 893c
00000280: 7d1a b33b a538 1d3c 3ea1 043c 0708 f8bb
00000290: e08a d3bb 7439 26bc 308a 4abc 23ed 82bb
000002a0: 148e 2ebb bdeb 28bc 6104 6eba cd45 953b
000002b0: 1890 3aba a6a5 183c c106 363c 4686 c83b
000002c0: f401 af3b 7c4f bb3b 8efd edbb f9a4 84bc
000002d0: cc10 6a3b 3d83 643b eaa2 31bc 2acb b2bb
000002e0: c5d3 a83c d348 283b 4e14 663a c4a0 01bb
000002f0: d23f cb3a be43 5739 815f ecbb 7759 12bb
00000300: 3bf4 80bb 39f6 d6bb 5821 fe3b f902 c53b
00000310: c290 89bb 80ce 2a3b 88fb 1bbb eec9 81bc
00000320: d8f8 e8ba 3c4d a0bb 30aa 9dbc 98b6 29bb
00000330: 207e 9e3c 3247 0d3c f5f2 6abc 4bef 8b3b
00000340: b3d8 cfbc 0540 2bbb 1948 b8bc bee0 d43b
00000350: 8bb0 c83b 8db8 8a3c 36e0 18bb 102e 6b3c
00000360: 33e6 133b 57b5 72bc b2ef 08bc 2b38 72bc
00000370: a6b5 763c 7333 7bbb 8957 db3b a7ff 6bbc
00000380: 7059 fdba eb2a d93b 6d04 473b 7456 8bbb
00000390: a269 b6bb c79c 16bc afe6 30bc 10fa a4bc
000003a0: 4b80 c7b9 3eb3 bc3b dede 5a3c ea80 f7bc
000003b0: 21ff 21bc 0ffa b5bc 1e9e 893b c638 203b
000003c0: 4b4d bc3a d5d1 17bc fb15 673b 65f1 613c
000003d0: 1c64 313b 944e 003c 2cd4 4d3b c458 c1bb
000003e0: ce62 b6bb b200 40ba 0b91 f5b9 b7ee 983b
000003f0: d024 7cbc eed2 d0ba 6074 b4bb 391d cf3b

update_node_embedding_layer.0.update_layer.weight f4 [64, 128]
-0.006016635 -0.001273893 -0.006329987 -0.0062163756 -0.006436459 -0.010422629 0.010807857 0.008969574
-0.0007032388 -0.0019882978 0.009644162 0.0029672089 -0.010613684 0.00091583625 -0.009607976 0.019330049
-0.008584534 0.0058791107 -0.011943713 0.00074691063 -0.00420969 -0.010513303 0.023271568 -0.010754949
0.0025434364 -0.004444426 0.00048618185 -0.010514759 -0.0043200715 -0.00034434305 -0.0018376998 0.012887275
-0.00045201907 -0.014831936 0.011783449 0.008191627 0.008175328 -0.003967553 -0.015016196 -0.0058839372
0.011709479 0.013076263 -0.008018065 0.0013984357 0.0008921829 -0.004606317 -0.0020987897 -0.00029083775
-0.0014190628 -0.005068368 -0.0052825916 -0.004765876 -0.009245806 -0.012360027 -0.014669357 0.0002462764
-0.0024217363 0.009060153 -0.0049826233 0.011973661 0.0025755118 0.0005362117 -0.007552622 -0.008868197
-0.004022056 -0.0063072126 0.0018132011 -0.0114652915 0.008019837 -0.009141835 -0.004080392 0.0047088657
-0.019467676 0.0015003316 0.0015642599 0.007654094 0.023168143 0.0011607703 0.010591622 -0.01960177
-0.006202913 -0.0045847762 -0.001608635 0.017753288 0.004698723 -0.009943187 0.0051618526 0.005151828
-0.006205164 -0.000321136 -0.015974402 0.016871715 -0.007020841 -0.00791942 -0.0012907535 -0.0068748468
0.007265241 -0.0037921257 0.00643774 0.0029959367 0.0006974982 0.0016729189 0.017543335 -0.023625614
0.010543827 -0.0053535975 -0.0010220141 -0.014573643 -0.014144861 -0.0045558442 0.008580105 0.00021679314
0.004596158 0.0016651361 0.011172977 -0.0042994316 0.0026915604 -0.005422585 0.005641149 -0.007922865
0.0036619809 -0.008978453 0.009642026 -0.002717615 -0.005666182 -0.01795811 0.009221195 0.0063475883
0.03541101 -0.061506502 0.059271242 0.10792366 0.07294372 0.042073514 -0.09455269 0.039824657
0.018834239 -0.11222575 -0.03704348 -0.017182747 0.0502969 0.034572072 -0.017630361 -0.03663096
-0.028987808 0.05050206 0.11061033 -0.037128747 0.0703461 0.062434085 0.0006009261 -0.03595671
0.058166813 -0.013846067 -0.028535774 0.020616828 -0.0042925114 -0.023397265 -0.02755538 -0.00097632996
-0.087608695 0.034773827 0.05441583 0.114888825 -0.0040206355 0.009789752 -0.04768895 0.040072918
0.037761297 0.126328 -0.050231352 -0.0077746403 0.048809268 -0.04686762 0.0607802 -0.1062425
0.04523612 0.1248476 -0.050371088 -0.045990787 0.033022337 -0.02065389 -0.05074782 -0.018558301
0.109173715 0.0052517382 0.12549016 0.027508456 -0.0042808624 0.052453987 -0.046659164 -0.04113569
-0.0126906885 0.0011911003 0.011083999 0.022599867 -0.009091351 -0.041429512 0.00524495 -0.019653494
0.017062489 -0.016576333 0.011586462 -0.022758666 -0.024221739 -0.0058130817 -0.008595605 -0.031163625
0.01012073 0.0028690298 0.011444283 0.00992343 -0.039104164 -0.014797335 -0.0023714795 0.009695185
0.0011773745 -0.031621084 0.0110937515 0.009506741 -0.043474283 -0.012243179 0.0033647316 0.01468673
-0.0021987404 0.0040231147 -0.0028148121 -0.0125366105 0.014844953 -0.0032157889 0.0059622717 -0.002175059
0.014611979 -0.0357869 -0.033334844 -0.005518441 0.015614464 0.025940768 -0.0026968783 0.0015848639
-0.0078644715 -0.009366836 -0.0079099 0.0055410704 0.008643205 -0.029638702 0.0070551485 -0.0035782065
-0.047591448 -0.03797272 -0.026079029 -0.013084371 0.010149967 0.025442675 0.013380812 0.030515855
00000000: 3127 c5bb c2f8 a6ba c86b cfbb bdb2 cbbb
00000010: eee8 d2bb adc3 2abc 7013 313c 1ff5 123c
00000020: 8f59 38ba 1a4e 02bb 8c02 1e3c 8175 423b
00000030: 04e5 2dbc bb14 703a c66a 1dbc 0d5a 9e3c
00000040: 25a6 0cbc 8ea5 c03b 90af 43bc 53cc 433a
00000050: 70f1 89bb fd3f 2cbc 04a4 be3c 8735 30bc
00000060: c8af 263b 8ca2 91bb 39e6 fe39 1946 2cbc
00000070: 638f 8dbb f188 b4b9 f9de f0ba 2625 533c
00000080: f9fc ecb9 a601 73bc 5e0f 413c 2d36 063c
00000090: d0f1 053c 3f02 82bb 7e06 76bc 0bce c0bb
000000a0: 1dd9 3f3c d23d 563c 345e 03bc b74b b73a
000000b0: 62e1 693a 96f0 96bb d98b 09bb 957b 98b9
000000c0: d9ff b9ba 8d14 a6bb 9719 adbb 112b 9cbb
000000d0: b97b 17bc b681 4abc be57 70bc a91e 8139
000000e0: feb5 1ebb 0971 143c 4645 a3bb 2d2d 443c
000000f0: ebc9 283b 8f90 0c3a fc7b f7bb ea4b 11bc
00000100: 73cb 83bb bcac cebb efa8 ed3a ebd8 3bbc
00000110: a265 033c a3c7 15bc cfb4 85bb d44c 9a3b
00000120: ad7a 9fbc c6a6 c43a da07 cd3a 32cf fa3b
00000130: 1ecb bd3c fd24 983a 7c88 2d3c e493 a0bc
00000140: ce41 cbbb e43b 96bb d5d8 d2ba 586f 913c
00000150: bff7 993b c0e8 22bc c224 a93b aad0 a83b
00000160: b054 cbbb 255e a8b9 c0dc 82bc 8d36 8a3c
00000170: 150f e6bb 74c0 01bc 802e a9ba 6546 e1bb
00000180: 4211 ee3b 5085 78bb adf3 d23b 7a57 443b
00000190: 50d8 363a d845 db3a 0ab7 8f3c 818a c1bc
000001a0: 04c0 2c3c 3b6d afbb 1af5 85ba 4ac6 6ebc
000001b0: d9bf 67bc 3149 95bb 9293 0c3c f752 6339
000001c0: 5e9b 963b b240 da3a dd0e 373c 3fe2 8cbb
000001d0: e464 303b f1af b1bb 63d9 b83b e8ce 01bc
000001e0: d8fd 6f3b 5d1a 13bc 97f9 1d3c 041a 32bb
000001f0: 61ab b9bb e31c 93bc 7f14 173c 6eff cf3b
00000200: 230b 113d 3eee 7bbd 67c6 723d 1407 dd3d
00000210: 8463 953d 4755 2c3d d7a4 c1bd 2e1f 233d
00000220: 434a 9a3c 9dd6 e5bd e7ba 17bd d5c2 8cbc
00000230: 1f04 4e3d 729b 0d3d 8c6d 90bc 580a 16bd
00000240: d777 edbc 40db 4e3d ab87 e23d 5014 18bd
00000250: 9e11 903d e2ba 7f3d 7887 1d3a 5847 13bd
00000260: 5340 6e3d 9dda 62bc dbc3 e9bc 9fe4 a83c
00000270: 32a8 8cbb 9fab bfbc d2bb e1bc 65f0 7fba
00000280: 306c b3bd 006f 0e3d 22e3 5e3d d54a eb3d
00000290: 89bf 83bb 3265 203c 7d55 43bd 8023 243d
000002a0: 97ab 1a3d 215c 013e 64bf 4dbd 69c2 febb
000002b0: 3aec 473d 43f8 3fbd a9f4 783d ab95 d9bd
000002c0: 8249 393d 19b0 ff3d ea51 4ebd d660 3cbd
000002d0: 6e42 073d 5932 a9bc f2dc 4fbd 9407 98bc
000002e0: 7896 df3d c616 ac3b 7e80 003e 6a59 e13c
000002f0: 7a46 8cbb fed9 563d ae1d 3fbd e67d 28bd
00000300: 9bec 4fbc b21e 9c3a a999 353c 5b23 b93c
00000310: e4f3 14bc feb1 29bd d4dd ab3b 5d00 a1bc
00000320: a2c6 8b3c 17cb 87bc 25d5 3d3c 6270 babc
00000330: ab6c c6bc aa7b bebb 95d4 0cbc dc4a ffbc
00000340: 6bd1 253c 5506 3c3b cd80 3b3c e295 223c
00000350: b02b 20bd 8570 72bc d36a 1bbb 8ed8 1e3c
00000360: 2252 9a3a 1c85 01bd 91c2 353c 29c2 1b3c
00000370: 1712 32bd 9d97 48bc d482 5c3b 9ca0 703c
00000380: be18 10bb 55d4 833b b678 38bb 5b66 4dbc
00000390: 3f38 733c fcbf 52bb 295f c33b 6f8b 0ebb
000003a0: 1567 6f3c 4995 12bd 1e8a 08bd 0ad4 b4bb
000003b0: cfd3 7f3c bc81 d43c 1cbe 30bb 35bb cf3a
000003c0: fcd9 00bc 5c77 19bc 8698 01bc de91 b53b
000003d0: 3b9c 0d3c ddcc f2bc e02e e73b 5880 6abb
000003e0: 40ef 42bd 4889 1bbd b0a3 d5bc d45f 56bc
000003f0: 0c4c 263c 286d d03c 313b 5b3c 63fc f93c

update_node_embedding_layer.1.message_layer.weight f4 [64, 128]
0.017005112 0.085056014 0.0515587 -0.009391391 0.01302655 -0.00285399 0.008765336 0.012140174
-0.018885199 0.0027955226 -0.011711609 0.052398056 -0.0053133974 0.017400153 0.024432827 0.011550838
0.015432827 -0.0060078837 -0.0034716658 0.05851304 -0.004838044 0.022630477 0.01297745 0.032612562
0.010202687 -0.009358968 0.017409772 -0.006199287 0.018961914 0.0034590205 -0.0120974025 -0.0070842206
-0.011317989 0.015772484 0.04908985 0.04956975 -0.0042090164 -0.012408605 -0.0017330665 0.0386257
0.040235296 0.062013086 0.005777929 0.055955295 0.0006823242 0.0015215036 -0.0076477206 -0.007197058
0.0492113 0.08163805 -0.007575907 0.007084641 0.01507416 -0.0023816982 0.050721828 0.005051558
0.054652635 0.07919899 0.005402367 -0.00011018133 -0.00947729 -0.004137491 0.023594461 -0.0037740152
0.03541488 -0.01820705 0.00798672 0.03504536 0.035618562 -0.00232432 -0.027687158 0.02158034
0.03150774 -0.0089211175 0.029242886 0.029468553 0.00429678 -0.0066091246 0.03056326 -0.01141831
0.024180308 0.002953319 0.0011622866 -0.015023008 0.0035995266 0.007692138 0.015615023 -0.0020757439
-0.029527532 0.027596103 -0.025160242 0.025356777 0.014978002 0.031873878 0.019653454 -0.027634345
-0.0047816387 -0.011396779 0.03843188 0.0010045753 -0.017275704 -0.0010991018 0.035355836 0.00921925
0.012005031 0.0109354695 0.012098741 0.011603423 -0.0010296988 0.032904536 0.017983453 0.008760887
0.040539756 0.04368775 0.0070400382 -0.016804997 0.008873981 0.0038705862 -0.00528264 -0.0011141176
-0.009686208 0.0060851946 -0.02100457 -0.014893042 0.053601023 0.016964782 0.03306048 0.025151512
0.00855426 -0.013990076 -0.012304119 0.016521746 -0.0073369606 -0.010031407 -0.01626286 -0.00013263604
-0.023882294 0.010387781 0.0033292521 -0.016375694 0.00094987446 -0.0040975544 -0.0024262741 -0.019391114
-0.023288626 0.0048998874 -0.014364849 -0.0152903795 -0.00036075618 -0.01761673 0.0011204248 -0.023032187
0.0041441815 0.008055471 -0.014461079 -0.0012393221 -0.010227148 -0.011936761 -0.009385243 -0.0029352342
-0.0015108705 -0.0040868465 -0.009280549 -0.012190911 -0.012514497 0.008700732 -0.003380651 -0.013001315
-0.021890135 0.0056739138 -0.009518487 -0.007978303 0.015937379 -0.012915406 -0.0108919805 -0.0024366118
-0.034730922 -0.0020067783 -0.0143326325 0.003110355 -0.007358527 -0.0039935233 -0.014605142 0.008501093
-0.021499738 0.008587749 -0.014003143 -0.0070257485 0.004084258 0.004208608 -0.0044859955 -0.027297009
-0.012485322 0.014129813 0.010899293 -0.009700897 -0.019637344 0.0038219562 -0.008863166 0.011160571
-0.008311917 -0.010357035 -0.00988583 -0.016177714 -0.0025521852 0.015234957 -0.003912937 0.0032162466
-0.0006936418 -0.00046508512 -0.027205529 0.01318518 -0.0035846266 0.007953186 0.0068437723 -0.01435973
0.012011695 -0.0072840843 -0.010383865 0.004830554 -0.0022568186 -0.004347157 0.0013939802 0.0016461812
0.017834224 -0.003319456 0.0036857117 0.006200488 -0.013620119 -0.009484391 -0.032891355 -0.021596763
-0.0022590228 -0.009946314 -0.0003973202 0.013792652 0.0143939955 -0.020792136 -0.0058499323 -0.013203875
-0.0029558889 -0.017315246 0.005592778 -0.014070052 -0.004468446 -0.010264457 -0.021933075 -0.0009475833
0.013277719 -0.0034659156 0.0012939835 -0.014271688 -0.015858732 0.00013722177 -0.015880045 -0.0026870752
00000000: 4e4e 8b3c d931 ae3d 372f 533d 59de 19bc
00000010: 506d 553c 020a 3bbb 7c9c 0f3c 95e7 463c
00000020: 22b5 9abc 1635 373b 0ce2 3fbc 589f 563d
00000030: 021c aebb c48a 8e3c 5a27 c83c ba3f 3d3c
00000040: f8d9 7c3c c8dd c4bb e384 63bb 5fab 6f3d
00000050: 7488 9ebb 8d63 b93c 5f9f 543c c094 053d
00000060: 2c29 273c 5b56 19bc f09e 8e3c 6323 cbbb
00000070: 0456 9b3c bcb0 623b 2f34 46bc c022 e8bb
00000080: 166f 39bc 4c35 813c 7012 493d a609 4b3d
00000090: caeb 89bb 764d 4bbc 1028 e3ba fb35 1e3d
000000a0: c4cd 243d 6f01 7e3d c854 bd3b 6131 653d
000000b0: 00de 323a 306d c73a bb99 fabb 4cd5 ebbb
000000c0: ca91 493d da31 a73d 503f f8bb 4726 e83b
000000d0: 9cf9 763c 4416 1cbb b1c1 4f3d 8a87 a53b
000000e0: 71db 5f3d 1433 a23d 5706 b13b 2711 e7b8
000000f0: a346 1bbc ca93 87bb 2c49 c13c 7855 77bb
00000100: 310f 113d f426 95bc bbda 023c b98b 0f3d
00000110: c5e4 113d 9e53 18bb 2ed0 e2bc 41c9 b03c
00000120: 430e 013d e129 12bc c78e ef3c 0968 f13c
00000130: 01cc 8c3b 5b91 d8bb cd5f fa3c dd13 3bbc
00000140: c815 c63c 798c 413b de57 983a 1023 76bc
00000150: 09e6 6b3b 550e fc3b 27d6 7f3c 3409 08bb
00000160: b9e3 f1bc 3911 e23c da1c cebc 04b9 cf3c
00000170: 4b66 753c 2f8e 023d 4800 a13c 6c61 e2bc
00000180: 4baf 9cbb 8eb9 3abc bf6a 1d3d f4ab 833a
00000190: c785 8dbc bd0f 90ba 48d1 103d 560c 173c
000001a0: c0b0 443c af2a 333c cc39 463c 491c 3e3c
000001b0: f5f6 86ba e8c6 063d 0952 933c d389 0f3c
000001c0: 040d 263d edf1 323d 1fb0 e63b a2aa 89bc
000001d0: 2d64 113c a9a9 7d3b ff19 adbb 9507 92ba
000001e0: e7b2 1ebc 5066 c73b c711 acbc f201 74bc
000001f0: bf8c 5b3d baf9 8a3c 6d6a 073d 8b0a ce3c
00000200: 2b27 0c3c a236 65bc 3797 49bc 9d58 873c
00000210: e36a f0bb c55a 24bc b039 85bc 3714 0bb9
00000220: cda4 c3bc 8331 2a3c 952f 5a3b 5226 86bc
00000230: ff00 793a c744 86bb 2002 1fbb 1dda 9ebc
00000240: cac7 bebc 3c8f a03b 8b5a 6bbc 8084 7abc
00000250: e023 bdb9 f650 90bc 38db 923a ffad bcbc
00000260: eacb 873b 18fb 033c 29ee 6cbc c070 a2ba
00000270: c58f 27bc 6892 43bc 90c4 19bc 0f5d 40bb
00000280: 6708 c6ba f4ea 85bb 720d 18bc 63bc 47bc
00000290: 9b09 4dbc 848d 0e3c e98d 5dbb 7803 55bc
000002a0: f152 b3bc 3dec b93b 6ef3 1bbc 6eb7 02bc
000002b0: 1b8f 823c 249b 53bc 4774 32bc 90af 1fbb
000002c0: 0342 0ebd 2784 03bb 6bd3 6abc 19d7 4b3b
000002d0: cc1f f1bb 1adc 82bb 684a 6fbc 2b48 0b3c
000002e0: 3820 b0bc a1b3 0c3c 706d 65bc 4038 e6bb
000002f0: 3dd5 853b 5de8 893b 42ff 92bb fa9d dfbc
00000300: 3c8f 4cbc bb80 673c f392 323c 83f0 1ebc
00000310: 7fde a0bc c979 7a3b d036 11bc d4da 363c
00000320: b52e 08bc 8eb0 29bc 2df8 21bc 2087 84bc
00000330: 9042 27bb 0b9c 793c 1838 80bb aac7 523b
00000340: 83d5 35ba abd6 f3b9 21de debc a706 583c
00000350: 0eec 6abb 144e 023c b941 e03b 1345 6bbc
00000360: b3cc 443c 54af eebb 1621 2abc a049 9e3b
00000370: 22e7 13bb 9972 8ebb 37b6 b63a adc4 d73a
00000380: 1419 923c 3b8b 59bb fb8b 713b 772d cb3b
00000390: eb26 5fbc 6b64 1bbc 16b9 06bd b2eb b0bc
000003a0: 1d0c 14bb ddf5 22bc 6a4f d0b9 93fa 613c
000003b0: cbd4 6b3c 4554 aabc cab0 bfbb 1155 58bc
000003c0: 96b7 41bb b4d8 8dbc 9f43 b73b 1386 66bc
000003d0: 0b6c 92bb 412c 28bc feac b3bc 3d67 78ba
000003e0: ca8a 593c 6a24 63bb e29a a93a ccd3 69bc
000003f0: 2cea 81bc 30e3 0f39 de16 82bc a419 30bb

update_node_embedding_layer.1.update_layer.weight f4 [64, 128]
-0.0039311936 0.0630349 0.067152426 -0.009157233 -0.01615602 0.08892648 -0.008423207 0.014940897
0.01847428 -0.012022943 -0.0018301596 0.043254822 0.14003733 0.008532269 0.027115267 0.017684149
0.1380327 -0.022418126 -0.0026615723 0.024632968 -0.015346608 0.024667721 0.024974981 0.025473615
0.0017037244 0.01419812 0.03817417 -0.007611467 0.011459605 0.014076865 0.00053192273 0.055276237
-0.00385129 -0.008273181 0.021572242 0.08165436 -0.0047600283 -0.01615227 -0.0017424432 0.0319157
0.022147754 0.034869015 0.001504803 0.040634584 -0.0177243 -1.7407576e-05 0.004356554 -0.009912468
0.034796834 0.056534424 -0.012304673 -0.0035020446 0.0021291026 -0.0017136035 0.056027167 -0.010408797
0.026961133 0.039047096 0.035031937 -0.018760193 -0.0024238636 -0.018050915 0.006488059 0.013927001
0.15240085 -0.004313854 0.0076070987 0.13236718 -0.0044897795 0.0014774997 0.14071748 0.021567296
0.16295248 -0.0040545403 0.0013440622 0.013406577 0.018996328 -0.011188921 -0.008652985 0.004715037
0.16200483 -0.001601021 0.15347952 0.14073235 0.0018680174 0.07051805 -0.0030379195 0.07666802
-0.009768863 0.10825113 0.099562354 -0.001401145 -0.010505774 -0.01784506 0.13371404 0.00985944
0.008187345 0.1029331 -0.0013386509 -0.011086741 0.13375662 -0.0066751847 -0.0024448065 0.14385265
0.0015604967 0.13767323 0.003772583 0.16008179 -0.13920915 0.12026549 -0.008047615 0.08525076
0.0025272542 0.003599037 -0.1346694 0.021484286 -0.014618304 -0.00092108914 -0.0045810733 0.009013216
-0.0012171823 0.10525573 -0.018123558 -0.004183338 -0.1322634 0.16401659 0.0024866313 0.011988051
-0.002843857 0.06972146 0.03856262 -0.033972625 0.002185834 -0.008375654 0.0123700285 0.010810804
-0.032094598 -0.031630326 -0.03129567 0.053801164 -0.005035474 0.043728296 0.036402244 -0.025754899
-0.0030547695 -0.016779501 0.015886778 0.067814894 -0.026885109 0.053305488 0.06233546 0.06880602
-0.020176006 -0.008192293 0.05092518 -0.036948565 -0.017622245 -0.016922912 -0.002707368 0.0030636825
-0.04837071 -0.010999224 0.06329693 0.033526067 0.0006111995 -0.012763802 0.013799741 0.063400306
0.07526878 0.061402634 -0.0009305806 0.05148244 -0.035814304 0.011388454 -0.0026338152 0.004392808
0.056698434 0.06878392 -0.02636432 -0.004680157 -0.015443835 0.015518511 0.07558445 0.013003914
0.052512415 0.054193996 -0.016240802 0.005671768 -0.03840364 -0.022712968 -0.016701363 -0.008254988
0.009846734 0.0018659479 -0.010804833 0.048664287 -0.014112558 0.0061517516 0.036930803 0.013456001
0.014914413 0.008328815 -0.003075772 -0.010137559 7.971006e-05 0.009966415 0.0017436042 0.011109241
0.03138074 -0.002370809 0.039845318 0.03211327 0.012335491 0.053781383 -0.011335112 0.034836907
0.019630827 0.020165715 0.009704246 -0.006968443 -0.015740883 -0.005164266 0.03389089 -0.0017800519
0.0034682162 0.023049662 -0.02401048 0.0076492033 0.04157911 0.0050701746 -0.0057721524 0.012993493
0.0045934203 0.03211398 0.010757723 0.044525586 -0.06907779 0.025653616 0.0005413242 0.037218448
-0.008772113 -0.010540896 -0.07484248 0.014056569 -0.020998653 -0.012948707 -0.014145947 0.008455104
-0.018324405 0.024259334 -0.0017855949 0.0071799085 -0.080941595 0.02609664 -0.010151446 0.00037834156
00000000: 3ed1 80bb 7118 813d 3687 893d 3808 16bc
00000010: a159 84bc 161f b63d 7e01 0abc aaca 743c
00000020: 6057 973c e1fb 44bc f7e1 efba f82b 313d
00000030: f265 0f3e eeca 0b3c d620 de3c 59de 903c
00000040: 7258 0d3e 38a6 b7bc c66d 2ebb 14cb c93c
00000050: 5770 7bbc f613 ca3c 5598 cc3c 0bae d03c
00000060: 814f df3a 3b9f 683c 855c 1c3d 9d69 f9bb
00000070: 11c1 3b3c a7a2 663c bb70 0b3a 5669 623d
00000080: ed65 7cbb 3c8c 07bc 45b8 b03c 673a a73d
00000090: 03fa 9bbb c451 84bc b162 e4ba 09ba 023d
000000a0: 356f b53c d0d2 0e3d cf3c c53a 7370 263d
000000b0: 8d32 91bc 7c06 92b7 6cc1 8e3b e767 22bc
000000c0: 2087 0e3d a490 673d 8a99 49bc 8f82 65bb
000000d0: 6a88 0b3b fe9a e0ba be7c 653d a989 2abc
000000e0: 98dd dc3c d9ef 1f3d a67d 0f3d faae 99bc
000000f0: afd9 1ebb 83df 93bc c999 d43b 132e 643c
00000100: f80e 1c3e 3b5b 8dbb f844 f93b 438b 073e
00000110: 001f 93bb aaa8 c13a 3e18 103e e6ad b03c
00000120: 04dd 263e f3db 84bb 3e2b b03a 42a7 5b3c
00000130: 309e 9b3c bc51 37bc 40c5 0dbc 9980 9a3b
00000140: 98e4 253e 5ad9 d1ba bc29 1d3e 241c 103e
00000150: 43d8 f43a c46b 903d d517 47bb 1f04 9d3d
00000160: 950d 20bc c5b2 dd3d 59e7 cb3d a0a6 b7ba
00000170: 6920 2cbc ce2f 92bc 55ec 083e 7d89 213c
00000180: 3724 063c 97ce d23d ac75 afba 2aa5 35bc
00000190: 7ff7 083e 82bb dabb 0c39 20bb 1c4e 133e
000001a0: 9589 cc3a 36fa 0c3e 713d 773b 7bec 233e
000001b0: d88c 0ebe c14d f63d 25da 03bc f397 ae3d
000001c0: 4aa0 253b d2dd 6b3b c6e6 09be d0ff af3c
000001d0: 9c81 6fbc 3f75 71ba d41c 96bb 2bac 133c
000001e0: dc89 9fba 5190 d73d db77 94bc 6214 89bb
000001f0: 0f70 07be f7f3 273e c0f6 223b 8869 443c
00000200: 0160 3abb 20ca 8e3d d6f3 1d3d e126 0bbd
00000210: 3640 0f3b 0a3a 09bc a9ab 4a3c cc1f 313c
00000220: a075 03bd cd8e 01bd e32f 00bd 9c5e 5c3d
00000230: 9e00 a5bb 711c 333d 851a 153d f0fb d2bc
00000240: 8732 48bb 2a75 89bc fd24 823c 89e2 8a3d
00000250: 293e dcbc db56 5a3d 7853 7f3d 2cea 8c3d
00000260: 2748 a5bc f838 06bc ec96 503d 6157 17bd
00000270: 875c 90bc eba1 8abc 196e 31bb 10c8 483b
00000280: 5e20 46bd 1736 34bc d2a1 813d a152 093d
00000290: e738 203a 441f 51bc 4f18 623c 05d8 813d
000002a0: 8526 9a3d 5481 7b3d 35f2 73ba 40df 523d
000002b0: 05b2 12bd a396 3a3c 169c 2cbb 8bf1 8f3b
000002c0: 9e3c 683d 95de 8c3d fdf9 d7bc 015c 99bb
000002d0: 2408 7dbc 5a41 7e3c 05cc 9a3d 5e0e 553c
000002e0: 4217 573d 86fa 5d3d 6e0b 85bc 3dda b93b
000002f0: 234d 1dbd 8c10 babc 4cd1 88bc ee3f 07bc
00000300: 3254 213c d292 f43a c106 31bc 3454 473d
00000310: 5c38 67bc a294 c93b c144 173d 8f76 5c3c
00000320: 955b 743c 9575 083c e492 49bb 0118 26bc
00000330: 032a a738 2d4a 233c a689 e43a 8903 363c
00000340: 1789 003d 935f 1bbb d834 233d 3489 033d
00000350: cd1a 4a3c de49 5c3d e8b6 39bc 25b1 0e3d
00000360: d4d0 a03c 9232 a53c 8ffe 1e3c 8957 e4bb
00000370: 06f3 80bc 0139 a9bb 2dd1 0a3d a150 e9ba
00000380: 034b 633b a5d2 bc3c a0b1 c4bc 2ba6 fa3b
00000390: db4e 2a3d b523 a63b 5324 bdbb a9e2 543c
000003a0: 6784 963b f389 033d 2941 303c 7660 363d
000003b0: a878 8dbd 8827 d23c a7e7 0d3a 5f72 183d
000003c0: e9b8 0fbc b9b3 2cbc 0447 99bd 864d 663c
000003d0: 5e05 acbc d026 54bc 67c4 67bc 4787 0a3c
000003e0: 101d 96bc 83bb c63c 9f0a eaba 7045 eb3b
000003f0: b5c4 a5bd 9fc8 d53c 4052 26bc 255c c639
