ER_200spin/eco/network/network2400000.pth (torch, 238273 bytes, 11 tensors)

node_init_embedding_layer.0.weight f4 [64, 7]
000000 2a 72 dd bb 9d 8c 55 be c1 cc ce bc f9 8f 34 3d
       -0.006757994 -0.20854421 -0.025244119 0.044082616
000010 3d 73 31 3c f6 d2 cd bc 62 db 6f 3d 2b 08 40 3b
       0.010830698 -0.025125008 0.05855883 0.0029301743
000020 7e 69 33 be 97 64 fb bb 43 25 1f 3e 7a 0f 82 bc
       -0.17520711 -0.0076719034 0.15541558 -0.01587652
000030 74 ee 95 3d c4 3a 34 3d 1a 8f 27 3b 75 f5 a7 3e
       0.07320872 0.044001356 0.0025567473 0.32804456
000040 47 46 92 b9 82 e9 a3 bd b5 fc 9c 3a d5 0c 95 3c
       -0.0002789965 -0.080035225 0.0011977168 0.018194595
000050 2e 76 03 3b 43 c6 c2 3b 72 a2 b2 3e e6 14 88 3c
       0.0020059454 0.005944045 0.3488956 0.016611528
000060 f4 8f 7e bd 98 2a bf ba bf af af 3c d1 04 a1 bc
       -0.062149003 -0.0014584837 0.021446107 -0.019655617
000070 b0 81 c9 bb 51 72 8d bb 43 85 21 bc 81 e5 35 bc
       -0.006149493 -0.004316606 -0.009858432 -0.011102081
000080 20 41 31 bc 85 f4 55 bb 6c 62 79 bc 95 ae 35 bc
       -0.01081875 -0.0032646966 -0.0152212195 -0.011088987
000090 67 d5 7a bb 53 3a fe ba e3 15 2f bb b4 0b 59 bc
       -0.003827417 -0.0019396044 -0.0026715926 -0.013247419
0000a0 c2 96 86 bc c1 08 ab bb 7e 20 86 3c c6 73 c8 3e
       -0.016429309 -0.0052195494 0.016372915 0.39150828
0000b0 3d 33 bb 3c e5 86 6f be d4 2d 78 ba f1 1c 88 bc
       0.02285158 -0.23391302 -0.0009467278 -0.016615363
0000c0 82 43 d7 3c 8f c2 f9 3b 57 7f 2d be 0d b3 24 be
       0.026277307 0.00762207 -0.16943108 -0.16083927
0000d0 6b 9f 71 3e de 82 51 b7 eb 5f b5 3d 88 5c d4 3c
       0.2359597 -1.2487841e-05 0.088561855 0.025923029
0000e0 97 29 97 3c 14 76 62 be 3c e3 50 3d 22 91 18 3e
       0.018452449 -0.22115356 0.050997958 0.14899114
0000f0 68 ef 38 bb 99 fe 2d 3d 6b 4d 82 3d 8f 13 64 3b
       -0.002821887 0.04247913 0.063624226 0.0034801697
000100 d2 23 ba 3e 53 b8 06 3d 1c ac 6b bd 45 56 73 bc
       0.36355454 0.03289063 -0.057537183 -0.014852111
000110 38 a4 bb 3c 05 4e b7 3a 0d a7 09 bd f3 cb a2 3e
       0.022905454 0.0013985044 -0.033606578 0.31796226
000120 68 7c 9c 3c e2 94 4b 3d 9d 3f 17 ba 37 6a 8a 3c
       0.01910229 0.049702533 -0.0005769672 0.01689635
000130 e3 72 fa bc 41 d7 01 bd db 43 a9 3e fc ec f4 bd
       -0.03057236 -0.031699423 0.33059582 -0.11959264
000140 0d 11 c7 3d ee d0 d4 b9 41 38 43 3c bb c5 46 be
       0.09720049 -0.00040591456 0.011915267 -0.19411366
000150 0b 69 92 3c 3f c6 c0 3e c7 7a 2e 3c ab bb 0f be
       0.017872354 0.3765125 0.01064939 -0.14036433
000160 85 7a 3d 3a bb e7 e9 3c 0a 15 36 3b 18 b7 88 3c
       0.00072280347 0.02855288 0.0027783536 0.016688868
000170 20 29 80 be a8 bd 57 3c 7a 26 dc 3d b7 cc 16 3c
       -0.25031376 0.013167776 0.10749526 0.009204081
000180 ff 8c 10 bc ee a5 8d 3d 66 fa 8e 3c 28 f4 75 be
       -0.008822679 0.06916414 0.017453384 -0.2401892
000190 0e 50 9c 3c d5 1a ca 3d e1 b7 31 3b 41 b0 0d 3c
       0.019081142 0.09868399 0.0027117657 0.008647979
0001a0 9f 2c 98 3d 80 a5 1c 3c c1 81 e2 bc 79 78 9c bd
       0.07430386 0.009560943 -0.027649762 -0.07640166
0001b0 22 9f 11 3e 7b 60 be 3a 46 37 4a 3b 24 91 ed bd
       0.1422086 0.0014524603 0.00308557 -0.11599949
0001c0 f4 c3 3b 3c 15 6e 3b be 6e 89 e7 bb 11 44 46 3e
       0.011460293 -0.18303712 -0.0070659434 0.19361903
0001d0 5d 03 1e ba 73 d9 8e 3d e1 dc 85 3d 34 87 01 bd
       -0.0006027723 0.06975069 0.0653627 -0.03162308
0001e0 96 04 a5 3e 38 b6 95 3c 3e b2 2a bc 9e 9d 07 bc
       0.3223006 0.018275365 -0.010418473 -0.008277325
0001f0 20 a6 9d 3c ca fc 88 ba a4 0c cf 3c 93 90 87 be
       0.019244254 -0.0010451314 0.025274582 -0.2647749
000200 0b af 44 3c 48 1f 03 3e e2 55 c4 3b 36 71 78 3c
       0.012004624 0.12804902 0.0059916833 0.01516371
000210 74 5f a4 3d 7f 80 d4 bc 91 0d 85 3e 92 25 e7 3c
       0.08026019 -0.025940178 0.25986913 0.028216157
000220 a8 92 18 3d 95 23 57 bc 19 c2 af 3b 8c 5c f3 b9
       0.037249237 -0.013131042 0.0053637144 -0.00046417525
000230 69 8c b2 3c f1 4a ca 3e ec 74 1b 3d ac 4f 8e bd
       0.021795468 0.395103 0.037953302 -0.0694879
000240 5a e4 92 b9 8d a2 fc 3c 7e 33 01 3c 98 18 c0 3c
       -0.00028017425 0.030839229 0.007885812 0.023449227
000250 cd 7c 86 be 1c 59 f9 3c 3a 47 07 3e aa 5c 91 3b
       -0.2626709 0.030437998 0.13210765 0.0044360952
000260 c9 51 a9 3c c1 0f 90 3d cd 9f 5b bb 4d 81 29 be
       0.020668881 0.07034255 -0.0033511997 -0.1655323
000270 cd 0c aa 3d 28 81 6a 3e ca fc 8d bc 50 a6 5c 3d
       0.08303223 0.22900832 -0.017332453 0.053869545
000280 79 ac 74 bc 98 93 f0 ba 5c ca 3f be bd af 7c 3d
       -0.014933699 -0.0018354533 -0.18729538 0.061691035
000290 3b f0 cf 3c 5a c1 06 bb f8 83 89 ba aa 67 96 3d
       0.025383106 -0.0020562024 -0.00104916 0.07343991
0002a0 7c cd ae 3b fa 4b 3e be 96 6e 17 3d 32 0f ac 3e
       0.0053345542 -0.1858367 0.036970697 0.33605343
0002b0 a9 b6 fb 36 f0 bf 90 3d 9e 84 3e 3c 99 cf 5f bc
       7.5016474e-06 0.07067859 0.011628298 -0.013660335
0002c0 2c d9 a6 3e f3 2f 9b 3b d5 bb 1b bd 10 d1 4a 3c
       0.32587564 0.0047359406 -0.038020927 0.012378946
0002d0 d0 56 09 3d 17 84 22 bd 0c 75 04 3c 91 1f c8 3e
       0.033530056 -0.039676752 0.008084547 0.39086583
0002e0 59 08 df 3c f7 d5 7b bc 55 87 35 39 da 8c 3a 3d
       0.02722566 -0.015370837 0.0001731192 0.045544483
0002f0 0f 71 3e 3b d5 0d 02 bb 0a 30 4a 3b 6c a2 8f 3a
       0.0029059087 -0.001984467 0.0030851387 0.001095844
000300 5b 8f 1a bc cb 82 b7 bb 4b da 8e bb 61 bf 28 bc
       -0.009433593 -0.0056003085 -0.0043595186 -0.010299535
000310 fd 52 83 3c 5d 57 b1 3e 59 5b 7b 3c eb 54 8c bd
       0.016030783 0.34636965 0.015341603 -0.06852134
000320 f6 33 15 3c 91 e5 e9 3c 35 fd b8 bc 3a 72 83 3c
       0.009106627 0.028551849 -0.022581676 0.016045678
000330 29 22 84 be 32 19 9d 3c d6 af f4 3d dc fa 89 ba
       -0.25807312 0.019177053 0.119476005 -0.0010527032
000340 75 c3 18 3d fb a8 58 3d b1 29 a0 3a a9 3d 4d be
       0.037295777 0.052895527 0.0012219456 -0.20043053
000350 eb 27 6c 3c e1 74 29 be d2 9f ba bb af 7e bd 3d
       0.014413814 -0.16548492 -0.0056953216 0.092526786
000360 34 3d 20 3c 0b c9 0d 3c 40 f8 5c be f6 fb e0 3c
       0.009780217 0.008653889 -0.21579075 0.027463894
000370 00 82 b9 3d 64 c2 27 bb 03 3f 4d bc 7f 25 4d 3d
       0.09057999 -0.0025598044 -0.01252723 0.050084587
000380 a7 21 21 bb d0 28 2c 3c ae 8f 7e bb 5c 9d 91 bc
       -0.0024586709 0.010507777 -0.0038842964 -0.01777523
000390 b8 ed 82 bb e9 6d 04 bc 1c 46 e9 ba b3 79 bc 3c
       -0.0039956234 -0.008082845 -0.0017797383 0.02300725
0003a0 46 89 f3 3d fa d3 81 be 84 39 5f 3d 2f 04 ef 3a
       0.11891417 -0.25357038 0.05449821 0.00182355
0003b0 3a d1 90 3c 6b 9e 8c be 08 ff 70 3c 25 94 b7 3e
       0.017677892 -0.27464613 0.014709242 0.35855213
0003c0 8c 8f 30 3c 41 8e 57 bd d9 a8 34 3b fb fc 2f 3d
       0.010776412 -0.0526259 0.0027566461 0.04296587
0003d0 87 b5 8a bc 47 56 44 bb 90 68 92 3b 1a c5 35 bc
       -0.016932262 -0.0029958652 0.004468031 -0.011094356
0003e0 0f 6e 3e bc 1e 4a 36 bc 17 e0 ce bb f7 b7 d7 ba
       -0.01162292 -0.011126069 -0.0063133347 -0.0016458024
0003f0 2d 3f 36 3c 97 c9 2d be 36 dd c2 bc 54 4f e9 3d
       0.011123461 -0.16971432 -0.023787122 0.11392084

edge_embedding_layer.edge_embedding_NN.weight f4 [63, 8]
000000 e8 ef a5 3c e2 ae fa 3c e9 fb 79 3e d3 da 3b bd
       0.020255998 0.030600969 0.24412502 -0.045862984
000010 1c 63 83 bc 8e bf 21 bd 4a 63 71 bc 50 a7 68 bd
       -0.01603847 -0.03948932 -0.014733145 -0.056800187
000020 da 91 22 bc 84 89 30 bc a7 67 8d bb 0b 1a 16 bb
       -0.009922469 -0.010774974 -0.004315335 -0.0022903706
000030 d5 af 12 3c 26 f9 b5 bc 19 e0 79 bc b8 72 04 3c
       0.008953054 -0.02221353 -0.015251183 0.008083992
000040 32 71 a5 3c 1f df c1 3c f1 57 58 3e 5b cf 3f bd
       0.020195577 0.023665963 0.21127297 -0.04682861
000050 74 8c c8 bc dd 3b 1c bd cc e2 be bb 4a 1a 1c bd
       -0.024481036 -0.038143028 -0.005825376 -0.03811101
000060 a8 1b 3d 3d 0e 25 38 3d 96 aa 55 3e 5c e8 b9 bd
       0.046168953 0.044957213 0.20865855 -0.09077522
000070 b2 5a cb bc 57 a1 db 39 9e e6 43 3d 79 73 b6 bd
       -0.02482352 0.00041891143 0.047827356 -0.089087434
000080 33 57 76 bc a1 de dc bb e9 1d 7c 3c bd 1a 71 bc
       -0.015035438 -0.0067404066 0.0153879905 -0.014715848
000090 8f fc 20 bc db 78 c7 ba b9 c1 b5 ba 58 a0 08 bb
       -0.00982584 -0.0015218513 -0.0013866938 -0.0020847525
0000a0 bb 87 2a bc e9 6b 1a ba 4a fb 21 3b 5c 68 89 bb
       -0.010408337 -0.00058907137 0.002471643 -0.004193349
0000b0 76 69 37 3b 04 b4 5e bc bd af 3d 3c 3d 4c 30 3b
       0.0027986444 -0.013592724 0.011577544 0.002690091
0000c0 85 fa ff ba 4d 4f 0c bc f4 73 da bd 10 fb b5 3d
       -0.0019529617 -0.008563829 -0.106666476 0.08885777
0000d0 54 97 dd 3d f8 70 bf bb cc 02 9e bd 9b ff bf 3d
       0.10819879 -0.0058423243 -0.07715377 0.09374925
0000e0 f3 75 9a bb c7 08 29 3c 9b 75 14 be 83 a8 f8 3d
       -0.0047137677 0.010317034 -0.14497988 0.12141516
0000f0 b5 f8 a1 3d 8e 58 29 3c 8b 03 0f bc 1b 33 e7 3d
       0.07908765 0.0103360545 -0.008728872 0.112890445
000100 55 d4 76 bb ff cc 97 bd 85 ef 03 be 8b 0e 85 3d
       -0.003766318 -0.07412147 -0.12884338 0.064969145
000110 05 89 d2 3d 2a 0c 13 bb e1 45 26 bc b5 e9 9b 3d
       0.10280041 -0.002243767 -0.010148496 0.076129355
000120 e0 06 c2 bb 6e 26 1a bd d9 e4 dd bd 8a c1 92 3d
       -0.0059212297 -0.037634306 -0.10834665 0.07165821
000130 a1 73 92 3d 65 ea 82 3c 01 2f 9f bd 47 c1 c5 3d
       0.07150961 0.015980909 -0.07772637 0.09656005
000140 07 dd 49 bc 7e 26 85 3c 75 c7 05 be c5 42 d1 3d
       -0.012320763 0.016253706 -0.13064368 0.102178134
000150 98 23 9f 3d f5 e0 ca 3b cb 4c 4c bc bf f5 d6 3d
       0.07770461 0.0061913677 -0.012469481 0.10496091
000160 21 87 07 ba 46 eb 95 ba 9f 19 cf ba e9 d8 3e bc
       -0.0005169977 -0.0011437915 -0.0015800482 -0.011648395
000170 e9 60 09 bc 20 b2 9b bc 9e fc ad bc 13 53 4d bb
       -0.008384922 -0.019005835 -0.021238621 -0.0031330034
000180 76 83 3d bc ff 85 d3 bb 41 33 9a bc 14 67 0f 3c
       -0.011566987 -0.0064551826 -0.018823268 0.008752603
000190 8e 6b 3b bb c0 99 57 bc bb 8b c1 3a 9b 4e 50 bb
       -0.0028598043 -0.013159215 0.0014766374 -0.0031785134
0001a0 6b ce 5f 3d b2 9b ea 3c 18 0b 46 3e 76 a9 ae bd
       0.054640215 0.028638694 0.1934017 -0.08528416
0001b0 02 29 72 bc ec e6 38 ba 5c 11 51 3d c2 fd d8 bd
       -0.014780285 -0.0007053453 0.051041946 -0.105952755
0001c0 22 b6 3c bc 06 dd 0c bc ac 97 fc bd 18 9d 90 3d
       -0.011518033 -0.008597618 -0.123336166 0.07061213
0001d0 f5 c1 b7 3d cd dc 7d 3c f7 7f 60 be ec ff af 3d
       0.08972541 0.015494538 -0.21923815 0.08593735
0001e0 69 2c 89 3d 6c c2 54 3d 8b 90 3a 3e c5 29 9b bd
       0.06697924 0.051943228 0.18219201 -0.07576326
0001f0 18 2d 49 bd f2 8c ac 3a 50 6d 66 3d 49 10 c1 bd
       -0.04911527 0.0013164564 0.056256592 -0.09426934
000200 f9 c2 81 bb 6a b6 7d 3a 03 59 01 be 9d 1d d7 3d
       -0.00396001 0.0009678366 -0.12631612 0.10503695
000210 f3 8f a8 3d 37 99 8c 3b 91 c1 b5 bb 67 c9 b7 3d
       0.08230581 0.0042907256 -0.0055467566 0.08973961
000220 c4 f9 1a 3d 4c c3 71 3c c4 53 6c 3e 5c 6b 89 bd
       0.03783585 0.014756035 0.23078829 -0.0670993
000230 e0 21 02 3d 2c 66 ca b9 ff af cd 3c 63 c5 84 bd
       0.031770587 -0.00038604566 0.025108336 -0.06482961
000240 c5 d6 63 3d 40 83 33 3c c6 df 48 3e cc a2 b7 bd
       0.055624742 0.010956585 0.19616613 -0.08966598
000250 a4 f4 98 3a 35 55 bf b9 fa 93 38 3d 42 c3 e5 bd
       0.0011669588 -0.00036493843 0.045062996 -0.11218883
000260 2e d4 14 3b 26 67 29 3b 3f 4d da bd 96 10 a8 3d
       0.0022709477 0.0025848835 -0.10659265 0.082062885
000270 37 3b b9 3d 68 5e 5c 39 4b 7c 61 bd e7 71 c6 3d
       0.090444975 0.00021016004 -0.055050176 0.09689694
000280 d8 41 bd ba 29 54 20 bc 6d 0c 1d 3b 3d ed a9 3a
       -0.0014439179 -0.00978569 0.0023963705 0.0012964379
000290 cd 6a a4 ba 85 51 27 b9 6f 54 e7 bb 4d 3b 16 bc
       -0.0012544036 -0.0001595673 -0.007059626 -0.009169412
0002a0 91 9f a3 ba 31 a3 19 ba 0a df 01 be c1 6d bb 3d
       -0.0012483468 -0.0005860804 -0.12682739 0.09151793
0002b0 de 46 c9 3d 3e a5 53 bb 4f 77 3d bc 2a 17 d8 3d
       0.0982797 -0.0032294537 -0.01156409 0.10551293
0002c0 18 bb 5e 3d 35 2f 74 3d 2c 89 50 3e 04 83 b9 bd
       0.054377645 0.059615333 0.20364827 -0.09058192
0002d0 6e f9 a1 bb 8e 15 dc b7 1b 33 79 3d a0 b8 b5 bd
       -0.0049430644 -2.623608e-05 0.060839754 -0.08873105
0002e0 e0 74 c2 ba 4b 84 8e ba a0 ed d1 39 26 16 00 3b
       -0.0014835857 -0.0010873167 0.0004004063 0.0019544451
0002f0 57 31 92 bc b9 db b0 bb de 23 34 bb 55 72 7c bb
       -0.017845793 -0.0053972867 -0.0027487199 -0.0038520296
000300 11 46 8c 3d b1 53 2c 3d 20 65 4e 3e 40 9f e1 bd
       0.068493016 0.042072 0.20155764 -0.11016703
000310 1a b4 0a bd 9e 84 cc 3b e4 f6 2b 3d 35 e4 cb bd
       -0.033863164 0.006241395 0.0419835 -0.099556364
000320 ac 35 b9 3c ed 2e be 3a 35 02 7a 3e 86 6a 62 be
       0.0226086 0.0014509835 0.24414904 -0.22110948
000330 2c 9f 21 3d 45 23 de ba 4f a0 8d 3c cf 2f 3f be
       0.03945844 -0.0016947767 0.017288355 -0.18670581
000340 7b eb 75 bc 2a 55 f5 39 11 e3 f2 bd 6d ed bb 3d
       -0.015009756 0.00046793494 -0.11859716 0.09176145
000350 63 d8 a4 3d ea 93 0e 3c 1c 01 47 be 71 db bf 3d
       0.08049085 0.008702258 -0.19434017 0.09368027
000360 1b 2c 59 3d cb dd b1 3c 9b 62 4b 3e 26 d8 d6 bd
       0.053020578 0.021712204 0.19861834 -0.10490446
000370 2b 98 28 3d 31 e8 a1 ba 14 4a 2b 3d d6 17 be bd
       0.041160744 -0.0012352524 0.041818693 -0.0928189
000380 a2 ce 72 bc 5d e9 72 bc f8 21 88 bc e5 36 7a bc
       -0.014819773 -0.014826146 -0.01661776 -0.015271877
000390 bc 7f f9 bb ce d3 45 bc 06 18 54 bc 4a 6b 2c bc
       -0.007614104 -0.012074424 -0.012945181 -0.010523627
0003a0 79 b7 5f bb 01 c0 b1 bc 61 60 b1 bd c2 76 b6 3d
       -0.0034136458 -0.021698 -0.08660961 0.0890937
0003b0 aa b5 ca 3d 55 04 c3 3b f3 b5 0a be 4a e9 b9 3d
       0.09897931 0.005951444 -0.1354597 0.090776995
0003c0 2e cb 21 3d 80 ce 55 3d fc 93 4c 3e c9 ba d0 bd
       0.039500408 0.052198887 0.19978327 -0.101918764
0003d0 56 bb 9f bc 56 bb 5e 3a 02 b8 60 3d 05 02 ab bd
       -0.019498508 0.0008496543 0.054862984 -0.083499946
0003e0 c6 79 04 3d 2c 7f 46 3a eb 4a 8d 3e 41 06 49 be
       0.032342695 0.00075720507 0.2759622 -0.19631292
0003f0 27 b0 53 3d 32 4d 1d 3b 1b 27 51 3c 51 a2 3f be
       0.051681664 0.002400231 0.012765671 -0.18714263

edge_embedding_layer.edge_feature_NN.weight f4 [64, 64]
000000 73 1b 40 3d ff a9 da 3b 63 8d 33 3d ed 6a 62 3d
       0.046901178 0.006673097 0.04383601 0.055277754
000010 f9 9d 22 3c 4c 99 06 3c 1e e1 cb bc 94 ee 6a bd
       0.009925359 0.00821526 -0.024887618 -0.057356432
000020 6c b6 a6 bc 34 44 bd bc cf e9 20 bd 91 74 a1 3a
       -0.020350657 -0.02310381 -0.039285477 0.0012318065
000030 33 a8 b9 bb 8a d7 90 3d 8e 6f f5 bc 1f 9c 6b 3d
       -0.005665803 0.07072361 -0.02996042 0.057521936
000040 3f f0 fe bc 23 e5 e3 3c c8 80 02 3d 86 0a 43 bc
       -0.031120418 0.027819222 0.031861097 -0.011904364
000050 fb cc e5 38 da b9 0d bd 29 0d 1f 3d 70 99 29 3b
       0.000109577515 -0.03460107 0.03883091 0.002587881
000060 fe 40 18 3d 89 80 f0 3d 59 7a 37 bd 19 62 f6 3c
       0.037171356 0.11743266 -0.044794414 0.030076073
000070 7f a5 0e bb 93 c9 34 bd b9 89 2e 3d 07 ee f1 3d
       -0.0021766124 -0.04413755 0.04261181 0.11812978
000080 43 a9 ff bc 70 28 0d bd dc c0 89 3d 2a d2 35 bb
       -0.03120864 -0.034462392 0.06726238 -0.0027743676
000090 67 05 2a 3d 1f a9 fb bc c0 22 3b bd 2b 89 71 3d
       0.04150906 -0.030720292 -0.045687437 0.058968704
0000a0 e1 bd 22 bd 08 98 59 3d 87 22 8b 3c 5c 0c 88 3d
       -0.039731864 0.053123504 0.016984237 0.06642982
0000b0 f3 63 5e 3b 05 ff 08 bd ce 57 2d bd 78 23 13 bb
       0.0033934086 -0.03344633 -0.042320065 -0.002245156
0000c0 f6 60 09 3b 12 44 46 bd 97 4d 8e 3c 2f b6 29 bc
       0.0020962334 -0.04840476 0.017370982 -0.010358377
0000d0 a6 a2 b0 3c f9 a5 54 3c ea e4 42 bd a9 31 d5 3c
       0.021561932 0.012979024 -0.04758159 0.026024656
0000e0 49 e0 8d 3d e4 43 e7 3d dc 2d 18 3c f1 16 9b 3c
       0.069275446 0.11292246 0.0092882775 0.018931838
0000f0 27 d6 8a 3d 7d fa a1 3d 41 c6 b0 3c e2 2f 5e 3d
       0.067791276 0.07909105 0.02157891 0.054244883
000100 f4 3f 30 bc 1d 46 05 bc e5 e4 cb 3a 93 e1 06 3c
       -0.010757435 -0.008134392 0.0015555887 0.008232492
000110 3b c1 fb 3a 29 c2 0d 3b 0b 19 f8 3b 85 d9 5e 3c
       0.0019207367 0.002163062 0.0075713447 0.013601665
000120 c0 6f f1 bb 7e 9c 6b bb 53 80 00 bc f0 30 0b 3a
       -0.007368058 -0.003595143 -0.007843095 0.00053097215
000130 a9 c0 61 3c 7b 8d cc 3b b5 40 f5 3b 79 5e 64 bc
       0.013778844 0.0062424517 0.0074845203 -0.01393854
000140 ca 8e 2d 3b 0f bd fc 3b ee 6d 04 3c e2 bf 07 b9
       0.0026482814 0.007712967 0.00808285 -0.00012946085
000150 cf 71 16 bc b8 03 14 bc 66 43 96 bb 00 88 ca bc
       -0.0091824075 -0.00903409 -0.0045856712 -0.024723053
000160 f7 18 1a 3c 0e d6 4e 3c 61 06 71 bb b2 7d 3c bb
       0.009405366 0.012624277 -0.0036777484 -0.0028761444
000170 db cc 4c 3c c9 9d 8d bc 89 d5 bf 3b f0 d3 97 3b
       0.012500013 -0.017287152 0.005854313 0.004633419
000180 69 f0 6c b8 1e c7 7f bc b4 ef 2d bc 0a fb 45 bb
       -5.6490684e-05 -0.015611438 -0.010616232 -0.0030209445
000190 79 c5 ae bc c7 52 97 3b cd 1f ac bb 69 7a 15 3c
       -0.021334397 0.004618022 -0.0052528144 0.009123423
0001a0 54 9e 8e 3b b3 81 50 3c 9c 85 c7 3b 9b 24 a3 3b
       0.0043523703 0.012726235 0.0060889255 0.004978729
0001b0 db c8 22 bb 53 58 4a bc d0 3d 18 ba b7 aa 88 3c
       -0.0024838957 -0.01235016 -0.00058075506 0.016682966
0001c0 bb e4 5b 3c f3 47 41 3a f0 e0 b4 3b ea 70 63 3b
       0.013421233 0.0007373087 0.0055199787 0.0034704753
0001d0 45 dd c0 bc f4 6d 48 bc 9d 6e be 3b b4 96 93 bc
       -0.02354301 -0.012233246 0.005811526 -0.018016197
0001e0 a8 2d 0d bc 50 80 dc bb 79 e1 ae bb bd ac 03 3a
       -0.008616842 -0.006729163 -0.005336937 0.00050229934
0001f0 5c 89 df 3b 1e 31 a9 ba 08 57 13 3c 8f 7c d6 bc
       0.0068217944 -0.0012908315 0.008992918 -0.026182441
000200 62 0c f4 3c fb 22 d0 bb c6 06 81 3d 96 2b 30 bc
       0.02979106 -0.0063518262 0.0630012 -0.010752579
000210 2e 3d 3e bc c2 eb 84 bb a2 41 1e 3d 1a 13 6e 3c
       -0.011611266 -0.004056425 0.03863681 0.014530921
000220 f0 4b 21 3d f8 88 05 3c 72 00 65 3c 7a 20 10 3b
       0.03937906 0.008150332 0.013977157 0.0021992014
000230 80 34 fb ba 1c ae 8a bc 58 7a 0b bb 29 21 4e bc
       -0.0019165426 -0.016928725 -0.002128264 -0.012581148
000240 57 bf 2d 3b 15 af e8 3c b4 10 f3 bb 1e 3a e2 3c
       0.0026511753 0.028403798 -0.0074177627 0.027615603
000250 fd 53 c6 bc a5 18 ed 3c 94 5d 42 3b 27 e6 86 3b
       -0.02420997 0.028942415 0.0029657828 0.0041167918
000260 88 4d 83 bc 0d 37 e3 bd 3c 68 7e 3c 0c 3b 37 bc
       -0.01602818 -0.110944845 0.015527781 -0.0111835115
000270 35 95 f6 bb d1 8a 4a 3c 63 38 6d 3c 02 3f 04 be
       -0.007525111 0.012362198 0.014478776 -0.1291466
000280 11 86 05 3d 0c b2 0d 3d 8a a1 60 bc d5 11 6f 3a
       0.03259856 0.034593627 -0.013710389 0.00091197836
000290 ab 50 7a bc 92 b4 13 3d 71 c0 a6 3c 6a e0 f2 bc
       -0.015278022 0.036060877 0.020355435 -0.029648025
0002a0 56 2a 41 3d aa 9a 8a 3c c8 19 1c bc 94 72 4a b8
       0.047159515 0.016919453 -0.009527631 -4.8267262e-05
0002b0 7b 60 48 bb 03 a8 49 3d 93 81 2c 3d d8 4f 38 3c
       -0.0030575085 0.049232494 0.04211576 0.011249505
0002c0 6b d2 58 bc 0a 0e 05 3d bd 89 0d b9 0b 16 36 3c
       -0.013233761 0.03248409 -0.0001349812 0.011113654
0002d0 0f af 0b 3b 03 67 cd 3a c9 12 2b 3d 5b f9 3d bc
       0.002131406 0.0015670959 0.04176596 -0.0115950955
0002e0 70 0e c7 bc 3c e2 b0 bd 1b 3c 9e 3b 43 2e 12 3c
       -0.024298877 -0.08636901 0.0048289425 0.0089221625
0002f0 95 de 4b bd 01 f1 f0 bc 2c b0 a8 bb ca 00 7a 3b
       -0.049772818 -0.029411795 -0.0051479544 0.0038147443
000300 9c 66 64 bc 57 1e e1 bb c6 44 18 bc d4 c6 0b 3c
       -0.01394048 -0.006870072 -0.009293741 0.008531291
000310 e5 1f 5b 3b 8d ab 06 bc 2a d1 22 bc 25 eb f1 35
       0.0033435759 -0.008219612 -0.009937564 1.8024335e-06
000320 52 9b d5 3b c1 e4 cd ba 4f e1 0a 3c dc 1a f1 bb
       0.0065187598 -0.0015708433 0.008476569 -0.007357938
000330 d7 1d 97 bb 7e a0 13 3b 7d 20 10 bc e3 d0 18 bb
       -0.0046117115 0.002252608 -0.008796808 -0.0023317866
000340 65 e4 8e bc 73 cc c7 3b 24 6c 81 bc 27 9a a6 bb
       -0.017442891 0.0060973703 -0.015798636 -0.0050842944
000350 a2 c0 87 3b 83 42 97 bb ba 78 86 b8 3a d2 1c bb
       0.0041428367 -0.004616083 -6.412105e-05 -0.0023929016
000360 54 f5 24 3b 92 8a 28 bc d8 f6 48 bb ed 3f 01 3c
       0.002517064 -0.010286944 -0.0030664708 0.007888776
000370 f8 81 31 3c 20 03 96 ba 56 77 30 bb e0 12 84 ba
       0.01083421 -0.0011445023 -0.0026926599 -0.0010076426
000380 08 8e 85 bc c1 81 ea 3b fb d0 88 3a 4a 8a 47 39
       -0.016303077 0.007156581 0.0010438258 0.00019029636
000390 d8 bb 6b 3a 35 73 b7 bb 1d 83 b8 bb cf c7 0a 39
       0.00089925295 -0.0055984505 -0.0056308643 0.0001323514
0003a0 06 0f b3 bb 46 bf 89 bb e2 05 03 39 24 5f 5c b9
       -0.0054644374 -0.00420371 0.00012495325 -0.00021016278
0003b0 c0 a7 8f 3c 9f 19 8b 3c 42 59 5d bc 35 39 bb 3b
       0.017536044 0.01697999 -0.01351005 0.0057136067
0003c0 c1 9b 24 ba a7 91 a4 b9 95 33 47 3b db 2f 5a bc
       -0.00062793127 -0.00031389037 0.0030395736 -0.013317074
0003d0 a6 49 16 ba bd 55 b3 3b cb c1 cd ba 05 fa fb bb
       -0.00057330204 0.0054728673 -0.0015698014 -0.0076897168
0003e0 a2 cc 57 3c 3b bc 5d bc 78 85 bc b9 4f f0 22 ba
       0.013171347 -0.013533647 -0.00035957596 -0.00062156183
0003f0 16 54 06 bb 9f eb 0d bc 37 7b d4 3b 9d 6e 9e bb
       -0.0020496896 -0.0086621335 0.006484415 -0.0048349635

update_node_embedding_layer.0.message_layer.weight f4 [64, 128]
000000 b9 17 7f bc 44 d9 af 3b 1f 01 67 bc 8e 40 8a bb
       -0.015569621 0.0053664763 -0.014099388 -0.0042191213
000010 1a 80 92 bc a3 54 3a 3c 54 30 fd 3b b6 c4 de 3b
       -0.01788335 0.011372718 0.0077267084 0.006798352
000020 93 22 86 bb 29 73 9c bc c1 61 1b 3c 9c 5a 90 bc
       -0.004093477 -0.019097881 0.009483756 -0.01762133
000030 63 d3 88 bc 27 93 1a bc 3e 9c d9 3b 8a d6 0f 3b
       -0.01670236 -0.009434498 0.00664094 0.0021947944
000040 5a e5 4c bc 51 6b 73 bb 47 fc 6a 3a c7 de 09 3c
       -0.012505854 -0.0037142823 0.0008963984 0.008414931
000050 d9 f6 3f bc ec 77 ab bc f6 33 00 bc 2e 81 f8 bb
       -0.011716568 -0.020931207 -0.007824888 -0.007583759
000060 2b 0c b0 3c 79 ef 4a 3c 5f db 97 bb 48 51 85 bb
       0.021490177 0.012386196 -0.0046343054 -0.0040685274
000070 43 b7 c5 bb fe 60 73 bc 6e 15 0d bc 31 90 7e 3c
       -0.0060338094 -0.014854668 -0.008611066 0.015537308
000080 49 2e f7 ba d3 66 3a 3c 54 82 75 3b b0 ef a1 bb
       -0.0018858399 0.011377054 0.0037461715 -0.004941903
000090 e7 6a 52 bb c4 bb 96 bb 0d 5a 9c bc 80 ca 1b bc
       -0.0032107176 -0.00460002 -0.019085908 -0.009508729
0000a0 60 d9 b2 bb 70 34 9f 3b 6f 3e 82 bc f5 2a 3d bc
       -0.005458042 0.004858546 -0.015898911 -0.011545886
0000b0 23 16 74 3b 00 fd 1d 3c 06 9f 42 bc ee fe e4 b6
       0.003724464 0.009642839 -0.011878734 -6.824607e-06
0000c0 08 49 23 bc b4 4e 5c 3c f1 b3 db ba a3 03 b0 bb
       -0.0099661425 0.013446499 -0.0016762001 -0.0053715273
0000d0 48 31 41 3b 2e ca 9a 3b 16 c9 95 bc 0a f2 61 3c
       0.0029478837 0.0047238087 -0.018284362 0.013790617
0000e0 22 e4 ed bb f9 b9 bf bb 1b 26 17 bc 1c cc 88 ba
       -0.0072598616 -0.005851027 -0.009225394 -0.0010436806
0000f0 09 dd 28 3b eb 6e b7 3c 96 3b 02 3c 76 ee 1b bb
       0.0025766513 0.022391757 0.007948777 -0.0023793257
000100 70 09 ce bb 76 3f 1f bb 9e 23 37 3c bd 63 4a bc
       -0.006287746 -0.00242993 0.011177925 -0.012352881
000110 ed 77 70 b9 e5 4b 2d ba cb 7f 69 bc 2f 64 0f 3c
       -0.0002293286 -0.00066107354 -0.01425166 0.008751913
000120 8e 70 11 bc 23 e9 00 bb 82 34 a2 bb df e5 60 3c
       -0.008876933 -0.001967021 -0.004950107 0.013726681
000130 d4 80 8e bb 9e 2d a3 3b e3 42 e4 3a 6d 20 a7 3c
       -0.0043488536 0.004979803 0.0017414953 0.020401204
000140 9f 51 8d bb 2d d9 04 3a 8c 4a a5 ba d7 23 ac bb
       -0.0043127085 0.0005067762 -0.0012610718 -0.005253296
000150 b0 ce d8 bb e0 a5 a0 3b b4 59 0b bc 7c 0d 8a 3c
       -0.006616436 0.0049025863 -0.008505274 0.016852133
000160 b5 e9 3e 3b 0d ac 97 3a f7 2b 96 3b 29 b8 5e 3c
       0.0029131 0.0011571661 0.0045828777 0.013593712
000170 a6 a9 5d bc a1 53 64 bc a8 14 be bb f8 b5 a5 3c
       -0.013529217 -0.013935954 -0.0058008023 0.020228371
000180 56 0b 7a 3c b4 e2 97 bc ca 9d 62 3c 45 fb ac ba
       0.015261492 -0.018540718 0.013831565 -0.0013197443
000190 7b c8 7d 38 1e 3c 0b bb 49 70 17 bc ae 43 c8 3c
       6.0506612e-05 -0.002124555 -0.009243079 0.024446335
0001a0 f5 2f 1c 3b ec 91 33 bb c0 36 74 3b 42 57 97 3b
       0.0023832296 -0.0027400209 0.003726408 0.0046185562
0001b0 67 3f 41 bc dd 15 ac bc 1b dd ec 3b 10 c5 ba bb
       -0.011794901 -0.021006519 0.0072285063 -0.005699761
0001c0 91 9b c6 bb 69 95 72 3c 53 6f dc bb 37 b9 08 3c
       -0.0060610254 0.01480613 -0.006727138 0.00834494
0001d0 67 d9 19 3b 54 bb e5 3a 90 1c dd 3b 6b 37 39 bc
       0.002347553 0.0017527142 0.0067477897 -0.011304717
0001e0 bd f4 0a 3c 56 54 06 3c 46 01 00 bc 5c 40 5c bc
       0.008481202 0.008198818 -0.007812804 -0.013443079
0001f0 72 e3 38 bb cf f1 d2 3a 7d 7c fe 3b 18 56 6c bb
       -0.002821174 0.0016093793 0.007766305 -0.0036062058
000200 7b e9 8a bb 71 85 a4 bb b2 e1 66 bc 31 c2 f7 3b
       -0.004239259 -0.0050207903 -0.014091896 0.007560991
000210 ee af 9a bb d2 00 77 3c a0 c5 b2 3a be 70 91 bc
       -0.0047206795 0.015075879 0.0013639219 -0.017753955
000220 92 40 e9 3b da 2c 9c 3c 15 af ef 3b 53 db 1a ba
       0.007118293 0.019064356 0.0073145726 -0.00059073156
000230 bb 00 02 3c 7c c7 bc ba b7 0d 6d 3b 69 6c 29 3c
       0.0079347445 -0.0014402713 0.0036171505 0.010340788
000240 28 ca d4 bc 8f fd 28 3c c3 a8 37 3a 5f 86 31 3c
       -0.025975302 0.010314359 0.00070060435 0.010835259
000250 f8 9a e8 3b 93 17 01 3c af 7f 3d 3c 4c c9 c0 bb
       0.007098552 0.007879156 0.011566087 -0.0058833715
000260 e3 8d 0f bb a6 31 2d bc f0 d5 3b 3c 18 56 36 3c
       -0.002190464 -0.010570919 0.011464581 0.011128925
000270 33 fd 02 3c 15 9b 7a bc fd 93 3f 3c 41 eb ce bb
       0.007994938 -0.0152957635 0.011692998 -0.0063146655
000280 bd bc 71 ba 05 eb 71 3a 60 65 81 bb 35 4b 5a 3b
       -0.00092215446 0.0009228441 -0.0039488524 0.0033308987
000290 ef 16 33 bc b3 46 13 3b ce ce 6e 3c 02 a4 08 bc
       -0.010930761 0.002247256 0.014575673 -0.008339884
0002a0 0c 36 72 39 a6 d1 7a 3b 42 0a 0d 3c 2b 0a 72 bc
       0.00023099052 0.0038271933 0.008608403 -0.014772932
0002b0 d7 65 74 bb 72 14 e7 ba 45 ab 85 3c 6a 26 5d b8
       -0.0037292147 -0.0017629995 0.01631702 -5.2726282e-05
0002c0 aa a0 a5 bb e7 e5 61 ba eb 59 8d 3c 93 02 0c bc
       -0.005054553 -0.0008617327 0.01725479 -0.008545536
0002d0 db ca 32 3c d5 ff 54 bc 0e 08 78 3c c5 ad 62 3a
       0.010912622 -0.013000448 0.015138639 0.00086471095
0002e0 cb a5 21 bb 08 18 59 bc 65 60 62 3c 5a 9e 84 bc
       -0.002466547 -0.013250358 0.013816928 -0.01618879
0002f0 b0 00 33 3b 01 cd 8f 3b 5d e5 9f ba c0 bd 17 3b
       0.0027313642 0.004388452 -0.0012199093 0.0023153871
000300 02 ba 23 3b 7e de 04 ba d2 fd 58 bc f3 d5 ef bb
       0.0024982695 -0.00050685543 -0.013244109 -0.007319206
000310 df 20 b4 bb fc 13 18 3c 4a d8 05 3b 88 1e 12 bb
       -0.0054970826 0.009282108 0.0020423108 -0.002229603
000320 c4 da 66 ba 2d d1 06 3b 49 31 c6 39 00 8e 51 bc
       -0.00088064023 0.0020571456 0.00037802223 -0.012790203
000330 ac c1 5b 3c 7e 6f 87 3b 20 6a a3 bb a7 95 9f bb
       0.013412874 0.004133164 -0.0049870163 -0.004870135
000340 e8 20 96 bc c3 70 1c 3c 73 fc 32 bc bc de 7f bb
       -0.018326238 0.009548369 -0.010924446 -0.0039042672
000350 29 16 49 3a 34 57 4d 3c 21 0c 3c 3a 44 47 5f bc
       0.00076708436 0.012532998 0.0007173438 -0.013627831
000360 1c 04 0d bb a2 5f 97 b9 70 0a f3 ba 05 7c 13 bc
       -0.0021517342 -0.00028872216 -0.0018542539 -0.0090017365
000370 ee 68 1d 3c ff ac 6d 3b e1 8b b7 bb 03 c3 5d ba
       0.009607537 0.0036266444 -0.0056013917 -0.000845954
000380 4e e2 93 ba 12 46 d9 bb 85 fb 0a bc 0a a1 f1 b8
       -0.0011282654 -0.0066306675 -0.0084828185 -0.000115217714
000390 6a d6 2b bb 92 55 19 bb e5 42 03 bc 86 88 8d bc
       -0.002622033 -0.002339695 -0.008011554 -0.017277014
0003a0 73 8d 60 3b be 3b 64 bc 93 ef 99 3b b3 51 65 bc
       0.0034263998 -0.013930259 0.004697749 -0.013996529
0003b0 17 dc f5 bb da 16 0b 3b 15 71 97 bc 9e 71 3c bc
       -0.0075030434 0.0021223337 -0.018486539 -0.011501698
0003c0 10 36 be 3b 09 c3 37 3b e5 69 ca b9 a9 da 74 3c
       0.0058047846 0.0028039834 -0.0003860734 0.014944711
0003d0 37 d3 ed 3b 9c 36 4e 3c f2 97 5c 3c 64 75 9f bc
       0.007257845 0.012586262 0.013463961 -0.019465156
0003e0 da 54 1c bb 61 51 4f 3b 77 91 54 bc b2 07 2d 3c
       -0.0023854286 0.00316342 -0.012974135 0.010560917
0003f0 10 f1 fe bb a9 09 2d 3b 9e 41 8e 3c 9d d6 b9 bb
       -0.0077802017 0.0026403463 0.017365273 -0.005671336

update_node_embedding_layer.0.update_layer.weight f4 [64, 128]
000000 d7 05 f6 3b b1 16 ec 3b 35 f2 62 3a c8 21 a9 bb
       0.0075080204 0.0072048535 0.00086573075 -0.0051614977
000010 54 be f3 3b 42 27 44 bc 0d 7a b9 bb 8f ee 99 ba
       0.0074384604 -0.01197225 -0.0056603015 -0.001174407
000020 70 e8 da 3b 8f 7e 6c 3c 84 fb 3d bc 45 4d da ba
       0.0066805407 0.014434471 -0.0115956105 -0.0016655108
000030 04 2f a5 bc 22 46 2b ba b5 90 06 bb 46 b8 04 bc
       -0.02016402 -0.0006533583 -0.002053303 -0.008100575
000040 f0 c3 49 3c 2d 10 cc 39 24 b2 65 bc f1 8a 51 bb
       0.012314782 0.00038921964 -0.014019523 -0.0031973685
000050 3d 05 4a ba 6f 68 1f bc f3 67 17 bc 13 7e 8b bb
       -0.0007706469 -0.009729489 -0.009241092 -0.0042569726
000060 6c 0e 23 bc 01 64 24 ba c0 b3 45 bc 6e 0e 30 ba
       -0.009952169 -0.0006271005 -0.0120667815 -0.00067160174
000070 b9 48 f3 3a 75 d8 26 bc 53 8c 30 3c 5c 86 c9 bb
       0.0018561102 -0.010183443 0.010775643 -0.00615005
000080 89 f7 a5 bc 1d ad 09 bd 95 e6 10 bc 8f cc cd 3b
       -0.020259636 -0.03361236 -0.008844038 0.006280489
000090 35 d2 56 3c 01 96 0a 39 97 28 06 bc 9e d8 8c 3c
       0.013111641 0.00013216586 -0.008188388 0.017193135
0000a0 4d 73 29 3c c4 b0 8f bb fd d2 7e 38 ed 0b 0c bc
       0.010342431 -0.004385086 6.0754817e-05 -0.008547765
0000b0 e8 62 f1 bb 10 10 67 3c f0 4f c7 bc a5 87 9c 3b
       -0.007366527 0.014102951 -0.02433011 0.0047769123
0000c0 ee 6a 6f bc df cc 94 3b 9b 4f 91 bb 91 c7 11 bc
       -0.014612896 0.004541024 -0.0044345385 -0.008897678
0000d0 d6 43 31 bc a6 4d ee bb 52 93 95 bb 73 c5 a7 39
       -0.010819396 -0.00727244 -0.004564681 0.00031999833
0000e0 2b 17 e6 ba 53 63 53 bc 42 a4 a7 3b be 83 de bb
       -0.0017554512 -0.012902099 0.0051160166 -0.0067906072
0000f0 d4 e9 ff ba 4d c9 f3 bb 9c 8b a4 3c 8d 4b 6b 39
       -0.0019524642 -0.0074397684 0.020086102 0.00022439491
000100 cc ff 4b 3c 43 bd 80 3b bc 6b 12 3c ff 3b 5a 3b
       0.012451123 0.0039288118 0.008936819 0.003329992
000110 e9 b7 8b bb 70 5b a2 bb 60 af 52 3c 76 8c 67 bb
       -0.004263867 -0.004954748 0.0128591955 -0.0035331524
000120 d8 a3 d3 bb 0c f3 e4 3b b9 03 ef 3b 08 85 42 ba
       -0.0064587407 0.0069869813 0.007294145 -0.0007420336
000130 85 1d 85 3c ae 19 bd 3a ce fb ce bb 7d e7 67 3b
       0.016249428 0.0014427209 -0.0063166386 0.003538578
000140 bb c9 8a 3c ba 3c 28 bc 33 01 e6 3b 42 10 9f 3a
       0.016941896 -0.010268385 0.007019186 0.0012135583
000150 9e 3a 20 3c 8f 82 34 bc d1 ff 10 bc 3a 51 1b 3b
       0.0097796 -0.011017456 -0.008850054 0.0023699538
000160 35 c6 1e bc e8 52 47 bc 5c ce ab 3c 3e db 7a 3c
       -0.009690811 -0.0121657625 0.020972423 0.0153110605
000170 e1 76 8c 3a d7 d9 88 3c 21 c3 37 bb 97 fe 5e bb
       0.0010716581 0.016705437 -0.002803989 -0.003402626
000180 fd 57 5b 3b de cd 48 3c 8a 2a a0 3a de ef 2a bc
       0.0033469193 0.012256114 0.0012219709 -0.010433165
000190 ad 25 80 bc da 09 ad bb e8 ba 3b bc 0d 81 a8 bb
       -0.015642965 -0.0052807154 -0.011458136 -0.005142337
0001a0 17 24 4c bc a2 66 7b 3c a3 ee 78 bc c3 fd 29 bc
       -0.012459776 0.015344294 -0.015193614 -0.010375443
0001b0 43 8e c7 ba 25 c5 de bc 4a 6d 9a bc 9f d9 c0 bb
       -0.0015224892 -0.027193615 -0.018850941 -0.0058853175
0001c0 c5 6c 78 bb 23 6a 31 3b 7b a8 b7 bb 64 1b 16 bc
       -0.0037906629 0.002707132 -0.0056048012 -0.009161804
0001d0 c0 43 18 bc c5 d8 41 bc f8 82 20 bc a9 76 8a 3b
       -0.009293497 -0.011831467 -0.00979685 0.004225571
0001e0 8b 9f 10 bb a9 3d ba 3b bb 34 d2 3c 09 9b bd bc
       -0.0022067751 0.00568362 0.02565991 -0.023145216
0001f0 94 c8 e2 bb 15 8d 5d 3b 19 62 22 bb 13 00 76 3c
       -0.0069208834 0.0033806015 -0.002477771 0.015014666
000200 7d a4 05 3d 92 e2 b0 3c d3 86 b8 bb 17 93 88 3b
       0.03262757 0.021592412 -0.0056313067 0.004167925
000210 a5 df ad bb 7b ff ae bb 83 74 12 bd c0 62 b6 3b
       -0.0053062015 -0.0053405142 -0.035755645 0.005565971
000220 d5 a0 2d 3d 60 6f 4a bc 7d 70 63 3c 1f fa c7 3c
       0.04238971 -0.012355655 0.0138818 0.02441126
000230 c8 d6 a2 bc e5 b4 97 3c 61 59 05 3d a3 b4 8d bd
       -0.019877806 0.018518874 0.03255594 -0.06919219
000240 1d 0a f5 3c 1f 19 3b bb e6 be 26 3d d4 4f 37 3c
       0.029912049 -0.002854891 0.0407094 0.011188466
000250 3a da 0a bb 66 b1 1a 3d 52 d8 8c 3c 71 92 39 3d
       -0.0021187202 0.037766837 0.017192993 0.045305673
000260 dd 1d 06 3c 6c 33 0f bb a2 86 84 3c ec 7d f5 3b
       0.008185831 -0.0021850718 0.01617748 0.0074918177
000270 25 43 79 bc 07 f4 cf 3c e0 c6 a0 3d b8 aa c4 3c
       -0.015213762 0.025384916 0.078504324 0.024007186
000280 69 6d 51 bc 27 a6 fa bd 4a bc be bc b1 52 84 3c
       -0.012782433 -0.12238722 -0.023283143 0.016152712
000290 ad 94 30 3d 8e 25 53 3d 9f 4a 8d 3d 0e 29 d5 bc
       0.04311054 0.051549487 0.068989985 -0.026020553
0002a0 ed d5 a0 3c 95 f3 83 39 e2 be 32 3d f2 b7 b9 3c
       0.019633258 0.0002516775 0.04363907 0.02267072
0002b0 3e 70 f9 3a 41 6d c3 bb bf 33 de bc 6c 5a 2f 3c
       0.0019030643 -0.005963952 -0.027124284 0.010702711
0002c0 5e 5a d1 bc ba 46 34 3d 9b bb c1 bc 0b e4 8c bd
       -0.025555786 0.044012763 -0.023649028 -0.06879433
0002d0 53 e8 99 3d b2 e0 01 3d 81 e0 ca 3c 87 91 9d bc
       0.075150155 0.031708427 0.024765255 -0.019234432
0002e0 28 2f 53 bc bb 55 12 3d e8 73 50 3c a3 4b a6 3c
       -0.012889661 0.03572629 0.012722947 0.020299738
0002f0 e4 f7 87 bc 9f e1 20 3d 1d b0 67 3d f2 30 4d 3c
       -0.016597696 0.03927767 0.05656444 0.0125238765
000300 42 5d ab bb 0f cb 1c 3c 10 91 ce 3c 21 ba 1e 3a
       -0.005229623 0.009569897 0.025215656 0.0006054957
000310 09 a3 e9 bc 51 97 07 bc 20 7a 33 3b f9 c4 a1 3b
       -0.028520124 -0.008275823 0.0027386025 0.004936811
000320 f3 76 81 3c cb 3c 5f bb 25 1c e3 3b 34 eb 3c ba
       0.01580379 -0.0034063335 0.0069308453 -0.0007206679
000330 11 b1 16 bc 38 35 46 3c cd 42 2f 3c a2 62 6b bc
       -0.009197489 0.012097649 0.010697079 -0.014366778
000340 6b 35 ba bc 57 5b 92 3b d5 a9 95 bc d6 e1 19 b9
       -0.02273055 0.004466455 -0.018269459 -0.00014675347
000350 dd 61 0c 3c 13 ad 7d 3b 1d 1d 09 3d 3a 59 e6 bb
       0.008568254 0.0038707897 0.03347503 -0.0070296796
000360 eb 3b b2 3b 98 c1 8f bc a1 a0 6c 3b 8f c0 b4 3a
       0.0054392717 -0.017548367 0.0036106484 0.0013790297
000370 b8 e3 fe 3b 8b 10 e9 bb 97 23 93 bc 77 cd 42 3c
       0.007778611 -0.007112568 -0.017961306 0.011889807
000380 1b e3 d3 3c d2 7e da bb 2a 93 79 bd ad 51 8d bc
       0.025865128 -0.00666795 -0.060931362 -0.01725086
000390 cc 00 f1 b9 86 bc 82 3c b5 40 3c 3b 7e d3 11 3d
       -0.00045967696 0.015959036 0.0028725092 0.035602085
0003a0 3b 07 06 3c b2 48 a0 bb e9 e3 d8 3c 70 c3 5b 3c
       0.008180435 -0.0048914785 0.026475864 0.013413295
0003b0 d3 13 83 bd 28 9f ab bc 17 2b 3b 3c 9e 9b 0b 3c
       -0.064002655 -0.020949915 0.011423848 0.008520989
0003c0 73 a3 8a 3a 26 64 94 bc 83 c9 01 bd c4 fe 92 bd
       0.0010577276 -0.01811416 -0.031686317 -0.07177499
0003d0 58 90 7e 3c a4 13 d1 3a de 28 a3 3b 00 6a 99 3b
       0.015537344 0.0015951288 0.004979237 0.0046818256
0003e0 9e e2 4d 3c 4a 7e 5c 3c 9c f2 5c bc d3 17 03 3c
       0.012566237 0.013457844 -0.013485577 0.008001286
0003f0 89 51 ea bb f1 bd 33 bc 60 96 3e 3a 7f 45 0d bc
       -0.007150833 -0.0109705785 0.00072703324 -0.008622526

update_node_embedding_layer.1.message_layer.weight f4 [64, 128]
000000 f7 d5 20 bb 54 9e 9a bc f2 32 90 3c c1 02 12 3e
       -0.0024541595 -0.018874325 0.017602418 0.14258863
000010 47 1e 42 3b 19 5c 03 3b d9 c8 f3 bb 95 eb 5b bc
       0.0029620097 0.0020043908 -0.0074397144 -0.013422866
000020 5e 3c ff bb 82 70 09 3b ca 9d 9f bc 3c b9 79 bc
       -0.0077891788 0.00209716 -0.01948442 -0.015241917
000030 dd 17 09 bd e4 b6 6b bc af f1 79 3b 18 87 45 3d
       -0.033470023 -0.014386866 0.003813844 0.04822454
000040 3c 51 1f 3e 77 03 27 bc 3a c8 0a 3e 7c 5d 7f bc
       0.15558332 -0.010193697 0.13552943 -0.015586253
000050 7f 39 91 3d 38 b9 23 bc a0 9f a6 bc 97 6e 03 bd
       0.07091045 -0.00999289 -0.020339787 -0.03208789
000060 80 59 83 bc 0c 1a 81 3b 7f 9b 03 bb e8 25 a2 bc
       -0.016033888 0.0039398726 -0.0020081697 -0.019793466
000070 90 9e 73 3c d5 e3 55 3d 72 90 42 3c 3e 8b 35 3c
       0.014869347 0.05221923 0.011875259 0.011080561
000080 63 23 8c 3d f3 05 83 bc d8 d2 16 3a 2f 24 bc 3d
       0.06842687 -0.015994048 0.0005753464 0.09186589
000090 c8 9d 85 3b 9e b8 a2 3d bc 3b fe 3a c1 ec 90 3d
       0.004077647 0.07945369 0.0019396464 0.07076407
0000a0 af 6e 51 bc 29 b2 f9 3d 12 56 2a 3e 8f 57 ba bc
       -0.012782737 0.121921845 0.16634396 -0.02274683
0000b0 cf 12 b3 bc 4d e3 91 bc 4c df 46 ba b7 f3 3c 3d
       -0.021859555 -0.01780858 -0.00075863744 0.046130862
0000c0 be c8 6b bc 7b 81 32 3e e4 54 a9 bc db 84 0e bb
       -0.014391122 0.17432205 -0.020670362 -0.0021746668
0000d0 8e 55 37 3b e9 ec a4 bb 41 25 09 3e fa e3 0a 3c
       0.0027974579 -0.0050331247 0.13393117 0.008477205
0000e0 ff 21 7f 3d 68 24 04 3d 0b a1 7b bc 70 9e 50 bc
       0.06228828 0.032261282 -0.01535822 -0.012733087
0000f0 0d a5 13 3c 35 a4 e4 bb 5b cc 63 bc 36 20 ad 3b
       0.009011519 -0.006977583 -0.013903703 0.005283381
000100 06 3e cf 3c c1 7d 9a b9 d5 61 8b b9 fe 9e cf bb
       0.02529813 -0.00029466863 -0.00026585037 -0.006336092
000110 0f 85 3f bc a1 57 b2 ba 43 55 74 bc 37 55 d7 bc
       -0.0116894385 -0.0013606438 -0.014912906 -0.02628575
000120 fb ef 57 3d 1e b9 73 3c 61 91 76 3d 30 8f ca 3c
       0.052719098 0.014875678 0.060197238 0.02472648
000130 e8 4d 02 3b 83 bb 64 3b 70 10 38 bc 76 4e 0b 3c
       0.0019882862 0.0034901805 -0.011234388 0.008502593
000140 fb 88 cc 3b de 43 66 3c dd aa 99 bc f4 1b 37 3b
       0.0062419153 0.014054267 -0.018758232 0.0027940245
000150 e0 13 83 bb d4 01 92 bb 14 e9 05 3d 0d 7f cd 3c
       -0.004000172 -0.0044557843 0.032692984 0.025084997
000160 c3 1d 0c 3d c7 42 2e 3c a3 94 98 3b 82 3a c9 bb
       0.03420807 0.010636038 0.0046563908 -0.006141008
000170 77 d4 8e bc 8f 8b 35 3d e4 c4 e6 3c 27 95 63 3c
       -0.017435296 0.044322547 0.028170057 0.013890541
000180 e9 81 2c bc a6 bf fc 3c 6b b8 34 3d 10 56 8d bb
       -0.01052902 0.030853104 0.044121187 -0.004313238
000190 9b 83 e0 ba 5f 79 e2 bc cb 37 2f bc 9a a9 d2 3c
       -0.0017129065 -0.027645765 -0.010694454 0.025715638
0001a0 d3 b8 99 3c f8 f7 e5 3c 67 7e eb 3c c6 3d 20 bc
       0.018764889 0.028072342 0.028746797 -0.009780353
0001b0 45 f9 c6 3c 50 9e 01 3c 30 6e 13 3d 96 06 8b 3c
       0.024288783 0.00791128 0.035993755 0.016970914
0001c0 f8 f5 80 3d 20 69 fb 3c 41 1a 68 3b 10 a2 c7 bb
       0.06296915 0.030689776 0.003541604 -0.0060923174
0001d0 10 27 92 3c 00 eb 05 3c c9 1e 42 3d a2 99 f0 bb
       0.017840892 0.008173704 0.04739264 -0.007342533
0001e0 cf 06 7e 3d 7e 39 9e bb 4e 0a 1c 3b 6b 18 06 3d
       0.062018212 -0.004828631 0.0023809853 0.03273813
0001f0 17 71 9c 3c 2c e4 fc bb 01 0b 03 3d 12 bd ee bb
       0.019096894 -0.00771763 0.031992916 -0.0072857225
000200 9e 80 78 3a 35 44 58 3d 39 e9 00 bc 25 04 2b be
       0.00094796147 0.052799422 -0.007868105 -0.167008
000210 ea 39 2c 3d dc 31 ba 3b 85 a9 82 3d de 2e 6a 3d
       0.04204742 0.005682213 0.063799895 0.057173602
000220 97 bc 84 3d ff a9 4c 3b 1a 6c 77 3d 80 0d 73 3d
       0.06481283 0.0031229255 0.060405828 0.059339046
000230 b0 76 91 3d dc 18 31 3d 46 fb 98 bb fe 91 fd bd
       0.07102716 0.0432366 -0.004668626 -0.123813614
000240 cf 6a ba bd bd 21 25 bc 43 a5 e6 bd 1a dc 0c 3d
       -0.09102403 -0.010078845 -0.1126199 0.034389593
000250 3d 82 ee bd c0 5a 1c 3d 8f 64 55 3d 09 e3 3c 3d
       -0.11645935 0.038172483 0.052097853 0.046114955
000260 4f 94 6e 3d df 2f 7f 3c e5 7c 31 b9 84 34 2b 3d
       0.058246907 0.015575378 -0.00016926562 0.04179813
000270 09 ad 22 3b 47 4c db bd 90 f7 ba bd 20 0f 26 3b
       0.0024822375 -0.10707908 -0.0912925 0.0025338605
000280 1f 4a 07 be 3c df fa ba 10 ad 89 3d 83 15 ec bd
       -0.13211869 -0.0019140015 0.06722462 -0.115275405
000290 31 3d 2a 3c b0 71 f7 bd 27 55 87 3d cc c5 00 be
       0.010390566 -0.12082231 0.066080384 -0.12575454
0002a0 1b 30 93 3d 52 b0 84 bd 67 c7 b8 bd 89 3e 82 bb
       0.0718691 -0.06478943 -0.09022408 -0.00397474
0002b0 c6 73 4f bc fd d8 9d bb 76 53 49 bd 35 71 e3 bd
       -0.01266188 -0.004817127 -0.04915186 -0.11105577
0002c0 b7 ab 58 3d ae cc 94 bd bf c1 80 3d e3 2f 88 bc
       0.052898135 -0.07265602 0.06286954 -0.016624397
0002d0 c0 1b 40 3d 5e 5c 49 bc 5b 63 db bd 10 cd 84 bd
       0.046901464 -0.012290088 -0.1071231 -0.06484425
0002e0 8c 0e e5 bd 35 86 e1 bd 48 da bf 3d 20 e0 8d 3d
       -0.11184415 -0.11011926 0.09367806 0.06927514
0002f0 c1 4a ad bc 06 da 52 bc 5a 8a 6e 3d 63 57 13 3d
       -0.02115381 -0.012869364 0.05823741 0.03597201
000300 3f e3 91 bc 5d 02 47 3a 7c b1 46 3d 33 1c fb 3b
       -0.017808555 0.00075916 0.048509106 0.0076632737
000310 21 30 0a bd 64 37 23 bc 28 ab 9c 3c 4c ad a0 3d
       -0.033737306 -0.009961937 0.019124582 0.07845554
000320 4d 18 90 bd c3 92 87 bd 90 71 89 bb e3 dc b3 bc
       -0.07035885 -0.066197895 -0.004194446 -0.021955913
000330 08 79 c5 3b 96 ef 65 3d c2 04 30 3c 83 0b 35 bc
       0.006026391 0.05613669 0.010743322 -0.011050108
000340 81 71 92 bb 26 83 eb bc ed 3d 41 bc c7 78 cf 3b
       -0.004469097 -0.02874906 -0.011794549 0.0063315365
000350 bd c3 f5 3b ea a8 94 3d 9a 1c 2b bd f9 a3 1d bc
       0.0075001405 0.0725878 -0.041775323 -0.009621614
000360 90 16 b3 bd d5 ab 6b bb 87 96 bb bd 9d 78 79 bd
       -0.08744538 -0.0035960574 -0.0915957 -0.06090604
000370 0d c1 12 bc fc f5 2c bc 6b d9 33 bd 69 2b 9d bc
       -0.00895716 -0.010556694 -0.043908518 -0.019185739
000380 0a 19 00 be cd e4 be bd ca 69 23 3c 31 14 06 3c
       -0.12509552 -0.09320984 0.009973953 0.008183525
000390 c4 a3 76 3c 4e 24 51 bc 03 aa 8a bd da d4 8d bd
       0.015053693 -0.012765003 -0.067707084 -0.06925364
0003a0 6f 71 86 bd dd 46 fd bc c0 10 83 3c 05 59 34 3b
       -0.065646045 -0.03091758 0.015999198 0.002751888
0003b0 3f b7 62 bd 38 60 d8 3c 86 19 35 bc 94 ec 8d bd
       -0.05535054 0.026413068 -0.011053449 -0.06929889
0003c0 6b 83 b4 3c 2f 0c a9 3c fb 1a 51 3c aa 1f 8f 3c
       0.022035321 0.020635692 0.01276278 0.017471153
0003d0 9e cb 03 3d 0a b3 1e bd 6e 6d f4 bd e0 21 2a 3b
       0.032176606 -0.038744964 -0.119349346 0.0025960132
0003e0 6e c6 49 3d de 67 c9 bb c6 f2 21 3c e6 0e 4a bd
       0.049261503 -0.006146415 0.009884542 -0.049330615
0003f0 38 b9 a2 bd 12 d3 de 3b 77 df 4f bd 52 44 9e bd
       -0.07945484 0.006800064 -0.050750222 -0.07727875
