ER_200spin/eco/network/network800000.pth (torch, 238273 bytes, 11 tensors)

node_init_embedding_layer.0.weight f4 [64, 7]
0.023182748 -0.16869164 0.0050308113 0.08748126 0.0043378556 -0.026623812 0.072883345 0.02036271
-0.17055994 0.002184626 0.10805016 -0.00023539698 0.046581913 0.054422427 0.009456835 0.30431166
0.02310002 -0.03175526 0.0054717627 0.038766004 -0.022302914 0.012326707 0.31866893 0.041316282
-0.052272633 -0.00022614076 0.037667986 -0.040907968 -0.006149493 -0.0045446386 -0.009855827 -0.011102081
-0.01081875 -0.0029609997 -0.015218615 -0.011088987 -0.004169058 -0.0017906356 -0.0026715926 -0.013247419
-0.016421208 -0.0050129727 0.014321174 0.3554471 0.012114289 -0.10820538 -0.0010508309 0.004155018
0.017705163 0.023896214 -0.150115 -0.028865673 0.12153501 0.00040171127 0.06593038 0.04699703
0.025757719 -0.18463476 0.01841312 0.0861349 -0.0012722224 0.017766073 0.06511595 0.00906839
0.33016747 0.0209614 -0.044848267 -0.00022696206 0.039745852 -0.0035326723 -0.02824913 0.283
0.0070480886 -0.009612793 -0.0021173595 0.03409355 -0.042095337 -0.025495311 0.31216627 -0.040945493
0.06627422 -0.0021973946 0.03451723 -0.102739945 0.019978274 0.33753538 0.029430168 -0.08032476
-0.0014737884 0.04254865 -0.037317414 0.024716757 -0.20761126 0.012708824 0.09361369 0.010983692
-0.014485271 0.07228123 0.022596853 -0.20130831 0.011637133 0.07639494 0.002199524 -0.0031428225
0.074460894 0.0073412866 -0.08008471 -0.030319897 0.11089238 0.002066423 0.0060905833 -0.050149243
0.021074368 -0.14843597 -0.024101399 0.12241032 -0.0040120743 0.044581298 0.06607033 -0.033735413
0.2977661 0.04366904 -0.016019046 -0.00011160815 0.035027564 0.012982726 0.02704827 -0.2019291
0.00062840746 0.09097336 -0.00066844205 0.0006234951 0.07456546 -0.031767335 0.23339288 0.039863482
0.024133544 0.00062453054 0.022182195 -0.0013604729 0.029761255 0.36614472 0.029241016 -0.035597615
0.0008192448 0.05145178 -0.029873224 0.024919022 -0.20894991 0.014525112 0.09035171 -0.00065579196
0.0035986423 0.06622036 0.018878259 -0.15112752 -0.0062570847 0.10193315 -0.0018506722 0.0148210665
0.031353984 -0.0067310636 -0.16693202 0.024196327 0.055338383 0.002627174 -0.014094807 0.07524694
0.02295262 -0.16152075 -0.010883353 0.13391545 0.0010381334 0.047183596 0.03135547 -0.00036717055
0.30770785 0.043610014 -0.032329127 0.008156778 0.05477993 -0.029002288 0.018553529 0.3650182
0.027546313 0.03640512 0.001969099 0.06359283 -0.014944756 -0.001984467 0.0030851387 0.001095844
-0.009433593 -0.0056003085 -0.0043595186 -0.010299535 0.019289507 0.32362512 0.0137586715 -0.049182992
0.008640245 0.046529803 -0.04850431 0.023498658 -0.22347915 0.010499577 0.07845689 0.00075473764
0.01841611 0.052646447 0.01275483 -0.20340295 0.010505989 -0.066404544 -0.009132191 0.061471306
0.03591968 0.02236401 -0.18291926 0.016407365 0.07116427 0.002969194 -0.017788788 0.059967693
-0.0024586709 0.010507777 -0.0038842964 -0.01777523 -0.0039956234 -0.008082845 -0.0017797383 0.005239269
0.12668924 -0.16534236 0.03572848 -0.0017464514 0.026655428 -0.17995521 0.012656813 0.3210349
0.024658078 -0.027023576 0.0004748768 0.05639671 -0.05102123 -0.0029958652 0.004468031 -0.011094356
-0.01162292 -0.011126069 -0.0063133347 -0.0016458024 0.020137576 -0.16452746 -0.012178432 0.08270665
00000000: bfe9 bd3c 80bd 2cbe 81d9 a43b 6029 b33d
00000010: 9224 8e3b 2e1a dabc dd43 953d b3cf a63c
00000020: 44a7 2ebe f12b 0f3b 6749 dd3d e5d4 76b9
00000030: adcc 3e3d 0dea 5e3d d7f0 1a3c bdce 9b3e
00000040: 413c bd3c ce11 02bd 794c b33b 1ac9 1e3d
00000050: 9ab4 b6bc f5f5 493c 9328 a33e 433b 293d
00000060: d41b 56bd 3320 6db9 bf49 1a3d 1d8f 27bd
00000070: b081 c9bb 31eb 94bb 567a 21bc 81e5 35bc
00000080: 2041 31bc 550d 42bb 7f57 79bc 95ae 35bc
00000090: 989c 88bb c3b3 eaba e315 2fbb b40b 59bc
000000a0: c585 86bc dd43 a4bb 5ba3 6a3c 2afd b53e
000000b0: 037b 463c c89a ddbd 09bc 89ba d126 883b
000000c0: 6b0a 913c fec1 c33c bfb7 19be b477 ecbc
000000d0: 59e7 f83d c69c d239 8206 873d f57f 403d
000000e0: da01 d33c e510 3dbe 1dd7 963c 7f67 b03d
000000f0: b3c0 a6ba 288a 913c 835b 853d 9693 143c
00000100: b60b a93e 3eb7 ab3c d1b2 37bd aafc 6db9
00000110: 8ccc 223d 6884 67bb b86a e7bc 60e5 903e
00000120: a7f3 e63b fa7e 1dbc 66c3 0abb aea5 0b3d
00000130: 296c 2cbd 8bdb d0bc 42d4 9f3e 76b6 27bd
00000140: c7ba 873d 2a02 10bb f061 0d3d 5269 d2bd
00000150: 7aa9 a33c 70d1 ac3e 8917 f13c 4f81 a4bd
00000160: 222c c1ba 7e47 2e3d 25da 18bd cc7a ca3c
00000170: 0c98 54be ac38 503c 89b8 bf3d f1f4 333c
00000180: a153 6dbc 2e08 943d 091d b93c c423 4ebe
00000190: aca9 3e3c f374 9c3d e425 103b d0f7 4dbb
000001a0: f47e 983d 2d8f f03b 7403 a4bd 6f61 f8bc
000001b0: 8b1b e33d d36c 073b 8493 c73b 4b69 4dbd
000001c0: 27a4 ac3c 99ff 17be 4c70 c5bc 43b2 fa3d
000001d0: b877 83bb e19a 363d e24f 873d 252e 0abd
000001e0: cc74 983e 4fde 323d 603a 83bc 2b0f eab8
000001f0: 1079 0f3d 80b5 543c 5594 dd3c 81c6 4ebe
00000200: b6bb 243a 3e50 ba3d 633a 2fba 0c72 233a
00000210: c7b5 983d 771e 02bd 8bfe 6e3e e447 233d
00000220: b6b3 c53c 89b7 233a 6fb7 b53c e551 b2ba
00000230: e0cd f33c 5277 bb3e db8a ef3c cece 11bd
00000240: 96c2 563a 1abf 523d b1b8 f4bc fa22 cc3c
00000250: f7f6 55be bcfa 6d3c 510a b93d 74e9 2bba
00000260: 33d7 6b3b 8a9e 873d 94a6 9a3c 2cc1 1abe
00000270: 3b08 cdbb 54c2 d03d 4192 f2ba 0fd4 723c
00000280: 096d 003d 4190 dcbb 3af0 2abe 6037 c63c
00000290: 80aa 623d aa2c 2c3b e8ed 66bc 111b 9a3d
000002a0: 2207 bc3c b265 25be 1750 32bc 2221 093e
000002b0: fa11 883a 9643 413d 986e 003d cc80 c0b9
000002c0: e28b 9d3e 6aa0 323d 8c6b 04bd 02a4 053c
000002d0: eb60 603d 3596 edbc 92fd 973c aae3 ba3e
000002e0: cea8 e13c 891d 153d 000c 013b f53c 823d
000002f0: dada 74bc d50d 02bb 0a30 4a3b 6ca2 8f3a
00000300: 5b8f 1abc cb82 b7bb 4bda 8ebb 61bf 28bc
00000310: 0705 9e3c 31b2 a53e 0d6c 613c 1b74 49bd
00000320: d08f 0d3c 0996 3e3d 75ac 46bd 4280 c03c
00000330: b8d7 64be 6b06 2c3c 02ae a03d 96d9 453a
00000340: 62dd 963c cda3 573d a2f9 503c dd48 50be
00000350: 5021 2c3c 1bff 87bd 2f9f 15bc 56c9 7b3d
00000360: 8420 133d ba34 b73c 304f 3bbe bd68 863c
00000370: 93be 913d cf96 423b cbb9 91bc afa0 753d
00000380: a721 21bb d028 2c3c ae8f 7ebb 5c9d 91bc
00000390: b8ed 82bb e96d 04bc 1c46 e9ba 2dae ab3b
000003a0: d3ba 013e 824f 29be 0758 123d 2fe9 e4ba
000003b0: 7c5c da3c 2e46 38be 855e 4f3c b05e a43e
000003c0: bdff c93c 8c60 ddbc e3f8 f839 3d00 673d
000003d0: a3fb 50bd 4756 44bb 9068 923b 1ac5 35bc
000003e0: 0f6e 3ebc 1e4a 36bc 17e0 cebb f7b7 d7ba
000003f0: 8ff7 a43c e379 28be 0c88 47bc 1b62 a93d

edge_embedding_layer.edge_embedding_NN.weight f4 [63, 8]
0.007801693 0.033664256 0.20761985 -0.023029199 -0.028930824 -0.02307057 -0.0020589721 -0.03765748
-0.009922469 -0.010774974 -0.004315335 -0.0022903706 0.008953054 -0.02221353 -0.015251183 0.008083992
0.009401165 0.026956787 0.17646915 -0.024010515 -0.037682157 -0.022401422 0.008529181 -0.02015305
0.042412154 0.046980944 0.17007495 -0.052293733 -0.038281802 0.00025505826 0.06164896 -0.07120446
-0.015035438 -0.0067404066 0.0153879905 -0.014715848 -0.00982584 -0.0015218513 -0.0013866938 -0.0020847525
-0.010408337 -0.00058907137 0.002471643 -0.004193349 0.0027986444 -0.013592724 0.011577544 0.002690091
-0.0021346286 -0.0051526935 -0.086510524 0.0726495 0.070129976 0.0025954025 -0.052131493 0.10162393
-0.010191864 0.008838341 -0.11102067 0.093359835 0.057771344 0.00627538 -0.02920973 0.10522804
-0.0057382165 -0.04482327 -0.08454256 0.048876666 0.044266663 -0.006282101 -0.0252003 0.08296001
-0.006566836 -0.024545927 -0.08063004 0.056903794 0.049505163 0.015861204 -0.0395701 0.109933436
-0.01948081 0.01062332 -0.10030145 0.080122985 0.05455665 0.008850039 -0.027462304 0.104532205
-0.0005169977 -0.0011437915 -0.0015800482 -0.011648395 -0.008384922 -0.019005835 -0.021238621 -0.0031330034
-0.011566987 -0.0064551826 -0.018823268 0.008752603 -0.0028598043 -0.013159215 0.0014766374 -0.0031785134
0.053471692 0.0320848 0.15007001 -0.04512381 -0.02968365 0.0016612997 0.06468288 -0.08499087
-0.018476235 -0.018052246 -0.10026602 0.046318043 0.053755466 0.013782315 -0.029872503 0.09627032
0.06502307 0.052788593 0.13993657 -0.037626877 -0.048913542 0.0002163167 0.06801842 -0.08006292
-0.008603868 -0.00644402 -0.09689228 0.08453074 0.063137785 0.010157193 -0.026751315 0.0905519
0.034326028 0.019325959 0.18611334 -0.031285066 -0.006660107 -0.015793318 0.040746108 -0.041898526
0.05820863 0.018033298 0.1469355 -0.045279507 -0.007572365 0.0052502714 0.062315177 -0.085678376
-0.0011744256 -0.0008366554 -0.0839377 0.061382286 0.052719537 -0.0014238451 -0.04944145 0.096486986
-0.0014439179 -0.00978569 0.0023963705 0.0012964379 -0.0012544036 -0.0001595673 -0.007059626 -0.009169412
-0.008116133 -0.010435845 -0.09425896 0.06956542 0.06655899 0.00035706672 -0.030343171 0.104685426
0.05663828 0.0654537 0.15633628 -0.04690272 -0.0069692316 0.0064145364 0.077115044 -0.066512235
-0.0014835857 -0.0010873167 0.0004004063 0.0019544451 -0.017845793 -0.0053972867 -0.0027487199 -0.0038520296
0.0694298 0.04621117 0.15535796 -0.06786461 -0.030585237 0.004380962 0.056241494 -0.08064102
-0.0059065814 -0.013746264 0.22935256 -0.13907006 0.022960307 -0.00023589937 0.01831547 -0.10445047
-0.022956146 -0.0057078972 -0.09890124 0.06858533 0.03197797 0.0063727195 -0.03515446 0.098254986
0.056507524 0.02965951 0.14930058 -0.058190417 0.026693035 0.004235199 0.059551913 -0.06595758
-0.014819773 -0.014826146 -0.01661776 -0.015271877 -0.007614104 -0.012074424 -0.012945181 -0.010523627
-0.0015880045 -0.018899985 -0.0638409 0.072320536 0.055882767 0.0075288056 -0.055607315 0.10156085
0.034997605 0.05533146 0.16299003 -0.06393378 -0.033899777 0.001202849 0.07015738 -0.06530671
0.005217198 -0.012389883 0.25528008 -0.14971374 0.030293602 -0.0011605426 0.016595922 -0.1253553
00000000: 58a5 ff3b 88e3 093d 4c9a 543e bba7 bcbc
00000010: 5600 edbc 7efe bcbc d2ef 06bb bb3e 1abd
00000020: da91 22bc 8489 30bc a767 8dbb 0b1a 16bb
00000030: d5af 123c 26f9 b5bc 19e0 79bc b872 043c
00000040: 5807 1a3c 7bd4 dc3c 54b4 343e b3b1 c4bc
00000050: 9b58 1abd 3083 b7bc fabd 0b3c 0218 a5bc
00000060: 5eb8 2d3d 176f 403d 2128 2e3e f431 56bd
00000070: 61cd 1cbd 57b9 8539 9f83 7c3d a5d3 91bd
00000080: 3357 76bc a1de dcbb e91d 7c3c bd1a 71bc
00000090: 8ffc 20bc db78 c7ba b9c1 b5ba 58a0 08bb
000000a0: bb87 2abc e96b 1aba 4afb 213b 5c68 89bb
000000b0: 7669 373b 04b4 5ebc bdaf 3d3c 3d4c 303b
000000c0: 20e5 0bbb edd7 a8bb 6e2c b1bd 43c9 943d
000000d0: 4ea0 8f3d a117 2a3b d587 55bd 3520 d03d
000000e0: c7fb 26bc b0ce 103c ce5e e3bd 7133 bf3d
000000f0: a5a1 6c3d b4a1 cd3b 3e49 efbc cc81 d73d
00000100: a607 bcbb 9b98 37bd a624 adbd e632 483d
00000110: f650 353d 15da cdbb dc70 cebc f0e6 a93d
00000120: 9d2e d7bb 8a14 c9bc 5d21 a5bd f413 693d
00000130: edc5 4a3d 5bef 813c 4214 22bd c824 e13d
00000140: 3896 9fbc 6f0d 2e3c d96a cdbd 8517 a43d
00000150: cb76 5f3d c1ff 103c a0f8 e0bc fb14 d63d
00000160: 2187 07ba 46eb 95ba 9f19 cfba e9d8 3ebc
00000170: e960 09bc 20b2 9bbc 9efc adbc 1353 4dbb
00000180: 7683 3dbc ff85 d3bb 4133 9abc 1467 0f3c
00000190: 8e6b 3bbb c099 57bc bb8b c13a 9b4e 50bb
000001a0: 2205 5b3d 5a6b 033d f4ab 193e bfd3 38bd
000001b0: 202b f3bc f8bf d93a 7578 843d b10f aebd
000001c0: 795b 97bc 4ee2 93bc 4558 cdbd fdb7 3d3d
000001d0: b12e 5c3d 38cf 613c 2eb7 f4bc 6029 c53d
000001e0: d12a 853d da38 583d 884b 0f3e a41e 1abd
000001f0: 9159 48bd 12d3 6239 3e4d 8b3d 07f8 a3bd
00000200: 3df7 0cbc 5c28 d3bb 766f c6bd 741e ad3d
00000210: 624e 813d 5b6a 263c 9325 dbbc 4673 b93d
00000220: 7399 0c3d 7951 9e3c 7f94 3e3e c524 00bd
00000230: 073d dabb fd60 81bc 64e5 263d ca9d 2bbd
00000240: 2c6c 6e3d 91ba 933c 4276 163e 0177 39bd
00000250: 9a21 f8bb 780a ac3b 333e 7f3d 2578 afbd
00000260: 2fef 99ba fe52 5bba 87e7 abbd fe6b 7b3d
00000270: 71f0 573d 50a0 baba 1e83 4abd f89a c53d
00000280: d841 bdba 2954 20bc 6d0c 1d3b 3ded a93a
00000290: cd6a a4ba 8551 27b9 6f54 e7bb 4d3b 16bc
000002a0: 87f9 04bc 1bfb 2abc d70a c1bd 5178 8e3d
000002b0: 1450 883d af34 bb39 3e92 f8bc 5065 d63d
000002c0: 8bfd 673d 970c 863d 9e16 203e 111d 40bd
000002d0: 275e e4bb 0831 d23b 7eee 9d3d 9137 88bd
000002e0: e074 c2ba 4b84 8eba a0ed d139 2616 003b
000002f0: 5731 92bc b9db b0bb de23 34bb 5572 7cbb
00000300: 3631 8e3d ec47 3d3d 2816 1f3e 9afc 8abd
00000310: e48d fabc 2c8e 8f3b 7b5d 663d 1e27 a5bd
00000320: ff8b c1bb 0338 61bc 66db 6a3e 6268 0ebe
00000330: 4117 bc3c c15b 77b9 530a 963c 21ea d5bd
00000340: 870e bcbc 5009 bbbb bc8c cabd 7776 8c3d
00000350: 55fb 023d 3fd2 d03b 20fe 0fbd e939 c93d
00000360: 6f74 673d 80f8 f23c 40e2 183e 1359 6ebd
00000370: 5aab da3c 6dc7 8a3b b5ec 733d c514 87bd
00000380: a2ce 72bc 5de9 72bc f821 88bc e536 7abc
00000390: bc7f f9bb ced3 45bc 0618 54bc 4a6b 2cbc
000003a0: 9724 d0ba 24d4 9abc 05bf 82bd ca1c 943d
000003b0: 54e5 643d 33b4 f63b 7fc4 63bd 23ff cf3d
000003c0: a659 0f3d 3ea3 623d dce6 263e b7ef 82bd
000003d0: 7eda 0abd eaa8 9d3a acae 8f3d 86bf 85bd
000003e0: 07f5 aa3b f0fe 4abc 12b4 823e 8f4e 19be
000003f0: 4a2a f83c 591d 98ba 2cf4 873c 245d 00be

edge_embedding_layer.edge_feature_NN.weight f4 [64, 64]
0.03575453 0.006673097 0.03548624 0.048431747 0.009925359 0.00821526 -0.026427066 -0.051746413
-0.016878909 -0.0190191 -0.038296144 0.0012318065 -0.005665803 0.0637609 -0.013875355 0.051680677
-0.0282972 0.01950847 0.02401278 -0.013962828 0.000109577515 -0.03657528 0.033038516 0.002587881
0.029161949 0.08477381 -0.028306535 0.021995245 -0.0021766124 -0.036018822 0.036691107 0.084091455
-0.032255184 -0.03325256 0.052012477 -0.0006814377 0.036388982 -0.031180337 -0.043725606 0.05358759
-0.039548375 0.04313621 0.009313007 0.059480753 0.0033934086 -0.036328807 -0.04380838 -0.002245156
0.0020962334 -0.04889784 0.017370982 -0.010358377 0.014453528 0.012979024 -0.04626037 0.013930209
0.060584147 0.07731781 0.0092882775 0.018931838 0.06116469 0.073401205 0.013464747 0.050174564
-0.010757435 -0.008134392 0.0015555887 0.008232492 0.0019207367 0.002163062 0.0075713447 0.013601665
-0.007368058 -0.003595143 -0.007843095 0.00053097215 0.013778844 0.0062424517 0.0074845203 -0.01393854
0.0026482814 0.007712967 0.00808285 -0.00012946085 -0.0091824075 -0.00903409 -0.0045856712 -0.024723053
0.009405366 0.012624277 -0.0036777484 -0.0028761444 0.012500013 -0.017287152 0.005854313 0.004633419
-5.6490684e-05 -0.015611438 -0.010616232 -0.0030209445 -0.021334397 0.004618022 -0.0052528144 0.009123423
0.0043523703 0.012726235 0.0060889255 0.004978729 -0.0024838957 -0.01235016 -0.00058075506 0.016682966
0.013421233 0.0007373087 0.0055199787 0.0034704753 -0.02354301 -0.012233246 0.005811526 -0.018016197
-0.008616842 -0.006729163 -0.005336937 0.00050229934 0.0068217944 -0.0012908315 0.008992918 -0.026182441
0.023944067 -0.0063518262 0.058396768 -0.011664978 -0.011611266 -0.004056425 0.036769006 0.0239907
0.041918453 0.024395544 0.025947979 0.0021992014 -0.0019165426 -0.016957156 0.008528466 -0.008810789
0.013392396 0.031491034 -0.005744195 0.031873927 -0.02420997 0.030223373 0.002354313 0.0041167918
-0.008740073 -0.030195192 0.02283866 -0.010028921 -0.007525111 0.019325934 0.013709259 -0.04594342
0.029048247 0.027164312 -0.017891241 0.0049690176 -0.011220082 0.03820088 0.018978098 -0.031146344
0.048592646 0.015169583 -0.011112387 -0.00030846815 -0.0030575085 0.05364533 0.03766201 0.011249505
-0.013233761 0.033995572 -0.0001349812 0.011113654 -0.002918243 0.0015670959 0.042291634 -0.008927443
-0.025460493 -0.050346706 0.0048289425 0.0089221625 -0.06832228 -0.011719054 -0.006618909 0.009760659
-0.01394048 -0.006870072 -0.009293741 0.008531291 0.0033435759 -0.008219612 -0.009937564 1.8024335e-06
0.0065187598 -0.0015708433 0.008476569 -0.007357938 -0.0046117115 0.002252608 -0.008796808 -0.0023317866
-0.017442891 0.0060973703 -0.015798636 -0.0050842944 0.0041428367 -0.004616083 -6.412105e-05 -0.0023929016
0.002517064 -0.010286944 -0.0030664708 0.007888776 0.01083421 -0.0011445023 -0.0026926599 -0.0010076426
-0.016303077 0.007156581 0.0010438258 0.00019029636 0.00089925295 -0.0055984505 -0.0056308643 0.0001323514
-0.0054644374 -0.00420371 0.00012495325 -0.00021016278 0.017536044 0.01697999 -0.01351005 0.0057136067
-0.00062793127 -0.00031389037 0.0030395736 -0.013317074 -0.00057330204 0.0054728673 -0.0015698014 -0.0076897168
0.013171347 -0.013533647 -0.00035957596 -0.00062156183 -0.0020496896 -0.0086621335 0.006484415 -0.0048349635
00000000: 5873 123d ffa9 da3b 055a 113d 5e60 463d
00000010: f99d 223c 4c99 063c 937d d8bc 0cf4 53bd
00000020: a345 8abc f2cd 9bbc 6bdc 1cbd 9174 a13a
00000030: 33a8 b9bb 1395 823d 7555 63bc 1eaf 533d
00000040: 88cf e7bc 3ad0 9f3c 73b6 c43c 58c4 64bc
00000050: fbcc e538 f6cf 15bd 6553 073d 7099 293b
00000060: 0ae5 ee3c e49d ad3d 1be3 e7bc 5f2f b43c
00000070: 7fa5 0ebb 7988 13bd 6a49 163d 2438 ac3d
00000080: 031e 04bd d633 08bd 090b 553d 83a2 32ba
00000090: 9d0c 153d e86d ffbc 9f19 33bd a97e 5b3d
000000a0: 7afd 21bd 98af 303d 9595 183c 17a2 733d
000000b0: f363 5e3b 84cd 14bd 6a70 33bd 7823 13bb
000000c0: f660 093b 1a49 48bd 974d 8e3c 2fb6 29bc
000000d0: 7ece 6c3c f9a5 543c 847b 3dbd 883b 643c
000000e0: 1527 783d cd58 9e3d dc2d 183c f116 9b3c
000000f0: d387 7a3d 5f53 963d 3e9b 5c3c d883 4d3d
00000100: f43f 30bc 1d46 05bc e5e4 cb3a 93e1 063c
00000110: 3bc1 fb3a 29c2 0d3b 0b19 f83b 85d9 5e3c
00000120: c06f f1bb 7e9c 6bbb 5380 00bc f030 0b3a
00000130: a9c0 613c 7b8d cc3b b540 f53b 795e 64bc
00000140: ca8e 2d3b 0fbd fc3b ee6d 043c e2bf 07b9
00000150: cf71 16bc b803 14bc 6643 96bb 0088 cabc
00000160: f718 1a3c 0ed6 4e3c 6106 71bb b27d 3cbb
00000170: dbcc 4c3c c99d 8dbc 89d5 bf3b f0d3 973b
00000180: 69f0 6cb8 1ec7 7fbc b4ef 2dbc 0afb 45bb
00000190: 79c5 aebc c752 973b cd1f acbb 697a 153c
000001a0: 549e 8e3b b381 503c 9c85 c73b 9b24 a33b
000001b0: dbc8 22bb 5358 4abc d03d 18ba b7aa 883c
000001c0: bbe4 5b3c f347 413a f0e0 b43b ea70 633b
000001d0: 45dd c0bc f46d 48bc 9d6e be3b b496 93bc
000001e0: a82d 0dbc 5080 dcbb 79e1 aebb bdac 033a
000001f0: 5c89 df3b 1e31 a9ba 0857 133c 8f7c d6bc
00000200: 5926 c43c fb22 d0bb 7331 6f3d 771e 3fbc
00000210: 2e3d 3ebc c2eb 84bb 199b 163d 2588 c43c
00000220: afb2 2b3d 2ad9 c73c db90 d43c 7a20 103b
00000230: 8034 fbba bce9 8abc fbba 0b3c 215b 10bc
00000240: c86b 5b3c befc 003d cd39 bcbb 3c8e 023d
00000250: fd53 c6bc 0297 f73c d14a 1a3b 27e6 863b
00000260: 8632 0fbc e85b f7bc 2418 bb3c 5850 24bc
00000270: 3595 f6bb 6c51 9e3c cd9c 603c 2b2f 3cbd
00000280: 97f6 ed3c b187 de3c a790 92bc 24d3 a23b
00000290: 6fd4 37bc 8778 1c3d f577 9b3c 9e26 ffbc
000002a0: 1509 473d d889 783c bb10 36bc e5b9 a1b9
000002b0: 7b60 48bb 35bb 5b3d 7b43 1a3d d84f 383c
000002c0: 6bd2 58bc f13e 0b3d bd89 0db9 0b16 363c
000002d0: fe3f 3fbb 0367 cd3a fe39 2d3d 6944 12bc
000002e0: 8692 d0bc 5938 4ebd 1b3c 9e3b 432e 123c
000002f0: 8dec 8bbd 4601 40bc 6fe3 d8bb 2ceb 1f3c
00000300: 9c66 64bc 571e e1bb c644 18bc d4c6 0b3c
00000310: e51f 5b3b 8dab 06bc 2ad1 22bc 25eb f135
00000320: 529b d53b c1e4 cdba 4fe1 0a3c dc1a f1bb
00000330: d71d 97bb 7ea0 133b 7d20 10bc e3d0 18bb
00000340: 65e4 8ebc 73cc c73b 246c 81bc 279a a6bb
00000350: a2c0 873b 8342 97bb ba78 86b8 3ad2 1cbb
00000360: 54f5 243b 928a 28bc d8f6 48bb ed3f 013c
00000370: f881 313c 2003 96ba 5677 30bb e012 84ba
00000380: 088e 85bc c181 ea3b fbd0 883a 4a8a 4739
00000390: d8bb 6b3a 3573 b7bb 1d83 b8bb cfc7 0a39
000003a0: 060f b3bb 46bf 89bb e205 0339 245f 5cb9
000003b0: c0a7 8f3c 9f19 8b3c 4259 5dbc 3539 bb3b
000003c0: c19b 24ba a791 a4b9 9533 473b db2f 5abc
000003d0: a649 16ba bd55 b33b cbc1 cdba 05fa fbbb
000003e0: a2cc 573c 3bbc 5dbc 7885 bcb9 4ff0 22ba
000003f0: 1654 06bb 9feb 0dbc 377b d43b 9d6e 9ebb

update_node_embedding_layer.0.message_layer.weight f4 [64, 128]
-0.015464559 0.0054439316 -0.014098521 -0.0042191213 -0.01788335 0.011372718 0.0077267084 0.0070061553
-0.0038388595 -0.019097881 0.009512691 -0.01760792 -0.01670236 -0.009147685 0.0068210256 0.0023070637
-0.012245892 -0.0037142823 0.0011652375 0.008414931 -0.011716568 -0.020655544 -0.0077762776 -0.007549125
0.021826953 0.012472328 -0.0046079694 -0.0040685274 -0.0059861867 -0.014712329 -0.008611066 0.015683314
-0.0018858399 0.011377054 0.0037715773 -0.004941903 -0.0030892703 -0.00460002 -0.019085908 -0.009508729
-0.005458042 0.004858546 -0.01575485 -0.011506086 0.003724464 0.009642839 -0.011878734 -6.824607e-06
-0.0099661425 0.013546598 -0.0016762001 -0.0053715273 0.0029478837 0.0048136287 -0.01814366 0.013844441
-0.0072598616 -0.005668449 -0.009187484 -0.0007133213 0.0026156188 0.022402123 0.007948777 -0.0023793257
-0.006287746 -0.00242993 0.01129911 -0.012352881 -0.00015617447 -0.00066107354 -0.01425166 0.008922093
-0.008876933 -0.001967021 -0.0048631737 0.013726681 -0.0043488536 0.0050960365 0.0017414953 0.020401204
-0.0043127085 0.0005067762 -0.0012610718 -0.005253296 -0.006616436 0.0050565116 -0.008505274 0.016852133
0.0029131 0.0011571661 0.0047145206 0.013622425 -0.013529217 -0.013935954 -0.0058008023 0.020228371
0.015418434 -0.018540718 0.013831565 -0.0013197443 6.0506612e-05 -0.0021069173 -0.009187958 0.024446335
0.0023832296 -0.0027400209 0.003726408 0.0046185562 -0.011794901 -0.021006519 0.0072285063 -0.005699761
-0.0059828474 0.01480613 -0.006727138 0.00834494 0.0024302248 0.0017527142 0.0067477897 -0.011304717
0.008548886 0.008198818 -0.007812804 -0.013443079 -0.002821174 0.0016093793 0.007849047 -0.003556656
-0.004239259 -0.0050207903 -0.014091896 0.007560991 -0.0047206795 0.015075879 0.0013639219 -0.017753955
0.007118293 0.019064356 0.0073145726 -0.00059073156 0.0079347445 -0.0014402713 0.0036171505 0.010340788
-0.025975302 0.010314359 0.00070060435 0.010835259 0.007098552 0.007879156 0.011566087 -0.0058833715
-0.002190464 -0.010570919 0.011464581 0.011128925 0.007994938 -0.0152957635 0.011692998 -0.0063146655
-0.00092215446 0.0009228441 -0.0039488524 0.0033308987 -0.010930761 0.002247256 0.014575673 -0.008339884
0.00023099052 0.0038271933 0.008608403 -0.014772932 -0.0037292147 -0.0017629995 0.01631702 -5.2726282e-05
-0.005054553 -0.0008617327 0.01725479 -0.008545536 0.010912622 -0.013000448 0.015138639 0.00086471095
-0.002466547 -0.013250358 0.013816928 -0.01618879 0.0027313642 0.004388452 -0.0012199093 0.0023153871
0.0024982695 -0.00050685543 -0.013244109 -0.007319206 -0.0054970826 0.009282108 0.0020423108 -0.002229603
-0.00088064023 0.0020571456 0.00037802223 -0.012790203 0.013412874 0.004133164 -0.0049870163 -0.004870135
-0.018326238 0.009548369 -0.010924446 -0.0039042672 0.00076708436 0.012532998 0.0007173438 -0.013627831
-0.0021517342 -0.00028872216 -0.0018542539 -0.0090017365 0.009607537 0.0036266444 -0.0056013917 -0.000845954
-0.0011282654 -0.0066306675 -0.0084828185 -0.000115217714 -0.002622033 -0.002339695 -0.008011554 -0.017277014
0.0034263998 -0.013930259 0.004697749 -0.013996529 -0.0075030434 0.0021223337 -0.018486539 -0.011501698
0.0058047846 0.0028039834 -0.0003860734 0.014944711 0.007257845 0.012586262 0.013463961 -0.019465156
-0.0023854286 0.00316342 -0.012974135 0.010560917 -0.0077802017 0.0026403463 0.017365273 -0.005671336
00000000: 105f 7dbc 0263 b23b 7cfd 66bc 8e40 8abb
00000010: 1a80 92bc a354 3a3c 5430 fd3b e493 e53b
00000020: 6095 7bbb 2973 9cbc 1edb 1b3c 7c3e 90bc
00000030: 63d3 88bc 2ce0 15bc e982 df3b 1b32 173b
00000040: fea2 48bc 516b 73bb e2ba 983a c7de 093c
00000050: d9f6 3fbc d135 a9bc 25d0 febb a65e f7bb
00000060: 70ce b23c bc58 4c3c 73fe 96bb 4851 85bb
00000070: c627 c4bb fb0b 71bc 6e15 0dbc 4b7a 803c
00000080: 492e f7ba d366 3a3c 912c 773b b0ef a1bb
00000090: 5b75 4abb c4bb 96bb 0d5a 9cbc 80ca 1bbc
000000a0: 60d9 b2bb 7034 9f3b 5110 81bc 0684 3cbc
000000b0: 2316 743b 00fd 1d3c 069f 42bc eefe e4b6
000000c0: 0849 23bc 8df2 5d3c f1b3 dbba a303 b0bb
000000d0: 4831 413b a5bb 9d3b 03a2 94bc cbd3 623c
000000e0: 22e4 edbb 66be b9bb 1a87 16bc 2ffe 3aba
000000f0: cd6a 2b3b a884 b73c 963b 023c 76ee 1bbb
00000100: 7009 cebb 763f 1fbb e71f 393c bd63 4abc
00000110: c4c2 23b9 e54b 2dba cb7f 69bc f82d 123c
00000120: 8e70 11bc 23e9 00bb 425b 9fbb dfe5 603c
00000130: d480 8ebb a7fc a63b e342 e43a 6d20 a73c
00000140: 9f51 8dbb 2dd9 043a 8c4a a5ba d723 acbb
00000150: b0ce d8bb 18b1 a53b b459 0bbc 7c0d 8a3c
00000160: b5e9 3e3b 0dac 973a 447c 9a3b 9730 5f3c
00000170: a6a9 5dbc a153 64bc a814 bebb f8b5 a53c
00000180: 999d 7c3c b4e2 97bc ca9d 623c 45fb acba
00000190: 7bc8 7d38 3514 0abb 1789 16bc ae43 c83c
000001a0: f52f 1c3b ec91 33bb c036 743b 4257 973b
000001b0: 673f 41bc dd15 acbc 1bdd ec3b 10c5 babb
000001c0: c30b c4bb 6995 723c 536f dcbb 37b9 083c
000001d0: 6844 1f3b 54bb e53a 901c dd3b 6b37 39bc
000001e0: a010 0c3c 5654 063c 4601 00bc 5c40 5cbc
000001f0: 72e3 38bb cff1 d23a 4a99 003c c916 69bb
00000200: 7be9 8abb 7185 a4bb b2e1 66bc 31c2 f73b
00000210: eeaf 9abb d200 773c a0c5 b23a be70 91bc
00000220: 9240 e93b da2c 9c3c 15af ef3b 53db 1aba
00000230: bb00 023c 7cc7 bcba b70d 6d3b 696c 293c
00000240: 28ca d4bc 8ffd 283c c3a8 373a 5f86 313c
00000250: f89a e83b 9317 013c af7f 3d3c 4cc9 c0bb
00000260: e38d 0fbb a631 2dbc f0d5 3b3c 1856 363c
00000270: 33fd 023c 159b 7abc fd93 3f3c 41eb cebb
00000280: bdbc 71ba 05eb 713a 6065 81bb 354b 5a3b
00000290: ef16 33bc b346 133b cece 6e3c 02a4 08bc
000002a0: 0c36 7239 a6d1 7a3b 420a 0d3c 2b0a 72bc
000002b0: d765 74bb 7214 e7ba 45ab 853c 6a26 5db8
000002c0: aaa0 a5bb e7e5 61ba eb59 8d3c 9302 0cbc
000002d0: dbca 323c d5ff 54bc 0e08 783c c5ad 623a
000002e0: cba5 21bb 0818 59bc 6560 623c 5a9e 84bc
000002f0: b000 333b 01cd 8f3b 5de5 9fba c0bd 173b
00000300: 02ba 233b 7ede 04ba d2fd 58bc f3d5 efbb
00000310: df20 b4bb fc13 183c 4ad8 053b 881e 12bb
00000320: c4da 66ba 2dd1 063b 4931 c639 008e 51bc
00000330: acc1 5b3c 7e6f 873b 206a a3bb a795 9fbb
00000340: e820 96bc c370 1c3c 73fc 32bc bcde 7fbb
00000350: 2916 493a 3457 4d3c 210c 3c3a 4447 5fbc
00000360: 1c04 0dbb a25f 97b9 700a f3ba 057c 13bc
00000370: ee68 1d3c ffac 6d3b e18b b7bb 03c3 5dba
00000380: 4ee2 93ba 1246 d9bb 85fb 0abc 0aa1 f1b8
00000390: 6ad6 2bbb 9255 19bb e542 03bc 8688 8dbc
000003a0: 738d 603b be3b 64bc 93ef 993b b351 65bc
000003b0: 17dc f5bb da16 0b3b 1571 97bc 9e71 3cbc
000003c0: 1036 be3b 09c3 373b e569 cab9 a9da 743c
000003d0: 37d3 ed3b 9c36 4e3c f297 5c3c 6475 9fbc
000003e0: da54 1cbb 6151 4f3b 7791 54bc b207 2d3c
000003f0: 10f1 febb a909 2d3b 9e41 8e3c 9dd6 b9bb

update_node_embedding_layer.0.update_layer.weight f4 [64, 128]
0.0075080204 0.0072048535 0.00086573075 -0.0051614977 0.0074384604 -0.01197225 -0.0056603015 -0.001174407
0.0066805407 0.014434471 -0.0115956105 -0.0016655108 -0.02016402 -0.0006533583 -0.002053303 -0.008100575
0.012314782 0.00038921964 -0.014019523 -0.0031973685 -0.0007706469 -0.009729489 -0.009241092 -0.0042569726
-0.009952169 -0.0006271005 -0.0120667815 -0.00067160174 0.0018561102 -0.010183443 0.010775643 -0.00615005
-0.020259636 -0.03361236 -0.008844038 0.006280489 0.013111641 0.00013216586 -0.008188388 0.017193135
0.010342431 -0.004385086 6.0754817e-05 -0.008547765 -0.007366527 0.014102951 -0.02433011 0.0047769123
-0.014612896 0.004541024 -0.0044345385 -0.008897678 -0.010819396 -0.00727244 -0.004564681 0.00031999833
-0.0017554512 -0.012902099 0.0051160166 -0.0067906072 -0.0019524642 -0.0074397684 0.020086102 0.00022439491
0.012451123 0.0039288118 0.008936819 0.003329992 -0.004263867 -0.004954748 0.0128591955 -0.0035331524
-0.0064587407 0.0069869813 0.007294145 -0.0007420336 0.016249428 0.0014427209 -0.0063166386 0.003538578
0.016941896 -0.010268385 0.007019186 0.0012135583 0.0097796 -0.011017456 -0.008850054 0.0023699538
-0.009690811 -0.0121657625 0.020972423 0.0153110605 0.0010716581 0.016705437 -0.002803989 -0.003402626
0.0033469193 0.012256114 0.0012219709 -0.010433165 -0.015642965 -0.0052807154 -0.011458136 -0.005142337
-0.012459776 0.015344294 -0.015193614 -0.010375443 -0.0015224892 -0.027193615 -0.018850941 -0.0058853175
-0.0037906629 0.002707132 -0.0056048012 -0.009161804 -0.009293497 -0.011831467 -0.00979685 0.004225571
-0.0022067751 0.00568362 0.02565991 -0.023145216 -0.0069208834 0.0033806015 -0.002477771 0.015014666
0.026680082 0.016093224 -0.014635691 -0.000755353 -0.005305525 -0.005343138 -0.018428523 0.005020268
0.032610774 -0.016310293 0.00265787 0.022167703 -0.017269365 0.012776673 0.026147215 -0.061883982
0.02333426 -0.016568301 0.03320673 -0.00019901975 -0.0043729376 0.028547354 0.011577149 0.024567068
0.0041604554 -0.02181864 0.011096473 0.0074918177 -0.019148547 0.018955287 0.06507223 0.016529238
-0.012782433 -0.08651215 -0.02460498 0.016152712 0.04195943 0.048887346 0.043499563 -0.02761747
0.019633258 0.0002516775 0.03971629 0.014499059 0.0025085434 -0.005963952 -0.026054837 -0.002265294
-0.03767688 0.038859915 -0.020152446 -0.059173614 0.07807382 0.022035012 0.015781954 -0.024987036
-0.012889661 0.02599392 -0.007417397 0.013350807 -0.016357588 0.03140307 0.04483029 0.009712048
-0.005231316 0.009569897 0.02465237 0.000605202 -0.03817184 -0.008275823 0.0027344364 0.025526822
0.012688434 -0.0048147384 0.008200832 -0.0007206679 -0.011635381 0.012097649 0.00992229 0.009810503
-0.02273055 0.004406097 -0.018290838 0.00094775745 0.008568254 0.0036400303 0.044772644 -0.008037568
0.038841758 -0.017548367 0.0036106461 0.0021938027 0.007778611 -0.007112568 -0.017961306 0.017756348
0.03173836 -0.006730935 -0.00088603474 0.0052816467 -0.00047815312 0.013572858 0.0028662244 0.022931805
0.008051644 -0.004992423 0.024959806 0.011891344 0.022457499 -0.039309915 0.010359749 0.011269168
0.003575767 -0.01812115 -0.042772997 0.008569281 0.017019445 0.0021804676 0.0032321461 0.0032636349
0.012566237 0.012538723 -0.016621757 0.006495467 -0.007150833 -0.008579529 0.015254073 -0.008622526
00000000: d705 f63b b116 ec3b 35f2 623a c821 a9bb
00000010: 54be f33b 4227 44bc 0d7a b9bb 8fee 99ba
00000020: 70e8 da3b 8f7e 6c3c 84fb 3dbc 454d daba
00000030: 042f a5bc 2246 2bba b590 06bb 46b8 04bc
00000040: f0c3 493c 2d10 cc39 24b2 65bc f18a 51bb
00000050: 3d05 4aba 6f68 1fbc f367 17bc 137e 8bbb
00000060: 6c0e 23bc 0164 24ba c0b3 45bc 6e0e 30ba
00000070: b948 f33a 75d8 26bc 538c 303c 5c86 c9bb
00000080: 89f7 a5bc 1dad 09bd 95e6 10bc 8fcc cd3b
00000090: 35d2 563c 0196 0a39 9728 06bc 9ed8 8c3c
000000a0: 4d73 293c c4b0 8fbb fdd2 7e38 ed0b 0cbc
000000b0: e862 f1bb 1010 673c f04f c7bc a587 9c3b
000000c0: ee6a 6fbc dfcc 943b 9b4f 91bb 91c7 11bc
000000d0: d643 31bc a64d eebb 5293 95bb 73c5 a739
000000e0: 2b17 e6ba 5363 53bc 42a4 a73b be83 debb
000000f0: d4e9 ffba 4dc9 f3bb 9c8b a43c 8d4b 6b39
00000100: ccff 4b3c 43bd 803b bc6b 123c ff3b 5a3b
00000110: e9b7 8bbb 705b a2bb 60af 523c 768c 67bb
00000120: d8a3 d3bb 0cf3 e43b b903 ef3b 0885 42ba
00000130: 851d 853c ae19 bd3a cefb cebb 7de7 673b
00000140: bbc9 8a3c ba3c 28bc 3301 e63b 4210 9f3a
00000150: 9e3a 203c 8f82 34bc d1ff 10bc 3a51 1b3b
00000160: 35c6 1ebc e852 47bc 5cce ab3c 3edb 7a3c
00000170: e176 8c3a d7d9 883c 21c3 37bb 97fe 5ebb
00000180: fd57 5b3b decd 483c 8a2a a03a deef 2abc
00000190: ad25 80bc da09 adbb e8ba 3bbc 0d81 a8bb
000001a0: 1724 4cbc a266 7b3c a3ee 78bc c3fd 29bc
000001b0: 438e c7ba 25c5 debc 4a6d 9abc 9fd9 c0bb
000001c0: c56c 78bb 236a 313b 7ba8 b7bb 641b 16bc
000001d0: c043 18bc c5d8 41bc f882 20bc a976 8a3b
000001e0: 8b9f 10bb a93d ba3b bb34 d23c 099b bdbc
000001f0: 94c8 e2bb 158d 5d3b 1962 22bb 1300 763c
00000200: 3090 da3c f0d5 833c 8aca 6fbc e202 46ba
00000210: f8d9 adbb 7d15 afbb 6af7 96bc 0f81 a43b
00000220: e092 053d 2a9d 85bc a92f 2e3b 0b99 b53c
00000230: 7c78 8dbc 4055 513c af32 d63c 0f7a 7dbd
00000240: 7d27 bf3c 3fba 87bc c803 083d f5af 50b9
00000250: dc4a 8fbb 24dc e93c 15ae 3d3c e040 c93c
00000260: 6e54 883b 01bd b2bc fbcd 353c ec7d f53b
00000270: 6add 9cbc 1e48 9b3c 9744 853d 5368 873c
00000280: 696d 51bc 482d b1bd 6290 c9bc b152 843c
00000290: a7dd 2b3d 193e 483d 992c 323d 083e e2bc
000002a0: edd5 a03c 95f3 8339 8cad 223d 768d 6d3c
000002b0: 6066 243b 416d c3bb f470 d5bc 5475 14bb
000002c0: 1253 1abd 932b 1f3d be16 a5bc 0860 72bd
000002d0: 2be5 9f3d c582 b43c 2849 813c 9db1 ccbc
000002e0: 282f 53bc 34f1 d43c a30d f3bb 58bd 5a3c
000002f0: 5900 86bc 81a0 003d f79f 373d 481f 1f3c
00000300: 766b abbb 0fcb 1c3c c4f3 c93c 6ba6 1e3a
00000310: 135a 1cbd 5197 07bc 3b34 333b a01d d13c
00000320: 26e3 4f3c f4c4 9dbb c85c 063c 34eb 3cba
00000330: 53a2 3ebc 3835 463c 1a91 223c 3bbc 203c
00000340: 6b35 babc 0561 903b abd6 95bc ed72 783a
00000350: dd61 0c3c 938d 6e3b 8563 373d 01b0 03bc
00000360: 8918 1f3d 98c1 8fbc 97a0 6c3b e7c5 0f3b
00000370: b8e3 fe3b 8b10 e9bb 9723 93bc c375 913c
00000380: 1500 023d 2d8f dcbb c944 68ba aa11 ad3b
00000390: a0b0 fab9 b160 5e3c 44d7 3b3b 7bdb bb3c
000003a0: 0beb 033c 7b97 a3bb 8278 cc3c e9d3 423c
000003b0: caf8 b73c 6f03 21bd f0bb 293c 51a2 383c
000003c0: 6a57 6a3b ce72 94bc bd32 2fbd 2b66 0c3c
000003d0: 5d6c 8b3c 2de6 0e3b 6ad2 533b b5e2 553b
000003e0: 9ee2 4d3c 376f 4d3c 5a2a 88bc edd7 d43b
000003f0: 8951 eabb 2791 0cbc 38ec 793c 7f45 0dbc

update_node_embedding_layer.1.message_layer.weight f4 [64, 128]
-0.0024541595 -0.007914872 0.017602418 0.10525318 0.0103246225 0.0020043908 -0.0036024782 -0.004445872
0.0029279082 6.0106106e-07 -0.009871222 -0.0033480953 -0.022697732 -0.00702696 0.003921186 0.04706247
0.115045264 -0.010193697 0.1012714 -0.004657329 0.070874214 -0.00059296686 -0.013818279 -0.020331923
-0.0072676414 0.0039398726 -0.0019471801 -0.008335717 0.014926675 0.049543887 0.026525203 0.011080561
0.06603711 -0.015994048 0.0117839025 0.088009275 0.004077647 0.076005735 0.008944519 0.069116466
-0.006599127 0.095966704 0.12156319 -0.022786455 -0.021859644 -0.01780858 0.001873224 0.041938685
-0.0043753833 0.11472662 -0.010440863 -0.0021746668 0.009342389 -0.0050331247 0.10152081 0.02029655
0.060981408 0.030820692 -0.008948303 -0.0056571737 0.009011519 -0.007068795 -0.009519714 -0.011163707
0.024484657 -0.00029466863 -0.017980594 -0.006336092 -0.008624108 -0.0013606438 -0.014912906 -0.04305632
0.052007817 0.015900904 0.0116077615 0.02407032 0.006324817 -0.016069857 -0.011234388 0.008502593
0.0062419153 0.01817454 -0.018758232 0.0027940245 -0.004000172 -0.021536492 0.032041516 0.02448619
0.03323787 0.010477251 0.0024057068 -0.00708172 -0.020518856 0.043701556 0.027267622 0.016220655
-0.0053206887 0.030139824 0.043619324 -0.004313238 0.00421635 -0.00571311 -0.012034906 0.025933603
0.018216237 0.029577821 0.028185643 -0.009780353 0.02381904 0.0129256295 0.035410635 0.01742134
0.043829747 0.030002365 0.003541604 -0.0060923174 0.0006480225 0.016155232 0.046855062 -0.005114079
0.045319345 -0.004828631 0.0023809853 0.03326486 0.01858309 -0.0107926605 0.029502818 -0.007946723
0.00094796147 0.0312926 -0.007868105 -0.047981102 0.02225839 0.005682213 0.015670761 0.036905766
0.04493593 0.0006274273 0.04181644 0.041061852 0.05388941 0.027571587 -0.004668662 -0.06396775
-0.031856794 -0.010078845 -0.055605687 0.018458009 -0.062052853 0.020285567 0.031298444 0.028374735
0.03654439 0.015576836 -0.00016926562 0.02282556 0.0024492703 -0.037983913 -0.089699425 0.0025338605
-0.061666142 -0.0019140015 0.0490664 -0.045394983 0.010391913 -0.044818353 0.04037614 -0.042732827
0.045212287 -0.030775238 -0.018547758 -0.0039745844 -0.012661907 -0.004817127 -0.01901391 -0.05343236
0.034745142 -0.03910499 0.041080337 -0.016627384 0.021818133 -0.012290088 -0.051037878 -0.07437509
-0.039056607 -0.054006677 0.04967413 0.040858332 -0.02115381 -0.012868097 0.024551705 0.005886434
-0.02086356 0.00075916 0.0438559 0.0076632737 0.008237772 -0.0079389475 0.019124582 0.07329405
-0.004388673 0.015070298 -0.0060146577 -0.021019515 0.0023168474 0.056302883 0.010699536 -0.008041977
-0.004722763 -0.030972408 -0.008939597 0.0063315365 0.0075001405 0.0666448 0.00018726612 -0.014248586
-0.009632454 -0.00010158005 -0.03454983 0.02562857 -0.0060492684 -0.01813469 -0.012595089 0.016198711
-0.04244678 -0.01357519 0.0028058216 0.008183525 0.010180434 -0.018263169 0.010610429 -0.002828065
-0.014573924 -0.027031885 0.008371719 0.002751888 -0.00027558152 0.020739056 -0.0076267216 -0.018200014
0.024439028 0.017336262 0.01276278 0.017471153 0.027627802 0.009306102 -0.034652203 0.0064778645
0.05018066 -0.006146415 0.009884542 -0.008420893 -0.024848009 0.009663251 0.005856021 0.004308061
00000000: f7d5 20bb 61ad 01bc f232 903c fb8e d73d
00000010: 9b28 293c 195c 033b 8e17 6cbb adae 91bb
00000020: 26e2 3f3b 9a58 2135 e8ba 21bc b86b 5bbb
00000030: 98f0 b9bc 6a42 e6bb 4b7d 803b 94c4 403d
00000040: da9c eb3d 7703 27bc 6167 cf3d 829c 98bb
00000050: 8026 913d 5571 1bba 1066 62bc 228f a6bc
00000060: 6525 eebb 0c1a 813b 8638 ffba 8892 08bc
00000070: 038f 743c 88ee 4a3d 624b d93c 3e8b 353c
00000080: 773e 873d f305 83bc 4511 413c 353e b43d
00000090: c89d 853b e5a8 9b3d 088c 123c ef8c 8d3d
000000a0: 7d3d d8bb 318a c43d 1ff6 f83d a9aa babc
000000b0: ff12 b3bc 4de3 91bc f886 f53a e6c7 2b3d
000000c0: 605f 8fbb caf5 ea3d 2710 2bbc db84 0ebb
000000d0: d210 193c e9ec a4bb 24ea cf3d f344 a63c
000000e0: a4c7 793d ad7b fc3c e79b 12bc d05f b9bb
000000f0: 0da5 133c 5aa1 e7bb 93f8 1bbc fbe7 36bc
00000100: 0c94 c83c c17d 9ab9 0a4c 93bc fe9e cfbb
00000110: 214c 0dbc a157 b2ba 4355 74bc d35b 30bd
00000120: 2606 553d 9d42 823c 7b2e 3e3c 1f2f c53c
00000130: 6940 cf3b efa4 83bc 7010 38bc 764e 0b3c
00000140: fb88 cc3b c6e2 943c ddaa 99bc f41b 373b
00000150: e013 83bb 4c6d b0bc f73d 033d 4397 c83c
00000160: 6f24 083d c7a8 2b3c 10a9 1d3b c60d e8bb
00000170: 2917 a8bc 6700 333d 5960 df3c 2ee1 843c
00000180: 2c59 aebb cbe7 f63c 2daa 323d 1056 8dbb
00000190: 4f29 8a3b 0a35 bbbb 0e2e 45bc b572 d43c
000001a0: 383a 953c 304d f23c 94e5 e63c c63d 20bc
000001b0: 2620 c33c 05c6 533c be0a 113d 33b7 8e3c
000001c0: d286 333d 85c7 f53c 411a 683b 10a2 c7bb
000001d0: 0ee0 293a fa57 843c 18eb 3f3d 0194 a7bb
000001e0: c7a0 393d 7e39 9ebb 4e0a 1c3b bc40 083d
000001f0: 903b 983c b3d3 30bc e5af f13c f932 02bc
00000200: 9e80 783a ab2c 003d 39e9 00bc d587 44bd
00000210: 3a57 b63c dc31 ba3b f85f 803c 802a 173d
00000220: bd0e 383d ef79 243a b747 2b3d 7930 283d
00000230: 24bb 5c3d cfdd e13c 93fb 98bb 8601 83bd
00000240: 457c 02bd bd21 25bc cac2 63bd 4035 973c
00000250: 222b 7ebd eb2d a63c cc32 003d 2272 e83c
00000260: 92af 153d fc35 7f3c e57c 31b9 abfc ba3c
00000270: f083 203b 0595 1bbd 55b4 b7bd 200f 263b
00000280: a395 7cbd 3cdf faba d9f9 483d 17f0 39bd
00000290: d842 2a3c 7393 37bd 7461 253d 9e08 2fbd
000002a0: 8530 393d 5a1c fcbc 78f1 97bc 3b3d 82bb
000002b0: e373 4fbc fdd8 9dbb 0fc3 9bbc e4db 5abd
000002c0: ec50 0e3d 8e2c 20bd db43 283d 2736 88bc
000002d0: f1bb b23c 5e5c 49bc 180d 51bd f851 98bd
000002e0: d2f9 1fbd 1b36 5dbd 1a77 4b3d 115b 273d
000002f0: c14a adbc b6d4 52bc a820 c93c fde2 c03b
00000300: 0eea aabc 5d02 473a 3fa2 333d 331c fb3b
00000310: b8f7 063c 5c12 02bc 28ab 9c3c 311b 963d
00000320: dcce 8fbb 69e9 763c 9b16 c5bb 1e31 acbc
00000330: 40d6 173b da9d 663d 1b4d 2f3c 7fc2 03bc
00000340: 68c1 9abb d9b9 fdbc 6377 12bc c778 cf3b
00000350: bdc3 f53b 127d 883d de5c 4439 e772 69bc
00000360: 71d1 1dbc 6007 d5b8 1f84 0dbd 02f3 d13c
00000370: f138 c6bb 348f 94bc a25b 4ebc 29b3 843c
00000380: addc 2dbd 796a 5ebc e0e1 373b 3114 063c
00000390: d6cb 263c a49c 95bc 5dd7 2d3c 0f57 39bb
000003a0: 78c7 6ebc f971 ddbc 8929 093c 0559 343b
000003b0: ed7b 90b9 f4e4 a93c 94e9 f9bb 3218 95bc
000003c0: 5b34 c83c c704 8e3c fb1a 513c aa1f 8f3c
000003d0: b353 e23c 9f78 183c 78ef 0dbd 4444 d43b
000003e0: 3c8a 4d3d de67 c9bb c6f2 213c c9f7 09bc
000003f0: 0d8e cbbc 9d52 1e3c dde3 bf3b a32a 8d3b

update_node_embedding_layer.1.update_layer.weight f4 [64, 128]
-0.010167671 -0.033703506 -0.0015054389 0.08681153 -0.056350145 0.018904693 -0.016466007 -0.04319552
-0.025205314 -0.0064500826 -0.035491437 -0.053260487 -0.046926867 -0.023093818 -0.003667641 0.051021703
0.110874794 0.0023484598 0.07032822 -0.049728382 0.064362496 -0.056575593 -0.026713435 -0.041973032
-0.042005282 0.010020811 -0.0052979374 -0.03678834 0.010147714 0.057959747 -0.0031831376 0.02122933
0.06270674 0.006727519 -0.050143015 0.068943575 -0.004555614 0.069777235 -0.045949917 0.07033691
-0.020116797 0.08961055 0.08612474 0.005219599 -0.0061313156 0.004195299 0.011011657 0.08203442
-0.040436007 0.11057132 -0.030359555 0.0121902125 -0.04771053 0.009042375 0.066828296 -0.026816802
0.078396305 0.05509476 -0.034772437 -0.042012304 0.0014573629 0.0063790046 -0.030549973 0.011208447
0.035942607 -0.008521194 0.013022297 0.020113287 -0.009179382 0.023435647 0.013727731 -0.027411915
-0.004878531 0.023647415 0.0038316816 0.022965455 -0.009954916 -0.0023550396 0.008362155 0.007005113
0.029234491 -0.005154796 0.03176642 0.041542973 0.021461003 -0.015148566 0.03125687 0.022999028
-0.024520148 0.018517062 0.04674134 -0.0073595494 0.008922714 0.03642662 0.00022590571 0.0015373706
0.015472208 0.0042203777 0.043651767 -0.0032591429 0.042487364 0.018949743 -0.011877797 -0.003214695
0.029752621 0.008100405 -0.0027668688 -0.000161953 -0.017128529 -0.006978123 0.00033510607 0.040435966
-0.0029173677 0.01235998 0.012532683 0.01163571 0.0065479428 -0.012952006 0.019224001 -0.015976634
0.012610101 0.036833905 0.018174706 -0.057640057 -0.0059523415 -0.001975873 0.028678622 0.022067716
-0.010863433 0.0058604837 -0.007028142 -0.018592909 0.011160841 -0.010481571 0.007721809 0.014778161
0.027881026 0.0020718104 -0.0053078863 0.0014058362 0.006963724 -0.004014655 0.008054286 -0.032723293
-0.023757638 0.013382397 -0.003578814 0.016772922 -0.05864502 0.019730484 0.027788794 0.0071967356
-0.008940366 0.003477857 -0.0062289075 -0.0038203641 -0.009893935 -0.05881722 0.06891223 -0.017294815
-0.056792688 0.008303429 0.013230203 -0.043730933 0.0016754795 -0.06134151 -0.013356433 -0.07020688
0.021087607 -0.03466786 -0.06268108 -0.010869197 -0.012100814 0.0047711004 -0.006730585 -0.06526404
0.007796809 -0.079764105 -0.0015241976 0.004584755 0.027862338 -0.002873488 -0.023513636 0.051781096
-0.03327169 -0.02536405 0.027734447 0.010557654 -0.0066596493 -0.0036493393 0.002651047 0.0039967946
-0.020231467 -0.010610979 0.0018993575 0.0009391276 -0.015368342 0.00993775 0.01250976 0.012119468
0.0033971658 -0.015117371 0.006211786 0.009589277 -0.017583165 -0.01423878 0.0073705576 -0.01057403
-0.0006080948 0.011551834 -0.01357952 0.0063201715 -0.0013051258 0.0005286833 -0.0058519505 -0.005969398
-0.021801814 0.009910166 0.0061580334 -0.0039436775 0.008346813 0.011234425 0.0020762696 0.0052347044
-0.00023154737 0.0013301374 -0.009489329 -0.016488781 0.02140895 0.007601616 -0.00072730606 -0.0059180534
-0.009118357 -0.017974844 -0.012155366 -0.009620754 -0.007124624 0.020129323 0.0031894515 -0.059417255
-0.002027941 -0.003540477 0.011175519 -0.00016805022 0.014451453 -0.002770325 0.012230646 0.004298177
-0.0028552646 -0.003625212 0.02338582 -0.014341499 0.010094483 0.014062161 0.013356968 0.011710096
00000000: 4e96 26bc b00c 0abd 2652 c5ba 3eca b13d
00000010: 69cf 66bd 04de 9a3c b8e3 86bc c9ed 30bd
00000020: 607b cebc 375b d3bb 785f 11bd ab27 5abd
00000030: 6336 40bd 3f2f bdbc ce5c 70bb 22fc 503d
00000040: 5312 e33d 9ee8 193b 3e08 903d fdaf 4bbd
00000050: 7cd0 833d cfbb 67bd 22d6 dabc eaeb 2bbd
00000060: bb0d 2cbd 542e 243c 529a adbb 5faf 16bd
00000070: 9942 263c 3367 6d3d 309c 50bb 22e9 ad3c
00000080: 646c 803d 8572 dc3b c362 4dbd 4a32 8d3d
00000090: 4347 95bb 5ee7 8e3d fb35 3cbd cc0c 903d
000000a0: fbcb a4bc bc85 b73d 2b62 b03d 2c09 ab3b
000000b0: 34e9 c8bb b878 893b 3d6a 343c a901 a83d
000000c0: 3aa0 25bd 3773 e23d 9ab4 f8bc 75b9 473c
000000d0: 1e6c 43bd 7826 143c 46dd 883d e9ae dbbc
000000e0: 3e8e a03d 0bab 613d 8b6d 0ebd 1815 2cbd
000000f0: fc04 bf3a f806 d13b f043 fabc a2a3 373c
00000100: 8e38 133d 7a9c 0bbc 795b 553c 9fc4 a43c
00000110: 1e65 16bc 1dfc bf3c 47ea 603c f48e e0bc
00000120: 16dc 9fbb 39b8 c13c f31c 7b3b 0d22 bc3c
00000130: f219 23bc 0257 1abb 6c01 093c 268b e53b
00000140: 2c7d ef3c 90e9 a8bb 811d 023d f728 2a3d
00000150: fcce af3c b131 78bc 3407 003d 7568 bc3c
00000160: 7ade c8bc 18b1 973c d973 3f3d 6028 f1bb
00000170: 9330 123c 1434 153d 1ae1 6c39 9981 c93a
00000180: 257f 7d3c 184b 8a3b 32cc 323d 5897 55bb
00000190: 3b07 2e3d 7e3c 9b3c 179b 42bc a2ad 52bb
000001a0: c5bb f33c 90b7 043c 5b54 35bb edd1 29b9
000001b0: 2151 8cbc bda8 e4bb 2db1 af39 2fa0 253d
000001c0: 4f31 3fbb 8381 4a3c e255 4d3c b4a3 3e3c
000001d0: 2090 d63b a734 54bc a77b 9d3c 6ee1 82bc
000001e0: 999a 4e3c 26df 163d 1fe3 943c fb17 6cbd
000001f0: dc0b c3bb a67d 01bb 6eef ea3c 5bc7 b43c
00000200: 8afc 31bc 4d09 c03b 544c e6bb 2850 98bc
00000210: f6db 363c e5ba 2bbc 3b07 fd3b 1a20 723c
00000220: c066 e43c 36c7 073b c7ed adbb 0944 b83a
00000230: f32f e43b 5e8d 83bb 20f6 033c dc08 06bd
00000240: 619f c2bc d741 5b3c 898a 6abb 5e67 893c
00000250: c335 70bd d3a1 a13c 53a5 e33c 98d2 eb3b
00000260: 9d7a 12bc c2ec 633b dd1b ccbb 135f 7abb
00000270: 2c1a 22bc 53ea 70bd db21 8d3d dbad 8dbc
00000280: 739f 68bd 1b0b 083c 7ec3 583c 351f 33bd
00000290: c39b db3a 3c41 7bbd f1d4 5abc a0c8 8fbd
000002a0: ebbf ac3c e3ff 0dbd f05e 80bd b714 32bc
000002b0: 7e42 46bc e456 9c3b 3d8c dcbb 27a9 85bd
000002c0: 607c ff3b 5d5b a3bd 96c7 c7ba b63b 963b
000002d0: 8f3f e43c 2151 3cbb ab9f c0bc 6a18 543d
000002e0: e547 08bd 45c8 cfbc 5a33 e33c 03fa 2c3c
000002f0: 3039 dabb c129 6fbb 30bd 2d3b 8bf7 823b
00000300: 76bc a5bc acd9 2dbc ddf3 f83a c92f 763a
00000310: 80cb 7bbc f2d1 223c bdf5 4c3c bc90 463c
00000320: fca2 5e3b daae 77bc 3d8c cb3b 581c 1d3c
00000330: 920a 90bc c649 69bc b884 f13b b23e 2dbc
00000340: 8d68 1fba e743 3d3c a37c 5ebc 7119 cf3b
00000350: c110 abba 5697 0a3a b8c1 bfbb f19a c3bb
00000360: b899 b2bc 405e 223c 54c9 c93b f739 81bb
00000370: 12c1 083c 9810 383c 0612 083b e287 ab3b
00000380: 86cb 72b9 0158 ae3a 2179 1bbc 7b13 87bc
00000390: d361 af3c fa16 f93b afa8 3eba 3bec c1bb
000003a0: 2965 15bc fb3f 93bc 4d27 47bc 5ea0 1dbc
000003b0: ae75 e9bb 40e6 a43c 1e06 513b 825f 73bd
000003c0: 34e7 04bb 5907 68bb 8619 373c a336 30b9
000003d0: cac5 6c3c 578e 35bb 0c63 483c b9d7 8c3b
000003e0: 641f 3bbb f794 6dbb 9f93 bf3c 9bf8 6abc
000003f0: 5563 253c fa64 663c 2fd7 5a3c b4db 3f3c
