ER_200spin/eco/network/network800000.pth (torch, 238273 bytes, 11 tensors)

node_init_embedding_layer.0.weight f4 [64, 7]
00000000: 6e15 53bb aa38 893e a9c4 2f3d d790 47bd
00000010: 32ca 4b3b 0549 863d 1c82 ebbc 98d4 fd3c
00000020: 6a94 2cbe d6b3 e33b e871 de3d db2a 25ba
00000030: ea1c 96bc f295 ab3d aad2 5a3a aeca 9a3e
00000040: 09d6 063d 6c0c 363b 6a10 20ba 506d 533d
00000050: 0294 1abd a96c 0b3c 04b7 923e b4a7 d53c
00000060: ce26 8abd ff0b ccbc a5d6 c73a 827b c73c
00000070: 59f1 36bb 3f57 933e 39c8 2d3d 848d 61bc
00000080: 96ef acba fcaf 323d 85f1 2dbd 78a0 d0bc
00000090: 3916 893e 253e fb3c 90b3 4239 b02b 3a3b
000000a0: 287d 613d df4b 4dbd 8271 673c e4cb 09be
000000b0: 1aa3 833c 7ef8 8bbc d700 68bc 3fa7 0f3d
000000c0: 3796 893c 147f c73b 7ee8 a03e 424f 0e3d
000000d0: 228d b1bd 3e70 353b 1c8c 6c3d 7d46 96bc
000000e0: b25f 973b 7760 893e 6032 ef3c f1d9 92bd
000000f0: a2cb a7b8 c4f7 6a3d 860c 8dbc 0100 8c3c
00000100: baef 34be 503c d03c 699f c2bb 4b49 1dbc
00000110: bf01 2f3d d952 323d 2efb 833c 9b7e 37be
00000120: 0ca1 84bb a6df d53d 5841 bc3b 7d18 6ebc
00000130: 7189 863d 91a3 093c 117b 8abe 3b0e fdbb
00000140: 068e 1f3e 73b0 a73b f55c 813c 986c 8ebd
00000150: 3381 9f3b 8324 943e 05de 3c3d 9e5e 67bd
00000160: 903f 273b 6b34 913d f05a 18bd 2123 ec3a
00000170: 1ce7 893e 30ac 6e3b 7a80 513c ef99 34bb
00000180: 5e16 823d 9599 97bd d1b1 083d ea94 31be
00000190: 1509 833b 43bc d33d 4a4e 9db9 e7be edbc
000001a0: 1262 c13d 7de5 2b3b eeea 16be 8a10 e4bb
000001b0: cbd9 e43d 0084 173c 74ca 33bd 0eac bd3d
000001c0: 3e12 cc3c 3f8c 1cbe 39e9 1dbc 39d8 063e
000001d0: 4820 863a becb e0bc 5e26 ad3d aa18 f83b
000001e0: a9b4 913e ca7c 003d 11c5 02bc 550e c23b
000001f0: 1ebb 5d3d a802 88bc 25e0 e7ba e96e 813e
00000200: f1b1 babc 2227 d0bd 37c5 a0ba d041 fb3b
00000210: 2b1f 96bd 3922 e23c dfc7 1dbe 2f6e 9fbc
00000220: 6958 f43d 6205 7a3b 4214 d0bc 9cb4 a83d
00000230: bf5b 27bc 153a efbd 7b6b d23c e8a4 83bd
00000240: 1406 813a 411e d7bc b4ac 043e 15b5 823b
00000250: 74d0 8e3e 1cbb 473d 2d3b 9bbc d805 86ba
00000260: 5b7b 833d 652e 3abd bcd6 a53b 5e42 57be
00000270: fa3d 43bc ad26 303e 1ad7 4e3b 58fb 9e3c
00000280: 1621 8cbd fa5e 0c3c 59d1 35be 9cf3 34bb
00000290: 31e5 d73d f6fc 423c 4d34 d4bc 33d0 933d
000002a0: 0037 54bc da67 8b3e 8fdc 2ebc 52cd 893a
000002b0: 8fcd 1fbb e385 8b3d a2d1 84bd 85fc 5b3c
000002c0: 63f7 23be 6e11 69bc a406 e63d 2536 d53b
000002d0: 3110 0dbd e64f 983d f95c 0c3b b308 23be
000002e0: 300a 8cbb a9a0 e63d ea4a a83b 4901 30bd
000002f0: 8804 ad3d 3325 a93c f526 193e 37c7 ae3c
00000300: 8394 0f3e 7222 0d3a c6f4 b13d a3af d6bc
00000310: 5d52 19bb 8d5e ba3b b262 fbbb 80f6 303c
00000320: 2fb2 e1bb e99a 86bb d73c 7ebb 807a f93b
00000330: c7ce 1cbe 20fc 2cbc 7fa1 c53d 730d 5c3c
00000340: b3b3 2ebd ef8f a73d eede c5bb fb70 12be
00000350: 609d f6bc 43c0 d33d e7d5 6b3c ae9c 29bd
00000360: 07bf a73d b592 85bb bd2d eb3b 7726 2ebc
00000370: fe41 233a 6c50 6abb 8c86 0cbc e10a 94bb
00000380: a0d2 e73c 9c39 21be a99c e1bb b734 003e
00000390: eb1d 4d3a 0c0c a0bc 90ac a23d 9c9a 0d3c
000003a0: 7ce6 8f3e 2ce8 da3c 7910 eabd 5f78 be3b
000003b0: 4675 a53d 0c2d aebc 806c 03bd 1aad 403e
000003c0: 58f5 b6bc 51b7 063d 3509 f03a 7ce0 613d
000003d0: 451c 7bbd 809b 773b e460 49bd 13be 263d
000003e0: 35de b0bd 170e baba 3559 dbbc e4a6 103e
000003f0: 25de 53bc d7bc 12bb f0b5 e639 9d94 d03b
-0.0032208818 0.26801044 0.04291216 -0.048722114 0.003109586 0.06556896 -0.028748564 0.030985162
-0.1685349 0.0069489283 0.1086157 -0.00063006365 -0.018324334 0.08378209 0.00083474314 0.30232757
0.032918964 0.00277784 -0.00061059615 0.05161792 -0.037738807 0.008509793 0.28655255 0.026080944
-0.06745683 -0.024908064 0.0015246464 0.024350885 -0.002791485 0.287775 0.042427275 -0.01376665
-0.0013193961 0.043624863 -0.04246666 -0.025467142 0.26774767 0.030669281 0.00018568174 0.0028407387
0.055051 -0.050121184 0.014126183 -0.13456684 0.016068984 -0.017086264 -0.0141603565 0.035071608
0.01679526 0.006088147 0.31427377 0.034743555 -0.08669497 0.002768531 0.057750806 -0.018344158
0.004619562 0.2683141 0.029198825 -0.07170475 -8.00111e-05 0.057365194 -0.017217886 0.017089846
-0.17669573 0.025419384 -0.0059394133 -0.009599994 0.042726275 0.04353604 0.016110983 -0.1791939
-0.0040475186 0.10443048 0.0057450943 -0.014532206 0.065691836 0.008400814 -0.27047017 -0.0077226437
0.15581521 0.00511747 0.015791396 -0.06954306 0.0048676967 0.28934106 0.04611017 -0.05648672
0.0025520064 0.07090076 -0.0371961 0.001801584 0.26934135 0.003641855 0.012786979 -0.0027557572
0.063519225 -0.0740234 0.033372704 -0.17341962 0.0039988854 0.103386424 -0.00030003703 -0.029021693
0.094425336 0.0026229315 -0.14738056 -0.0069599794 0.11174353 0.00924778 -0.043894246 0.092613325
0.024911042 -0.15287875 -0.009638124 0.1316842 0.0010233009 -0.027440902 0.084545836 0.0075712996
0.28458145 0.031369008 -0.007981555 0.0059221187 0.054133527 -0.01660283 -0.0017690702 0.2527993
-0.022789927 -0.10163714 -0.0012265806 0.0076677576 -0.073301636 0.02760421 -0.15408276 -0.01946172
0.119309254 0.003815018 -0.025400285 0.082375735 -0.010214745 -0.11681 0.025686016 -0.06427938
0.000984373 -0.026259543 0.12956506 0.003988872 0.27893412 0.048762426 -0.018949116 -0.001022513
0.064200126 -0.0454544 0.0050609987 -0.21021411 -0.011916632 0.17202254 0.0031561316 0.01940696
-0.06842248 0.008567566 -0.17755641 -0.0027611023 0.10541762 0.011901131 -0.025903845 0.07217445
-0.012952566 0.2722767 -0.010672702 0.0010513461 -0.0024383997 0.06812646 -0.06485297 0.013426905
-0.1601234 -0.014225347 0.11231735 0.0065066987 -0.03443927 0.074371144 0.002141772 -0.15921287
-0.0042736754 0.11261112 0.0051358836 -0.042969976 0.0844813 0.02064762 0.14956267 0.021335227
0.14021496 0.0005383856 0.08689265 -0.026206797 -0.002339504 0.005687541 -0.0076716775 0.010800958
-0.006887696 -0.004107822 -0.0038793588 0.00761348 -0.15313254 -0.010558158 0.096499436 0.013430941
-0.042651843 0.0818175 -0.006038538 -0.14300911 -0.03010434 0.103394054 0.01439426 -0.041409187
0.081907324 -0.0040763267 0.0071770833 -0.010629288 0.000622779 -0.0035753502 -0.008577 -0.0045178984
0.028298676 -0.15744632 -0.0068851304 0.12520109 0.00078245875 -0.019536994 0.0794307 0.008642819
0.28105533 0.026722036 -0.11428923 0.005812689 0.08079009 -0.021261714 -0.032085896 0.18816033
-0.022333786 0.032889668 0.0018313291 0.055145726 -0.061306257 0.0037781894 -0.049164668 0.040708613
-0.08636133 -0.0014194873 -0.026775936 0.14126164 -0.012931381 -0.002239039 0.00044004573 0.0063653723

edge_embedding_layer.edge_embedding_NN.weight f4 [63, 8]
00000000: 96d4 6e3d e3ae 253d 21dd ea3d aa7b 93bd
00000010: 4e5f 96bd 9088 843a 8244 883d 491a a0bd
00000020: 0cd4 31bc a3a5 b83a b858 5d39 bf94 2a3c
00000030: 4b7d ba3b 14c5 72bb 157b d8bb 23df 34bc
00000040: 8eda 3a3d 6750 793c a7f5 ed3d cf20 7bbd
00000050: 20c5 65bd 820e 643b 692c 983d e466 abbd
00000060: 3dad ca3c 9394 af3c 8e9d c43d 8a3e 58bd
00000070: 2c73 9a3d cf3d e939 ced3 493d 59ff 95bd
00000080: 4148 863d a082 573d f6af ea3d e72b 85bd
00000090: 585b a9bd 5741 173a 8844 9e3d 3732 bbbd
000000a0: b970 0b3d 11c9 863b 3631 c43d 0258 29bd
000000b0: cb97 043e 5c92 86ba 8136 5b3d d6fe bebd
000000c0: 0b9b 153d fa31 513c ca68 d63d 709e 97bd
000000d0: 5474 5e3d 57ee cf3a a27b 373d a666 90bd
000000e0: c9db 8b3d 1330 a73c dec4 db3d 6fad 94bd
000000f0: 117c 40bd d6f5 4a3a 5f7e 8a3d 63ab dcbd
00000100: d042 a33c 0171 333c 9026 cf3d ef30 34bd
00000110: 5a5d 163e d252 26b9 357e cd39 e261 8fbd
00000120: 5340 73bc e48c 4e3b 0bc7 7ebd 9e82 bf3d
00000130: 80a3 c43d 0cde 1a3a 797b 46bd 5ec7 cb3d
00000140: c3ab 2ebc 8f4c c3bb 63d5 0b3e 8724 f1bc
00000150: f54e 233e 435e 563a 9ce9 8f3c c53b 7dbd
00000160: 8b62 86bc 2be6 8fbc aaeb ec3b 30dc 6f3b
00000170: 081d 0e3c b39e 06bc 530b 0a3c 6b86 103c
00000180: 3320 1d3d 9ccd 103d 54a3 d93d fc63 5abd
00000190: cf70 143d fdc9 a5b9 8e79 923d 965d 9dbd
000001a0: 3745 833d 0b5a 173d c9a7 f93d c91d 92bd
000001b0: 092c 12bd 0267 f839 ed37 9f3d a9fb b7bd
000001c0: 7adc 87ba 3006 0dbc 428e d13a 9f45 b33b
000001d0: c731 a03b 55ee 4abc 77ca bebb 1eef bebb
000001e0: 6f70 4c3d 27b0 023d 5255 0d3e 326c 8ebd
000001f0: ec39 62bd e099 643a 0dae c63d e955 93bd
00000200: 3d12 32bc 6d43 2b3b 2912 adbd 4550 a73d
00000210: 38bc ea3d 2ea5 463c 20d5 79bd d5f9 f23d
00000220: 2c4d ca3c df53 923c 36bd e73d 10b7 48bd
00000230: cb17 003e c699 57b8 443a 193d 347f 9ebd
00000240: 5827 78bc 6958 0dbd a43f 98bd 363d 663d
00000250: e35d de3d 040d ab3b 19d2 89bd d900 983d
00000260: d46d 83bc ce45 de3b 3094 35bc 9749 993b
00000270: 5c12 35bc 5875 ddbb 5b80 8ebc 0f2a 2bbb
00000280: 760b 9e3c ce4f da3a 2fc7 ca3d 7b88 7cbc
00000290: 164e 43bd 65c6 fbbc c376 473c 5026 6dbc
000002a0: e06a a3bc 61e3 31bb 76e7 bcbd 594d b73d
000002b0: 7baa de3d 6863 1c3c 22ee 77bd 6370 d43d
000002c0: 21ba 183d 9d0c 6f3d c1dd 063e b9bc 26bd
000002d0: f326 03bd 60ad bc3a 24b4 6b3d dedb abbd
000002e0: dda7 af3c a921 653c f288 db3d 40b9 c0bc
000002f0: a3f2 1bbd 6954 27bd 1e41 7e3c f771 27bd
00000300: 5d88 babc 1c42 2c3c b311 5e3c 733a 2bbc
00000310: bcf5 203c a17f 1bbc c539 bd3a 8117 28bc
00000320: e664 fdbb fa39 16bb a95a a638 7ddb 65bb
00000330: 9820 323c 3172 12bc 12d0 1a3c e721 543b
00000340: d426 403a a040 56bc 74b0 513e a579 acbd
00000350: c6c9 d1bb 0b5a d23a 817f 1e3c 29e7 a2bd
00000360: 9c8c 013d 20e3 f23c 6e66 cdbd 73ee fc3d
00000370: 52fe eabc eabb 07bc 7125 b638 8dc9 f83d
00000380: 5a76 1ebd 164a fdbc 2b4d 82ba 4c0d 573b
00000390: 298c a83d 0cf9 2ebb ac35 63bd 754d a23c
000003a0: 9c94 30bd a806 26bd 9db9 02bd 497a ce3c
000003b0: b4c0 d63d d31c 793b 84db 7bbd caa4 1e3d
000003c0: 51f6 57bc 31a6 b3bb 7832 683e 5a05 f7bd
000003d0: adab e33c 52aa 8f3b aab4 093d f131 0bbe
000003e0: 7af8 babc b636 9dbc 95be 7fbd 638f ad3d
000003f0: 1f01 d43d 4345 953b 8caf edbc 334e ab3d
0.058308206 0.040449988 0.11467958 -0.072013214 -0.07342397 0.00101115 0.06653692 -0.078175135
-0.010853779 0.001408745 0.00021109253 0.01041144 0.0056912056 -0.0037043737 -0.0066064694 -0.011039528
0.045618586 0.015216923 0.1161912 -0.061310586 -0.056096196 0.0034798686 0.074303456 -0.08369234
0.02474081 0.02143315 0.09600364 -0.052794017 0.075414985 0.00044487274 0.04927426 -0.07324094
0.0655675 0.052614808 0.11459343 -0.06502514 -0.082693756 0.0005769929 0.07727915 -0.09140437
0.034043048 0.0041133245 0.09579699 -0.041343696 0.1294853 -0.0010267007 0.053518776 -0.0932595
0.036524814 0.012768263 0.10469206 -0.074032664 0.054310158 0.0015863877 0.04479564 -0.07050829
0.0682903 0.020408666 0.10730909 -0.07259642 -0.04699332 0.0007742321 0.067623846 -0.10774877
0.01992932 0.010952235 0.10114777 -0.04399198 0.14684048 -0.00015861847 0.00039194679 -0.070010915
-0.014846879 0.0031517083 -0.06220154 0.09351085 0.09601498 0.00059077214 -0.048457596 0.09950136
-0.010661068 -0.005960054 0.1365562 -0.029436363 0.15948088 0.0008177498 0.017567448 -0.06182458
-0.01640441 -0.017565807 0.007230242 0.0036599748 0.008673914 -0.008216548 0.0084255515 0.00882111
0.038360786 0.035352334 0.106268555 -0.05331801 0.036240395 -0.00031621745 0.07152091 -0.07683866
0.06409686 0.036951106 0.121902056 -0.07134587 -0.035686526 0.00047378993 0.07774339 -0.08983547
-0.001036539 -0.008607432 0.0015987831 0.005470946 0.0048887464 -0.012385924 -0.0058224755 -0.005826845
0.049911913 0.031906273 0.13802078 -0.0695423 -0.05523102 0.0008720439 0.09701166 -0.071941204
-0.010868606 0.0026132718 -0.084507294 0.08169607 0.11461681 0.012124343 -0.060994267 0.11864058
0.024695002 0.017862258 0.11315386 -0.049002707 0.12509076 -5.1403207e-05 0.037409082 -0.07739106
-0.015146099 -0.034508143 -0.074340135 0.05621072 0.10857751 0.0052200574 -0.06729526 0.07422037
-0.016043581 0.0067832237 -0.011082694 0.004677962 -0.0110517405 -0.006758373 -0.017395189 -0.0026117598
0.019292574 0.0016655864 0.099012725 -0.015413399 -0.04768189 -0.03073425 0.012174311 -0.014474466
-0.019948423 -0.0027143585 -0.09223835 0.089503 0.1087236 0.009545185 -0.060529836 0.103729986
0.03728688 0.05836164 0.1317053 -0.040707324 -0.032019567 0.0014394931 0.057544842 -0.08391546
0.021442348 0.013985076 0.107194796 -0.023525834 -0.038073193 -0.040851984 0.015518455 -0.04088017
-0.022770101 0.010513809 0.0135540245 -0.010450947 0.009824213 -0.009490878 0.0014436772 -0.01025951
-0.0077329753 -0.002292274 7.9323836e-05 -0.0035073452 0.010872029 -0.008938358 0.009449022 0.003236884
0.00073300046 -0.013076931 0.20477468 -0.08421639 -0.006402227 0.0016048563 0.009673954 -0.079542466
0.031628236 0.029649317 -0.100293025 0.12350168 -0.028685723 -0.008284548 8.68541e-05 0.12147818
-0.038687088 -0.030919116 -0.0009941211 0.0032814322 0.082298584 -0.0026698736 -0.055471107 0.019812325
-0.043110475 -0.04053369 -0.031915296 0.025204794 0.10485974 0.0038011565 -0.061488643 0.038731374
-0.013181285 -0.005482458 0.22675502 -0.120615676 0.027791822 0.0043843174 0.03361956 -0.1359327
-0.022823561 -0.019191127 -0.062437613 0.084746145 0.10351776 0.004555376 -0.029014371 0.08364525

edge_embedding_layer.edge_feature_NN.weight f4 [64, 64]
00000000: cce7 723d dd23 20bb 055d 673d 773e ab3c
00000010: 50e6 8c3d 0c87 023d 8343 ed3c 1fcf 133d
00000020: 124f 273d 03ae 99bd 45fb 833d c2a5 45bc
00000030: 6a99 a03b 84ca 473d 3e90 633c 8fb0 633d
00000040: e805 dabc bb99 f33c 193e f8bc 5c15 d6bb
00000050: b763 893c ddae 18bd e204 473d c654 1c3b
00000060: 8f65 3a3c 4385 41bc 1768 fe3c 6198 debd
00000070: f25b 41bb bed6 43bb 056e ab3d f877 1fbd
00000080: d358 0e3d 4c00 843d 417f 1b3d 8695 50bd
00000090: a120 793d b7a1 8ebc 0bbd 313c 6688 533b
000000a0: cad7 44bd fc91 19bd 066e 943c ed7f 2d3c
000000b0: d304 253c 3846 26bb 48a8 643c 145d 4bbb
000000c0: bb36 753d 81d1 22bd 8d1f 6bbd f0ac 813d
000000d0: 0837 6abd af9c 553d cb3e 623c a3b7 ebbc
000000e0: fdfe 6c3d e794 ac3b 7eba c2bc daf9 773c
000000f0: 88c5 61bc 5d01 123d 5e30 293d 2293 d93c
00000100: e409 4abd e079 623a 9c32 edbc 1185 3c3c
00000110: 65b7 2abd 87cf d83a 6524 193c e833 5e3c
00000120: 2863 2eba 5b49 073c bd17 6e3b 0654 54bc
00000130: 0e24 463c 4374 c7ba b861 f6bb fa29 19bd
00000140: 0e5c a33c 88de 2d3c 37fe de3c e542 0cbb
00000150: ec85 bebb 2869 983c cc75 efbc 70f8 91bc
00000160: ee05 82bc 53bc 8e3c ff14 85bc 8690 91bd
00000170: 06a5 633b ae55 9e3c 339c b43b d1b1 6e3c
00000180: 9661 9a3c 0383 0c3d e078 943c 4a57 363c
00000190: 14ea 24bd 6684 ab3c 476e b5bb b243 e33a
000001a0: 419f 163b e085 283c e379 b1bc 236b 703b
000001b0: b992 ba3b f6df 833c 0d89 113c ffca 8a3b
000001c0: 4a04 5abd f1f6 78bb f45c a73b 585c 86bd
000001d0: 378d 5bbb 8124 40bd df52 d43b 296f b53c
000001e0: 4d5c 4fbd c3e3 b33b fe4c 493b d3b4 7abc
000001f0: 67ca 8f3c be09 13bb f19d 943c 64f1 06bd
00000200: d3bc 2c3a e0f3 08bc 1894 fdbb 5ef7 b7bb
00000210: 823d 5d3b 0f73 a83b a3e8 88bc 39d9 033c
00000220: e0af 3a3b c1cd abbb 2dd6 b0ba fef7 29bc
00000230: b3a0 ebbb f3e8 88ba 4f5e 97bb c99d ffbb
00000240: 5abf 08bc 7912 843c cff0 24ba 87a4 7abc
00000250: 0d03 893b 5d05 cdba 188a f53b dd79 d8bb
00000260: 662e babc 921a 92bb 99c6 7c3b e737 48ba
00000270: 74dc ce3b 3803 59bc 4994 e1bb e9d1 debb
00000280: 9dc5 fabb be4b dfba c2ff 533b 98d9 afbb
00000290: 29fd b2bb 6b71 f1bb f9a7 acbb 4103 e5ba
000002a0: 50ae 81bc e58c 66bb 9e34 3fbb b0e5 09bc
000002b0: 7d91 533c 0ef6 54bc 8b25 45bc fd80 a43c
000002c0: eb3b 05bc 826d 863b f7ce 6cbc 1229 37bc
000002d0: 4dd0 a13b c231 c5ba c38c 97bb 23ae 99bb
000002e0: efd2 8e3a 592f 943c 8848 a13b 60f2 1c3a
000002f0: 0f86 443c e243 573b 14cb fabb 5e02 67bc
00000300: 0e2f 013d 7b71 c8bc 5735 273d c8b6 983c
00000310: b8a1 683d 6745 293d 7e1f 333c 54f6 ab3c
00000320: c9cf dc3c 11fd c3bc 1f85 833d 31dd aebc
00000330: f12e a43c 6bb3 953c 96e6 0638 339f 563d
00000340: 579b 11bd 4b54 463d fb91 febb 5dcc 79bb
00000350: c7eb a9ba c77c 30bc 5496 483d 733c 483c
00000360: 6a86 c6ba 8bed eb3b 4fb7 133d 0d70 9dbd
00000370: 095e 8b3c bb1c acbb 809e 953d 40f0 cdbc
00000380: 6fca df3c f905 243d a476 e33c e4bd d2bc
00000390: 4f4a 4d3d ef32 153c 75fc 3e3c ed21 f2bb
000003a0: 8f93 24bd 6a3b 76bc fd8a d13c a56e f5ba
000003b0: 6853 373c dc2b 21bd f9b6 953b 8d13 01bc
000003c0: 76fa 1b3d caa0 a1bc 6542 c0bc 8379 873d
000003d0: b89a dbbc 6061 483d 2fca a23c 26ec 67bc
000003e0: e13c 333d 4b11 ea3c a143 ebbb da48 343c
000003f0: 5427 743b 184d f23c 7322 003d 913d dc3c
0.05930309 -0.0024435439 0.056485195 0.020903809 0.06879866 0.031867072 0.028962856 0.036086198
0.04084689 -0.07503893 0.0644441 -0.0120634455 0.004901101 0.04877712 0.0138893705 0.0555883
-0.026614144 0.02973639 -0.030303048 -0.006533308 0.01677118 -0.037276138 0.04858864 0.002385424
0.0113767525 -0.011811557 0.031055493 -0.10868908 -0.0029504267 -0.0029882635 0.08370594 -0.03893277
0.034752678 0.06445369 0.037963156 -0.050923847 0.060822133 -0.017411096 0.010848294 0.0032277345
-0.048057355 -0.037492737 0.01811887 0.010589582 0.010071951 -0.0025371443 0.013956137 -0.003103082
0.05986665 -0.03975058 -0.057403136 0.06331813 -0.05718139 0.05215138 0.013808916 -0.028774088
0.057860363 0.005266774 -0.023770567 0.015135253 -0.013780005 0.03564583 0.041305892 0.026559416
-0.04932584 0.00086393766 -0.028954796 0.011506335 -0.041678805 0.001654134 0.009347056 0.01356218
-0.00066523487 0.008257235 0.0036330067 -0.012959486 0.012093557 -0.0015217144 -0.007518973 -0.037393548
0.019941356 0.010612138 0.027220828 -0.0021402177 -0.0058143046 0.01860483 -0.029230975 -0.01781866
-0.015871968 0.017423784 -0.016245363 -0.07107644 0.0034735813 0.019327965 0.0055117845 0.014568762
0.01884536 0.03430463 0.018124044 0.01112921 -0.040262297 0.020937156 -0.0055368277 0.00173389
0.0022983106 0.010285825 -0.021664565 0.0036684952 0.0056937602 0.016098004 0.008882773 0.004235625
-0.053226747 -0.0037988985 0.0051075164 -0.06560582 -0.0033500919 -0.046909813 0.0064796056 0.022147732
-0.050625134 0.005489798 0.0030716057 -0.015301901 0.017552568 -0.0022436227 0.018141719 -0.03294505
0.00065894163 -0.008358926 -0.0077386014 -0.0056142053 0.0033758585 0.005140669 -0.016712492 0.008047395
0.0028486177 -0.0052430336 -0.0013491564 -0.010374067 -0.0071907877 -0.0010445401 -0.0046193968 -0.007800792
-0.008346403 0.01612209 -0.0006291987 -0.015298015 0.004181272 -0.0015641857 0.0074932687 -0.006606324
-0.022727203 -0.004458734 0.0038570522 -0.00076377246 0.006312901 -0.013245396 -0.006884132 -0.0067999256
-0.007652952 -0.0017036123 0.0032348488 -0.0053665154 -0.005462308 -0.007368257 -0.0052690473 -0.0017472283
-0.015830189 -0.0035179195 -0.002917565 -0.008416578 0.012913105 -0.012998117 -0.012032877 0.020081038
-0.008131961 0.00410241 -0.014453641 -0.0111792255 0.0049381615 -0.0015044736 -0.0046249344 -0.004689948
0.0010896603 0.018088983 0.0049219765 0.00059870444 0.011994853 0.0032846858 -0.0076536033 -0.0140996855
0.031539015 -0.024468174 0.040822353 0.018641844 0.056794852 0.041325953 0.010932801 0.020991482
0.026954548 -0.023924382 0.06421875 -0.021345707 0.020041915 0.01827403 3.216284e-05 0.052397918
-0.035548534 0.04842023 -0.007768867 -0.0038116195 -0.0012963944 -0.010771937 0.04897149 0.0122214435
-0.001514626 0.007199948 0.03606349 -0.076873876 0.017012613 -0.0052524484 0.07305622 -0.025138974
0.027318208 0.04004476 0.027766533 -0.025725313 0.050119694 0.009106382 0.01165687 -0.007389298
-0.040179785 -0.015028814 0.02557897 -0.0018724991 0.011189319 -0.03934847 0.004568931 -0.007878196
0.038080655 -0.01972999 -0.02346916 0.066149734 -0.026807174 0.04892099 0.0198718 -0.014155423
0.04375923 0.028572699 -0.007179693 0.011003697 0.0037254887 0.029577777 0.031282853 0.026884826

update_node_embedding_layer.0.message_layer.weight f4 [64, 128]
00000000: 7702 d03c 0fb8 bdbc 811e 163d c8ce b13d
00000010: 8776 6c3d 0117 043d 27f3 0dbc 65a1 703c
00000020: c655 733c c711 95bc e58c 463b 443a 2dbc
00000030: 2056 523c f901 5d3d 1fe7 833a f053 4cbc
00000040: 454e b53b cc5b 173d 53d4 003e a890 633c
00000050: ab1a 6d3d acb4 333d 8f12 b1bc 82ed 3b3c
00000060: a02e 2b3d 1815 9dba 463e cb3b a37a c53c
00000070: 1410 113c 15c8 a3bc b52f dcbb c6f0 863a
00000080: 8f68 b3bc 83ac 743c be6e 963d 0aee 5c3d
00000090: 93cd c53c 3763 14bb c787 b5bc ad55 573d
000000a0: 9516 1e3d c611 db3d 69bf eebc 4860 37bb
000000b0: 8dd3 8e3c 68a8 49bc 4709 903d 29df 97bb
000000c0: 184b 963c 9228 cf3d 365d 03bb 5aa2 403b
000000d0: 0e00 aa3c aaa0 53bc 3a88 deba 52c9 15bc
000000e0: 5596 9b3d c866 b13b 9b7c 753d 0b4c 2a3d
000000f0: c1cf 35bb 4e76 e53c 2c90 c4bc 156c 49bc
00000100: 65fb 823c 6be4 c8bc 62c0 0abd 9c55 3a3c
00000110: 326a a83c c92a 3a3b eee5 473b 493f 08bc
00000120: f684 183c a45a 393b b968 02bb 2020 cc3c
00000130: 3ee5 00bb 973c 71bb 2986 823c 2226 8bbc
00000140: 4660 7b3c 5316 a5bc 694e 313b 3bca d83c
00000150: fc8f 393b dd9e f83b c1be 47bc c200 02bb
00000160: 5b45 00bd d30c e83c 40e4 25bd b22f 483c
00000170: c3bf b33c 003c bf3c bdcf 3e3c 5ba0 8ebc
00000180: a0ac 3e3c ebc8 11bd cc6e 053d 64c8 b5b9
00000190: 9f51 88bc 26c0 d83b 4a34 193c 1aa0 9a3c
000001a0: e6e6 31bc ea68 62bb a15f cb3c 6de3 85bb
000001b0: cced 9e3b e7c7 853b cb2f 893c 7726 123d
000001c0: 5029 1e3c abb2 153d 6190 943b 2d1e 14bb
000001d0: e1fe 693c fb64 d53b afcc 8f3b 6728 b3bb
000001e0: 25c9 f5ba 1712 bcbb e5e1 edbc 4fab 35bd
000001f0: 1f12 bebb c81c 6f3c c106 ac3c 97f4 033c
00000200: 400d a8bb 94f2 cfbb cba0 92bb da9b 85ba
00000210: 5495 eabb 1e3f 1d3c 0fcf 5dbb 98da 56bc
00000220: 89ec 91bc 207b 7fbc 6be3 0abc e5ea 843c
00000230: f272 87bc 69f7 11bc b88b af3b c5fb 75bc
00000240: 7772 30bb 02df 1bbc 5baf ed3b 4e30 7d3c
00000250: 1b57 09bd a535 353c 2de7 9fbc a9fb 493c
00000260: 996a 5ebb 20f0 113a 1fd2 1c3c 8a16 80bb
00000270: a6f9 98ba 34d6 4ebc 8456 85bb 66a6 893c
00000280: 7d1a b33b a538 1d3c 3ea1 043c 0708 f8bb
00000290: e08a d3bb 7439 26bc 308a 4abc 23ed 82bb
000002a0: 148e 2ebb bdeb 28bc 6104 6eba cd45 953b
000002b0: 1890 3aba a6a5 183c c106 363c 4686 c83b
000002c0: f401 af3b 7c4f bb3b 8efd edbb f9a4 84bc
000002d0: cc10 6a3b 3d83 643b eaa2 31bc 2acb b2bb
000002e0: c5d3 a83c d348 283b 4e14 663a c4a0 01bb
000002f0: d23f cb3a be43 5739 815f ecbb 7759 12bb
00000300: 3bf4 80bb 39f6 d6bb 5821 fe3b f902 c53b
00000310: c290 89bb 80ce 2a3b 88fb 1bbb eec9 81bc
00000320: d8f8 e8ba 3c4d a0bb 30aa 9dbc 98b6 29bb
00000330: 207e 9e3c 3247 0d3c f5f2 6abc 4bef 8b3b
00000340: b3d8 cfbc 0540 2bbb 1948 b8bc bee0 d43b
00000350: 8bb0 c83b 8db8 8a3c 36e0 18bb 102e 6b3c
00000360: 33e6 133b 57b5 72bc b2ef 08bc 2b38 72bc
00000370: a6b5 763c 7333 7bbb 8957 db3b a7ff 6bbc
00000380: 7059 fdba eb2a d93b 6d04 473b 7456 8bbb
00000390: a269 b6bb c79c 16bc afe6 30bc 10fa a4bc
000003a0: 4b80 c7b9 3eb3 bc3b dede 5a3c ea80 f7bc
000003b0: 21ff 21bc 0ffa b5bc 1e9e 893b c638 203b
000003c0: 4b4d bc3a d5d1 17bc fb15 673b 65f1 613c
000003d0: 1c64 313b 944e 003c 2cd4 4d3b c458 c1bb
000003e0: ce62 b6bb b200 40ba 0b91 f5b9 b7ee 983b
000003f0: d024 7cbc eed2 d0ba 6074 b4bb 391d cf3b
0.0253918 -0.023159055 0.036650185 0.086820185 0.057730224 0.0322485 -0.008663929 0.014686917
0.014851993 -0.018196953 0.0030296382 -0.010572974 0.012837917 0.05395696 0.0010063386 -0.012471184
0.005533012 0.03695278 0.12580995 0.013889469 0.05788676 0.043873474 -0.021615295 0.0114702005
0.041792512 -0.0011984436 0.006202492 0.02410633 0.008853931 -0.019992867 -0.0067195543 0.0010295145
-0.021900443 0.014933708 0.07345341 0.05393795 0.024145877 -0.0022642144 -0.02215947 0.05257194
0.038595755 0.106967494 -0.029144006 -0.0027980972 0.01743486 -0.012308218 0.070330195 -0.004634757
0.018346354 0.1011516 -0.0020044572 0.0029393644 0.02075198 -0.012916723 -0.0016977855 -0.009142237
0.07597033 0.005413864 0.059933286 0.041576426 -0.002774224 0.028010514 -0.023994528 -0.012293835
0.015989015 -0.02452298 -0.033874877 0.01137295 0.02055845 0.002840685 0.003050204 -0.00831587
0.009309044 0.0028282786 -0.0019898845 0.024917662 -0.001966789 -0.0036809796 0.015933113 -0.016985957
0.015342778 -0.020152247 0.0027054793 0.026463619 0.002831458 0.0075872974 -0.012191475 -0.0019836877
-0.031316143 0.028326428 -0.04050088 0.012218403 0.021942025 0.02334404 0.011646208 -0.017410448
0.011637837 -0.035592 0.032576367 -0.00034672313 -0.016640482 0.0066147028 0.009350846 0.01887517
-0.010858273 -0.0034547397 0.024825873 -0.004085949 0.004850125 0.004082668 0.016746422 0.035681214
0.009653404 0.036547344 0.004533813 -0.0022600994 0.014281959 0.006512282 0.004388414 -0.005467463
-0.0018751962 -0.005739461 -0.029038379 -0.044352826 -0.0058005 0.014594264 0.020999314 0.00805392
-0.0051285326 -0.0063460562 -0.0044747344 -0.0010193542 -0.0071589146 0.009597568 -0.003384534 -0.01311364
-0.017812984 -0.01559332 -0.008477072 0.016225288 -0.016534302 -0.008909085 0.005357232 -0.01501364
-0.0026923695 -0.009513618 0.00725357 0.015453411 -0.033530336 0.011060153 -0.019519413 0.012328067
-0.003393805 0.00055670924 0.009571581 -0.003908937 -0.0011671081 -0.012624312 -0.0040691514 0.016802978
0.005465804 0.009596025 0.008095084 -0.0075693163 -0.006455764 -0.010145534 -0.012362048 -0.003995554
-0.0026634978 -0.010310111 -0.0009079632 0.00455544 -0.00071168086 0.009316837 0.011110009 0.0061195223
0.005340809 0.0057162624 -0.007262892 -0.016191946 0.0035715578 0.0034868263 -0.010842064 -0.005456348
0.020608792 0.0025678172 0.00087768293 -0.0019779662 0.0015506691 0.00020529234 -0.0072135334 -0.0022331157
-0.0039353645 -0.0065601137 0.0077554397 0.0060123173 -0.0041981647 0.0026063025 -0.0023801047 -0.015843358
-0.0017774357 -0.0048920196 -0.01924619 -0.0025896188 0.01934725 0.008622931 -0.014340152 0.0042704693
-0.025371885 -0.0026130688 -0.022495316 0.006496518 0.006124561 0.016933704 -0.0023327 0.014354244
0.002256763 -0.014813743 -0.008357929 -0.014783899 0.015057957 -0.0038330227 0.0066937846 -0.014404214
-0.0019329023 0.0066274307 0.0030367628 -0.0042522494 -0.0055667916 -0.009192652 -0.010797187 -0.02013877
-0.00038051824 0.005758672 0.0133588 -0.030212838 -0.009887488 -0.022213964 0.0041997572 0.0024447902
0.0014366297 -0.009266336 0.0035260904 0.013790463 0.0027067726 0.0078312345 0.0031406982 -0.0059004743
-0.0055659777 -0.00073243224 -0.00046838107 0.004667129 -0.015389636 -0.0015932003 -0.005507037 0.0063206223

update_node_embedding_layer.0.update_layer.weight f4 [64, 128]
00000000: 3127 c5bb c2f8 a6ba c86b cfbb bdb2 cbbb
00000010: eee8 d2bb adc3 2abc 7013 313c 1ff5 123c
00000020: 8f59 38ba 1a4e 02bb 8c02 1e3c 8175 423b
00000030: 04e5 2dbc bb14 703a c66a 1dbc 0d5a 9e3c
00000040: 25a6 0cbc 8ea5 c03b 90af 43bc 53cc 433a
00000050: 70f1 89bb fd3f 2cbc 04a4 be3c 8735 30bc
00000060: c8af 263b 8ca2 91bb 39e6 fe39 1946 2cbc
00000070: 638f 8dbb f188 b4b9 f9de f0ba 2625 533c
00000080: f9fc ecb9 a601 73bc 5e0f 413c 2d36 063c
00000090: d0f1 053c 3f02 82bb 7e06 76bc 0bce c0bb
000000a0: 1dd9 3f3c d23d 563c 345e 03bc b74b b73a
000000b0: 62e1 693a 96f0 96bb d98b 09bb 957b 98b9
000000c0: d9ff b9ba 8d14 a6bb 9719 adbb 112b 9cbb
000000d0: b97b 17bc b681 4abc be57 70bc a91e 8139
000000e0: feb5 1ebb 0971 143c 4645 a3bb 2d2d 443c
000000f0: ebc9 283b 8f90 0c3a fc7b f7bb ea4b 11bc
00000100: 73cb 83bb bcac cebb efa8 ed3a ebd8 3bbc
00000110: a265 033c a3c7 15bc cfb4 85bb d44c 9a3b
00000120: ad7a 9fbc c6a6 c43a da07 cd3a 32cf fa3b
00000130: 1ecb bd3c fd24 983a 7c88 2d3c e493 a0bc
00000140: ce41 cbbb e43b 96bb d5d8 d2ba 586f 913c
00000150: bff7 993b c0e8 22bc c224 a93b aad0 a83b
00000160: b054 cbbb 255e a8b9 c0dc 82bc 8d36 8a3c
00000170: 150f e6bb 74c0 01bc 802e a9ba 6546 e1bb
00000180: 4211 ee3b 5085 78bb adf3 d23b 7a57 443b
00000190: 50d8 363a d845 db3a 0ab7 8f3c 818a c1bc
000001a0: 04c0 2c3c 3b6d afbb 1af5 85ba 4ac6 6ebc
000001b0: d9bf 67bc 3149 95bb 9293 0c3c f752 6339
000001c0: 5e9b 963b b240 da3a dd0e 373c 3fe2 8cbb
000001d0: e464 303b f1af b1bb 63d9 b83b e8ce 01bc
000001e0: d8fd 6f3b 5d1a 13bc 97f9 1d3c 041a 32bb
000001f0: 61ab b9bb e31c 93bc 7f14 173c 6eff cf3b
00000200: 798e 143d 4b45 73bd 5c39 733d c2ee d63d
00000210: 0006 953d 7f96 2e3d 71e5 b1bd ba63 243d
00000220: f93a 9f3c 6c4d d6bd 5089 0bbd d3b6 80bc
00000230: f554 513d 9475 103d c7bd 88bc 07d7 d5bc
00000240: 34b9 eabc 6039 503d 15ff dc3d 3e45 13bd
00000250: a053 823d d739 813d 5238 343b 252e febc
00000260: a336 723d e440 e5bb 37d6 80bc 8786 b83c
00000270: 32a8 8cbb c9bf 7abc 9607 9abc 65f0 7fba
00000280: 8c82 afbd b410 133d 1815 643d 1d4d cd3d
00000290: 89bf 83bb 3265 203c 1afb 37bd 420d 253d
000002a0: 172f 1b3d e759 003e 7a67 3cbd 69c2 febb
000002b0: f6c9 4a3d 36fa 36bd 10bb 703d 5a53 c4bd
000002c0: 9cf4 3c3d 8258 fb3d a8f8 3ebd be8c 12bd
000002d0: 44a9 f93c 5b1a a3bc 8532 3bbd b6a8 31bc
000002e0: 32ac df3d f710 e33b aee8 fa3d 15f2 e73c
000002f0: 7a46 8cbb 6f4d 5a3d 1552 34bd d9c0 19bd
00000300: b508 28bc b21e 9c3a 39fb 5c3c 2a1b cd3c
00000310: e4f3 14bc 30d7 20bd c6a8 f73b 5d00 a1bc
00000320: 35c3 9f3c 17cb 87bc 185c 4c3c 6270 babc
00000330: ab6c c6bc aa7b bebb 95d4 0cbc 1c3e edbc
00000340: 6bd1 253c 2251 af3b cd80 3b3c e295 223c
00000350: e237 17bd 8570 72bc d36a 1bbb 8ed8 1e3c
00000360: 2252 9a3a 09f6 ebbc d6c4 593c 29c2 1b3c
00000370: 0ee1 29bd 9d97 48bc d482 5c3b 9ca0 703c
00000380: be18 10bb 9bbf d33b b678 38bb e128 1e3c
00000390: 3f38 733c fcbf 52bb 295f c33b 6f8b 0ebb
000003a0: 1567 6f3c b1d3 0abd 760f ffbc 0ad4 b4bb
000003b0: edbe 933c 7d56 e83c 9804 e5b9 35bb cf3a
000003c0: 85ad cbbb 5c77 19bc 3443 bebb de91 b53b
000003d0: 3b9c 0d3c f9b7 e4bc e02e e73b 5880 6abb
000003e0: 7251 3abd 506a 12bd 1b6c c4bc d45f 56bc
000003f0: 0c4c 263c fd60 e43c 313b 5b3c 63fc f93c
-0.006016635 -0.001273893 -0.006329987 -0.0062163756 -0.006436459 -0.010422629 0.010807857 0.008969574
-0.0007032388 -0.0019882978 0.009644162 0.0029672089 -0.010613684 0.00091583625 -0.009607976 0.019330049
-0.008584534 0.0058791107 -0.011943713 0.00074691063 -0.00420969 -0.010513303 0.023271568 -0.010754949
0.0025434364 -0.004444426 0.00048618185 -0.010514759 -0.0043200715 -0.00034434305 -0.0018376998 0.012887275
-0.00045201907 -0.014831936 0.011783449 0.008191627 0.008175328 -0.003967553 -0.015016196 -0.0058839372
0.011709479 0.013076263 -0.008018065 0.0013984357 0.0008921829 -0.004606317 -0.0020987897 -0.00029083775
-0.0014190628 -0.005068368 -0.0052825916 -0.004765876 -0.009245806 -0.012360027 -0.014669357 0.0002462764
-0.0024217363 0.009060153 -0.0049826233 0.011973661 0.0025755118 0.0005362117 -0.007552622 -0.008868197
-0.004022056 -0.0063072126 0.0018132011 -0.0114652915 0.008019837 -0.009141835 -0.004080392 0.0047088657
-0.019467676 0.0015003316 0.0015642599 0.007654094 0.023168143 0.0011607703 0.010591622 -0.01960177
-0.006202913 -0.0045847762 -0.001608635 0.017753288 0.004698723 -0.009943187 0.0051618526 0.005151828
-0.006205164 -0.000321136 -0.015974402 0.016871715 -0.007020841 -0.00791942 -0.0012907535 -0.0068748468
0.007265241 -0.0037921257 0.00643774 0.0029959367 0.0006974982 0.0016729189 0.017543335 -0.023625614
0.010543827 -0.0053535975 -0.0010220141 -0.014573643 -0.014144861 -0.0045558442 0.008580105 0.00021679314
0.004596158 0.0016651361 0.011172977 -0.0042994316 0.0026915604 -0.005422585 0.005641149 -0.007922865
0.0036619809 -0.008978453 0.009642026 -0.002717615 -0.005666182 -0.01795811 0.009221195 0.0063475883
0.036268685 -0.059392255 0.059380874 0.10494758 0.07276535 0.042623993 -0.086863406 0.04013417
0.0194373 -0.10463986 -0.0340665 -0.015712177 0.051106412 0.03526838 -0.016692055 -0.02610351
-0.028652765 0.050835967 0.107908405 -0.035954706 0.063636065 0.0630986 0.002749939 -0.031027863
0.059134137 -0.006996261 -0.015727146 0.022525085 -0.0042925114 -0.015304514 -0.018802445 -0.00097632996
-0.08569822 0.0359046 0.05568418 0.10024474 -0.0040206355 0.009789752 -0.044917203 0.040295847
0.037886705 0.12534295 -0.04599712 -0.0077746403 0.04950901 -0.044672213 0.058772147 -0.095862105
0.046131715 0.12272741 -0.046623856 -0.035778753 0.03047622 -0.019910028 -0.045702476 -0.0108434465
0.109215155 0.0069295126 0.122514114 0.028313676 -0.0042808624 0.053296503 -0.044023592 -0.03753743
-0.010255982 0.0011911003 0.0134876305 0.025037367 -0.009091351 -0.03926772 0.007557961 -0.019653494
0.019502262 -0.016576333 0.012473129 -0.022758666 -0.024221739 -0.0058130817 -0.008595605 -0.02896028
0.01012073 0.005350248 0.011444283 0.00992343 -0.03691853 -0.014797335 -0.0023714795 0.009695185
0.0011773745 -0.028803842 0.013291558 0.009506741 -0.041474395 -0.012243179 0.0033647316 0.01468673
-0.0021987404 0.00646205 -0.0028148121 0.009653301 0.014844953 -0.0032157889 0.0059622717 -0.002175059
0.014611979 -0.03389329 -0.031135302 -0.005518441 0.018035376 0.028361553 -0.00043681706 0.0015848639
-0.0062157535 -0.009366836 -0.005806351 0.0055410704 0.008643205 -0.027919756 0.0070551485 -0.0035782065
-0.04548783 -0.03574592 -0.02397733 -0.013084371 0.010149967 0.027878279 0.013380812 0.030515855

update_node_embedding_layer.1.message_layer.weight f4 [64, 128]
00000000: 4e4e 8b3c eb31 ac3d 726f 583d dbc7 0abc
00000010: 506d 553c 3e07 0fbb 7c9c 0f3c 95e7 463c
00000020: f381 94bc 9f33 603b faca 31bc 1e79 5d3d
00000030: 6a57 b0bb 2bd3 973c 6071 d13c 0d6d 483c
00000040: abff 873c c846 a9bb 3570 2fbb df90 763d
00000050: af96 7ebb 247e c03c 72eb 693c e82d 0a3d
00000060: 05f4 353c fb59 0dbc ae7f 953c 3172 b1bb
00000070: 9884 a13c 8250 8f3b 2f34 46bc 6346 eabb
00000080: c410 2cbc 4c35 813c 18ac 4e3d c355 503d
00000090: caeb 89bb 8c87 3bbc 1028 e3ba 9b9a 223d
000000a0: 9958 2b3d 7a6c 813d aa55 bd3b bf5e 663d
000000b0: 4290 b43a 306d c73a bb99 fabb 4cd5 ebbb
000000c0: 2f36 4f3d bfdf a53d ccb5 dbbb 4726 e83b
000000d0: 9cf9 763c 4416 1cbb f0b0 533d 8a87 a53b
000000e0: 7a37 633d af68 a53d 6107 cb3b 2711 e7b8
000000f0: 8047 0ebc 3267 55bb b3a5 c83c 7309 43bb
00000100: ca91 103d 6f7e 92bc bbda 023c 45d5 0f3d
00000110: 9372 113d 9e53 18bb 2ed0 e2bc b820 b03c
00000120: 2d72 013d e129 12bc f607 f03c 333d f23c
00000130: 1855 973b 5b91 d8bb 732e f93c dd13 3bbc
00000140: 11e8 c63c 8380 9f3b de57 983a 1023 76bc
00000150: 09e6 6b3b 550e fc3b 0c85 803c 3409 08bb
00000160: 01d1 eebc 8820 e33c d116 d0bc 3a4b d03c
00000170: 918b 733c f711 033d 2c99 a13c 94e6 debc
00000180: 4baf 9cbb bce4 37bc 709a 1d3d f4ab 833a
00000190: 2789 8bbc bd0f 90ba e726 113d 560c 173c
000001a0: 0dee 443c 7366 363c d9f5 473c 491c 3e3c
000001b0: f5f6 86ba 8d61 063d 57b3 933c 8537 113c
000001c0: f241 263d f3d7 323d 1fb0 e63b a2aa 89bc
000001d0: 2d64 113c a9a9 7d3b ff19 adbb 4831 39ba
000001e0: e7b2 1ebc 5066 c73b b5f0 a7bc 6fce 6cbc
000001f0: 271f 5b3d 87d2 8b3c c3ab 073d bab4 ce3c
00000200: 2b27 0c3c a236 65bc 3797 49bc 9d58 873c
00000210: e36a f0bb c55a 24bc b039 85bc 3714 0bb9
00000220: cda4 c3bc 8331 2a3c 952f 5a3b 5226 86bc
00000230: ff00 793a c744 86bb 2002 1fbb 1dda 9ebc
00000240: cac7 bebc 3c8f a03b 8b5a 6bbc 8084 7abc
00000250: e023 bdb9 f650 90bc 38db 923a ffad bcbc
00000260: eacb 873b 18fb 033c 29ee 6cbc c070 a2ba
00000270: c58f 27bc 6892 43bc 90c4 19bc 0f5d 40bb
00000280: 6708 c6ba f4ea 85bb 720d 18bc 63bc 47bc
00000290: 9b09 4dbc 848d 0e3c e98d 5dbb 7803 55bc
000002a0: f152 b3bc 3dec b93b 6ef3 1bbc 6eb7 02bc
000002b0: 1b8f 823c 249b 53bc 4774 32bc 90af 1fbb
000002c0: 0342 0ebd 2784 03bb 6bd3 6abc 19d7 4b3b
000002d0: cc1f f1bb 1adc 82bb 684a 6fbc 2b48 0b3c
000002e0: 3820 b0bc a1b3 0c3c 706d 65bc 4038 e6bb
000002f0: 3dd5 853b 5de8 893b 42ff 92bb fa9d dfbc
00000300: 3c8f 4cbc bb80 673c f392 323c 83f0 1ebc
00000310: 7fde a0bc c979 7a3b d036 11bc d4da 363c
00000320: b52e 08bc 8eb0 29bc 2df8 21bc 2087 84bc
00000330: 9042 27bb 0b9c 793c 1838 80bb aac7 523b
00000340: 83d5 35ba abd6 f3b9 21de debc a706 583c
00000350: 0eec 6abb 144e 023c b941 e03b 1345 6bbc
00000360: b3cc 443c 54af eebb 1621 2abc a049 9e3b
00000370: 22e7 13bb 9972 8ebb 37b6 b63a adc4 d73a
00000380: 1419 923c 3b8b 59bb fb8b 713b 772d cb3b
00000390: eb26 5fbc 6b64 1bbc 16b9 06bd b2eb b0bc
000003a0: 1d0c 14bb ddf5 22bc 6a4f d0b9 93fa 613c
000003b0: cbd4 6b3c 4554 aabc cab0 bfbb 1155 58bc
000003c0: 96b7 41bb b4d8 8dbc 9f43 b73b 1386 66bc
000003d0: 0b6c 92bb 412c 28bc feac b3bc 3d67 78ba
000003e0: ca8a 593c 6a24 63bb e29a a93a ccd3 69bc
000003f0: 2cea 81bc 30e3 0f39 de16 82bc a419 30bb
0.017005112 0.084079586 0.052840658 -0.008470501 0.01302655 -0.0021824385 0.008765336 0.012140174
-0.01812837 0.0034210456 -0.010851616 0.054070584 -0.0053815143 0.01853331 0.025566757 0.012233031
0.016601404 -0.0051659085 -0.0026769761 0.060196754 -0.0038847139 0.023497649 0.014277326 0.033735186
0.011105542 -0.00862741 0.018249359 -0.005415224 0.019716546 0.004373611 -0.0120974025 -0.007149504
-0.010502044 0.015772484 0.05045709 0.05086304 -0.0042090164 -0.011445891 -0.0017330665 0.039698225
0.04183254 0.063195184 0.005778034 0.0562427 0.0013775902 0.0015215036 -0.0076477206 -0.007197058
0.050588783 0.08099317 -0.0067050215 0.007084641 0.01507416 -0.0023816982 0.051682413 0.005051558
0.05547283 0.080766074 0.006195948 -0.00011018133 -0.008684039 -0.003256273 0.024493074 -0.002976027
0.035295285 -0.017882554 0.00798672 0.0351155 0.035509657 -0.00232432 -0.027687158 0.021499977
0.031603027 -0.0089211175 0.029300671 0.029570198 0.0046182983 -0.0066091246 0.030417657 -0.01141831
0.02428058 0.0048676147 0.0011622866 -0.015023008 0.0035995266 0.007692138 0.015688442 -0.0020757439
-0.029152395 0.027725473 -0.025401505 0.025426496 0.014864818 0.031999554 0.019726358 -0.027209558
-0.0047816387 -0.011223968 0.03847736 0.0010045753 -0.017033173 -0.0010991018 0.03543749 0.00921925
0.012019646 0.011132824 0.012204611 0.011603423 -0.0010296988 0.032807875 0.018029852 0.008863335
0.040590234 0.043662976 0.0070400382 -0.016804997 0.008873981 0.0038705862 -0.00528264 -0.00070645334
-0.009686208 0.0060851946 -0.02050052 -0.0144535145 0.053496506 0.01706816 0.03312279 0.025232662
0.00855426 -0.013990076 -0.012304119 0.016521746 -0.0073369606 -0.010031407 -0.01626286 -0.00013263604
-0.023882294 0.010387781 0.0033292521 -0.016375694 0.00094987446 -0.0040975544 -0.0024262741 -0.019391114
-0.023288626 0.0048998874 -0.014364849 -0.0152903795 -0.00036075618 -0.01761673 0.0011204248 -0.023032187
0.0041441815 0.008055471 -0.014461079 -0.0012393221 -0.010227148 -0.011936761 -0.009385243 -0.0029352342
-0.0015108705 -0.0040868465 -0.009280549 -0.012190911 -0.012514497 0.008700732 -0.003380651 -0.013001315
-0.021890135 0.0056739138 -0.009518487 -0.007978303 0.015937379 -0.012915406 -0.0108919805 -0.0024366118
-0.034730922 -0.0020067783 -0.0143326325 0.003110355 -0.007358527 -0.0039935233 -0.014605142 0.008501093
-0.021499738 0.008587749 -0.014003143 -0.0070257485 0.004084258 0.004208608 -0.0044859955 -0.027297009
-0.012485322 0.014129813 0.010899293 -0.009700897 -0.019637344 0.0038219562 -0.008863166 0.011160571
-0.008311917 -0.010357035 -0.00988583 -0.016177714 -0.0025521852 0.015234957 -0.003912937 0.0032162466
-0.0006936418 -0.00046508512 -0.027205529 0.01318518 -0.0035846266 0.007953186 0.0068437723 -0.01435973
0.012011695 -0.0072840843 -0.010383865 0.004830554 -0.0022568186 -0.004347157 0.0013939802 0.0016461812
0.017834224 -0.003319456 0.0036857117 0.006200488 -0.013620119 -0.009484391 -0.032891355 -0.021596763
-0.0022590228 -0.009946314 -0.0003973202 0.013792652 0.0143939955 -0.020792136 -0.0058499323 -0.013203875
-0.0029558889 -0.017315246 0.005592778 -0.014070052 -0.004468446 -0.010264457 -0.021933075 -0.0009475833
0.013277719 -0.0034659156 0.0012939835 -0.014271688 -0.015858732 0.00013722177 -0.015880045 -0.0026870752

update_node_embedding_layer.1.update_layer.weight f4 [64, 128]
00000000: 3ed1 80bb 55b1 833d 8ab8 913d c10c 2abc
00000010: a159 84bc 5290 a53d 7e01 0abc aaca 743c
00000020: 934c 8b3c 9b75 6dbc 79c3 8dbb 52b6 413d
00000030: 839e f83d 1680 4f3c ce68 003d fd1a 7d3c
00000040: f955 023e addf bfbc 82e3 be3a 4f3c e93c
00000050: 4a70 8dbc b65e ee3c db46 ef3c 86f7 f13c
00000060: 078e 27ba c866 3f3c 1aaf 2e3d ef1d 14bc
00000070: 7239 0f3c 33c6 2d3c bb70 0b3a 6bbf 313d
00000080: e7a9 9dbb 3c8c 07bc 8fbe d03c cda2 ae3d
00000090: 03fa 9bbb b9cf 8fbc b162 e4ba fedd 133d
000000a0: 5da1 d33c ea34 1f3d 428b c53a 7a7b 323d
000000b0: aec3 98bc 7c06 92b7 6cc1 8e3b e767 22bc
000000c0: cfb6 1a3d 677a 6e3d dc3d 5ebc 8f82 65bb
000000d0: 6a88 0b3b fe9a e0ba 0e0a 773d a989 2abc
000000e0: df7b f43c cf3b 2c3d 514c 023d faae 99bc
000000f0: ec3c 75bb 04b2 9cbc 30b2 5e3b 94b5 313c
00000100: 2ea4 223e 3b5b 8dbb f844 f93b 36d3 0e3e
00000110: 001f 93bb aaa8 c13a a33f 173e e6ad b03c
00000120: 7949 2e3e f3db 84bb 3e2b b03a 42a7 5b3c
00000130: 309e 9b3c bc51 37bc 40c5 0dbc 9980 9a3b
00000140: 7219 2d3e 5ad9 d1ba 4e02 253e 9961 173e
00000150: 43d8 f43a 6d3c a13d d517 47bb 9856 ad3d
00000160: 950d 20bc 2599 ec3d 42ec db3d a0a6 b7ba
00000170: 6920 2cbc ce2f 92bc 5f3d 103e 7d89 213c
00000180: 3724 063c 1642 e13d ac75 afba 2aa5 35bc
00000190: 9981 103e 82bb dabb 0c39 20bb 9763 1a3e
000001a0: 9589 cc3a 644e 143e 713d 773b d8ab 2b3e
000001b0: cdc7 0abe 9359 023e 25da 03bc ee34 bd3d
000001c0: 4aa0 253b d2dd 6b3b 585e 06be 7d4f f03c
000001d0: 9c81 6fbc 3f75 71ba d41c 96bb 2bac 133c
000001e0: dc89 9fba 4984 e63d db77 94bc 6214 89bb
000001f0: 25ff 03be 4264 2f3e c0f6 223b 8869 443c
00000200: 0160 3abb 1ad5 8b3d 2e1e 1f3d 8c45 0bbd
00000210: 3640 0f3b 9c59 07bc a9ab 4a3c cc1f 313c
00000220: a0fc 03bd 5cad 02bd 7153 00bd 2b1d 5e3d
00000230: 4b1b bfbb 81ad 333d f1a5 153d 5982 d4bc
00000240: 8b99 12bb c472 8abc 2f8c 813c f8be 8b3d
00000250: 901a dcbc 9d59 5a3d db22 803d 5427 8d3d
00000260: 69c1 a4bc b0cb 08bc 1883 503d aafd 17bd
00000270: 6876 91bc f2cb 89bc 196e 31bb 1c68 343b
00000280: 738c 46bd 1736 34bc 362d 823d 623a 0a3d
00000290: e738 203a ec00 51bc 4f18 623c c400 823d
000002a0: 1cd2 9a3d 1d80 7c3d 35f2 73ba de79 4e3d
000002b0: 46a8 13bd a396 3a3c 169c 2cbb 8bf1 8f3b
000002c0: 4719 683d e114 8a3d 9f8e d8bc 015c 99bb
000002d0: 2408 7dbc 5a41 7e3c 29ee 9a3d 5e0e 553c
000002e0: 83af 543d b365 5f3d 4a85 85bc 3dda b93b
000002f0: 19da 1dbd 889d babc 7a01 88bc 4e3b 09bc
00000300: 031e 233c d292 f43a c106 31bc 35a7 473d
00000310: 5c38 67bc a294 c93b 1dde 163d 8f76 5c3c
00000320: 4d8b 733c 9575 083c e492 49bb 0118 26bc
00000330: 032a a738 2d4a 233c a689 e43a 8903 363c
00000340: 9485 003d c5c4 4aba d745 233d a996 033d
00000350: cd1a 4a3c 149b 5e3d e8b6 39bc 26e3 0f3d
00000360: d4d0 a03c 3f20 a53c e6fa 203c 8957 e4bb
00000370: 06f3 80bc 0139 a9bb 5a99 0a3d a150 e9ba
00000380: 034b 633b c43b bd3c 567d aebc 2ba6 fa3b
00000390: 8425 2a3d b523 a63b 5324 bdbb 9e8e 573c
000003a0: 6784 963b e572 033d 2941 303c d48f 363d
000003b0: 39b0 84bd 3e91 d13c a7e7 0d3a 885d 183d
000003c0: e9b8 0fbc b9b3 2cbc 2801 91bd 9991 773c
000003d0: 5e05 acbc d026 54bc 67c4 67bc 4787 0a3c
000003e0: 101d 96bc 0860 c73c e26c 71ba 7045 eb3b
000003f0: 9a55 a0bd 72ba d53c 4052 26bc 255c c639
-0.0039311936 0.06430308 0.07115276 -0.010379017 -0.01615602 0.080841675 -0.008423207 0.014940897
0.017004287 -0.014493371 -0.0043262807 0.047293015 0.12139609 0.012664815 0.03134995 0.015448329
0.12728108 -0.023422087 0.0014563652 0.02847114 -0.017265458 0.029097896 0.029208591 0.029536974
-0.0006391708 0.01168222 0.04264746 -0.00904034 0.008741723 0.010606336 0.00053192273 0.04339544
-0.0048115137 -0.008273181 0.02548149 0.085271455 -0.0047600283 -0.017555105 -0.0017424432 0.03610038
0.02583378 0.038868822 0.0015071409 0.043574788 -0.018647995 -1.7407576e-05 0.004356554 -0.009912468
0.037771996 0.0582222 -0.013564553 -0.0035020446 0.0021291026 -0.0017136035 0.060312323 -0.010408797
0.029844223 0.042049225 0.031811062 -0.018760193 -0.0037420345 -0.019127853 0.003398072 0.010846514
0.15882942 -0.004313854 0.0076070987 0.13947758 -0.0044897795 0.0014774997 0.14770369 0.021567296
0.17020215 -0.0040545403 0.0013440622 0.013406577 0.018996328 -0.011188921 -0.008652985 0.004715037
0.16904238 -0.001601021 0.1611416 0.14783324 0.0018680174 0.078728534 -0.0030379195 0.08463782
-0.009768863 0.115526475 0.10738422 -0.001401145 -0.010505774 -0.01784506 0.14085911 0.00985944
0.008187345 0.10998933 -0.0013386509 -0.011086741 0.14111938 -0.0066751847 -0.0024448065 0.15077053
0.0015604967 0.14483029 0.003772583 0.16764772 -0.1355278 0.12729482 -0.008047615 0.09238611
0.0025272542 0.003599037 -0.13121927 0.029334778 -0.014618304 -0.00092108914 -0.0045810733 0.009013216
-0.0012171823 0.112557 -0.018123558 -0.004183338 -0.12890299 0.17128089 0.0024866313 0.011988051
-0.002843857 0.06827755 0.03884714 -0.034001872 0.002185834 -0.008261111 0.0123700285 0.010810804
-0.032223344 -0.03190361 -0.031329576 0.054227035 -0.005832111 0.043866638 0.036535207 -0.02594106
-0.002236935 -0.016900428 0.015813915 0.06823534 -0.026868135 0.053308118 0.06256648 0.06892267
-0.020111756 -0.008349344 0.05090627 -0.037107147 -0.017756656 -0.016820882 -0.002707368 0.0027527874
-0.048473787 -0.010999224 0.063562796 0.033747084 0.0006111995 -0.012756567 0.013799741 0.06347802
0.075596064 0.061645616 -0.0009305806 0.05040919 -0.03604915 0.011388454 -0.0026338152 0.004392808
0.05666473 0.067422636 -0.026435195 -0.004680157 -0.015443835 0.015518511 0.07564957 0.013003914
0.051925194 0.054540347 -0.016298909 0.005671768 -0.038538072 -0.022780195 -0.016602267 -0.008375956
0.009955886 0.0018659479 -0.010804833 0.048743445 -0.014112558 0.0061517516 0.036832917 0.013456001
0.014864755 0.008328815 -0.003075772 -0.010137559 7.971006e-05 0.009966415 0.0017436042 0.011109241
0.03137739 -0.00077350094 0.039861526 0.032126103 0.012335491 0.054347113 -0.011335112 0.035128735
0.019630827 0.020156978 0.009825444 -0.006968443 -0.015740883 -0.005164266 0.033837654 -0.0017800519
0.0034682162 0.023099788 -0.0213 0.0076492033 0.041539684 0.0050701746 -0.0057721524 0.013156561
0.0045934203 0.032091994 0.010757723 0.04457076 -0.06478924 0.025581952 0.0005413242 0.037198573
-0.008772113 -0.010540896 -0.07080299 0.015110397 -0.020998653 -0.012948707 -0.014145947 0.008455104
-0.018324405 0.024337783 -0.0009209645 0.0071799085 -0.07828827 0.02608988 -0.010151446 0.00037834156
