ER_200spin/eco/network/network5600000.pth (torch, 238273 bytes, 11 tensors)

node_init_embedding_layer.0.weight f4 [64, 7]
0.0074037807 -0.26340058 -0.16125081 0.03613354 0.007003197 -0.016308786 0.06645539 0.00020184339
-0.2055976 -0.024793623 0.12578836 -0.025326347 0.0881208 0.036973722 0.002498694 0.38727537
-0.016524207 -0.081090145 0.0005203652 0.006080677 0.028986951 -0.00970438 0.3859156 0.0191352
-0.03149731 0.002628548 0.0085135875 0.0037141612 -0.006149493 -0.0038983978 -0.009858432 -0.011102081
-0.01081875 -0.0037795096 -0.0152212195 -0.011088987 -0.0035597358 -0.00203433 -0.0026715926 -0.013247419
-0.016443353 -0.0053399424 0.01895482 0.46080795 0.011733883 -0.2369511 0.00011803069 -0.023517853
0.028113723 0.0022740304 -0.2106289 -0.5331963 0.23900566 0.0009511919 0.11652749 0.020830551
0.014263809 -0.32358447 0.0697644 0.18133515 -0.00092619087 0.036062423 0.06116795 0.0137815485
0.41209248 0.043525904 -0.013657548 -0.0012835186 0.018554464 0.012998778 -0.016748155 0.35580367
0.03793283 0.06856713 -0.0024882457 0.016024169 -0.038108952 -0.021780675 0.33228463 -0.2049138
0.09635315 0.00025827833 -0.013465795 -0.24701905 0.022748984 0.45149478 -0.0047636493 -0.17623356
-0.00011113362 0.033833556 0.026044004 0.017076835 -0.2979276 -0.004232233 0.1040297 0.004084125
-0.014684577 0.059585284 0.02160539 -0.29348263 0.0018708514 0.111485116 0.0009803647 -0.0010439311
0.07036769 0.014646121 0.019708542 -0.2050292 0.11217139 -0.013930284 0.016188983 -0.25641224
0.014078178 -0.21888004 -0.061481994 0.1394967 -0.009500942 0.08347187 0.037457064 -0.021821981
0.35503915 0.025452167 0.009289788 -0.009098614 0.028797315 0.010597292 0.03015829 -0.39074
0.005217705 0.13350652 0.009927331 0.007985591 0.08087571 -0.0119213415 0.3089478 0.06638532
0.07270986 -0.007568032 -0.0040290146 0.0102669345 0.011697848 0.45434216 0.046262085 -0.058073144
-0.0010436812 0.024450036 0.0122394785 0.026067311 -0.37079722 0.030791588 0.14450854 0.007304405
0.013547105 0.06976175 -0.0057842117 -0.20464516 0.08755351 0.14893304 -0.021028852 0.07990203
-0.02418546 -0.012383753 -0.19688545 0.15261254 0.055074077 -0.00068481604 0.0006464263 0.08388059
0.008168446 -0.24163425 0.06470938 0.41633537 0.00248337 0.0877016 0.008213227 -0.01578769
0.36802652 0.014740539 0.01053445 0.005102318 0.03258463 -0.040429123 0.011560114 0.46581894
0.04528437 -0.013652408 -0.00045799365 0.045937944 0.023366591 -0.001984467 0.0030851387 0.001095844
-0.009433593 -0.0056003085 -0.0043595186 -0.010299535 0.013902894 0.3933195 0.017787717 -0.059468545
0.0022712694 0.023946669 -0.008382975 0.022235142 -0.38898396 0.008356408 0.122901104 0.003330023
0.03571655 0.046325646 0.012272486 -0.21302287 -0.022241766 -0.19070566 -0.003953107 0.10842895
-0.011141424 -0.007933605 -0.25963446 0.026976144 0.10556341 0.0026959924 -0.018590182 0.022117084
-0.0024586709 0.010573094 -0.0038705096 -0.01777523 -0.0039956234 -0.008044434 -0.0016477507 0.030247698
0.13990258 -0.33664483 0.023386715 0.0042432034 0.015010672 -0.3683145 0.010693587 0.41234306
0.01063362 -0.04240801 0.0014426939 0.042903144 0.015661469 -0.0029958652 0.004468031 -0.011094356
-0.01162292 -0.011126069 -0.0063133347 -0.0016458024 0.013737613 -0.18124786 -0.1170026 0.07178419
00000000: 6a9b f23b 71dc 86be ef1e 25be c300 143d
00000010: 137b e53b 019a 85bc c319 883d eca5 5339
00000020: 2d88 52be ff1b cbbc aace 003e 3379 cfbc
00000030: ae78 b43d c271 173d 21c1 233b f548 c63e
00000040: c65d 87bc 9712 a6bd 1e69 083a 6a40 c73b
00000050: 0b76 ed3c 1fff 1ebc bb96 c53e 6cc1 9c3c
00000060: 5303 01bd b843 2c3b 937c 0b3c 4969 733b
00000070: b081 c9bb 437c 7fbb 4385 21bc 81e5 35bc
00000080: 2041 31bc a6b1 77bb 6c62 79bc 95ae 35bc
00000090: 754a 69bb 6552 05bb e315 2fbb b40b 59bc
000000a0: 36b4 86bc affa aebb 2447 9b3c 05ef eb3e
000000b0: 793f 403c 4fa3 72be 3f87 f738 83a8 c0bc
000000c0: c04e e63c e607 153b 1aaf 57be 8d7f 08bf
000000d0: e6bd 743e 6859 793a f7a5 ee3d d5a4 aa3c
000000e0: c0b2 693c ddac a5be a3e0 8e3d ecaf 393e
000000f0: 9ecb 72ba 31b6 133d 3f8b 7a3d 01cc 613c
00000100: c9fd d23e 3848 323d e9c3 5fbc bd3b a8ba
00000110: 88ff 973c d4f8 543c 6d33 89bc e62b b63e
00000120: 755f 1b3d ec6c 8c3d d611 23bb 1e45 833c
00000130: 2218 1cbd 636d b2bc 3621 aa3e ecd4 51be
00000140: cd54 c53d 8869 8739 a39f 5cbc 90f2 7cbe
00000150: 145c ba3c 532a e73e 6318 9cbb 9276 34be
00000160: 6810 e9b8 0e95 0a3d 3c5a d53c b8e4 8b3c
00000170: f789 98be 8bae 8abb 860d d53d 20d4 853b
00000180: 9497 70bc b30f 743d c9fd b03c 5b43 96be
00000190: 5b37 f53a 4f52 e43d 957f 803a 84d4 88ba
000001a0: ef1c 903d 49f6 6f3c cf73 a13c 2df3 51be
000001b0: 1dba e53d d93b 64bc c29e 843c 7748 83be
000001c0: 29a8 663c 1722 60be 8bd4 7bbd 39d8 0e3e
000001d0: d7a9 1bbc 4df3 aa3d 946c 193d 03c4 b2bc
000001e0: b1c7 b53e 1081 d03c 3234 183c 5a12 15bc
000001f0: 59e8 eb3c 44a0 2d3c 850e f73c 130f c8be
00000200: 48f9 aa3b efb5 083e 3ea6 223c ffd5 023c
00000210: 2aa2 a53d bb51 43bc 682e 9e3e 07f5 873d
00000220: e8e8 943d 41fd f7bb d305 84bb a536 283c
00000230: 55a8 3f3c 899f e83e 507d 3d3d 1bde 6dbd
00000240: 21cc 88ba 714b c83c 1888 483c 1d8b d53c
00000250: 22d9 bdbe a43e fc3c 0cfa 133e ca59 ef3b
00000260: adf4 5d3c 40df 8e3d 7c89 bdbb 808e 51be
00000270: 414f b33d e781 183e b344 acbc ada3 a33d
00000280: 9620 c6bc 3ae5 4abc 579c 49be 7646 1c3e
00000290: 5b95 613d 3a85 33ba ef74 293a 96c9 ab3d
000002a0: f2d4 053c f86e 77be 5a86 843d e929 d53e
000002b0: 09c0 223b e59c b33d c590 063c 3055 81bc
000002c0: f96d bc3e 4d82 713c b098 2c3c 5831 a73b
000002d0: 7677 053d 0299 25bd a266 3d3c d27f ee3e
000002e0: 1b7c 393d 59ae 5fbc de1e f0b9 6d29 3c3d
000002f0: 4b6b bf3c d50d 02bb 0a30 4a3b 6ca2 8f3a
00000300: 5b8f 1abc cb82 b7bb 4bda 8ebb 61bf 28bc
00000310: f7c8 633c 2c61 c93e 8cb7 913c 4a95 73bd
00000320: 94d9 143b ce2b c43c bf58 09bc 7926 b63c
00000330: e828 c7be 51e9 083c 93b3 fb3d 843c 5a3b
00000340: 844b 123d f6bf 3d3d 8a12 493c ab22 5abe
00000350: 5d34 b6bc 5848 43be 1189 81bb ff0f de3d
00000360: 858a 36bc f4fb 01bc cfee 84be 13fd dc3c
00000370: a131 d83d 3faf 303b 704a 98bc e32e b53c
00000380: a721 21bb c53a 2d3c 60a8 7dbb 5c9d 91bc
00000390: b8ed 82bb cdcc 03bc 57f9 d7ba 05ca f73c
000003a0: 9f42 0f3e b65c acbe 7f95 bf3c 920a 8b3b
000003b0: 52ef 753c b893 bcbe 2834 2f3c a11e d33e
000003c0: a338 2e3c 06b4 2dbd c618 bd3a 35bb 2f3d
000003d0: 7b4c 803c 4756 44bb 9068 923b 1ac5 35bc
000003e0: 0f6e 3ebc 1e4a 36bc 17e0 cebb f7b7 d7ba
000003f0: ba13 613c 0a99 39be 0f9f efbd 9703 933d

edge_embedding_layer.edge_embedding_NN.weight f4 [63, 8]
0.03563616 0.030405944 0.28635773 -0.048871912 0.0030663542 -0.04688074 -0.01429861 -0.068888865
-0.009922469 -0.010774974 -0.004315335 -0.0022903706 0.008953054 -0.02221353 -0.015251183 0.008083992
0.03226839 0.021680964 0.26081625 -0.054464985 0.00012197829 -0.03482293 -0.008193441 -0.04888038
0.052165713 0.042770702 0.259859 -0.13427468 -0.020837076 0.0020701839 0.0424143 -0.07535389
-0.015035438 -0.0067404066 0.0153879905 -0.014715848 -0.00982584 -0.0015218513 -0.0013866938 -0.0020847525
-0.010408337 -0.00058907137 0.002471643 -0.004193349 0.0027986444 -0.013592724 0.011577544 0.002690091
-0.007231751 -0.028445939 -0.15857579 0.12983662 0.06874934 -0.00381984 -0.099422 0.070798464
-0.005384071 0.009637291 -0.19887495 0.16256084 0.08761457 0.011467288 -0.0011422074 0.124566585
-0.00591806 -0.1507011 -0.20056315 0.10053631 0.097045034 -0.0060844985 -0.0022441887 0.072564006
-0.0039622467 -0.049917202 -0.17578942 0.12598577 0.041944347 0.009068741 -0.08763509 0.10283578
-0.012398115 0.011255239 -0.17973498 0.14218447 0.090190284 0.004355235 0.0035894345 0.108365916
-0.0005169977 -0.0011437915 -0.0015800482 -0.011648395 -0.008384922 -0.019005835 -0.021238621 -0.0031330034
-0.0115503045 -0.0064551826 -0.01882897 0.00876871 -0.0028598043 -0.013159215 0.0014765648 -0.0031624073
0.05752547 0.022955228 0.24580422 -0.11750034 -0.014825177 -0.0010226811 0.043708455 -0.12023102
-0.014135498 -0.0216548 -0.1680791 0.111719064 0.055749774 0.0117785875 -0.31138083 0.08811604
0.066886224 0.048737336 0.24643566 -0.13789879 -0.043055773 0.0026304666 0.050522152 -0.09122959
-0.012119414 -0.010838518 -0.16830873 0.14090511 0.09424375 0.002184556 0.0102577545 0.083698444
0.04492656 0.010779827 0.2768022 -0.080894955 0.04165075 -0.002084207 0.019235652 -0.06670104
0.057911538 0.0064192372 0.24546729 -0.10993454 0.0010202584 -0.0002867283 0.032539785 -0.12276144
-0.0053751357 -0.014434041 -0.1428285 0.119186945 0.104653664 -0.00074039795 -0.055681977 0.0925637
-0.0014439179 -0.00978569 0.0023963705 0.0012964379 -0.0012544036 -0.0001595673 -0.007059626 -0.009169412
-0.008517093 -0.0066476953 -0.16941647 0.12631173 0.11395558 -0.0069254534 0.0030492486 0.09613068
0.05278221 0.051837314 0.26132533 -0.150028 -0.0038440952 7.382547e-06 0.048943583 -0.065186106
-0.0014835857 -0.0010873167 0.0004004063 0.0019544451 -0.017845793 -0.0053972867 -0.0027487199 -0.0038520296
0.06931661 0.036474124 0.25935477 -0.17150618 -0.05406856 0.0029821803 0.03296602 -0.090808176
0.036663476 0.0031361629 0.31633112 -0.2604285 -0.004235928 0.012882208 0.017618475 -0.24219646
-0.021064878 -0.015789445 -0.16132294 0.13164626 0.046855807 0.007640567 -0.30593303 0.08998718
0.061594144 0.022465618 0.25096422 -0.13486157 0.049610276 0.00091785146 0.03272863 -0.08585109
-0.014819773 -0.014826146 -0.01661776 -0.015271877 -0.007614104 -0.012074424 -0.012945181 -0.010523627
-0.0034953367 -0.035657432 -0.1441912 0.14295423 0.08142562 0.004734465 -0.18234923 0.092116065
0.04566862 0.049864434 0.25020322 -0.15122442 -0.018223345 -0.00042009415 0.04824355 -0.05269755
0.036006574 -0.0059877117 0.353527 -0.22921057 0.004993145 -0.0019643393 0.014388342 -0.243194
00000000: 39f7 113d e315 f93c 7b9d 923e ea2d 48bd
00000010: e3f4 483b 0506 40bd b844 6abc 9b15 8dbd
00000020: da91 22bc 8489 30bc a767 8dbb 0b1a 16bb
00000030: d5af 123c 26f9 b5bc 19e0 79bc b872 043c
00000040: dc2b 043d 479c b13c b589 853e ad16 5fbd
00000050: 99ce ff38 7da2 0ebd c83d 06bc cb36 48bd
00000060: b7ab 553d 5530 2f3d 3d0c 853e 4d7f 09be
00000070: 84b2 aabc ecab 073b 9eba 2d3d 2453 9abd
00000080: 3357 76bc a1de dcbb e91d 7c3c bd1a 71bc
00000090: 8ffc 20bc db78 c7ba b9c1 b5ba 58a0 08bb
000000a0: bb87 2abc e96b 1aba 4afb 213b 5c68 89bb
000000b0: 7669 373b 04b4 5ebc bdaf 3d3c 3d4c 303b
000000c0: 53f8 ecbb 7507 e9bc b161 22be e4f3 043e
000000d0: 74cc 8c3d 4856 7abb c39d cbbd c9fe 903d
000000e0: dc6c b0bb bae5 1d3c e0a5 4bbe 5976 263e
000000f0: 456f b33d 4be1 3b3c 1fb6 95ba c41c ff3d
00000100: 49ec c1bb 6451 1abe 6d60 4dbe fbe5 cd3d
00000110: 8cbf c63d 7960 c7bb 3d13 13bb 709c 943d
00000120: bcd5 81bb fb75 4cbd 2402 34be 6a02 013e
00000130: d6cd 2b3d 0f95 143c 077a b3bd 919b d23d
00000140: 7721 4bbc e567 383c 720c 38be ce98 113e
00000150: afb5 b83d 5cb6 8e3b b83c 6b3b f3ee dd3d
00000160: 2187 07ba 46eb 95ba 9f19 cfba e9d8 3ebc
00000170: e960 09bc 20b2 9bbc 9efc adbc 1353 4dbb
00000180: 7d3d 3dbc ff85 d3bb 363f 9abc a3aa 0f3c
00000190: 8e6b 3bbb c099 57bc 4b89 c13a 6440 4fbb
000001a0: d49f 6b3d 9a0c bc3c 1ab4 7b3e 05a4 f0bd
000001b0: 4de5 72bc 7c0b 86ba a307 333d ae3b f6bd
000001c0: 9398 67bc 6865 b1bc ed1c 2cbe f7cc e43d
000001d0: e059 643d fafa 403c 4f6d 9fbe 2f76 b43d
000001e0: a5fb 883d cda0 473d a159 7c3e 5735 0dbe
000001f0: 405b 30bd e863 2c3b 51f0 4e3d 94d6 babd
00000200: 8290 46bc 0a94 31bc 2059 2cbe 6e49 103e
00000210: de02 c13d c52a 0f3b 2410 283c 176a ab3d
00000220: ea04 383d df9d 303c 05b9 8d3e 41ac a5bd
00000230: fa99 2a3d 3197 08bb 1694 9d3c 8e9a 88bd
00000240: a634 6d3d 7758 d23b c75b 7b3e 5c25 e1bd
00000250: 31ba 853a 0554 96b9 7048 053d 5a6a fbbd
00000260: e821 b0bb c27c 6cbc a241 12be 4918 f43d
00000270: a954 d63d 4417 42ba c912 64bd 0a92 bd3d
00000280: d841 bdba 2954 20bc 6d0c 1d3b 3ded a93a
00000290: cd6a a4ba 8551 27b9 6f54 e7bb 4d3b 16bc
000002a0: 478b 0bbc e9d4 d9bb 837b 2dbe dd57 013e
000002b0: 8b61 e93d eaee e2bb e7d5 473b 29e0 c43d
000002c0: 2932 583d 5d53 543d 6fcc 853e f1a0 19be
000002d0: 37ed 7bbb 99b7 f736 1179 483d 4b80 85bd
000002e0: e074 c2ba 4b84 8eba a0ed d139 2616 003b
000002f0: 5731 92bc b9db b0bb de23 34bb 5572 7cbb
00000300: def5 8d3d e465 153d 26ca 843e 519f 2fbe
00000310: ff76 5dbd af70 433b 6107 073d a3f9 b9bd
00000320: 712c 163d 1588 4d3b 27f6 a13e e256 85be
00000330: 8acd 8abb e60f 533c 9f54 903c 5902 78be
00000340: 4090 acbc de58 81bc d731 25be 47ce 063e
00000350: e0eb 3f3d b95d fa3b 41a3 9cbe 334b b83d
00000360: 244a 7c3d d109 b83c 627e 803e 2719 0abe
00000370: 2534 4b3d f89b 703a 750e 063d b2d2 afbd
00000380: a2ce 72bc 5de9 72bc f821 88bc e536 7abc
00000390: bc7f f9bb ced3 45bc 0618 54bc 4a6b 2cbc
000003a0: 0512 65bb 870d 12bd dca6 13be 9862 123e
000003b0: 7ac2 a63d 9223 9b3b c2b9 3abe 59a7 bc3d
000003c0: 050f 3b3d a63e 4c3d a31a 803e 93da 1abe
000003d0: 2049 95bc 1540 dcb9 079b 453d 63d9 57bd
000003e0: a17b 133d 9134 c4bb 7e01 b53e 2db6 6abe
000003f0: 899d a33b 25bc 00bb 15bd 6b3c d907 79be

edge_embedding_layer.edge_feature_NN.weight f4 [64, 64]
0.058204975 0.006673097 0.05188928 0.058167517 0.009925359 0.00821526 -0.031632856 -0.06442345
-0.04128667 -0.034509353 -0.04474204 0.0012318065 -0.005665803 0.073954955 -0.05247961 0.06030579
-0.035494052 0.03132614 0.036554497 -0.0058884914 0.000109577515 -0.03670061 0.04160089 0.002587881
0.043090492 0.13918693 -0.07337506 0.046963025 -0.0021766124 -0.06274582 0.04394076 0.12787838
-0.048846636 -0.04190319 0.07420397 -0.005091938 0.043834697 -0.04304702 -0.05227539 0.05998853
-0.04121665 0.06531692 0.020430347 0.06985253 0.0033941509 -0.02820981 -0.034620084 -0.002245156
0.0020962334 -0.05050243 0.017370982 -0.010358377 0.025010968 0.012979024 -0.04375085 0.032258365
0.07327898 0.12859015 0.0092882775 0.018932724 0.06059132 0.08281014 0.038361285 0.05397437
-0.010757435 -0.008134392 0.0015555887 0.008225931 0.0019207367 0.002163062 0.0075713447 0.010955193
-0.007368058 -0.005978553 -0.010080744 0.00053097215 0.013778844 0.0062424517 0.0048695924 -0.01393854
0.0013769649 0.007712967 0.008076533 -0.0019343841 -0.0091824075 -0.00903409 -0.0045856712 -0.024723053
0.007579587 0.012624277 -0.006040848 -0.0028761444 0.012500013 -0.019392459 0.0058501856 0.004633419
-5.6490684e-05 -0.015611438 -0.010616232 -0.0030209445 -0.022822924 0.004618022 -0.0052528144 0.009122809
0.0024093385 0.012726235 0.0060889255 0.004977669 -0.0024838957 -0.01235016 -0.00058075506 0.016682966
0.013421233 0.0007373087 0.0055199787 0.0034704753 -0.02354301 -0.012233246 0.004081472 -0.018016197
-0.008616842 -0.006729163 -0.005336937 0.00050229934 0.005154698 -0.0027368923 0.008991973 -0.028154938
0.015304025 -0.0063518262 0.029157432 -0.0048094047 -0.011611266 -0.004056425 0.039412234 0.016092695
0.04937582 0.010880215 0.0126718 0.0021992014 -0.0019165259 -0.04969594 0.0063313767 -0.026735343
0.0006783616 -0.04807651 -0.04701443 0.018923286 -0.02420997 0.016952502 -0.021335918 0.0041167918
-0.026487928 -0.09166475 0.023289353 -0.08532011 -0.007525111 0.016794847 -0.014606413 -0.1496118
0.032387264 0.03202108 0.0048204944 0.03987705 -0.0139205875 0.028397001 0.016356548 -0.036017977
0.0424468 -0.041897975 -0.03298666 -0.024749832 -0.0030575085 0.04346648 0.0538815 0.011249505
-0.013233761 0.025784578 -0.0001349812 0.011113654 -0.0154876225 0.0015670959 0.038999107 -0.06998086
-0.07349028 -0.1578148 0.0048289425 0.009405347 -0.01214833 -0.018432306 -0.025648212 -8.488094e-05
-0.01394048 -0.006870072 -0.009293741 0.008531291 0.0033435759 -0.008219612 -0.009937564 1.8024335e-06
0.0065187598 -0.0015708433 0.008476569 -0.007357938 -0.0046117115 0.002252608 -0.008796808 -0.0023317866
-0.017442891 0.0060973703 -0.015798636 -0.0050842944 0.0041428367 -0.004616083 -6.412105e-05 -0.0023929016
0.002517064 -0.010286944 -0.0030664708 0.007888776 0.01083421 -0.0011445023 -0.0026926599 -0.0010076426
-0.016303077 0.007156581 0.0010438258 0.00019029636 0.00089925295 -0.0055984505 -0.0056308643 0.0001323514
-0.0054644374 -0.00420371 0.00012495325 -0.00021016278 0.017536044 0.01697999 -0.01351005 0.0057136067
-0.00062793127 -0.00031389037 0.0030395736 -0.013317074 -0.00057330204 0.0054728673 -0.0015698014 -0.0076897168
0.013171347 -0.013533647 -0.00035957596 -0.00062156183 -0.0020496896 -0.0086621335 0.006484415 -0.0048349635
00000000: 5768 6e3d ffa9 da3b db89 543d 1041 6e3d
00000010: f99d 223c 4c99 063c 7491 01bd 71f0 83bd
00000020: 361c 29bd ae59 0dbd 6e43 37bd 9174 a13a
00000030: 33a8 b9bb b275 973d dcf4 56bd 3403 773d
00000040: 3662 11bd d74f 003d 2bba 153d 3ff4 c0bb
00000050: fbcc e538 6153 16bd b265 2a3d 7099 293b
00000060: a87f 303d 0587 0e3e aa45 96bd 4d5c 403d
00000070: 7fa5 0ebb e180 80bd 3afb 333d 8df2 023e
00000080: 6913 48bd aea2 2bbd 40f8 973d 46da a6bb
00000090: 038c 333d 1252 30bd b81e 56bd 88b6 753d
000000a0: cad2 28bd e1c4 853d 8b5d a73c d80e 8f3d
000000b0: 6770 5e3b 4218 e7bc cacd 0dbd 7823 13bb
000000c0: f660 093b a3db 4ebd 974d 8e3c 2fb6 29bc
000000d0: cde3 cc3c f9a5 543c 1734 33bd 5921 043d
000000e0: 4a13 963d 23ad 033e dc2d 183c cd18 9b3c
000000f0: 9b2e 783d 5d98 a93d b920 1d3d 3b14 5d3d
00000100: f43f 30bc 1d46 05bc e5e4 cb3a 0ec6 063c
00000110: 3bc1 fb3a 29c2 0d3b 0b19 f83b 697d 333c
00000120: c06f f1bb bde7 c3bb b429 25bc f030 0b3a
00000130: a9c0 613c 7b8d cc3b 1a91 9f3b 795e 64bc
00000140: 467b b43a 0fbd fc3b 6f53 043c 298b fdba
00000150: cf71 16bc b803 14bc 6643 96bb 0088 cabc
00000160: 2f5e f83b 0ed6 4e3c 4ef2 c5bb b27d 3cbb
00000170: dbcc 4c3c efdc 9ebc eab2 bf3b f0d3 973b
00000180: 69f0 6cb8 1ec7 7fbc b4ef 2dbc 0afb 45bb
00000190: 24f7 babc c752 973b cd1f acbb d677 153c
000001a0: fee5 1d3b b381 503c 9c85 c73b b71b a33b
000001b0: dbc8 22bb 5358 4abc d03d 18ba b7aa 883c
000001c0: bbe4 5b3c f347 413a f0e0 b43b ea70 633b
000001d0: 45dd c0bc f46d 48bc debd 853b b496 93bc
000001e0: a82d 0dbc 5080 dcbb 79e1 aebb bdac 033a
000001f0: bee8 a83b 6f5d 33bb 1153 133c 2fa5 e6bc
00000200: bcbd 7a3c fb22 d0bb 91db ee3c 3698 9dbb
00000210: 2e3d 3ebc c2eb 84bb b96e 213d d4d4 833c
00000220: 4d3e 4a3d ee42 323c 629d 4f3c 7a20 103b
00000230: f033 fbba f88d 4bbd 7077 cf3b 1404 dbbc
00000240: 14d4 313a e0eb 44bd 3492 40bd 0205 9b3c
00000250: fd53 c6bc f9df 8a3c aac8 aebc 27e6 863b
00000260: 36fd d8bc baba bbbd 50c9 be3c 4fbc aebd
00000270: 3595 f6bb 5995 893c bd4f 6fbc d633 19be
00000280: 82a8 043d 8928 033d 3df5 9d3b 1e56 233d
00000290: 2d13 64bc d4a0 e83c 2bfe 853c 9687 13bd
000002a0: b2dc 2d3d 369d 2bbd 051d 07bd 29c0 cabc
000002b0: 7b60 48bb e809 323d d9b2 5c3d d84f 383c
000002c0: 6bd2 58bc 2e3a d33c bd89 0db9 0b16 363c
000002d0: ccbf 7dbc 0367 cd3a 87bd 1f3d 2052 8fbd
000002e0: 1282 96bd 349a 21be 1b3c 9e3b e218 1a3c
000002f0: ca09 47bc 59ff 96bc 331c d2bc 1c02 b2b8
00000300: 9c66 64bc 571e e1bb c644 18bc d4c6 0b3c
00000310: e51f 5b3b 8dab 06bc 2ad1 22bc 25eb f135
00000320: 529b d53b c1e4 cdba 4fe1 0a3c dc1a f1bb
00000330: d71d 97bb 7ea0 133b 7d20 10bc e3d0 18bb
00000340: 65e4 8ebc 73cc c73b 246c 81bc 279a a6bb
00000350: a2c0 873b 8342 97bb ba78 86b8 3ad2 1cbb
00000360: 54f5 243b 928a 28bc d8f6 48bb ed3f 013c
00000370: f881 313c 2003 96ba 5677 30bb e012 84ba
00000380: 088e 85bc c181 ea3b fbd0 883a 4a8a 4739
00000390: d8bb 6b3a 3573 b7bb 1d83 b8bb cfc7 0a39
000003a0: 060f b3bb 46bf 89bb e205 0339 245f 5cb9
000003b0: c0a7 8f3c 9f19 8b3c 4259 5dbc 3539 bb3b
000003c0: c19b 24ba a791 a4b9 9533 473b db2f 5abc
000003d0: a649 16ba bd55 b33b cbc1 cdba 05fa fbbb
000003e0: a2cc 573c 3bbc 5dbc 7885 bcb9 4ff0 22ba
000003f0: 1654 06bb 9feb 0dbc 377b d43b 9d6e 9ebb

update_node_embedding_layer.0.message_layer.weight f4 [64, 128]
-0.01905954 0.0017508717 -0.014100832 -0.0042199288 -0.01788335 0.011372718 0.0077258577 0.0035789865
-0.008473589 -0.01911039 0.006354835 -0.020759711 -0.01670325 -0.0136195 0.002462361 -0.00094893266
-0.016457139 -0.0037167815 -0.0034718614 0.0051748753 -0.011750276 -0.025309846 -0.01164465 -0.011679254
0.017203681 0.009298491 -0.0068172463 -0.0040685274 -0.0060328953 -0.018918933 -0.008613824 0.011569415
-0.0018858399 0.008300575 0.0037456087 -0.004941903 -0.006633034 -0.0047782674 -0.019085824 -0.01260429
-0.005458042 0.004858546 -0.019572876 -0.015355278 0.0037105014 0.009642839 -0.011878921 -8.878531e-06
-0.009967546 0.009484177 -0.0045439037 -0.0053820675 -0.00019148103 0.0039594295 -0.022092896 0.010589635
-0.0072598616 -0.0099803945 -0.01242449 -0.0052968445 -0.00080498826 0.018477242 0.007948845 -0.0023803648
-0.006287746 -0.00242993 0.010485091 -0.012352881 -0.0010562774 -0.00066107354 -0.01425166 0.00453384
-0.008876933 -0.001967021 -0.008760678 0.013726681 -0.0066438313 0.0043544867 0.0017414953 0.020401204
-0.0043127085 0.0005067762 -0.0012610718 -0.005253296 -0.006616436 0.0008098367 -0.008505274 0.01379626
0.0029131 0.0011571661 0.0009564925 0.013593712 -0.016088534 -0.013935954 -0.0058008023 0.020228371
0.011279487 -0.018540718 0.013831565 -0.0013197443 6.0506612e-05 -0.002124555 -0.009243079 0.024446335
0.0023832296 -0.0027400209 0.003726408 0.0046185562 -0.011794901 -0.023753867 0.0072285063 -0.005699761
-0.009879807 0.01480613 -0.006727138 0.00834494 0.0018100572 0.0017527142 0.0067477897 -0.011304717
0.00450596 0.008198818 -0.007812804 -0.013443079 -0.002821174 0.0016093793 0.003997636 -0.0036062058
-0.004398653 -0.0050207903 -0.014100106 0.007559885 -0.0047206795 0.015075879 0.0013082123 -0.017767612
0.006505686 0.018996852 0.0073145726 -0.00059073156 0.007915962 -0.0019488711 0.0031181623 0.010340788
-0.025991257 0.010314079 -3.5199882e-05 0.010733576 0.007066306 0.007169284 0.011566122 -0.0066641066
-0.0026352177 -0.010570919 0.0113904765 0.011128925 0.00799237 -0.015781172 0.011684458 -0.006680811
-0.00092215446 0.0009228441 -0.0039627072 0.0033308987 -0.0109564215 0.0015447288 0.014527968 -0.008389782
0.00023099052 0.0038271933 0.00826655 -0.01478909 -0.0037292147 -0.0017629995 0.016308183 -5.2726282e-05
-0.0051337387 -0.001262561 0.01725479 -0.008584045 0.010912622 -0.013003458 0.014861191 0.0008342158
-0.002466547 -0.01365463 0.013553647 -0.016854456 0.0023401384 0.0043863677 -0.0012199093 0.0023052553
0.0024982695 -0.00050685543 -0.013627653 -0.007319206 -0.006002241 0.009282108 0.0020423108 -0.002685194
-0.00088064023 0.0020571456 0.0002455382 -0.012790203 0.013412874 0.0037420408 -0.0049870163 -0.004870135
-0.018326238 0.009548369 -0.010924446 -0.0039042672 0.00076708436 0.01216433 0.0007173438 -0.013625137
-0.0021517342 -0.00028872216 -0.0020961897 -0.0090017365 0.009607537 0.0036266444 -0.0056013917 -0.000845954
-0.0017170947 -0.0066306675 -0.0084828185 -0.000115217714 -0.002622033 -0.002339695 -0.008011554 -0.017277014
0.0034263998 -0.013930259 0.004697749 -0.013996529 -0.0075030434 0.0021223337 -0.018486539 -0.011501698
0.005498895 0.0028039834 -0.0003860734 0.014944711 0.0069868807 0.012586262 0.013463961 -0.019465156
-0.0027621412 0.00316342 -0.012974135 0.010560917 -0.0077802017 0.0026403463 0.016893331 -0.005671336
00000000: c122 9cbc 817d e53a 2d07 67bc 5447 8abb
00000010: 1a80 92bc a354 3a3c 3129 fd3b 6e8d 6a3b
00000020: cfd4 0abc 658d 9cbc 383c d03b 4510 aabc
00000030: 41d5 88bc 5324 5fbc 905f 213b cbc1 78ba
00000040: 1fd1 86bc 3f95 73bb 2b88 63bb 0092 a93b
00000050: 3b84 40bc 9856 cfbc 34c9 3ebc 575a 3fbc
00000060: bcee 8c3c b358 183c 3563 dfbb 4851 85bb
00000070: 98af c5bb e1fb 9abc ff20 0dbc a58d 3d3c
00000080: 492e f7ba 23ff 073c e378 753b b0ef a1bb
00000090: ec59 d9bb 0393 9cbb e059 9cbc 3982 4ebc
000000a0: 60d9 b2bb 7034 9f3b 4c57 a0bc b494 7bbc
000000b0: e22b 733b 00fd 1d3c ce9f 42bc 00f5 14b7
000000c0: eb4e 23bc 8663 1b3c 07e5 94bb 0e5c b0bb
000000d0: 4cc8 48b9 1abe 813b 29fc b4bc 2680 2d3c
000000e0: 22e4 edbb cf84 23bc 1790 4bbc 2791 adbb
000000f0: d905 53ba 965d 973c df3b 023c e5ff 1bbb
00000100: 7009 cebb 763f 1fbb a9c9 2b3c bd63 4abc
00000110: ca72 8aba e54b 2dba cb7f 69bc 9b90 943b
00000120: 8e70 11bc 23e9 00bb f288 0fbc dfe5 603c
00000130: 7fb4 d9bb 15b0 8e3b e342 e43a 6d20 a73c
00000140: 9f51 8dbb 2dd9 043a 8c4a a5ba d723 acbb
00000150: b0ce d8bb 394b 543a b459 0bbc b509 623c
00000160: b5e9 3e3b 0dac 973a 20bd 7a3a 29b8 5e3c
00000170: 1acc 83bc a153 64bc a814 bebb f8b5 a53c
00000180: 99cd 383c b4e2 97bc ca9d 623c 45fb acba
00000190: 7bc8 7d38 1e3c 0bbb 4970 17bc ae43 c83c
000001a0: f52f 1c3b ec91 33bb c036 743b 4257 973b
000001b0: 673f 41bc 7897 c2bc 1bdd ec3b 10c5 babb
000001c0: eade 21bc 6995 723c 536f dcbb 37b9 083c
000001d0: 713f ed3a 54bb e53a 901c dd3b 6b37 39bc
000001e0: bba6 933b 5654 063c 4601 00bc 5c40 5cbc
000001f0: 72e3 38bb cff1 d23a 9afe 823b 1856 6cbb
00000200: 9322 90bb 7185 a4bb 2204 67bc e9b8 f73b
00000210: eeaf 9abb d200 773c 5278 ab3a 628d 91bc
00000220: a62d d53b 499f 9b3c 15af ef3b 53db 1aba
00000230: f3b1 013c 4371 ffba 155a 4c3b 696c 293c
00000240: 9eeb d4bc 62fc 283c 96a3 13b8 e1db 2f3c
00000250: 798c e73b 50ec ea3b d57f 3d3c 945e dabb
00000260: 9eb3 2cbb a631 2dbc 1f9f 3a3c 1856 363c
00000270: 6ef2 023c 8447 81bc 2b70 3f3c b4ea dabb
00000280: bdbc 71ba 05eb 713a 99d9 81bb 354b 5a3b
00000290: 9082 33bc 7f78 ca3a b706 6e3c 4c75 09bc
000002a0: 0c36 7239 a6d1 7a3b 6c70 073c f04d 72bc
000002b0: d765 74bb 7214 e7ba bd98 853c 6a26 5db8
000002c0: ec38 a8bb 847c a5ba eb59 8d3c 18a4 0cbc
000002d0: dbca 323c 750c 55bc 5a7c 733c 46af 5a3a
000002e0: cba5 21bb abb7 5fbc 1e10 5e3c 5b12 8abc
000002f0: 025d 193b 85bb 8f3b 5de5 9fba c413 173b
00000300: 02ba 233b 7ede 04ba 8546 5fbc f3d5 efbb
00000310: 72ae c4bb fc13 183c 4ad8 053b 14fa 2fbb
00000320: c4da 66ba 2dd1 063b 94bb 8039 008e 51bc
00000330: acc1 5b3c 073d 753b 206a a3bb a795 9fbb
00000340: e820 96bc c370 1c3c 73fc 32bc bcde 7fbb
00000350: 2916 493a e64c 473c 210c 3c3a f73b 5fbc
00000360: 1c04 0dbb a25f 97b9 3a60 09bb 057c 13bc
00000370: ee68 1d3c ffac 6d3b e18b b7bb 03c3 5dba
00000380: 2310 e1ba 1246 d9bb 85fb 0abc 0aa1 f1b8
00000390: 6ad6 2bbb 9255 19bb e542 03bc 8688 8dbc
000003a0: 738d 603b be3b 64bc 93ef 993b b351 65bc
000003b0: 17dc f5bb da16 0b3b 1571 97bc 9e71 3cbc
000003c0: 1330 b43b 09c3 373b e569 cab9 a9da 743c
000003d0: 34f2 e43b 9c36 4e3c f297 5c3c 6475 9fbc
000003e0: 0a05 35bb 6151 4f3b 7791 54bc b207 2d3c
000003f0: 10f1 febb a909 2d3b e263 8a3c 9dd6 b9bb

update_node_embedding_layer.0.update_layer.weight f4 [64, 128]
0.0075080204 0.006818568 0.00086573075 -0.0051614977 0.0074384604 -0.01197225 -0.0056603015 -0.0015514987
0.0064184624 0.014434471 -0.0115956105 -0.0016655108 -0.020167302 -0.0006803575 -0.0021515186 -0.008102021
0.011949905 0.00038921964 -0.014170383 -0.0031973685 -0.0007729982 -0.009902928 -0.009593759 -0.004346585
-0.010339375 -0.0006574912 -0.012139008 -0.00067160174 0.0018544924 -0.0104301 0.010315007 -0.006150094
-0.020259636 -0.03361236 -0.008920801 0.006280489 0.012812566 0.00013216586 -0.008188388 0.017193135
0.010342431 -0.004385086 5.8531157e-05 -0.008898407 -0.007366527 0.014102951 -0.02433011 0.004748258
-0.014614876 0.0044798455 -0.0044345385 -0.008897678 -0.010819396 -0.007272465 -0.004566628 0.00013889273
-0.0017554512 -0.013033147 0.0050906357 -0.0067906072 -0.0019524642 -0.0076531214 0.019640753 0.00022439491
0.012451123 0.0039288118 0.008936819 0.003329992 -0.004263867 -0.004954748 0.0128591955 -0.0035331524
-0.0065020304 0.0069869813 0.0072394502 -0.0007420336 0.015847115 0.0014427209 -0.0066868877 0.003538578
0.016941896 -0.010268385 0.007019186 0.0012135583 0.0097796 -0.011017456 -0.008850054 0.0023699538
-0.009690811 -0.0121657625 0.020972423 0.014879573 0.0010716581 0.016705437 -0.002803989 -0.0039202645
0.0032333722 0.012256114 0.0012219709 -0.010433165 -0.015642965 -0.0052807154 -0.011458136 -0.005202763
-0.012459776 0.015344294 -0.0153360125 -0.01037547 -0.0015224892 -0.027193615 -0.01886527 -0.006369767
-0.0037906629 0.002707132 -0.0056048012 -0.009161804 -0.010054879 -0.01190291 -0.010014197 0.004225571
-0.0022067751 0.0054565533 0.02565991 -0.023145216 -0.0069208834 0.0033806015 -0.0025095507 0.015014666
0.055931825 0.017217228 0.002520842 -0.022765476 -0.005307555 -0.005339581 -0.08451909 -0.0037254053
0.03686429 -0.05072705 0.009630699 0.048435364 -0.04733311 0.015821857 0.029394543 -0.07776664
0.0223178 -0.06790451 0.037449956 -0.075203545 -0.037760556 0.033465173 0.006170025 0.02504603
-0.0017534074 -0.048843876 -0.03130915 0.0074918177 -0.026176658 0.023073263 0.073752105 0.01576507
-0.012782433 -0.16590363 -0.039042413 0.016152712 0.039339505 0.076268 0.12456215 -0.061541077
0.019633258 0.0002516775 0.05681686 0.019985974 -0.03423522 -0.005963952 -0.046867177 -0.043059252
-0.061452426 0.039675128 -0.0504772 -0.11567355 0.061537653 0.06094965 0.038499832 -0.0721482
-0.012889661 0.027399918 -0.050743923 0.012430158 -0.07898261 0.03963265 0.049269393 0.006760067
-0.0034161038 0.009572055 0.024387121 0.0011235027 -0.025247125 -0.008275763 0.002773929 -0.010915022
-0.013199482 -0.012917715 -0.022736043 -0.0007174751 -0.017852165 0.012097649 -0.004976779 -0.06940825
-0.02272855 0.004480692 -0.018251318 -0.00013644987 0.008567792 0.0025265166 0.03347503 -0.0074844137
-0.007466649 -0.017548367 0.0035539626 -0.004677894 0.0077950647 -0.007111315 -0.017961306 0.009358162
0.00079758617 -0.0074843774 -0.036130745 -0.06858551 -0.0029304666 0.015286666 0.0015733492 0.044604577
0.008180435 -0.004895662 0.020029409 -0.00047210258 -0.06398959 -0.0023853446 -0.0124093825 0.0009523333
0.0010577276 -0.01811416 -0.02125672 -0.060981937 0.0058485693 -0.03074758 -0.007193068 -0.011656974
0.012566237 -0.0022551431 -0.013485577 0.008001286 -0.007150833 -0.0109705785 -0.030194271 -0.008574107
00000000: d705 f63b 4b6e df3b 35f2 623a c821 a9bb
00000010: 54be f33b 4227 44bc 0d7a b9bb a85b cbba
00000020: f751 d23b 8f7e 6c3c 84fb 3dbc 454d daba
00000030: e635 a5bc 055a 32ba 7e00 0dbb 57be 04bc
00000040: 89c9 433c 2d10 cc39 e52a 68bc f18a 51bb
00000050: 08a3 4aba e43f 22bc 242f 1dbc cc6d 8ebb
00000060: 7b66 29bc 7d5b 2cba b1e2 46bc 6e0e 30ba
00000070: 7012 f33a 03e3 2abc 4600 293c ba86 c9bb
00000080: 89f7 a5bc 1dad 09bd 8d28 12bc 8fcc cd3b
00000090: cceb 513c 0196 0a39 9728 06bc 9ed8 8c3c
000000a0: 4d73 293c c4b0 8fbb 5a7f 7538 a0ca 11bc
000000b0: e862 f1bb 1010 673c f04f c7bc 4697 9b3b
000000c0: 3c73 6fbc abcb 923b 9b4f 91bb 91c7 11bc
000000d0: d643 31bc dc4d eebb a7a3 95bb bca3 1139
000000e0: 2b17 e6ba fb88 55bc 59cf a63b be83 debb
000000f0: d4e9 ffba 09c7 fabb a5e5 a03c 8d4b 6b39
00000100: ccff 4b3c 43bd 803b bc6b 123c ff3b 5a3b
00000110: e9b7 8bbb 705b a2bb 60af 523c 768c 67bb
00000120: fc0e d5bb 0cf3 e43b e938 ed3b 0885 42ba
00000130: cfd1 813c ae19 bd3a ae1d dbbb 7de7 673b
00000140: bbc9 8a3c ba3c 28bc 3301 e63b 4210 9f3a
00000150: 9e3a 203c 8f82 34bc d1ff 10bc 3a51 1b3b
00000160: 35c6 1ebc e852 47bc 5cce ab3c 74c9 733c
00000170: e176 8c3a d7d9 883c 21c3 37bb 9075 80bb
00000180: fce6 533b decd 483c 8a2a a03a deef 2abc
00000190: ad25 80bc da09 adbb e8ba 3bbc f07b aabb
000001a0: 1724 4cbc a266 7b3c e643 7bbc e0fd 29bc
000001b0: 438e c7ba 25c5 debc 578b 9abc 7ab9 d0bb
000001c0: c56c 78bb 236a 313b 7ba8 b7bb 641b 16bc
000001d0: 38bd 24bc 6c04 43bc 9612 24bc a976 8a3b
000001e0: 8b9f 10bb e3cc b23b bb34 d23c 099b bdbc
000001f0: 94c8 e2bb 158d 5d3b 4677 24bb 1300 763c
00000200: c518 653d 250b 8d3c b634 253b aa7e babc
00000210: 00eb adbb a7f7 aebb 5818 adbd ee25 74bb
00000220: 02ff 163d 2bc7 4fbd 14ca 1d3c 2964 463d
00000230: 5de0 41bd d79c 813c d3cc f03c 1e44 9fbd
00000240: d2d3 b63c 8511 8bbd 2065 193d 5104 9abd
00000250: d0aa 1abd c712 093d ec2d ca3b 552d cd3c
00000260: 97d2 e5ba 8410 48bd 063e 00bd ec7d f53b
00000270: 6e70 d6bc 2404 bd3c 580b 973d c025 813c
00000280: 696d 51bc a4e2 29be f0ea 1fbd b152 843c
00000290: 7622 213d 6632 9c3d 711a ff3d 7f12 7cbd
000002a0: edd5 a03c 95f3 8339 ccb8 683d a0b9 a33c
000002b0: 3b3a 0cbd 416d c3bb ccf7 3fbd e65e 30bd
000002c0: 8ab5 7bbd 6382 223d 2ec1 4ebd 41e6 ecbd
000002d0: e80e 7c3d 57a6 793d 00b2 1d3d 6fc2 93bd
000002e0: 282f 53bc cb75 e03c dcd8 4fbd dda7 4b3c
000002f0: a2c1 a1bd d855 223d b4ce 493d 8d83 dd3b
00000300: b6e0 5fbb 1cd4 1c3c 80c7 c73c 7f42 933a
00000310: 0fd3 cebc 1197 07bc ceca 353b ecd4 32bc
00000320: a442 58bc d3a4 53bc f040 babc f014 3cba
00000330: b43e 92bc 3835 463c 4014 a3bb ea25 8ebd
00000340: 3931 babc c5d2 923b ca83 95bc fc13 0fb9
00000350: ed5f 0c3c ea93 253b 1d1d 093d d03f f5bb
00000360: cbaa f4bb 98c1 8fbc 99e9 683b 0549 99bb
00000370: be6d ff3b 0906 e9bb 9723 93bc fa52 193c
00000380: 1a15 513a 823f f5bb d5fd 13bd 8f76 8cbd
00000390: 120d 40bb ed74 7a3c d738 ce3a 4ab3 363d
000003a0: 3b07 063c ca6b a0bb b714 a43c 8984 f7b9
000003b0: f90c 83bd 7153 1cbb b950 4bbc 02a6 793a
000003c0: 73a3 8a3a 2664 94bc 9322 aebc 32c8 79bd
000003d0: 5ba5 bf3b 59e2 fbbc d4b3 ebbb e5fc 3ebc
000003e0: 9ee2 4d3c 06cb 13bb 9cf2 5cbc d317 033c
000003f0: 8951 eabb f1bd 33bc fa59 f7bc 697a 0cbc

update_node_embedding_layer.1.message_layer.weight f4 [64, 128]
-0.0024534129 -0.024052871 0.017602418 0.21575855 -0.0006022945 0.0020043908 -0.021588173 -0.020105248
-0.021530366 -0.017706329 -0.019874303 -0.027080545 -0.04547718 -0.016393933 0.0032737942 0.038397178
0.26027617 -0.010182217 0.24508697 -0.025212487 0.06264032 -0.017892191 -0.026264796 -0.045934163
-0.029142039 0.0033338382 -0.0020081697 -0.029940119 0.014863075 0.04380239 -0.009298002 0.011080561
0.059872974 -0.015994048 -0.010289756 0.08383668 0.004077647 0.07210131 -0.0024278646 0.061696544
-0.020017616 0.23076165 0.29921362 -0.022595081 -0.021859555 -0.01780858 -0.016644267 0.037408322
-0.018321535 0.40675092 -0.022125673 -0.0021748394 -0.0035199868 -0.0050325287 0.2266137 -0.016087359
0.054528695 0.022493154 -0.031966925 -0.022401195 0.008779383 -0.006977583 -0.018758021 0.05213329
0.01579613 -0.00029466863 0.03635186 -0.006336092 -0.017673865 -0.0013606438 -0.014912906 -0.0075514303
0.03937815 0.00816471 0.06096604 0.014391362 -0.00779185 -0.010214592 -0.014329332 0.008502593
0.003069065 0.0088208495 -0.018758232 0.0027940245 -0.005648741 0.024587976 0.020095188 0.016294204
0.017942408 -0.0035079422 -0.0108000375 -0.006141008 -0.017435296 0.034606922 0.017320197 0.010991595
-0.04978995 0.01722815 0.03457254 -0.004313238 -0.0065777884 -0.027645765 -0.010694454 0.010523802
0.0058972053 0.015678948 0.019150255 -0.009780353 0.011602625 -0.0042667333 0.02549691 0.0033952738
0.073509954 0.02059258 0.003541604 -0.0060923174 -0.008978317 -0.002299788 0.03337631 -0.007342533
0.039789822 -0.004828631 0.0023809853 0.017131211 0.005804127 -0.00771763 0.012953245 -0.0072857225
0.00094796147 0.041628417 -0.007868105 -0.103505105 0.039485954 0.005682213 0.025656195 0.042519838
0.056944463 -0.117503725 0.05367793 0.042471062 0.058560297 0.036082372 -0.0046686805 0.010452558
0.091887504 -0.01007959 0.08549114 0.019253934 0.033370093 0.027699511 0.039312232 0.031960078
0.04029585 0.015576052 -0.00016926562 0.03127987 0.0024823896 0.03959041 -0.18407045 0.0025345876
0.006305887 -0.0019140015 0.04722227 0.04613742 0.010390162 0.024816744 0.06725602 0.039338917
0.056654863 0.1500054 0.08760686 -0.00397474 -0.012671656 -0.004817127 0.09633484 0.041671924
0.03521062 0.17404701 0.051211465 -0.016619144 0.032371234 -0.012289571 -0.004898087 -0.10877464
0.030879116 0.021191431 0.0825028 0.057355788 -0.02115381 -0.012869364 0.07676051 0.066171214
-0.009780084 0.00080940395 0.021202138 0.0076632737 -0.050952334 -0.010899122 0.017166154 0.05996449
-0.080943234 -0.10274623 -0.016796794 -0.010728613 0.012181002 0.050655834 0.010743322 -0.011050108
-0.00725767 -0.02874906 -0.011794549 0.007855955 0.004364245 0.050501686 -0.042680316 0.0062404945
-0.12537666 -0.0036801205 -0.1768137 -0.06090604 -0.007417448 -0.0017985933 -0.03579163 -0.025384847
-0.15651684 -0.1125221 0.019153723 0.007858451 0.016520716 -0.012765003 -0.06753268 -0.09114164
-0.06842894 -0.0217171 0.025879811 0.002751888 -0.056833718 0.035576776 -0.0021808357 -0.08448153
-0.008770047 0.029503653 0.01276278 0.017471153 0.015944436 -0.04252222 -0.13808466 0.0025960132
0.039218612 -0.006146415 0.009884542 -0.06961912 -0.09311046 0.006800064 -0.07636317 -0.07727875
00000000: 70c9 20bb 870a c5bc f232 903c cfef 5c3e
00000010: 4de3 1dba 195c 033b aed9 b0bc c3b3 a4bc
00000020: 7360 b0bc dd0c 91bc 6fcf a2bc 05d8 ddbc
00000030: 4846 3abd 924c 86bc 278d 563b 5c46 1d3d
00000040: eb42 853e 50d3 26bc 14f8 7a3e 6b8a cebc
00000050: 9149 803d a592 92bc 4529 d7bc 7625 3cbd
00000060: 49bb eebc 867c 5a3b 7f9b 03bb fb44 f5bc
00000070: 4184 733c 236a 333d a656 18bc 3e8b 353c
00000080: 5d3d 753d f305 83bc 5d96 28bc 91b2 ab3d
00000090: c89d 853b daa9 933d cf1c 1fbb 84b5 7c3d
000000a0: fcfb a3bc c84c 6c3e 8732 993e 5219 b9bc
000000b0: cf12 b3bc 4de3 91bc 8f59 88bc 7839 193d
000000c0: 0b17 96bc a841 d03e e640 b5bc c087 0ebb
000000d0: 94af 66bb e9e7 a4bb 6c0d 683e a3c9 83bc
000000e0: 7b59 5f3d 9043 b83c c0ef 02bd b682 b7bc
000000f0: 67d7 0f3c 35a4 e4bb 6caa 99bc b789 553d
00000100: e366 813c c17d 9ab9 b0e5 143d fe9e cfbb
00000110: c8c8 90bc a157 b2ba 4355 74bc fd71 f7bb
00000120: fc4a 213d 47c5 053c 87b7 793d bfc9 6b3c
00000130: c652 ffbb 1b5b 27bc 93c5 6abc 764e 0b3c
00000140: 5e22 493b 5385 103c ddaa 99bc f41b 373b
00000150: 1319 b9bb b96c c93c aa9e a43c 6c7b 853c
00000160: f5fb 923c 81e5 65bb a4f2 30bc 823a c9bb
00000170: 77d4 8ebc fdbf 0d3d 16e3 8d3c 1716 343c
00000180: 8cf0 4bbd 0d22 8d3c f09b 0d3d 1056 8dbb
00000190: 7d8a d7bb 5f79 e2bc cb37 2fbc 066c 2c3c
000001a0: 583d c13b 2371 803c ffe0 9c3c c63d 20bc
000001b0: f018 3e3c f4cf 8bbb e5de d03c 3e83 5e3b
000001c0: 638c 963d c5b1 a83c 411a 683b 10a2 c7bb
000001d0: ca19 13bc 0ab8 16bb 99b5 083d a299 f0bb
000001e0: a7fa 223d 7e39 9ebb 4e0a 1c3b c156 8c3c
000001f0: 8c30 be3b 2ce4 fcbb d939 543c 12bd eebb
00000200: 9e80 783a 8f82 2a3d 39e9 00bc 7cfa d3bd
00000210: 06bc 213d dc31 ba3b f12c d23c 4829 2e3d
00000220: 993e 693d cba5 f0bd 64dd 5b3d 23f6 2d3d
00000230: ecdc 6f3d 1ccb 133d bbfb 98bb 3541 2b3c
00000240: 842f bc3d dd24 25bc fb15 af3d 6dba 9d3c
00000250: 14af 083d 16ea e23c dd05 213d 92e8 023d
00000260: 430d 253d b232 7f3c e57c 31b9 521f 003d
00000270: 96af 223b 8e29 223d f77c 3cbe 531b 263b
00000280: 9da1 ce3b 3cdf faba 246c 413d 97fa 3c3d
00000290: 7f3b 2a3c 7c4c cb3c 86bd 893d d821 213d
000002a0: ee0e 683d 049b 193e 3a6b b33d 893e 82bb
000002b0: c79c 4fbc fdd8 9dbb 334b c53d 2eb0 2a3d
000002c0: 0339 103d 6139 323e 1dc3 513d df24 88bc
000002d0: b397 043d 325a 49bc 2280 a0bb 3dc5 debd
000002e0: 33f6 fc3c a799 ad3c 3af7 a83d e7ed 6a3d
000002f0: c14a adbc 06da 52bc 9d34 9d3d c684 873d
00000300: a53c 20bc 2e2e 543a 1bb0 ad3c 331c fb3b
00000310: 65b3 50bd 3b92 32bc 09a0 8c3c 539d 753d
00000320: 91c5 a5bd 9e6c d2bd 6e99 89bc 10c7 2fbc
00000330: d392 473c 7e7c 4f3d c204 303c 830b 35bc
00000340: c0d1 edbb 2683 ebbc ed3d 41bc 43b6 003c
00000350: f101 8f3b dbda 4e3d 8ed1 2ebd 107d cc3b
00000360: bd62 00be 2d2e 71bb a70e 35be 9d78 79bd
00000370: 100e f3bb c7be ebba 3f9a 12bd e2f3 cfbc
00000380: f345 20be fd71 e6bd 45e8 9c3c bcc0 003c
00000390: 7456 873c 4e24 51bc 934e 8abd 78a8 babd
000003a0: 7924 8cbd 0fe8 b1bc e601 d43c 0559 343b
000003b0: 79ca 68bd f4b8 113d 5aec 0ebb a704 adbd
000003c0: 3eb0 0fbc a5b1 f13c fb1a 513c aa1f 8f3c
000003d0: e89d 823c c82b 2ebd 1166 0dbe e021 2a3b
000003e0: b2a3 203d de67 c9bb c6f2 213c 7894 8ebd
000003f0: b2b0 bebd 12d3 de3b 4b64 9cbd 5244 9ebd

update_node_embedding_layer.1.update_layer.weight f4 [64, 128]
-0.010166158 -0.04776861 -0.0015054389 0.14184915 -0.0851032 0.018904693 -0.041060306 -0.042602822
-0.0337985 -0.20793632 -0.051038645 -0.067398116 -0.062786825 -0.06851537 -0.0044742953 0.043109845
0.17884195 0.0024896995 0.13367745 -0.07633665 0.056221843 -0.07678093 -0.03444049 -0.06213907
-0.045476176 0.010020811 -0.0054459637 -0.05206445 0.010063989 0.04885783 -0.0054947315 0.021229824
0.054077145 0.006727519 -0.06305609 0.05902171 -0.004555614 0.060885675 -0.09987713 0.05843358
-0.08870612 0.14213406 0.16632281 0.0056491354 -0.0061289486 0.004195299 0.006046117 0.06975364
-0.048418768 0.24751948 -0.045054037 0.01227435 -0.053791724 0.009065761 0.1281313 -0.026634177
0.072033286 0.0449929 -0.040400635 -0.037639875 0.00096628093 0.007024199 0.004517058 0.21252055
0.021760842 0.09699358 -0.0021038416 0.011577909 -0.009203515 0.009555942 0.0011116526 0.078569144
-0.004878531 0.01308436 0.0038316816 0.013131777 -0.007757715 -0.0019633004 0.008361338 0.0038071608
0.005909395 -0.00515868 0.021592962 0.029122256 0.016500289 -0.015148579 0.021672692 0.015334178
-0.18602031 0.11166755 0.035492487 -0.006039672 0.008486662 0.02464797 0.04576528 0.0015348429
0.00135199 0.0042203777 0.031619806 -0.0060899747 0.03409924 0.010289535 -0.011943453 -0.003214695
0.01885887 -0.0737816 -0.00277249 -0.00015805288 -0.020545585 0.017264111 0.00033510607 0.0063893856
0.01463146 0.00016642094 0.012532683 0.0011994833 -0.0041460698 -0.016105475 0.008067296 -0.017895473
0.008852675 0.026413688 0.00797267 -0.14453016 0.056473956 -0.001975873 0.013821842 0.0073967483
-0.010863466 0.002077533 -0.007028142 -0.04311522 -0.0015131113 -0.010481571 -0.027104763 0.005036917
0.013384057 0.06808204 -0.009582612 -0.019464357 0.0048906514 -0.0063389144 0.008245581 -0.36114815
-0.06138308 0.013382397 -0.05986604 0.010853428 -0.2938566 0.013004829 0.02437559 0.0021804988
-0.015397647 0.0027347475 -0.0062289075 -0.011185308 -0.009916525 -0.31711614 0.016431525 -0.017266382
-0.35475993 0.008303429 -0.0059950966 -0.295324 0.0017040069 -0.27222502 -0.056516223 -0.31291535
-0.009806568 -0.25682637 -0.1349777 -0.010880544 -0.012037602 0.0047711004 -0.23826198 -0.24269456
-0.0022059202 -0.3417647 0.0034059272 0.004584755 -0.016490288 -0.002873488 -0.044517096 0.0231716
-0.21899928 -0.2960415 -0.039185613 -0.03145682 -0.006654196 -0.0036493393 -0.11393803 0.026549885
-0.0030280007 0.043704446 0.02901658 0.030892527 -0.015403688 0.04142173 0.027181428 0.062347773
0.0033971658 0.0005262414 0.0058174026 0.030809283 -0.017583165 -0.017179327 0.0073792757 -0.006449207
0.026696034 0.011551481 0.00013751225 0.020899385 -0.01855244 0.00050664635 0.022649622 0.029566837
-0.031719167 0.084647804 0.02727399 -0.0033140879 0.008994487 0.023193678 0.018020827 0.0052797627
0.018808408 0.0013301374 0.008088259 -0.01421177 0.057806276 0.03172193 -0.00028185573 -0.0059180534
0.008214297 -0.060198266 -0.012178771 -0.009619842 -0.0071991007 0.06179449 0.003163143 -0.12725677
0.0037335341 0.0174145 0.011175519 0.015900323 0.035459105 -0.002770325 0.037255738 -1.4229316e-05
-0.003673406 0.019111983 0.050584715 -0.086184844 0.05637838 0.014062161 0.032929692 0.03498306
00000000: f58f 26bc 05a9 43bd 2652 c5ba e740 113e
00000010: 964a aebd 04de 9a3c da2e 28bd 4c80 2ebd
00000020: 4c70 0abd 42ed 54be e60d 51bd 0608 8abd
00000030: 6196 80bd c951 8cbd 1c9d 92bb f393 303d
00000040: 5822 373e 3a2a 233b bee2 083e 6456 9cbd
00000050: e048 663d 523f 9dbd 7911 0dbd 8a85 7ebd
00000060: 3a45 3abd 542e 243c 0e74 b2bb 8841 55bd
00000070: 6ee3 243c 261f 483d 260d b4bb 2bea ad3c
00000080: ff7f 5d3d 8572 dc3b 8d23 81bd c0c0 713d
00000090: 4347 95bb 4263 793d 618c ccbd 0d58 6f3d
000000a0: 8eab b5bd 978b 113e 8750 2a3e 621c b93b
000000b0: 59d5 c8bb b878 893b 811e c63b ffda 8e3d
000000c0: c252 46bd bf75 7d3e 958a 38bd 5b1a 493c
000000d0: b654 5cbd 8f88 143c da34 033e eb2f dabc
000000e0: 3086 933d 7a4a 383d 237b 25bd 452c 1abd
000000f0: 044e 7d3a 402b e63b d403 943b fd9e 593e
00000100: cb43 b23c 92a4 c63d 9be0 09bb 45b1 3d3c
00000110: 57ca 16bc 8790 1c3c dfb4 913a dce8 a03d
00000120: 16dc 9fbb c95f 563c f31c 7b3b aa26 573c
00000130: 6e34 febb b7aa 00bb fefd 083c 8f81 793b
00000140: 99a3 c13b 250a a9bb b9e3 b03c cc91 ee3c
00000150: 9d2b 873c bf31 78bc ee8a b13c 343c 7b3c
00000160: 1c7c 3ebe f5b1 e43d 9260 113d 71e8 c5bb
00000170: a40b 0b3c 8aea c93c 6074 3b3d c82c c93a
00000180: 4235 b13a 184b 8a3b c583 013d 698e c7bb
00000190: a5ab 0b3d 7095 283c 79ae 43bc a2ad 52bb
000001a0: eb7d 9a3c cf1a 97bd aab2 35bb ffba 25b9
000001b0: 374f a8bc 776d 8d3c 2db1 af39 0d5e d13b
000001c0: cbb8 6f3c 4881 2e39 e255 4d3c fb37 9d3a
000001d0: c1db 87bb a1ef 83bc b12c 043c 8799 92bc
000001e0: cf0a 113c 8561 d83c cd9f 023c b7ff 13be
000001f0: 3c51 673d a67d 01bb 0275 623c 6c60 f23b
00000200: aefc 31bc 3827 083b 544c e6bb 9699 30bd
00000210: 9753 c6ba e5ba 2bbc cf0a debc b90c a53b
00000220: ce48 5b3c 996e 8b3d 6300 1dbc b773 9fbc
00000230: c241 a03b abb6 cfbb 7918 073c 69e8 b8be
00000240: d36c 7bbd d741 5b3c 1836 75bd 94d2 313c
00000250: 5f74 96be 3512 553c 51af c73c b3e6 0e3b
00000260: 6a46 7cbc 7339 333b dd1b ccbb 9542 37bc
00000270: ec78 22bc 0c5d a2be 689b 863c 3a72 8dbc
00000280: 18a3 b5be 1b0b 083c 8472 c4bb b534 97be
00000290: fc58 df3a 1461 8bbe 8e7d 67bd 7136 a0be
000002a0: baab 20bc bf7e 83be 9837 0abe 4f44 32bc
000002b0: 5d39 45bc e456 9c3b f3fa 73be ec84 78be
000002c0: 3391 10bb c8fb aebe fa35 5f3b b63b 963b
000002d0: a416 87bc 2151 3cbb 8f57 36bd 5ed2 bd3c
000002e0: 5941 60be c092 97be 1881 20bd ded8 00bd
000002f0: 710b dabb c129 6fbb 5858 e9bd 257f d93c
00000300: 6c71 46bb 6f03 333d 2eb4 ed3c 5312 fd3c
00000310: c05f 7cbc d5a9 293d 96ab de3c 6160 7f3d
00000320: fca2 5e3b 76f3 093a e99f be3b c063 fc3c
00000330: 920a 90bc a9bb 8cbc dacd f13b df53 d3bb
00000340: a4b1 da3c 6c42 3d3c 2a31 1039 3035 ab3c
00000350: 49fb 97bc 76d0 043a b38b b93c 2736 f23c
00000360: f5eb 01bd d45b ad3d b46d df3c 2b31 59bb
00000370: 9d5d 133c ab00 be3c 6aa0 933c dc01 ad3b
00000380: 1714 9a3c 0158 ae3a 9e84 043c 7cd8 68bc
00000390: 46c6 6c3d dbee 013d 09c6 93b9 3bec c1bb
000003a0: 4295 063c 7592 76bd 7889 47bc 8b9c 1dbc
000003b0: 6fe6 ebbb 381c 7d3d bc4c 4f3b 994f 02be
000003c0: 4fae 743b daa8 8e3c 8619 373c 6541 823c
000003d0: 913d 113d 578e 35bb 7999 183d 72ba 6eb7
000003e0: 87bd 70bb bc90 9c3c eb31 4f3d ae81 b0bd
000003f0: 04ed 663d fa64 663c 49e1 063d 664a 0f3d
