ER_200spin/eco/network/network400000.pth (torch, 238273 bytes, 11 tensors)

node_init_embedding_layer.0.weight f4 [64, 7]
0.027849555 -0.15684849 0.0040962277 0.09749677 0.0070903893 -0.02959262 0.059445623 0.026517542
-0.16611065 0.010047245 0.105587326 -0.00044781785 0.025903057 0.042317905 0.004805033 0.27562684
0.003852509 -0.02798995 0.0057097655 0.052712414 -0.030188538 0.008559732 0.29030022 0.038673006
-0.041216537 0.0007206064 0.052202336 -0.032499894 -0.006149493 -0.0045918226 -0.009854974 -0.011102081
-0.01081875 -0.0028947543 -0.0152177615 -0.011088987 -0.008335982 -5.420468e-05 -0.0026715926 -0.013247419
-0.016190916 -0.0029602533 0.012896508 0.32672668 -0.00014927934 -0.08668578 -0.0011353205 0.02156279
0.01643195 0.034422737 -0.13022308 -0.02123866 0.10872813 -0.002952248 0.04834349 0.034441132
0.030037213 -0.17151569 0.016287444 0.08176638 -0.00036586987 0.00013156653 0.053061694 0.0063352543
0.2967474 0.0062937043 -0.038809594 -0.00043713397 0.055405103 -0.015835574 -0.016389048 0.26525712
0.004001745 -0.016371878 -7.3417235e-05 0.053127073 -0.019031428 -0.013992923 0.29407626 -0.012048711
0.051661402 -0.00041659537 0.051339734 -0.048374116 0.018800672 0.30650336 0.016812293 -0.06545862
-0.00030720164 0.05791603 -0.026965922 0.027702268 -0.19023661 0.011231632 0.0994307 0.01439663
-0.020527394 0.059693873 0.02567617 -0.1870072 0.010353807 0.07850879 0.0036668847 -0.012659541
0.06234269 -0.0017263663 -0.089914896 -0.0238907 0.07721811 -0.0014758295 0.015333045 -0.04234477
0.028740812 -0.14170793 -0.017228115 0.116493754 -0.0028848907 0.02404055 0.053286858 -0.024103193
0.27801585 0.018619386 -0.015441985 -2.6682599e-06 0.053397175 -0.0021745616 0.02929777 -0.18687813
-0.0015972018 0.09037359 0.0011030057 -0.0103164185 0.062344678 -0.024969911 0.2141915 0.024734871
0.012564023 -0.0010220242 0.0363466 -0.0039687217 0.02978931 0.31958145 0.020421298 -0.030933915
0.0009899978 0.06611769 -0.02822383 0.027587147 -0.1934666 0.011904006 0.09023219 0.001615858
-0.00800202 0.054540675 0.02888213 -0.13711385 -0.0064932145 0.07951881 -0.0017626147 -0.0025267173
0.025638739 -0.01152116 -0.15448803 0.013714577 0.06092029 0.008668158 -0.019228576 0.06446358
0.034833547 -0.15473863 -3.6811674e-05 0.11599897 0.00073695293 0.025188444 0.026829796 -0.0055501033
0.28269407 0.019713143 -0.029930104 0.0070252465 0.068689786 -0.03914113 0.018831158 0.3117534
0.021142747 0.03304313 0.0016108763 0.07721216 -0.019247305 -0.001984467 0.0030851387 0.001095844
-0.009433593 -0.0056003085 -0.0043595186 -0.010299535 0.016233424 0.29055682 0.0044399314 -0.04513324
0.007626188 0.060427304 -0.04381683 0.026352432 -0.20657077 0.0063559725 0.07985616 0.0024544753
0.0020782903 0.04018031 0.018312074 -0.18481286 -0.0075344252 -0.043514144 -0.015181913 0.035440024
0.015543264 0.026488446 -0.16878575 0.013168508 0.07325709 0.0060280473 -0.025097659 0.04902336
-0.0024586709 0.010507777 -0.0038842964 -0.01777523 -0.0039956234 -0.008082845 -0.0017797383 0.0003271439
0.11988239 -0.11057176 0.010786855 0.00036006313 0.037455093 -0.12283445 0.006926362 0.2912366
0.012282197 -0.023229454 0.0013369346 0.071125306 -0.043114897 -0.0029958652 0.004468031 -0.011094356
-0.01162292 -0.011126069 -0.0063133347 -0.0016458024 0.022979423 -0.15285102 -0.010397567 0.083408244
00000000: c024 e43c e49c 20be a639 863b 63ac c73d
00000010: 7f56 e83b 396c f2bc 417d 733d 513b d93c
00000020: e918 2abe 339d 243c 2b3e d83d 18c9 eab9
00000030: a632 d43c 8a55 2d3d 8a73 9d3b f61e 8d3e
00000040: 607a 7c3b 2e4b e5bc fc18 bb3b f9e8 573d
00000050: f44d f7bc 1e3e 0c3c 3ba2 943e 9667 1e3d
00000060: acd2 28bd 14e7 3c3a 1ed2 553d 9c1e 05bd
00000070: b081 c9bb 0077 96bb c276 21bc 81e5 35bc
00000080: 2041 31bc ebb5 3dbb eb53 79bc 95ae 35bc
00000090: a593 08bc d559 63b8 e315 2fbb b40b 59bc
000000a0: d0a2 84bc cf00 42bb e04b 533c b848 a73e
000000b0: de87 1cb9 5088 b1bd 09cf 94ba 73a4 b03c
000000c0: 4c9c 863c dbfe 0c3d 3359 05be b3fc adbc
000000d0: dbac de3d 817a 41bb d303 463d 2512 0d3d
000000e0: 9a10 f63c cfa1 2fbe 3f6d 853c 2275 a73d
000000f0: 39d2 bfb9 1ff5 0939 3857 593d f797 cf3b
00000100: 46ef 973e 6b3b ce3b cff6 1ebd 212f e5b9
00000110: 76f0 623d 9bb9 81bc 5342 86bc c8cf 873e
00000120: 1221 833b 511e 86bc 94f7 99b8 c69b 593d
00000130: cce7 9bbc 9342 65bc 2a91 963e f567 45bc
00000140: e89a 533d 7c6a dab9 9d49 523d f023 46bd
00000150: de03 9a3c 02ee 9c3e efb9 893c 2b0f 86bd
00000160: e80f a1b9 5c39 6d3d a3e7 dcbc deef e23c
00000170: 63cd 42be e104 383c 53a2 cb3d d8df 6b3c
00000180: 1129 a8bc 9081 743d d556 d23c d17e 3fbe
00000190: 04a3 293c 37c9 a03d 1e50 703b f769 4fbc
000001a0: 0c5b 7f3d 3e47 e2ba 4d25 b8bd 6eb6 c3bc
000001b0: 8724 9e3d 9f70 c1ba 7437 7b3c b671 2dbd
000001c0: da71 eb3c e21b 11be fa21 8dbc 4794 ee3d
000001d0: 6f10 3dbb b0f0 c43c 5243 5a3d 0f74 c5bc
000001e0: 1858 8e3e af87 983c 6100 7dbc 5b10 33b6
000001f0: ffb6 5a3d 1783 0ebb e001 f03c fb5c 3fbe
00000200: 3359 d1ba ca15 b93d bb92 903a 3206 29bc
00000210: 225d 7f3d b38d ccbc 0455 5b3e c9a0 ca3c
00000220: 55d9 4d3c 71f5 85ba 2ce0 143d 0d0c 82bb
00000230: b608 f43c 2ea0 a33e 914a a73c 1f69 fdbc
00000240: d0c2 813a b668 873d a935 e7bc 71fe e13c
00000250: 1c1c 46be 0509 433c a8cb b83d 33cb d33a
00000260: e81a 03bc 0b66 5f3d 379a ec3c 9367 0cbe
00000270: 08c5 d4bb c2da a23d 8907 e7ba 4897 25bb
00000280: 5508 d23c 3fc3 3cbc 1c32 1ebe 1bb3 603c
00000290: 8e87 793d e404 0e3c 3f85 9dbc 7b05 843d
000002a0: 9fad 0e3d ce73 1ebe 3c66 1ab8 de90 ed3d
000002b0: 1330 413a ff57 ce3c 29ca db3c a4dd b5bb
000002c0: 47bd 903e 757d a13c fa2f f5bc 0a34 e63b
000002d0: 3bad 8c3d 7352 20bd cd43 9a3c 249e 9f3e
000002e0: 8e33 ad3c 3c58 073d 0a24 d33a 6921 9e3d
000002f0: 86ac 9dbc d50d 02bb 0a30 4a3b 6ca2 8f3a
00000300: 5b8f 1abc cb82 b7bb 4bda 8ebb 61bf 28bc
00000310: f5fb 843c ddc3 943e d87c 913b a2dd 38bd
00000320: 1ae5 f93b 9f82 773d 4779 33bd 0ee1 d73c
00000330: 4a87 53be c345 d03b a08b a33d 43db 203b
00000340: ed33 083b 1c94 243d 3403 963c 953f 3dbe
00000350: 57e3 f6bb e33b 32bd 8fbd 78bc 8f29 113d
00000360: 2da9 7e3c 4cfe d83c 2cd6 2cbe bac0 573c
00000370: d007 963d ed86 c53b 9b99 cdbc b8cc 483d
00000380: a721 21bb d028 2c3c ae8f 7ebb 5c9d 91bc
00000390: b8ed 82bb e96d 04bc 1c46 e9ba 8384 ab39
000003a0: e684 f53d 7273 e2bd 59bb 303c dbc6 bc39
000003b0: 836a 193d a190 fbbd 89f6 e23b f71c 953e
000003c0: 453b 493c b24b bebc 153c af3a 25aa 913d
000003d0: 3f99 30bd 4756 44bb 9068 923b 1ac5 35bc
000003e0: 0f6e 3ebc 1e4a 36bc 17e0 cebb f7b7 d7ba
000003f0: 583f bc3c fa84 1cbe 8f5a 2abc f1d1 aa3d

edge_embedding_layer.edge_embedding_NN.weight f4 [63, 8]
0.008546386 0.035884976 0.17598578 -0.004373594 -0.04284548 -0.01935462 0.012781895 -0.020429818
-0.00937594 -0.010774974 -0.004490664 -0.002283106 0.008953054 -0.02221353 -0.015251183 0.008668967
0.009968306 0.030465908 0.14662611 -0.006592602 -0.046918288 -0.0166161 0.023241471 -0.003152609
0.045209706 0.054264896 0.15104152 -0.027067348 -0.04538043 0.00046010726 0.073971994 -0.046251956
-0.015035438 -0.0067404066 0.0153879905 -0.014715848 -0.00982584 -0.0015218513 -0.0013866938 -0.0020847525
-0.010408337 -0.00058907137 0.002471643 -0.004193349 0.0027986444 -0.013592724 0.011577544 0.002690091
-0.020930136 -0.023329396 -0.055328526 0.038783792 0.08385447 0.0059492365 -0.06045976 0.06993851
-0.031598892 -0.0115853455 -0.08008491 0.058809027 0.06395579 0.0046232245 -0.04672221 0.072870284
-0.031190405 -0.042629715 -0.035229657 0.0111140525 0.08031231 -0.0015759892 -0.037270263 0.05053907
-0.023692299 -0.034110118 -0.048932835 0.02523709 0.06189798 0.017120373 -0.04829617 0.08088033
-0.041660536 -0.009970864 -0.06531343 0.04577278 0.06577875 0.009663701 -0.04047658 0.07320095
0.00029067634 -0.0011437915 -0.0016982909 -0.011569535 -0.008384922 -0.019005835 -0.0211451 -0.0027368967
-0.011567388 -0.0064551826 -0.018823156 0.008752213 -0.0028598043 -0.013159215 0.0014766244 -0.0031789066
0.05734661 0.03929102 0.12753014 -0.020734683 -0.036418796 0.0021512397 0.07739807 -0.06198127
-0.034488495 -0.022081506 -0.06942129 0.016259266 0.06490243 0.015670873 -0.03538909 0.06841137
0.07000214 0.06050743 0.11557449 -0.011140883 -0.05705688 0.0011393838 0.08037535 -0.05490208
-0.029423624 -0.024021389 -0.06186702 0.05042976 0.077013575 0.0119499285 -0.040427715 0.059170417
0.037276793 0.027395293 0.15994395 -0.008880731 -0.019608613 -0.01157667 0.051240362 -0.020612359
0.062550336 0.025822166 0.123589106 -0.022196926 -0.016337879 0.0062333643 0.07602426 -0.06299598
-0.019974386 -0.021459976 -0.054451175 0.026453665 0.06645957 0.00065014645 -0.052570105 0.063439585
0.00088710396 -0.00978569 0.0016082281 0.0023986492 -0.0012544036 -0.0001595673 -0.006554208 -0.007984226
-0.02958863 -0.028214667 -0.060420506 0.033819925 0.082543775 0.002434879 -0.036376838 0.071615115
0.06294675 0.07389302 0.12933964 -0.018779945 -0.0148223825 0.0092350235 0.09063095 -0.03896534
-0.0014835857 -0.0010873167 0.0004004063 0.0019544451 -0.017845793 -0.0053972867 -0.0027487199 -0.0038520296
0.07443662 0.054520827 0.13065368 -0.042596407 -0.03871603 0.0059068385 0.069446854 -0.055792376
0.003119959 -0.011327482 0.1989232 -0.08332668 -0.005960691 9.697677e-06 0.031803247 -0.05413453
-0.03960037 -0.018217806 -0.06965709 0.03689212 0.039996985 0.006527976 -0.026025124 0.069537334
0.06240735 0.03854843 0.123154275 -0.031985924 0.018389758 0.006350295 0.07343545 -0.039770346
-0.014819773 -0.014826146 -0.01661776 -0.015271877 -0.007614104 -0.012074424 -0.012945181 -0.010523627
-0.017831894 -0.0308369 -0.032928165 0.04027428 0.06928414 0.009561961 -0.058883753 0.071945265
0.035946257 0.06216266 0.14720334 -0.041011076 -0.042786755 0.00021550819 0.0825849 -0.04142146
0.009011595 -0.010095192 0.22366063 -0.10650039 0.0065603657 0.00050104386 0.028851338 -0.08847994
00000000: 2406 0c3c 20fc 123d 9e35 343e 5e50 8fbb
00000010: be7e 2fbd 948d 9ebc 276b 513c 6f5c a7bc
00000020: 8b9d 19bc 8489 30bc 6c26 93bb 2aa0 15bb
00000030: d5af 123c 26f9 b5bc 19e0 79bc 4808 0e3c
00000040: 1b52 233c a493 f93c 2825 163e c106 d8bb
00000050: 642d 40bd 7d1e 88bc e664 be3c 019c 4ebb
00000060: d02d 393d de44 5e3d a1aa 1a3e 58bc ddbc
00000070: d4e0 39bd 8d3a f139 a17e 973d b172 3dbd
00000080: 3357 76bc a1de dcbb e91d 7c3c bd1a 71bc
00000090: 8ffc 20bc db78 c7ba b9c1 b5ba 58a0 08bb
000000a0: bb87 2abc e96b 1aba 4afb 213b 5c68 89bb
000000b0: 7669 373b 04b4 5ebc bdaf 3d3c 3d4c 303b
000000c0: ad75 abbc 4a1d bfbc 2aa0 62bd c1db 1e3d
000000d0: e4bb ab3d d0f1 c23b a7a4 77bd ec3b 8f3d
000000e0: d76d 01bd 76d0 3dbc 8f03 a4bd bce1 703d
000000f0: 41fb 823d 6b7e 973b ca5f 3fbd 043d 953d
00000100: 0583 ffbc 7f9c 2ebd f94c 10bd b717 363c
00000110: c87a a43d 6c91 ceba b4a8 18bd 0e02 4f3d
00000120: 5a16 c2bc 0db7 0bbd cc6d 48bd 04be ce3c
00000130: bc88 7d3d 0640 8c3c 34d2 45bd 96a4 a53d
00000140: 3da4 2abd d65c 23bc 0cc3 85bd 3d7c 3b3d
00000150: 02b7 863d 8054 1e3c c5ca 25bd 61ea 953d
00000160: eb65 9839 46eb 95ba 3099 deba 268e 3dbc
00000170: e960 09bc 20b2 9bbc 7d38 adbc 825d 33bb
00000180: 2485 3dbc ff85 d3bb 0533 9abc 7165 0f3c
00000190: 8e6b 3bbb c099 57bc 4b8b c13a 3455 50bb
000001a0: 47e4 6a3d 9fef 203d 4397 023e c8db a9bc
000001b0: e02b 15bd d0fb 0c3b e182 9e3d 12e0 7dbd
000001c0: cf43 0dbd 46e4 b4bc c02c 8ebd 2732 853c
000001d0: 91eb 843d 3460 803c 27f4 10bd 431b 8c3d
000001e0: 485d 8f3d a4d6 773d 51b2 ec3d 4088 36bc
000001f0: 7ab4 69bd 6057 953a d59b a43d 01e1 60bd
00000200: d009 f1bc 81c8 c4bc 4668 7dbd 708f 4e3d
00000210: 4bb9 9d3d a2c9 433c 8897 25bd ae5c 723d
00000220: 8daf 183d 186c e03c 59c8 233e 7c80 11bc
00000230: 3ea2 a0bc 13ac 3dbc 6ae1 513d 40db a8bc
00000240: 641a 803d 0289 d33c 491c fd3d 54d6 b5bc
00000250: 04d7 85bc 4041 cc3b 9bb2 9b3d 0904 81bd
00000260: 53a1 a3bc d5cc afbc 3208 5fbd 5bb5 d83c
00000270: f41b 883d 976e 2a3a c053 57bd 9dec 813d
00000280: 8a8c 683a 2954 20bc 2ecb d23a a832 1d3b
00000290: cd6a a4ba 8551 27b9 afc4 d6bb 45d0 02bc
000002a0: db63 f2bc 7222 e7bc 7e7b 77bd c386 0a3d
000002b0: b60c a93d 7e92 1f3b e1ff 14bd f2aa 923d
000002c0: 3aea 803d 3955 973d 9c71 043e 66d8 99bc
000002d0: 94d9 72bc 7f4e 173c b89c b93d 1f9a 1fbd
000002e0: e074 c2ba 4b84 8eba a0ed d139 2616 003b
000002f0: 5731 92bc b9db b0bb de23 34bb 5572 7cbb
00000300: 3a72 983d 3b51 5f3d 14ca 053e 9279 2ebd
00000310: b394 1ebd 278e c13b 273a 8e3d 8c86 64bd
00000320: 3a78 4c3b e796 39bc 86b2 4b3e 2ea7 aabd
00000330: e651 c3bb 35b3 2237 1f44 023d 2bbc 5dbd
00000340: ff33 22bd 823d 95bc 60a8 8ebd 311c 173d
00000350: e1d3 233d a2e8 d53b a432 d5bc 9769 8e3d
00000360: d99e 7f3d f5e4 1d3d 4f38 fc3d ac03 03bd
00000370: 1ea6 963c 2316 d03b 5365 963d 3be6 22bd
00000380: a2ce 72bc 5de9 72bc f821 88bc e536 7abc
00000390: bc7f f9bb ced3 45bc 0618 54bc 4a6b 2cbc
000003a0: 3114 92bc ab9d fcbc afdf 06bd a5f6 243d
000003b0: d8e4 8d3d c5a9 1c3c 1730 71bd 0a58 933d
000003c0: 623c 133d 469e 7e3d 79bc 163e 3bfb 27bd
000003d0: 2a41 2fbd 0afa 6139 4622 a93d 8da9 29bd
000003e0: 5ea5 133c 4e66 25bc 4b07 653e e01c dabd
000003f0: 56f8 d63b 7c58 033a a459 ec3c f934 b5bd

edge_embedding_layer.edge_feature_NN.weight f4 [64, 64]
0.03196826 0.0066823736 0.035293065 0.04909261 0.009925359 0.00821526 -0.011104104 -0.032723665
0.0026442462 -0.010748108 -0.026890412 0.0012039614 -0.005665803 0.06363647 -0.007785993 0.053883176
-0.018109841 0.019544313 0.022846986 0.009569573 0.00048507602 -0.016365042 0.034696456 0.002587881
0.028864948 0.06515553 -0.01447475 0.02157984 -0.0021766124 -0.023526127 0.037927885 0.06567375
-0.013576623 -0.012896269 0.045239322 0.011459838 0.037810028 -0.011805493 -0.02251402 0.054055437
-0.015218497 0.04357436 0.008106009 0.06003051 0.0033934086 -0.014142105 -0.023255678 -0.002245156
0.0020962334 -0.028013647 0.017370982 -0.010358377 0.014530229 0.01297908 -0.022829542 0.011410118
0.05952948 0.047944244 0.0092882775 0.018907169 0.052767262 0.07479776 0.012063682 0.05651343
-0.010757435 -0.008134392 0.0015555887 0.008232492 0.0019207367 0.002163062 0.0075713447 0.013601665
-0.007368058 -0.003595143 -0.007843095 0.00053097215 0.013778844 0.0062424517 0.0074845203 -0.01393854
0.0026482814 0.007712967 0.00808285 -0.00012946085 -0.0091824075 -0.00903409 -0.0045856712 -0.024723053
0.009405366 0.012624277 -0.0036777484 -0.0028761444 0.012500013 -0.017287152 0.005854313 0.004633419
-5.6490684e-05 -0.015611438 -0.010616232 -0.0030209445 -0.021334397 0.004618022 -0.0052528144 0.009123423
0.0043523703 0.012726235 0.0060889255 0.004978729 -0.0024838957 -0.01235016 -0.00058075506 0.016682966
0.013421233 0.0007373087 0.0055199787 0.0034704753 -0.02354301 -0.012233246 0.005811526 -0.018016197
-0.008616842 -0.006729163 -0.005336937 0.00050229934 0.0068217944 -0.0012908315 0.008992918 -0.026182441
-0.012859463 -0.0063525843 0.017054059 -0.030126592 -0.011611266 -0.004056425 0.02107084 0.003585719
0.014358272 0.021329157 0.015977541 0.0022088422 -0.0019165822 -0.024416152 0.008893303 -0.02746945
0.006692709 -0.01077981 -0.0032461865 0.004170491 -0.02420997 0.008915021 -0.002687612 0.0041167918
-0.0137453545 -0.0110746175 0.0092540365 -0.00909331 -0.007525111 0.008636478 -0.0046623955 -0.008352322
0.00984433 0.0046694726 -0.012499018 -0.0027530792 -0.016752819 0.016453544 -0.0056559388 -0.0392856
0.018108979 -0.018927116 -0.0012715197 -0.01151149 -0.0030575085 0.026393894 0.014615512 0.011249505
-0.013233761 0.010662812 -0.0001349812 0.011113654 -0.00795023 0.0015670959 0.0144183645 -0.0011464539
-0.027141176 0.009710082 0.0048289425 0.008923016 -0.023375463 -0.02860226 -0.0024660765 -0.015017441
-0.01394048 -0.006870072 -0.009293741 0.008531291 0.0033435759 -0.008219612 -0.009937564 1.8024335e-06
0.0065187598 -0.0015708433 0.008476569 -0.007357938 -0.0046117115 0.002252608 -0.008796808 -0.0023317866
-0.017442891 0.0060973703 -0.015798636 -0.0050842944 0.0041428367 -0.004616083 -6.412105e-05 -0.0023929016
0.002517064 -0.010286944 -0.0030664708 0.007888776 0.01083421 -0.0011445023 -0.0026926599 -0.0010076426
-0.016303077 0.007156581 0.0010438258 0.00019029636 0.00089925295 -0.0055984505 -0.0056308643 0.0001323514
-0.0054644374 -0.00420371 0.00012495325 -0.00021016278 0.017536044 0.01697999 -0.01351005 0.0057136067
-0.00062793127 -0.00031389037 0.0030395736 -0.013317074 -0.00057330204 0.0054728673 -0.0015698014 -0.0076897168
0.013171347 -0.013533647 -0.00035957596 -0.00062156183 -0.0020496896 -0.0086621335 0.006484415 -0.0048349635
00000000: 26f1 023d d0f7 da3b 768f 103d 5515 493d
00000010: f99d 223c 4c99 063c fded 35bc 4009 06bd
00000020: 174b 2d3b d518 30bc 4849 dcbc 3ece 9d3a
00000030: 33a8 b9bb d653 823d a521 ffbb 9bb4 5c3d
00000040: 175b 94bc 651b a03c 9a29 bb3c b3c9 1c3c
00000050: cd51 fe39 fb0f 86bc df1d 0e3d 7099 293b
00000060: 2f76 ec3c 4370 853d 8027 6dbc 34c8 b03c
00000070: 7fa5 0ebb ddb9 c0bc 455a 1b3d f67f 863d
00000080: 7c70 5ebc df4a 53bc de4c 393d 0bc2 3b3c
00000090: b0de 1a3d d46b 41bc 526f b8bc 3c69 5d3d
000000a0: 0157 79bc 077b 323d 11cf 043c 8de2 753d
000000b0: f363 5e3b 4ab4 67bc b182 bebc 7823 13bb
000000c0: f660 093b e07c e5bc 974d 8e3c 2fb6 29bc
000000d0: 3310 6e3c 35a6 543c 0505 bbbc 81f1 3a3c
000000e0: 2fd5 733d 2f61 443d dc2d 183c 35e3 9a3c
000000f0: 7c22 583d 912f 993d c0a6 453c a07a 673d
00000100: f43f 30bc 1d46 05bc e5e4 cb3a 93e1 063c
00000110: 3bc1 fb3a 29c2 0d3b 0b19 f83b 85d9 5e3c
00000120: c06f f1bb 7e9c 6bbb 5380 00bc f030 0b3a
00000130: a9c0 613c 7b8d cc3b b540 f53b 795e 64bc
00000140: ca8e 2d3b 0fbd fc3b ee6d 043c e2bf 07b9
00000150: cf71 16bc b803 14bc 6643 96bb 0088 cabc
00000160: f718 1a3c 0ed6 4e3c 6106 71bb b27d 3cbb
00000170: dbcc 4c3c c99d 8dbc 89d5 bf3b f0d3 973b
00000180: 69f0 6cb8 1ec7 7fbc b4ef 2dbc 0afb 45bb
00000190: 79c5 aebc c752 973b cd1f acbb 697a 153c
000001a0: 549e 8e3b b381 503c 9c85 c73b 9b24 a33b
000001b0: dbc8 22bb 5358 4abc d03d 18ba b7aa 883c
000001c0: bbe4 5b3c f347 413a f0e0 b43b ea70 633b
000001d0: 45dd c0bc f46d 48bc 9d6e be3b b496 93bc
000001e0: a82d 0dbc 5080 dcbb 79e1 aebb bdac 033a
000001f0: 5c89 df3b 1e31 a9ba 0857 133c 8f7c d6bc
00000200: 7fb0 52bc 5729 d0bb f4b4 8b3c 0bcc f6bc
00000210: 2e3d 3ebc c2eb 84bb c19c ac3c 62fe 6a3b
00000220: f53e 6b3c 7cba ae3c 55e3 823c 39c2 103b
00000230: d435 fbba 6204 c8bc 37b5 113c 9d07 e1bc
00000240: 834e db3b cd9d 30bc f9bd 54bb 9da8 883b
00000250: fd53 c6bc 4f10 123c a622 30bb 27e6 863b
00000260: 3234 61bc 5072 35bc 3e9e 173c 1bfc 14bc
00000270: 3595 f6bb 0480 0d3c 02c7 98bb 2dd8 08bc
00000280: 1d4a 213c 6002 993b aec8 4cbc 016d 34bb
00000290: 353d 89bc 95c9 863c 7455 b9bb f0e9 20bd
000002a0: 4859 943c 0a0d 9bbc 1fa9 a6ba b09a 3cbc
000002b0: 7b60 48bb 0238 d83c e775 6f3c d84f 383c
000002c0: 6bd2 58bc 13b3 2e3c bd89 0db9 0b16 363c
000002d0: ae41 02bc 0367 cd3a 013b 6c3c 9c44 96ba
000002e0: 2c57 debc 0917 1f3c 1b3c 9e3b d731 123c
000002f0: e67d bfbc 494f eabc e69d 21bb b60b 76bc
00000300: 9c66 64bc 571e e1bb c644 18bc d4c6 0b3c
00000310: e51f 5b3b 8dab 06bc 2ad1 22bc 25eb f135
00000320: 529b d53b c1e4 cdba 4fe1 0a3c dc1a f1bb
00000330: d71d 97bb 7ea0 133b 7d20 10bc e3d0 18bb
00000340: 65e4 8ebc 73cc c73b 246c 81bc 279a a6bb
00000350: a2c0 873b 8342 97bb ba78 86b8 3ad2 1cbb
00000360: 54f5 243b 928a 28bc d8f6 48bb ed3f 013c
00000370: f881 313c 2003 96ba 5677 30bb e012 84ba
00000380: 088e 85bc c181 ea3b fbd0 883a 4a8a 4739
00000390: d8bb 6b3a 3573 b7bb 1d83 b8bb cfc7 0a39
000003a0: 060f b3bb 46bf 89bb e205 0339 245f 5cb9
000003b0: c0a7 8f3c 9f19 8b3c 4259 5dbc 3539 bb3b
000003c0: c19b 24ba a791 a4b9 9533 473b db2f 5abc
000003d0: a649 16ba bd55 b33b cbc1 cdba 05fa fbbb
000003e0: a2cc 573c 3bbc 5dbc 7885 bcb9 4ff0 22ba
000003f0: 1654 06bb 9feb 0dbc 377b d43b 9d6e 9ebb

update_node_embedding_layer.0.message_layer.weight f4 [64, 128]
-0.015464559 0.0054439316 -0.014098521 -0.0042191213 -0.01788335 0.011372718 0.0077267084 0.0070061553
-0.0038388595 -0.019097881 0.009512691 -0.01760792 -0.01670236 -0.009147685 0.0068210256 0.0023070637
-0.012245892 -0.0037142823 0.0011652375 0.008414931 -0.011716568 -0.020655544 -0.0077762776 -0.007549125
0.021826953 0.012472328 -0.0046079694 -0.0040685274 -0.0059861867 -0.014712329 -0.008611066 0.015683314
-0.0018858399 0.011377054 0.0037715773 -0.004941903 -0.0030892703 -0.00460002 -0.019085908 -0.009508729
-0.005458042 0.004858546 -0.01575485 -0.011506086 0.003724464 0.009642839 -0.011878734 -6.824607e-06
-0.0099661425 0.013546598 -0.0016762001 -0.0053715273 0.0029478837 0.0048136287 -0.01814366 0.013844441
-0.0072598616 -0.005668449 -0.009187484 -0.0007133213 0.0026156188 0.022402123 0.007948777 -0.0023793257
-0.006287746 -0.00242993 0.01129911 -0.012352881 -0.00015617447 -0.00066107354 -0.01425166 0.008922093
-0.008876933 -0.001967021 -0.0048631737 0.013726681 -0.0043488536 0.0050960365 0.0017414953 0.020401204
-0.0043127085 0.0005067762 -0.0012610718 -0.005253296 -0.006616436 0.0050565116 -0.008505274 0.016852133
0.0029131 0.0011571661 0.0047145206 0.013622425 -0.013529217 -0.013935954 -0.0058008023 0.020228371
0.015418434 -0.018540718 0.013831565 -0.0013197443 6.0506612e-05 -0.0021069173 -0.009187958 0.024446335
0.0023832296 -0.0027400209 0.003726408 0.0046185562 -0.011794901 -0.021006519 0.0072285063 -0.005699761
-0.0059828474 0.01480613 -0.006727138 0.00834494 0.0024302248 0.0017527142 0.0067477897 -0.011304717
0.008548886 0.008198818 -0.007812804 -0.013443079 -0.002821174 0.0016093793 0.007849047 -0.003556656
-0.004239259 -0.0050207903 -0.014091896 0.007560991 -0.0047206795 0.015075879 0.0013639219 -0.017753955
0.007118293 0.019064356 0.0073145726 -0.00059073156 0.0079347445 -0.0014402713 0.0036171505 0.010340788
-0.025975302 0.010314359 0.00070060435 0.010835259 0.007098552 0.007879156 0.011566087 -0.0058833715
-0.002190464 -0.010570919 0.011464581 0.011128925 0.007994938 -0.0152957635 0.011692998 -0.0063146655
-0.00092215446 0.0009228441 -0.0039488524 0.0033308987 -0.010930761 0.002247256 0.014575673 -0.008339884
0.00023099052 0.0038271933 0.008608403 -0.014772932 -0.0037292147 -0.0017629995 0.01631702 -5.2726282e-05
-0.005054553 -0.0008617327 0.01725479 -0.008545536 0.010912622 -0.013000448 0.015138639 0.00086471095
-0.002466547 -0.013250358 0.013816928 -0.01618879 0.0027313642 0.004388452 -0.0012199093 0.0023153871
0.0024982695 -0.00050685543 -0.013244109 -0.007319206 -0.0054970826 0.009282108 0.0020423108 -0.002229603
-0.00088064023 0.0020571456 0.00037802223 -0.012790203 0.013412874 0.004133164 -0.0049870163 -0.004870135
-0.018326238 0.009548369 -0.010924446 -0.0039042672 0.00076708436 0.012532998 0.0007173438 -0.013627831
-0.0021517342 -0.00028872216 -0.0018542539 -0.0090017365 0.009607537 0.0036266444 -0.0056013917 -0.000845954
-0.0011282654 -0.0066306675 -0.0084828185 -0.000115217714 -0.002622033 -0.002339695 -0.008011554 -0.017277014
0.0034263998 -0.013930259 0.004697749 -0.013996529 -0.0075030434 0.0021223337 -0.018486539 -0.011501698
0.0058047846 0.0028039834 -0.0003860734 0.014944711 0.007257845 0.012586262 0.013463961 -0.019465156
-0.0023854286 0.00316342 -0.012974135 0.010560917 -0.0077802017 0.0026403463 0.017365273 -0.005671336
00000000: 105f 7dbc 0263 b23b 7cfd 66bc 8e40 8abb
00000010: 1a80 92bc a354 3a3c 5430 fd3b e493 e53b
00000020: 6095 7bbb 2973 9cbc 1edb 1b3c 7c3e 90bc
00000030: 63d3 88bc 2ce0 15bc e982 df3b 1b32 173b
00000040: fea2 48bc 516b 73bb e2ba 983a c7de 093c
00000050: d9f6 3fbc d135 a9bc 25d0 febb a65e f7bb
00000060: 70ce b23c bc58 4c3c 73fe 96bb 4851 85bb
00000070: c627 c4bb fb0b 71bc 6e15 0dbc 4b7a 803c
00000080: 492e f7ba d366 3a3c 912c 773b b0ef a1bb
00000090: 5b75 4abb c4bb 96bb 0d5a 9cbc 80ca 1bbc
000000a0: 60d9 b2bb 7034 9f3b 5110 81bc 0684 3cbc
000000b0: 2316 743b 00fd 1d3c 069f 42bc eefe e4b6
000000c0: 0849 23bc 8df2 5d3c f1b3 dbba a303 b0bb
000000d0: 4831 413b a5bb 9d3b 03a2 94bc cbd3 623c
000000e0: 22e4 edbb 66be b9bb 1a87 16bc 2ffe 3aba
000000f0: cd6a 2b3b a884 b73c 963b 023c 76ee 1bbb
00000100: 7009 cebb 763f 1fbb e71f 393c bd63 4abc
00000110: c4c2 23b9 e54b 2dba cb7f 69bc f82d 123c
00000120: 8e70 11bc 23e9 00bb 425b 9fbb dfe5 603c
00000130: d480 8ebb a7fc a63b e342 e43a 6d20 a73c
00000140: 9f51 8dbb 2dd9 043a 8c4a a5ba d723 acbb
00000150: b0ce d8bb 18b1 a53b b459 0bbc 7c0d 8a3c
00000160: b5e9 3e3b 0dac 973a 447c 9a3b 9730 5f3c
00000170: a6a9 5dbc a153 64bc a814 bebb f8b5 a53c
00000180: 999d 7c3c b4e2 97bc ca9d 623c 45fb acba
00000190: 7bc8 7d38 3514 0abb 1789 16bc ae43 c83c
000001a0: f52f 1c3b ec91 33bb c036 743b 4257 973b
000001b0: 673f 41bc dd15 acbc 1bdd ec3b 10c5 babb
000001c0: c30b c4bb 6995 723c 536f dcbb 37b9 083c
000001d0: 6844 1f3b 54bb e53a 901c dd3b 6b37 39bc
000001e0: a010 0c3c 5654 063c 4601 00bc 5c40 5cbc
000001f0: 72e3 38bb cff1 d23a 4a99 003c c916 69bb
00000200: 7be9 8abb 7185 a4bb b2e1 66bc 31c2 f73b
00000210: eeaf 9abb d200 773c a0c5 b23a be70 91bc
00000220: 9240 e93b da2c 9c3c 15af ef3b 53db 1aba
00000230: bb00 023c 7cc7 bcba b70d 6d3b 696c 293c
00000240: 28ca d4bc 8ffd 283c c3a8 373a 5f86 313c
00000250: f89a e83b 9317 013c af7f 3d3c 4cc9 c0bb
00000260: e38d 0fbb a631 2dbc f0d5 3b3c 1856 363c
00000270: 33fd 023c 159b 7abc fd93 3f3c 41eb cebb
00000280: bdbc 71ba 05eb 713a 6065 81bb 354b 5a3b
00000290: ef16 33bc b346 133b cece 6e3c 02a4 08bc
000002a0: 0c36 7239 a6d1 7a3b 420a 0d3c 2b0a 72bc
000002b0: d765 74bb 7214 e7ba 45ab 853c 6a26 5db8
000002c0: aaa0 a5bb e7e5 61ba eb59 8d3c 9302 0cbc
000002d0: dbca 323c d5ff 54bc 0e08 783c c5ad 623a
000002e0: cba5 21bb 0818 59bc 6560 623c 5a9e 84bc
000002f0: b000 333b 01cd 8f3b 5de5 9fba c0bd 173b
00000300: 02ba 233b 7ede 04ba d2fd 58bc f3d5 efbb
00000310: df20 b4bb fc13 183c 4ad8 053b 881e 12bb
00000320: c4da 66ba 2dd1 063b 4931 c639 008e 51bc
00000330: acc1 5b3c 7e6f 873b 206a a3bb a795 9fbb
00000340: e820 96bc c370 1c3c 73fc 32bc bcde 7fbb
00000350: 2916 493a 3457 4d3c 210c 3c3a 4447 5fbc
00000360: 1c04 0dbb a25f 97b9 700a f3ba 057c 13bc
00000370: ee68 1d3c ffac 6d3b e18b b7bb 03c3 5dba
00000380: 4ee2 93ba 1246 d9bb 85fb 0abc 0aa1 f1b8
00000390: 6ad6 2bbb 9255 19bb e542 03bc 8688 8dbc
000003a0: 738d 603b be3b 64bc 93ef 993b b351 65bc
000003b0: 17dc f5bb da16 0b3b 1571 97bc 9e71 3cbc
000003c0: 1036 be3b 09c3 373b e569 cab9 a9da 743c
000003d0: 37d3 ed3b 9c36 4e3c f297 5c3c 6475 9fbc
000003e0: da54 1cbb 6151 4f3b 7791 54bc b207 2d3c
000003f0: 10f1 febb a909 2d3b 9e41 8e3c 9dd6 b9bb

update_node_embedding_layer.0.update_layer.weight f4 [64, 128]
0.009543756 0.009074731 0.0038276466 -0.0037783226 0.0074384604 -0.01197225 -0.0026911134 0.0006375918
0.008436895 0.0155008035 -0.0115956105 -0.0016655108 -0.018540952 0.0014347029 -0.000132748 -0.0076978086
0.0141280955 0.0003392273 -0.012204693 -0.003187215 0.002408295 -0.007868984 -0.0076602637 -0.0020443308
-0.00798562 0.002136385 -0.00840353 -0.00067160174 0.0050551775 -0.008247144 0.011111286 -0.0041008363
-0.020259636 -0.034256473 -0.0081584565 0.006280489 0.015079883 0.0017025576 -0.008898506 0.018254315
0.010342431 -0.004385086 0.0021483218 -0.0065551107 -0.0067370045 0.014102951 -0.023013227 0.0050419383
-0.012482056 0.0062970216 -0.0032778825 -0.008649243 -0.010809764 -0.005186557 -0.002514322 0.00034901613
-0.0017554512 -0.010730813 0.0051160166 -0.004734058 0.0015552108 -0.0055700843 0.020409977 0.0023373757
0.012451123 0.0039288118 0.008936819 0.003329992 -0.004792992 -0.004954748 0.0128591955 -0.0017449139
-0.0052532577 0.008569172 0.008071791 -0.0007420336 0.017878186 0.0014427209 -0.004707817 0.003538578
0.016941896 -0.010268385 0.007019186 0.0012135583 0.0097796 -0.011017456 -0.011103634 0.0023699538
-0.007912627 -0.0121657625 0.020972423 0.0167173 0.0010716581 0.016705437 -0.002803989 -0.0019473269
0.004980283 0.012256114 0.0012219709 -0.010433165 -0.015642965 -0.0033740152 -0.011458136 -0.005142337
-0.012459794 0.015344294 -0.013818868 -0.008709588 -0.0015224892 -0.027914243 -0.017210526 -0.0044651767
-0.0037906629 0.002707132 -0.0064067263 -0.009161804 -0.007603146 -0.011715353 -0.007952512 0.0055727307
-0.0022067751 0.007308285 0.02565991 -0.023145216 -0.0069208834 0.0033806015 -0.0005883179 0.015014666
0.021904469 0.009629325 -0.019060822 -0.0028121911 -0.005305494 -0.0054327417 -0.010674287 0.0005560545
0.025604364 -0.019249154 -0.009142642 0.01152787 -0.015747605 0.008514097 0.019632868 -0.03844337
0.017588602 -0.021379739 0.026783112 -0.0050603733 -0.0079712905 0.022141663 0.009410497 0.016737692
0.000654975 -0.028193656 0.0065142517 0.0074918177 -0.02185334 0.01318733 0.052122686 0.011360001
-0.012782433 -0.07440864 -0.03153992 0.016152712 0.036197595 0.032196574 0.0183229 -0.032988686
0.019633258 0.00023607997 0.03450542 0.007594676 -0.002879766 -0.005963952 -0.014480834 -0.010767815
-0.042006746 0.032021854 -0.02033358 -0.050431933 0.062117357 0.016510587 0.009977399 -0.027328115
-0.012889661 0.02039252 -0.015748477 0.009081545 -0.020242823 0.024562722 0.03454714 0.009016806
-0.005231316 0.009569897 0.024548488 0.00059925293 -0.026289685 -0.008274701 0.002824943 0.027253294
0.014347388 -0.0028238972 0.007719295 -0.0007206679 -0.012188375 0.012097649 0.009603593 0.009810503
-0.02273055 0.004406097 -0.018285792 0.00094766385 0.008568254 0.0035980183 0.04740366 -0.008037568
0.040642872 -0.017548367 0.0036106461 0.0046560424 0.007778611 -0.007112568 -0.017961306 0.01880649
0.032832924 -0.0067588245 -0.00030656043 0.0052816467 -0.00047815312 0.012867559 0.0028663268 0.022931805
0.008216908 -0.0049624876 0.02638514 0.011504637 0.02246484 -0.011859655 0.010307461 0.012563
0.003575767 -0.01812115 -0.013637567 0.008569281 0.018358113 -0.0023555704 0.0026790523 0.004193793
0.012693995 0.0123938415 -0.016621757 0.006495467 -0.007150833 -0.008492769 0.020383246 -0.008622526
00000000: 6a5d 1c3c 2eae 143c 41d9 7a3b bc9d 77bb
00000010: 54be f33b 4227 44bc 645d 30bb 1024 273a
00000020: e73a 0a3c 15f7 7d3c 84fb 3dbc 454d daba
00000030: 32e3 97bc a40c bc3a 4532 0bb9 e63d fcbb
00000040: 8779 673c 51da b139 31f6 47bc 98e0 50bb
00000050: 7cd4 1d3b e9ec 00bc f302 fbbb 2efa 05bb
00000060: 1ed6 02bc 9802 0c3b f6ae 09bc 6e0e 30ba
00000070: e7a5 a53b 071f 07bc 1c0c 363c 4f60 86bb
00000080: 89f7 a5bc 8450 0cbd 0cab 05bc 8fcc cd3b
00000090: 9d11 773c 5a28 df3a 0acb 11bc 138a 953c
000000a0: 4d73 293c c4b0 8fbb dcca 0c3b 41cc d6bb
000000b0: 17c2 dcbb 1010 673c 3c86 bcbc d836 a53b
000000c0: 8a81 4cbc 3f57 ce3b bed1 56bb 8eb5 0dbc
000000d0: 701b 31bc fef3 a9bb 53c7 24bb 27fc b639
000000e0: 2b17 e6ba 4bd0 2fbc 42a4 a73b 2820 9bbb
000000f0: 37d8 cb3a 4185 b6bb d332 a73c a82e 193b
00000100: ccff 4b3c 43bd 803b bc6b 123c ff3b 5a3b
00000110: 880e 9dbb 705b a2bb 60af 523c 98b5 e4ba
00000120: 8523 acbb b665 0c3c 8c3f 043c 0885 42ba
00000130: 4675 923c ae19 bd3a 0844 9abb 7de7 673b
00000140: bbc9 8a3c ba3c 28bc 3301 e63b 4210 9f3a
00000150: 9e3a 203c 8f82 34bc 04ec 35bc 3a51 1b3b
00000160: f7a3 01bc e852 47bc 5cce ab3c b8f2 883c
00000170: e176 8c3a d7d9 883c 21c3 37bb 733d ffba
00000180: a431 a33b decd 483c 8a2a a03a deef 2abc
00000190: ad25 80bc 951e 5dbb e8ba 3bbc 0d81 a8bb
000001a0: 2a24 4cbc a266 7b3c 8968 62bc a9b2 0ebc
000001b0: 438e c7ba 69ac e4bc 17fd 8cbc 9e50 92bb
000001c0: c56c 78bb 236a 313b 84ef d1bb 641b 16bc
000001d0: d023 f9bb c0f1 3fbc 414b 02bc 749b b63b
000001e0: 8b9f 10bb 577a ef3b bb34 d23c 099b bdbc
000001f0: 94c8 e2bb 158d 5d3b 5939 1aba 1300 763c
00000200: 0071 b33c 51c4 1d3c 7125 9cbc bd4c 38bb
00000210: b6d9 adbb 2405 b2bb 34e3 2ebc 30c4 113a
00000220: 3ec0 d13c 67b0 9dbc 05cb 15bc 64df 3c3c
00000230: 1f01 81bc b67e 0b3c 1cd5 a03c cc76 1dbd
00000240: f915 903c 9024 afbc 4268 db3c 7dd1 a5bb
00000250: 049a 02bc 6f62 b53c 7c2e 1a3c 7c1d 893c
00000260: a1b2 2b3a 62f6 e6bc 8175 d53b ec7d f53b
00000270: c705 b3bc ac0f 583c 997e 553d 4c1f 3a3c
00000280: 696d 51bc 8f63 98bd 0130 01bd b152 843c
00000290: ee43 143d 8ee0 033d e819 963c 251f 07bd
000002a0: edd5 a03c 3c8c 7739 8e55 0d3d c3dc f83b
000002b0: 75ba 3cbb 416d c3bb 0541 6dbc 7d6b 30bc
000002c0: 440f 2cbd 5929 033d 9c92 a6bc b791 4ebd
000002d0: c56e 7e3d 3641 873c 3f78 233c 36df dfbc
000002e0: 282f 53bc 370e a73c f302 81bc c3ca 143c
000002f0: 47d4 a5bc c337 c93c 4d81 0d3d 3abb 133c
00000300: 766b abbb 0fcb 1c3c e919 c93c 2f17 1d3a
00000310: 775d d7bc 9d92 07bc ae22 393b 4d42 df3c
00000320: 4f11 6b3c 2211 39bb 24f2 fc3b 34eb 3cba
00000330: c0b1 47bc 3835 463c 6358 1d3c 3bbc 203c
00000340: 6b35 babc 0561 903b 16cc 95bc a56c 783a
00000350: dd61 0c3c bbcc 6b3b 572a 423d 01b0 03bc
00000360: 2479 263d 98c1 8fbc 97a0 6c3b b791 983b
00000370: b8e3 fe3b 8b10 e9bb 9723 93bc 1110 9a3c
00000380: d17b 063d 2179 ddbb d8b9 a0b9 aa11 ad3b
00000390: a0b0 fab9 74d2 523c fcd8 3b3b 7bdb bb3c
000003a0: 36a0 063c 5d9c a2bb a625 d83c f27d 3c3c
000003b0: 2f08 b83c 004f 42bc a0e0 283c 0bd5 4d3c
000003c0: 6a57 6a3b ce72 94bc 1a70 5fbc 2b66 0c3c
000003d0: c163 963c ea5f 1abb 0a93 2f3b 166c 893b
000003e0: 79fa 4f3c 8a0f 4b3c 5a2a 88bc edd7 d43b
000003f0: 8951 eabb 4125 0bbc c4fa a63c 7f45 0dbc

update_node_embedding_layer.1.message_layer.weight f4 [64, 128]
-0.0041714935 -0.0010722624 0.017602418 0.09001061 0.01697926 0.0020043908 0.0012520852 0.0015186283
0.009216592 -5.59085e-06 -0.0033928219 0.0036664475 -0.01617805 -0.00058129715 0.003921186 0.043477196
0.09905829 -0.010193697 0.0899521 0.0022266319 0.06774947 0.0059764953 -0.0075630895 -0.013522345
-0.0010133467 0.0039398726 -0.0019471801 -0.0014310345 0.014931803 0.045806058 0.025188142 0.011080561
0.062413488 -0.015994048 0.01893138 0.083752975 0.004077647 0.07211685 0.016027704 0.06559852
-4.8125592e-05 0.08950663 0.10811006 -0.022786455 -0.023190295 -0.01780858 0.0024566026 0.037634492
0.0014228777 0.10134792 -0.0036677849 -0.0021746668 0.015193285 -0.0050331247 0.09132712 0.019939706
0.057484284 0.027168414 -0.0027347975 0.0006107491 0.0093012 -0.007068795 -0.0037870554 -0.011163707
0.025247626 -0.00029466863 -0.0060005477 -0.006336092 -0.014590206 -0.0013606438 -0.014912906 -0.031381134
0.05226359 0.017158864 -0.009369837 0.024988724 0.008034813 -0.007214061 -0.011234388 0.008502593
0.0062419153 0.018160727 -0.018730102 0.0027940245 -0.004000172 -0.0073464555 0.032560565 0.025843844
0.03341369 0.011818168 0.00342227 -0.01084948 -0.020502415 0.04470599 0.02786783 0.017904466
-0.0054315957 0.03041501 0.044641025 -0.004313238 0.006311185 -0.00571311 -0.015191289 0.026838768
0.018798333 0.03128141 0.029082054 -0.009780353 0.024510965 0.014625165 0.036308322 0.01860465
-0.005106564 0.031156925 0.003541604 -0.0060923174 -0.0007820356 0.018348085 0.0472022 -0.005114079
-0.014991638 -0.004828631 0.0023809853 0.03468703 0.019043108 -0.01079276 0.021549495 -0.010519033
0.0011340496 -0.0053812885 -0.007868105 -0.011155387 -0.011953329 0.005682213 -0.0053797835 0.009444169
0.01149055 0.00062602153 0.009626593 0.0040972074 0.018056057 -0.0068175113 -0.004668662 -0.01527761
0.0056900745 -0.010078845 -0.016415287 -0.01733473 -0.012887961 -0.012452426 -0.0029366943 -0.006668515
0.0034032322 0.015576836 -0.00016926562 -0.014053887 0.0024494024 0.009061721 -0.021802826 0.0025338605
-0.0150394505 -0.0019140015 0.011181767 0.0020938045 0.010391913 0.0023920618 0.005528802 0.004317692
0.011143909 0.00785272 0.022463366 -0.0039745844 -0.012822049 -0.004817127 0.0050117024 -0.005784623
0.0062201265 0.0038505478 0.0052083274 -0.016627384 -0.007896602 -0.012290088 -0.012665297 -0.011605505
0.008230262 -0.0056756637 0.018650511 0.0129087195 -0.02115381 -0.012868097 -0.006474532 0.005886434
-0.014632313 0.00075916 -0.01318653 0.0076632737 -0.003966137 -0.0079389475 0.019124582 0.0042111264
0.010306424 0.016158726 -0.009187984 -0.01417671 -0.0047376715 -0.0010549108 0.010699536 -0.008041977
-0.004722763 -0.010214986 0.00015931415 0.0063315365 0.0075001405 -0.0067359847 0.011085779 -0.013647729
0.007960182 -0.003317625 -0.0030951507 0.02042636 -0.006049296 -0.013547497 -0.00454092 0.009905175
-0.0050478606 0.0009641318 0.0069374745 0.008183525 -0.0037348114 -0.018263169 0.0032763495 0.0016098722
-0.0036163118 -0.031363633 0.014294869 0.002751888 0.010938252 0.01255181 -0.0032497658 -0.016418066
-0.005513021 0.020063728 0.01276278 0.017471153 -0.008880259 -0.0039106915 -0.017371736 0.0064778645
0.01183609 -0.006146415 0.009884542 -0.005949149 -0.0131192105 0.009663251 0.0018005051 -0.0013804183
00000000: 06b1 88bb 288b 8cba f232 903c 7c57 b83d
00000010: 1718 8b3c 195c 033b 021d a43a b60c c73a
00000020: 3001 173c 0999 bbb6 1b5a 5ebb c848 703b
00000030: d487 84bc 3162 18ba 4b7d 803b 2515 323d
00000040: 13df ca3d 7703 27bc ce38 b83d afec 113b
00000050: 3cc0 8a3d 7ad6 c33b cbd3 f7bb d38c 5dbc
00000060: 46d2 84ba 0c1a 813b 8638 ffba 8d91 bbba
00000070: 85a4 743c 229f 3b3d 5d57 ce3c 3e8b 353c
00000080: 49a5 7f3d f305 83bc fb15 9b3c ae86 ab3d
00000090: c89d 853b 00b2 933d 884c 833c 8458 863d
000000a0: 76da 49b8 414f b73d cf68 dd3d a9aa babc
000000b0: 93f9 bdbc 4de3 91bc f4fe 203b a026 1a3d
000000c0: da7f ba3a 808f cf3d 385f 70bb db84 0ebb
000000d0: 42ed 783c e9ec a4bb b709 bb3d 9858 a33c
000000e0: a474 6b3d 4b90 de3c 4a3a 33bb ae1a 203a
000000f0: 0f64 183c 5aa1 e7bb 3f30 78bb fbe7 36bc
00000100: 1cd4 ce3c c17d 9ab9 3ea0 c4bb fe9e cfbb
00000110: c20b 6fbc a157 b2ba 4355 74bc 8189 00bd
00000120: 5912 563d bf90 8c3c f283 19bc 27b5 cc3c
00000130: 73a4 033c ee63 ecbb 7010 38bc 764e 0b3c
00000140: fb88 cc3b cec5 943c df6f 99bc f41b 373b
00000150: e013 83bb 89ba f0bb 3a5e 053d 78b6 d33c
00000160: cbdc 083d fda0 413c 2a48 603b 04c2 31bc
00000170: aef4 a7bc a11d 373d 134b e43c 63ac 923c
00000180: 87fb b1bb e628 f93c 82d9 363d 1056 8dbb
00000190: 0fce ce3b 0a35 bbbb e2e4 78bc fadc db3c
000001a0: f6fe 993c f020 003d 7d3d ee3c c63d 20bc
000001b0: 38cb c83c 639e 6f3c 09b8 143d c768 983c
000001c0: f754 a7bb cf3c ff3c 411a 683b 10a2 c7bb
000001d0: 8501 4dba b94e 963c 1857 413d 0194 a7bb
000001e0: 7d9f 75bc 7e39 9ebb 4e0a 1c3b fd13 0e3d
000001f0: 4b00 9c3c 1ed4 30bc 9188 b03c 0658 2cbc
00000200: 64a4 943a 8555 b0bb 39e9 00bc 16c5 36bc
00000210: e5d7 43bc dc31 ba3b e548 b0bb b7bb 1a3c
00000220: dc42 3c3c 981b 243a dcb8 1d3c de41 863b
00000230: 4cea 933c 6e65 dfbb 93fb 98bb f14e 7abc
00000240: ce73 ba3b bd21 25bc 5a79 86bc 9001 8ebc
00000250: 0728 53bc 4305 4cbc 8e75 40bb 8f83 dabb
00000260: c308 5f3b fc35 7f3c e57c 31b9 4642 66bc
00000270: 2786 203b 9d77 143c d79b b2bc 200f 263b
00000280: 0768 76bc 3cdf faba bb33 373c 3638 093b
00000290: d842 2a3c 23c4 1c3b f42a b53b 6d7b 8d3b
000002a0: f194 363c b2a8 003c 1805 b83c 3b3d 82bb
000002b0: 9213 52bc fdd8 9dbb 3539 a43b ef8c bdbb
000002c0: 34d2 cb3b 7959 7c3b 9eaa aa3b 2736 88bc
000002d0: c060 01bc 5e5c 49bc 1b82 4fbc 0425 3ebc
000002e0: 39d8 063c ebfa b9bb f5c8 983c 187f 533c
000002f0: c14a adbc b6d4 52bc 5028 d4bb fde2 c03b
00000300: 5ebc 6fbc 5d02 473a 510c 58bc 331c fb3b
00000310: 5ef6 81bb 5c12 02bc 28ab 9c3c 7dfd 893b
00000320: 47dc 283c 4e5f 843c 3389 16bc 6e45 68bc
00000330: 783e 9bbb ef44 8aba 1b4d 2f3c 7fc2 03bc
00000340: 68c1 9abb c25c 27bc 910d 2739 c778 cf3b
00000350: bdc3 f53b 89b9 dcbb 21a1 353c b99a 5fbc
00000360: 6c6b 023c 836c 59bb 03d8 4abb 2f55 a73c
00000370: 2c39 c6bb 52f6 5dbc ffcb 94bb 5149 223c
00000380: 8668 a5bb cabd 7c3a c153 e33b 3114 063c
00000390: bdc3 74bb a49c 95bc 06b8 563b 5902 d33a
000003a0: a5ff 6cbb 2777 00bd 0735 6a3c 0559 343b
000003b0: 5b36 333c 1ba6 4d3c 06fa 54bb 2e7f 86bc
000003c0: 92a6 b4bb b05c a43c fb1a 513c aa1f 8f3c
000003d0: 817e 11bc 4225 80bb 2c4f 8ebc 4444 d43b
000003e0: 29ec 413c de67 c9bb c6f2 213c 14f1 c2bb
000003f0: f5f1 56bc 9d52 1e3c edfe eb3a 27ef b4ba

update_node_embedding_layer.1.update_layer.weight f4 [64, 128]
-0.012114624 -0.03044054 -0.0015054389 0.08260603 -0.05302284 0.018904693 -0.014545159 -0.04065602
-0.022491246 -0.0064559556 -0.032971792 -0.049715735 -0.043841705 -0.020191457 -0.003667641 0.04861401
0.10497591 0.0023484598 0.06723826 -0.046506256 0.062285192 -0.053573087 -0.023795618 -0.038461965
-0.039263144 0.010020811 -0.0052979374 -0.03307263 0.010147714 0.05536007 -0.0028927363 0.02122933
0.05995657 0.006727519 -0.046195976 0.06596228 -0.004555614 0.067082345 -0.042618297 0.068398796
-0.016701078 0.08954344 0.08158321 0.005219599 -0.0060577076 0.004195299 0.010841141 0.07875727
-0.03765662 0.10447357 -0.027409628 0.0121902125 -0.04508832 0.009042375 0.064685695 -0.025778195
0.07580388 0.05285922 -0.03143861 -0.038914096 0.0020195157 0.0063790046 -0.028706454 0.011208447
0.034509942 -0.0024407147 0.011669701 0.018738914 -0.009179382 0.021922896 0.012453044 0.0010311854
-0.004878531 0.022158956 0.0037753375 0.021568492 -0.009954916 -0.0023550396 0.008362155 0.007005113
0.026779464 -0.005143717 0.030282013 0.040216003 0.021453712 -0.01514806 0.029833334 0.021652814
0.0017523534 0.018517062 0.045242723 -0.0072828624 0.008922714 0.035129163 0.00022590571 0.0015373419
0.014084219 0.0042203777 0.04228018 -0.005934745 0.041167248 0.017480437 -0.011877797 -0.003214695
0.028291589 0.008122471 -0.0027668688 -0.000161953 -0.017352844 0.016992727 0.00033510607 0.03968418
-0.0029173677 0.011029935 0.012532683 0.010172983 0.005184927 -0.012952006 0.017821535 -0.01596352
0.012610101 0.035387866 0.016799448 -0.019537855 0.009101708 -0.001975873 0.027366247 0.020613743
-0.009917114 0.00755813 -0.007028142 -0.011567565 0.013172555 -0.010481571 0.0057892697 0.01450442
0.029103078 0.0020722745 -0.004565252 0.004202708 0.0101378 -0.0014107751 0.008054286 0.0040424117
-0.018208988 0.013382397 0.008671044 0.019418681 -0.024683623 0.020465793 0.030109564 0.008459546
-0.006968351 0.003477857 -0.0062289075 -0.00035790334 -0.009894227 -0.008967454 0.031183042 -0.017294815
-0.0049643526 0.008303429 0.017119868 0.014028771 0.0016754795 -0.0042079925 -0.011186442 -0.028721018
0.02380097 -0.003994258 -0.044403728 -0.010869197 -0.012317481 0.0047711004 -0.0008635726 -0.008251941
0.00786164 -0.033109438 0.0017237565 0.004584755 0.027736465 -0.002873488 -0.00921559 0.010876284
0.011167191 0.010676703 0.02528424 0.008422311 -0.0066668084 -0.0036493393 0.0040010912 0.0039967946
-0.014041226 -0.015025794 0.008545493 0.0021462506 -0.015368342 0.016061032 0.016208773 2.303644e-05
0.0033971658 -0.011389165 0.010329363 0.012867277 -0.017583165 -0.01423878 0.0073705576 -0.01057403
0.0173342 0.011650566 -0.009714673 0.011073969 -0.0018069709 0.00031776825 -0.004263603 -0.0049553276
-0.0100294445 0.009910166 0.009077229 -0.004126412 0.008346813 0.016004931 0.0020219889 0.005236138
0.005121884 0.0013295953 -0.005781659 -0.012191645 0.022095878 0.009377757 -0.0013936004 -0.0059180534
-0.0052514495 -0.018097261 -0.012155366 -0.009617434 -0.006176822 0.005738785 0.0031961028 -0.032940224
-0.002027941 -4.2545157e-06 0.011175519 0.0032823153 0.018462012 -0.002770325 0.015638107 0.0057712477
-0.0028552646 -0.0005400145 0.026844632 -0.0013815203 -0.0076689315 0.014062161 0.018017113 0.019217068
00000000: 6a7c 46bc 705e f9bc 2652 c5ba 5a2d a93d
00000010: 7a2e 59bd 04de 9a3c d24e 6ebc ed86 26bd
00000020: 903f b8bc 7b8c d3bb 6e0d 07bd baa2 4bbd
00000030: 5c93 33bd 8e68 a5bc ce5c 70bb 7c1f 473d
00000040: 9cfd d63d 9ee8 193b 36b4 893d 587d 3ebd
00000050: c21e 7f3d 746f 5bbd 07ef c2bc 4b8a 1dbd
00000060: 64d2 20bd 542e 243c 529a adbb 2b77 07bd
00000070: 9942 263c 3ec1 623d 1094 3dbb 22e9 ad3c
00000080: 0595 753d 8572 dc3b fe37 3dbd 3b17 873d
00000090: 4347 95bb 7862 893d 8690 2ebd ab14 8c3d
000000a0: b3d0 88bc 8d62 b73d 1915 a73d 2c09 ab3b
000000b0: bc7f c6bb b878 893b 0b9f 313c 7e4b a13d
000000c0: d43d 1abd 3df6 d53d 288a e0bc 75b9 473c
000000d0: 88ae 38bd 7826 143c ef79 843d cb2c d3bc
000000e0: 113f 9b3d e982 583d c6c5 00bd 6364 1fbd
000000f0: da59 043b f806 d13b cc29 ebbc a2a3 373c
00000100: 4c5a 0d3d 66f4 1fbb 4632 3f3c 5a82 993c
00000110: 1e65 16bc a597 b33c da07 4c3c d728 873a
00000120: 16dc 9fbb b386 b53c a76b 773b 68b0 b03c
00000130: f219 23bc 0257 1abb 6c01 093c 268b e53b
00000140: 9b60 db3c a08c a8bb fc11 f83c 89b9 243d
00000150: b2bf af3c 922f 78bc 0965 f43c 3e61 b13c
00000160: 39af e53a 18b1 973c 6f50 393d 14a5 eebb
00000170: 9330 123c 99e3 0f3d 1ae1 6c39 a280 c93a
00000180: 7fc1 663c 184b 8a3b fb2d 2d3d 4078 c2bb
00000190: fd9e 283d 2233 8f3c 179b 42bc a2ad 52bb
000001a0: c3c3 e73c 1d14 053c 5b54 35bb edd1 29b9
000001b0: 8d27 8ebc 5534 8b3c 2db1 af39 e18b 223d
000001c0: 4f31 3fbb e7b6 343c e255 4d3c 95ac 263c
000001d0: 52e6 a93b a734 54bc 78fe 913c eec5 82bc
000001e0: 999a 4e3c def2 103d ff9e 893c da0d a0bc
000001f0: 551f 153c a67d 01bb 2e2f e03c 27de a83c
00000200: 647b 22bc 31aa f73b 544c e6bb e285 3dbc
00000210: b3d1 573c e5ba 2bbc eab3 bd3b f2a3 6d3c
00000220: 9469 ee3c ffce 073b 1c98 95bb dfb6 893b
00000230: 0419 263c c2e9 b8ba 20f6 033c 3576 843b
00000240: 042b 95bc d741 5b3c ff10 0e3c ed13 9f3c
00000250: 4f35 cabc e1a7 a73c 55a8 f63c e899 0a3c
00000260: c456 e4bb c2ec 633b dd1b ccbb f9a4 bbb9
00000270: 651b 22bc 3aec 12bc 9473 ff3c dbad 8dbc
00000280: 02ac a2bb 1b0b 083c f73e 8c3c eed8 653c
00000290: c39b db3a 33e3 89bb 5747 37bc 5748 ebbc
000002a0: 40fa c23c 44e2 82bb afe0 35bd b714 32bc
000002b0: 43cf 49bc e456 9c3b 6061 62ba 2633 07bc
000002c0: 1cce 003c c39d 07bd acef e13a b63b 963b
000002d0: 9537 e33c 2151 3cbb fcfc 16bc 7132 323c
000002e0: 98f6 363c 57ed 2e3c e520 cf3c bcfd 093c
000002f0: 3e75 dabb c129 6fbb 961b 833b 8bf7 823b
00000300: 2c0d 66bc bf2e 76bc 6502 0c3c 1ca8 0c3b
00000310: 80cb 7bbc 6d92 833c 43c8 843c 613e c137
00000320: fca2 5e3b 9f99 3abc 7d3c 293c 45d1 523c
00000330: 920a 90bc c649 69bc b884 f13b b23e 2dbc
00000340: 7400 8e3c 04e2 3e3c 4b2a 1fbc 986f 353c
00000350: e2d7 ecba 229a a639 b2b5 8bbb 4d60 a2bb
00000360: 8a52 24bc 405e 223c a8b8 143c da36 87bb
00000370: 12c1 083c c61c 833c 5883 043b e993 ab3b
00000380: 7ad5 a73b d145 ae3a 1274 bdbb 77bf 47bc
00000390: 6a02 b53c 2aa5 193c 78a9 b6ba 3bec c1bb
000003a0: 5a14 acbb b540 94bc 4d27 47bc 7192 1dbc
000003b0: f066 cabb 6b0c bc3b b575 513b 54ec 06bd
000003c0: 34e7 04bb 03c2 8eb6 8619 373c 1d1c 573b
000003d0: a53d 973c 578e 35bb 7d1b 803c bc1c bd3b
000003e0: 641f 3bbb c28f 0dba 46e9 db3c 2114 b5ba
000003f0: a94b fbbb fa64 663c a098 933c 1d6d 9d3c
